…
I0309 16:06:09.722363  2893 caffe.cpp:270] GPU device name: GeForce GTX 1080 Ti
I0309 16:06:10.056468  2893 net.cpp:51] Initializing net from parameters: 
state {
  phase: TEST
  level: 0
  stage: ""
}
layer {
  name: "data"
  type: "ImageData"
  top: "data"
  top: "label"
  include {
    phase: TEST
  }
  transform_param {
    scale: 0.008
    mirror: false
    crop_size: 224
    mean_value: 104
    mean_value: 117
    mean_value: 123
  }
  image_data_param {
    source: "/home/vip/dataset/imagenet/ILSVRC2012_val_256xN_list.txt"
    batch_size: 100
    shuffle: false
  }
}
layer {
  name: "conv1"
  type: "Convolution"
  bottom: "data"
  top: "conv1"
  convolution_param {
    num_output: 32
    bias_term: false
    pad: 1
    kernel_size: 3
    stride: 2
  }
}
layer {
  name: "conv1/bn"
  type: "BatchNorm"
  bottom: "conv1"
  top: "conv1/bn"
  batch_norm_param {
    moving_average_fraction: 0.9
    eps: 0.0001
  }
}
layer {
  name: "conv1/bn_scale"
  type: "Scale"
  bottom: "conv1/bn"
  top: "conv1/bn"
  scale_param {
    bias_term: true
  }
}
layer {
  name: "conv1/relu"
  type: "ReLU"
  bottom: "conv1/bn"
  top: "conv1/bn"
}
layer {
  name: "conv2"
  type: "Convolution"
  bottom: "conv1/bn"
  top: "conv2"
  convolution_param {
    num_output: 64
    bias_term: false
    pad: 1
    kernel_size: 3
    stride: 2
  }
}
layer {
  name: "conv2/bn"
  type: "BatchNorm"
  bottom: "conv2"
  top: "conv2/bn"
  batch_norm_param {
    moving_average_fraction: 0.9
    eps: 0.0001
  }
}
layer {
  name: "conv2/bn_scale"
  type: "Scale"
  bottom: "conv2/bn"
  top: "conv2/bn"
  scale_param {
    bias_term: true
  }
}
layer {
  name: "conv2/relu"
  type: "ReLU"
  bottom: "conv2/bn"
  top: "conv2/bn"
}
layer {
  name: "res2.1.conv1"
  type: "Convolution"
  bottom: "conv2/bn"
  top: "res2.1.conv1"
  convolution_param {
    num_output: 64
    bias_term: false
    pad: 1
    kernel_size: 3
    stride: 2
  }
}
layer {
  name: "res2.1.conv1/bn"
  type: "BatchNorm"
  bottom: "res2.1.conv1"
  top: "res2.1.conv1/bn"
  batch_norm_param {
    moving_average_fraction: 0.9
    eps: 0.0001
  }
}
layer {
  name: "res2.1.conv1/bn_scale"
  type: "Scale"
  bottom: "res2.1.conv1/bn"
  top: "res2.1.conv1/bn"
  scale_param {
    bias_term: true
  }
}
layer {
  name: "res2.1.conv1/relu"
  type: "ReLU"
  bottom: "res2.1.conv1/bn"
  top: "res2.1.conv1/bn"
}
layer {
  name: "res2.1.conv2"
  type: "Convolution"
  bottom: "res2.1.conv1/bn"
  top: "res2.1.conv2"
  convolution_param {
    num_output: 64
    bias_term: false
    pad: 1
    kernel_size: 3
    stride: 1
  }
}
layer {
  name: "res2.1.conv2/bn"
  type: "BatchNorm"
  bottom: "res2.1.conv2"
  top: "res2.1.conv2/bn"
  batch_norm_param {
    moving_average_fraction: 0.9
    eps: 0.0001
  }
}
layer {
  name: "res2.1.conv2/bn_scale"
  type: "Scale"
  bottom: "res2.1.conv2/bn"
  top: "res2.1.conv2/bn"
  scale_param {
    bias_term: true
  }
}
layer {
  name: "res2.1.skipConv"
  type: "Convolution"
  bottom: "conv2/bn"
  top: "res2.1.skipConv"
  convolution_param {
    num_output: 64
    bias_term: false
    pad: 0
    kernel_size: 1
    stride: 2
  }
}
layer {
  name: "res2.1skipConv/bn"
  type: "BatchNorm"
  bottom: "res2.1.skipConv"
  top: "res2.1.skipConv/bn"
  batch_norm_param {
    moving_average_fraction: 0.9
    eps: 0.0001
  }
}
layer {
  name: "res2.1skipConv/bn_scale"
  type: "Scale"
  bottom: "res2.1.skipConv/bn"
  top: "res2.1.skipConv/bn"
  scale_param {
    bias_term: true
  }
}
layer {
  name: "res2.1.sum"
  type: "Eltwise"
  bottom: "res2.1.conv2/bn"
  bottom: "res2.1.skipConv/bn"
  top: "res2.1.sum"
  eltwise_param {
    operation: SUM
  }
}
layer {
  name: "res2.1.relu"
  type: "ReLU"
  bottom: "res2.1.sum"
  top: "res2.1.sum"
}
layer {
  name: "res2.2.conv1"
  type: "Convolution"
  bottom: "res2.1.sum"
  top: "res2.2.conv1"
  convolution_param {
    num_output: 64
    bias_term: false
    pad: 1
    kernel_size: 3
    stride: 1
  }
}
layer {
  name: "res2.2.conv1/bn"
  type: "BatchNorm"
  bottom: "res2.2.conv1"
  top: "res2.2.conv1/bn"
  batch_norm_param {
    moving_average_fraction: 0.9
    eps: 0.0001
  }
}
layer {
  name: "res2.2.conv1/bn_scale"
  type: "Scale"
  bottom: "res2.2.conv1/bn"
  top: "res2.2.conv1/bn"
  scale_param {
    bias_term: true
  }
}
layer {
  name: "res2.2.conv1/relu"
  type: "ReLU"
  bottom: "res2.2.conv1/bn"
  top: "res2.2.conv1/bn"
}
layer {
  name: "res2.2.conv2"
  type: "Convolution"
  bottom: "res2.2.conv1/bn"
  top: "res2.2.conv2"
  convolution_param {
    num_output: 64
    bias_term: false
    pad: 1
    kernel_size: 3
    stride: 1
  }
}
layer {
  name: "res2.2.conv2/bn"
  type: "BatchNorm"
  bottom: "res2.2.conv2"
  top: "res2.2.conv2/bn"
  batch_norm_param {
    moving_average_fraction: 0.9
    eps: 0.0001
  }
}
layer {
  name: "res2.2.conv2/bn_scale"
  type: "Scale"
  bottom: "res2.2.conv2/bn"
  top: "res2.2.conv2/bn"
  scale_param {
    bias_term: true
  }
}
layer {
  name: "res2.2.sum"
  type: "Eltwise"
  bottom: "res2.2.conv2/bn"
  bottom: "res2.1.sum"
  top: "res2.2.sum"
  eltwise_param {
    operation: SUM
  }
}
layer {
  name: "res2.2.relu"
  type: "ReLU"
  bottom: "res2.2.sum"
  top: "res2.2.sum"
}
layer {
  name: "res2.3.conv1"
  type: "Convolution"
  bottom: "res2.2.sum"
  top: "res2.3.conv1"
  convolution_param {
    num_output: 128
    bias_term: false
    pad: 1
    kernel_size: 3
    stride: 1
  }
}
layer {
  name: "res2.3.conv1/bn"
  type: "BatchNorm"
  bottom: "res2.3.conv1"
  top: "res2.3.conv1/bn"
  batch_norm_param {
    moving_average_fraction: 0.9
    eps: 0.0001
  }
}
layer {
  name: "res2.3.conv1/bn_scale"
  type: "Scale"
  bottom: "res2.3.conv1/bn"
  top: "res2.3.conv1/bn"
  scale_param {
    bias_term: true
  }
}
layer {
  name: "res2.3.conv1/relu"
  type: "ReLU"
  bottom: "res2.3.conv1/bn"
  top: "res2.3.conv1/bn"
}
layer {
  name: "res2.3.conv2"
  type: "Convolution"
  bottom: "res2.3.conv1/bn"
  top: "res2.3.conv2"
  convolution_param {
    num_output: 128
    bias_term: false
    pad: 1
    kernel_size: 3
    stride: 1
  }
}
layer {
  name: "res2.3.conv2/bn"
  type: "BatchNorm"
  bottom: "res2.3.conv2"
  top: "res2.3.conv2/bn"
  batch_norm_param {
    moving_average_fraction: 0.9
    eps: 0.0001
  }
}
layer {
  name: "res2.3.conv2/bn_scale"
  type: "Scale"
  bottom: "res2.3.conv2/bn"
  top: "res2.3.conv2/bn"
  scale_param {
    bias_term: true
  }
}
layer {
  name: "res2.3.skipConv"
  type: "Convolution"
  bottom: "res2.2.sum"
  top: "res2.3.skipConv"
  convolution_param {
    num_output: 128
    bias_term: false
    pad: 0
    kernel_size: 1
    stride: 1
  }
}
layer {
  name: "res2.3skipConv/bn"
  type: "BatchNorm"
  bottom: "res2.3.skipConv"
  top: "res2.3.skipConv/bn"
  batch_norm_param {
    moving_average_fraction: 0.9
    eps: 0.0001
  }
}
layer {
  name: "res2.3skipConv/bn_scale"
  type: "Scale"
  bottom: "res2.3.skipConv/bn"
  top: "res2.3.skipConv/bn"
  scale_param {
    bias_term: true
  }
}
layer {
  name: "res2.3.sum"
  type: "Eltwise"
  bottom: "res2.3.conv2/bn"
  bottom: "res2.3.skipConv/bn"
  top: "res2.3.sum"
  eltwise_param {
    operation: SUM
  }
}
layer {
  name: "res2.3.relu"
  type: "ReLU"
  bottom: "res2.3.sum"
  top: "res2.3.sum"
}
layer {
  name: "res3.1.conv1"
  type: "Convolution"
  bottom: "res2.3.sum"
  top: "res3.1.conv1"
  convolution_param {
    num_output: 128
    bias_term: false
    pad: 0
    kernel_size: 1
    stride: 1
  }
}
layer {
  name: "res3.1.conv1/bn"
  type: "BatchNorm"
  bottom: "res3.1.conv1"
  top: "res3.1.conv1/bn"
  batch_norm_param {
    moving_average_fraction: 0.9
    eps: 0.0001
  }
}
layer {
  name: "res3.1.conv1/bn_scale"
  type: "Scale"
  bottom: "res3.1.conv1/bn"
  top: "res3.1.conv1/bn"
  scale_param {
    bias_term: true
  }
}
layer {
  name: "res3.1.conv1/relu"
  type: "ReLU"
  bottom: "res3.1.conv1/bn"
  top: "res3.1.conv1/bn"
}
layer {
  name: "res3.1.conv2"
  type: "Convolution"
  bottom: "res3.1.conv1/bn"
  top: "res3.1.conv2"
  convolution_param {
    num_output: 128
    bias_term: false
    pad: 1
    kernel_size: 3
    stride: 2
  }
}
layer {
  name: "res3.1.conv2/bn"
  type: "BatchNorm"
  bottom: "res3.1.conv2"
  top: "res3.1.conv2/bn"
  batch_norm_param {
    moving_average_fraction: 0.9
    eps: 0.0001
  }
}
layer {
  name: "res3.1.conv2/bn_scale"
  type: "Scale"
  bottom: "res3.1.conv2/bn"
  top: "res3.1.conv2/bn"
  scale_param {
    bias_term: true
  }
}
layer {
  name: "res3.1.conv2/relu"
  type: "ReLU"
  bottom: "res3.1.conv2/bn"
  top: "res3.1.conv2/bn"
}
layer {
  name: "res3.1.conv3"
  type: "Convolution"
  bottom: "res3.1.conv2/bn"
  top: "res3.1.conv3"
  convolution_param {
    num_output: 512
    bias_term: false
    pad: 0
    kernel_size: 1
    stride: 1
  }
}
layer {
  name: "res3.1.conv3/bn"
  type: "BatchNorm"
  bottom: "res3.1.conv3"
  top: "res3.1.conv3/bn"
  batch_norm_param {
    moving_average_fraction: 0.9
    eps: 0.0001
  }
}
layer {
  name: "res3.1.conv3/bn_scale"
  type: "Scale"
  bottom: "res3.1.conv3/bn"
  top: "res3.1.conv3/bn"
  scale_param {
    bias_term: true
  }
}
layer {
  name: "res3.1.skipConv"
  type: "Convolution"
  bottom: "res2.3.sum"
  top: "res3.1.skipConv"
  convolution_param {
    num_output: 512
    bias_term: false
    pad: 0
    kernel_size: 1
    stride: 2
  }
}
layer {
  name: "res3.1skipConv/bn"
  type: "BatchNorm"
  bottom: "res3.1.skipConv"
  top: "res3.1.skipConv/bn"
  batch_norm_param {
    moving_average_fraction: 0.9
    eps: 0.0001
  }
}
layer {
  name: "res3.1skipConv/bn_scale"
  type: "Scale"
  bottom: "res3.1.skipConv/bn"
  top: "res3.1.skipConv/bn"
  scale_param {
    bias_term: true
  }
}
layer {
  name: "res3.1.sum"
  type: "Eltwise"
  bottom: "res3.1.conv3/bn"
  bottom: "res3.1.skipConv/bn"
  top: "res3.1.sum"
  eltwise_param {
    operation: SUM
  }
}
layer {
  name: "res3.1.relu"
  type: "ReLU"
  bottom: "res3.1.sum"
  top: "res3.1.sum"
}
layer {
  name: "res3.2.conv1"
  type: "Convolution"
  bottom: "res3.1.sum"
  top: "res3.2.conv1"
  convolution_param {
    num_output: 128
    bias_term: false
    pad: 0
    kernel_size: 1
    stride: 1
  }
}
layer {
  name: "res3.2.conv1/bn"
  type: "BatchNorm"
  bottom: "res3.2.conv1"
  top: "res3.2.conv1/bn"
  batch_norm_param {
    moving_average_fraction: 0.9
    eps: 0.0001
  }
}
layer {
  name: "res3.2.conv1/bn_scale"
  type: "Scale"
  bottom: "res3.2.conv1/bn"
  top: "res3.2.conv1/bn"
  scale_param {
    bias_term: true
  }
}
layer {
  name: "res3.2.conv1/relu"
  type: "ReLU"
  bottom: "res3.2.conv1/bn"
  top: "res3.2.conv1/bn"
}
layer {
  name: "res3.2.conv2"
  type: "Convolution"
  bottom: "res3.2.conv1/bn"
  top: "res3.2.conv2"
  convolution_param {
    num_output: 128
    bias_term: false
    pad: 1
    kernel_size: 3
    stride: 1
  }
}
layer {
  name: "res3.2.conv2/bn"
  type: "BatchNorm"
  bottom: "res3.2.conv2"
  top: "res3.2.conv2/bn"
  batch_norm_param {
    moving_average_fraction: 0.9
    eps: 0.0001
  }
}
layer {
  name: "res3.2.conv2/bn_scale"
  type: "Scale"
  bottom: "res3.2.conv2/bn"
  top: "res3.2.conv2/bn"
  scale_param {
    bias_term: true
  }
}
layer {
  name: "res3.2.conv2/relu"
  type: "ReLU"
  bottom: "res3.2.conv2/bn"
  top: "res3.2.conv2/bn"
}
layer {
  name: "res3.2.conv3"
  type: "Convolution"
  bottom: "res3.2.conv2/bn"
  top: "res3.2.conv3"
  convolution_param {
    num_output: 512
    bias_term: false
    pad: 0
    kernel_size: 1
    stride: 1
  }
}
layer {
  name: "res3.2.conv3/bn"
  type: "BatchNorm"
  bottom: "res3.2.conv3"
  top: "res3.2.conv3/bn"
  batch_norm_param {
    moving_average_fraction: 0.9
    eps: 0.0001
  }
}
layer {
  name: "res3.2.conv3/bn_scale"
  type: "Scale"
  bottom: "res3.2.conv3/bn"
  top: "res3.2.conv3/bn"
  scale_param {
    bias_term: true
  }
}
layer {
  name: "res3.2.sum"
  type: "Eltwise"
  bottom: "res3.2.conv3/bn"
  bottom: "res3.1.sum"
  top: "res3.2.sum"
  eltwise_param {
    operation: SUM
  }
}
layer {
  name: "res3.2.relu"
  type: "ReLU"
  bottom: "res3.2.sum"
  top: "res3.2.sum"
}
layer {
  name: "res3.3.conv1"
  type: "Convolution"
  bottom: "res3.2.sum"
  top: "res3.3.conv1"
  convolution_param {
    num_output: 128
    bias_term: false
    pad: 0
    kernel_size: 1
    stride: 1
  }
}
layer {
  name: "res3.3.conv1/bn"
  type: "BatchNorm"
  bottom: "res3.3.conv1"
  top: "res3.3.conv1/bn"
  batch_norm_param {
    moving_average_fraction: 0.9
    eps: 0.0001
  }
}
layer {
  name: "res3.3.conv1/bn_scale"
  type: "Scale"
  bottom: "res3.3.conv1/bn"
  top: "res3.3.conv1/bn"
  scale_param {
    bias_term: true
  }
}
layer {
  name: "res3.3.conv1/relu"
  type: "ReLU"
  bottom: "res3.3.conv1/bn"
  top: "res3.3.conv1/bn"
}
layer {
  name: "res3.3.conv2"
  type: "Convolution"
  bottom: "res3.3.conv1/bn"
  top: "res3.3.conv2"
  convolution_param {
    num_output: 128
    bias_term: false
    pad: 1
    kernel_size: 3
    stride: 1
  }
}
layer {
  name: "res3.3.conv2/bn"
  type: "BatchNorm"
  bottom: "res3.3.conv2"
  top: "res3.3.conv2/bn"
  batch_norm_param {
    moving_average_fraction: 0.9
    eps: 0.0001
  }
}
layer {
  name: "res3.3.conv2/bn_scale"
  type: "Scale"
  bottom: "res3.3.conv2/bn"
  top: "res3.3.conv2/bn"
  scale_param {
    bias_term: true
  }
}
layer {
  name: "res3.3.conv2/relu"
  type: "ReLU"
  bottom: "res3.3.conv2/bn"
  top: "res3.3.conv2/bn"
}
layer {
  name: "res3.3.conv3"
  type: "Convolution"
  bottom: "res3.3.conv2/bn"
  top: "res3.3.conv3"
  convolution_param {
    num_output: 512
    bias_term: false
    pad: 0
    kernel_size: 1
    stride: 1
  }
}
layer {
  name: "res3.3.conv3/bn"
  type: "BatchNorm"
  bottom: "res3.3.conv3"
  top: "res3.3.conv3/bn"
  batch_norm_param {
    moving_average_fraction: 0.9
    eps: 0.0001
  }
}
layer {
  name: "res3.3.conv3/bn_scale"
  type: "Scale"
  bottom: "res3.3.conv3/bn"
  top: "res3.3.conv3/bn"
  scale_param {
    bias_term: true
  }
}
layer {
  name: "res3.3.sum"
  type: "Eltwise"
  bottom: "res3.3.conv3/bn"
  bottom: "res3.2.sum"
  top: "res3.3.sum"
  eltwise_param {
    operation: SUM
  }
}
layer {
  name: "res3.3.relu"
  type: "ReLU"
  bottom: "res3.3.sum"
  top: "res3.3.sum"
}
layer {
  name: "res3.4.conv1"
  type: "Convolution"
  bottom: "res3.3.sum"
  top: "res3.4.conv1"
  convolution_param {
    num_output: 128
    bias_term: false
    pad: 0
    kernel_size: 1
    stride: 1
  }
}
layer {
  name: "res3.4.conv1/bn"
  type: "BatchNorm"
  bottom: "res3.4.conv1"
  top: "res3.4.conv1/bn"
  batch_norm_param {
    moving_average_fraction: 0.9
    eps: 0.0001
  }
}
layer {
  name: "res3.4.conv1/bn_scale"
  type: "Scale"
  bottom: "res3.4.conv1/bn"
  top: "res3.4.conv1/bn"
  scale_param {
    bias_term: true
  }
}
layer {
  name: "res3.4.conv1/relu"
  type: "ReLU"
  bottom: "res3.4.conv1/bn"
  top: "res3.4.conv1/bn"
}
layer {
  name: "res3.4.conv2"
  type: "Convolution"
  bottom: "res3.4.conv1/bn"
  top: "res3.4.conv2"
  convolution_param {
    num_output: 128
    bias_term: false
    pad: 1
    kernel_size: 3
    stride: 1
  }
}
layer {
  name: "res3.4.conv2/bn"
  type: "BatchNorm"
  bottom: "res3.4.conv2"
  top: "res3.4.conv2/bn"
  batch_norm_param {
    moving_average_fraction: 0.9
    eps: 0.0001
  }
}
layer {
  name: "res3.4.conv2/bn_scale"
  type: "Scale"
  bottom: "res3.4.conv2/bn"
  top: "res3.4.conv2/bn"
  scale_param {
    bias_term: true
  }
}
layer {
  name: "res3.4.conv2/relu"
  type: "ReLU"
  bottom: "res3.4.conv2/bn"
  top: "res3.4.conv2/bn"
}
layer {
  name: "res3.4.conv3"
  type: "Convolution"
  bottom: "res3.4.conv2/bn"
  top: "res3.4.conv3"
  convolution_param {
    num_output: 512
    bias_term: false
    pad: 0
    kernel_size: 1
    stride: 1
  }
}
layer {
  name: "res3.4.conv3/bn"
  type: "BatchNorm"
  bottom: "res3.4.conv3"
  top: "res3.4.conv3/bn"
  batch_norm_param {
    moving_average_fraction: 0.9
    eps: 0.0001
  }
}
layer {
  name: "res3.4.conv3/bn_scale"
  type: "Scale"
  bottom: "res3.4.conv3/bn"
  top: "res3.4.conv3/bn"
  scale_param {
    bias_term: true
  }
}
layer {
  name: "res3.4.sum"
  type: "Eltwise"
  bottom: "res3.4.conv3/bn"
  bottom: "res3.3.sum"
  top: "res3.4.sum"
  eltwise_param {
    operation: SUM
  }
}
layer {
  name: "res3.4.relu"
  type: "ReLU"
  bottom: "res3.4.sum"
  top: "res3.4.sum"
}
layer {
  name: "res3.5.conv1"
  type: "Convolution"
  bottom: "res3.4.sum"
  top: "res3.5.conv1"
  convolution_param {
    num_output: 128
    bias_term: false
    pad: 0
    kernel_size: 1
    stride: 1
  }
}
layer {
  name: "res3.5.conv1/bn"
  type: "BatchNorm"
  bottom: "res3.5.conv1"
  top: "res3.5.conv1/bn"
  batch_norm_param {
    moving_average_fraction: 0.9
    eps: 0.0001
  }
}
layer {
  name: "res3.5.conv1/bn_scale"
  type: "Scale"
  bottom: "res3.5.conv1/bn"
  top: "res3.5.conv1/bn"
  scale_param {
    bias_term: true
  }
}
layer {
  name: "res3.5.conv1/relu"
  type: "ReLU"
  bottom: "res3.5.conv1/bn"
  top: "res3.5.conv1/bn"
}
layer {
  name: "res3.5.conv2"
  type: "Convolution"
  bottom: "res3.5.conv1/bn"
  top: "res3.5.conv2"
  convolution_param {
    num_output: 128
    bias_term: false
    pad: 1
    kernel_size: 3
    stride: 1
  }
}
layer {
  name: "res3.5.conv2/bn"
  type: "BatchNorm"
  bottom: "res3.5.conv2"
  top: "res3.5.conv2/bn"
  batch_norm_param {
    moving_average_fraction: 0.9
    eps: 0.0001
  }
}
layer {
  name: "res3.5.conv2/bn_scale"
  type: "Scale"
  bottom: "res3.5.conv2/bn"
  top: "res3.5.conv2/bn"
  scale_param {
    bias_term: true
  }
}
layer {
  name: "res3.5.conv2/relu"
  type: "ReLU"
  bottom: "res3.5.conv2/bn"
  top: "res3.5.conv2/bn"
}
layer {
  name: "res3.5.conv3"
  type: "Convolution"
  bottom: "res3.5.conv2/bn"
  top: "res3.5.conv3"
  convolution_param {
    num_output: 512
    bias_term: false
    pad: 0
    kernel_size: 1
    stride: 1
  }
}
layer {
  name: "res3.5.conv3/bn"
  type: "BatchNorm"
  bottom: "res3.5.conv3"
  top: "res3.5.conv3/bn"
  batch_norm_param {
    moving_average_fraction: 0.9
    eps: 0.0001
  }
}
layer {
  name: "res3.5.conv3/bn_scale"
  type: "Scale"
  bottom: "res3.5.conv3/bn"
  top: "res3.5.conv3/bn"
  scale_param {
    bias_term: true
  }
}
layer {
  name: "res3.5.sum"
  type: "Eltwise"
  bottom: "res3.5.conv3/bn"
  bottom: "res3.4.sum"
  top: "res3.5.sum"
  eltwise_param {
    operation: SUM
  }
}
layer {
  name: "res3.5.relu"
  type: "ReLU"
  bottom: "res3.5.sum"
  top: "res3.5.sum"
}
layer {
  name: "res3.6.conv1"
  type: "Convolution"
  bottom: "res3.5.sum"
  top: "res3.6.conv1"
  convolution_param {
    num_output: 128
    bias_term: false
    pad: 0
    kernel_size: 1
    stride: 1
  }
}
layer {
  name: "res3.6.conv1/bn"
  type: "BatchNorm"
  bottom: "res3.6.conv1"
  top: "res3.6.conv1/bn"
  batch_norm_param {
    moving_average_fraction: 0.9
    eps: 0.0001
  }
}
layer {
  name: "res3.6.conv1/bn_scale"
  type: "Scale"
  bottom: "res3.6.conv1/bn"
  top: "res3.6.conv1/bn"
  scale_param {
    bias_term: true
  }
}
layer {
  name: "res3.6.conv1/relu"
  type: "ReLU"
  bottom: "res3.6.conv1/bn"
  top: "res3.6.conv1/bn"
}
layer {
  name: "res3.6.conv2"
  type: "Convolution"
  bottom: "res3.6.conv1/bn"
  top: "res3.6.conv2"
  convolution_param {
    num_output: 128
    bias_term: false
    pad: 1
    kernel_size: 3
    stride: 1
  }
}
layer {
  name: "res3.6.conv2/bn"
  type: "BatchNorm"
  bottom: "res3.6.conv2"
  top: "res3.6.conv2/bn"
  batch_norm_param {
    moving_average_fraction: 0.9
    eps: 0.0001
  }
}
layer {
  name: "res3.6.conv2/bn_scale"
  type: "Scale"
  bottom: "res3.6.conv2/bn"
  top: "res3.6.conv2/bn"
  scale_param {
    bias_term: true
  }
}
layer {
  name: "res3.6.conv2/relu"
  type: "ReLU"
  bottom: "res3.6.conv2/bn"
  top: "res3.6.conv2/bn"
}
layer {
  name: "res3.6.conv3"
  type: "Convolution"
  bottom: "res3.6.conv2/bn"
  top: "res3.6.conv3"
  convolution_param {
    num_output: 512
    bias_term: false
    pad: 0
    kernel_size: 1
    stride: 1
  }
}
layer {
  name: "res3.6.conv3/bn"
  type: "BatchNorm"
  bottom: "res3.6.conv3"
  top: "res3.6.conv3/bn"
  batch_norm_param {
    moving_average_fraction: 0.9
    eps: 0.0001
  }
}
layer {
  name: "res3.6.conv3/bn_scale"
  type: "Scale"
  bottom: "res3.6.conv3/bn"
  top: "res3.6.conv3/bn"
  scale_param {
    bias_term: true
  }
}
layer {
  name: "res3.6.sum"
  type: "Eltwise"
  bottom: "res3.6.conv3/bn"
  bottom: "res3.5.sum"
  top: "res3.6.sum"
  eltwise_param {
    operation: SUM
  }
}
layer {
  name: "res3.6.relu"
  type: "ReLU"
  bottom: "res3.6.sum"
  top: "res3.6.sum"
}
layer {
  name: "res3.7.conv1"
  type: "Convolution"
  bottom: "res3.6.sum"
  top: "res3.7.conv1"
  convolution_param {
    num_output: 128
    bias_term: false
    pad: 0
    kernel_size: 1
    stride: 1
  }
}
layer {
  name: "res3.7.conv1/bn"
  type: "BatchNorm"
  bottom: "res3.7.conv1"
  top: "res3.7.conv1/bn"
  batch_norm_param {
    moving_average_fraction: 0.9
    eps: 0.0001
  }
}
layer {
  name: "res3.7.conv1/bn_scale"
  type: "Scale"
  bottom: "res3.7.conv1/bn"
  top: "res3.7.conv1/bn"
  scale_param {
    bias_term: true
  }
}
layer {
  name: "res3.7.conv1/relu"
  type: "ReLU"
  bottom: "res3.7.conv1/bn"
  top: "res3.7.conv1/bn"
}
layer {
  name: "res3.7.conv2"
  type: "Convolution"
  bottom: "res3.7.conv1/bn"
  top: "res3.7.conv2"
  convolution_param {
    num_output: 128
    bias_term: false
    pad: 1
    kernel_size: 3
    stride: 1
  }
}
layer {
  name: "res3.7.conv2/bn"
  type: "BatchNorm"
  bottom: "res3.7.conv2"
  top: "res3.7.conv2/bn"
  batch_norm_param {
    moving_average_fraction: 0.9
    eps: 0.0001
  }
}
layer {
  name: "res3.7.conv2/bn_scale"
  type: "Scale"
  bottom: "res3.7.conv2/bn"
  top: "res3.7.conv2/bn"
  scale_param {
    bias_term: true
  }
}
layer {
  name: "res3.7.conv2/relu"
  type: "ReLU"
  bottom: "res3.7.conv2/bn"
  top: "res3.7.conv2/bn"
}
layer {
  name: "res3.7.conv3"
  type: "Convolution"
  bottom: "res3.7.conv2/bn"
  top: "res3.7.conv3"
  convolution_param {
    num_output: 512
    bias_term: false
    pad: 0
    kernel_size: 1
    stride: 1
  }
}
layer {
  name: "res3.7.conv3/bn"
  type: "BatchNorm"
  bottom: "res3.7.conv3"
  top: "res3.7.conv3/bn"
  batch_norm_param {
    moving_average_fraction: 0.9
    eps: 0.0001
  }
}
layer {
  name: "res3.7.conv3/bn_scale"
  type: "Scale"
  bottom: "res3.7.conv3/bn"
  top: "res3.7.conv3/bn"
  scale_param {
    bias_term: true
  }
}
layer {
  name: "res3.7.sum"
  type: "Eltwise"
  bottom: "res3.7.conv3/bn"
  bottom: "res3.6.sum"
  top: "res3.7.sum"
  eltwise_param {
    operation: SUM
  }
}
layer {
  name: "res3.7.relu"
  type: "ReLU"
  bottom: "res3.7.sum"
  top: "res3.7.sum"
}
layer {
  name: "res3.8.conv1"
  type: "Convolution"
  bottom: "res3.7.sum"
  top: "res3.8.conv1"
  convolution_param {
    num_output: 128
    bias_term: false
    pad: 0
    kernel_size: 1
    stride: 1
  }
}
layer {
  name: "res3.8.conv1/bn"
  type: "BatchNorm"
  bottom: "res3.8.conv1"
  top: "res3.8.conv1/bn"
  batch_norm_param {
    moving_average_fraction: 0.9
    eps: 0.0001
  }
}
layer {
  name: "res3.8.conv1/bn_scale"
  type: "Scale"
  bottom: "res3.8.conv1/bn"
  top: "res3.8.conv1/bn"
  scale_param {
    bias_term: true
  }
}
layer {
  name: "res3.8.conv1/relu"
  type: "ReLU"
  bottom: "res3.8.conv1/bn"
  top: "res3.8.conv1/bn"
}
layer {
  name: "res3.8.conv2"
  type: "Convolution"
  bottom: "res3.8.conv1/bn"
  top: "res3.8.conv2"
  convolution_param {
    num_output: 128
    bias_term: false
    pad: 1
    kernel_size: 3
    stride: 1
  }
}
layer {
  name: "res3.8.conv2/bn"
  type: "BatchNorm"
  bottom: "res3.8.conv2"
  top: "res3.8.conv2/bn"
  batch_norm_param {
    moving_average_fraction: 0.9
    eps: 0.0001
  }
}
layer {
  name: "res3.8.conv2/bn_scale"
  type: "Scale"
  bottom: "res3.8.conv2/bn"
  top: "res3.8.conv2/bn"
  scale_param {
    bias_term: true
  }
}
layer {
  name: "res3.8.conv2/relu"
  type: "ReLU"
  bottom: "res3.8.conv2/bn"
  top: "res3.8.conv2/bn"
}
layer {
  name: "res3.8.conv3"
  type: "Convolution"
  bottom: "res3.8.conv2/bn"
  top: "res3.8.conv3"
  convolution_param {
    num_output: 512
    bias_term: false
    pad: 0
    kernel_size: 1
    stride: 1
  }
}
layer {
  name: "res3.8.conv3/bn"
  type: "BatchNorm"
  bottom: "res3.8.conv3"
  top: "res3.8.conv3/bn"
  batch_norm_param {
    moving_average_fraction: 0.9
    eps: 0.0001
  }
}
layer {
  name: "res3.8.conv3/bn_scale"
  type: "Scale"
  bottom: "res3.8.conv3/bn"
  top: "res3.8.conv3/bn"
  scale_param {
    bias_term: true
  }
}
layer {
  name: "res3.8.sum"
  type: "Eltwise"
  bottom: "res3.8.conv3/bn"
  bottom: "res3.7.sum"
  top: "res3.8.sum"
  eltwise_param {
    operation: SUM
  }
}
layer {
  name: "res3.8.relu"
  type: "ReLU"
  bottom: "res3.8.sum"
  top: "res3.8.sum"
}
layer {
  name: "res3.9.conv1"
  type: "Convolution"
  bottom: "res3.8.sum"
  top: "res3.9.conv1"
  convolution_param {
    num_output: 128
    bias_term: false
    pad: 0
    kernel_size: 1
    stride: 1
  }
}
layer {
  name: "res3.9.conv1/bn"
  type: "BatchNorm"
  bottom: "res3.9.conv1"
  top: "res3.9.conv1/bn"
  batch_norm_param {
    moving_average_fraction: 0.9
    eps: 0.0001
  }
}
layer {
  name: "res3.9.conv1/bn_scale"
  type: "Scale"
  bottom: "res3.9.conv1/bn"
  top: "res3.9.conv1/bn"
  scale_param {
    bias_term: true
  }
}
layer {
  name: "res3.9.conv1/relu"
  type: "ReLU"
  bottom: "res3.9.conv1/bn"
  top: "res3.9.conv1/bn"
}
layer {
  name: "res3.9.conv2"
  type: "Convolution"
  bottom: "res3.9.conv1/bn"
  top: "res3.9.conv2"
  convolution_param {
    num_output: 128
    bias_term: false
    pad: 1
    kernel_size: 3
    stride: 1
  }
}
layer {
  name: "res3.9.conv2/bn"
  type: "BatchNorm"
  bottom: "res3.9.conv2"
  top: "res3.9.conv2/bn"
  batch_norm_param {
    moving_average_fraction: 0.9
    eps: 0.0001
  }
}
layer {
  name: "res3.9.conv2/bn_scale"
  type: "Scale"
  bottom: "res3.9.conv2/bn"
  top: "res3.9.conv2/bn"
  scale_param {
    bias_term: true
  }
}
layer {
  name: "res3.9.conv2/relu"
  type: "ReLU"
  bottom: "res3.9.conv2/bn"
  top: "res3.9.conv2/bn"
}
layer {
  name: "res3.9.conv3"
  type: "Convolution"
  bottom: "res3.9.conv2/bn"
  top: "res3.9.conv3"
  convolution_param {
    num_output: 512
    bias_term: false
    pad: 0
    kernel_size: 1
    stride: 1
  }
}
layer {
  name: "res3.9.conv3/bn"
  type: "BatchNorm"
  bottom: "res3.9.conv3"
  top: "res3.9.conv3/bn"
  batch_norm_param {
    moving_average_fraction: 0.9
    eps: 0.0001
  }
}
layer {
  name: "res3.9.conv3/bn_scale"
  type: "Scale"
  bottom: "res3.9.conv3/bn"
  top: "res3.9.conv3/bn"
  scale_param {
    bias_term: true
  }
}
layer {
  name: "res3.9.sum"
  type: "Eltwise"
  bottom: "res3.9.conv3/bn"
  bottom: "res3.8.sum"
  top: "res3.9.sum"
  eltwise_param {
    operation: SUM
  }
}
layer {
  name: "res3.9.relu"
  type: "ReLU"
  bottom: "res3.9.sum"
  top: "res3.9.sum"
}
layer {
  name: "res3.10.conv1"
  type: "Convolution"
  bottom: "res3.9.sum"
  top: "res3.10.conv1"
  convolution_param {
    num_output: 128
    bias_term: false
    pad: 0
    kernel_size: 1
    stride: 1
  }
}
layer {
  name: "res3.10.conv1/bn"
  type: "BatchNorm"
  bottom: "res3.10.conv1"
  top: "res3.10.conv1/bn"
  batch_norm_param {
    moving_average_fraction: 0.9
    eps: 0.0001
  }
}
layer {
  name: "res3.10.conv1/bn_scale"
  type: "Scale"
  bottom: "res3.10.conv1/bn"
  top: "res3.10.conv1/bn"
  scale_param {
    bias_term: true
  }
}
layer {
  name: "res3.10.conv1/relu"
  type: "ReLU"
  bottom: "res3.10.conv1/bn"
  top: "res3.10.conv1/bn"
}
layer {
  name: "res3.10.conv2"
  type: "Convolution"
  bottom: "res3.10.conv1/bn"
  top: "res3.10.conv2"
  convolution_param {
    num_output: 128
    bias_term: false
    pad: 1
    kernel_size: 3
    stride: 1
  }
}
layer {
  name: "res3.10.conv2/bn"
  type: "BatchNorm"
  bottom: "res3.10.conv2"
  top: "res3.10.conv2/bn"
  batch_norm_param {
    moving_average_fraction: 0.9
    eps: 0.0001
  }
}
layer {
  name: "res3.10.conv2/bn_scale"
  type: "Scale"
  bottom: "res3.10.conv2/bn"
  top: "res3.10.conv2/bn"
  scale_param {
    bias_term: true
  }
}
layer {
  name: "res3.10.conv2/relu"
  type: "ReLU"
  bottom: "res3.10.conv2/bn"
  top: "res3.10.conv2/bn"
}
layer {
  name: "res3.10.conv3"
  type: "Convolution"
  bottom: "res3.10.conv2/bn"
  top: "res3.10.conv3"
  convolution_param {
    num_output: 512
    bias_term: false
    pad: 0
    kernel_size: 1
    stride: 1
  }
}
layer {
  name: "res3.10.conv3/bn"
  type: "BatchNorm"
  bottom: "res3.10.conv3"
  top: "res3.10.conv3/bn"
  batch_norm_param {
    moving_average_fraction: 0.9
    eps: 0.0001
  }
}
layer {
  name: "res3.10.conv3/bn_scale"
  type: "Scale"
  bottom: "res3.10.conv3/bn"
  top: "res3.10.conv3/bn"
  scale_param {
    bias_term: true
  }
}
layer {
  name: "res3.10.sum"
  type: "Eltwise"
  bottom: "res3.10.conv3/bn"
  bottom: "res3.9.sum"
  top: "res3.10.sum"
  eltwise_param {
    operation: SUM
  }
}
layer {
  name: "res3.10.relu"
  type: "ReLU"
  bottom: "res3.10.sum"
  top: "res3.10.sum"
}
layer {
  name: "res3.11.conv1"
  type: "Convolution"
  bottom: "res3.10.sum"
  top: "res3.11.conv1"
  convolution_param {
    num_output: 256
    bias_term: false
    pad: 0
    kernel_size: 1
    stride: 1
  }
}
layer {
  name: "res3.11.conv1/bn"
  type: "BatchNorm"
  bottom: "res3.11.conv1"
  top: "res3.11.conv1/bn"
  batch_norm_param {
    moving_average_fraction: 0.9
    eps: 0.0001
  }
}
layer {
  name: "res3.11.conv1/bn_scale"
  type: "Scale"
  bottom: "res3.11.conv1/bn"
  top: "res3.11.conv1/bn"
  scale_param {
    bias_term: true
  }
}
layer {
  name: "res3.11.conv1/relu"
  type: "ReLU"
  bottom: "res3.11.conv1/bn"
  top: "res3.11.conv1/bn"
}
layer {
  name: "res3.11.conv2"
  type: "Convolution"
  bottom: "res3.11.conv1/bn"
  top: "res3.11.conv2"
  convolution_param {
    num_output: 256
    bias_term: false
    pad: 1
    kernel_size: 3
    stride: 1
  }
}
layer {
  name: "res3.11.conv2/bn"
  type: "BatchNorm"
  bottom: "res3.11.conv2"
  top: "res3.11.conv2/bn"
  batch_norm_param {
    moving_average_fraction: 0.9
    eps: 0.0001
  }
}
layer {
  name: "res3.11.conv2/bn_scale"
  type: "Scale"
  bottom: "res3.11.conv2/bn"
  top: "res3.11.conv2/bn"
  scale_param {
    bias_term: true
  }
}
layer {
  name: "res3.11.conv2/relu"
  type: "ReLU"
  bottom: "res3.11.conv2
I0309 16:06:10.057658  2893 layer_factory.hpp:77] Creating layer data
I0309 16:06:10.057694  2893 net.cpp:84] Creating Layer data
I0309 16:06:10.057703  2893 net.cpp:380] data -> data
I0309 16:06:10.057727  2893 net.cpp:380] data -> label
I0309 16:06:10.057749  2893 image_data_layer.cpp:38] Opening file /home/vip/dataset/imagenet/ILSVRC2012_val_256xN_list.txt
I0309 16:06:10.091862  2893 image_data_layer.cpp:63] A total of 50000 images.
I0309 16:06:10.109037  2893 image_data_layer.cpp:90] output data size: 100,3,224,224
I0309 16:06:10.231397  2893 net.cpp:122] Setting up data
I0309 16:06:10.231433  2893 net.cpp:129] Top shape: 100 3 224 224 (15052800)
I0309 16:06:10.231439  2893 net.cpp:129] Top shape: 100 (100)
I0309 16:06:10.231444  2893 net.cpp:137] Memory required for data: 60211600
I0309 16:06:10.231453  2893 layer_factory.hpp:77] Creating layer label_data_1_split
I0309 16:06:10.231469  2893 net.cpp:84] Creating Layer label_data_1_split
I0309 16:06:10.231477  2893 net.cpp:406] label_data_1_split <- label
I0309 16:06:10.231492  2893 net.cpp:380] label_data_1_split -> label_data_1_split_0
I0309 16:06:10.231505  2893 net.cpp:380] label_data_1_split -> label_data_1_split_1
I0309 16:06:10.231616  2893 net.cpp:122] Setting up label_data_1_split
I0309 16:06:10.231627  2893 net.cpp:129] Top shape: 100 (100)
I0309 16:06:10.231632  2893 net.cpp:129] Top shape: 100 (100)
I0309 16:06:10.231637  2893 net.cpp:137] Memory required for data: 60212400
I0309 16:06:10.231640  2893 layer_factory.hpp:77] Creating layer conv1
I0309 16:06:10.231658  2893 net.cpp:84] Creating Layer conv1
I0309 16:06:10.231664  2893 net.cpp:406] conv1 <- data
I0309 16:06:10.231670  2893 net.cpp:380] conv1 -> conv1
I0309 16:06:11.008172  2893 net.cpp:122] Setting up conv1
I0309 16:06:11.008203  2893 net.cpp:129] Top shape: 100 32 112 112 (40140800)
I0309 16:06:11.008208  2893 net.cpp:137] Memory required for data: 220775600
I0309 16:06:11.008226  2893 layer_factory.hpp:77] Creating layer conv1/bn
I0309 16:06:11.008239  2893 net.cpp:84] Creating Layer conv1/bn
I0309 16:06:11.008244  2893 net.cpp:406] conv1/bn <- conv1
I0309 16:06:11.008250  2893 net.cpp:380] conv1/bn -> conv1/bn
I0309 16:06:11.009415  2893 net.cpp:122] Setting up conv1/bn
I0309 16:06:11.009429  2893 net.cpp:129] Top shape: 100 32 112 112 (40140800)
I0309 16:06:11.009433  2893 net.cpp:137] Memory required for data: 381338800
I0309 16:06:11.009446  2893 layer_factory.hpp:77] Creating layer conv1/bn_scale
I0309 16:06:11.009455  2893 net.cpp:84] Creating Layer conv1/bn_scale
I0309 16:06:11.009459  2893 net.cpp:406] conv1/bn_scale <- conv1/bn
I0309 16:06:11.009464  2893 net.cpp:367] conv1/bn_scale -> conv1/bn (in-place)
I0309 16:06:11.009585  2893 layer_factory.hpp:77] Creating layer conv1/bn_scale
I0309 16:06:11.009723  2893 net.cpp:122] Setting up conv1/bn_scale
I0309 16:06:11.009732  2893 net.cpp:129] Top shape: 100 32 112 112 (40140800)
I0309 16:06:11.009737  2893 net.cpp:137] Memory required for data: 541902000
I0309 16:06:11.009747  2893 layer_factory.hpp:77] Creating layer conv1/relu
I0309 16:06:11.009753  2893 net.cpp:84] Creating Layer conv1/relu
I0309 16:06:11.009757  2893 net.cpp:406] conv1/relu <- conv1/bn
I0309 16:06:11.009762  2893 net.cpp:367] conv1/relu -> conv1/bn (in-place)
I0309 16:06:11.010296  2893 net.cpp:122] Setting up conv1/relu
I0309 16:06:11.010308  2893 net.cpp:129] Top shape: 100 32 112 112 (40140800)
I0309 16:06:11.010311  2893 net.cpp:137] Memory required for data: 702465200
I0309 16:06:11.010314  2893 layer_factory.hpp:77] Creating layer conv2
I0309 16:06:11.010324  2893 net.cpp:84] Creating Layer conv2
I0309 16:06:11.010327  2893 net.cpp:406] conv2 <- conv1/bn
I0309 16:06:11.010334  2893 net.cpp:380] conv2 -> conv2
I0309 16:06:11.012981  2893 net.cpp:122] Setting up conv2
I0309 16:06:11.012996  2893 net.cpp:129] Top shape: 100 64 56 56 (20070400)
I0309 16:06:11.013001  2893 net.cpp:137] Memory required for data: 782746800
I0309 16:06:11.013007  2893 layer_factory.hpp:77] Creating layer conv2/bn
I0309 16:06:11.013013  2893 net.cpp:84] Creating Layer conv2/bn
I0309 16:06:11.013016  2893 net.cpp:406] conv2/bn <- conv2
I0309 16:06:11.013021  2893 net.cpp:380] conv2/bn -> conv2/bn
I0309 16:06:11.014112  2893 net.cpp:122] Setting up conv2/bn
I0309 16:06:11.014125  2893 net.cpp:129] Top shape: 100 64 56 56 (20070400)
I0309 16:06:11.014145  2893 net.cpp:137] Memory required for data: 863028400
I0309 16:06:11.014155  2893 layer_factory.hpp:77] Creating layer conv2/bn_scale
I0309 16:06:11.014166  2893 net.cpp:84] Creating Layer conv2/bn_scale
I0309 16:06:11.014170  2893 net.cpp:406] conv2/bn_scale <- conv2/bn
I0309 16:06:11.014191  2893 net.cpp:367] conv2/bn_scale -> conv2/bn (in-place)
I0309 16:06:11.014266  2893 layer_factory.hpp:77] Creating layer conv2/bn_scale
I0309 16:06:11.014386  2893 net.cpp:122] Setting up conv2/bn_scale
I0309 16:06:11.014394  2893 net.cpp:129] Top shape: 100 64 56 56 (20070400)
I0309 16:06:11.014398  2893 net.cpp:137] Memory required for data: 943310000
I0309 16:06:11.014403  2893 layer_factory.hpp:77] Creating layer conv2/relu
I0309 16:06:11.014410  2893 net.cpp:84] Creating Layer conv2/relu
I0309 16:06:11.014413  2893 net.cpp:406] conv2/relu <- conv2/bn
I0309 16:06:11.014420  2893 net.cpp:367] conv2/relu -> conv2/bn (in-place)
I0309 16:06:11.014890  2893 net.cpp:122] Setting up conv2/relu
I0309 16:06:11.014900  2893 net.cpp:129] Top shape: 100 64 56 56 (20070400)
I0309 16:06:11.014904  2893 net.cpp:137] Memory required for data: 1023591600
I0309 16:06:11.014906  2893 layer_factory.hpp:77] Creating layer conv2/bn_conv2/relu_0_split
I0309 16:06:11.014914  2893 net.cpp:84] Creating Layer conv2/bn_conv2/relu_0_split
I0309 16:06:11.014916  2893 net.cpp:406] conv2/bn_conv2/relu_0_split <- conv2/bn
I0309 16:06:11.014921  2893 net.cpp:380] conv2/bn_conv2/relu_0_split -> conv2/bn_conv2/relu_0_split_0
I0309 16:06:11.014931  2893 net.cpp:380] conv2/bn_conv2/relu_0_split -> conv2/bn_conv2/relu_0_split_1
I0309 16:06:11.015004  2893 net.cpp:122] Setting up conv2/bn_conv2/relu_0_split
I0309 16:06:11.015012  2893 net.cpp:129] Top shape: 100 64 56 56 (20070400)
I0309 16:06:11.015017  2893 net.cpp:129] Top shape: 100 64 56 56 (20070400)
I0309 16:06:11.015019  2893 net.cpp:137] Memory required for data: 1184154800
I0309 16:06:11.015022  2893 layer_factory.hpp:77] Creating layer res2.1.conv1
I0309 16:06:11.015033  2893 net.cpp:84] Creating Layer res2.1.conv1
I0309 16:06:11.015036  2893 net.cpp:406] res2.1.conv1 <- conv2/bn_conv2/relu_0_split_0
I0309 16:06:11.015044  2893 net.cpp:380] res2.1.conv1 -> res2.1.conv1
I0309 16:06:11.016896  2893 net.cpp:122] Setting up res2.1.conv1
I0309 16:06:11.016908  2893 net.cpp:129] Top shape: 100 64 28 28 (5017600)
I0309 16:06:11.016928  2893 net.cpp:137] Memory required for data: 1204225200
I0309 16:06:11.016947  2893 layer_factory.hpp:77] Creating layer res2.1.conv1/bn
I0309 16:06:11.016953  2893 net.cpp:84] Creating Layer res2.1.conv1/bn
I0309 16:06:11.016957  2893 net.cpp:406] res2.1.conv1/bn <- res2.1.conv1
I0309 16:06:11.016981  2893 net.cpp:380] res2.1.conv1/bn -> res2.1.conv1/bn
I0309 16:06:11.017222  2893 net.cpp:122] Setting up res2.1.conv1/bn
I0309 16:06:11.017231  2893 net.cpp:129] Top shape: 100 64 28 28 (5017600)
I0309 16:06:11.017235  2893 net.cpp:137] Memory required for data: 1224295600
I0309 16:06:11.017241  2893 layer_factory.hpp:77] Creating layer res2.1.conv1/bn_scale
I0309 16:06:11.017248  2893 net.cpp:84] Creating Layer res2.1.conv1/bn_scale
I0309 16:06:11.017251  2893 net.cpp:406] res2.1.conv1/bn_scale <- res2.1.conv1/bn
I0309 16:06:11.017256  2893 net.cpp:367] res2.1.conv1/bn_scale -> res2.1.conv1/bn (in-place)
I0309 16:06:11.017314  2893 layer_factory.hpp:77] Creating layer res2.1.conv1/bn_scale
I0309 16:06:11.017441  2893 net.cpp:122] Setting up res2.1.conv1/bn_scale
I0309 16:06:11.017448  2893 net.cpp:129] Top shape: 100 64 28 28 (5017600)
I0309 16:06:11.017452  2893 net.cpp:137] Memory required for data: 1244366000
I0309 16:06:11.017460  2893 layer_factory.hpp:77] Creating layer res2.1.conv1/relu
I0309 16:06:11.017468  2893 net.cpp:84] Creating Layer res2.1.conv1/relu
I0309 16:06:11.017472  2893 net.cpp:406] res2.1.conv1/relu <- res2.1.conv1/bn
I0309 16:06:11.017477  2893 net.cpp:367] res2.1.conv1/relu -> res2.1.conv1/bn (in-place)
I0309 16:06:11.018299  2893 net.cpp:122] Setting up res2.1.conv1/relu
I0309 16:06:11.018313  2893 net.cpp:129] Top shape: 100 64 28 28 (5017600)
I0309 16:06:11.018332  2893 net.cpp:137] Memory required for data: 1264436400
I0309 16:06:11.018337  2893 layer_factory.hpp:77] Creating layer res2.1.conv2
I0309 16:06:11.018347  2893 net.cpp:84] Creating Layer res2.1.conv2
I0309 16:06:11.018350  2893 net.cpp:406] res2.1.conv2 <- res2.1.conv1/bn
I0309 16:06:11.018357  2893 net.cpp:380] res2.1.conv2 -> res2.1.conv2
I0309 16:06:11.020596  2893 net.cpp:122] Setting up res2.1.conv2
I0309 16:06:11.020624  2893 net.cpp:129] Top shape: 100 64 28 28 (5017600)
I0309 16:06:11.020629  2893 net.cpp:137] Memory required for data: 1284506800
I0309 16:06:11.020634  2893 layer_factory.hpp:77] Creating layer res2.1.conv2/bn
I0309 16:06:11.020647  2893 net.cpp:84] Creating Layer res2.1.conv2/bn
I0309 16:06:11.020650  2893 net.cpp:406] res2.1.conv2/bn <- res2.1.conv2
I0309 16:06:11.020658  2893 net.cpp:380] res2.1.conv2/bn -> res2.1.conv2/bn
I0309 16:06:11.020921  2893 net.cpp:122] Setting up res2.1.conv2/bn
I0309 16:06:11.020931  2893 net.cpp:129] Top shape: 100 64 28 28 (5017600)
I0309 16:06:11.020934  2893 net.cpp:137] Memory required for data: 1304577200
I0309 16:06:11.020942  2893 layer_factory.hpp:77] Creating layer res2.1.conv2/bn_scale
I0309 16:06:11.020951  2893 net.cpp:84] Creating Layer res2.1.conv2/bn_scale
I0309 16:06:11.020969  2893 net.cpp:406] res2.1.conv2/bn_scale <- res2.1.conv2/bn
I0309 16:06:11.020974  2893 net.cpp:367] res2.1.conv2/bn_scale -> res2.1.conv2/bn (in-place)
I0309 16:06:11.021019  2893 layer_factory.hpp:77] Creating layer res2.1.conv2/bn_scale
I0309 16:06:11.021145  2893 net.cpp:122] Setting up res2.1.conv2/bn_scale
I0309 16:06:11.021153  2893 net.cpp:129] Top shape: 100 64 28 28 (5017600)
I0309 16:06:11.021173  2893 net.cpp:137] Memory required for data: 1324647600
I0309 16:06:11.021180  2893 layer_factory.hpp:77] Creating layer res2.1.skipConv
I0309 16:06:11.021191  2893 net.cpp:84] Creating Layer res2.1.skipConv
I0309 16:06:11.021195  2893 net.cpp:406] res2.1.skipConv <- conv2/bn_conv2/relu_0_split_1
I0309 16:06:11.021201  2893 net.cpp:380] res2.1.skipConv -> res2.1.skipConv
I0309 16:06:11.023317  2893 net.cpp:122] Setting up res2.1.skipConv
I0309 16:06:11.023334  2893 net.cpp:129] Top shape: 100 64 28 28 (5017600)
I0309 16:06:11.023336  2893 net.cpp:137] Memory required for data: 1344718000
I0309 16:06:11.023342  2893 layer_factory.hpp:77] Creating layer res2.1skipConv/bn
I0309 16:06:11.023351  2893 net.cpp:84] Creating Layer res2.1skipConv/bn
I0309 16:06:11.023383  2893 net.cpp:406] res2.1skipConv/bn <- res2.1.skipConv
I0309 16:06:11.023391  2893 net.cpp:380] res2.1skipConv/bn -> res2.1.skipConv/bn
I0309 16:06:11.023676  2893 net.cpp:122] Setting up res2.1skipConv/bn
I0309 16:06:11.023686  2893 net.cpp:129] Top shape: 100 64 28 28 (5017600)
I0309 16:06:11.023689  2893 net.cpp:137] Memory required for data: 1364788400
I0309 16:06:11.023712  2893 layer_factory.hpp:77] Creating layer res2.1skipConv/bn_scale
I0309 16:06:11.023736  2893 net.cpp:84] Creating Layer res2.1skipConv/bn_scale
I0309 16:06:11.023741  2893 net.cpp:406] res2.1skipConv/bn_scale <- res2.1.skipConv/bn
I0309 16:06:11.023762  2893 net.cpp:367] res2.1skipConv/bn_scale -> res2.1.skipConv/bn (in-place)
I0309 16:06:11.023821  2893 layer_factory.hpp:77] Creating layer res2.1skipConv/bn_scale
I0309 16:06:11.023952  2893 net.cpp:122] Setting up res2.1skipConv/bn_scale
I0309 16:06:11.023960  2893 net.cpp:129] Top shape: 100 64 28 28 (5017600)
I0309 16:06:11.023963  2893 net.cpp:137] Memory required for data: 1384858800
I0309 16:06:11.023968  2893 layer_factory.hpp:77] Creating layer res2.1.sum
I0309 16:06:11.023975  2893 net.cpp:84] Creating Layer res2.1.sum
I0309 16:06:11.023982  2893 net.cpp:406] res2.1.sum <- res2.1.conv2/bn
I0309 16:06:11.023988  2893 net.cpp:406] res2.1.sum <- res2.1.skipConv/bn
I0309 16:06:11.023993  2893 net.cpp:380] res2.1.sum -> res2.1.sum
I0309 16:06:11.024024  2893 net.cpp:122] Setting up res2.1.sum
I0309 16:06:11.024034  2893 net.cpp:129] Top shape: 100 64 28 28 (5017600)
I0309 16:06:11.024037  2893 net.cpp:137] Memory required for data: 1404929200
I0309 16:06:11.024040  2893 layer_factory.hpp:77] Creating layer res2.1.relu
I0309 16:06:11.024046  2893 net.cpp:84] Creating Layer res2.1.relu
I0309 16:06:11.024066  2893 net.cpp:406] res2.1.relu <- res2.1.sum
I0309 16:06:11.024071  2893 net.cpp:367] res2.1.relu -> res2.1.sum (in-place)
I0309 16:06:11.024571  2893 net.cpp:122] Setting up res2.1.relu
I0309 16:06:11.024581  2893 net.cpp:129] Top shape: 100 64 28 28 (5017600)
I0309 16:06:11.024585  2893 net.cpp:137] Memory required for data: 1424999600
I0309 16:06:11.024588  2893 layer_factory.hpp:77] Creating layer res2.1.sum_res2.1.relu_0_split
I0309 16:06:11.024595  2893 net.cpp:84] Creating Layer res2.1.sum_res2.1.relu_0_split
I0309 16:06:11.024600  2893 net.cpp:406] res2.1.sum_res2.1.relu_0_split <- res2.1.sum
I0309 16:06:11.024605  2893 net.cpp:380] res2.1.sum_res2.1.relu_0_split -> res2.1.sum_res2.1.relu_0_split_0
I0309 16:06:11.024628  2893 net.cpp:380] res2.1.sum_res2.1.relu_0_split -> res2.1.sum_res2.1.relu_0_split_1
I0309 16:06:11.024673  2893 net.cpp:122] Setting up res2.1.sum_res2.1.relu_0_split
I0309 16:06:11.024680  2893 net.cpp:129] Top shape: 100 64 28 28 (5017600)
I0309 16:06:11.024688  2893 net.cpp:129] Top shape: 100 64 28 28 (5017600)
I0309 16:06:11.024690  2893 net.cpp:137] Memory required for data: 1465140400
I0309 16:06:11.024693  2893 layer_factory.hpp:77] Creating layer res2.2.conv1
I0309 16:06:11.024703  2893 net.cpp:84] Creating Layer res2.2.conv1
I0309 16:06:11.024706  2893 net.cpp:406] res2.2.conv1 <- res2.1.sum_res2.1.relu_0_split_0
I0309 16:06:11.024714  2893 net.cpp:380] res2.2.conv1 -> res2.2.conv1
I0309 16:06:11.026799  2893 net.cpp:122] Setting up res2.2.conv1
I0309 16:06:11.026831  2893 net.cpp:129] Top shape: 100 64 28 28 (5017600)
I0309 16:06:11.026836  2893 net.cpp:137] Memory required for data: 1485210800
I0309 16:06:11.026842  2893 layer_factory.hpp:77] Creating layer res2.2.conv1/bn
I0309 16:06:11.026849  2893 net.cpp:84] Creating Layer res2.2.conv1/bn
I0309 16:06:11.026852  2893 net.cpp:406] res2.2.conv1/bn <- res2.2.conv1
I0309 16:06:11.026859  2893 net.cpp:380] res2.2.conv1/bn -> res2.2.conv1/bn
I0309 16:06:11.027102  2893 net.cpp:122] Setting up res2.2.conv1/bn
I0309 16:06:11.027112  2893 net.cpp:129] Top shape: 100 64 28 28 (5017600)
I0309 16:06:11.027115  2893 net.cpp:137] Memory required for data: 1505281200
I0309 16:06:11.027128  2893 layer_factory.hpp:77] Creating layer res2.2.conv1/bn_scale
I0309 16:06:11.027137  2893 net.cpp:84] Creating Layer res2.2.conv1/bn_scale
I0309 16:06:11.027153  2893 net.cpp:406] res2.2.conv1/bn_scale <- res2.2.conv1/bn
I0309 16:06:11.027159  2893 net.cpp:367] res2.2.conv1/bn_scale -> res2.2.conv1/bn (in-place)
I0309 16:06:11.027207  2893 layer_factory.hpp:77] Creating layer res2.2.conv1/bn_scale
I0309 16:06:11.027336  2893 net.cpp:122] Setting up res2.2.conv1/bn_scale
I0309 16:06:11.027344  2893 net.cpp:129] Top shape: 100 64 28 28 (5017600)
I0309 16:06:11.027348  2893 net.cpp:137] Memory required for data: 1525351600
I0309 16:06:11.027354  2893 layer_factory.hpp:77] Creating layer res2.2.conv1/relu
I0309 16:06:11.027361  2893 net.cpp:84] Creating Layer res2.2.conv1/relu
I0309 16:06:11.027364  2893 net.cpp:406] res2.2.conv1/relu <- res2.2.conv1/bn
I0309 16:06:11.027369  2893 net.cpp:367] res2.2.conv1/relu -> res2.2.conv1/bn (in-place)
I0309 16:06:11.027846  2893 net.cpp:122] Setting up res2.2.conv1/relu
I0309 16:06:11.027874  2893 net.cpp:129] Top shape: 100 64 28 28 (5017600)
I0309 16:06:11.027878  2893 net.cpp:137] Memory required for data: 1545422000
I0309 16:06:11.027880  2893 layer_factory.hpp:77] Creating layer res2.2.conv2
I0309 16:06:11.027890  2893 net.cpp:84] Creating Layer res2.2.conv2
I0309 16:06:11.027894  2893 net.cpp:406] res2.2.conv2 <- res2.2.conv1/bn
I0309 16:06:11.027899  2893 net.cpp:380] res2.2.conv2 -> res2.2.conv2
I0309 16:06:11.030099  2893 net.cpp:122] Setting up res2.2.conv2
I0309 16:06:11.030130  2893 net.cpp:129] Top shape: 100 64 28 28 (5017600)
I0309 16:06:11.030134  2893 net.cpp:137] Memory required for data: 1565492400
I0309 16:06:11.030139  2893 layer_factory.hpp:77] Creating layer res2.2.conv2/bn
I0309 16:06:11.030148  2893 net.cpp:84] Creating Layer res2.2.conv2/bn
I0309 16:06:11.030153  2893 net.cpp:406] res2.2.conv2/bn <- res2.2.conv2
I0309 16:06:11.030174  2893 net.cpp:380] res2.2.conv2/bn -> res2.2.conv2/bn
I0309 16:06:11.030442  2893 net.cpp:122] Setting up res2.2.conv2/bn
I0309 16:06:11.030452  2893 net.cpp:129] Top shape: 100 64 28 28 (5017600)
I0309 16:06:11.030455  2893 net.cpp:137] Memory required for data: 1585562800
I0309 16:06:11.030463  2893 layer_factory.hpp:77] Creating layer res2.2.conv2/bn_scale
I0309 16:06:11.030469  2893 net.cpp:84] Creating Layer res2.2.conv2/bn_scale
I0309 16:06:11.030472  2893 net.cpp:406] res2.2.conv2/bn_scale <- res2.2.conv2/bn
I0309 16:06:11.030484  2893 net.cpp:367] res2.2.conv2/bn_scale -> res2.2.conv2/bn (in-place)
I0309 16:06:11.030539  2893 layer_factory.hpp:77] Creating layer res2.2.conv2/bn_scale
I0309 16:06:11.030664  2893 net.cpp:122] Setting up res2.2.conv2/bn_scale
I0309 16:06:11.030673  2893 net.cpp:129] Top shape: 100 64 28 28 (5017600)
I0309 16:06:11.030676  2893 net.cpp:137] Memory required for data: 1605633200
I0309 16:06:11.030681  2893 layer_factory.hpp:77] Creating layer res2.2.sum
I0309 16:06:11.030688  2893 net.cpp:84] Creating Layer res2.2.sum
I0309 16:06:11.030691  2893 net.cpp:406] res2.2.sum <- res2.2.conv2/bn
I0309 16:06:11.030695  2893 net.cpp:406] res2.2.sum <- res2.1.sum_res2.1.relu_0_split_1
I0309 16:06:11.030702  2893 net.cpp:380] res2.2.sum -> res2.2.sum
I0309 16:06:11.030727  2893 net.cpp:122] Setting up res2.2.sum
I0309 16:06:11.030735  2893 net.cpp:129] Top shape: 100 64 28 28 (5017600)
I0309 16:06:11.030738  2893 net.cpp:137] Memory required for data: 1625703600
I0309 16:06:11.030741  2893 layer_factory.hpp:77] Creating layer res2.2.relu
I0309 16:06:11.030755  2893 net.cpp:84] Creating Layer res2.2.relu
I0309 16:06:11.030757  2893 net.cpp:406] res2.2.relu <- res2.2.sum
I0309 16:06:11.030776  2893 net.cpp:367] res2.2.relu -> res2.2.sum (in-place)
I0309 16:06:11.031574  2893 net.cpp:122] Setting up res2.2.relu
I0309 16:06:11.031605  2893 net.cpp:129] Top shape: 100 64 28 28 (5017600)
I0309 16:06:11.031608  2893 net.cpp:137] Memory required for data: 1645774000
I0309 16:06:11.031612  2893 layer_factory.hpp:77] Creating layer res2.2.sum_res2.2.relu_0_split
I0309 16:06:11.031618  2893 net.cpp:84] Creating Layer res2.2.sum_res2.2.relu_0_split
I0309 16:06:11.031622  2893 net.cpp:406] res2.2.sum_res2.2.relu_0_split <- res2.2.sum
I0309 16:06:11.031651  2893 net.cpp:380] res2.2.sum_res2.2.relu_0_split -> res2.2.sum_res2.2.relu_0_split_0
I0309 16:06:11.031661  2893 net.cpp:380] res2.2.sum_res2.2.relu_0_split -> res2.2.sum_res2.2.relu_0_split_1
I0309 16:06:11.031708  2893 net.cpp:122] Setting up res2.2.sum_res2.2.relu_0_split
I0309 16:06:11.031716  2893 net.cpp:129] Top shape: 100 64 28 28 (5017600)
I0309 16:06:11.031721  2893 net.cpp:129] Top shape: 100 64 28 28 (5017600)
I0309 16:06:11.031724  2893 net.cpp:137] Memory required for data: 1685914800
I0309 16:06:11.031728  2893 layer_factory.hpp:77] Creating layer res2.3.conv1
I0309 16:06:11.031738  2893 net.cpp:84] Creating Layer res2.3.conv1
I0309 16:06:11.031742  2893 net.cpp:406] res2.3.conv1 <- res2.2.sum_res2.2.relu_0_split_0
I0309 16:06:11.031749  2893 net.cpp:380] res2.3.conv1 -> res2.3.conv1
I0309 16:06:11.035027  2893 net.cpp:122] Setting up res2.3.conv1
I0309 16:06:11.035058  2893 net.cpp:129] Top shape: 100 128 28 28 (10035200)
I0309 16:06:11.035063  2893 net.cpp:137] Memory required for data: 1726055600
I0309 16:06:11.035068  2893 layer_factory.hpp:77] Creating layer res2.3.conv1/bn
I0309 16:06:11.035076  2893 net.cpp:84] Creating Layer res2.3.conv1/bn
I0309 16:06:11.035081  2893 net.cpp:406] res2.3.conv1/bn <- res2.3.conv1
I0309 16:06:11.035086  2893 net.cpp:380] res2.3.conv1/bn -> res2.3.conv1/bn
I0309 16:06:11.035343  2893 net.cpp:122] Setting up res2.3.conv1/bn
I0309 16:06:11.035352  2893 net.cpp:129] Top shape: 100 128 28 28 (10035200)
I0309 16:06:11.035356  2893 net.cpp:137] Memory required for data: 1766196400
I0309 16:06:11.035363  2893 layer_factory.hpp:77] Creating layer res2.3.conv1/bn_scale
I0309 16:06:11.035369  2893 net.cpp:84] Creating Layer res2.3.conv1/bn_scale
I0309 16:06:11.035373  2893 net.cpp:406] res2.3.conv1/bn_scale <- res2.3.conv1/bn
I0309 16:06:11.035378  2893 net.cpp:367] res2.3.conv1/bn_scale -> res2.3.conv1/bn (in-place)
I0309 16:06:11.035442  2893 layer_factory.hpp:77] Creating layer res2.3.conv1/bn_scale
I0309 16:06:11.035568  2893 net.cpp:122] Setting up res2.3.conv1/bn_scale
I0309 16:06:11.035576  2893 net.cpp:129] Top shape: 100 128 28 28 (10035200)
I0309 16:06:11.035580  2893 net.cpp:137] Memory required for data: 1806337200
I0309 16:06:11.035586  2893 layer_factory.hpp:77] Creating layer res2.3.conv1/relu
I0309 16:06:11.035593  2893 net.cpp:84] Creating Layer res2.3.conv1/relu
I0309 16:06:11.035595  2893 net.cpp:406] res2.3.conv1/relu <- res2.3.conv1/bn
I0309 16:06:11.035603  2893 net.cpp:367] res2.3.conv1/relu -> res2.3.conv1/bn (in-place)
I0309 16:06:11.036082  2893 net.cpp:122] Setting up res2.3.conv1/relu
I0309 16:06:11.036092  2893 net.cpp:129] Top shape: 100 128 28 28 (10035200)
I0309 16:06:11.036113  2893 net.cpp:137] Memory required for data: 1846478000
I0309 16:06:11.036115  2893 layer_factory.hpp:77] Creating layer res2.3.conv2
I0309 16:06:11.036124  2893 net.cpp:84] Creating Layer res2.3.conv2
I0309 16:06:11.036129  2893 net.cpp:406] res2.3.conv2 <- res2.3.conv1/bn
I0309 16:06:11.036136  2893 net.cpp:380] res2.3.conv2 -> res2.3.conv2
I0309 16:06:11.038616  2893 net.cpp:122] Setting up res2.3.conv2
I0309 16:06:11.038635  2893 net.cpp:129] Top shape: 100 128 28 28 (10035200)
I0309 16:06:11.038640  2893 net.cpp:137] Memory required for data: 1886618800
I0309 16:06:11.038645  2893 layer_factory.hpp:77] Creating layer res2.3.conv2/bn
I0309 16:06:11.038652  2893 net.cpp:84] Creating Layer res2.3.conv2/bn
I0309 16:06:11.038656  2893 net.cpp:406] res2.3.conv2/bn <- res2.3.conv2
I0309 16:06:11.038666  2893 net.cpp:380] res2.3.conv2/bn -> res2.3.conv2/bn
I0309 16:06:11.038939  2893 net.cpp:122] Setting up res2.3.conv2/bn
I0309 16:06:11.038949  2893 net.cpp:129] Top shape: 100 128 28 28 (10035200)
I0309 16:06:11.038962  2893 net.cpp:137] Memory required for data: 1926759600
I0309 16:06:11.038981  2893 layer_factory.hpp:77] Creating layer res2.3.conv2/bn_scale
I0309 16:06:11.038988  2893 net.cpp:84] Creating Layer res2.3.conv2/bn_scale
I0309 16:06:11.038992  2893 net.cpp:406] res2.3.conv2/bn_scale <- res2.3.conv2/bn
I0309 16:06:11.039011  2893 net.cpp:367] res2.3.conv2/bn_scale -> res2.3.conv2/bn (in-place)
I0309 16:06:11.039058  2893 layer_factory.hpp:77] Creating layer res2.3.conv2/bn_scale
I0309 16:06:11.039181  2893 net.cpp:122] Setting up res2.3.conv2/bn_scale
I0309 16:06:11.039189  2893 net.cpp:129] Top shape: 100 128 28 28 (10035200)
I0309 16:06:11.039193  2893 net.cpp:137] Memory required for data: 1966900400
I0309 16:06:11.039199  2893 layer_factory.hpp:77] Creating layer res2.3.skipConv
I0309 16:06:11.039208  2893 net.cpp:84] Creating Layer res2.3.skipConv
I0309 16:06:11.039212  2893 net.cpp:406] res2.3.skipConv <- res2.2.sum_res2.2.relu_0_split_1
I0309 16:06:11.039219  2893 net.cpp:380] res2.3.skipConv -> res2.3.skipConv
I0309 16:06:11.041303  2893 net.cpp:122] Setting up res2.3.skipConv
I0309 16:06:11.041321  2893 net.cpp:129] Top shape: 100 128 28 28 (10035200)
I0309 16:06:11.041324  2893 net.cpp:137] Memory required for data: 2007041200
I0309 16:06:11.041330  2893 layer_factory.hpp:77] Creating layer res2.3skipConv/bn
I0309 16:06:11.041338  2893 net.cpp:84] Creating Layer res2.3skipConv/bn
I0309 16:06:11.041342  2893 net.cpp:406] res2.3skipConv/bn <- res2.3.skipConv
I0309 16:06:11.041349  2893 net.cpp:380] res2.3skipConv/bn -> res2.3.skipConv/bn
I0309 16:06:11.041591  2893 net.cpp:122] Setting up res2.3skipConv/bn
I0309 16:06:11.041601  2893 net.cpp:129] Top shape: 100 128 28 28 (10035200)
I0309 16:06:11.041605  2893 net.cpp:137] Memory required for data: 2047182000
I0309 16:06:11.041611  2893 layer_factory.hpp:77] Creating layer res2.3skipConv/bn_scale
I0309 16:06:11.041620  2893 net.cpp:84] Creating Layer res2.3skipConv/bn_scale
I0309 16:06:11.041625  2893 net.cpp:406] res2.3skipConv/bn_scale <- res2.3.skipConv/bn
I0309 16:06:11.041630  2893 net.cpp:367] res2.3skipConv/bn_scale -> res2.3.skipConv/bn (in-place)
I0309 16:06:11.041671  2893 layer_factory.hpp:77] Creating layer res2.3skipConv/bn_scale
I0309 16:06:11.041797  2893 net.cpp:122] Setting up res2.3skipConv/bn_scale
I0309 16:06:11.041805  2893 net.cpp:129] Top shape: 100 128 28 28 (10035200)
I0309 16:06:11.041810  2893 net.cpp:137] Memory required for data: 2087322800
I0309 16:06:11.041815  2893 layer_factory.hpp:77] Creating layer res2.3.sum
I0309 16:06:11.041822  2893 net.cpp:84] Creating Layer res2.3.sum
I0309 16:06:11.041827  2893 net.cpp:406] res2.3.sum <- res2.3.conv2/bn
I0309 16:06:11.041831  2893 net.cpp:406] res2.3.sum <- res2.3.skipConv/bn
I0309 16:06:11.041836  2893 net.cpp:380] res2.3.sum -> res2.3.sum
I0309 16:06:11.041893  2893 net.cpp:122] Setting up res2.3.sum
I0309 16:06:11.041903  2893 net.cpp:129] Top shape: 100 128 28 28 (10035200)
I0309 16:06:11.041908  2893 net.cpp:137] Memory required for data: 2127463600
I0309 16:06:11.041910  2893 layer_factory.hpp:77] Creating layer res2.3.relu
I0309 16:06:11.041915  2893 net.cpp:84] Creating Layer res2.3.relu
I0309 16:06:11.041920  2893 net.cpp:406] res2.3.relu <- res2.3.sum
I0309 16:06:11.041925  2893 net.cpp:367] res2.3.relu -> res2.3.sum (in-place)
I0309 16:06:11.042495  2893 net.cpp:122] Setting up res2.3.relu
I0309 16:06:11.042506  2893 net.cpp:129] Top shape: 100 128 28 28 (10035200)
I0309 16:06:11.042515  2893 net.cpp:137] Memory required for data: 2167604400
I0309 16:06:11.042520  2893 layer_factory.hpp:77] Creating layer res2.3.sum_res2.3.relu_0_split
I0309 16:06:11.042526  2893 net.cpp:84] Creating Layer res2.3.sum_res2.3.relu_0_split
I0309 16:06:11.042529  2893 net.cpp:406] res2.3.sum_res2.3.relu_0_split <- res2.3.sum
I0309 16:06:11.042536  2893 net.cpp:380] res2.3.sum_res2.3.relu_0_split -> res2.3.sum_res2.3.relu_0_split_0
I0309 16:06:11.042544  2893 net.cpp:380] res2.3.sum_res2.3.relu_0_split -> res2.3.sum_res2.3.relu_0_split_1
I0309 16:06:11.042594  2893 net.cpp:122] Setting up res2.3.sum_res2.3.relu_0_split
I0309 16:06:11.042603  2893 net.cpp:129] Top shape: 100 128 28 28 (10035200)
I0309 16:06:11.042609  2893 net.cpp:129] Top shape: 100 128 28 28 (10035200)
I0309 16:06:11.042613  2893 net.cpp:137] Memory required for data: 2247886000
I0309 16:06:11.042615  2893 layer_factory.hpp:77] Creating layer res3.1.conv1
I0309 16:06:11.042637  2893 net.cpp:84] Creating Layer res3.1.conv1
I0309 16:06:11.042642  2893 net.cpp:406] res3.1.conv1 <- res2.3.sum_res2.3.relu_0_split_0
I0309 16:06:11.042650  2893 net.cpp:380] res3.1.conv1 -> res3.1.conv1
I0309 16:06:11.044876  2893 net.cpp:122] Setting up res3.1.conv1
I0309 16:06:11.044890  2893 net.cpp:129] Top shape: 100 128 28 28 (10035200)
I0309 16:06:11.044911  2893 net.cpp:137] Memory required for data: 2288026800
I0309 16:06:11.044916  2893 layer_factory.hpp:77] Creating layer res3.1.conv1/bn
I0309 16:06:11.044925  2893 net.cpp:84] Creating Layer res3.1.conv1/bn
I0309 16:06:11.044929  2893 net.cpp:406] res3.1.conv1/bn <- res3.1.conv1
I0309 16:06:11.044935  2893 net.cpp:380] res3.1.conv1/bn -> res3.1.conv1/bn
I0309 16:06:11.045163  2893 net.cpp:122] Setting up res3.1.conv1/bn
I0309 16:06:11.045172  2893 net.cpp:129] Top shape: 100 128 28 28 (10035200)
I0309 16:06:11.045176  2893 net.cpp:137] Memory required for data: 2328167600
I0309 16:06:11.045183  2893 layer_factory.hpp:77] Creating layer res3.1.conv1/bn_scale
I0309 16:06:11.045189  2893 net.cpp:84] Creating Layer res3.1.conv1/bn_scale
I0309 16:06:11.045192  2893 net.cpp:406] res3.1.conv1/bn_scale <- res3.1.conv1/bn
I0309 16:06:11.045199  2893 net.cpp:367] res3.1.conv1/bn_scale -> res3.1.conv1/bn (in-place)
I0309 16:06:11.045258  2893 layer_factory.hpp:77] Creating layer res3.1.conv1/bn_scale
I0309 16:06:11.045379  2893 net.cpp:122] Setting up res3.1.conv1/bn_scale
I0309 16:06:11.045387  2893 net.cpp:129] Top shape: 100 128 28 28 (10035200)
I0309 16:06:11.045390  2893 net.cpp:137] Memory required for data: 2368308400
I0309 16:06:11.045406  2893 layer_factory.hpp:77] Creating layer res3.1.conv1/relu
I0309 16:06:11.045413  2893 net.cpp:84] Creating Layer res3.1.conv1/relu
I0309 16:06:11.045418  2893 net.cpp:406] res3.1.conv1/relu <- res3.1.conv1/bn
I0309 16:06:11.045421  2893 net.cpp:367] res3.1.conv1/relu -> res3.1.conv1/bn (in-place)
I0309 16:06:11.045955  2893 net.cpp:122] Setting up res3.1.conv1/relu
I0309 16:06:11.045984  2893 net.cpp:129] Top shape: 100 128 28 28 (10035200)
I0309 16:06:11.045989  2893 net.cpp:137] Memory required for data: 2408449200
I0309 16:06:11.045991  2893 layer_factory.hpp:77] Creating layer res3.1.conv2
I0309 16:06:11.046001  2893 net.cpp:84] Creating Layer res3.1.conv2
I0309 16:06:11.046005  2893 net.cpp:406] res3.1.conv2 <- res3.1.conv1/bn
I0309 16:06:11.046011  2893 net.cpp:380] res3.1.conv2 -> res3.1.conv2
I0309 16:06:11.047999  2893 net.cpp:122] Setting up res3.1.conv2
I0309 16:06:11.048013  2893 net.cpp:129] Top shape: 100 128 14 14 (2508800)
I0309 16:06:11.048032  2893 net.cpp:137] Memory required for data: 2418484400
I0309 16:06:11.048038  2893 layer_factory.hpp:77] Creating layer res3.1.conv2/bn
I0309 16:06:11.048045  2893 net.cpp:84] Creating Layer res3.1.conv2/bn
I0309 16:06:11.048050  2893 net.cpp:406] res3.1.conv2/bn <- res3.1.conv2
I0309 16:06:11.048055  2893 net.cpp:380] res3.1.conv2/bn -> res3.1.conv2/bn
I0309 16:06:11.048321  2893 net.cpp:122] Setting up res3.1.conv2/bn
I0309 16:06:11.048329  2893 net.cpp:129] Top shape: 100 128 14 14 (2508800)
I0309 16:06:11.048333  2893 net.cpp:137] Memory required for data: 2428519600
I0309 16:06:11.048341  2893 layer_factory.hpp:77] Creating layer res3.1.conv2/bn_scale
I0309 16:06:11.048346  2893 net.cpp:84] Creating Layer res3.1.conv2/bn_scale
I0309 16:06:11.048349  2893 net.cpp:406] res3.1.conv2/bn_scale <- res3.1.conv2/bn
I0309 16:06:11.048354  2893 net.cpp:367] res3.1.conv2/bn_scale -> res3.1.conv2/bn (in-place)
I0309 16:06:11.048430  2893 layer_factory.hpp:77] Creating layer res3.1.conv2/bn_scale
I0309 16:06:11.048552  2893 net.cpp:122] Setting up res3.1.conv2/bn_scale
I0309 16:06:11.048561  2893 net.cpp:129] Top shape: 100 128 14 14 (2508800)
I0309 16:06:11.048564  2893 net.cpp:137] Memory required for data: 2438554800
I0309 16:06:11.048570  2893 layer_factory.hpp:77] Creating layer res3.1.conv2/relu
I0309 16:06:11.048575  2893 net.cpp:84] Creating Layer res3.1.conv2/relu
I0309 16:06:11.048579  2893 net.cpp:406] res3.1.conv2/relu <- res3.1.conv2/bn
I0309 16:06:11.048597  2893 net.cpp:367] res3.1.conv2/relu -> res3.1.conv2/bn (in-place)
I0309 16:06:11.049393  2893 net.cpp:122] Setting up res3.1.conv2/relu
I0309 16:06:11.049407  2893 net.cpp:129] Top shape: 100 128 14 14 (2508800)
I0309 16:06:11.049425  2893 net.cpp:137] Memory required for data: 2448590000
I0309 16:06:11.049429  2893 layer_factory.hpp:77] Creating layer res3.1.conv3
I0309 16:06:11.049438  2893 net.cpp:84] Creating Layer res3.1.conv3
I0309 16:06:11.049443  2893 net.cpp:406] res3.1.conv3 <- res3.1.conv2/bn
I0309 16:06:11.049448  2893 net.cpp:380] res3.1.conv3 -> res3.1.conv3
I0309 16:06:11.051426  2893 net.cpp:122] Setting up res3.1.conv3
I0309 16:06:11.051441  2893 net.cpp:129] Top shape: 100 512 14 14 (10035200)
I0309 16:06:11.051445  2893 net.cpp:137] Memory required for data: 2488730800
I0309 16:06:11.051450  2893 layer_factory.hpp:77] Creating layer res3.1.conv3/bn
I0309 16:06:11.051456  2893 net.cpp:84] Creating Layer res3.1.conv3/bn
I0309 16:06:11.051460  2893 net.cpp:406] res3.1.conv3/bn <- res3.1.conv3
I0309 16:06:11.051465  2893 net.cpp:380] res3.1.conv3/bn -> res3.1.conv3/bn
I0309 16:06:11.051723  2893 net.cpp:122] Setting up res3.1.conv3/bn
I0309 16:06:11.051733  2893 net.cpp:129] Top shape: 100 512 14 14 (10035200)
I0309 16:06:11.051738  2893 net.cpp:137] Memory required for data: 2528871600
I0309 16:06:11.051743  2893 layer_factory.hpp:77] Creating layer res3.1.conv3/bn_scale
I0309 16:06:11.051749  2893 net.cpp:84] Creating Layer res3.1.conv3/bn_scale
I0309 16:06:11.051753  2893 net.cpp:406] res3.1.conv3/bn_scale <- res3.1.conv3/bn
I0309 16:06:11.051759  2893 net.cpp:367] res3.1.conv3/bn_scale -> res3.1.conv3/bn (in-place)
I0309 16:06:11.051800  2893 layer_factory.hpp:77] Creating layer res3.1.conv3/bn_scale
I0309 16:06:11.051924  2893 net.cpp:122] Setting up res3.1.conv3/bn_scale
I0309 16:06:11.051932  2893 net.cpp:129] Top shape: 100 512 14 14 (10035200)
I0309 16:06:11.051935  2893 net.cpp:137] Memory required for data: 2569012400
I0309 16:06:11.051944  2893 layer_factory.hpp:77] Creating layer res3.1.skipConv
I0309 16:06:11.051951  2893 net.cpp:84] Creating Layer res3.1.skipConv
I0309 16:06:11.051956  2893 net.cpp:406] res3.1.skipConv <- res2.3.sum_res2.3.relu_0_split_1
I0309 16:06:11.051964  2893 net.cpp:380] res3.1.skipConv -> res3.1.skipConv
I0309 16:06:11.053894  2893 net.cpp:122] Setting up res3.1.skipConv
I0309 16:06:11.053906  2893 net.cpp:129] Top shape: 100 512 14 14 (10035200)
I0309 16:06:11.053927  2893 net.cpp:137] Memory required for data: 2609153200
I0309 16:06:11.053932  2893 layer_factory.hpp:77] Creating layer res3.1skipConv/bn
I0309 16:06:11.053938  2893 net.cpp:84] Creating Layer res3.1skipConv/bn
I0309 16:06:11.053942  2893 net.cpp:406] res3.1skipConv/bn <- res3.1.skipConv
I0309 16:06:11.053951  2893 net.cpp:380] res3.1skipConv/bn -> res3.1.skipConv/bn
I0309 16:06:11.054261  2893 net.cpp:122] Setting up res3.1skipConv/bn
I0309 16:06:11.054284  2893 net.cpp:129] Top shape: 100 512 14 14 (10035200)
I0309 16:06:11.054302  2893 net.cpp:137] Memory required for data: 2649294000
I0309 16:06:11.054309  2893 layer_factory.hpp:77] Creating layer res3.1skipConv/bn_scale
I0309 16:06:11.054332  2893 net.cpp:84] Creating Layer res3.1skipConv/bn_scale
I0309 16:06:11.054334  2893 net.cpp:406] res3.1skipConv/bn_scale <- res3.1.skipConv/bn
I0309 16:06:11.054339  2893 net.cpp:367] res3.1skipConv/bn_scale -> res3.1.skipConv/bn (in-place)
I0309 16:06:11.054411  2893 layer_factory.hpp:77] Creating layer res3.1skipConv/bn_scale
I0309 16:06:11.054558  2893 net.cpp:122] Setting up res3.1skipConv/bn_scale
I0309 16:06:11.054566  2893 net.cpp:129] Top shape: 100 512 14 14 (10035200)
I0309 16:06:11.054569  2893 net.cpp:137] Memory required for data: 2689434800
I0309 16:06:11.054575  2893 layer_factory.hpp:77] Creating layer res3.1.sum
I0309 16:06:11.054581  2893 net.cpp:84] Creating Layer res3.1.sum
I0309 16:06:11.054585  2893 net.cpp:406] res3.1.sum <- res3.1.conv3/bn
I0309 16:06:11.054589  2893 net.cpp:406] res3.1.sum <- res3.1.skipConv/bn
I0309 16:06:11.054596  2893 net.cpp:380] res3.1.sum -> res3.1.sum
I0309 16:06:11.054636  2893 net.cpp:122] Setting up res3.1.sum
I0309 16:06:11.054644  2893 net.cpp:129] Top shape: 100 512 14 14 (10035200)
I0309 16:06:11.054647  2893 net.cpp:137] Memory required for data: 2729575600
I0309 16:06:11.054651  2893 layer_factory.hpp:77] Creating layer res3.1.relu
I0309 16:06:11.054659  2893 net.cpp:84] Creating Layer res3.1.relu
I0309 16:06:11.054662  2893 net.cpp:406] res3.1.relu <- res3.1.sum
I0309 16:06:11.054667  2893 net.cpp:367] res3.1.relu -> res3.1.sum (in-place)
I0309 16:06:11.055151  2893 net.cpp:122] Setting up res3.1.relu
I0309 16:06:11.055178  2893 net.cpp:129] Top shape: 100 512 14 14 (10035200)
I0309 16:06:11.055182  2893 net.cpp:137] Memory required for data: 2769716400
I0309 16:06:11.055186  2893 layer_factory.hpp:77] Creating layer res3.1.sum_res3.1.relu_0_split
I0309 16:06:11.055191  2893 net.cpp:84] Creating Layer res3.1.sum_res3.1.relu_0_split
I0309 16:06:11.055194  2893 net.cpp:406] res3.1.sum_res3.1.relu_0_split <- res3.1.sum
I0309 16:06:11.055202  2893 net.cpp:380] res3.1.sum_res3.1.relu_0_split -> res3.1.sum_res3.1.relu_0_split_0
I0309 16:06:11.055208  2893 net.cpp:380] res3.1.sum_res3.1.relu_0_split -> res3.1.sum_res3.1.relu_0_split_1
I0309 16:06:11.055272  2893 net.cpp:122] Setting up res3.1.sum_res3.1.relu_0_split
I0309 16:06:11.055280  2893 net.cpp:129] Top shape: 100 512 14 14 (10035200)
I0309 16:06:11.055284  2893 net.cpp:129] Top shape: 100 512 14 14 (10035200)
I0309 16:06:11.055287  2893 net.cpp:137] Memory required for data: 2849998000
I0309 16:06:11.055291  2893 layer_factory.hpp:77] Creating layer res3.2.conv1
I0309 16:06:11.055310  2893 net.cpp:84] Creating Layer res3.2.conv1
I0309 16:06:11.055316  2893 net.cpp:406] res3.2.conv1 <- res3.1.sum_res3.1.relu_0_split_0
I0309 16:06:11.055323  2893 net.cpp:380] res3.2.conv1 -> res3.2.conv1
I0309 16:06:11.057200  2893 net.cpp:122] Setting up res3.2.conv1
I0309 16:06:11.057226  2893 net.cpp:129] Top shape: 100 128 14 14 (2508800)
I0309 16:06:11.057230  2893 net.cpp:137] Memory required for data: 2860033200
I0309 16:06:11.057238  2893 layer_factory.hpp:77] Creating layer res3.2.conv1/bn
I0309 16:06:11.057245  2893 net.cpp:84] Creating Layer res3.2.conv1/bn
I0309 16:06:11.057250  2893 net.cpp:406] res3.2.conv1/bn <- res3.2.conv1
I0309 16:06:11.057274  2893 net.cpp:380] res3.2.conv1/bn -> res3.2.conv1/bn
I0309 16:06:11.057492  2893 net.cpp:122] Setting up res3.2.conv1/bn
I0309 16:06:11.057502  2893 net.cpp:129] Top shape: 100 128 14 14 (2508800)
I0309 16:06:11.057504  2893 net.cpp:137] Memory required for data: 2870068400
I0309 16:06:11.057512  2893 layer_factory.hpp:77] Creating layer res3.2.conv1/bn_scale
I0309 16:06:11.057518  2893 net.cpp:84] Creating Layer res3.2.conv1/bn_scale
I0309 16:06:11.057521  2893 net.cpp:406] res3.2.conv1/bn_scale <- res3.2.conv1/bn
I0309 16:06:11.057525  2893 net.cpp:367] res3.2.conv1/bn_scale -> res3.2.conv1/bn (in-place)
I0309 16:06:11.057586  2893 layer_factory.hpp:77] Creating layer res3.2.conv1/bn_scale
I0309 16:06:11.057708  2893 net.cpp:122] Setting up res3.2.conv1/bn_scale
I0309 16:06:11.057716  2893 net.cpp:129] Top shape: 100 128 14 14 (2508800)
I0309 16:06:11.057719  2893 net.cpp:137] Memory required for data: 2880103600
I0309 16:06:11.057725  2893 layer_factory.hpp:77] Creating layer res3.2.conv1/relu
I0309 16:06:11.057732  2893 net.cpp:84] Creating Layer res3.2.conv1/relu
I0309 16:06:11.057736  2893 net.cpp:406] res3.2.conv1/relu <- res3.2.conv1/bn
I0309 16:06:11.057741  2893 net.cpp:367] res3.2.conv1/relu -> res3.2.conv1/bn (in-place)
I0309 16:06:11.058292  2893 net.cpp:122] Setting up res3.2.conv1/relu
I0309 16:06:11.058305  2893 net.cpp:129] Top shape: 100 128 14 14 (2508800)
I0309 16:06:11.058320  2893 net.cpp:137] Memory required for data: 2890138800
I0309 16:06:11.058322  2893 layer_factory.hpp:77] Creating layer res3.2.conv2
I0309 16:06:11.058329  2893 net.cpp:84] Creating Layer res3.2.conv2
I0309 16:06:11.058333  2893 net.cpp:406] res3.2.conv2 <- res3.2.conv1/bn
I0309 16:06:11.058357  2893 net.cpp:380] res3.2.conv2 -> res3.2.conv2
I0309 16:06:11.061053  2893 net.cpp:122] Setting up res3.2.conv2
I0309 16:06:11.061066  2893 net.cpp:129] Top shape: 100 128 14 14 (2508800)
I0309 16:06:11.061069  2893 net.cpp:137] Memory required for data: 2900174000
I0309 16:06:11.061075  2893 layer_factory.hpp:77] Creating layer res3.2.conv2/bn
I0309 16:06:11.061082  2893 net.cpp:84] Creating Layer res3.2.conv2/bn
I0309 16:06:11.061086  2893 net.cpp:406] res3.2.conv2/bn <- res3.2.conv2
I0309 16:06:11.061091  2893 net.cpp:380] res3.2.conv2/bn -> res3.2.conv2/bn
I0309 16:06:11.061358  2893 net.cpp:122] Setting up res3.2.conv2/bn
I0309 16:06:11.061368  2893 net.cpp:129] Top shape: 100 128 14 14 (2508800)
I0309 16:06:11.061372  2893 net.cpp:137] Memory required for data: 2910209200
I0309 16:06:11.061378  2893 layer_factory.hpp:77] Creating layer res3.2.conv2/bn_scale
I0309 16:06:11.061401  2893 net.cpp:84] Creating Layer res3.2.conv2/bn_scale
I0309 16:06:11.061405  2893 net.cpp:406] res3.2.conv2/bn_scale <- res3.2.conv2/bn
I0309 16:06:11.061425  2893 net.cpp:367] res3.2.conv2/bn_scale -> res3.2.conv2/bn (in-place)
I0309 16:06:11.061472  2893 layer_factory.hpp:77] Creating layer res3.2.conv2/bn_scale
I0309 16:06:11.061597  2893 net.cpp:122] Setting up res3.2.conv2/bn_scale
I0309 16:06:11.061605  2893 net.cpp:129] Top shape: 100 128 14 14 (2508800)
I0309 16:06:11.061609  2893 net.cpp:137] Memory required for data: 2920244400
I0309 16:06:11.061614  2893 layer_factory.hpp:77] Creating layer res3.2.conv2/relu
I0309 16:06:11.061620  2893 net.cpp:84] Creating Layer res3.2.conv2/relu
I0309 16:06:11.061623  2893 net.cpp:406] res3.2.conv2/relu <- res3.2.conv2/bn
I0309 16:06:11.061630  2893 net.cpp:367] res3.2.conv2/relu -> res3.2.conv2/bn (in-place)
I0309 16:06:11.062448  2893 net.cpp:122] Setting up res3.2.conv2/relu
I0309 16:06:11.062463  2893 net.cpp:129] Top shape: 100 128 14 14 (2508800)
I0309 16:06:11.062465  2893 net.cpp:137] Memory required for data: 2930279600
I0309 16:06:11.062469  2893 layer_factory.hpp:77] Creating layer res3.2.conv3
I0309 16:06:11.062476  2893 net.cpp:84] Creating Layer res3.2.conv3
I0309 16:06:11.062481  2893 net.cpp:406] res3.2.conv3 <- res3.2.conv2/bn
I0309 16:06:11.062489  2893 net.cpp:380] res3.2.conv3 -> res3.2.conv3
I0309 16:06:11.064381  2893 net.cpp:122] Setting up res3.2.conv3
I0309 16:06:11.064395  2893 net.cpp:129] Top shape: 100 512 14 14 (10035200)
I0309 16:06:11.064399  2893 net.cpp:137] Memory required for data: 2970420400
I0309 16:06:11.064404  2893 layer_factory.hpp:77] Creating layer res3.2.conv3/bn
I0309 16:06:11.064410  2893 net.cpp:84] Creating Layer res3.2.conv3/bn
I0309 16:06:11.064414  2893 net.cpp:406] res3.2.conv3/bn <- res3.2.conv3
I0309 16:06:11.064420  2893 net.cpp:380] res3.2.conv3/bn -> res3.2.conv3/bn
I0309 16:06:11.064680  2893 net.cpp:122] Setting up res3.2.conv3/bn
I0309 16:06:11.064689  2893 net.cpp:129] Top shape: 100 512 14 14 (10035200)
I0309 16:06:11.064692  2893 net.cpp:137] Memory required for data: 3010561200
I0309 16:06:11.064700  2893 layer_factory.hpp:77] Creating layer res3.2.conv3/bn_scale
I0309 16:06:11.064705  2893 net.cpp:84] Creating Layer res3.2.conv3/bn_scale
I0309 16:06:11.064709  2893 net.cpp:406] res3.2.conv3/bn_scale <- res3.2.conv3/bn
I0309 16:06:11.064715  2893 net.cpp:367] res3.2.conv3/bn_scale -> res3.2.conv3/bn (in-place)
I0309 16:06:11.064757  2893 layer_factory.hpp:77] Creating layer res3.2.conv3/bn_scale
I0309 16:06:11.064883  2893 net.cpp:122] Setting up res3.2.conv3/bn_scale
I0309 16:06:11.064893  2893 net.cpp:129] Top shape: 100 512 14 14 (10035200)
I0309 16:06:11.064896  2893 net.cpp:137] Memory required for data: 3050702000
I0309 16:06:11.064903  2893 layer_factory.hpp:77] Creating layer res3.2.sum
I0309 16:06:11.064908  2893 net.cpp:84] Creating Layer res3.2.sum
I0309 16:06:11.064913  2893 net.cpp:406] res3.2.sum <- res3.2.conv3/bn
I0309 16:06:11.064916  2893 net.cpp:406] res3.2.sum <- res3.1.sum_res3.1.relu_0_split_1
I0309 16:06:11.064921  2893 net.cpp:380] res3.2.sum -> res3.2.sum
I0309 16:06:11.064965  2893 net.cpp:122] Setting up res3.2.sum
I0309 16:06:11.064972  2893 net.cpp:129] Top shape: 100 512 14 14 (10035200)
I0309 16:06:11.064986  2893 net.cpp:137] Memory required for data: 3090842800
I0309 16:06:11.064991  2893 layer_factory.hpp:77] Creating layer res3.2.relu
I0309 16:06:11.064996  2893 net.cpp:84] Creating Layer res3.2.relu
I0309 16:06:11.065001  2893 net.cpp:406] res3.2.relu <- res3.2.sum
I0309 16:06:11.065006  2893 net.cpp:367] res3.2.relu -> res3.2.sum (in-place)
I0309 16:06:11.065490  2893 net.cpp:122] Setting up res3.2.relu
I0309 16:06:11.065500  2893 net.cpp:129] Top shape: 100 512 14 14 (10035200)
I0309 16:06:11.065520  2893 net.cpp:137] Memory required for data: 3130983600
I0309 16:06:11.065522  2893 layer_factory.hpp:77] Creating layer res3.2.sum_res3.2.relu_0_split
I0309 16:06:11.065531  2893 net.cpp:84] Creating Layer res3.2.sum_res3.2.relu_0_split
I0309 16:06:11.065533  2893 net.cpp:406] res3.2.sum_res3.2.relu_0_split <- res3.2.sum
I0309 16:06:11.065538  2893 net.cpp:380] res3.2.sum_res3.2.relu_0_split -> res3.2.sum_res3.2.relu_0_split_0
I0309 16:06:11.065546  2893 net.cpp:380] res3.2.sum_res3.2.relu_0_split -> res3.2.sum_res3.2.relu_0_split_1
I0309 16:06:11.065624  2893 net.cpp:122] Setting up res3.2.sum_res3.2.relu_0_split
I0309 16:06:11.065634  2893 net.cpp:129] Top shape: 100 512 14 14 (10035200)
I0309 16:06:11.065637  2893 net.cpp:129] Top shape: 100 512 14 14 (10035200)
I0309 16:06:11.065640  2893 net.cpp:137] Memory required for data: 3211265200
I0309 16:06:11.065644  2893 layer_factory.hpp:77] Creating layer res3.3.conv1
I0309 16:06:11.065652  2893 net.cpp:84] Creating Layer res3.3.conv1
I0309 16:06:11.065672  2893 net.cpp:406] res3.3.conv1 <- res3.2.sum_res3.2.relu_0_split_0
I0309 16:06:11.065683  2893 net.cpp:380] res3.3.conv1 -> res3.3.conv1
I0309 16:06:11.067597  2893 net.cpp:122] Setting up res3.3.conv1
I0309 16:06:11.067612  2893 net.cpp:129] Top shape: 100 128 14 14 (2508800)
I0309 16:06:11.067615  2893 net.cpp:137] Memory required for data: 3221300400
I0309 16:06:11.067620  2893 layer_factory.hpp:77] Creating layer res3.3.conv1/bn
I0309 16:06:11.067627  2893 net.cpp:84] Creating Layer res3.3.conv1/bn
I0309 16:06:11.067631  2893 net.cpp:406] res3.3.conv1/bn <- res3.3.conv1
I0309 16:06:11.067636  2893 net.cpp:380] res3.3.conv1/bn -> res3.3.conv1/bn
I0309 16:06:11.067894  2893 net.cpp:122] Setting up res3.3.conv1/bn
I0309 16:06:11.067904  2893 net.cpp:129] Top shape: 100 128 14 14 (2508800)
I0309 16:06:11.067908  2893 net.cpp:137] Memory required for data: 3231335600
I0309 16:06:11.067914  2893 layer_factory.hpp:77] Creating layer res3.3.conv1/bn_scale
I0309 16:06:11.067920  2893 net.cpp:84] Creating Layer res3.3.conv1/bn_scale
I0309 16:06:11.067925  2893 net.cpp:406] res3.3.conv1/bn_scale <- res3.3.conv1/bn
I0309 16:06:11.067929  2893 net.cpp:367] res3.3.conv1/bn_scale -> res3.3.conv1/bn (in-place)
I0309 16:06:11.067973  2893 layer_factory.hpp:77] Creating layer res3.3.conv1/bn_scale
I0309 16:06:11.068095  2893 net.cpp:122] Setting up res3.3.conv1/bn_scale
I0309 16:06:11.068104  2893 net.cpp:129] Top shape: 100 128 14 14 (2508800)
I0309 16:06:11.068107  2893 net.cpp:137] Memory required for data: 3241370800
I0309 16:06:11.068112  2893 layer_factory.hpp:77] Creating layer res3.3.conv1/relu
I0309 16:06:11.068120  2893 net.cpp:84] Creating Layer res3.3.conv1/relu
I0309 16:06:11.068125  2893 net.cpp:406] res3.3.conv1/relu <- res3.3.conv1/bn
I0309 16:06:11.068130  2893 net.cpp:367] res3.3.conv1/relu -> res3.3.conv1/bn (in-place)
I0309 16:06:11.068625  2893 net.cpp:122] Setting up res3.3.conv1/relu
I0309 16:06:11.068636  2893 net.cpp:129] Top shape: 100 128 14 14 (2508800)
I0309 16:06:11.068639  2893 net.cpp:137] Memory required for data: 3251406000
I0309 16:06:11.068642  2893 layer_factory.hpp:77] Creating layer res3.3.conv2
I0309 16:06:11.068650  2893 net.cpp:84] Creating Layer res3.3.conv2
I0309 16:06:11.068653  2893 net.cpp:406] res3.3.conv2 <- res3.3.conv1/bn
I0309 16:06:11.068660  2893 net.cpp:380] res3.3.conv2 -> res3.3.conv2
I0309 16:06:11.071727  2893 net.cpp:122] Setting up res3.3.conv2
I0309 16:06:11.071740  2893 net.cpp:129] Top shape: 100 128 14 14 (2508800)
I0309 16:06:11.071754  2893 net.cpp:137] Memory required for data: 3261441200
I0309 16:06:11.071760  2893 layer_factory.hpp:77] Creating layer res3.3.conv2/bn
I0309 16:06:11.071768  2893 net.cpp:84] Creating Layer res3.3.conv2/bn
I0309 16:06:11.071772  2893 net.cpp:406] res3.3.conv2/bn <- res3.3.conv2
I0309 16:06:11.071779  2893 net.cpp:380] res3.3.conv2/bn -> res3.3.conv2/bn
I0309 16:06:11.072059  2893 net.cpp:122] Setting up res3.3.conv2/bn
I0309 16:06:11.072068  2893 net.cpp:129] Top shape: 100 128 14 14 (2508800)
I0309 16:06:11.072072  2893 net.cpp:137] Memory required for data: 3271476400
I0309 16:06:11.072078  2893 layer_factory.hpp:77] Creating layer res3.3.conv2/bn_scale
I0309 16:06:11.072084  2893 net.cpp:84] Creating Layer res3.3.conv2/bn_scale
I0309 16:06:11.072088  2893 net.cpp:406] res3.3.conv2/bn_scale <- res3.3.conv2/bn
I0309 16:06:11.072093  2893 net.cpp:367] res3.3.conv2/bn_scale -> res3.3.conv2/bn (in-place)
I0309 16:06:11.072152  2893 layer_factory.hpp:77] Creating layer res3.3.conv2/bn_scale
I0309 16:06:11.072273  2893 net.cpp:122] Setting up res3.3.conv2/bn_scale
I0309 16:06:11.072280  2893 net.cpp:129] Top shape: 100 128 14 14 (2508800)
I0309 16:06:11.072283  2893 net.cpp:137] Memory required for data: 3281511600
I0309 16:06:11.072288  2893 layer_factory.hpp:77] Creating layer res3.3.conv2/relu
I0309 16:06:11.072294  2893 net.cpp:84] Creating Layer res3.3.conv2/relu
I0309 16:06:11.072299  2893 net.cpp:406] res3.3.conv2/relu <- res3.3.conv2/bn
I0309 16:06:11.072305  2893 net.cpp:367] res3.3.conv2/relu -> res3.3.conv2/bn (in-place)
I0309 16:06:11.073109  2893 net.cpp:122] Setting up res3.3.conv2/relu
I0309 16:06:11.073123  2893 net.cpp:129] Top shape: 100 128 14 14 (2508800)
I0309 16:06:11.073143  2893 net.cpp:137] Memory required for data: 3291546800
I0309 16:06:11.073146  2893 layer_factory.hpp:77] Creating layer res3.3.conv3
I0309 16:06:11.073155  2893 net.cpp:84] Creating Layer res3.3.conv3
I0309 16:06:11.073160  2893 net.cpp:406] res3.3.conv3 <- res3.3.conv2/bn
I0309 16:06:11.073168  2893 net.cpp:380] res3.3.conv3 -> res3.3.conv3
I0309 16:06:11.076071  2893 net.cpp:122] Setting up res3.3.conv3
I0309 16:06:11.076100  2893 net.cpp:129] Top shape: 100 512 14 14 (10035200)
I0309 16:06:11.076105  2893 net.cpp:137] Memory required for data: 3331687600
I0309 16:06:11.076112  2893 layer_factory.hpp:77] Creating layer res3.3.conv3/bn
I0309 16:06:11.076119  2893 net.cpp:84] Creating Layer res3.3.conv3/bn
I0309 16:06:11.076123  2893 net.cpp:406] res3.3.conv3/bn <- res3.3.conv3
I0309 16:06:11.076129  2893 net.cpp:380] res3.3.conv3/bn -> res3.3.conv3/bn
I0309 16:06:11.076390  2893 net.cpp:122] Setting up res3.3.conv3/bn
I0309 16:06:11.076398  2893 net.cpp:129] Top shape: 100 512 14 14 (10035200)
I0309 16:06:11.076401  2893 net.cpp:137] Memory required for data: 3371828400
I0309 16:06:11.076409  2893 layer_factory.hpp:77] Creating layer res3.3.conv3/bn_scale
I0309 16:06:11.076416  2893 net.cpp:84] Creating Layer res3.3.conv3/bn_scale
I0309 16:06:11.076418  2893 net.cpp:406] res3.3.conv3/bn_scale <- res3.3.conv3/bn
I0309 16:06:11.076426  2893 net.cpp:367] res3.3.conv3/bn_scale -> res3.3.conv3/bn (in-place)
I0309 16:06:11.076485  2893 layer_factory.hpp:77] Creating layer res3.3.conv3/bn_scale
I0309 16:06:11.076616  2893 net.cpp:122] Setting up res3.3.conv3/bn_scale
I0309 16:06:11.076623  2893 net.cpp:129] Top shape: 100 512 14 14 (10035200)
I0309 16:06:11.076627  2893 net.cpp:137] Memory required for data: 3411969200
I0309 16:06:11.076632  2893 layer_factory.hpp:77] Creating layer res3.3.sum
I0309 16:06:11.076638  2893 net.cpp:84] Creating Layer res3.3.sum
I0309 16:06:11.076642  2893 net.cpp:406] res3.3.sum <- res3.3.conv3/bn
I0309 16:06:11.076645  2893 net.cpp:406] res3.3.sum <- res3.2.sum_res3.2.relu_0_split_1
I0309 16:06:11.076653  2893 net.cpp:380] res3.3.sum -> res3.3.sum
I0309 16:06:11.076679  2893 net.cpp:122] Setting up res3.3.sum
I0309 16:06:11.076689  2893 net.cpp:129] Top shape: 100 512 14 14 (10035200)
I0309 16:06:11.076691  2893 net.cpp:137] Memory required for data: 3452110000
I0309 16:06:11.076695  2893 layer_factory.hpp:77] Creating layer res3.3.relu
I0309 16:06:11.076712  2893 net.cpp:84] Creating Layer res3.3.relu
I0309 16:06:11.076716  2893 net.cpp:406] res3.3.relu <- res3.3.sum
I0309 16:06:11.076721  2893 net.cpp:367] res3.3.relu -> res3.3.sum (in-place)
I0309 16:06:11.077183  2893 net.cpp:122] Setting up res3.3.relu
I0309 16:06:11.077210  2893 net.cpp:129] Top shape: 100 512 14 14 (10035200)
I0309 16:06:11.077214  2893 net.cpp:137] Memory required for data: 3492250800
I0309 16:06:11.077216  2893 layer_factory.hpp:77] Creating layer res3.3.sum_res3.3.relu_0_split
I0309 16:06:11.077224  2893 net.cpp:84] Creating Layer res3.3.sum_res3.3.relu_0_split
I0309 16:06:11.077226  2893 net.cpp:406] res3.3.sum_res3.3.relu_0_split <- res3.3.sum
I0309 16:06:11.077231  2893 net.cpp:380] res3.3.sum_res3.3.relu_0_split -> res3.3.sum_res3.3.relu_0_split_0
I0309 16:06:11.077239  2893 net.cpp:380] res3.3.sum_res3.3.relu_0_split -> res3.3.sum_res3.3.relu_0_split_1
I0309 16:06:11.077289  2893 net.cpp:122] Setting up res3.3.sum_res3.3.relu_0_split
I0309 16:06:11.077297  2893 net.cpp:129] Top shape: 100 512 14 14 (10035200)
I0309 16:06:11.077301  2893 net.cpp:129] Top shape: 100 512 14 14 (10035200)
I0309 16:06:11.077304  2893 net.cpp:137] Memory required for data: 3572532400
I0309 16:06:11.077307  2893 layer_factory.hpp:77] Creating layer res3.4.conv1
I0309 16:06:11.077316  2893 net.cpp:84] Creating Layer res3.4.conv1
I0309 16:06:11.077320  2893 net.cpp:406] res3.4.conv1 <- res3.3.sum_res3.3.relu_0_split_0
I0309 16:06:11.077327  2893 net.cpp:380] res3.4.conv1 -> res3.4.conv1
I0309 16:06:11.079530  2893 net.cpp:122] Setting up res3.4.conv1
I0309 16:06:11.079562  2893 net.cpp:129] Top shape: 100 128 14 14 (2508800)
I0309 16:06:11.079566  2893 net.cpp:137] Memory required for data: 3582567600
I0309 16:06:11.079572  2893 layer_factory.hpp:77] Creating layer res3.4.conv1/bn
I0309 16:06:11.079579  2893 net.cpp:84] Creating Layer res3.4.conv1/bn
I0309 16:06:11.079583  2893 net.cpp:406] res3.4.conv1/bn <- res3.4.conv1
I0309 16:06:11.079588  2893 net.cpp:380] res3.4.conv1/bn -> res3.4.conv1/bn
I0309 16:06:11.079856  2893 net.cpp:122] Setting up res3.4.conv1/bn
I0309 16:06:11.079866  2893 net.cpp:129] Top shape: 100 128 14 14 (2508800)
I0309 16:06:11.079869  2893 net.cpp:137] Memory required for data: 3592602800
I0309 16:06:11.079876  2893 layer_factory.hpp:77] Creating layer res3.4.conv1/bn_scale
I0309 16:06:11.079883  2893 net.cpp:84] Creating Layer res3.4.conv1/bn_scale
I0309 16:06:11.079887  2893 net.cpp:406] res3.4.conv1/bn_scale <- res3.4.conv1/bn
I0309 16:06:11.079892  2893 net.cpp:367] res3.4.conv1/bn_scale -> res3.4.conv1/bn (in-place)
I0309 16:06:11.079937  2893 layer_factory.hpp:77] Creating layer res3.4.conv1/bn_scale
I0309 16:06:11.080060  2893 net.cpp:122] Setting up res3.4.conv1/bn_scale
I0309 16:06:11.080070  2893 net.cpp:129] Top shape: 100 128 14 14 (2508800)
I0309 16:06:11.080072  2893 net.cpp:137] Memory required for data: 3602638000
I0309 16:06:11.080077  2893 layer_factory.hpp:77] Creating layer res3.4.conv1/relu
I0309 16:06:11.080082  2893 net.cpp:84] Creating Layer res3.4.conv1/relu
I0309 16:06:11.080086  2893 net.cpp:406] res3.4.conv1/relu <- res3.4.conv1/bn
I0309 16:06:11.080092  2893 net.cpp:367] res3.4.conv1/relu -> res3.4.conv1/bn (in-place)
I0309 16:06:11.080554  2893 net.cpp:122] Setting up res3.4.conv1/relu
I0309 16:06:11.080564  2893 net.cpp:129] Top shape: 100 128 14 14 (2508800)
I0309 16:06:11.080583  2893 net.cpp:137] Memory required for data: 3612673200
I0309 16:06:11.080586  2893 layer_factory.hpp:77] Creating layer res3.4.conv2
I0309 16:06:11.080595  2893 net.cpp:84] Creating Layer res3.4.conv2
I0309 16:06:11.080600  2893 net.cpp:406] res3.4.conv2 <- res3.4.conv1/bn
I0309 16:06:11.080607  2893 net.cpp:380] res3.4.conv2 -> res3.4.conv2
I0309 16:06:11.083106  2893 net.cpp:122] Setting up res3.4.conv2
I0309 16:06:11.083122  2893 net.cpp:129] Top shape: 100 128 14 14 (2508800)
I0309 16:06:11.083127  2893 net.cpp:137] Memory required for data: 3622708400
I0309 16:06:11.083132  2893 layer_factory.hpp:77] Creating layer res3.4.conv2/bn
I0309 16:06:11.083179  2893 net.cpp:84] Creating Layer res3.4.conv2/bn
I0309 16:06:11.083184  2893 net.cpp:406] res3.4.conv2/bn <- res3.4.conv2
I0309 16:06:11.083206  2893 net.cpp:380] res3.4.conv2/bn -> res3.4.conv2/bn
I0309 16:06:11.083521  2893 net.cpp:122] Setting up res3.4.conv2/bn
I0309 16:06:11.083545  2893 net.cpp:129] Top shape: 100 128 14 14 (2508800)
I0309 16:06:11.083549  2893 net.cpp:137] Memory required for data: 3632743600
I0309 16:06:11.083602  2893 layer_factory.hpp:77] Creating layer res3.4.conv2/bn_scale
I0309 16:06:11.083628  2893 net.cpp:84] Creating Layer res3.4.conv2/bn_scale
I0309 16:06:11.083632  2893 net.cpp:406] res3.4.conv2/bn_scale <- res3.4.conv2/bn
I0309 16:06:11.083638  2893 net.cpp:367] res3.4.conv2/bn_scale -> res3.4.conv2/bn (in-place)
I0309 16:06:11.083704  2893 layer_factory.hpp:77] Creating layer res3.4.conv2/bn_scale
I0309 16:06:11.083858  2893 net.cpp:122] Setting up res3.4.conv2/bn_scale
I0309 16:06:11.083866  2893 net.cpp:129] Top shape: 100 128 14 14 (2508800)
I0309 16:06:11.083884  2893 net.cpp:137] Memory required for data: 3642778800
I0309 16:06:11.083890  2893 layer_factory.hpp:77] Creating layer res3.4.conv2/relu
I0309 16:06:11.083899  2893 net.cpp:84] Creating Layer res3.4.conv2/relu
I0309 16:06:11.083901  2893 net.cpp:406] res3.4.conv2/relu <- res3.4.conv2/bn
I0309 16:06:11.083906  2893 net.cpp:367] res3.4.conv2/relu -> res3.4.conv2/bn (in-place)
I0309 16:06:11.084390  2893 net.cpp:122] Setting up res3.4.conv2/relu
I0309 16:06:11.084403  2893 net.cpp:129] Top shape: 100 128 14 14 (2508800)
I0309 16:06:11.084421  2893 net.cpp:137] Memory required for data: 3652814000
I0309 16:06:11.084424  2893 layer_factory.hpp:77] Creating layer res3.4.conv3
I0309 16:06:11.084432  2893 net.cpp:84] Creating Layer res3.4.conv3
I0309 16:06:11.084437  2893 net.cpp:406] res3.4.conv3 <- res3.4.conv2/bn
I0309 16:06:11.084442  2893 net.cpp:380] res3.4.conv3 -> res3.4.conv3
I0309 16:06:11.086513  2893 net.cpp:122] Setting up res3.4.conv3
I0309 16:06:11.086542  2893 net.cpp:129] Top shape: 100 512 14 14 (10035200)
I0309 16:06:11.086547  2893 net.cpp:137] Memory required for data: 3692954800
I0309 16:06:11.086552  2893 layer_factory.hpp:77] Creating layer res3.4.conv3/bn
I0309 16:06:11.086560  2893 net.cpp:84] Creating Layer res3.4.conv3/bn
I0309 16:06:11.086565  2893 net.cpp:406] res3.4.conv3/bn <- res3.4.conv3
I0309 16:06:11.086570  2893 net.cpp:380] res3.4.conv3/bn -> res3.4.conv3/bn
I0309 16:06:11.086843  2893 net.cpp:122] Setting up res3.4.conv3/bn
I0309 16:06:11.086853  2893 net.cpp:129] Top shape: 100 512 14 14 (10035200)
I0309 16:06:11.086855  2893 net.cpp:137] Memory required for data: 3733095600
I0309 16:06:11.086863  2893 layer_factory.hpp:77] Creating layer res3.4.conv3/bn_scale
I0309 16:06:11.086870  2893 net.cpp:84] Creating Layer res3.4.conv3/bn_scale
I0309 16:06:11.086874  2893 net.cpp:406] res3.4.conv3/bn_scale <- res3.4.conv3/bn
I0309 16:06:11.086879  2893 net.cpp:367] res3.4.conv3/bn_scale -> res3.4.conv3/bn (in-place)
I0309 16:06:11.086941  2893 layer_factory.hpp:77] Creating layer res3.4.conv3/bn_scale
I0309 16:06:11.087080  2893 net.cpp:122] Setting up res3.4.conv3/bn_scale
I0309 16:06:11.087088  2893 net.cpp:129] Top shape: 100 512 14 14 (10035200)
I0309 16:06:11.087091  2893 net.cpp:137] Memory required for data: 3773236400
I0309 16:06:11.087097  2893 layer_factory.hpp:77] Creating layer res3.4.sum
I0309 16:06:11.087103  2893 net.cpp:84] Creating Layer res3.4.sum
I0309 16:06:11.087107  2893 net.cpp:406] res3.4.sum <- res3.4.conv3/bn
I0309 16:06:11.087112  2893 net.cpp:406] res3.4.sum <- res3.3.sum_res3.3.relu_0_split_1
I0309 16:06:11.087119  2893 net.cpp:380] res3.4.sum -> res3.4.sum
I0309 16:06:11.087149  2893 net.cpp:122] Setting up res3.4.sum
I0309 16:06:11.087157  2893 net.cpp:129] Top shape: 100 512 14 14 (10035200)
I0309 16:06:11.087160  2893 net.cpp:137] Memory required for data: 3813377200
I0309 16:06:11.087178  2893 layer_factory.hpp:77] Creating layer res3.4.relu
I0309 16:06:11.087183  2893 net.cpp:84] Creating Layer res3.4.relu
I0309 16:06:11.087198  2893 net.cpp:406] res3.4.relu <- res3.4.sum
I0309 16:06:11.087203  2893 net.cpp:367] res3.4.relu -> res3.4.sum (in-place)
I0309 16:06:11.088021  2893 net.cpp:122] Setting up res3.4.relu
I0309 16:06:11.088034  2893 net.cpp:129] Top shape: 100 512 14 14 (10035200)
I0309 16:06:11.088054  2893 net.cpp:137] Memory required for data: 3853518000
I0309 16:06:11.088057  2893 layer_factory.hpp:77] Creating layer res3.4.sum_res3.4.relu_0_split
I0309 16:06:11.088064  2893 net.cpp:84] Creating Layer res3.4.sum_res3.4.relu_0_split
I0309 16:06:11.088068  2893 net.cpp:406] res3.4.sum_res3.4.relu_0_split <- res3.4.sum
I0309 16:06:11.088074  2893 net.cpp:380] res3.4.sum_res3.4.relu_0_split -> res3.4.sum_res3.4.relu_0_split_0
I0309 16:06:11.088083  2893 net.cpp:380] res3.4.sum_res3.4.relu_0_split -> res3.4.sum_res3.4.relu_0_split_1
I0309 16:06:11.088150  2893 net.cpp:122] Setting up res3.4.sum_res3.4.relu_0_split
I0309 16:06:11.088158  2893 net.cpp:129] Top shape: 100 512 14 14 (10035200)
I0309 16:06:11.088162  2893 net.cpp:129] Top shape: 100 512 14 14 (10035200)
I0309 16:06:11.088165  2893 net.cpp:137] Memory required for data: 3933799600
I0309 16:06:11.088169  2893 layer_factory.hpp:77] Creating layer res3.5.conv1
I0309 16:06:11.088178  2893 net.cpp:84] Creating Layer res3.5.conv1
I0309 16:06:11.088182  2893 net.cpp:406] res3.5.conv1 <- res3.4.sum_res3.4.relu_0_split_0
I0309 16:06:11.088188  2893 net.cpp:380] res3.5.conv1 -> res3.5.conv1
I0309 16:06:11.090173  2893 net.cpp:122] Setting up res3.5.conv1
I0309 16:06:11.090200  2893 net.cpp:129] Top shape: 100 128 14 14 (2508800)
I0309 16:06:11.090220  2893 net.cpp:137] Memory required for data: 3943834800
I0309 16:06:11.090225  2893 layer_factory.hpp:77] Creating layer res3.5.conv1/bn
I0309 16:06:11.090232  2893 net.cpp:84] Creating Layer res3.5.conv1/bn
I0309 16:06:11.090237  2893 net.cpp:406] res3.5.conv1/bn <- res3.5.conv1
I0309 16:06:11.090245  2893 net.cpp:380] res3.5.conv1/bn -> res3.5.conv1/bn
I0309 16:06:11.090518  2893 net.cpp:122] Setting up res3.5.conv1/bn
I0309 16:06:11.090528  2893 net.cpp:129] Top shape: 100 128 14 14 (2508800)
I0309 16:06:11.090531  2893 net.cpp:137] Memory required for data: 3953870000
I0309 16:06:11.090538  2893 layer_factory.hpp:77] Creating layer res3.5.conv1/bn_scale
I0309 16:06:11.090545  2893 net.cpp:84] Creating Layer res3.5.conv1/bn_scale
I0309 16:06:11.090565  2893 net.cpp:406] res3.5.conv1/bn_scale <- res3.5.conv1/bn
I0309 16:06:11.090569  2893 net.cpp:367] res3.5.conv1/bn_scale -> res3.5.conv1/bn (in-place)
I0309 16:06:11.090631  2893 layer_factory.hpp:77] Creating layer res3.5.conv1/bn_scale
I0309 16:06:11.090757  2893 net.cpp:122] Setting up res3.5.conv1/bn_scale
I0309 16:06:11.090766  2893 net.cpp:129] Top shape: 100 128 14 14 (2508800)
I0309 16:06:11.090770  2893 net.cpp:137] Memory required for data: 3963905200
I0309 16:06:11.090775  2893 layer_factory.hpp:77] Creating layer res3.5.conv1/relu
I0309 16:06:11.090782  2893 net.cpp:84] Creating Layer res3.5.conv1/relu
I0309 16:06:11.090787  2893 net.cpp:406] res3.5.conv1/relu <- res3.5.conv1/bn
I0309 16:06:11.090791  2893 net.cpp:367] res3.5.conv1/relu -> res3.5.conv1/bn (in-place)
I0309 16:06:11.091277  2893 net.cpp:122] Setting up res3.5.conv1/relu
I0309 16:06:11.091286  2893 net.cpp:129] Top shape: 100 128 14 14 (2508800)
I0309 16:06:11.091306  2893 net.cpp:137] Memory required for data: 3973940400
I0309 16:06:11.091310  2893 layer_factory.hpp:77] Creating layer res3.5.conv2
I0309 16:06:11.091318  2893 net.cpp:84] Creating Layer res3.5.conv2
I0309 16:06:11.091323  2893 net.cpp:406] res3.5.conv2 <- res3.5.conv1/bn
I0309 16:06:11.091331  2893 net.cpp:380] res3.5.conv2 -> res3.5.conv2
I0309 16:06:11.093631  2893 net.cpp:122] Setting up res3.5.conv2
I0309 16:06:11.093644  2893 net.cpp:129] Top shape: 100 128 14 14 (2508800)
I0309 16:06:11.093648  2893 net.cpp:137] Memory required for data: 3983975600
I0309 16:06:11.093653  2893 layer_factory.hpp:77] Creating layer res3.5.conv2/bn
I0309 16:06:11.093659  2893 net.cpp:84] Creating Layer res3.5.conv2/bn
I0309 16:06:11.093662  2893 net.cpp:406] res3.5.conv2/bn <- res3.5.conv2
I0309 16:06:11.093679  2893 net.cpp:380] res3.5.conv2/bn -> res3.5.conv2/bn
I0309 16:06:11.093999  2893 net.cpp:122] Setting up res3.5.conv2/bn
I0309 16:06:11.094025  2893 net.cpp:129] Top shape: 100 128 14 14 (2508800)
I0309 16:06:11.094044  2893 net.cpp:137] Memory required for data: 3994010800
I0309 16:06:11.094053  2893 layer_factory.hpp:77] Creating layer res3.5.conv2/bn_scale
I0309 16:06:11.094075  2893 net.cpp:84] Creating Layer res3.5.conv2/bn_scale
I0309 16:06:11.094079  2893 net.cpp:406] res3.5.conv2/bn_scale <- res3.5.conv2/bn
I0309 16:06:11.094099  2893 net.cpp:367] res3.5.conv2/bn_scale -> res3.5.conv2/bn (in-place)
I0309 16:06:11.094179  2893 layer_factory.hpp:77] Creating layer res3.5.conv2/bn_scale
I0309 16:06:11.094321  2893 net.cpp:122] Setting up res3.5.conv2/bn_scale
I0309 16:06:11.094331  2893 net.cpp:129] Top shape: 100 128 14 14 (2508800)
I0309 16:06:11.094333  2893 net.cpp:137] Memory required for data: 4004046000
I0309 16:06:11.094339  2893 layer_factory.hpp:77] Creating layer res3.5.conv2/relu
I0309 16:06:11.094346  2893 net.cpp:84] Creating Layer res3.5.conv2/relu
I0309 16:06:11.094348  2893 net.cpp:406] res3.5.conv2/relu <- res3.5.conv2/bn
I0309 16:06:11.094353  2893 net.cpp:367] res3.5.conv2/relu -> res3.5.conv2/bn (in-place)
I0309 16:06:11.094851  2893 net.cpp:122] Setting up res3.5.conv2/relu
I0309 16:06:11.094861  2893 net.cpp:129] Top shape: 100 128 14 14 (2508800)
I0309 16:06:11.094879  2893 net.cpp:137] Memory required for data: 4014081200
I0309 16:06:11.094883  2893 layer_factory.hpp:77] Creating layer res3.5.conv3
I0309 16:06:11.094892  2893 net.cpp:84] Creating Layer res3.5.conv3
I0309 16:06:11.094895  2893 net.cpp:406] res3.5.conv3 <- res3.5.conv2/bn
I0309 16:06:11.094902  2893 net.cpp:380] res3.5.conv3 -> res3.5.conv3
I0309 16:06:11.096843  2893 net.cpp:122] Setting up res3.5.conv3
I0309 16:06:11.096856  2893 net.cpp:129] Top shape: 100 512 14 14 (10035200)
I0309 16:06:11.096860  2893 net.cpp:137] Memory required for data: 4054222000
I0309 16:06:11.096865  2893 layer_factory.hpp:77] Creating layer res3.5.conv3/bn
I0309 16:06:11.096873  2893 net.cpp:84] Creating Layer res3.5.conv3/bn
I0309 16:06:11.096876  2893 net.cpp:406] res3.5.conv3/bn <- res3.5.conv3
I0309 16:06:11.096882  2893 net.cpp:380] res3.5.conv3/bn -> res3.5.conv3/bn
I0309 16:06:11.097151  2893 net.cpp:122] Setting up res3.5.conv3/bn
I0309 16:06:11.097160  2893 net.cpp:129] Top shape: 100 512 14 14 (10035200)
I0309 16:06:11.097163  2893 net.cpp:137] Memory required for data: 4094362800
I0309 16:06:11.097170  2893 layer_factory.hpp:77] Creating layer res3.5.conv3/bn_scale
I0309 16:06:11.097178  2893 net.cpp:84] Creating Layer res3.5.conv3/bn_scale
I0309 16:06:11.097182  2893 net.cpp:406] res3.5.conv3/bn_scale <- res3.5.conv3/bn
I0309 16:06:11.097187  2893 net.cpp:367] res3.5.conv3/bn_scale -> res3.5.conv3/bn (in-place)
I0309 16:06:11.097237  2893 layer_factory.hpp:77] Creating layer res3.5.conv3/bn_scale
I0309 16:06:11.097373  2893 net.cpp:122] Setting up res3.5.conv3/bn_scale
I0309 16:06:11.097383  2893 net.cpp:129] Top shape: 100 512 14 14 (10035200)
I0309 16:06:11.097386  2893 net.cpp:137] Memory required for data: 4134503600
I0309 16:06:11.097393  2893 layer_factory.hpp:77] Creating layer res3.5.sum
I0309 16:06:11.097398  2893 net.cpp:84] Creating Layer res3.5.sum
I0309 16:06:11.097401  2893 net.cpp:406] res3.5.sum <- res3.5.conv3/bn
I0309 16:06:11.097406  2893 net.cpp:406] res3.5.sum <- res3.4.sum_res3.4.relu_0_split_1
I0309 16:06:11.097411  2893 net.cpp:380] res3.5.sum -> res3.5.sum
I0309 16:06:11.097440  2893 net.cpp:122] Setting up res3.5.sum
I0309 16:06:11.097448  2893 net.cpp:129] Top shape: 100 512 14 14 (10035200)
I0309 16:06:11.097451  2893 net.cpp:137] Memory required for data: 4174644400
I0309 16:06:11.097455  2893 layer_factory.hpp:77] Creating layer res3.5.relu
I0309 16:06:11.097460  2893 net.cpp:84] Creating Layer res3.5.relu
I0309 16:06:11.097462  2893 net.cpp:406] res3.5.relu <- res3.5.sum
I0309 16:06:11.097467  2893 net.cpp:367] res3.5.relu -> res3.5.sum (in-place)
I0309 16:06:11.098398  2893 net.cpp:122] Setting up res3.5.relu
I0309 16:06:11.098429  2893 net.cpp:129] Top shape: 100 512 14 14 (10035200)
I0309 16:06:11.098433  2893 net.cpp:137] Memory required for data: 4214785200
I0309 16:06:11.098438  2893 layer_factory.hpp:77] Creating layer res3.5.sum_res3.5.relu_0_split
I0309 16:06:11.098443  2893 net.cpp:84] Creating Layer res3.5.sum_res3.5.relu_0_split
I0309 16:06:11.098448  2893 net.cpp:406] res3.5.sum_res3.5.relu_0_split <- res3.5.sum
I0309 16:06:11.098454  2893 net.cpp:380] res3.5.sum_res3.5.relu_0_split -> res3.5.sum_res3.5.relu_0_split_0
I0309 16:06:11.098462  2893 net.cpp:380] res3.5.sum_res3.5.relu_0_split -> res3.5.sum_res3.5.relu_0_split_1
I0309 16:06:11.098526  2893 net.cpp:122] Setting up res3.5.sum_res3.5.relu_0_split
I0309 16:06:11.098533  2893 net.cpp:129] Top shape: 100 512 14 14 (10035200)
I0309 16:06:11.098537  2893 net.cpp:129] Top shape: 100 512 14 14 (10035200)
I0309 16:06:11.098541  2893 net.cpp:137] Memory required for data: 4295066800
I0309 16:06:11.098544  2893 layer_factory.hpp:77] Creating layer res3.6.conv1
I0309 16:06:11.098553  2893 net.cpp:84] Creating Layer res3.6.conv1
I0309 16:06:11.098557  2893 net.cpp:406] res3.6.conv1 <- res3.5.sum_res3.5.relu_0_split_0
I0309 16:06:11.098562  2893 net.cpp:380] res3.6.conv1 -> res3.6.conv1
I0309 16:06:11.100592  2893 net.cpp:122] Setting up res3.6.conv1
I0309 16:06:11.100606  2893 net.cpp:129] Top shape: 100 128 14 14 (2508800)
I0309 16:06:11.100625  2893 net.cpp:137] Memory required for data: 4305102000
I0309 16:06:11.100631  2893 layer_factory.hpp:77] Creating layer res3.6.conv1/bn
I0309 16:06:11.100639  2893 net.cpp:84] Creating Layer res3.6.conv1/bn
I0309 16:06:11.100644  2893 net.cpp:406] res3.6.conv1/bn <- res3.6.conv1
I0309 16:06:11.100649  2893 net.cpp:380] res3.6.conv1/bn -> res3.6.conv1/bn
I0309 16:06:11.100908  2893 net.cpp:122] Setting up res3.6.conv1/bn
I0309 16:06:11.100916  2893 net.cpp:129] Top shape: 100 128 14 14 (2508800)
I0309 16:06:11.100919  2893 net.cpp:137] Memory required for data: 4315137200
I0309 16:06:11.100926  2893 layer_factory.hpp:77] Creating layer res3.6.conv1/bn_scale
I0309 16:06:11.100932  2893 net.cpp:84] Creating Layer res3.6.conv1/bn_scale
I0309 16:06:11.100936  2893 net.cpp:406] res3.6.conv1/bn_scale <- res3.6.conv1/bn
I0309 16:06:11.100942  2893 net.cpp:367] res3.6.conv1/bn_scale -> res3.6.conv1/bn (in-place)
I0309 16:06:11.100989  2893 layer_factory.hpp:77] Creating layer res3.6.conv1/bn_scale
I0309 16:06:11.101127  2893 net.cpp:122] Setting up res3.6.conv1/bn_scale
I0309 16:06:11.101138  2893 net.cpp:129] Top shape: 100 128 14 14 (2508800)
I0309 16:06:11.101141  2893 net.cpp:137] Memory required for data: 4325172400
I0309 16:06:11.101147  2893 layer_factory.hpp:77] Creating layer res3.6.conv1/relu
I0309 16:06:11.101152  2893 net.cpp:84] Creating Layer res3.6.conv1/relu
I0309 16:06:11.101156  2893 net.cpp:406] res3.6.conv1/relu <- res3.6.conv1/bn
I0309 16:06:11.101161  2893 net.cpp:367] res3.6.conv1/relu -> res3.6.conv1/bn (in-place)
I0309 16:06:11.101644  2893 net.cpp:122] Setting up res3.6.conv1/relu
I0309 16:06:11.101653  2893 net.cpp:129] Top shape: 100 128 14 14 (2508800)
I0309 16:06:11.101672  2893 net.cpp:137] Memory required for data: 4335207600
I0309 16:06:11.101675  2893 layer_factory.hpp:77] Creating layer res3.6.conv2
I0309 16:06:11.101685  2893 net.cpp:84] Creating Layer res3.6.conv2
I0309 16:06:11.101689  2893 net.cpp:406] res3.6.conv2 <- res3.6.conv1/bn
I0309 16:06:11.101697  2893 net.cpp:380] res3.6.conv2 -> res3.6.conv2
I0309 16:06:11.105041  2893 net.cpp:122] Setting up res3.6.conv2
I0309 16:06:11.105070  2893 net.cpp:129] Top shape: 100 128 14 14 (2508800)
I0309 16:06:11.105074  2893 net.cpp:137] Memory required for data: 4345242800
I0309 16:06:11.105080  2893 layer_factory.hpp:77] Creating layer res3.6.conv2/bn
I0309 16:06:11.105087  2893 net.cpp:84] Creating Layer res3.6.conv2/bn
I0309 16:06:11.105090  2893 net.cpp:406] res3.6.conv2/bn <- res3.6.conv2
I0309 16:06:11.105098  2893 net.cpp:380] res3.6.conv2/bn -> res3.6.conv2/bn
I0309 16:06:11.105388  2893 net.cpp:122] Setting up res3.6.conv2/bn
I0309 16:06:11.105414  2893 net.cpp:129] Top shape: 100 128 14 14 (2508800)
I0309 16:06:11.105417  2893 net.cpp:137] Memory required for data: 4355278000
I0309 16:06:11.105440  2893 layer_factory.hpp:77] Creating layer res3.6.conv2/bn_scale
I0309 16:06:11.105464  2893 net.cpp:84] Creating Layer res3.6.conv2/bn_scale
I0309 16:06:11.105468  2893 net.cpp:406] res3.6.conv2/bn_scale <- res3.6.conv2/bn
I0309 16:06:11.105489  2893 net.cpp:367] res3.6.conv2/bn_scale -> res3.6.conv2/bn (in-place)
I0309 16:06:11.105535  2893 layer_factory.hpp:77] Creating layer res3.6.conv2/bn_scale
I0309 16:06:11.105664  2893 net.cpp:122] Setting up res3.6.conv2/bn_scale
I0309 16:06:11.105671  2893 net.cpp:129] Top shape: 100 128 14 14 (2508800)
I0309 16:06:11.105674  2893 net.cpp:137] Memory required for data: 4365313200
I0309 16:06:11.105680  2893 layer_factory.hpp:77] Creating layer res3.6.conv2/relu
I0309 16:06:11.105689  2893 net.cpp:84] Creating Layer res3.6.conv2/relu
I0309 16:06:11.105692  2893 net.cpp:406] res3.6.conv2/relu <- res3.6.conv2/bn
I0309 16:06:11.105696  2893 net.cpp:367] res3.6.conv2/relu -> res3.6.conv2/bn (in-place)
I0309 16:06:11.106248  2893 net.cpp:122] Setting up res3.6.conv2/relu
I0309 16:06:11.106277  2893 net.cpp:129] Top shape: 100 128 14 14 (2508800)
I0309 16:06:11.106281  2893 net.cpp:137] Memory required for data: 4375348400
I0309 16:06:11.106283  2893 layer_factory.hpp:77] Creating layer res3.6.conv3
I0309 16:06:11.106309  2893 net.cpp:84] Creating Layer res3.6.conv3
I0309 16:06:11.106315  2893 net.cpp:406] res3.6.conv3 <- res3.6.conv2/bn
I0309 16:06:11.106336  2893 net.cpp:380] res3.6.conv3 -> res3.6.conv3
I0309 16:06:11.108275  2893 net.cpp:122] Setting up res3.6.conv3
I0309 16:06:11.108289  2893 net.cpp:129] Top shape: 100 512 14 14 (10035200)
I0309 16:06:11.108309  2893 net.cpp:137] Memory required for data: 4415489200
I0309 16:06:11.108314  2893 layer_factory.hpp:77] Creating layer res3.6.conv3/bn
I0309 16:06:11.108322  2893 net.cpp:84] Creating Layer res3.6.conv3/bn
I0309 16:06:11.108326  2893 net.cpp:406] res3.6.conv3/bn <- res3.6.conv3
I0309 16:06:11.108332  2893 net.cpp:380] res3.6.conv3/bn -> res3.6.conv3/bn
I0309 16:06:11.108611  2893 net.cpp:122] Setting up res3.6.conv3/bn
I0309 16:06:11.108620  2893 net.cpp:129] Top shape: 100 512 14 14 (10035200)
I0309 16:06:11.108624  2893 net.cpp:137] Memory required for data: 4455630000
I0309 16:06:11.108646  2893 layer_factory.hpp:77] Creating layer res3.6.conv3/bn_scale
I0309 16:06:11.108667  2893 net.cpp:84] Creating Layer res3.6.conv3/bn_scale
I0309 16:06:11.108672  2893 net.cpp:406] res3.6.conv3/bn_scale <- res3.6.conv3/bn
I0309 16:06:11.108695  2893 net.cpp:367] res3.6.conv3/bn_scale -> res3.6.conv3/bn (in-place)
I0309 16:06:11.108741  2893 layer_factory.hpp:77] Creating layer res3.6.conv3/bn_scale
I0309 16:06:11.108873  2893 net.cpp:122] Setting up res3.6.conv3/bn_scale
I0309 16:06:11.108881  2893 net.cpp:129] Top shape: 100 512 14 14 (10035200)
I0309 16:06:11.108884  2893 net.cpp:137] Memory required for data: 4495770800
I0309 16:06:11.108891  2893 layer_factory.hpp:77] Creating layer res3.6.sum
I0309 16:06:11.108897  2893 net.cpp:84] Creating Layer res3.6.sum
I0309 16:06:11.108901  2893 net.cpp:406] res3.6.sum <- res3.6.conv3/bn
I0309 16:06:11.108904  2893 net.cpp:406] res3.6.sum <- res3.5.sum_res3.5.relu_0_split_1
I0309 16:06:11.108911  2893 net.cpp:380] res3.6.sum -> res3.6.sum
I0309 16:06:11.108940  2893 net.cpp:122] Setting up res3.6.sum
I0309 16:06:11.108948  2893 net.cpp:129] Top shape: 100 512 14 14 (10035200)
I0309 16:06:11.108952  2893 net.cpp:137] Memory required for data: 4535911600
I0309 16:06:11.108954  2893 layer_factory.hpp:77] Creating layer res3.6.relu
I0309 16:06:11.108959  2893 net.cpp:84] Creating Layer res3.6.relu
I0309 16:06:11.108963  2893 net.cpp:406] res3.6.relu <- res3.6.sum
I0309 16:06:11.108966  2893 net.cpp:367] res3.6.relu -> res3.6.sum (in-place)
I0309 16:06:11.109805  2893 net.cpp:122] Setting up res3.6.relu
I0309 16:06:11.109835  2893 net.cpp:129] Top shape: 100 512 14 14 (10035200)
I0309 16:06:11.109849  2893 net.cpp:137] Memory required for data: 4576052400
I0309 16:06:11.109854  2893 layer_factory.hpp:77] Creating layer res3.6.sum_res3.6.relu_0_split
I0309 16:06:11.109884  2893 net.cpp:84] Creating Layer res3.6.sum_res3.6.relu_0_split
I0309 16:06:11.109889  2893 net.cpp:406] res3.6.sum_res3.6.relu_0_split <- res3.6.sum
I0309 16:06:11.109915  2893 net.cpp:380] res3.6.sum_res3.6.relu_0_split -> res3.6.sum_res3.6.relu_0_split_0
I0309 16:06:11.109922  2893 net.cpp:380] res3.6.sum_res3.6.relu_0_split -> res3.6.sum_res3.6.relu_0_split_1
I0309 16:06:11.109989  2893 net.cpp:122] Setting up res3.6.sum_res3.6.relu_0_split
I0309 16:06:11.109998  2893 net.cpp:129] Top shape: 100 512 14 14 (10035200)
I0309 16:06:11.110002  2893 net.cpp:129] Top shape: 100 512 14 14 (10035200)
I0309 16:06:11.110005  2893 net.cpp:137] Memory required for data: 4656334000
I0309 16:06:11.110009  2893 layer_factory.hpp:77] Creating layer res3.7.conv1
I0309 16:06:11.110018  2893 net.cpp:84] Creating Layer res3.7.conv1
I0309 16:06:11.110021  2893 net.cpp:406] res3.7.conv1 <- res3.6.sum_res3.6.relu_0_split_0
I0309 16:06:11.110028  2893 net.cpp:380] res3.7.conv1 -> res3.7.conv1
I0309 16:06:11.112036  2893 net.cpp:122] Setting up res3.7.conv1
I0309 16:06:11.112068  2893 net.cpp:129] Top shape: 100 128 14 14 (2508800)
I0309 16:06:11.112072  2893 net.cpp:137] Memory required for data: 4666369200
I0309 16:06:11.112077  2893 layer_factory.hpp:77] Creating layer res3.7.conv1/bn
I0309 16:06:11.112084  2893 net.cpp:84] Creating Layer res3.7.conv1/bn
I0309 16:06:11.112088  2893 net.cpp:406] res3.7.conv1/bn <- res3.7.conv1
I0309 16:06:11.112095  2893 net.cpp:380] res3.7.conv1/bn -> res3.7.conv1/bn
I0309 16:06:11.112354  2893 net.cpp:122] Setting up res3.7.conv1/bn
I0309 16:06:11.112363  2893 net.cpp:129] Top shape: 100 128 14 14 (2508800)
I0309 16:06:11.112366  2893 net.cpp:137] Memory required for data: 4676404400
I0309 16:06:11.112373  2893 layer_factory.hpp:77] Creating layer res3.7.conv1/bn_scale
I0309 16:06:11.112380  2893 net.cpp:84] Creating Layer res3.7.conv1/bn_scale
I0309 16:06:11.112383  2893 net.cpp:406] res3.7.conv1/bn_scale <- res3.7.conv1/bn
I0309 16:06:11.112392  2893 net.cpp:367] res3.7.conv1/bn_scale -> res3.7.conv1/bn (in-place)
I0309 16:06:11.112455  2893 layer_factory.hpp:77] Creating layer res3.7.conv1/bn_scale
I0309 16:06:11.112579  2893 net.cpp:122] Setting up res3.7.conv1/bn_scale
I0309 16:06:11.112589  2893 net.cpp:129] Top shape: 100 128 14 14 (2508800)
I0309 16:06:11.112592  2893 net.cpp:137] Memory required for data: 4686439600
I0309 16:06:11.112598  2893 layer_factory.hpp:77] Creating layer res3.7.conv1/relu
I0309 16:06:11.112603  2893 net.cpp:84] Creating Layer res3.7.conv1/relu
I0309 16:06:11.112607  2893 net.cpp:406] res3.7.conv1/relu <- res3.7.conv1/bn
I0309 16:06:11.112612  2893 net.cpp:367] res3.7.conv1/relu -> res3.7.conv1/bn (in-place)
I0309 16:06:11.113080  2893 net.cpp:122] Setting up res3.7.conv1/relu
I0309 16:06:11.113091  2893 net.cpp:129] Top shape: 100 128 14 14 (2508800)
I0309 16:06:11.113111  2893 net.cpp:137] Memory required for data: 4696474800
I0309 16:06:11.113114  2893 layer_factory.hpp:77] Creating layer res3.7.conv2
I0309 16:06:11.113122  2893 net.cpp:84] Creating Layer res3.7.conv2
I0309 16:06:11.113127  2893 net.cpp:406] res3.7.conv2 <- res3.7.conv1/bn
I0309 16:06:11.113133  2893 net.cpp:380] res3.7.conv2 -> res3.7.conv2
I0309 16:06:11.115584  2893 net.cpp:122] Setting up res3.7.conv2
I0309 16:06:11.115614  2893 net.cpp:129] Top shape: 100 128 14 14 (2508800)
I0309 16:06:11.115618  2893 net.cpp:137] Memory required for data: 4706510000
I0309 16:06:11.115624  2893 layer_factory.hpp:77] Creating layer res3.7.conv2/bn
I0309 16:06:11.115633  2893 net.cpp:84] Creating Layer res3.7.conv2/bn
I0309 16:06:11.115636  2893 net.cpp:406] res3.7.conv2/bn <- res3.7.conv2
I0309 16:06:11.115643  2893 net.cpp:380] res3.7.conv2/bn -> res3.7.conv2/bn
I0309 16:06:11.115912  2893 net.cpp:122] Setting up res3.7.conv2/bn
I0309 16:06:11.115922  2893 net.cpp:129] Top shape: 100 128 14 14 (2508800)
I0309 16:06:11.115938  2893 net.cpp:137] Memory required for data: 4716545200
I0309 16:06:11.115960  2893 layer_factory.hpp:77] Creating layer res3.7.conv2/bn_scale
I0309 16:06:11.115968  2893 net.cpp:84] Creating Layer res3.7.conv2/bn_scale
I0309 16:06:11.115972  2893 net.cpp:406] res3.7.conv2/bn_scale <- res3.7.conv2/bn
I0309 16:06:11.115977  2893 net.cpp:367] res3.7.conv2/bn_scale -> res3.7.conv2/bn (in-place)
I0309 16:06:11.116025  2893 layer_factory.hpp:77] Creating layer res3.7.conv2/bn_scale
I0309 16:06:11.116153  2893 net.cpp:122] Setting up res3.7.conv2/bn_scale
I0309 16:06:11.116161  2893 net.cpp:129] Top shape: 100 128 14 14 (2508800)
I0309 16:06:11.116164  2893 net.cpp:137] Memory required for data: 4726580400
I0309 16:06:11.116169  2893 layer_factory.hpp:77] Creating layer res3.7.conv2/relu
I0309 16:06:11.116175  2893 net.cpp:84] Creating Layer res3.7.conv2/relu
I0309 16:06:11.116178  2893 net.cpp:406] res3.7.conv2/relu <- res3.7.conv2/bn
I0309 16:06:11.116185  2893 net.cpp:367] res3.7.conv2/relu -> res3.7.conv2/bn (in-place)
I0309 16:06:11.116704  2893 net.cpp:122] Setting up res3.7.conv2/relu
I0309 16:06:11.116716  2893 net.cpp:129] Top shape: 100 128 14 14 (2508800)
I0309 16:06:11.116735  2893 net.cpp:137] Memory required for data: 4736615600
I0309 16:06:11.116739  2893 layer_factory.hpp:77] Creating layer res3.7.conv3
I0309 16:06:11.116749  2893 net.cpp:84] Creating Layer res3.7.conv3
I0309 16:06:11.116752  2893 net.cpp:406] res3.7.conv3 <- res3.7.conv2/bn
I0309 16:06:11.116758  2893 net.cpp:380] res3.7.conv3 -> res3.7.conv3
I0309 16:06:11.120376  2893 net.cpp:122] Setting up res3.7.conv3
I0309 16:06:11.120394  2893 net.cpp:129] Top shape: 100 512 14 14 (10035200)
I0309 16:06:11.120399  2893 net.cpp:137] Memory required for data: 4776756400
I0309 16:06:11.120405  2893 layer_factory.hpp:77] Creating layer res3.7.conv3/bn
I0309 16:06:11.120412  2893 net.cpp:84] Creating Layer res3.7.conv3/bn
I0309 16:06:11.120432  2893 net.cpp:406] res3.7.conv3/bn <- res3.7.conv3
I0309 16:06:11.120441  2893 net.cpp:380] res3.7.conv3/bn -> res3.7.conv3/bn
I0309 16:06:11.120718  2893 net.cpp:122] Setting up res3.7.conv3/bn
I0309 16:06:11.120726  2893 net.cpp:129] Top shape: 100 512 14 14 (10035200)
I0309 16:06:11.120730  2893 net.cpp:137] Memory required for data: 4816897200
I0309 16:06:11.120738  2893 layer_factory.hpp:77] Creating layer res3.7.conv3/bn_scale
I0309 16:06:11.120744  2893 net.cpp:84] Creating Layer res3.7.conv3/bn_scale
I0309 16:06:11.120748  2893 net.cpp:406] res3.7.conv3/bn_scale <- res3.7.conv3/bn
I0309 16:06:11.120755  2893 net.cpp:367] res3.7.conv3/bn_scale -> res3.7.conv3/bn (in-place)
I0309 16:06:11.120802  2893 layer_factory.hpp:77] Creating layer res3.7.conv3/bn_scale
I0309 16:06:11.120951  2893 net.cpp:122] Setting up res3.7.conv3/bn_scale
I0309 16:06:11.120962  2893 net.cpp:129] Top shape: 100 512 14 14 (10035200)
I0309 16:06:11.120965  2893 net.cpp:137] Memory required for data: 4857038000
I0309 16:06:11.120972  2893 layer_factory.hpp:77] Creating layer res3.7.sum
I0309 16:06:11.120977  2893 net.cpp:84] Creating Layer res3.7.sum
I0309 16:06:11.120981  2893 net.cpp:406] res3.7.sum <- res3.7.conv3/bn
I0309 16:06:11.120985  2893 net.cpp:406] res3.7.sum <- res3.6.sum_res3.6.relu_0_split_1
I0309 16:06:11.120991  2893 net.cpp:380] res3.7.sum -> res3.7.sum
I0309 16:06:11.121021  2893 net.cpp:122] Setting up res3.7.sum
I0309 16:06:11.121028  2893 net.cpp:129] Top shape: 100 512 14 14 (10035200)
I0309 16:06:11.121031  2893 net.cpp:137] Memory required for data: 4897178800
I0309 16:06:11.121035  2893 layer_factory.hpp:77] Creating layer res3.7.relu
I0309 16:06:11.121040  2893 net.cpp:84] Creating Layer res3.7.relu
I0309 16:06:11.121043  2893 net.cpp:406] res3.7.relu <- res3.7.sum
I0309 16:06:11.121049  2893 net.cpp:367] res3.7.relu -> res3.7.sum (in-place)
I0309 16:06:11.121582  2893 net.cpp:122] Setting up res3.7.relu
I0309 16:06:11.121593  2893 net.cpp:129] Top shape: 100 512 14 14 (10035200)
I0309 16:06:11.121596  2893 net.cpp:137] Memory required for data: 4937319600
I0309 16:06:11.121601  2893 layer_factory.hpp:77] Creating layer res3.7.sum_res3.7.relu_0_split
I0309 16:06:11.121639  2893 net.cpp:84] Creating Layer res3.7.sum_res3.7.relu_0_split
I0309 16:06:11.121659  2893 net.cpp:406] res3.7.sum_res3.7.relu_0_split <- res3.7.sum
I0309 16:06:11.121665  2893 net.cpp:380] res3.7.sum_res3.7.relu_0_split -> res3.7.sum_res3.7.relu_0_split_0
I0309 16:06:11.121672  2893 net.cpp:380] res3.7.sum_res3.7.relu_0_split -> res3.7.sum_res3.7.relu_0_split_1
I0309 16:06:11.121728  2893 net.cpp:122] Setting up res3.7.sum_res3.7.relu_0_split
I0309 16:06:11.121737  2893 net.cpp:129] Top shape: 100 512 14 14 (10035200)
I0309 16:06:11.121742  2893 net.cpp:129] Top shape: 100 512 14 14 (10035200)
I0309 16:06:11.121744  2893 net.cpp:137] Memory required for data: 5017601200
I0309 16:06:11.121748  2893 layer_factory.hpp:77] Creating layer res3.8.conv1
I0309 16:06:11.121757  2893 net.cpp:84] Creating Layer res3.8.conv1
I0309 16:06:11.121762  2893 net.cpp:406] res3.8.conv1 <- res3.7.sum_res3.7.relu_0_split_0
I0309 16:06:11.121769  2893 net.cpp:380] res3.8.conv1 -> res3.8.conv1
I0309 16:06:11.124053  2893 net.cpp:122] Setting up res3.8.conv1
I0309 16:06:11.124084  2893 net.cpp:129] Top shape: 100 128 14 14 (2508800)
I0309 16:06:11.124089  2893 net.cpp:137] Memory required for data: 5027636400
I0309 16:06:11.124094  2893 layer_factory.hpp:77] Creating layer res3.8.conv1/bn
I0309 16:06:11.124100  2893 net.cpp:84] Creating Layer res3.8.conv1/bn
I0309 16:06:11.124104  2893 net.cpp:406] res3.8.conv1/bn <- res3.8.conv1
I0309 16:06:11.124111  2893 net.cpp:380] res3.8.conv1/bn -> res3.8.conv1/bn
I0309 16:06:11.124377  2893 net.cpp:122] Setting up res3.8.conv1/bn
I0309 16:06:11.124387  2893 net.cpp:129] Top shape: 100 128 14 14 (2508800)
I0309 16:06:11.124390  2893 net.cpp:137] Memory required for data: 5037671600
I0309 16:06:11.124397  2893 layer_factory.hpp:77] Creating layer res3.8.conv1/bn_scale
I0309 16:06:11.124419  2893 net.cpp:84] Creating Layer res3.8.conv1/bn_scale
I0309 16:06:11.124424  2893 net.cpp:406] res3.8.conv1/bn_scale <- res3.8.conv1/bn
I0309 16:06:11.124428  2893 net.cpp:367] res3.8.conv1/bn_scale -> res3.8.conv1/bn (in-place)
I0309 16:06:11.124475  2893 layer_factory.hpp:77] Creating layer res3.8.conv1/bn_scale
I0309 16:06:11.124600  2893 net.cpp:122] Setting up res3.8.conv1/bn_scale
I0309 16:06:11.124609  2893 net.cpp:129] Top shape: 100 128 14 14 (2508800)
I0309 16:06:11.124613  2893 net.cpp:137] Memory required for data: 5047706800
I0309 16:06:11.124617  2893 layer_factory.hpp:77] Creating layer res3.8.conv1/relu
I0309 16:06:11.124625  2893 net.cpp:84] Creating Layer res3.8.conv1/relu
I0309 16:06:11.124629  2893 net.cpp:406] res3.8.conv1/relu <- res3.8.conv1/bn
I0309 16:06:11.124634  2893 net.cpp:367] res3.8.conv1/relu -> res3.8.conv1/bn (in-place)
I0309 16:06:11.125442  2893 net.cpp:122] Setting up res3.8.conv1/relu
I0309 16:06:11.125453  2893 net.cpp:129] Top shape: 100 128 14 14 (2508800)
I0309 16:06:11.125473  2893 net.cpp:137] Memory required for data: 5057742000
I0309 16:06:11.125478  2893 layer_factory.hpp:77] Creating layer res3.8.conv2
I0309 16:06:11.125484  2893 net.cpp:84] Creating Layer res3.8.conv2
I0309 16:06:11.125489  2893 net.cpp:406] res3.8.conv2 <- res3.8.conv1/bn
I0309 16:06:11.125497  2893 net.cpp:380] res3.8.conv2 -> res3.8.conv2
I0309 16:06:11.128042  2893 net.cpp:122] Setting up res3.8.conv2
I0309 16:06:11.128073  2893 net.cpp:129] Top shape: 100 128 14 14 (2508800)
I0309 16:06:11.128077  2893 net.cpp:137] Memory required for data: 5067777200
I0309 16:06:11.128083  2893 layer_factory.hpp:77] Creating layer res3.8.conv2/bn
I0309 16:06:11.128089  2893 net.cpp:84] Creating Layer res3.8.conv2/bn
I0309 16:06:11.128093  2893 net.cpp:406] res3.8.conv2/bn <- res3.8.conv2
I0309 16:06:11.128100  2893 net.cpp:380] res3.8.conv2/bn -> res3.8.conv2/bn
I0309 16:06:11.128392  2893 net.cpp:122] Setting up res3.8.conv2/bn
I0309 16:06:11.128401  2893 net.cpp:129] Top shape: 100 128 14 14 (2508800)
I0309 16:06:11.128406  2893 net.cpp:137] Memory required for data: 5077812400
I0309 16:06:11.128427  2893 layer_factory.hpp:77] Creating layer res3.8.conv2/bn_scale
I0309 16:06:11.128477  2893 net.cpp:84] Creating Layer res3.8.conv2/bn_scale
I0309 16:06:11.128481  2893 net.cpp:406] res3.8.conv2/bn_scale <- res3.8.conv2/bn
I0309 16:06:11.128486  2893 net.cpp:367] res3.8.conv2/bn_scale -> res3.8.conv2/bn (in-place)
I0309 16:06:11.128536  2893 layer_factory.hpp:77] Creating layer res3.8.conv2/bn_scale
I0309 16:06:11.128666  2893 net.cpp:122] Setting up res3.8.conv2/bn_scale
I0309 16:06:11.128674  2893 net.cpp:129] Top shape: 100 128 14 14 (2508800)
I0309 16:06:11.128677  2893 net.cpp:137] Memory required for data: 5087847600
I0309 16:06:11.128684  2893 layer_factory.hpp:77] Creating layer res3.8.conv2/relu
I0309 16:06:11.128691  2893 net.cpp:84] Creating Layer res3.8.conv2/relu
I0309 16:06:11.128695  2893 net.cpp:406] res3.8.conv2/relu <- res3.8.conv2/bn
I0309 16:06:11.128700  2893 net.cpp:367] res3.8.conv2/relu -> res3.8.conv2/bn (in-place)
I0309 16:06:11.129186  2893 net.cpp:122] Setting up res3.8.conv2/relu
I0309 16:06:11.129199  2893 net.cpp:129] Top shape: 100 128 14 14 (2508800)
I0309 16:06:11.129202  2893 net.cpp:137] Memory required for data: 5097882800
I0309 16:06:11.129205  2893 layer_factory.hpp:77] Creating layer res3.8.conv3
I0309 16:06:11.129212  2893 net.cpp:84] Creating Layer res3.8.conv3
I0309 16:06:11.129215  2893 net.cpp:406] res3.8.conv3 <- res3.8.conv2/bn
I0309 16:06:11.129220  2893 net.cpp:380] res3.8.conv3 -> res3.8.conv3
I0309 16:06:11.131261  2893 net.cpp:122] Setting up res3.8.conv3
I0309 16:06:11.131274  2893 net.cpp:129] Top shape: 100 512 14 14 (10035200)
I0309 16:06:11.131278  2893 net.cpp:137] Memory required for data: 5138023600
I0309 16:06:11.131283  2893 layer_factory.hpp:77] Creating layer res3.8.conv3/bn
I0309 16:06:11.131290  2893 net.cpp:84] Creating Layer res3.8.conv3/bn
I0309 16:06:11.131294  2893 net.cpp:406] res3.8.conv3/bn <- res3.8.conv3
I0309 16:06:11.131299  2893 net.cpp:380] res3.8.conv3/bn -> res3.8.conv3/bn
I0309 16:06:11.131579  2893 net.cpp:122] Setting up res3.8.conv3/bn
I0309 16:06:11.131588  2893 net.cpp:129] Top shape: 100 512 14 14 (10035200)
I0309 16:06:11.131592  2893 net.cpp:137] Memory required for data: 5178164400
I0309 16:06:11.131599  2893 layer_factory.hpp:77] Creating layer res3.8.conv3/bn_scale
I0309 16:06:11.131604  2893 net.cpp:84] Creating Layer res3.8.conv3/bn_scale
I0309 16:06:11.131608  2893 net.cpp:406] res3.8.conv3/bn_scale <- res3.8.conv3/bn
I0309 16:06:11.131614  2893 net.cpp:367] res3.8.conv3/bn_scale -> res3.8.conv3/bn (in-place)
I0309 16:06:11.131661  2893 layer_factory.hpp:77] Creating layer res3.8.conv3/bn_scale
I0309 16:06:11.131799  2893 net.cpp:122] Setting up res3.8.conv3/bn_scale
I0309 16:06:11.131808  2893 net.cpp:129] Top shape: 100 512 14 14 (10035200)
I0309 16:06:11.131811  2893 net.cpp:137] Memory required for data: 5218305200
I0309 16:06:11.131817  2893 layer_factory.hpp:77] Creating layer res3.8.sum
I0309 16:06:11.131824  2893 net.cpp:84] Creating Layer res3.8.sum
I0309 16:06:11.131826  2893 net.cpp:406] res3.8.sum <- res3.8.conv3/bn
I0309 16:06:11.131831  2893 net.cpp:406] res3.8.sum <- res3.7.sum_res3.7.relu_0_split_1
I0309 16:06:11.131839  2893 net.cpp:380] res3.8.sum -> res3.8.sum
I0309 16:06:11.131866  2893 net.cpp:122] Setting up res3.8.sum
I0309 16:06:11.131876  2893 net.cpp:129] Top shape: 100 512 14 14 (10035200)
I0309 16:06:11.131880  2893 net.cpp:137] Memory required for data: 5258446000
I0309 16:06:11.131883  2893 layer_factory.hpp:77] Creating layer res3.8.relu
I0309 16:06:11.131889  2893 net.cpp:84] Creating Layer res3.8.relu
I0309 16:06:11.131892  2893 net.cpp:406] res3.8.relu <- res3.8.sum
I0309 16:06:11.131896  2893 net.cpp:367] res3.8.relu -> res3.8.sum (in-place)
I0309 16:06:11.132365  2893 net.cpp:122] Setting up res3.8.relu
I0309 16:06:11.132376  2893 net.cpp:129] Top shape: 100 512 14 14 (10035200)
I0309 16:06:11.132395  2893 net.cpp:137] Memory required for data: 5298586800
I0309 16:06:11.132398  2893 layer_factory.hpp:77] Creating layer res3.8.sum_res3.8.relu_0_split
I0309 16:06:11.132405  2893 net.cpp:84] Creating Layer res3.8.sum_res3.8.relu_0_split
I0309 16:06:11.132417  2893 net.cpp:406] res3.8.sum_res3.8.relu_0_split <- res3.8.sum
I0309 16:06:11.132423  2893 net.cpp:380] res3.8.sum_res3.8.relu_0_split -> res3.8.sum_res3.8.relu_0_split_0
I0309 16:06:11.132447  2893 net.cpp:380] res3.8.sum_res3.8.relu_0_split -> res3.8.sum_res3.8.relu_0_split_1
I0309 16:06:11.132501  2893 net.cpp:122] Setting up res3.8.sum_res3.8.relu_0_split
I0309 16:06:11.132509  2893 net.cpp:129] Top shape: 100 512 14 14 (10035200)
I0309 16:06:11.132514  2893 net.cpp:129] Top shape: 100 512 14 14 (10035200)
I0309 16:06:11.132516  2893 net.cpp:137] Memory required for data: 5378868400
I0309 16:06:11.132520  2893 layer_factory.hpp:77] Creating layer res3.9.conv1
I0309 16:06:11.132530  2893 net.cpp:84] Creating Layer res3.9.conv1
I0309 16:06:11.132534  2893 net.cpp:406] res3.9.conv1 <- res3.8.sum_res3.8.relu_0_split_0
I0309 16:06:11.132541  2893 net.cpp:380] res3.9.conv1 -> res3.9.conv1
I0309 16:06:11.134637  2893 net.cpp:122] Setting up res3.9.conv1
I0309 16:06:11.134666  2893 net.cpp:129] Top shape: 100 128 14 14 (2508800)
I0309 16:06:11.134670  2893 net.cpp:137] Memory required for data: 5388903600
I0309 16:06:11.134675  2893 layer_factory.hpp:77] Creating layer res3.9.conv1/bn
I0309 16:06:11.134683  2893 net.cpp:84] Creating Layer res3.9.conv1/bn
I0309 16:06:11.134687  2893 net.cpp:406] res3.9.conv1/bn <- res3.9.conv1
I0309 16:06:11.134693  2893 net.cpp:380] res3.9.conv1/bn -> res3.9.conv1/bn
I0309 16:06:11.134963  2893 net.cpp:122] Setting up res3.9.conv1/bn
I0309 16:06:11.134974  2893 net.cpp:129] Top shape: 100 128 14 14 (2508800)
I0309 16:06:11.134976  2893 net.cpp:137] Memory required for data: 5398938800
I0309 16:06:11.134984  2893 layer_factory.hpp:77] Creating layer res3.9.conv1/bn_scale
I0309 16:06:11.134989  2893 net.cpp:84] Creating Layer res3.9.conv1/bn_scale
I0309 16:06:11.135010  2893 net.cpp:406] res3.9.conv1/bn_scale <- res3.9.conv1/bn
I0309 16:06:11.135015  2893 net.cpp:367] res3.9.conv1/bn_scale -> res3.9.conv1/bn (in-place)
I0309 16:06:11.135061  2893 layer_factory.hpp:77] Creating layer res3.9.conv1/bn_scale
I0309 16:06:11.135192  2893 net.cpp:122] Setting up res3.9.conv1/bn_scale
I0309 16:06:11.135200  2893 net.cpp:129] Top shape: 100 128 14 14 (2508800)
I0309 16:06:11.135203  2893 net.cpp:137] Memory required for data: 5408974000
I0309 16:06:11.135210  2893 layer_factory.hpp:77] Creating layer res3.9.conv1/relu
I0309 16:06:11.135215  2893 net.cpp:84] Creating Layer res3.9.conv1/relu
I0309 16:06:11.135219  2893 net.cpp:406] res3.9.conv1/relu <- res3.9.conv1/bn
I0309 16:06:11.135226  2893 net.cpp:367] res3.9.conv1/relu -> res3.9.conv1/bn (in-place)
I0309 16:06:11.136075  2893 net.cpp:122] Setting up res3.9.conv1/relu
I0309 16:06:11.136087  2893 net.cpp:129] Top shape: 100 128 14 14 (2508800)
I0309 16:06:11.136107  2893 net.cpp:137] Memory required for data: 5419009200
I0309 16:06:11.136111  2893 layer_factory.hpp:77] Creating layer res3.9.conv2
I0309 16:06:11.136119  2893 net.cpp:84] Creating Layer res3.9.conv2
I0309 16:06:11.136123  2893 net.cpp:406] res3.9.conv2 <- res3.9.conv1/bn
I0309 16:06:11.136132  2893 net.cpp:380] res3.9.conv2 -> res3.9.conv2
I0309 16:06:11.139362  2893 net.cpp:122] Setting up res3.9.conv2
I0309 16:06:11.139392  2893 net.cpp:129] Top shape: 100 128 14 14 (2508800)
I0309 16:06:11.139396  2893 net.cpp:137] Memory required for data: 5429044400
I0309 16:06:11.139402  2893 layer_factory.hpp:77] Creating layer res3.9.conv2/bn
I0309 16:06:11.139407  2893 net.cpp:84] Creating Layer res3.9.conv2/bn
I0309 16:06:11.139411  2893 net.cpp:406] res3.9.conv2/bn <- res3.9.conv2
I0309 16:06:11.139418  2893 net.cpp:380] res3.9.conv2/bn -> res3.9.conv2/bn
I0309 16:06:11.139703  2893 net.cpp:122] Setting up res3.9.conv2/bn
I0309 16:06:11.139714  2893 net.cpp:129] Top shape: 100 128 14 14 (2508800)
I0309 16:06:11.139716  2893 net.cpp:137] Memory required for data: 5439079600
I0309 16:06:11.139739  2893 layer_factory.hpp:77] Creating layer res3.9.conv2/bn_scale
I0309 16:06:11.139745  2893 net.cpp:84] Creating Layer res3.9.conv2/bn_scale
I0309 16:06:11.139750  2893 net.cpp:406] res3.9.conv2/bn_scale <- res3.9.conv2/bn
I0309 16:06:11.139783  2893 net.cpp:367] res3.9.conv2/bn_scale -> res3.9.conv2/bn (in-place)
I0309 16:06:11.139835  2893 layer_factory.hpp:77] Creating layer res3.9.conv2/bn_scale
I0309 16:06:11.139973  2893 net.cpp:122] Setting up res3.9.conv2/bn_scale
I0309 16:06:11.139981  2893 net.cpp:129] Top shape: 100 128 14 14 (2508800)
I0309 16:06:11.139984  2893 net.cpp:137] Memory required for data: 5449114800
I0309 16:06:11.139991  2893 layer_factory.hpp:77] Creating layer res3.9.conv2/relu
I0309 16:06:11.139999  2893 net.cpp:84] Creating Layer res3.9.conv2/relu
I0309 16:06:11.140003  2893 net.cpp:406] res3.9.conv2/relu <- res3.9.conv2/bn
I0309 16:06:11.140009  2893 net.cpp:367] res3.9.conv2/relu -> res3.9.conv2/bn (in-place)
I0309 16:06:11.140503  2893 net.cpp:122] Setting up res3.9.conv2/relu
I0309 16:06:11.140513  2893 net.cpp:129] Top shape: 100 128 14 14 (2508800)
I0309 16:06:11.140532  2893 net.cpp:137] Memory required for data: 5459150000
I0309 16:06:11.140535  2893 layer_factory.hpp:77] Creating layer res3.9.conv3
I0309 16:06:11.140544  2893 net.cpp:84] Creating Layer res3.9.conv3
I0309 16:06:11.140550  2893 net.cpp:406] res3.9.conv3 <- res3.9.conv2/bn
I0309 16:06:11.140555  2893 net.cpp:380] res3.9.conv3 -> res3.9.conv3
I0309 16:06:11.142628  2893 net.cpp:122] Setting up res3.9.conv3
I0309 16:06:11.142642  2893 net.cpp:129] Top shape: 100 512 14 14 (10035200)
I0309 16:06:11.142663  2893 net.cpp:137] Memory required for data: 5499290800
I0309 16:06:11.142668  2893 layer_factory.hpp:77] Creating layer res3.9.conv3/bn
I0309 16:06:11.142675  2893 net.cpp:84] Creating Layer res3.9.conv3/bn
I0309 16:06:11.142679  2893 net.cpp:406] res3.9.conv3/bn <- res3.9.conv3
I0309 16:06:11.142685  2893 net.cpp:380] res3.9.conv3/bn -> res3.9.conv3/bn
I0309 16:06:11.142977  2893 net.cpp:122] Setting up res3.9.conv3/bn
I0309 16:06:11.142987  2893 net.cpp:129] Top shape: 100 512 14 14 (10035200)
I0309 16:06:11.143005  2893 net.cpp:137] Memory required for data: 5539431600
I0309 16:06:11.143013  2893 layer_factory.hpp:77] Creating layer res3.9.conv3/bn_scale
I0309 16:06:11.143035  2893 net.cpp:84] Creating Layer res3.9.conv3/bn_scale
I0309 16:06:11.143055  2893 net.cpp:406] res3.9.conv3/bn_scale <- res3.9.conv3/bn
I0309 16:06:11.143059  2893 net.cpp:367] res3.9.conv3/bn_scale -> res3.9.conv3/bn (in-place)
I0309 16:06:11.143137  2893 layer_factory.hpp:77] Creating layer res3.9.conv3/bn_scale
I0309 16:06:11.143276  2893 net.cpp:122] Setting up res3.9.conv3/bn_scale
I0309 16:06:11.143285  2893 net.cpp:129] Top shape: 100 512 14 14 (10035200)
I0309 16:06:11.143287  2893 net.cpp:137] Memory required for data: 5579572400
I0309 16:06:11.143293  2893 layer_factory.hpp:77] Creating layer res3.9.sum
I0309 16:06:11.143299  2893 net.cpp:84] Creating Layer res3.9.sum
I0309 16:06:11.143304  2893 net.cpp:406] res3.9.sum <- res3.9.conv3/bn
I0309 16:06:11.143309  2893 net.cpp:406] res3.9.sum <- res3.8.sum_res3.8.relu_0_split_1
I0309 16:06:11.143314  2893 net.cpp:380] res3.9.sum -> res3.9.sum
I0309 16:06:11.143344  2893 net.cpp:122] Setting up res3.9.sum
I0309 16:06:11.143352  2893 net.cpp:129] Top shape: 100 512 14 14 (10035200)
I0309 16:06:11.143355  2893 net.cpp:137] Memory required for data: 5619713200
I0309 16:06:11.143359  2893 layer_factory.hpp:77] Creating layer res3.9.relu
I0309 16:06:11.143363  2893 net.cpp:84] Creating Layer res3.9.relu
I0309 16:06:11.143366  2893 net.cpp:406] res3.9.relu <- res3.9.sum
I0309 16:06:11.143373  2893 net.cpp:367] res3.9.relu -> res3.9.sum (in-place)
I0309 16:06:11.143887  2893 net.cpp:122] Setting up res3.9.relu
I0309 16:06:11.143896  2893 net.cpp:129] Top shape: 100 512 14 14 (10035200)
I0309 16:06:11.143915  2893 net.cpp:137] Memory required for data: 5659854000
I0309 16:06:11.143918  2893 layer_factory.hpp:77] Creating layer res3.9.sum_res3.9.relu_0_split
I0309 16:06:11.143923  2893 net.cpp:84] Creating Layer res3.9.sum_res3.9.relu_0_split
I0309 16:06:11.143926  2893 net.cpp:406] res3.9.sum_res3.9.relu_0_split <- res3.9.sum
I0309 16:06:11.143934  2893 net.cpp:380] res3.9.sum_res3.9.relu_0_split -> res3.9.sum_res3.9.relu_0_split_0
I0309 16:06:11.143967  2893 net.cpp:380] res3.9.sum_res3.9.relu_0_split -> res3.9.sum_res3.9.relu_0_split_1
I0309 16:06:11.144038  2893 net.cpp:122] Setting up res3.9.sum_res3.9.relu_0_split
I0309 16:06:11.144047  2893 net.cpp:129] Top shape: 100 512 14 14 (10035200)
I0309 16:06:11.144050  2893 net.cpp:129] Top shape: 100 512 14 14 (10035200)
I0309 16:06:11.144053  2893 net.cpp:137] Memory required for data: 5740135600
I0309 16:06:11.144057  2893 layer_factory.hpp:77] Creating layer res3.10.conv1
I0309 16:06:11.144066  2893 net.cpp:84] Creating Layer res3.10.conv1
I0309 16:06:11.144070  2893 net.cpp:406] res3.10.conv1 <- res3.9.sum_res3.9.relu_0_split_0
I0309 16:06:11.144076  2893 net.cpp:380] res3.10.conv1 -> res3.10.conv1
I0309 16:06:11.146075  2893 net.cpp:122] Setting up res3.10.conv1
I0309 16:06:11.146098  2893 net.cpp:129] Top shape: 100 128 14 14 (2508800)
I0309 16:06:11.146102  2893 net.cpp:137] Memory required for data: 5750170800
I0309 16:06:11.146107  2893 layer_factory.hpp:77] Creating layer res3.10.conv1/bn
I0309 16:06:11.146116  2893 net.cpp:84] Creating Layer res3.10.conv1/bn
I0309 16:06:11.146137  2893 net.cpp:406] res3.10.conv1/bn <- res3.10.conv1
I0309 16:06:11.146143  2893 net.cpp:380] res3.10.conv1/bn -> res3.10.conv1/bn
I0309 16:06:11.146469  2893 net.cpp:122] Setting up res3.10.conv1/bn
I0309 16:06:11.146478  2893 net.cpp:129] Top shape: 100 128 14 14 (2508800)
I0309 16:06:11.146497  2893 net.cpp:137] Memory required for data: 5760206000
I0309 16:06:11.146504  2893 layer_factory.hpp:77] Creating layer res3.10.conv1/bn_scale
I0309 16:06:11.146512  2893 net.cpp:84] Creating Layer res3.10.conv1/bn_scale
I0309 16:06:11.146517  2893 net.cpp:406] res3.10.conv1/bn_scale <- res3.10.conv1/bn
I0309 16:06:11.146522  2893 net.cpp:367] res3.10.conv1/bn_scale -> res3.10.conv1/bn (in-place)
I0309 16:06:11.146618  2893 layer_factory.hpp:77] Creating layer res3.10.conv1/bn_scale
I0309 16:06:11.146755  2893 net.cpp:122] Setting up res3.10.conv1/bn_scale
I0309 16:06:11.146765  2893 net.cpp:129] Top shape: 100 128 14 14 (2508800)
I0309 16:06:11.146769  2893 net.cpp:137] Memory required for data: 5770241200
I0309 16:06:11.146773  2893 layer_factory.hpp:77] Creating layer res3.10.conv1/relu
I0309 16:06:11.146780  2893 net.cpp:84] Creating Layer res3.10.conv1/relu
I0309 16:06:11.146783  2893 net.cpp:406] res3.10.conv1/relu <- res3.10.conv1/bn
I0309 16:06:11.146790  2893 net.cpp:367] res3.10.conv1/relu -> res3.10.conv1/bn (in-place)
I0309 16:06:11.147611  2893 net.cpp:122] Setting up res3.10.conv1/relu
I0309 16:06:11.147624  2893 net.cpp:129] Top shape: 100 128 14 14 (2508800)
I0309 16:06:11.147629  2893 net.cpp:137] Memory required for data: 5780276400
I0309 16:06:11.147634  2893 layer_factory.hpp:77] Creating layer res3.10.conv2
I0309 16:06:11.147640  2893 net.cpp:84] Creating Layer res3.10.conv2
I0309 16:06:11.147644  2893 net.cpp:406] res3.10.conv2 <- res3.10.conv1/bn
I0309 16:06:11.147650  2893 net.cpp:380] res3.10.conv2 -> res3.10.conv2
I0309 16:06:11.149999  2893 net.cpp:122] Setting up res3.10.conv2
I0309 16:06:11.150013  2893 net.cpp:129] Top shape: 100 128 14 14 (2508800)
I0309 16:06:11.150032  2893 net.cpp:137] Memory required for data: 5790311600
I0309 16:06:11.150038  2893 layer_factory.hpp:77] Creating layer res3.10.conv2/bn
I0309 16:06:11.150044  2893 net.cpp:84] Creating Layer res3.10.conv2/bn
I0309 16:06:11.150048  2893 net.cpp:406] res3.10.conv2/bn <- res3.10.conv2
I0309 16:06:11.150056  2893 net.cpp:380] res3.10.conv2/bn -> res3.10.conv2/bn
I0309 16:06:11.150403  2893 net.cpp:122] Setting up res3.10.conv2/bn
I0309 16:06:11.150411  2893 net.cpp:129] Top shape: 100 128 14 14 (2508800)
I0309 16:06:11.150430  2893 net.cpp:137] Memory required for data: 5800346800
I0309 16:06:11.150437  2893 layer_factory.hpp:77] Creating layer res3.10.conv2/bn_scale
I0309 16:06:11.150444  2893 net.cpp:84] Creating Layer res3.10.conv2/bn_scale
I0309 16:06:11.150447  2893 net.cpp:406] res3.10.conv2/bn_scale <- res3.10.conv2/bn
I0309 16:06:11.150451  2893 net.cpp:367] res3.10.conv2/bn_scale -> res3.10.conv2/bn (in-place)
I0309 16:06:11.150552  2893 layer_factory.hpp:77] Creating layer res3.10.conv2/bn_scale
I0309 16:06:11.150686  2893 net.cpp:122] Setting up res3.10.conv2/bn_scale
I0309 16:06:11.150694  2893 net.cpp:129] Top shape: 100 128 14 14 (2508800)
I0309 16:06:11.150697  2893 net.cpp:137] Memory required for data: 5810382000
I0309 16:06:11.150703  2893 layer_factory.hpp:77] Creating layer res3.10.conv2/relu
I0309 16:06:11.150709  2893 net.cpp:84] Creating Layer res3.10.conv2/relu
I0309 16:06:11.150712  2893 net.cpp:406] res3.10.conv2/relu <- res3.10.conv2/bn
I0309 16:06:11.150719  2893 net.cpp:367] res3.10.conv2/relu -> res3.10.conv2/bn (in-place)
I0309 16:06:11.151201  2893 net.cpp:122] Setting up res3.10.conv2/relu
I0309 16:06:11.151211  2893 net.cpp:129] Top shape: 100 128 14 14 (2508800)
I0309 16:06:11.151230  2893 net.cpp:137] Memory required for data: 5820417200
I0309 16:06:11.151233  2893 layer_factory.hpp:77] Creating layer res3.10.conv3
I0309 16:06:11.151242  2893 net.cpp:84] Creating Layer res3.10.conv3
I0309 16:06:11.151248  2893 net.cpp:406] res3.10.conv3 <- res3.10.conv2/bn
I0309 16:06:11.151253  2893 net.cpp:380] res3.10.conv3 -> res3.10.conv3
I0309 16:06:11.153280  2893 net.cpp:122] Setting up res3.10.conv3
I0309 16:06:11.153295  2893 net.cpp:129] Top shape: 100 512 14 14 (10035200)
I0309 16:06:11.153313  2893 net.cpp:137] Memory required for data: 5860558000
I0309 16:06:11.153319  2893 layer_factory.hpp:77] Creating layer res3.10.conv3/bn
I0309 16:06:11.153326  2893 net.cpp:84] Creating Layer res3.10.conv3/bn
I0309 16:06:11.153331  2893 net.cpp:406] res3.10.conv3/bn <- res3.10.conv3
I0309 16:06:11.153338  2893 net.cpp:380] res3.10.conv3/bn -> res3.10.conv3/bn
I0309 16:06:11.153652  2893 net.cpp:122] Setting up res3.10.conv3/bn
I0309 16:06:11.153676  2893 net.cpp:129] Top shape: 100 512 14 14 (10035200)
I0309 16:06:11.153681  2893 net.cpp:137] Memory required for data: 5900698800
I0309 16:06:11.153687  2893 layer_factory.hpp:77] Creating layer res3.10.conv3/bn_scale
I0309 16:06:11.153708  2893 net.cpp:84] Creating Layer res3.10.conv3/bn_scale
I0309 16:06:11.153712  2893 net.cpp:406] res3.10.conv3/bn_scale <- res3.10.conv3/bn
I0309 16:06:11.153717  2893 net.cpp:367] res3.10.conv3/bn_scale -> res3.10.conv3/bn (in-place)
I0309 16:06:11.153784  2893 layer_factory.hpp:77] Creating layer res3.10.conv3/bn_scale
I0309 16:06:11.153956  2893 net.cpp:122] Setting up res3.10.conv3/bn_scale
I0309 16:06:11.153966  2893 net.cpp:129] Top shape: 100 512 14 14 (10035200)
I0309 16:06:11.153970  2893 net.cpp:137] Memory required for data: 5940839600
I0309 16:06:11.153976  2893 layer_factory.hpp:77] Creating layer res3.10.sum
I0309 16:06:11.153985  2893 net.cpp:84] Creating Layer res3.10.sum
I0309 16:06:11.153988  2893 net.cpp:406] res3.10.sum <- res3.10.conv3/bn
I0309 16:06:11.153993  2893 net.cpp:406] res3.10.sum <- res3.9.sum_res3.9.relu_0_split_1
I0309 16:06:11.154014  2893 net.cpp:380] res3.10.sum -> res3.10.sum
I0309 16:06:11.154047  2893 net.cpp:122] Setting up res3.10.sum
I0309 16:06:11.154055  2893 net.cpp:129] Top shape: 100 512 14 14 (10035200)
I0309 16:06:11.154058  2893 net.cpp:137] Memory required for data: 5980980400
I0309 16:06:11.154062  2893 layer_factory.hpp:77] Creating layer res3.10.relu
I0309 16:06:11.154067  2893 net.cpp:84] Creating Layer res3.10.relu
I0309 16:06:11.154072  2893 net.cpp:406] res3.10.relu <- res3.10.sum
I0309 16:06:11.154078  2893 net.cpp:367] res3.10.relu -> res3.10.sum (in-place)
I0309 16:06:11.154605  2893 net.cpp:122] Setting up res3.10.relu
I0309 16:06:11.154615  2893 net.cpp:129] Top shape: 100 512 14 14 (10035200)
I0309 16:06:11.154629  2893 net.cpp:137] Memory required for data: 6021121200
I0309 16:06:11.154633  2893 layer_factory.hpp:77] Creating layer res3.10.sum_res3.10.relu_0_split
I0309 16:06:11.154640  2893 net.cpp:84] Creating Layer res3.10.sum_res3.10.relu_0_split
I0309 16:06:11.154644  2893 net.cpp:406] res3.10.sum_res3.10.relu_0_split <- res3.10.sum
I0309 16:06:11.154664  2893 net.cpp:380] res3.10.sum_res3.10.relu_0_split -> res3.10.sum_res3.10.relu_0_split_0
I0309 16:06:11.154683  2893 net.cpp:380] res3.10.sum_res3.10.relu_0_split -> res3.10.sum_res3.10.relu_0_split_1
I0309 16:06:11.154739  2893 net.cpp:122] Setting up res3.10.sum_res3.10.relu_0_split
I0309 16:06:11.154747  2893 net.cpp:129] Top shape: 100 512 14 14 (10035200)
I0309 16:06:11.154752  2893 net.cpp:129] Top shape: 100 512 14 14 (10035200)
I0309 16:06:11.154754  2893 net.cpp:137] Memory required for data: 6101402800
I0309 16:06:11.154758  2893 layer_factory.hpp:77] Creating layer res3.11.conv1
I0309 16:06:11.154767  2893 net.cpp:84] Creating Layer res3.11.conv1
I0309 16:06:11.154772  2893 net.cpp:406] res3.11.conv1 <- res3.10.sum_res3.10.relu_0_split_0
I0309 16:06:11.154779  2893 net.cpp:380] res3.11.conv1 -> res3.11.conv1
I0309 16:06:11.156993  2893 net.cpp:122] Setting up res3.11.conv1
I0309 16:06:11.157011  2893 net.cpp:129] Top shape: 100 256 14 14 (5017600)
I0309 16:06:11.157014  2893 net.cpp:137] Memory required for data: 6121473200
I0309 16:06:11.157021  2893 layer_factory.hpp:77] Creating layer res3.11.conv1/bn
I0309 16:06:11.157028  2893 net.cpp:84] Creating Layer res3.11.conv1/bn
I0309 16:06:11.157032  2893 net.cpp:406] res3.11.conv1/bn <- res3.11.conv1
I0309 16:06:11.157040  2893 net.cpp:380] res3.11.conv1/bn -> res3.11.conv1/bn
I0309 16:06:11.157326  2893 net.cpp:122] Setting up res3.11.conv1/bn
I0309 16:06:11.157338  2893 net.cpp:129] Top shape: 100 256 14 14 (5017600)
I0309 16:06:11.157342  2893 net.cpp:137] Memory required for data: 6141543600
I0309 16:06:11.157366  2893 layer_factory.hpp:77] Creating layer res3.11.conv1/bn_scale
I0309 16:06:11.157373  2893 net.cpp:84] Creating Layer res3.11.conv1/bn_scale
I0309 16:06:11.157377  2893 net.cpp:406] res3.11.conv1/bn_scale <- res3.11.conv1/bn
I0309 16:06:11.157385  2893 net.cpp:367] res3.11.conv1/bn_scale -> res3.11.conv1/bn (in-place)
I0309 16:06:11.157441  2893 layer_factory.hpp:77] Creating layer res3.11.conv1/bn_scale
I0309 16:06:11.157613  2893 net.cpp:122] Setting up res3.11.conv1/bn_scale
I0309 16:06:11.157622  2893 net.cpp:129] Top shape: 100 256 14 14 (5017600)
I0309 16:06:11.157626  2893 net.cpp:137] Memory required for data: 6161614000
I0309 16:06:11.157632  2893 layer_factory.hpp:77] Creating layer res3.11.conv1/relu
I0309 16:06:11.157639  2893 net.cpp:84] Creating Layer res3.11.conv1/relu
I0309 16:06:11.157644  2893 net.cpp:406] res3.11.conv1/relu <- res3.11.conv1/bn
I0309 16:06:11.157650  2893 net.cpp:367] res3.11.conv1/relu -> res3.11.conv1/bn (in-place)
I0309 16:06:11.158267  2893 net.cpp:122] Setting up res3.11.conv1/relu
I0309 16:06:11.158277  2893 net.cpp:129] Top shape: 100 256 14 14 (5017600)
I0309 16:06:11.158296  2893 net.cpp:137] Memory required for data: 6181684400
I0309 16:06:11.158300  2893 layer_factory.hpp:77] Creating layer res3.11.conv2
I0309 16:06:11.158309  2893 net.cpp:84] Creating Layer res3.11.conv2
I0309 16:06:11.158313  2893 net.cpp:406] res3.11.conv2 <- res3.11.conv1/bn
I0309 16:06:11.158319  2893 net.cpp:380] res3.11.conv2 -> res3.11.conv2
I0309 16:06:11.162232  2893 net.cpp:122] Setting up res3.11.conv2
I0309 16:06:11.162248  2893 net.cpp:129] Top shape: 100 256 14 14 (5017600)
I0309 16:06:11.162252  2893 net.cpp:137] Memory required for data: 6201754800
I0309 16:06:11.162259  2893 layer_factory.hpp:77] Creating layer res3.11.conv2/bn
I0309 16:06:11.162266  2893 net.cpp:84] Creating Layer res3.11.conv2/bn
I0309 16:06:11.162269  2893 net.cpp:406] res3.11.conv2/bn <- res3.11.conv2
I0309 16:06:11.162293  2893 net.cpp:380] res3.11.conv2/bn -> res3.11.conv2/bn
I0309 16:06:11.162627  2893 net.cpp:122] Setting up res3.11.conv2/bn
I0309 16:06:11.162636  2893 net.cpp:129] Top shape: 100 256 14 14 (5017600)
I0309 16:06:11.162639  2893 net.cpp:137] Memory required for data: 6221825200
I0309 16:06:11.162647  2893 layer_factory.hpp:77] Creating layer res3.11.conv2/bn_scale
I0309 16:06:11.162672  2893 net.cpp:84] Creating Layer res3.11.conv2/bn_scale
I0309 16:06:11.162675  2893 net.cpp:406] res3.11.conv2/bn_scale <- res3.11.conv2/bn
I0309 16:06:11.162695  2893 net.cpp:367] res3.11.conv2/bn_scale -> res3.11.conv2/bn (in-place)
I0309 16:06:11.162778  2893 layer_factory.hpp:77] Creating layer res3.11.conv2/bn_scale
I0309 16:06:11.162940  2893 net.cpp:122] Setting up res3.11.conv2/bn_scale
I0309 16:06:11.162948  2893 net.cpp:129] Top shape: 100 256 14 14 (5017600)
I0309 16:06:11.162951  2893 net.cpp:137] Memory required for data: 6241895600
I0309 16:06:11.162998  2893 layer_factory.hpp:77] Creating layer res3.11.conv2/relu
I0309 16:06:11.163007  2893 net.cpp:84] Creating Layer res3.11.conv2/relu
I0309 16:06:11.163010  2893 net.cpp:406] res3.11.conv2/relu <- res3.11.conv2/bn
I0309 16:06:11.163015  2893 net.cpp:367] res3.11.conv2/relu -> res3.11.conv2/bn (in-place)
I0309 16:06:11.163921  2893 net.cpp:122] Setting up res3.11.conv2/relu
I0309 16:06:11.163951  2893 net.cpp:129] Top shape: 100 256 14 14 (5017600)
I0309 16:06:11.163955  2893 net.cpp:137] Memory required for data: 6261966000
I0309 16:06:11.163959  2893 layer_factory.hpp:77] Creating layer res3.11.conv3
I0309 16:06:11.163966  2893 net.cpp:84] Creating Layer res3.11.conv3
I0309 16:06:11.163971  2893 net.cpp:406] res3.11.conv3 <- res3.11.conv2/bn
I0309 16:06:11.163978  2893 net.cpp:380] res3.11.conv3 -> res3.11.conv3
I0309 16:06:11.167035  2893 net.cpp:122] Setting up res3.11.conv3
I0309 16:06:11.167049  2893 net.cpp:129] Top shape: 100 1024 14 14 (20070400)
I0309 16:06:11.167069  2893 net.cpp:137] Memory required for data: 6342247600
I0309 16:06:11.167074  2893 layer_factory.hpp:77] Creating layer res3.11.conv3/bn
I0309 16:06:11.167083  2893 net.cpp:84] Creating Layer res3.11.conv3/bn
I0309 16:06:11.167086  2893 net.cpp:406] res3.11.conv3/bn <- res3.11.conv3
I0309 16:06:11.167093  2893 net.cpp:380] res3.11.conv3/bn -> res3.11.conv3/bn
I0309 16:06:11.167402  2893 net.cpp:122] Setting up res3.11.conv3/bn
I0309 16:06:11.167410  2893 net.cpp:129] Top shape: 100 1024 14 14 (20070400)
I0309 16:06:11.167429  2893 net.cpp:137] Memory required for data: 6422529200
I0309 16:06:11.167454  2893 layer_factory.hpp:77] Creating layer res3.11.conv3/bn_scale
I0309 16:06:11.167461  2893 net.cpp:84] Creating Layer res3.11.conv3/bn_scale
I0309 16:06:11.167465  2893 net.cpp:406] res3.11.conv3/bn_scale <- res3.11.conv3/bn
I0309 16:06:11.167470  2893 net.cpp:367] res3.11.conv3/bn_scale -> res3.11.conv3/bn (in-place)
I0309 16:06:11.167521  2893 layer_factory.hpp:77] Creating layer res3.11.conv3/bn_scale
I0309 16:06:11.167670  2893 net.cpp:122] Setting up res3.11.conv3/bn_scale
I0309 16:06:11.167678  2893 net.cpp:129] Top shape: 100 1024 14 14 (20070400)
I0309 16:06:11.167681  2893 net.cpp:137] Memory required for data: 6502810800
I0309 16:06:11.167687  2893 layer_factory.hpp:77] Creating layer res3.11.skipConv
I0309 16:06:11.167697  2893 net.cpp:84] Creating Layer res3.11.skipConv
I0309 16:06:11.167701  2893 net.cpp:406] res3.11.skipConv <- res3.10.sum_res3.10.relu_0_split_1
I0309 16:06:11.167708  2893 net.cpp:380] res3.11.skipConv -> res3.11.skipConv
I0309 16:06:11.170864  2893 net.cpp:122] Setting up res3.11.skipConv
I0309 16:06:11.170895  2893 net.cpp:129] Top shape: 100 1024 14 14 (20070400)
I0309 16:06:11.170899  2893 net.cpp:137] Memory required for data: 6583092400
I0309 16:06:11.170905  2893 layer_factory.hpp:77] Creating layer res3.11skipConv/bn
I0309 16:06:11.170912  2893 net.cpp:84] Creating Layer res3.11skipConv/bn
I0309 16:06:11.170917  2893 net.cpp:406] res3.11skipConv/bn <- res3.11.skipConv
I0309 16:06:11.170923  2893 net.cpp:380] res3.11skipConv/bn -> res3.11.skipConv/bn
I0309 16:06:11.171247  2893 net.cpp:122] Setting up res3.11skipConv/bn
I0309 16:06:11.171288  2893 net.cpp:129] Top shape: 100 1024 14 14 (20070400)
I0309 16:06:11.171291  2893 net.cpp:137] Memory required for data: 6663374000
I0309 16:06:11.171298  2893 layer_factory.hpp:77] Creating layer res3.11skipConv/bn_scale
I0309 16:06:11.171303  2893 net.cpp:84] Creating Layer res3.11skipConv/bn_scale
I0309 16:06:11.171308  2893 net.cpp:406] res3.11skipConv/bn_scale <- res3.11.skipConv/bn
I0309 16:06:11.171313  2893 net.cpp:367] res3.11skipConv/bn_scale -> res3.11.skipConv/bn (in-place)
I0309 16:06:11.171423  2893 layer_factory.hpp:77] Creating layer res3.11skipConv/bn_scale
I0309 16:06:11.171577  2893 net.cpp:122] Setting up res3.11skipConv/bn_scale
I0309 16:06:11.171587  2893 net.cpp:129] Top shape: 100 1024 14 14 (20070400)
I0309 16:06:11.171591  2893 net.cpp:137] Memory required for data: 6743655600
I0309 16:06:11.171597  2893 layer_factory.hpp:77] Creating layer res3.11.sum
I0309 16:06:11.171604  2893 net.cpp:84] Creating Layer res3.11.sum
I0309 16:06:11.171609  2893 net.cpp:406] res3.11.sum <- res3.11.conv3/bn
I0309 16:06:11.171614  2893 net.cpp:406] res3.11.sum <- res3.11.skipConv/bn
I0309 16:06:11.171622  2893 net.cpp:380] res3.11.sum -> res3.11.sum
I0309 16:06:11.171651  2893 net.cpp:122] Setting up res3.11.sum
I0309 16:06:11.171659  2893 net.cpp:129] Top shape: 100 1024 14 14 (20070400)
I0309 16:06:11.171663  2893 net.cpp:137] Memory required for data: 6823937200
I0309 16:06:11.171665  2893 layer_factory.hpp:77] Creating layer res3.11.relu
I0309 16:06:11.171672  2893 net.cpp:84] Creating Layer res3.11.relu
I0309 16:06:11.171677  2893 net.cpp:406] res3.11.relu <- res3.11.sum
I0309 16:06:11.171682  2893 net.cpp:367] res3.11.relu -> res3.11.sum (in-place)
I0309 16:06:11.172183  2893 net.cpp:122] Setting up res3.11.relu
I0309 16:06:11.172191  2893 net.cpp:129] Top shape: 100 1024 14 14 (20070400)
I0309 16:06:11.172210  2893 net.cpp:137] Memory required for data: 6904218800
I0309 16:06:11.172214  2893 layer_factory.hpp:77] Creating layer res3.11.sum_res3.11.relu_0_split
I0309 16:06:11.172221  2893 net.cpp:84] Creating Layer res3.11.sum_res3.11.relu_0_split
I0309 16:06:11.172224  2893 net.cpp:406] res3.11.sum_res3.11.relu_0_split <- res3.11.sum
I0309 16:06:11.172233  2893 net.cpp:380] res3.11.sum_res3.11.relu_0_split -> res3.11.sum_res3.11.relu_0_split_0
I0309 16:06:11.172240  2893 net.cpp:380] res3.11.sum_res3.11.relu_0_split -> res3.11.sum_res3.11.relu_0_split_1
I0309 16:06:11.172325  2893 net.cpp:122] Setting up res3.11.sum_res3.11.relu_0_split
I0309 16:06:11.172335  2893 net.cpp:129] Top shape: 100 1024 14 14 (20070400)
I0309 16:06:11.172341  2893 net.cpp:129] Top shape: 100 1024 14 14 (20070400)
I0309 16:06:11.172344  2893 net.cpp:137] Memory required for data: 7064782000
I0309 16:06:11.172348  2893 layer_factory.hpp:77] Creating layer res4.1.conv1
I0309 16:06:11.172354  2893 net.cpp:84] Creating Layer res4.1.conv1
I0309 16:06:11.172359  2893 net.cpp:406] res4.1.conv1 <- res3.11.sum_res3.11.relu_0_split_0
…
I0309 16:06:11.179329  2893 layer_factory.hpp:77] Creating layer res4.1.conv2/bn
I0309 16:06:11.179337  2893 net.cpp:84] Creating Layer res4.1.conv2/bn
I0309 16:06:11.179342  2893 net.cpp:406] res4.1.conv2/bn <- res4.1.conv2
I0309 16:06:11.179348  2893 net.cpp:380] res4.1.conv2/bn -> res4.1.conv2/bn
I0309 16:06:11.179646  2893 net.cpp:122] Setting up res4.1.conv2/bn
I0309 16:06:11.179669  2893 net.cpp:129] Top shape: 100 256 7 7 (1254400)
I0309 16:06:11.179673  2893 net.cpp:137] Memory required for data: 7155098800
I0309 16:06:11.179680  2893 layer_factory.hpp:77] Creating layer res4.1.conv2/bn_scale
I0309 16:06:11.179685  2893 net.cpp:84] Creating Layer res4.1.conv2/bn_scale
I0309 16:06:11.179689  2893 net.cpp:406] res4.1.conv2/bn_scale <- res4.1.conv2/bn
I0309 16:06:11.179694  2893 net.cpp:367] res4.1.conv2/bn_scale -> res4.1.conv2/bn (in-place)
I0309 16:06:11.179745  2893 layer_factory.hpp:77] Creating layer res4.1.conv2/bn_scale
I0309 16:06:11.179886  2893 net.cpp:122] Setting up res4.1.conv2/bn_scale
I0309 16:06:11.179895  2893 net.cpp:129] Top shape: 100 256 7 7 (1254400)
I0309 16:06:11.179899  2893 net.cpp:137] Memory required for data: 7160116400
I0309 16:06:11.179904  2893 layer_factory.hpp:77] Creating layer res4.1.conv2/relu
I0309 16:06:11.179910  2893 net.cpp:84] Creating Layer res4.1.conv2/relu
I0309 16:06:11.179913  2893 net.cpp:406] res4.1.conv2/relu <- res4.1.conv2/bn
I0309 16:06:11.179920  2893 net.cpp:367] res4.1.conv2/relu -> res4.1.conv2/bn (in-place)
I0309 16:06:11.180797  2893 net.cpp:122] Setting up res4.1.conv2/relu
I0309 16:06:11.180810  2893 net.cpp:129] Top shape: 100 256 7 7 (1254400)
I0309 16:06:11.180830  2893 net.cpp:137] Memory required for data: 7165134000
I0309 16:06:11.180833  2893 layer_factory.hpp:77] Creating layer res4.1.conv3
I0309 16:06:11.180842  2893 net.cpp:84] Creating Layer res4.1.conv3
I0309 16:06:11.180846  2893 net.cpp:406] res4.1.conv3 <- res4.1.conv2/bn
I0309 16:06:11.180855  2893 net.cpp:380] res4.1.conv3 -> res4.1.conv3
I0309 16:06:11.184262  2893 net.cpp:122] Setting up res4.1.conv3
I0309 16:06:11.184293  2893 net.cpp:129] Top shape: 100 1024 7 7 (5017600)
I0309 16:06:11.184298  2893 net.cpp:137] Memory required for data: 7185204400
I0309 16:06:11.184303  2893 layer_factory.hpp:77] Creating layer res4.1.conv3/bn
I0309 16:06:11.184310  2893 net.cpp:84] Creating Layer res4.1.conv3/bn
I0309 16:06:11.184314  2893 net.cpp:406] res4.1.conv3/bn <- res4.1.conv3
I0309 16:06:11.184321  2893 net.cpp:380] res4.1.conv3/bn -> res4.1.conv3/bn
I0309 16:06:11.184661  2893 net.cpp:122] Setting up res4.1.conv3/bn
I0309 16:06:11.184684  2893 net.cpp:129] Top shape: 100 1024 7 7 (5017600)
I0309 16:06:11.184687  2893 net.cpp:137] Memory required for data: 7205274800
I0309 16:06:11.184710  2893 layer_factory.hpp:77] Creating layer res4.1.conv3/bn_scale
I0309 16:06:11.184716  2893 net.cpp:84] Creating Layer res4.1.conv3/bn_scale
I0309 16:06:11.184737  2893 net.cpp:406] res4.1.conv3/bn_scale <- res4.1.conv3/bn
I0309 16:06:11.184741  2893 net.cpp:367] res4.1.conv3/bn_scale -> res4.1.conv3/bn (in-place)
I0309 16:06:11.184823  2893 layer_factory.hpp:77] Creating layer res4.1.conv3/bn_scale
I0309 16:06:11.184970  2893 net.cpp:122] Setting up res4.1.conv3/bn_scale
I0309 16:06:11.184991  2893 net.cpp:129] Top shape: 100 1024 7 7 (5017600)
I0309 16:06:11.184995  2893 net.cpp:137] Memory required for data: 7225345200
I0309 16:06:11.185000  2893 layer_factory.hpp:77] Creating layer res4.1.skipConv
I0309 16:06:11.185010  2893 net.cpp:84] Creating Layer res4.1.skipConv
I0309 16:06:11.185015  2893 net.cpp:406] res4.1.skipConv <- res3.11.sum_res3.11.relu_0_split_1
I0309 16:06:11.185022  2893 net.cpp:380] res4.1.skipConv -> res4.1.skipConv
I0309 16:06:11.189046  2893 net.cpp:122] Setting up res4.1.skipConv
I0309 16:06:11.189077  2893 net.cpp:129] Top shape: 100 1024 7 7 (5017600)
I0309 16:06:11.189082  2893 net.cpp:137] Memory required for data: 7245415600
I0309 16:06:11.189088  2893 layer_factory.hpp:77] Creating layer res4.1skipConv/bn
I0309 16:06:11.189095  2893 net.cpp:84] Creating Layer res4.1skipConv/bn
I0309 16:06:11.189098  2893 net.cpp:406] res4.1skipConv/bn <- res4.1.skipConv
I0309 16:06:11.189107  2893 net.cpp:380] res4.1skipConv/bn -> res4.1.skipConv/bn
I0309 16:06:11.189397  2893 net.cpp:122] Setting up res4.1skipConv/bn
I0309 16:06:11.189422  2893 net.cpp:129] Top shape: 100 1024 7 7 (5017600)
I0309 16:06:11.189425  2893 net.cpp:137] Memory required for data: 7265486000
I0309 16:06:11.189432  2893 layer_factory.hpp:77] Creating layer res4.1skipConv/bn_scale
I0309 16:06:11.189455  2893 net.cpp:84] Creating Layer res4.1skipConv/bn_scale
I0309 16:06:11.189458  2893 net.cpp:406] res4.1skipConv/bn_scale <- res4.1.skipConv/bn
I0309 16:06:11.189465  2893 net.cpp:367] res4.1skipConv/bn_scale -> res4.1.skipConv/bn (in-place)
I0309 16:06:11.189518  2893 layer_factory.hpp:77] Creating layer res4.1skipConv/bn_scale
I0309 16:06:11.189672  2893 net.cpp:122] Setting up res4.1skipConv/bn_scale
I0309 16:06:11.189682  2893 net.cpp:129] Top shape: 100 1024 7 7 (5017600)
I0309 16:06:11.189684  2893 net.cpp:137] Memory required for data: 7285556400
I0309 16:06:11.189692  2893 layer_factory.hpp:77] Creating layer res4.1.sum
I0309 16:06:11.189697  2893 net.cpp:84] Creating Layer res4.1.sum
I0309 16:06:11.189700  2893 net.cpp:406] res4.1.sum <- res4.1.conv3/bn
I0309 16:06:11.189704  2893 net.cpp:406] res4.1.sum <- res4.1.skipConv/bn
I0309 16:06:11.189713  2893 net.cpp:380] res4.1.sum -> res4.1.sum
I0309 16:06:11.189743  2893 net.cpp:122] Setting up res4.1.sum
I0309 16:06:11.189752  2893 net.cpp:129] Top shape: 100 1024 7 7 (5017600)
I0309 16:06:11.189756  2893 net.cpp:137] Memory required for data: 7305626800
I0309 16:06:11.189759  2893 layer_factory.hpp:77] Creating layer res4.1.relu
I0309 16:06:11.189765  2893 net.cpp:84] Creating Layer res4.1.relu
I0309 16:06:11.189769  2893 net.cpp:406] res4.1.relu <- res4.1.sum
I0309 16:06:11.189774  2893 net.cpp:367] res4.1.relu -> res4.1.sum (in-place)
I0309 16:06:11.190351  2893 net.cpp:122] Setting up res4.1.relu
I0309 16:06:11.190378  2893 net.cpp:129] Top shape: 100 1024 7 7 (5017600)
I0309 16:06:11.190382  2893 net.cpp:137] Memory required for data: 7325697200
I0309 16:06:11.190385  2893 layer_factory.hpp:77] Creating layer res4.1.sum_res4.1.relu_0_split
I0309 16:06:11.190392  2893 net.cpp:84] Creating Layer res4.1.sum_res4.1.relu_0_split
I0309 16:06:11.190395  2893 net.cpp:406] res4.1.sum_res4.1.relu_0_split <- res4.1.sum
I0309 16:06:11.190402  2893 net.cpp:380] res4.1.sum_res4.1.relu_0_split -> res4.1.sum_res4.1.relu_0_split_0
I0309 16:06:11.190409  2893 net.cpp:380] res4.1.sum_res4.1.relu_0_split -> res4.1.sum_res4.1.relu_0_split_1
I0309 16:06:11.190477  2893 net.cpp:122] Setting up res4.1.sum_res4.1.relu_0_split
I0309 16:06:11.190485  2893 net.cpp:129] Top shape: 100 1024 7 7 (5017600)
I0309 16:06:11.190490  2893 net.cpp:129] Top shape: 100 1024 7 7 (5017600)
I0309 16:06:11.190492  2893 net.cpp:137] Memory required for data: 7365838000
I0309 16:06:11.190496  2893 layer_factory.hpp:77] Creating layer res4.2.conv1
I0309 16:06:11.190505  2893 net.cpp:84] Creating Layer res4.2.conv1
I0309 16:06:11.190510  2893 net.cpp:406] res4.2.conv1 <- res4.1.sum_res4.1.relu_0_split_0
I0309 16:06:11.190516  2893 net.cpp:380] res4.2.conv1 -> res4.2.conv1
I0309 16:06:11.192749  2893 net.cpp:122] Setting up res4.2.conv1
I0309 16:06:11.192780  2893 net.cpp:129] Top shape: 100 256 7 7 (1254400)
I0309 16:06:11.192785  2893 net.cpp:137] Memory required for data: 7370855600
I0309 16:06:11.192790  2893 layer_factory.hpp:77] Creating layer res4.2.conv1/bn
I0309 16:06:11.192796  2893 net.cpp:84] Creating Layer res4.2.conv1/bn
I0309 16:06:11.192800  2893 net.cpp:406] res4.2.conv1/bn <- res4.2.conv1
I0309 16:06:11.192808  2893 net.cpp:380] res4.2.conv1/bn -> res4.2.conv1/bn
I0309 16:06:11.193096  2893 net.cpp:122] Setting up res4.2.conv1/bn
I0309 16:06:11.193122  2893 net.cpp:129] Top shape: 100 256 7 7 (1254400)
I0309 16:06:11.193126  2893 net.cpp:137] Memory required for data: 7375873200
I0309 16:06:11.193150  2893 layer_factory.hpp:77] Creating layer res4.2.conv1/bn_scale
I0309 16:06:11.193156  2893 net.cpp:84] Creating Layer res4.2.conv1/bn_scale
I0309 16:06:11.193161  2893 net.cpp:406] res4.2.conv1/bn_scale <- res4.2.conv1/bn
I0309 16:06:11.193166  2893 net.cpp:367] res4.2.conv1/bn_scale -> res4.2.conv1/bn (in-place)
I0309 16:06:11.193217  2893 layer_factory.hpp:77] Creating layer res4.2.conv1/bn_scale
I0309 16:06:11.193363  2893 net.cpp:122] Setting up res4.2.conv1/bn_scale
I0309 16:06:11.193373  2893 net.cpp:129] Top shape: 100 256 7 7 (1254400)
I0309 16:06:11.193377  2893 net.cpp:137] Memory required for data: 7380890800
I0309 16:06:11.193382  2893 layer_factory.hpp:77] Creating layer res4.2.conv1/relu
I0309 16:06:11.193388  2893 net.cpp:84] Creating Layer res4.2.conv1/relu
I0309 16:06:11.193393  2893 net.cpp:406] res4.2.conv1/relu <- res4.2.conv1/bn
I0309 16:06:11.193398  2893 net.cpp:367] res4.2.conv1/relu -> res4.2.conv1/bn (in-place)
I0309 16:06:11.193928  2893 net.cpp:122] Setting up res4.2.conv1/relu
I0309 16:06:11.193958  2893 net.cpp:129] Top shape: 100 256 7 7 (1254400)
I0309 16:06:11.193962  2893 net.cpp:137] Memory required for data: 7385908400
I0309 16:06:11.193966  2893 layer_factory.hpp:77] Creating layer res4.2.conv2
I0309 16:06:11.193975  2893 net.cpp:84] Creating Layer res4.2.conv2
I0309 16:06:11.193980  2893 net.cpp:406] res4.2.conv2 <- res4.2.conv1/bn
I0309 16:06:11.193987  2893 net.cpp:380] res4.2.conv2 -> res4.2.conv2
I0309 16:06:11.198441  2893 net.cpp:122] Setting up res4.2.conv2
I0309 16:06:11.198457  2893 net.cpp:129] Top shape: 100 256 7 7 (1254400)
I0309 16:06:11.198462  2893 net.cpp:137] Memory required for data: 7390926000
I0309 16:06:11.198469  2893 layer_factory.hpp:77] Creating layer res4.2.conv2/bn
I0309 16:06:11.198477  2893 net.cpp:84] Creating Layer res4.2.conv2/bn
I0309 16:06:11.198482  2893 net.cpp:406] res4.2.conv2/bn <- res4.2.conv2
I0309 16:06:11.198487  2893 net.cpp:380] res4.2.conv2/bn -> res4.2.conv2/bn
I0309 16:06:11.198783  2893 net.cpp:122] Setting up res4.2.conv2/bn
I0309 16:06:11.198792  2893 net.cpp:129] Top shape: 100 256 7 7 (1254400)
I0309 16:06:11.198796  2893 net.cpp:137] Memory required for data: 7395943600
I0309 16:06:11.198802  2893 layer_factory.hpp:77] Creating layer res4.2.conv2/bn_scale
I0309 16:06:11.198808  2893 net.cpp:84] Creating Layer res4.2.conv2/bn_scale
I0309 16:06:11.198812  2893 net.cpp:406] res4.2.conv2/bn_scale <- res4.2.conv2/bn
I0309 16:06:11.198817  2893 net.cpp:367] res4.2.conv2/bn_scale -> res4.2.conv2/bn (in-place)
I0309 16:06:11.198869  2893 layer_factory.hpp:77] Creating layer res4.2.conv2/bn_scale
I0309 16:06:11.199030  2893 net.cpp:122] Setting up res4.2.conv2/bn_scale
I0309 16:06:11.199039  2893 net.cpp:129] Top shape: 100 256 7 7 (1254400)
I0309 16:06:11.199043  2893 net.cpp:137] Memory required for data: 7400961200
I0309 16:06:11.199049  2893 layer_factory.hpp:77] Creating layer res4.2.conv2/relu
I0309 16:06:11.199054  2893 net.cpp:84] Creating Layer res4.2.conv2/relu
I0309 16:06:11.199059  2893 net.cpp:406] res4.2.conv2/relu <- res4.2.conv2/bn
I0309 16:06:11.199064  2893 net.cpp:367] res4.2.conv2/relu -> res4.2.conv2/bn (in-place)
I0309 16:06:11.199944  2893 net.cpp:122] Setting up res4.2.conv2/relu
I0309 16:06:11.199959  2893 net.cpp:129] Top shape: 100 256 7 7 (1254400)
I0309 16:06:11.199971  2893 net.cpp:137] Memory required for data: 7405978800
I0309 16:06:11.199975  2893 layer_factory.hpp:77] Creating layer res4.2.conv3
I0309 16:06:11.199982  2893 net.cpp:84] Creating Layer res4.2.conv3
I0309 16:06:11.199987  2893 net.cpp:406] res4.2.conv3 <- res4.2.conv2/bn
I0309 16:06:11.199992  2893 net.cpp:380] res4.2.conv3 -> res4.2.conv3
I0309 16:06:11.203274  2893 net.cpp:122] Setting up res4.2.conv3
I0309 16:06:11.203290  2893 net.cpp:129] Top shape: 100 1024 7 7 (5017600)
I0309 16:06:11.203294  2893 net.cpp:137] Memory required for data: 7426049200
I0309 16:06:11.203299  2893 layer_factory.hpp:77] Creating layer res4.2.conv3/bn
I0309 16:06:11.203305  2893 net.cpp:84] Creating Layer res4.2.conv3/bn
I0309 16:06:11.203308  2893 net.cpp:406] res4.2.conv3/bn <- res4.2.conv3
I0309 16:06:11.203315  2893 net.cpp:380] res4.2.conv3/bn -> res4.2.conv3/bn
I0309 16:06:11.203621  2893 net.cpp:122] Setting up res4.2.conv3/bn
I0309 16:06:11.203645  2893 net.cpp:129] Top shape: 100 1024 7 7 (5017600)
I0309 16:06:11.203649  2893 net.cpp:137] Memory required for data: 7446119600
I0309 16:06:11.203670  2893 layer_factory.hpp:77] Creating layer res4.2.conv3/bn_scale
I0309 16:06:11.203692  2893 net.cpp:84] Creating Layer res4.2.conv3/bn_scale
I0309 16:06:11.203696  2893 net.cpp:406] res4.2.conv3/bn_scale <- res4.2.conv3/bn
I0309 16:06:11.203701  2893 net.cpp:367] res4.2.conv3/bn_scale -> res4.2.conv3/bn (in-place)
I0309 16:06:11.203799  2893 layer_factory.hpp:77] Creating layer res4.2.conv3/bn_scale
I0309 16:06:11.203950  2893 net.cpp:122] Setting up res4.2.conv3/bn_scale
I0309 16:06:11.203958  2893 net.cpp:129] Top shape: 100 1024 7 7 (5017600)
I0309 16:06:11.203961  2893 net.cpp:137] Memory required for data: 7466190000
I0309 16:06:11.203968  2893 layer_factory.hpp:77] Creating layer res4.2.sum
I0309 16:06:11.203975  2893 net.cpp:84] Creating Layer res4.2.sum
I0309 16:06:11.203979  2893 net.cpp:406] res4.2.sum <- res4.2.conv3/bn
I0309 16:06:11.203984  2893 net.cpp:406] res4.2.sum <- res4.1.sum_res4.1.relu_0_split_1
I0309 16:06:11.203989  2893 net.cpp:380] res4.2.sum -> res4.2.sum
I0309 16:06:11.204021  2893 net.cpp:122] Setting up res4.2.sum
I0309 16:06:11.204030  2893 net.cpp:129] Top shape: 100 1024 7 7 (5017600)
I0309 16:06:11.204032  2893 net.cpp:137] Memory required for data: 7486260400
I0309 16:06:11.204035  2893 layer_factory.hpp:77] Creating layer res4.2.relu
I0309 16:06:11.204041  2893 net.cpp:84] Creating Layer res4.2.relu
I0309 16:06:11.204044  2893 net.cpp:406] res4.2.relu <- res4.2.sum
I0309 16:06:11.204049  2893 net.cpp:367] res4.2.relu -> res4.2.sum (in-place)
I0309 16:06:11.204571  2893 net.cpp:122] Setting up res4.2.relu
I0309 16:06:11.204579  2893 net.cpp:129] Top shape: 100 1024 7 7 (5017600)
I0309 16:06:11.204598  2893 net.cpp:137] Memory required for data: 7506330800
I0309 16:06:11.204602  2893 layer_factory.hpp:77] Creating layer res4.2.sum_res4.2.relu_0_split
I0309 16:06:11.204607  2893 net.cpp:84] Creating Layer res4.2.sum_res4.2.relu_0_split
I0309 16:06:11.204610  2893 net.cpp:406] res4.2.sum_res4.2.relu_0_split <- res4.2.sum
I0309 16:06:11.204617  2893 net.cpp:380] res4.2.sum_res4.2.relu_0_split -> res4.2.sum_res4.2.relu_0_split_0
I0309 16:06:11.204624  2893 net.cpp:380] res4.2.sum_res4.2.relu_0_split -> res4.2.sum_res4.2.relu_0_split_1
I0309 16:06:11.204713  2893 net.cpp:122] Setting up res4.2.sum_res4.2.relu_0_split
I0309 16:06:11.204721  2893 net.cpp:129] Top shape: 100 1024 7 7 (5017600)
I0309 16:06:11.204725  2893 net.cpp:129] Top shape: 100 1024 7 7 (5017600)
I0309 16:06:11.204727  2893 net.cpp:137] Memory required for data: 7546471600
I0309 16:06:11.204731  2893 layer_factory.hpp:77] Creating layer res4.3.conv1
I0309 16:06:11.204741  2893 net.cpp:84] Creating Layer res4.3.conv1
I0309 16:06:11.204744  2893 net.cpp:406] res4.3.conv1 <- res4.2.sum_res4.2.relu_0_split_0
I0309 16:06:11.204751  2893 net.cpp:380] res4.3.conv1 -> res4.3.conv1
I0309 16:06:11.206988  2893 net.cpp:122] Setting up res4.3.conv1
I0309 16:06:11.207020  2893 net.cpp:129] Top shape: 100 256 7 7 (1254400)
I0309 16:06:11.207033  2893 net.cpp:137] Memory required for data: 7551489200
I0309 16:06:11.207039  2893 layer_factory.hpp:77] Creating layer res4.3.conv1/bn
I0309 16:06:11.207046  2893 net.cpp:84] Creating Layer res4.3.conv1/bn
I0309 16:06:11.207051  2893 net.cpp:406] res4.3.conv1/bn <- res4.3.conv1
I0309 16:06:11.207073  2893 net.cpp:380] res4.3.conv1/bn -> res4.3.conv1/bn
I0309 16:06:11.207396  2893 net.cpp:122] Setting up res4.3.conv1/bn
I0309 16:06:11.207418  2893 net.cpp:129] Top shape: 100 256 7 7 (1254400)
I0309 16:06:11.207422  2893 net.cpp:137] Memory required for data: 7556506800
I0309 16:06:11.207443  2893 layer_factory.hpp:77] Creating layer res4.3.conv1/bn_scale
I0309 16:06:11.207449  2893 net.cpp:84] Creating Layer res4.3.conv1/bn_scale
I0309 16:06:11.207468  2893 net.cpp:406] res4.3.conv1/bn_scale <- res4.3.conv1/bn
I0309 16:06:11.207473  2893 net.cpp:367] res4.3.conv1/bn_scale -> res4.3.conv1/bn (in-place)
I0309 16:06:11.207556  2893 layer_factory.hpp:77] Creating layer res4.3.conv1/bn_scale
I0309 16:06:11.207700  2893 net.cpp:122] Setting up res4.3.conv1/bn_scale
I0309 16:06:11.207711  2893 net.cpp:129] Top shape: 100 256 7 7 (1254400)
I0309 16:06:11.207715  2893 net.cpp:137] Memory required for data: 7561524400
I0309 16:06:11.207720  2893 layer_factory.hpp:77] Creating layer res4.3.conv1/relu
I0309 16:06:11.207726  2893 net.cpp:84] Creating Layer res4.3.conv1/relu
I0309 16:06:11.207729  2893 net.cpp:406] res4.3.conv1/relu <- res4.3.conv1/bn
I0309 16:06:11.207733  2893 net.cpp:367] res4.3.conv1/relu -> res4.3.conv1/bn (in-place)
I0309 16:06:11.208222  2893 net.cpp:122] Setting up res4.3.conv1/relu
I0309 16:06:11.208250  2893 net.cpp:129] Top shape: 100 256 7 7 (1254400)
I0309 16:06:11.208253  2893 net.cpp:137] Memory required for data: 7566542000
I0309 16:06:11.208256  2893 layer_factory.hpp:77] Creating layer res4.3.conv2
I0309 16:06:11.208262  2893 net.cpp:84] Creating Layer res4.3.conv2
I0309 16:06:11.208266  2893 net.cpp:406] res4.3.conv2 <- res4.3.conv1/bn
I0309 16:06:11.208273  2893 net.cpp:380] res4.3.conv2 -> res4.3.conv2
I0309 16:06:11.211988  2893 net.cpp:122] Setting up res4.3.conv2
I0309 16:06:11.212018  2893 net.cpp:129] Top shape: 100 256 7 7 (1254400)
I0309 16:06:11.212021  2893 net.cpp:137] Memory required for data: 7571559600
I0309 16:06:11.212028  2893 layer_factory.hpp:77] Creating layer res4.3.conv2/bn
I0309 16:06:11.212035  2893 net.cpp:84] Creating Layer res4.3.conv2/bn
I0309 16:06:11.212040  2893 net.cpp:406] res4.3.conv2/bn <- res4.3.conv2
I0309 16:06:11.212045  2893 net.cpp:380] res4.3.conv2/bn -> res4.3.conv2/bn
I0309 16:06:11.212394  2893 net.cpp:122] Setting up res4.3.conv2/bn
I0309 16:06:11.212404  2893 net.cpp:129] Top shape: 100 256 7 7 (1254400)
I0309 16:06:11.212422  2893 net.cpp:137] Memory required for data: 7576577200
I0309 16:06:11.212430  2893 layer_factory.hpp:77] Creating layer res4.3.conv2/bn_scale
I0309 16:06:11.212437  2893 net.cpp:84] Creating Layer res4.3.conv2/bn_scale
I0309 16:06:11.212441  2893 net.cpp:406] res4.3.conv2/bn_scale <- res4.3.conv2/bn
I0309 16:06:11.212460  2893 net.cpp:367] res4.3.conv2/bn_scale -> res4.3.conv2/bn (in-place)
I0309 16:06:11.212548  2893 layer_factory.hpp:77] Creating layer res4.3.conv2/bn_scale
I0309 16:06:11.212698  2893 net.cpp:122] Setting up res4.3.conv2/bn_scale
I0309 16:06:11.212707  2893 net.cpp:129] Top shape: 100 256 7 7 (1254400)
I0309 16:06:11.212710  2893 net.cpp:137] Memory required for data: 7581594800
I0309 16:06:11.212716  2893 layer_factory.hpp:77] Creating layer res4.3.conv2/relu
I0309 16:06:11.212723  2893 net.cpp:84] Creating Layer res4.3.conv2/relu
I0309 16:06:11.212726  2893 net.cpp:406] res4.3.conv2/relu <- res4.3.conv2/bn
I0309 16:06:11.212733  2893 net.cpp:367] res4.3.conv2/relu -> res4.3.conv2/bn (in-place)
I0309 16:06:11.213238  2893 net.cpp:122] Setting up res4.3.conv2/relu
I0309 16:06:11.213249  2893 net.cpp:129] Top shape: 100 256 7 7 (1254400)
I0309 16:06:11.213253  2893 net.cpp:137] Memory required for data: 7586612400
I0309 16:06:11.213254  2893 layer_factory.hpp:77] Creating layer res4.3.conv3
I0309 16:06:11.213273  2893 net.cpp:84] Creating Layer res4.3.conv3
I0309 16:06:11.213277  2893 net.cpp:406] res4.3.conv3 <- res4.3.conv2/bn
I0309 16:06:11.213285  2893 net.cpp:380] res4.3.conv3 -> res4.3.conv3
I0309 16:06:11.216337  2893 net.cpp:122] Setting up res4.3.conv3
I0309 16:06:11.216368  2893 net.cpp:129] Top shape: 100 1024 7 7 (5017600)
I0309 16:06:11.216373  2893 net.cpp:137] Memory required for data: 7606682800
I0309 16:06:11.216379  2893 layer_factory.hpp:77] Creating layer res4.3.conv3/bn
I0309 16:06:11.216385  2893 net.cpp:84] Creating Layer res4.3.conv3/bn
I0309 16:06:11.216388  2893 net.cpp:406] res4.3.conv3/bn <- res4.3.conv3
I0309 16:06:11.216397  2893 net.cpp:380] res4.3.conv3/bn -> res4.3.conv3/bn
I0309 16:06:11.216732  2893 net.cpp:122] Setting up res4.3.conv3/bn
I0309 16:06:11.216755  2893 net.cpp:129] Top shape: 100 1024 7 7 (5017600)
I0309 16:06:11.216758  2893 net.cpp:137] Memory required for data: 7626753200
I0309 16:06:11.216781  2893 layer_factory.hpp:77] Creating layer res4.3.conv3/bn_scale
I0309 16:06:11.216787  2893 net.cpp:84] Creating Layer res4.3.conv3/bn_scale
I0309 16:06:11.216805  2893 net.cpp:406] res4.3.conv3/bn_scale <- res4.3.conv3/bn
I0309 16:06:11.216809  2893 net.cpp:367] res4.3.conv3/bn_scale -> res4.3.conv3/bn (in-place)
I0309 16:06:11.216894  2893 layer_factory.hpp:77] Creating layer res4.3.conv3/bn_scale
I0309 16:06:11.217054  2893 net.cpp:122] Setting up res4.3.conv3/bn_scale
I0309 16:06:11.217063  2893 net.cpp:129] Top shape: 100 1024 7 7 (5017600)
I0309 16:06:11.217067  2893 net.cpp:137] Memory required for data: 7646823600
I0309 16:06:11.217072  2893 layer_factory.hpp:77] Creating layer res4.3.sum
I0309 16:06:11.217080  2893 net.cpp:84] Creating Layer res4.3.sum
I0309 16:06:11.217085  2893 net.cpp:406] res4.3.sum <- res4.3.conv3/bn
I0309 16:06:11.217089  2893 net.cpp:406] res4.3.sum <- res4.2.sum_res4.2.relu_0_split_1
I0309 16:06:11.217095  2893 net.cpp:380] res4.3.sum -> res4.3.sum
I0309 16:06:11.217144  2893 net.cpp:122] Setting up res4.3.sum
I0309 16:06:11.217151  2893 net.cpp:129] Top shape: 100 1024 7 7 (5017600)
I0309 16:06:11.217154  2893 net.cpp:137] Memory required for data: 7666894000
I0309 16:06:11.217157  2893 layer_factory.hpp:77] Creating layer res4.3.relu
I0309 16:06:11.217162  2893 net.cpp:84] Creating Layer res4.3.relu
I0309 16:06:11.217165  2893 net.cpp:406] res4.3.relu <- res4.3.sum
I0309 16:06:11.217172  2893 net.cpp:367] res4.3.relu -> res4.3.sum (in-place)
I0309 16:06:11.218114  2893 net.cpp:122] Setting up res4.3.relu
I0309 16:06:11.218127  2893 net.cpp:129] Top shape: 100 1024 7 7 (5017600)
I0309 16:06:11.218147  2893 net.cpp:137] Memory required for data: 7686964400
I0309 16:06:11.218150  2893 layer_factory.hpp:77] Creating layer res4.3.sum_res4.3.relu_0_split
I0309 16:06:11.218174  2893 net.cpp:84] Creating Layer res4.3.sum_res4.3.relu_0_split
I0309 16:06:11.218179  2893 net.cpp:406] res4.3.sum_res4.3.relu_0_split <- res4.3.sum
I0309 16:06:11.218185  2893 net.cpp:380] res4.3.sum_res4.3.relu_0_split -> res4.3.sum_res4.3.relu_0_split_0
I0309 16:06:11.218207  2893 net.cpp:380] res4.3.sum_res4.3.relu_0_split -> res4.3.sum_res4.3.relu_0_split_1
I0309 16:06:11.218298  2893 net.cpp:122] Setting up res4.3.sum_res4.3.relu_0_split
I0309 16:06:11.218307  2893 net.cpp:129] Top shape: 100 1024 7 7 (5017600)
I0309 16:06:11.218312  2893 net.cpp:129] Top shape: 100 1024 7 7 (5017600)
I0309 16:06:11.218314  2893 net.cpp:137] Memory required for data: 7727105200
I0309 16:06:11.218318  2893 layer_factory.hpp:77] Creating layer res4.4.conv1
I0309 16:06:11.218327  2893 net.cpp:84] Creating Layer res4.4.conv1
I0309 16:06:11.218331  2893 net.cpp:406] res4.4.conv1 <- res4.3.sum_res4.3.relu_0_split_0
I0309 16:06:11.218338  2893 net.cpp:380] res4.4.conv1 -> res4.4.conv1
I0309 16:06:11.220490  2893 net.cpp:122] Setting up res4.4.conv1
I0309 16:06:11.220504  2893 net.cpp:129] Top shape: 100 256 7 7 (1254400)
I0309 16:06:11.220522  2893 net.cpp:137] Memory required for data: 7732122800
I0309 16:06:11.220527  2893 layer_factory.hpp:77] Creating layer res4.4.conv1/bn
I0309 16:06:11.220546  2893 net.cpp:84] Creating Layer res4.4.conv1/bn
I0309 16:06:11.220551  2893 net.cpp:406] res4.4.conv1/bn <- res4.4.conv1
I0309 16:06:11.220572  2893 net.cpp:380] res4.4.conv1/bn -> res4.4.conv1/bn
I0309 16:06:11.220871  2893 net.cpp:122] Setting up res4.4.conv1/bn
I0309 16:06:11.220896  2893 net.cpp:129] Top shape: 100 256 7 7 (1254400)
I0309 16:06:11.220898  2893 net.cpp:137] Memory required for data: 7737140400
I0309 16:06:11.220921  2893 layer_factory.hpp:77] Creating layer res4.4.conv1/bn_scale
I0309 16:06:11.220942  2893 net.cpp:84] Creating Layer res4.4.conv1/bn_scale
I0309 16:06:11.220945  2893 net.cpp:406] res4.4.conv1/bn_scale <- res4.4.conv1/bn
I0309 16:06:11.220949  2893 net.cpp:367] res4.4.conv1/bn_scale -> res4.4.conv1/bn (in-place)
I0309 16:06:11.221035  2893 layer_factory.hpp:77] Creating layer res4.4.conv1/bn_scale
I0309 16:06:11.221185  2893 net.cpp:122] Setting up res4.4.conv1/bn_scale
I0309 16:06:11.221194  2893 net.cpp:129] Top shape: 100 256 7 7 (1254400)
I0309 16:06:11.221197  2893 net.cpp:137] Memory required for data: 7742158000
I0309 16:06:11.221204  2893 layer_factory.hpp:77] Creating layer res4.4.conv1/relu
I0309 16:06:11.221208  2893 net.cpp:84] Creating Layer res4.4.conv1/relu
I0309 16:06:11.221213  2893 net.cpp:406] res4.4.conv1/relu <- res4.4.conv1/bn
I0309 16:06:11.221220  2893 net.cpp:367] res4.4.conv1/relu -> res4.4.conv1/bn (in-place)
I0309 16:06:11.221729  2893 net.cpp:122] Setting up res4.4.conv1/relu
I0309 16:06:11.221740  2893 net.cpp:129] Top shape: 100 256 7 7 (1254400)
I0309 16:06:11.221758  2893 net.cpp:137] Memory required for data: 7747175600
I0309 16:06:11.221762  2893 layer_factory.hpp:77] Creating layer res4.4.conv2
I0309 16:06:11.221823  2893 net.cpp:84] Creating Layer res4.4.conv2
I0309 16:06:11.221830  2893 net.cpp:406] res4.4.conv2 <- res4.4.conv1/bn
I0309 16:06:11.221837  2893 net.cpp:380] res4.4.conv2 -> res4.4.conv2
I0309 16:06:11.225502  2893 net.cpp:122] Setting up res4.4.conv2
I0309 16:06:11.225534  2893 net.cpp:129] Top shape: 100 256 7 7 (1254400)
I0309 16:06:11.225538  2893 net.cpp:137] Memory required for data: 7752193200
I0309 16:06:11.225545  2893 layer_factory.hpp:77] Creating layer res4.4.conv2/bn
I0309 16:06:11.225551  2893 net.cpp:84] Creating Layer res4.4.conv2/bn
I0309 16:06:11.225555  2893 net.cpp:406] res4.4.conv2/bn <- res4.4.conv2
I0309 16:06:11.225562  2893 net.cpp:380] res4.4.conv2/bn -> res4.4.conv2/bn
I0309 16:06:11.225939  2893 net.cpp:122] Setting up res4.4.conv2/bn
I0309 16:06:11.225948  2893 net.cpp:129] Top shape: 100 256 7 7 (1254400)
I0309 16:06:11.225967  2893 net.cpp:137] Memory required for data: 7757210800
I0309 16:06:11.225989  2893 layer_factory.hpp:77] Creating layer res4.4.conv2/bn_scale
I0309 16:06:11.225996  2893 net.cpp:84] Creating Layer res4.4.conv2/bn_scale
I0309 16:06:11.225999  2893 net.cpp:406] res4.4.conv2/bn_scale <- res4.4.conv2/bn
I0309 16:06:11.226006  2893 net.cpp:367] res4.4.conv2/bn_scale -> res4.4.conv2/bn (in-place)
I0309 16:06:11.226094  2893 layer_factory.hpp:77] Creating layer res4.4.conv2/bn_scale
I0309 16:06:11.226267  2893 net.cpp:122] Setting up res4.4.conv2/bn_scale
I0309 16:06:11.226277  2893 net.cpp:129] Top shape: 100 256 7 7 (1254400)
I0309 16:06:11.226281  2893 net.cpp:137] Memory required for data: 7762228400
I0309 16:06:11.226286  2893 layer_factory.hpp:77] Creating layer res4.4.conv2/relu
I0309 16:06:11.226292  2893 net.cpp:84] Creating Layer res4.4.conv2/relu
I0309 16:06:11.226296  2893 net.cpp:406] res4.4.conv2/relu <- res4.4.conv2/bn
I0309 16:06:11.226300  2893 net.cpp:367] res4.4.conv2/relu -> res4.4.conv2/bn (in-place)
I0309 16:06:11.226811  2893 net.cpp:122] Setting up res4.4.conv2/relu
I0309 16:06:11.226821  2893 net.cpp:129] Top shape: 100 256 7 7 (1254400)
I0309 16:06:11.226840  2893 net.cpp:137] Memory required for data: 7767246000
I0309 16:06:11.226842  2893 layer_factory.hpp:77] Creating layer res4.4.conv3
I0309 16:06:11.226851  2893 net.cpp:84] Creating Layer res4.4.conv3
I0309 16:06:11.226855  2893 net.cpp:406] res4.4.conv3 <- res4.4.conv2/bn
I0309 16:06:11.226871  2893 net.cpp:380] res4.4.conv3 -> res4.4.conv3
I0309 16:06:11.230015  2893 net.cpp:122] Setting up res4.4.conv3
I0309 16:06:11.230046  2893 net.cpp:129] Top shape: 100 1024 7 7 (5017600)
I0309 16:06:11.230051  2893 net.cpp:137] Memory required for data: 7787316400
I0309 16:06:11.230057  2893 layer_factory.hpp:77] Creating layer res4.4.conv3/bn
I0309 16:06:11.230065  2893 net.cpp:84] Creating Layer res4.4.conv3/bn
I0309 16:06:11.230069  2893 net.cpp:406] res4.4.conv3/bn <- res4.4.conv3
I0309 16:06:11.230077  2893 net.cpp:380] res4.4.conv3/bn -> res4.4.conv3/bn
I0309 16:06:11.230432  2893 net.cpp:122] Setting up res4.4.conv3/bn
I0309 16:06:11.230440  2893 net.cpp:129] Top shape: 100 1024 7 7 (5017600)
I0309 16:06:11.230459  2893 net.cpp:137] Memory required for data: 7807386800
I0309 16:06:11.230468  2893 layer_factory.hpp:77] Creating layer res4.4.conv3/bn_scale
I0309 16:06:11.230473  2893 net.cpp:84] Creating Layer res4.4.conv3/bn_scale
I0309 16:06:11.230476  2893 net.cpp:406] res4.4.conv3/bn_scale <- res4.4.conv3/bn
I0309 16:06:11.230481  2893 net.cpp:367] res4.4.conv3/bn_scale -> res4.4.conv3/bn (in-place)
I0309 16:06:11.230551  2893 layer_factory.hpp:77] Creating layer res4.4.conv3/bn_scale
I0309 16:06:11.230713  2893 net.cpp:122] Setting up res4.4.conv3/bn_scale
I0309 16:06:11.230722  2893 net.cpp:129] Top shape: 100 1024 7 7 (5017600)
I0309 16:06:11.230726  2893 net.cpp:137] Memory required for data: 7827457200
I0309 16:06:11.230731  2893 layer_factory.hpp:77] Creating layer res4.4.sum
I0309 16:06:11.230737  2893 net.cpp:84] Creating Layer res4.4.sum
I0309 16:06:11.230741  2893 net.cpp:406] res4.4.sum <- res4.4.conv3/bn
I0309 16:06:11.230746  2893 net.cpp:406] res4.4.sum <- res4.3.sum_res4.3.relu_0_split_1
I0309 16:06:11.230753  2893 net.cpp:380] res4.4.sum -> res4.4.sum
I0309 16:06:11.230801  2893 net.cpp:122] Setting up res4.4.sum
I0309 16:06:11.230810  2893 net.cpp:129] Top shape: 100 1024 7 7 (5017600)
I0309 16:06:11.230813  2893 net.cpp:137] Memory required for data: 7847527600
I0309 16:06:11.230816  2893 layer_factory.hpp:77] Creating layer res4.4.relu
I0309 16:06:11.230821  2893 net.cpp:84] Creating Layer res4.4.relu
I0309 16:06:11.230824  2893 net.cpp:406] res4.4.relu <- res4.4.sum
I0309 16:06:11.230829  2893 net.cpp:367] res4.4.relu -> res4.4.sum (in-place)
I0309 16:06:11.231722  2893 net.cpp:122] Setting up res4.4.relu
I0309 16:06:11.231735  2893 net.cpp:129] Top shape: 100 1024 7 7 (5017600)
I0309 16:06:11.231755  2893 net.cpp:137] Memory required for data: 7867598000
I0309 16:06:11.231758  2893 layer_factory.hpp:77] Creating layer res4.4.sum_res4.4.relu_0_split
I0309 16:06:11.231765  2893 net.cpp:84] Creating Layer res4.4.sum_res4.4.relu_0_split
I0309 16:06:11.231768  2893 net.cpp:406] res4.4.sum_res4.4.relu_0_split <- res4.4.sum
I0309 16:06:11.231775  2893 net.cpp:380] res4.4.sum_res4.4.relu_0_split -> res4.4.sum_res4.4.relu_0_split_0
I0309 16:06:11.231783  2893 net.cpp:380] res4.4.sum_res4.4.relu_0_split -> res4.4.sum_res4.4.relu_0_split_1
I0309 16:06:11.231860  2893 net.cpp:122] Setting up res4.4.sum_res4.4.relu_0_split
I0309 16:06:11.231869  2893 net.cpp:129] Top shape: 100 1024 7 7 (5017600)
I0309 16:06:11.231873  2893 net.cpp:129] Top shape: 100 1024 7 7 (5017600)
I0309 16:06:11.231876  2893 net.cpp:137] Memory required for data: 7907738800
I0309 16:06:11.231879  2893 layer_factory.hpp:77] Creating layer res4.5.conv1
I0309 16:06:11.231891  2893 net.cpp:84] Creating Layer res4.5.conv1
I0309 16:06:11.231895  2893 net.cpp:406] res4.5.conv1 <- res4.4.sum_res4.4.relu_0_split_0
I0309 16:06:11.231900  2893 net.cpp:380] res4.5.conv1 -> res4.5.conv1
I0309 16:06:11.235504  2893 net.cpp:122] Setting up res4.5.conv1
I0309 16:06:11.235535  2893 net.cpp:129] Top shape: 100 512 7 7 (2508800)
I0309 16:06:11.235539  2893 net.cpp:137] Memory required for data: 7917774000
I0309 16:06:11.235545  2893 layer_factory.hpp:77] Creating layer res4.5.conv1/bn
I0309 16:06:11.235554  2893 net.cpp:84] Creating Layer res4.5.conv1/bn
I0309 16:06:11.235558  2893 net.cpp:406] res4.5.conv1/bn <- res4.5.conv1
I0309 16:06:11.235576  2893 net.cpp:380] res4.5.conv1/bn -> res4.5.conv1/bn
I0309 16:06:11.235918  2893 net.cpp:122] Setting up res4.5.conv1/bn
I0309 16:06:11.235927  2893 net.cpp:129] Top shape: 100 512 7 7 (2508800)
I0309 16:06:11.235946  2893 net.cpp:137] Memory required for data: 7927809200
I0309 16:06:11.235954  2893 layer_factory.hpp:77] Creating layer res4.5.conv1/bn_scale
I0309 16:06:11.235960  2893 net.cpp:84] Creating Layer res4.5.conv1/bn_scale
I0309 16:06:11.235963  2893 net.cpp:406] res4.5.conv1/bn_scale <- res4.5.conv1/bn
I0309 16:06:11.235970  2893 net.cpp:367] res4.5.conv1/bn_scale -> res4.5.conv1/bn (in-place)
I0309 16:06:11.236057  2893 layer_factory.hpp:77] Creating layer res4.5.conv1/bn_scale
I0309 16:06:11.236223  2893 net.cpp:122] Setting up res4.5.conv1/bn_scale
I0309 16:06:11.236234  2893 net.cpp:129] Top shape: 100 512 7 7 (2508800)
I0309 16:06:11.236238  2893 net.cpp:137] Memory required for data: 7937844400
I0309 16:06:11.236243  2893 layer_factory.hpp:77] Creating layer res4.5.conv1/relu
I0309 16:06:11.236248  2893 net.cpp:84] Creating Layer res4.5.conv1/relu
I0309 16:06:11.236253  2893 net.cpp:406] res4.5.conv1/relu <- res4.5.conv1/bn
I0309 16:06:11.236259  2893 net.cpp:367] res4.5.conv1/relu -> res4.5.conv1/bn (in-place)
I0309 16:06:11.236776  2893 net.cpp:122] Setting up res4.5.conv1/relu
I0309 16:06:11.236786  2893 net.cpp:129] Top shape: 100 512 7 7 (2508800)
I0309 16:06:11.236805  2893 net.cpp:137] Memory required for data: 7947879600
I0309 16:06:11.236809  2893 layer_factory.hpp:77] Creating layer res4.5.conv2
I0309 16:06:11.236817  2893 net.cpp:84] Creating Layer res4.5.conv2
I0309 16:06:11.236821  2893 net.cpp:406] res4.5.conv2 <- res4.5.conv1/bn
I0309 16:06:11.236829  2893 net.cpp:380] res4.5.conv2 -> res4.5.conv2
I0309 16:06:11.243268  2893 net.cpp:122] Setting up res4.5.conv2
I0309 16:06:11.243302  2893 net.cpp:129] Top shape: 100 512 7 7 (2508800)
I0309 16:06:11.243306  2893 net.cpp:137] Memory required for data: 7957914800
I0309 16:06:11.243314  2893 layer_factory.hpp:77] Creating layer res4.5.conv2/bn
I0309 16:06:11.243321  2893 net.cpp:84] Creating Layer res4.5.conv2/bn
I0309 16:06:11.243325  2893 net.cpp:406] res4.5.conv2/bn <- res4.5.conv2
I0309 16:06:11.243332  2893 net.cpp:380] res4.5.conv2/bn -> res4.5.conv2/bn
I0309 16:06:11.243705  2893 net.cpp:122] Setting up res4.5.conv2/bn
I0309 16:06:11.243715  2893 net.cpp:129] Top shape: 100 512 7 7 (2508800)
I0309 16:06:11.243732  2893 net.cpp:137] Memory required for data: 7967950000
I0309 16:06:11.243739  2893 layer_factory.hpp:77] Creating layer res4.5.conv2/bn_scale
I0309 16:06:11.243759  2893 net.cpp:84] Creating Layer res4.5.conv2/bn_scale
I0309 16:06:11.243763  2893 net.cpp:406] res4.5.conv2/bn_scale <- res4.5.conv2/bn
I0309 16:06:11.243769  2893 net.cpp:367] res4.5.conv2/bn_scale -> res4.5.conv2/bn (in-place)
I0309 16:06:11.243854  2893 layer_factory.hpp:77] Creating layer res4.5.conv2/bn_scale
I0309 16:06:11.244033  2893 net.cpp:122] Setting up res4.5.conv2/bn_scale
I0309 16:06:11.244043  2893 net.cpp:129] Top shape: 100 512 7 7 (2508800)
I0309 16:06:11.244047  2893 net.cpp:137] Memory required for data: 7977985200
I0309 16:06:11.244052  2893 layer_factory.hpp:77] Creating layer res4.5.conv2/relu
I0309 16:06:11.244060  2893 net.cpp:84] Creating Layer res4.5.conv2/relu
I0309 16:06:11.244062  2893 net.cpp:406] res4.5.conv2/relu <- res4.5.conv2/bn
I0309 16:06:11.244067  2893 net.cpp:367] res4.5.conv2/relu -> res4.5.conv2/bn (in-place)
I0309 16:06:11.244575  2893 net.cpp:122] Setting up res4.5.conv2/relu
I0309 16:06:11.244587  2893 net.cpp:129] Top shape: 100 512 7 7 (2508800)
I0309 16:06:11.244590  2893 net.cpp:137] Memory required for data: 7988020400
I0309 16:06:11.244593  2893 layer_factory.hpp:77] Creating layer res4.5.conv3
I0309 16:06:11.244601  2893 net.cpp:84] Creating Layer res4.5.conv3
I0309 16:06:11.244604  2893 net.cpp:406] res4.5.conv3 <- res4.5.conv2/bn
I0309 16:06:11.244611  2893 net.cpp:380] res4.5.conv3 -> res4.5.conv3
I0309 16:06:11.247856  2893 net.cpp:122] Setting up res4.5.conv3
I0309 16:06:11.247870  2893 net.cpp:129] Top shape: 100 1024 7 7 (5017600)
I0309 16:06:11.247886  2893 net.cpp:137] Memory required for data: 8008090800
I0309 16:06:11.247892  2893 layer_factory.hpp:77] Creating layer res4.5.conv3/bn
I0309 16:06:11.247900  2893 net.cpp:84] Creating Layer res4.5.conv3/bn
I0309 16:06:11.247905  2893 net.cpp:406] res4.5.conv3/bn <- res4.5.conv3
I0309 16:06:11.247910  2893 net.cpp:380] res4.5.conv3/bn -> res4.5.conv3/bn
I0309 16:06:11.248284  2893 net.cpp:122] Setting up res4.5.conv3/bn
I0309 16:06:11.248307  2893 net.cpp:129] Top shape: 100 1024 7 7 (5017600)
I0309 16:06:11.248311  2893 net.cpp:137] Memory required for data: 8028161200
I0309 16:06:11.248332  2893 layer_factory.hpp:77] Creating layer res4.5.conv3/bn_scale
I0309 16:06:11.248353  2893 net.cpp:84] Creating Layer res4.5.conv3/bn_scale
I0309 16:06:11.248356  2893 net.cpp:406] res4.5.conv3/bn_scale <- res4.5.conv3/bn
I0309 16:06:11.248360  2893 net.cpp:367] res4.5.conv3/bn_scale -> res4.5.conv3/bn (in-place)
I0309 16:06:11.248450  2893 layer_factory.hpp:77] Creating layer res4.5.conv3/bn_scale
I0309 16:06:11.248631  2893 net.cpp:122] Setting up res4.5.conv3/bn_scale
I0309 16:06:11.248641  2893 net.cpp:129] Top shape: 100 1024 7 7 (5017600)
I0309 16:06:11.248643  2893 net.cpp:137] Memory required for data: 8048231600
I0309 16:06:11.248649  2893 layer_factory.hpp:77] Creating layer res4.5.skipConv
I0309 16:06:11.248658  2893 net.cpp:84] Creating Layer res4.5.skipConv
I0309 16:06:11.248663  2893 net.cpp:406] res4.5.skipConv <- res4.4.sum_res4.4.relu_0_split_1
I0309 16:06:11.248668  2893 net.cpp:380] res4.5.skipConv -> res4.5.skipConv
I0309 16:06:11.252652  2893 net.cpp:122] Setting up res4.5.skipConv
I0309 16:06:11.252681  2893 net.cpp:129] Top shape: 100 1024 7 7 (5017600)
I0309 16:06:11.252686  2893 net.cpp:137] Memory required for data: 8068302000
I0309 16:06:11.252691  2893 layer_factory.hpp:77] Creating layer res4.5skipConv/bn
I0309 16:06:11.252699  2893 net.cpp:84] Creating Layer res4.5skipConv/bn
I0309 16:06:11.252703  2893 net.cpp:406] res4.5skipConv/bn <- res4.5.skipConv
I0309 16:06:11.252709  2893 net.cpp:380] res4.5skipConv/bn -> res4.5.skipConv/bn
I0309 16:06:11.253054  2893 net.cpp:122] Setting up res4.5skipConv/bn
I0309 16:06:11.253063  2893 net.cpp:129] Top shape: 100 1024 7 7 (5017600)
I0309 16:06:11.253082  2893 net.cpp:137] Memory required for data: 8088372400
I0309 16:06:11.253089  2893 layer_factory.hpp:77] Creating layer res4.5skipConv/bn_scale
I0309 16:06:11.253111  2893 net.cpp:84] Creating Layer res4.5skipConv/bn_scale
I0309 16:06:11.253116  2893 net.cpp:406] res4.5skipConv/bn_scale <- res4.5.skipConv/bn
I0309 16:06:11.253121  2893 net.cpp:367] res4.5skipConv/bn_scale -> res4.5.skipConv/bn (in-place)
I0309 16:06:11.253211  2893 layer_factory.hpp:77] Creating layer res4.5skipConv/bn_scale
I0309 16:06:11.253378  2893 net.cpp:122] Setting up res4.5skipConv/bn_scale
I0309 16:06:11.253387  2893 net.cpp:129] Top shape: 100 1024 7 7 (5017600)
I0309 16:06:11.253391  2893 net.cpp:137] Memory required for data: 8108442800
I0309 16:06:11.253396  2893 layer_factory.hpp:77] Creating layer res4.5.sum
I0309 16:06:11.253403  2893 net.cpp:84] Creating Layer res4.5.sum
I0309 16:06:11.253407  2893 net.cpp:406] res4.5.sum <- res4.5.conv3/bn
I0309 16:06:11.253414  2893 net.cpp:406] res4.5.sum <- res4.5.skipConv/bn
I0309 16:06:11.253419  2893 net.cpp:380] res4.5.sum -> res4.5.sum
I0309 16:06:11.253454  2893 net.cpp:122] Setting up res4.5.sum
I0309 16:06:11.253463  2893 net.cpp:129] Top shape: 100 1024 7 7 (5017600)
I0309 16:06:11.253466  2893 net.cpp:137] Memory required for data: 8128513200
I0309 16:06:11.253469  2893 layer_factory.hpp:77] Creating layer res4.5.relu
I0309 16:06:11.253474  2893 net.cpp:84] Creating Layer res4.5.relu
I0309 16:06:11.253479  2893 net.cpp:406] res4.5.relu <- res4.5.sum
I0309 16:06:11.253485  2893 net.cpp:367] res4.5.relu -> res4.5.sum (in-place)
I0309 16:06:11.254478  2893 net.cpp:122] Setting up res4.5.relu
I0309 16:06:11.254492  2893 net.cpp:129] Top shape: 100 1024 7 7 (5017600)
I0309 16:06:11.254513  2893 net.cpp:137] Memory required for data: 8148583600
I0309 16:06:11.254528  2893 layer_factory.hpp:77] Creating layer res4.5.sum_res4.5.relu_0_split
I0309 16:06:11.254535  2893 net.cpp:84] Creating Layer res4.5.sum_res4.5.relu_0_split
I0309 16:06:11.254539  2893 net.cpp:406] res4.5.sum_res4.5.relu_0_split <- res4.5.sum
I0309 16:06:11.254564  2893 net.cpp:380] res4.5.sum_res4.5.relu_0_split -> res4.5.sum_res4.5.relu_0_split_0
I0309 16:06:11.254572  2893 net.cpp:380] res4.5.sum_res4.5.relu_0_split -> res4.5.sum_res4.5.relu_0_split_1
I0309 16:06:11.254633  2893 net.cpp:122] Setting up res4.5.sum_res4.5.relu_0_split
I0309 16:06:11.254642  2893 net.cpp:129] Top shape: 100 1024 7 7 (5017600)
I0309 16:06:11.254647  2893 net.cpp:129] Top shape: 100 1024 7 7 (5017600)
I0309 16:06:11.254650  2893 net.cpp:137] Memory required for data: 8188724400
I0309 16:06:11.254653  2893 layer_factory.hpp:77] Creating layer res4.6.conv1
I0309 16:06:11.254662  2893 net.cpp:84] Creating Layer res4.6.conv1
I0309 16:06:11.254667  2893 net.cpp:406] res4.6.conv1 <- res4.5.sum_res4.5.relu_0_split_0
I0309 16:06:11.254673  2893 net.cpp:380] res4.6.conv1 -> res4.6.conv1
I0309 16:06:11.258064  2893 net.cpp:122] Setting up res4.6.conv1
I0309 16:06:11.258080  2893 net.cpp:129] Top shape: 100 512 7 7 (2508800)
I0309 16:06:11.258100  2893 net.cpp:137] Memory required for data: 8198759600
I0309 16:06:11.258106  2893 layer_factory.hpp:77] Creating layer res4.6.conv1/bn
I0309 16:06:11.258114  2893 net.cpp:84] Creating Layer res4.6.conv1/bn
I0309 16:06:11.258118  2893 net.cpp:406] res4.6.conv1/bn <- res4.6.conv1
I0309 16:06:11.258126  2893 net.cpp:380] res4.6.conv1/bn -> res4.6.conv1/bn
I0309 16:06:11.258502  2893 net.cpp:122] Setting up res4.6.conv1/bn
I0309 16:06:11.258524  2893 net.cpp:129] Top shape: 100 512 7 7 (2508800)
I0309 16:06:11.258527  2893 net.cpp:137] Memory required for data: 8208794800
I0309 16:06:11.258550  2893 layer_factory.hpp:77] Creating layer res4.6.conv1/bn_scale
I0309 16:06:11.258555  2893 net.cpp:84] Creating Layer res4.6.conv1/bn_scale
I0309 16:06:11.258559  2893 net.cpp:406] res4.6.conv1/bn_scale <- res4.6.conv1/bn
I0309 16:06:11.258563  2893 net.cpp:367] res4.6.conv1/bn_scale -> res4.6.conv1/bn (in-place)
I0309 16:06:11.258635  2893 layer_factory.hpp:77] Creating layer res4.6.conv1/bn_scale
I0309 16:06:11.258800  2893 net.cpp:122] Setting up res4.6.conv1/bn_scale
I0309 16:06:11.258808  2893 net.cpp:129] Top shape: 100 512 7 7 (2508800)
I0309 16:06:11.258811  2893 net.cpp:137] Memory required for data: 8218830000
I0309 16:06:11.258818  2893 layer_factory.hpp:77] Creating layer res4.6.conv1/relu
I0309 16:06:11.258823  2893 net.cpp:84] Creating Layer res4.6.conv1/relu
I0309 16:06:11.258827  2893 net.cpp:406] res4.6.conv1/relu <- res4.6.conv1/bn
I0309 16:06:11.258833  2893 net.cpp:367] res4.6.conv1/relu -> res4.6.conv1/bn (in-place)
I0309 16:06:11.259340  2893 net.cpp:122] Setting up res4.6.conv1/relu
I0309 16:06:11.259348  2893 net.cpp:129] Top shape: 100 512 7 7 (2508800)
I0309 16:06:11.259367  2893 net.cpp:137] Memory required for data: 8228865200
I0309 16:06:11.259371  2893 layer_factory.hpp:77] Creating layer res4.6.conv2
I0309 16:06:11.259379  2893 net.cpp:84] Creating Layer res4.6.conv2
I0309 16:06:11.259383  2893 net.cpp:406] res4.6.conv2 <- res4.6.conv1/bn
I0309 16:06:11.259389  2893 net.cpp:380] res4.6.conv2 -> res4.6.conv2
I0309 16:06:11.265316  2893 net.cpp:122] Setting up res4.6.conv2
I0309 16:06:11.265349  2893 net.cpp:129] Top shape: 100 512 7 7 (2508800)
I0309 16:06:11.265352  2893 net.cpp:137] Memory required for data: 8238900400
I0309 16:06:11.265358  2893 layer_factory.hpp:77] Creating layer res4.6.conv2/bn
I0309 16:06:11.265365  2893 net.cpp:84] Creating Layer res4.6.conv2/bn
I0309 16:06:11.265370  2893 net.cpp:406] res4.6.conv2/bn <- res4.6.conv2
I0309 16:06:11.265377  2893 net.cpp:380] res4.6.conv2/bn -> res4.6.conv2/bn
I0309 16:06:11.265740  2893 net.cpp:122] Setting up res4.6.conv2/bn
I0309 16:06:11.265750  2893 net.cpp:129] Top shape: 100 512 7 7 (2508800)
I0309 16:06:11.265770  2893 net.cpp:137] Memory required for data: 8248935600
I0309 16:06:11.265805  2893 layer_factory.hpp:77] Creating layer res4.6.conv2/bn_scale
I0309 16:06:11.265827  2893 net.cpp:84] Creating Layer res4.6.conv2/bn_scale
I0309 16:06:11.265831  2893 net.cpp:406] res4.6.conv2/bn_scale <- res4.6.conv2/bn
I0309 16:06:11.265836  2893 net.cpp:367] res4.6.conv2/bn_scale -> res4.6.conv2/bn (in-place)
I0309 16:06:11.265939  2893 layer_factory.hpp:77] Creating layer res4.6.conv2/bn_scale
I0309 16:06:11.266116  2893 net.cpp:122] Setting up res4.6.conv2/bn_scale
I0309 16:06:11.266140  2893 net.cpp:129] Top shape: 100 512 7 7 (2508800)
I0309 16:06:11.266144  2893 net.cpp:137] Memory required for data: 8258970800
I0309 16:06:11.266150  2893 layer_factory.hpp:77] Creating layer res4.6.conv2/relu
I0309 16:06:11.266157  2893 net.cpp:84] Creating Layer res4.6.conv2/relu
I0309 16:06:11.266161  2893 net.cpp:406] res4.6.conv2/relu <- res4.6.conv2/bn
I0309 16:06:11.266168  2893 net.cpp:367] res4.6.conv2/relu -> res4.6.conv2/bn (in-place)
I0309 16:06:11.266667  2893 net.cpp:122] Setting up res4.6.conv2/relu
I0309 16:06:11.266679  2893 net.cpp:129] Top shape: 100 512 7 7 (2508800)
I0309 16:06:11.266682  2893 net.cpp:137] Memory required for data: 8269006000
I0309 16:06:11.266685  2893 layer_factory.hpp:77] Creating layer res4.6.conv3
I0309 16:06:11.266692  2893 net.cpp:84] Creating Layer res4.6.conv3
I0309 16:06:11.266697  2893 net.cpp:406] res4.6.conv3 <- res4.6.conv2/bn
I0309 16:06:11.266702  2893 net.cpp:380] res4.6.conv3 -> res4.6.conv3
I0309 16:06:11.270360  2893 net.cpp:122] Setting up res4.6.conv3
I0309 16:06:11.270390  2893 net.cpp:129] Top shape: 100 1024 7 7 (5017600)
I0309 16:06:11.270395  2893 net.cpp:137] Memory required for data: 8289076400
I0309 16:06:11.270400  2893 layer_factory.hpp:77] Creating layer res4.6.conv3/bn
I0309 16:06:11.270408  2893 net.cpp:84] Creating Layer res4.6.conv3/bn
I0309 16:06:11.270412  2893 net.cpp:406] res4.6.conv3/bn <- res4.6.conv3
I0309 16:06:11.270417  2893 net.cpp:380] res4.6.conv3/bn -> res4.6.conv3/bn
I0309 16:06:11.270797  2893 net.cpp:122] Setting up res4.6.conv3/bn
I0309 16:06:11.270805  2893 net.cpp:129] Top shape: 100 1024 7 7 (5017600)
I0309 16:06:11.270823  2893 net.cpp:137] Memory required for data: 8309146800
I0309 16:06:11.270830  2893 layer_factory.hpp:77] Creating layer res4.6.conv3/bn_scale
I0309 16:06:11.270835  2893 net.cpp:84] Creating Layer res4.6.conv3/bn_scale
I0309 16:06:11.270839  2893 net.cpp:406] res4.6.conv3/bn_scale <- res4.6.conv3/bn
I0309 16:06:11.270843  2893 net.cpp:367] res4.6.conv3/bn_scale -> res4.6.conv3/bn (in-place)
I0309 16:06:11.270912  2893 layer_factory.hpp:77] Creating layer res4.6.conv3/bn_scale
I0309 16:06:11.271076  2893 net.cpp:122] Setting up res4.6.conv3/bn_scale
I0309 16:06:11.271085  2893 net.cpp:129] Top shape: 100 1024 7 7 (5017600)
I0309 16:06:11.271090  2893 net.cpp:137] Memory required for data: 8329217200
I0309 16:06:11.271095  2893 layer_factory.hpp:77] Creating layer res4.6.sum
I0309 16:06:11.271101  2893 net.cpp:84] Creating Layer res4.6.sum
I0309 16:06:11.271106  2893 net.cpp:406] res4.6.sum <- res4.6.conv3/bn
I0309 16:06:11.271109  2893 net.cpp:406] res4.6.sum <- res4.5.sum_res4.5.relu_0_split_1
I0309 16:06:11.271116  2893 net.cpp:380] res4.6.sum -> res4.6.sum
I0309 16:06:11.271148  2893 net.cpp:122] Setting up res4.6.sum
I0309 16:06:11.271157  2893 net.cpp:129] Top shape: 100 1024 7 7 (5017600)
I0309 16:06:11.271159  2893 net.cpp:137] Memory required for data: 8349287600
I0309 16:06:11.271162  2893 layer_factory.hpp:77] Creating layer res4.6.relu
I0309 16:06:11.271169  2893 net.cpp:84] Creating Layer res4.6.relu
I0309 16:06:11.271174  2893 net.cpp:406] res4.6.relu <- res4.6.sum
I0309 16:06:11.271178  2893 net.cpp:367] res4.6.relu -> res4.6.sum (in-place)
I0309 16:06:11.271711  2893 net.cpp:122] Setting up res4.6.relu
I0309 16:06:11.271723  2893 net.cpp:129] Top shape: 100 1024 7 7 (5017600)
I0309 16:06:11.271742  2893 net.cpp:137] Memory required for data: 8369358000
I0309 16:06:11.271745  2893 layer_factory.hpp:77] Creating layer pool5
I0309 16:06:11.271752  2893 net.cpp:84] Creating Layer pool5
I0309 16:06:11.271766  2893 net.cpp:406] pool5 <- res4.6.sum
I0309 16:06:11.271792  2893 net.cpp:380] pool5 -> pool5
I0309 16:06:11.272774  2893 net.cpp:122] Setting up pool5
I0309 16:06:11.272789  2893 net.cpp:129] Top shape: 100 1024 1 1 (102400)
I0309 16:06:11.272807  2893 net.cpp:137] Memory required for data: 8369767600
I0309 16:06:11.272811  2893 layer_factory.hpp:77] Creating layer fc
I0309 16:06:11.272819  2893 net.cpp:84] Creating Layer fc
I0309 16:06:11.272825  2893 net.cpp:406] fc <- pool5
I0309 16:06:11.272831  2893 net.cpp:380] fc -> fc
I0309 16:06:11.275322  2893 net.cpp:122] Setting up fc
I0309 16:06:11.275337  2893 net.cpp:129] Top shape: 100 1000 (100000)
I0309 16:06:11.275357  2893 net.cpp:137] Memory required for data: 8370167600
I0309 16:06:11.275374  2893 layer_factory.hpp:77] Creating layer fc_fc_0_split
I0309 16:06:11.275383  2893 net.cpp:84] Creating Layer fc_fc_0_split
I0309 16:06:11.275388  2893 net.cpp:406] fc_fc_0_split <- fc
I0309 16:06:11.275394  2893 net.cpp:380] fc_fc_0_split -> fc_fc_0_split_0
I0309 16:06:11.275418  2893 net.cpp:380] fc_fc_0_split -> fc_fc_0_split_1
I0309 16:06:11.275475  2893 net.cpp:122] Setting up fc_fc_0_split
I0309 16:06:11.275482  2893 net.cpp:129] Top shape: 100 1000 (100000)
I0309 16:06:11.275486  2893 net.cpp:129] Top shape: 100 1000 (100000)
I0309 16:06:11.275490  2893 net.cpp:137] Memory required for data: 8370967600
I0309 16:06:11.275493  2893 layer_factory.hpp:77] Creating layer accuracy/top-1
I0309 16:06:11.275501  2893 net.cpp:84] Creating Layer accuracy/top-1
I0309 16:06:11.275504  2893 net.cpp:406] accuracy/top-1 <- fc_fc_0_split_0
I0309 16:06:11.275509  2893 net.cpp:406] accuracy/top-1 <- label_data_1_split_0
I0309 16:06:11.275516  2893 net.cpp:380] accuracy/top-1 -> accuracy/top-1
…
