…
I0308 15:32:08.399397 31479 net.cpp:294] The NetState phase (0) differed from the phase (1) specified by a rule in layer psp.pool4.interp
I0308 15:32:08.399432 31479 net.cpp:294] The NetState phase (0) differed from the phase (1) specified by a rule in layer prob_d8
I0308 15:32:08.399436 31479 net.cpp:294] The NetState phase (0) differed from the phase (1) specified by a rule in layer pred_d8
I0308 15:32:08.399766 31479 net.cpp:51] Initializing net from parameters: 
state {
  phase: TRAIN
  level: 0
  stage: ""
}
layer {
  name: "input"
  type: "Input"
  top: "data"
  input_param {
    shape {
      dim: 1
      dim: 3
      dim: 1024
      dim: 2048
    }
  }
}
layer {
  name: "conv1"
  type: "Convolution"
  bottom: "data"
  top: "conv1"
  convolution_param {
    num_output: 32
    bias_term: true
    pad: 1
    kernel_size: 3
    stride: 2
  }
}
layer {
  name: "conv1/relu"
  type: "ReLU"
  bottom: "conv1"
  top: "conv1"
}
layer {
  name: "conv2"
  type: "Convolution"
  bottom: "conv1"
  top: "conv2"
  convolution_param {
    num_output: 64
    bias_term: true
    pad: 1
    kernel_size: 3
    stride: 2
  }
}
layer {
  name: "conv2/relu"
  type: "ReLU"
  bottom: "conv2"
  top: "conv2"
}
layer {
  name: "res2.1.conv1"
  type: "Convolution"
  bottom: "conv2"
  top: "res2.1.conv1"
  convolution_param {
    num_output: 64
    bias_term: true
    pad: 1
    kernel_size: 3
    stride: 2
  }
}
layer {
  name: "res2.1.conv1/relu"
  type: "ReLU"
  bottom: "res2.1.conv1"
  top: "res2.1.conv1"
}
layer {
  name: "res2.1.conv2"
  type: "Convolution"
  bottom: "res2.1.conv1"
  top: "res2.1.conv2"
  convolution_param {
    num_output: 64
    bias_term: true
    pad: 1
    kernel_size: 3
    stride: 1
  }
}
layer {
  name: "res2.1.skipConv"
  type: "Convolution"
  bottom: "conv2"
  top: "res2.1.skipConv"
  convolution_param {
    num_output: 64
    bias_term: true
    pad: 0
    kernel_size: 1
    stride: 2
  }
}
layer {
  name: "res2.1.sum"
  type: "Eltwise"
  bottom: "res2.1.conv2"
  bottom: "res2.1.skipConv"
  top: "res2.1.sum"
  eltwise_param {
    operation: SUM
  }
}
layer {
  name: "res2.1.relu"
  type: "ReLU"
  bottom: "res2.1.sum"
  top: "res2.1.sum"
}
layer {
  name: "res2.2.conv1"
  type: "Convolution"
  bottom: "res2.1.sum"
  top: "res2.2.conv1"
  convolution_param {
    num_output: 64
    bias_term: true
    pad: 1
    kernel_size: 3
    stride: 1
  }
}
layer {
  name: "res2.2.conv1/relu"
  type: "ReLU"
  bottom: "res2.2.conv1"
  top: "res2.2.conv1"
}
layer {
  name: "res2.2.conv2"
  type: "Convolution"
  bottom: "res2.2.conv1"
  top: "res2.2.conv2"
  convolution_param {
    num_output: 64
    bias_term: true
    pad: 1
    kernel_size: 3
    stride: 1
  }
}
layer {
  name: "res2.2.sum"
  type: "Eltwise"
  bottom: "res2.2.conv2"
  bottom: "res2.1.sum"
  top: "res2.2.sum"
  eltwise_param {
    operation: SUM
  }
}
layer {
  name: "res2.2.relu"
  type: "ReLU"
  bottom: "res2.2.sum"
  top: "res2.2.sum"
}
layer {
  name: "res2.3.conv1"
  type: "Convolution"
  bottom: "res2.2.sum"
  top: "res2.3.conv1"
  convolution_param {
    num_output: 64
    bias_term: true
    pad: 1
    kernel_size: 3
    stride: 1
  }
}
layer {
  name: "res2.3.conv1/relu"
  type: "ReLU"
  bottom: "res2.3.conv1"
  top: "res2.3.conv1"
}
layer {
  name: "res2.3.conv2"
  type: "Convolution"
  bottom: "res2.3.conv1"
  top: "res2.3.conv2"
  convolution_param {
    num_output: 64
    bias_term: true
    pad: 1
    kernel_size: 3
    stride: 1
  }
}
layer {
  name: "res2.3.sum"
  type: "Eltwise"
  bottom: "res2.3.conv2"
  bottom: "res2.2.sum"
  top: "res2.3.sum"
  eltwise_param {
    operation: SUM
  }
}
layer {
  name: "res2.3.relu"
  type: "ReLU"
  bottom: "res2.3.sum"
  top: "res2.3.sum"
}
layer {
  name: "res3.1.conv1"
  type: "Convolution"
  bottom: "res2.3.sum"
  top: "res3.1.conv1"
  convolution_param {
    num_output: 128
    bias_term: true
    pad: 1
    kernel_size: 3
    stride: 2
  }
}
layer {
  name: "res3.1.conv1/relu"
  type: "ReLU"
  bottom: "res3.1.conv1"
  top: "res3.1.conv1"
}
layer {
  name: "res3.1.conv2"
  type: "Convolution"
  bottom: "res3.1.conv1"
  top: "res3.1.conv2"
  convolution_param {
    num_output: 128
    bias_term: true
    pad: 1
    kernel_size: 3
    stride: 1
  }
}
layer {
  name: "res3.1.skipConv"
  type: "Convolution"
  bottom: "res2.3.sum"
  top: "res3.1.skipConv"
  convolution_param {
    num_output: 128
    bias_term: true
    pad: 0
    kernel_size: 1
    stride: 2
  }
}
layer {
  name: "res3.1.sum"
  type: "Eltwise"
  bottom: "res3.1.conv2"
  bottom: "res3.1.skipConv"
  top: "res3.1.sum"
  eltwise_param {
    operation: SUM
  }
}
layer {
  name: "res3.1.relu"
  type: "ReLU"
  bottom: "res3.1.sum"
  top: "res3.1.sum"
}
layer {
  name: "res3.2.conv1"
  type: "Convolution"
  bottom: "res3.1.sum"
  top: "res3.2.conv1"
  convolution_param {
    num_output: 128
    bias_term: true
    pad: 1
    kernel_size: 3
    stride: 1
  }
}
layer {
  name: "res3.2.conv1/relu"
  type: "ReLU"
  bottom: "res3.2.conv1"
  top: "res3.2.conv1"
}
layer {
  name: "res3.2.conv2"
  type: "Convolution"
  bottom: "res3.2.conv1"
  top: "res3.2.conv2"
  convolution_param {
    num_output: 128
    bias_term: true
    pad: 1
    kernel_size: 3
    stride: 1
  }
}
layer {
  name: "res3.2.sum"
  type: "Eltwise"
  bottom: "res3.2.conv2"
  bottom: "res3.1.sum"
  top: "res3.2.sum"
  eltwise_param {
    operation: SUM
  }
}
layer {
  name: "res3.2.relu"
  type: "ReLU"
  bottom: "res3.2.sum"
  top: "res3.2.sum"
}
layer {
  name: "res3.3.conv1"
  type: "Convolution"
  bottom: "res3.2.sum"
  top: "res3.3.conv1"
  convolution_param {
    num_output: 128
    bias_term: true
    pad: 1
    kernel_size: 3
    stride: 1
  }
}
layer {
  name: "res3.3.conv1/relu"
  type: "ReLU"
  bottom: "res3.3.conv1"
  top: "res3.3.conv1"
}
layer {
  name: "res3.3.conv2"
  type: "Convolution"
  bottom: "res3.3.conv1"
  top: "res3.3.conv2"
  convolution_param {
    num_output: 128
    bias_term: true
    pad: 1
    kernel_size: 3
    stride: 1
  }
}
layer {
  name: "res3.3.sum"
  type: "Eltwise"
  bottom: "res3.3.conv2"
  bottom: "res3.2.sum"
  top: "res3.3.sum"
  eltwise_param {
    operation: SUM
  }
}
layer {
  name: "res3.3.relu"
  type: "ReLU"
  bottom: "res3.3.sum"
  top: "res3.3.sum"
}
layer {
  name: "res4.1.conv1"
  type: "Convolution"
  bottom: "res3.3.sum"
  top: "res4.1.conv1"
  convolution_param {
    num_output: 256
    bias_term: true
    pad: 1
    kernel_size: 3
    stride: 2
  }
}
layer {
  name: "res4.1.conv1/relu"
  type: "ReLU"
  bottom: "res4.1.conv1"
  top: "res4.1.conv1"
}
layer {
  name: "res4.1.conv2"
  type: "Convolution"
  bottom: "res4.1.conv1"
  top: "res4.1.conv2"
  convolution_param {
    num_output: 256
    bias_term: true
    pad: 1
    kernel_size: 3
    stride: 1
  }
}
layer {
  name: "res4.1.skipConv"
  type: "Convolution"
  bottom: "res3.3.sum"
  top: "res4.1.skipConv"
  convolution_param {
    num_output: 256
    bias_term: true
    pad: 0
    kernel_size: 1
    stride: 2
  }
}
layer {
  name: "res4.1.sum"
  type: "Eltwise"
  bottom: "res4.1.conv2"
  bottom: "res4.1.skipConv"
  top: "res4.1.sum"
  eltwise_param {
    operation: SUM
  }
}
layer {
  name: "res4.1.relu"
  type: "ReLU"
  bottom: "res4.1.sum"
  top: "res4.1.sum"
}
layer {
  name: "res4.2.conv1"
  type: "Convolution"
  bottom: "res4.1.sum"
  top: "res4.2.conv1"
  convolution_param {
    num_output: 256
    bias_term: true
    pad: 1
    kernel_size: 3
    stride: 1
  }
}
layer {
  name: "res4.2.conv1/relu"
  type: "ReLU"
  bottom: "res4.2.conv1"
  top: "res4.2.conv1"
}
layer {
  name: "res4.2.conv2"
  type: "Convolution"
  bottom: "res4.2.conv1"
  top: "res4.2.conv2"
  convolution_param {
    num_output: 256
    bias_term: true
    pad: 1
    kernel_size: 3
    stride: 1
  }
}
layer {
  name: "res4.2.sum"
  type: "Eltwise"
  bottom: "res4.2.conv2"
  bottom: "res4.1.sum"
  top: "res4.2.sum"
  eltwise_param {
    operation: SUM
  }
}
layer {
  name: "res4.2.relu"
  type: "ReLU"
  bottom: "res4.2.sum"
  top: "res4.2.sum"
}
layer {
  name: "res4.3.conv1"
  type: "Convolution"
  bottom: "res4.2.sum"
  top: "res4.3.conv1"
  convolution_param {
    num_output: 256
    bias_term: true
    pad: 1
    kernel_size: 3
    stride: 1
  }
}
layer {
  name: "res4.3.conv1/relu"
  type: "ReLU"
  bottom: "res4.3.conv1"
  top: "res4.3.conv1"
}
layer {
  name: "res4.3.conv2"
  type: "Convolution"
  bottom: "res4.3.conv1"
  top: "res4.3.conv2"
  convolution_param {
    num_output: 256
    bias_term: true
    pad: 1
    kernel_size: 3
    stride: 1
  }
}
layer {
  name: "res4.3.sum"
  type: "Eltwise"
  bottom: "res4.3.conv2"
  bottom: "res4.2.sum"
  top: "res4.3.sum"
  eltwise_param {
    operation: SUM
  }
}
layer {
  name: "res4.3.relu"
  type: "ReLU"
  bottom: "res4.3.sum"
  top: "res4.3.sum"
}
layer {
  name: "res4.4.conv1"
  type: "Convolution"
  bottom: "res4.3.sum"
  top: "res4.4.conv1"
  convolution_param {
    num_output: 512
    bias_term: true
    pad: 1
    kernel_size: 3
    stride: 1
  }
}
layer {
  name: "res4.4.conv1/relu"
  type: "ReLU"
  bottom: "res4.4.conv1"
  top: "res4.4.conv1"
}
layer {
  name: "res4.4.conv2"
  type: "Convolution"
  bottom: "res4.4.conv1"
  top: "res4.4.conv2"
  convolution_param {
    num_output: 512
    bias_term: true
    pad: 1
    kernel_size: 3
    stride: 1
  }
}
layer {
  name: "res4.4.skipConv"
  type: "Convolution"
  bottom: "res4.3.sum"
  top: "res4.4.skipConv"
  convolution_param {
    num_output: 512
    bias_term: true
    pad: 0
    kernel_size: 1
    stride: 1
  }
}
layer {
  name: "res4.4.sum"
  type: "Eltwise"
  bottom: "res4.4.conv2"
  bottom: "res4.4.skipConv"
  top: "res4.4.sum"
  eltwise_param {
    operation: SUM
  }
}
layer {
  name: "res4.4.relu"
  type: "ReLU"
  bottom: "res4.4.sum"
  top: "res4.4.sum"
}
layer {
  name: "psp.pool1"
  type: "Pooling"
  bottom: "res4.4.sum"
  top: "psp.pool1"
  pooling_param {
    pool: AVE
    kernel_size: 32
    stride: 32
  }
}
layer {
  name: "psp.pool1.conv"
  type: "Convolution"
  bottom: "psp.pool1"
  top: "psp.pool1.conv"
  convolution_param {
    num_output: 128
    bias_term: true
    pad: 0
    kernel_size: 1
    stride: 1
  }
}
layer {
  name: "psp.pool1.conv/relu"
  type: "ReLU"
  bottom: "psp.pool1.conv"
  top: "psp.pool1.conv"
}
layer {
  name: "psp.pool1.interp"
  type: "Interp"
  bottom: "psp.pool1.conv"
  top: "psp.pool1.interp"
  include {
    phase: TRAIN
  }
  interp_param {
    height: 32
    width: 64
  }
}
layer {
  name: "psp.pool2"
  type: "Pooling"
  bottom: "res4.4.sum"
  top: "psp.pool2"
  pooling_param {
    pool: AVE
    kernel_size: 16
    stride: 16
  }
}
layer {
  name: "psp.pool2.conv"
  type: "Convolution"
  bottom: "psp.pool2"
  top: "psp.pool2.conv"
  convolution_param {
    num_output: 128
    bias_term: true
    pad: 0
    kernel_size: 1
    stride: 1
  }
}
layer {
  name: "psp.pool2.conv/relu"
  type: "ReLU"
  bottom: "psp.pool2.conv"
  top: "psp.pool2.conv"
}
layer {
  name: "psp.pool2.interp"
  type: "Interp"
  bottom: "psp.pool2.conv"
  top: "psp.pool2.interp"
  include {
    phase: TRAIN
  }
  interp_param {
    height: 32
    width: 64
  }
}
layer {
  name: "psp.pool3"
  type: "Pooling"
  bottom: "res4.4.sum"
  top: "psp.pool3"
  pooling_param {
    pool: AVE
    kernel_size: 8
    stride: 8
  }
}
layer {
  name: "psp.pool3.conv"
  type: "Convolution"
  bottom: "psp.pool3"
  top: "psp.pool3.conv"
  convolution_param {
    num_output: 128
    bias_term: true
    pad: 0
    kernel_size: 1
    stride: 1
  }
}
layer {
  name: "psp.pool3.conv/relu"
  type: "ReLU"
  bottom: "psp.pool3.conv"
  top: "psp.pool3.conv"
}
layer {
  name: "psp.pool3.interp"
  type: "Interp"
  bottom: "psp.pool3.conv"
  top: "psp.pool3.interp"
  include {
    phase: TRAIN
  }
  interp_param {
    height: 32
    width: 64
  }
}
layer {
  name: "psp.pool4"
  type: "Pooling"
  bottom: "res4.4.sum"
  top: "psp.pool4"
  pooling_param {
    pool: AVE
    kernel_size: 4
    stride: 4
  }
}
layer {
  name: "psp.pool4.conv"
  type: "Convolution"
  bottom: "psp.pool4"
  top: "psp.pool4.conv"
  convolution_param {
    num_output: 128
    bias_term: true
    pad: 0
    kernel_size: 1
    stride: 1
  }
}
layer {
  name: "psp.pool4.conv/relu"
  type: "ReLU"
  bottom: "psp.pool4.conv"
  top: "psp.pool4.conv"
}
layer {
  name: "psp.pool4.interp"
  type: "Interp"
  bottom: "psp.pool4.conv"
  top: "psp.pool4.interp"
  include {
    phase: TRAIN
  }
  interp_param {
    height: 32
    width: 64
  }
}
layer {
  name: "psp.concat"
  type: "Concat"
  bottom: "res4.4.sum"
  bottom: "psp.pool1.interp"
  bottom: "psp.pool2.interp"
  bottom: "psp.pool3.interp"
  bottom: "psp.pool4.interp"
  top: "psp.concat"
}
layer {
  name: "psp.concat.conv"
  type: "Convolution"
  bottom: "psp.concat"
  top: "psp.concat.conv"
  convolution_param {
    num_output: 512
    bias_term: true
    pad: 1
    kernel_size: 3
    stride: 1
  }
}
layer {
  name: "psp.concat.conv/relu"
  type: "ReLU"
  bottom: "psp.concat.conv"
  top: "psp.concat.conv"
}
layer {
  name: "Decoder_wc3"
  type: "Convolution"
  bottom: "res2.3.sum"
  top: "Decoder_wc3"
  convolution_param {
    num_output: 19
    bias_term: true
    pad: 0
    kernel_size: 1
    stride: 1
  }
}
layer {
  name: "Decoder_wc3/relu"
  type: "ReLU"
  bottom: "Decoder_wc3"
  top: "Decoder_wc3"
}
layer {
  name: "Decoder_wc4"
  type: "Convolution"
  bottom: "res3.3.sum"
  top: "Decoder_wc4"
  convolution_param {
    num_output: 32
    bias_term: true
    pad: 0
    kernel_size: 1
    stride: 1
  }
}
layer {
  name: "Decoder_wc4/relu"
  type: "ReLU"
  bottom: "Decoder_wc4"
  top: "Decoder_wc4"
}
layer {
  name: "Decoder_wc5"
  type: "Convolution"
  bottom: "psp.concat.conv"
  top: "Decoder_wc5"
  convolution_param {
    num_output: 128
    bias_term: true
    pad: 0
    kernel_size: 1
    stride: 1
  }
}
layer {
  name: "Decoder_wc5/relu"
  type: "ReLU"
  bottom: "Decoder_wc5"
  top: "Decoder_wc5"
}
layer {
  name: "Decoder4_4.proj"
  type: "Convolution"
  bottom: "Decoder_wc5"
  top: "Decoder4_4.proj"
  convolution_param {
    num_output: 32
    bias_term: true
    pad: 0
    kernel_size: 1
    stride: 1
  }
}
layer {
  name: "Decoder4_4.proj/relu"
  type: "ReLU"
  bottom: "Decoder4_4.proj"
  top: "Decoder4_4.proj"
}
layer {
  name: "Decoder4_4.proj/up2"
  type: "Deconvolution"
  bottom: "Decoder4_4.proj"
  top: "Decoder4_4.proj/up2"
  param {
    lr_mult: 0
    decay_mult: 0
  }
  convolution_param {
    num_output: 32
    bias_term: false
    pad: 1
    kernel_size: 4
    group: 32
    stride: 2
    weight_filler {
      type: "bilinear"
    }
  }
}
layer {
  name: "Decoder4_4.concat"
  type: "Concat"
  bottom: "Decoder_wc4"
  bottom: "Decoder4_4.proj/up2"
  top: "Decoder4_4.concat"
}
layer {
  name: "Decoder4_4.conv1"
  type: "Convolution"
  bottom: "Decoder4_4.concat"
  top: "Decoder4_4.conv1"
  convolution_param {
    num_output: 32
    bias_term: true
    pad: 1
    kernel_size: 3
    stride: 1
  }
}
layer {
  name: "Decoder4_4.conv1/relu"
  type: "ReLU"
  bottom: "Decoder4_4.conv1"
  top: "Decoder4_4.conv1"
}
layer {
  name: "Decoder3_3.proj"
  type: "Convolution"
  bottom: "Decoder4_4.conv1"
  top: "Decoder3_3.proj"
  convolution_param {
    num_output: 19
    bias_term: true
    pad: 0
    kernel_size: 1
    stride: 1
  }
}
layer {
  name: "Decoder3_3.proj/relu"
  type: "ReLU"
  bottom: "Decoder3_3.proj"
  top: "Decoder3_3.proj"
}
layer {
  name: "Decoder3_3.proj/up2"
  type: "Deconvolution"
  bottom: "Decoder3_3.proj"
  top: "Decoder3_3.proj/up2"
  param {
    lr_mult: 0
    decay_mult: 0
  }
  convolution_param {
    num_output: 19
    bias_term: false
    pad: 1
    kernel_size: 4
    group: 19
    stride: 2
    weight_filler {
      type: "bilinear"
    }
  }
}
layer {
  name: "Decoder3_3.concat"
  type: "Concat"
  bottom: "Decoder_wc3"
  bottom: "Decoder3_3.proj/up2"
  top: "Decoder3_3.concat"
}
layer {
  name: "Decoder3_3.conv1"
  type: "Convolution"
  bottom: "Decoder3_3.concat"
  top: "Decoder3_3.conv1"
  convolution_param {
    num_output: 19
    bias_term: true
    pad: 1
    kernel_size: 3
    stride: 1
  }
}
layer {
  name: "Decoder3_3.conv1/relu"
  type: "ReLU"
  bottom: "Decoder3_3.conv1"
  top: "Decoder3_3.conv1"
}
layer {
  name: "Decoder_score"
  type: "Convolution"
  bottom: "Decoder3_3.conv1"
  top: "Decoder_score"
  convolution_param {
    num_output: 19
    bias_term: true
    pad: 1
    kernel_size: 3
    stride: 1
  }
}
I0308 15:32:08.400177 31479 layer_factory.hpp:77] Creating layer input
I0308 15:32:08.400192 31479 net.cpp:84] Creating Layer input
I0308 15:32:08.400198 31479 net.cpp:380] input -> data
I0308 15:32:08.407784 31479 net.cpp:122] Setting up input
I0308 15:32:08.407804 31479 net.cpp:129] Top shape: 1 3 1024 2048 (6291456)
I0308 15:32:08.407807 31479 net.cpp:137] Memory required for data: 25165824
I0308 15:32:08.407812 31479 layer_factory.hpp:77] Creating layer conv1
I0308 15:32:08.407825 31479 net.cpp:84] Creating Layer conv1
I0308 15:32:08.407831 31479 net.cpp:406] conv1 <- data
I0308 15:32:08.407840 31479 net.cpp:380] conv1 -> conv1
I0308 15:32:08.870939 31479 net.cpp:122] Setting up conv1
I0308 15:32:08.870972 31479 net.cpp:129] Top shape: 1 32 512 1024 (16777216)
I0308 15:32:08.870976 31479 net.cpp:137] Memory required for data: 92274688
I0308 15:32:08.870997 31479 layer_factory.hpp:77] Creating layer conv1/relu
I0308 15:32:08.871011 31479 net.cpp:84] Creating Layer conv1/relu
I0308 15:32:08.871014 31479 net.cpp:406] conv1/relu <- conv1
I0308 15:32:08.871021 31479 net.cpp:367] conv1/relu -> conv1 (in-place)
I0308 15:32:08.871690 31479 net.cpp:122] Setting up conv1/relu
I0308 15:32:08.871706 31479 net.cpp:129] Top shape: 1 32 512 1024 (16777216)
I0308 15:32:08.871711 31479 net.cpp:137] Memory required for data: 159383552
I0308 15:32:08.871713 31479 layer_factory.hpp:77] Creating layer conv2
I0308 15:32:08.871726 31479 net.cpp:84] Creating Layer conv2
I0308 15:32:08.871729 31479 net.cpp:406] conv2 <- conv1
I0308 15:32:08.871734 31479 net.cpp:380] conv2 -> conv2
I0308 15:32:08.874680 31479 net.cpp:122] Setting up conv2
I0308 15:32:08.874697 31479 net.cpp:129] Top shape: 1 64 256 512 (8388608)
I0308 15:32:08.874701 31479 net.cpp:137] Memory required for data: 192937984
I0308 15:32:08.874711 31479 layer_factory.hpp:77] Creating layer conv2/relu
I0308 15:32:08.874718 31479 net.cpp:84] Creating Layer conv2/relu
I0308 15:32:08.874722 31479 net.cpp:406] conv2/relu <- conv2
I0308 15:32:08.874728 31479 net.cpp:367] conv2/relu -> conv2 (in-place)
I0308 15:32:08.875224 31479 net.cpp:122] Setting up conv2/relu
I0308 15:32:08.875250 31479 net.cpp:129] Top shape: 1 64 256 512 (8388608)
I0308 15:32:08.875254 31479 net.cpp:137] Memory required for data: 226492416
I0308 15:32:08.875257 31479 layer_factory.hpp:77] Creating layer conv2_conv2/relu_0_split
I0308 15:32:08.875264 31479 net.cpp:84] Creating Layer conv2_conv2/relu_0_split
I0308 15:32:08.875269 31479 net.cpp:406] conv2_conv2/relu_0_split <- conv2
I0308 15:32:08.875277 31479 net.cpp:380] conv2_conv2/relu_0_split -> conv2_conv2/relu_0_split_0
I0308 15:32:08.875283 31479 net.cpp:380] conv2_conv2/relu_0_split -> conv2_conv2/relu_0_split_1
I0308 15:32:08.875331 31479 net.cpp:122] Setting up conv2_conv2/relu_0_split
I0308 15:32:08.875341 31479 net.cpp:129] Top shape: 1 64 256 512 (8388608)
I0308 15:32:08.875346 31479 net.cpp:129] Top shape: 1 64 256 512 (8388608)
I0308 15:32:08.875349 31479 net.cpp:137] Memory required for data: 293601280
I0308 15:32:08.875353 31479 layer_factory.hpp:77] Creating layer res2.1.conv1
I0308 15:32:08.875361 31479 net.cpp:84] Creating Layer res2.1.conv1
I0308 15:32:08.875380 31479 net.cpp:406] res2.1.conv1 <- conv2_conv2/relu_0_split_0
I0308 15:32:08.875406 31479 net.cpp:380] res2.1.conv1 -> res2.1.conv1
I0308 15:32:08.877442 31479 net.cpp:122] Setting up res2.1.conv1
I0308 15:32:08.877458 31479 net.cpp:129] Top shape: 1 64 128 256 (2097152)
I0308 15:32:08.877462 31479 net.cpp:137] Memory required for data: 301989888
I0308 15:32:08.877473 31479 layer_factory.hpp:77] Creating layer res2.1.conv1/relu
I0308 15:32:08.877480 31479 net.cpp:84] Creating Layer res2.1.conv1/relu
I0308 15:32:08.877483 31479 net.cpp:406] res2.1.conv1/relu <- res2.1.conv1
I0308 15:32:08.877488 31479 net.cpp:367] res2.1.conv1/relu -> res2.1.conv1 (in-place)
I0308 15:32:08.878105 31479 net.cpp:122] Setting up res2.1.conv1/relu
I0308 15:32:08.878120 31479 net.cpp:129] Top shape: 1 64 128 256 (2097152)
I0308 15:32:08.878123 31479 net.cpp:137] Memory required for data: 310378496
I0308 15:32:08.878127 31479 layer_factory.hpp:77] Creating layer res2.1.conv2
I0308 15:32:08.878139 31479 net.cpp:84] Creating Layer res2.1.conv2
I0308 15:32:08.878142 31479 net.cpp:406] res2.1.conv2 <- res2.1.conv1
I0308 15:32:08.878149 31479 net.cpp:380] res2.1.conv2 -> res2.1.conv2
I0308 15:32:08.880225 31479 net.cpp:122] Setting up res2.1.conv2
I0308 15:32:08.880241 31479 net.cpp:129] Top shape: 1 64 128 256 (2097152)
I0308 15:32:08.880245 31479 net.cpp:137] Memory required for data: 318767104
I0308 15:32:08.880252 31479 layer_factory.hpp:77] Creating layer res2.1.skipConv
I0308 15:32:08.880262 31479 net.cpp:84] Creating Layer res2.1.skipConv
I0308 15:32:08.880266 31479 net.cpp:406] res2.1.skipConv <- conv2_conv2/relu_0_split_1
I0308 15:32:08.880273 31479 net.cpp:380] res2.1.skipConv -> res2.1.skipConv
I0308 15:32:08.882750 31479 net.cpp:122] Setting up res2.1.skipConv
I0308 15:32:08.882767 31479 net.cpp:129] Top shape: 1 64 128 256 (2097152)
I0308 15:32:08.882772 31479 net.cpp:137] Memory required for data: 327155712
I0308 15:32:08.882781 31479 layer_factory.hpp:77] Creating layer res2.1.sum
I0308 15:32:08.882789 31479 net.cpp:84] Creating Layer res2.1.sum
I0308 15:32:08.882792 31479 net.cpp:406] res2.1.sum <- res2.1.conv2
I0308 15:32:08.882797 31479 net.cpp:406] res2.1.sum <- res2.1.skipConv
I0308 15:32:08.882802 31479 net.cpp:380] res2.1.sum -> res2.1.sum
I0308 15:32:08.882853 31479 net.cpp:122] Setting up res2.1.sum
I0308 15:32:08.882861 31479 net.cpp:129] Top shape: 1 64 128 256 (2097152)
I0308 15:32:08.882864 31479 net.cpp:137] Memory required for data: 335544320
I0308 15:32:08.882867 31479 layer_factory.hpp:77] Creating layer res2.1.relu
I0308 15:32:08.882872 31479 net.cpp:84] Creating Layer res2.1.relu
I0308 15:32:08.882875 31479 net.cpp:406] res2.1.relu <- res2.1.sum
I0308 15:32:08.882880 31479 net.cpp:367] res2.1.relu -> res2.1.sum (in-place)
I0308 15:32:08.883375 31479 net.cpp:122] Setting up res2.1.relu
I0308 15:32:08.883400 31479 net.cpp:129] Top shape: 1 64 128 256 (2097152)
I0308 15:32:08.883404 31479 net.cpp:137] Memory required for data: 343932928
I0308 15:32:08.883407 31479 layer_factory.hpp:77] Creating layer res2.1.sum_res2.1.relu_0_split
I0308 15:32:08.883426 31479 net.cpp:84] Creating Layer res2.1.sum_res2.1.relu_0_split
I0308 15:32:08.883430 31479 net.cpp:406] res2.1.sum_res2.1.relu_0_split <- res2.1.sum
I0308 15:32:08.883435 31479 net.cpp:380] res2.1.sum_res2.1.relu_0_split -> res2.1.sum_res2.1.relu_0_split_0
I0308 15:32:08.883441 31479 net.cpp:380] res2.1.sum_res2.1.relu_0_split -> res2.1.sum_res2.1.relu_0_split_1
I0308 15:32:08.883502 31479 net.cpp:122] Setting up res2.1.sum_res2.1.relu_0_split
I0308 15:32:08.883507 31479 net.cpp:129] Top shape: 1 64 128 256 (2097152)
I0308 15:32:08.883512 31479 net.cpp:129] Top shape: 1 64 128 256 (2097152)
I0308 15:32:08.883515 31479 net.cpp:137] Memory required for data: 360710144
I0308 15:32:08.883518 31479 layer_factory.hpp:77] Creating layer res2.2.conv1
I0308 15:32:08.883527 31479 net.cpp:84] Creating Layer res2.2.conv1
I0308 15:32:08.883530 31479 net.cpp:406] res2.2.conv1 <- res2.1.sum_res2.1.relu_0_split_0
I0308 15:32:08.883536 31479 net.cpp:380] res2.2.conv1 -> res2.2.conv1
I0308 15:32:08.885560 31479 net.cpp:122] Setting up res2.2.conv1
I0308 15:32:08.885599 31479 net.cpp:129] Top shape: 1 64 128 256 (2097152)
I0308 15:32:08.885604 31479 net.cpp:137] Memory required for data: 369098752
I0308 15:32:08.885612 31479 layer_factory.hpp:77] Creating layer res2.2.conv1/relu
I0308 15:32:08.885619 31479 net.cpp:84] Creating Layer res2.2.conv1/relu
I0308 15:32:08.885623 31479 net.cpp:406] res2.2.conv1/relu <- res2.2.conv1
I0308 15:32:08.885629 31479 net.cpp:367] res2.2.conv1/relu -> res2.2.conv1 (in-place)
I0308 15:32:08.886240 31479 net.cpp:122] Setting up res2.2.conv1/relu
I0308 15:32:08.886266 31479 net.cpp:129] Top shape: 1 64 128 256 (2097152)
I0308 15:32:08.886270 31479 net.cpp:137] Memory required for data: 377487360
I0308 15:32:08.886273 31479 layer_factory.hpp:77] Creating layer res2.2.conv2
I0308 15:32:08.886283 31479 net.cpp:84] Creating Layer res2.2.conv2
I0308 15:32:08.886287 31479 net.cpp:406] res2.2.conv2 <- res2.2.conv1
I0308 15:32:08.886296 31479 net.cpp:380] res2.2.conv2 -> res2.2.conv2
I0308 15:32:08.888882 31479 net.cpp:122] Setting up res2.2.conv2
I0308 15:32:08.888900 31479 net.cpp:129] Top shape: 1 64 128 256 (2097152)
I0308 15:32:08.888914 31479 net.cpp:137] Memory required for data: 385875968
I0308 15:32:08.888922 31479 layer_factory.hpp:77] Creating layer res2.2.sum
I0308 15:32:08.888932 31479 net.cpp:84] Creating Layer res2.2.sum
I0308 15:32:08.888937 31479 net.cpp:406] res2.2.sum <- res2.2.conv2
I0308 15:32:08.888942 31479 net.cpp:406] res2.2.sum <- res2.1.sum_res2.1.relu_0_split_1
I0308 15:32:08.888947 31479 net.cpp:380] res2.2.sum -> res2.2.sum
I0308 15:32:08.888984 31479 net.cpp:122] Setting up res2.2.sum
I0308 15:32:08.888993 31479 net.cpp:129] Top shape: 1 64 128 256 (2097152)
I0308 15:32:08.888995 31479 net.cpp:137] Memory required for data: 394264576
I0308 15:32:08.888998 31479 layer_factory.hpp:77] Creating layer res2.2.relu
I0308 15:32:08.889003 31479 net.cpp:84] Creating Layer res2.2.relu
I0308 15:32:08.889006 31479 net.cpp:406] res2.2.relu <- res2.2.sum
I0308 15:32:08.889012 31479 net.cpp:367] res2.2.relu -> res2.2.sum (in-place)
I0308 15:32:08.889614 31479 net.cpp:122] Setting up res2.2.relu
I0308 15:32:08.889641 31479 net.cpp:129] Top shape: 1 64 128 256 (2097152)
I0308 15:32:08.889644 31479 net.cpp:137] Memory required for data: 402653184
I0308 15:32:08.889648 31479 layer_factory.hpp:77] Creating layer res2.2.sum_res2.2.relu_0_split
I0308 15:32:08.889657 31479 net.cpp:84] Creating Layer res2.2.sum_res2.2.relu_0_split
I0308 15:32:08.889660 31479 net.cpp:406] res2.2.sum_res2.2.relu_0_split <- res2.2.sum
I0308 15:32:08.889665 31479 net.cpp:380] res2.2.sum_res2.2.relu_0_split -> res2.2.sum_res2.2.relu_0_split_0
I0308 15:32:08.889673 31479 net.cpp:380] res2.2.sum_res2.2.relu_0_split -> res2.2.sum_res2.2.relu_0_split_1
I0308 15:32:08.889720 31479 net.cpp:122] Setting up res2.2.sum_res2.2.relu_0_split
I0308 15:32:08.889727 31479 net.cpp:129] Top shape: 1 64 128 256 (2097152)
I0308 15:32:08.889731 31479 net.cpp:129] Top shape: 1 64 128 256 (2097152)
I0308 15:32:08.889734 31479 net.cpp:137] Memory required for data: 419430400
I0308 15:32:08.889737 31479 layer_factory.hpp:77] Creating layer res2.3.conv1
I0308 15:32:08.889745 31479 net.cpp:84] Creating Layer res2.3.conv1
I0308 15:32:08.889750 31479 net.cpp:406] res2.3.conv1 <- res2.2.sum_res2.2.relu_0_split_0
I0308 15:32:08.889755 31479 net.cpp:380] res2.3.conv1 -> res2.3.conv1
I0308 15:32:08.891860 31479 net.cpp:122] Setting up res2.3.conv1
I0308 15:32:08.891888 31479 net.cpp:129] Top shape: 1 64 128 256 (2097152)
I0308 15:32:08.891892 31479 net.cpp:137] Memory required for data: 427819008
I0308 15:32:08.891899 31479 layer_factory.hpp:77] Creating layer res2.3.conv1/relu
I0308 15:32:08.891907 31479 net.cpp:84] Creating Layer res2.3.conv1/relu
I0308 15:32:08.891912 31479 net.cpp:406] res2.3.conv1/relu <- res2.3.conv1
I0308 15:32:08.891917 31479 net.cpp:367] res2.3.conv1/relu -> res2.3.conv1 (in-place)
I0308 15:32:08.892365 31479 net.cpp:122] Setting up res2.3.conv1/relu
I0308 15:32:08.892390 31479 net.cpp:129] Top shape: 1 64 128 256 (2097152)
I0308 15:32:08.892395 31479 net.cpp:137] Memory required for data: 436207616
I0308 15:32:08.892410 31479 layer_factory.hpp:77] Creating layer res2.3.conv2
I0308 15:32:08.892419 31479 net.cpp:84] Creating Layer res2.3.conv2
I0308 15:32:08.892423 31479 net.cpp:406] res2.3.conv2 <- res2.3.conv1
I0308 15:32:08.892429 31479 net.cpp:380] res2.3.conv2 -> res2.3.conv2
I0308 15:32:08.894659 31479 net.cpp:122] Setting up res2.3.conv2
I0308 15:32:08.894675 31479 net.cpp:129] Top shape: 1 64 128 256 (2097152)
I0308 15:32:08.894680 31479 net.cpp:137] Memory required for data: 444596224
I0308 15:32:08.894690 31479 layer_factory.hpp:77] Creating layer res2.3.sum
I0308 15:32:08.894697 31479 net.cpp:84] Creating Layer res2.3.sum
I0308 15:32:08.894701 31479 net.cpp:406] res2.3.sum <- res2.3.conv2
I0308 15:32:08.894706 31479 net.cpp:406] res2.3.sum <- res2.2.sum_res2.2.relu_0_split_1
I0308 15:32:08.894711 31479 net.cpp:380] res2.3.sum -> res2.3.sum
I0308 15:32:08.894758 31479 net.cpp:122] Setting up res2.3.sum
I0308 15:32:08.894767 31479 net.cpp:129] Top shape: 1 64 128 256 (2097152)
I0308 15:32:08.894770 31479 net.cpp:137] Memory required for data: 452984832
I0308 15:32:08.894773 31479 layer_factory.hpp:77] Creating layer res2.3.relu
I0308 15:32:08.894779 31479 net.cpp:84] Creating Layer res2.3.relu
I0308 15:32:08.894783 31479 net.cpp:406] res2.3.relu <- res2.3.sum
I0308 15:32:08.894786 31479 net.cpp:367] res2.3.relu -> res2.3.sum (in-place)
I0308 15:32:08.895431 31479 net.cpp:122] Setting up res2.3.relu
I0308 15:32:08.895447 31479 net.cpp:129] Top shape: 1 64 128 256 (2097152)
I0308 15:32:08.895449 31479 net.cpp:137] Memory required for data: 461373440
I0308 15:32:08.895453 31479 layer_factory.hpp:77] Creating layer res2.3.sum_res2.3.relu_0_split
I0308 15:32:08.895462 31479 net.cpp:84] Creating Layer res2.3.sum_res2.3.relu_0_split
I0308 15:32:08.895465 31479 net.cpp:406] res2.3.sum_res2.3.relu_0_split <- res2.3.sum
I0308 15:32:08.895470 31479 net.cpp:380] res2.3.sum_res2.3.relu_0_split -> res2.3.sum_res2.3.relu_0_split_0
I0308 15:32:08.895476 31479 net.cpp:380] res2.3.sum_res2.3.relu_0_split -> res2.3.sum_res2.3.relu_0_split_1
I0308 15:32:08.895481 31479 net.cpp:380] res2.3.sum_res2.3.relu_0_split -> res2.3.sum_res2.3.relu_0_split_2
I0308 15:32:08.895558 31479 net.cpp:122] Setting up res2.3.sum_res2.3.relu_0_split
I0308 15:32:08.895565 31479 net.cpp:129] Top shape: 1 64 128 256 (2097152)
I0308 15:32:08.895568 31479 net.cpp:129] Top shape: 1 64 128 256 (2097152)
I0308 15:32:08.895572 31479 net.cpp:129] Top shape: 1 64 128 256 (2097152)
I0308 15:32:08.895576 31479 net.cpp:137] Memory required for data: 486539264
I0308 15:32:08.895579 31479 layer_factory.hpp:77] Creating layer res3.1.conv1
I0308 15:32:08.895587 31479 net.cpp:84] Creating Layer res3.1.conv1
I0308 15:32:08.895591 31479 net.cpp:406] res3.1.conv1 <- res2.3.sum_res2.3.relu_0_split_0
I0308 15:32:08.895596 31479 net.cpp:380] res3.1.conv1 -> res3.1.conv1
I0308 15:32:08.898098 31479 net.cpp:122] Setting up res3.1.conv1
I0308 15:32:08.898114 31479 net.cpp:129] Top shape: 1 128 64 128 (1048576)
I0308 15:32:08.898118 31479 net.cpp:137] Memory required for data: 490733568
I0308 15:32:08.898125 31479 layer_factory.hpp:77] Creating layer res3.1.conv1/relu
I0308 15:32:08.898133 31479 net.cpp:84] Creating Layer res3.1.conv1/relu
I0308 15:32:08.898138 31479 net.cpp:406] res3.1.conv1/relu <- res3.1.conv1
I0308 15:32:08.898142 31479 net.cpp:367] res3.1.conv1/relu -> res3.1.conv1 (in-place)
I0308 15:32:08.898627 31479 net.cpp:122] Setting up res3.1.conv1/relu
I0308 15:32:08.898639 31479 net.cpp:129] Top shape: 1 128 64 128 (1048576)
I0308 15:32:08.898654 31479 net.cpp:137] Memory required for data: 494927872
I0308 15:32:08.898658 31479 layer_factory.hpp:77] Creating layer res3.1.conv2
I0308 15:32:08.898665 31479 net.cpp:84] Creating Layer res3.1.conv2
I0308 15:32:08.898671 31479 net.cpp:406] res3.1.conv2 <- res3.1.conv1
I0308 15:32:08.898679 31479 net.cpp:380] res3.1.conv2 -> res3.1.conv2
I0308 15:32:08.901316 31479 net.cpp:122] Setting up res3.1.conv2
I0308 15:32:08.901345 31479 net.cpp:129] Top shape: 1 128 64 128 (1048576)
I0308 15:32:08.901348 31479 net.cpp:137] Memory required for data: 499122176
I0308 15:32:08.901370 31479 layer_factory.hpp:77] Creating layer res3.1.skipConv
I0308 15:32:08.901381 31479 net.cpp:84] Creating Layer res3.1.skipConv
I0308 15:32:08.901384 31479 net.cpp:406] res3.1.skipConv <- res2.3.sum_res2.3.relu_0_split_1
I0308 15:32:08.901392 31479 net.cpp:380] res3.1.skipConv -> res3.1.skipConv
I0308 15:32:08.903343 31479 net.cpp:122] Setting up res3.1.skipConv
I0308 15:32:08.903371 31479 net.cpp:129] Top shape: 1 128 64 128 (1048576)
I0308 15:32:08.903375 31479 net.cpp:137] Memory required for data: 503316480
I0308 15:32:08.903383 31479 layer_factory.hpp:77] Creating layer res3.1.sum
I0308 15:32:08.903391 31479 net.cpp:84] Creating Layer res3.1.sum
I0308 15:32:08.903395 31479 net.cpp:406] res3.1.sum <- res3.1.conv2
I0308 15:32:08.903400 31479 net.cpp:406] res3.1.sum <- res3.1.skipConv
I0308 15:32:08.903405 31479 net.cpp:380] res3.1.sum -> res3.1.sum
I0308 15:32:08.903440 31479 net.cpp:122] Setting up res3.1.sum
I0308 15:32:08.903447 31479 net.cpp:129] Top shape: 1 128 64 128 (1048576)
I0308 15:32:08.903450 31479 net.cpp:137] Memory required for data: 507510784
I0308 15:32:08.903453 31479 layer_factory.hpp:77] Creating layer res3.1.relu
I0308 15:32:08.903460 31479 net.cpp:84] Creating Layer res3.1.relu
I0308 15:32:08.903463 31479 net.cpp:406] res3.1.relu <- res3.1.sum
I0308 15:32:08.903468 31479 net.cpp:367] res3.1.relu -> res3.1.sum (in-place)
I0308 15:32:08.904079 31479 net.cpp:122] Setting up res3.1.relu
I0308 15:32:08.904094 31479 net.cpp:129] Top shape: 1 128 64 128 (1048576)
I0308 15:32:08.904109 31479 net.cpp:137] Memory required for data: 511705088
I0308 15:32:08.904114 31479 layer_factory.hpp:77] Creating layer res3.1.sum_res3.1.relu_0_split
I0308 15:32:08.904119 31479 net.cpp:84] Creating Layer res3.1.sum_res3.1.relu_0_split
I0308 15:32:08.904122 31479 net.cpp:406] res3.1.sum_res3.1.relu_0_split <- res3.1.sum
I0308 15:32:08.904129 31479 net.cpp:380] res3.1.sum_res3.1.relu_0_split -> res3.1.sum_res3.1.relu_0_split_0
I0308 15:32:08.904136 31479 net.cpp:380] res3.1.sum_res3.1.relu_0_split -> res3.1.sum_res3.1.relu_0_split_1
I0308 15:32:08.904186 31479 net.cpp:122] Setting up res3.1.sum_res3.1.relu_0_split
I0308 15:32:08.904194 31479 net.cpp:129] Top shape: 1 128 64 128 (1048576)
I0308 15:32:08.904198 31479 net.cpp:129] Top shape: 1 128 64 128 (1048576)
I0308 15:32:08.904201 31479 net.cpp:137] Memory required for data: 520093696
I0308 15:32:08.904204 31479 layer_factory.hpp:77] Creating layer res3.2.conv1
I0308 15:32:08.904215 31479 net.cpp:84] Creating Layer res3.2.conv1
I0308 15:32:08.904220 31479 net.cpp:406] res3.2.conv1 <- res3.1.sum_res3.1.relu_0_split_0
I0308 15:32:08.904225 31479 net.cpp:380] res3.2.conv1 -> res3.2.conv1
I0308 15:32:08.906798 31479 net.cpp:122] Setting up res3.2.conv1
I0308 15:32:08.906816 31479 net.cpp:129] Top shape: 1 128 64 128 (1048576)
I0308 15:32:08.906831 31479 net.cpp:137] Memory required for data: 524288000
I0308 15:32:08.906838 31479 layer_factory.hpp:77] Creating layer res3.2.conv1/relu
I0308 15:32:08.906844 31479 net.cpp:84] Creating Layer res3.2.conv1/relu
I0308 15:32:08.906849 31479 net.cpp:406] res3.2.conv1/relu <- res3.2.conv1
I0308 15:32:08.906857 31479 net.cpp:367] res3.2.conv1/relu -> res3.2.conv1 (in-place)
I0308 15:32:08.907513 31479 net.cpp:122] Setting up res3.2.conv1/relu
I0308 15:32:08.907539 31479 net.cpp:129] Top shape: 1 128 64 128 (1048576)
I0308 15:32:08.907543 31479 net.cpp:137] Memory required for data: 528482304
I0308 15:32:08.907547 31479 layer_factory.hpp:77] Creating layer res3.2.conv2
I0308 15:32:08.907557 31479 net.cpp:84] Creating Layer res3.2.conv2
I0308 15:32:08.907562 31479 net.cpp:406] res3.2.conv2 <- res3.2.conv1
I0308 15:32:08.907568 31479 net.cpp:380] res3.2.conv2 -> res3.2.conv2
I0308 15:32:08.910187 31479 net.cpp:122] Setting up res3.2.conv2
I0308 15:32:08.910202 31479 net.cpp:129] Top shape: 1 128 64 128 (1048576)
I0308 15:32:08.910218 31479 net.cpp:137] Memory required for data: 532676608
I0308 15:32:08.910225 31479 layer_factory.hpp:77] Creating layer res3.2.sum
I0308 15:32:08.910246 31479 net.cpp:84] Creating Layer res3.2.sum
I0308 15:32:08.910253 31479 net.cpp:406] res3.2.sum <- res3.2.conv2
I0308 15:32:08.910257 31479 net.cpp:406] res3.2.sum <- res3.1.sum_res3.1.relu_0_split_1
I0308 15:32:08.910262 31479 net.cpp:380] res3.2.sum -> res3.2.sum
I0308 15:32:08.910300 31479 net.cpp:122] Setting up res3.2.sum
I0308 15:32:08.910307 31479 net.cpp:129] Top shape: 1 128 64 128 (1048576)
I0308 15:32:08.910310 31479 net.cpp:137] Memory required for data: 536870912
I0308 15:32:08.910313 31479 layer_factory.hpp:77] Creating layer res3.2.relu
I0308 15:32:08.910320 31479 net.cpp:84] Creating Layer res3.2.relu
I0308 15:32:08.910324 31479 net.cpp:406] res3.2.relu <- res3.2.sum
I0308 15:32:08.910329 31479 net.cpp:367] res3.2.relu -> res3.2.sum (in-place)
I0308 15:32:08.910790 31479 net.cpp:122] Setting up res3.2.relu
I0308 15:32:08.910804 31479 net.cpp:129] Top shape: 1 128 64 128 (1048576)
I0308 15:32:08.910817 31479 net.cpp:137] Memory required for data: 541065216
I0308 15:32:08.910821 31479 layer_factory.hpp:77] Creating layer res3.2.sum_res3.2.relu_0_split
I0308 15:32:08.910828 31479 net.cpp:84] Creating Layer res3.2.sum_res3.2.relu_0_split
I0308 15:32:08.910832 31479 net.cpp:406] res3.2.sum_res3.2.relu_0_split <- res3.2.sum
I0308 15:32:08.910838 31479 net.cpp:380] res3.2.sum_res3.2.relu_0_split -> res3.2.sum_res3.2.relu_0_split_0
I0308 15:32:08.910845 31479 net.cpp:380] res3.2.sum_res3.2.relu_0_split -> res3.2.sum_res3.2.relu_0_split_1
I0308 15:32:08.910898 31479 net.cpp:122] Setting up res3.2.sum_res3.2.relu_0_split
I0308 15:32:08.910905 31479 net.cpp:129] Top shape: 1 128 64 128 (1048576)
I0308 15:32:08.910909 31479 net.cpp:129] Top shape: 1 128 64 128 (1048576)
I0308 15:32:08.910912 31479 net.cpp:137] Memory required for data: 549453824
I0308 15:32:08.910915 31479 layer_factory.hpp:77] Creating layer res3.3.conv1
I0308 15:32:08.910923 31479 net.cpp:84] Creating Layer res3.3.conv1
I0308 15:32:08.910928 31479 net.cpp:406] res3.3.conv1 <- res3.2.sum_res3.2.relu_0_split_0
I0308 15:32:08.910933 31479 net.cpp:380] res3.3.conv1 -> res3.3.conv1
I0308 15:32:08.913563 31479 net.cpp:122] Setting up res3.3.conv1
I0308 15:32:08.913580 31479 net.cpp:129] Top shape: 1 128 64 128 (1048576)
I0308 15:32:08.913584 31479 net.cpp:137] Memory required for data: 553648128
I0308 15:32:08.913591 31479 layer_factory.hpp:77] Creating layer res3.3.conv1/relu
I0308 15:32:08.913597 31479 net.cpp:84] Creating Layer res3.3.conv1/relu
I0308 15:32:08.913601 31479 net.cpp:406] res3.3.conv1/relu <- res3.3.conv1
I0308 15:32:08.913606 31479 net.cpp:367] res3.3.conv1/relu -> res3.3.conv1 (in-place)
I0308 15:32:08.914245 31479 net.cpp:122] Setting up res3.3.conv1/relu
I0308 15:32:08.914260 31479 net.cpp:129] Top shape: 1 128 64 128 (1048576)
I0308 15:32:08.914263 31479 net.cpp:137] Memory required for data: 557842432
I0308 15:32:08.914268 31479 layer_factory.hpp:77] Creating layer res3.3.conv2
I0308 15:32:08.914276 31479 net.cpp:84] Creating Layer res3.3.conv2
I0308 15:32:08.914280 31479 net.cpp:406] res3.3.conv2 <- res3.3.conv1
I0308 15:32:08.914288 31479 net.cpp:380] res3.3.conv2 -> res3.3.conv2
I0308 15:32:08.917024 31479 net.cpp:122] Setting up res3.3.conv2
I0308 15:32:08.917042 31479 net.cpp:129] Top shape: 1 128 64 128 (1048576)
I0308 15:32:08.917045 31479 net.cpp:137] Memory required for data: 562036736
I0308 15:32:08.917052 31479 layer_factory.hpp:77] Creating layer res3.3.sum
I0308 15:32:08.917059 31479 net.cpp:84] Creating Layer res3.3.sum
I0308 15:32:08.917064 31479 net.cpp:406] res3.3.sum <- res3.3.conv2
I0308 15:32:08.917070 31479 net.cpp:406] res3.3.sum <- res3.2.sum_res3.2.relu_0_split_1
I0308 15:32:08.917075 31479 net.cpp:380] res3.3.sum -> res3.3.sum
I0308 15:32:08.917124 31479 net.cpp:122] Setting up res3.3.sum
I0308 15:32:08.917130 31479 net.cpp:129] Top shape: 1 128 64 128 (1048576)
I0308 15:32:08.917135 31479 net.cpp:137] Memory required for data: 566231040
I0308 15:32:08.917137 31479 layer_factory.hpp:77] Creating layer res3.3.relu
I0308 15:32:08.917143 31479 net.cpp:84] Creating Layer res3.3.relu
I0308 15:32:08.917160 31479 net.cpp:406] res3.3.relu <- res3.3.sum
I0308 15:32:08.917165 31479 net.cpp:367] res3.3.relu -> res3.3.sum (in-place)
I0308 15:32:08.917632 31479 net.cpp:122] Setting up res3.3.relu
I0308 15:32:08.917645 31479 net.cpp:129] Top shape: 1 128 64 128 (1048576)
I0308 15:32:08.917660 31479 net.cpp:137] Memory required for data: 570425344
I0308 15:32:08.917663 31479 layer_factory.hpp:77] Creating layer res3.3.sum_res3.3.relu_0_split
I0308 15:32:08.917671 31479 net.cpp:84] Creating Layer res3.3.sum_res3.3.relu_0_split
I0308 15:32:08.917676 31479 net.cpp:406] res3.3.sum_res3.3.relu_0_split <- res3.3.sum
I0308 15:32:08.917682 31479 net.cpp:380] res3.3.sum_res3.3.relu_0_split -> res3.3.sum_res3.3.relu_0_split_0
I0308 15:32:08.917690 31479 net.cpp:380] res3.3.sum_res3.3.relu_0_split -> res3.3.sum_res3.3.relu_0_split_1
I0308 15:32:08.917696 31479 net.cpp:380] res3.3.sum_res3.3.relu_0_split -> res3.3.sum_res3.3.relu_0_split_2
I0308 15:32:08.917762 31479 net.cpp:122] Setting up res3.3.sum_res3.3.relu_0_split
I0308 15:32:08.917768 31479 net.cpp:129] Top shape: 1 128 64 128 (1048576)
I0308 15:32:08.917773 31479 net.cpp:129] Top shape: 1 128 64 128 (1048576)
I0308 15:32:08.917776 31479 net.cpp:129] Top shape: 1 128 64 128 (1048576)
I0308 15:32:08.917779 31479 net.cpp:137] Memory required for data: 583008256
I0308 15:32:08.917783 31479 layer_factory.hpp:77] Creating layer res4.1.conv1
I0308 15:32:08.917790 31479 net.cpp:84] Creating Layer res4.1.conv1
I0308 15:32:08.917794 31479 net.cpp:406] res4.1.conv1 <- res3.3.sum_res3.3.relu_0_split_0
I0308 15:32:08.917801 31479 net.cpp:380] res4.1.conv1 -> res4.1.conv1
I0308 15:32:08.920523 31479 net.cpp:122] Setting up res4.1.conv1
I0308 15:32:08.920541 31479 net.cpp:129] Top shape: 1 256 32 64 (524288)
I0308 15:32:08.920543 31479 net.cpp:137] Memory required for data: 585105408
I0308 15:32:08.920557 31479 layer_factory.hpp:77] Creating layer res4.1.conv1/relu
I0308 15:32:08.920562 31479 net.cpp:84] Creating Layer res4.1.conv1/relu
I0308 15:32:08.920567 31479 net.cpp:406] res4.1.conv1/relu <- res4.1.conv1
I0308 15:32:08.920573 31479 net.cpp:367] res4.1.conv1/relu -> res4.1.conv1 (in-place)
I0308 15:32:08.921308 31479 net.cpp:122] Setting up res4.1.conv1/relu
I0308 15:32:08.921324 31479 net.cpp:129] Top shape: 1 256 32 64 (524288)
I0308 15:32:08.921326 31479 net.cpp:137] Memory required for data: 587202560
I0308 15:32:08.921330 31479 layer_factory.hpp:77] Creating layer res4.1.conv2
I0308 15:32:08.921339 31479 net.cpp:84] Creating Layer res4.1.conv2
I0308 15:32:08.921344 31479 net.cpp:406] res4.1.conv2 <- res4.1.conv1
I0308 15:32:08.921350 31479 net.cpp:380] res4.1.conv2 -> res4.1.conv2
I0308 15:32:08.924641 31479 net.cpp:122] Setting up res4.1.conv2
I0308 15:32:08.924657 31479 net.cpp:129] Top shape: 1 256 32 64 (524288)
I0308 15:32:08.924661 31479 net.cpp:137] Memory required for data: 589299712
I0308 15:32:08.924669 31479 layer_factory.hpp:77] Creating layer res4.1.skipConv
I0308 15:32:08.924677 31479 net.cpp:84] Creating Layer res4.1.skipConv
I0308 15:32:08.924682 31479 net.cpp:406] res4.1.skipConv <- res3.3.sum_res3.3.relu_0_split_1
I0308 15:32:08.924688 31479 net.cpp:380] res4.1.skipConv -> res4.1.skipConv
I0308 15:32:08.926930 31479 net.cpp:122] Setting up res4.1.skipConv
I0308 15:32:08.926946 31479 net.cpp:129] Top shape: 1 256 32 64 (524288)
I0308 15:32:08.926962 31479 net.cpp:137] Memory required for data: 591396864
I0308 15:32:08.926970 31479 layer_factory.hpp:77] Creating layer res4.1.sum
I0308 15:32:08.926976 31479 net.cpp:84] Creating Layer res4.1.sum
I0308 15:32:08.926981 31479 net.cpp:406] res4.1.sum <- res4.1.conv2
I0308 15:32:08.926986 31479 net.cpp:406] res4.1.sum <- res4.1.skipConv
I0308 15:32:08.926992 31479 net.cpp:380] res4.1.sum -> res4.1.sum
I0308 15:32:08.927031 31479 net.cpp:122] Setting up res4.1.sum
I0308 15:32:08.927037 31479 net.cpp:129] Top shape: 1 256 32 64 (524288)
I0308 15:32:08.927040 31479 net.cpp:137] Memory required for data: 593494016
I0308 15:32:08.927043 31479 layer_factory.hpp:77] Creating layer res4.1.relu
I0308 15:32:08.927048 31479 net.cpp:84] Creating Layer res4.1.relu
I0308 15:32:08.927093 31479 net.cpp:406] res4.1.relu <- res4.1.sum
I0308 15:32:08.927100 31479 net.cpp:367] res4.1.relu -> res4.1.sum (in-place)
I0308 15:32:08.927768 31479 net.cpp:122] Setting up res4.1.relu
I0308 15:32:08.927783 31479 net.cpp:129] Top shape: 1 256 32 64 (524288)
I0308 15:32:08.927786 31479 net.cpp:137] Memory required for data: 595591168
I0308 15:32:08.927790 31479 layer_factory.hpp:77] Creating layer res4.1.sum_res4.1.relu_0_split
I0308 15:32:08.927798 31479 net.cpp:84] Creating Layer res4.1.sum_res4.1.relu_0_split
I0308 15:32:08.927801 31479 net.cpp:406] res4.1.sum_res4.1.relu_0_split <- res4.1.sum
I0308 15:32:08.927808 31479 net.cpp:380] res4.1.sum_res4.1.relu_0_split -> res4.1.sum_res4.1.relu_0_split_0
I0308 15:32:08.927814 31479 net.cpp:380] res4.1.sum_res4.1.relu_0_split -> res4.1.sum_res4.1.relu_0_split_1
I0308 15:32:08.927881 31479 net.cpp:122] Setting up res4.1.sum_res4.1.relu_0_split
I0308 15:32:08.927887 31479 net.cpp:129] Top shape: 1 256 32 64 (524288)
I0308 15:32:08.927891 31479 net.cpp:129] Top shape: 1 256 32 64 (524288)
I0308 15:32:08.927894 31479 net.cpp:137] Memory required for data: 599785472
I0308 15:32:08.927897 31479 layer_factory.hpp:77] Creating layer res4.2.conv1
I0308 15:32:08.927906 31479 net.cpp:84] Creating Layer res4.2.conv1
I0308 15:32:08.927911 31479 net.cpp:406] res4.2.conv1 <- res4.1.sum_res4.1.relu_0_split_0
I0308 15:32:08.927917 31479 net.cpp:380] res4.2.conv1 -> res4.2.conv1
I0308 15:32:08.931128 31479 net.cpp:122] Setting up res4.2.conv1
I0308 15:32:08.931155 31479 net.cpp:129] Top shape: 1 256 32 64 (524288)
I0308 15:32:08.931159 31479 net.cpp:137] Memory required for data: 601882624
I0308 15:32:08.931169 31479 layer_factory.hpp:77] Creating layer res4.2.conv1/relu
I0308 15:32:08.931175 31479 net.cpp:84] Creating Layer res4.2.conv1/relu
I0308 15:32:08.931180 31479 net.cpp:406] res4.2.conv1/relu <- res4.2.conv1
I0308 15:32:08.931185 31479 net.cpp:367] res4.2.conv1/relu -> res4.2.conv1 (in-place)
I0308 15:32:08.931679 31479 net.cpp:122] Setting up res4.2.conv1/relu
I0308 15:32:08.931691 31479 net.cpp:129] Top shape: 1 256 32 64 (524288)
I0308 15:32:08.931706 31479 net.cpp:137] Memory required for data: 603979776
I0308 15:32:08.931710 31479 layer_factory.hpp:77] Creating layer res4.2.conv2
I0308 15:32:08.931720 31479 net.cpp:84] Creating Layer res4.2.conv2
I0308 15:32:08.931725 31479 net.cpp:406] res4.2.conv2 <- res4.2.conv1
I0308 15:32:08.931731 31479 net.cpp:380] res4.2.conv2 -> res4.2.conv2
I0308 15:32:08.934948 31479 net.cpp:122] Setting up res4.2.conv2
I0308 15:32:08.934965 31479 net.cpp:129] Top shape: 1 256 32 64 (524288)
I0308 15:32:08.934980 31479 net.cpp:137] Memory required for data: 606076928
I0308 15:32:08.934988 31479 layer_factory.hpp:77] Creating layer res4.2.sum
I0308 15:32:08.934995 31479 net.cpp:84] Creating Layer res4.2.sum
I0308 15:32:08.935001 31479 net.cpp:406] res4.2.sum <- res4.2.conv2
I0308 15:32:08.935006 31479 net.cpp:406] res4.2.sum <- res4.1.sum_res4.1.relu_0_split_1
I0308 15:32:08.935011 31479 net.cpp:380] res4.2.sum -> res4.2.sum
I0308 15:32:08.935071 31479 net.cpp:122] Setting up res4.2.sum
I0308 15:32:08.935092 31479 net.cpp:129] Top shape: 1 256 32 64 (524288)
I0308 15:32:08.935096 31479 net.cpp:137] Memory required for data: 608174080
I0308 15:32:08.935111 31479 layer_factory.hpp:77] Creating layer res4.2.relu
I0308 15:32:08.935119 31479 net.cpp:84] Creating Layer res4.2.relu
I0308 15:32:08.935123 31479 net.cpp:406] res4.2.relu <- res4.2.sum
I0308 15:32:08.935128 31479 net.cpp:367] res4.2.relu -> res4.2.sum (in-place)
I0308 15:32:08.935809 31479 net.cpp:122] Setting up res4.2.relu
I0308 15:32:08.935824 31479 net.cpp:129] Top shape: 1 256 32 64 (524288)
I0308 15:32:08.935839 31479 net.cpp:137] Memory required for data: 610271232
I0308 15:32:08.935843 31479 layer_factory.hpp:77] Creating layer res4.2.sum_res4.2.relu_0_split
I0308 15:32:08.935850 31479 net.cpp:84] Creating Layer res4.2.sum_res4.2.relu_0_split
I0308 15:32:08.935856 31479 net.cpp:406] res4.2.sum_res4.2.relu_0_split <- res4.2.sum
I0308 15:32:08.935873 31479 net.cpp:380] res4.2.sum_res4.2.relu_0_split -> res4.2.sum_res4.2.relu_0_split_0
I0308 15:32:08.935881 31479 net.cpp:380] res4.2.sum_res4.2.relu_0_split -> res4.2.sum_res4.2.relu_0_split_1
I0308 15:32:08.935938 31479 net.cpp:122] Setting up res4.2.sum_res4.2.relu_0_split
I0308 15:32:08.935945 31479 net.cpp:129] Top shape: 1 256 32 64 (524288)
I0308 15:32:08.935950 31479 net.cpp:129] Top shape: 1 256 32 64 (524288)
I0308 15:32:08.935952 31479 net.cpp:137] Memory required for data: 614465536
I0308 15:32:08.935956 31479 layer_factory.hpp:77] Creating layer res4.3.conv1
I0308 15:32:08.935964 31479 net.cpp:84] Creating Layer res4.3.conv1
I0308 15:32:08.935968 31479 net.cpp:406] res4.3.conv1 <- res4.2.sum_res4.2.relu_0_split_0
I0308 15:32:08.935974 31479 net.cpp:380] res4.3.conv1 -> res4.3.conv1
I0308 15:32:08.939205 31479 net.cpp:122] Setting up res4.3.conv1
I0308 15:32:08.939234 31479 net.cpp:129] Top shape: 1 256 32 64 (524288)
I0308 15:32:08.939239 31479 net.cpp:137] Memory required for data: 616562688
I0308 15:32:08.939245 31479 layer_factory.hpp:77] Creating layer res4.3.conv1/relu
I0308 15:32:08.939252 31479 net.cpp:84] Creating Layer res4.3.conv1/relu
I0308 15:32:08.939257 31479 net.cpp:406] res4.3.conv1/relu <- res4.3.conv1
I0308 15:32:08.939262 31479 net.cpp:367] res4.3.conv1/relu -> res4.3.conv1 (in-place)
I0308 15:32:08.939762 31479 net.cpp:122] Setting up res4.3.conv1/relu
I0308 15:32:08.939775 31479 net.cpp:129] Top shape: 1 256 32 64 (524288)
I0308 15:32:08.939790 31479 net.cpp:137] Memory required for data: 618659840
I0308 15:32:08.939793 31479 layer_factory.hpp:77] Creating layer res4.3.conv2
I0308 15:32:08.939802 31479 net.cpp:84] Creating Layer res4.3.conv2
I0308 15:32:08.939807 31479 net.cpp:406] res4.3.conv2 <- res4.3.conv1
I0308 15:32:08.939813 31479 net.cpp:380] res4.3.conv2 -> res4.3.conv2
I0308 15:32:08.943166 31479 net.cpp:122] Setting up res4.3.conv2
I0308 15:32:08.943194 31479 net.cpp:129] Top shape: 1 256 32 64 (524288)
I0308 15:32:08.943198 31479 net.cpp:137] Memory required for data: 620756992
I0308 15:32:08.943207 31479 layer_factory.hpp:77] Creating layer res4.3.sum
I0308 15:32:08.943214 31479 net.cpp:84] Creating Layer res4.3.sum
I0308 15:32:08.943219 31479 net.cpp:406] res4.3.sum <- res4.3.conv2
I0308 15:32:08.943224 31479 net.cpp:406] res4.3.sum <- res4.2.sum_res4.2.relu_0_split_1
I0308 15:32:08.943230 31479 net.cpp:380] res4.3.sum -> res4.3.sum
I0308 15:32:08.943282 31479 net.cpp:122] Setting up res4.3.sum
I0308 15:32:08.943289 31479 net.cpp:129] Top shape: 1 256 32 64 (524288)
I0308 15:32:08.943292 31479 net.cpp:137] Memory required for data: 622854144
I0308 15:32:08.943296 31479 layer_factory.hpp:77] Creating layer res4.3.relu
I0308 15:32:08.943301 31479 net.cpp:84] Creating Layer res4.3.relu
I0308 15:32:08.943305 31479 net.cpp:406] res4.3.relu <- res4.3.sum
I0308 15:32:08.943311 31479 net.cpp:367] res4.3.relu -> res4.3.sum (in-place)
I0308 15:32:08.943951 31479 net.cpp:122] Setting up res4.3.relu
I0308 15:32:08.943966 31479 net.cpp:129] Top shape: 1 256 32 64 (524288)
I0308 15:32:08.943970 31479 net.cpp:137] Memory required for data: 624951296
I0308 15:32:08.943974 31479 layer_factory.hpp:77] Creating layer res4.3.sum_res4.3.relu_0_split
I0308 15:32:08.943979 31479 net.cpp:84] Creating Layer res4.3.sum_res4.3.relu_0_split
I0308 15:32:08.943984 31479 net.cpp:406] res4.3.sum_res4.3.relu_0_split <- res4.3.sum
I0308 15:32:08.943990 31479 net.cpp:380] res4.3.sum_res4.3.relu_0_split -> res4.3.sum_res4.3.relu_0_split_0
I0308 15:32:08.943996 31479 net.cpp:380] res4.3.sum_res4.3.relu_0_split -> res4.3.sum_res4.3.relu_0_split_1
I0308 15:32:08.944064 31479 net.cpp:122] Setting up res4.3.sum_res4.3.relu_0_split
I0308 15:32:08.944073 31479 net.cpp:129] Top shape: 1 256 32 64 (524288)
I0308 15:32:08.944077 31479 net.cpp:129] Top shape: 1 256 32 64 (524288)
I0308 15:32:08.944080 31479 net.cpp:137] Memory required for data: 629145600
I0308 15:32:08.944083 31479 layer_factory.hpp:77] Creating layer res4.4.conv1
I0308 15:32:08.944090 31479 net.cpp:84] Creating Layer res4.4.conv1
I0308 15:32:08.944105 31479 net.cpp:406] res4.4.conv1 <- res4.3.sum_res4.3.relu_0_split_0
I0308 15:32:08.944113 31479 net.cpp:380] res4.4.conv1 -> res4.4.conv1
I0308 15:32:08.948388 31479 net.cpp:122] Setting up res4.4.conv1
I0308 15:32:08.948416 31479 net.cpp:129] Top shape: 1 512 32 64 (1048576)
I0308 15:32:08.948421 31479 net.cpp:137] Memory required for data: 633339904
I0308 15:32:08.948428 31479 layer_factory.hpp:77] Creating layer res4.4.conv1/relu
I0308 15:32:08.948442 31479 net.cpp:84] Creating Layer res4.4.conv1/relu
I0308 15:32:08.948447 31479 net.cpp:406] res4.4.conv1/relu <- res4.4.conv1
I0308 15:32:08.948453 31479 net.cpp:367] res4.4.conv1/relu -> res4.4.conv1 (in-place)
I0308 15:32:08.949245 31479 net.cpp:122] Setting up res4.4.conv1/relu
I0308 15:32:08.949272 31479 net.cpp:129] Top shape: 1 512 32 64 (1048576)
I0308 15:32:08.949276 31479 net.cpp:137] Memory required for data: 637534208
I0308 15:32:08.949280 31479 layer_factory.hpp:77] Creating layer res4.4.conv2
I0308 15:32:08.949290 31479 net.cpp:84] Creating Layer res4.4.conv2
I0308 15:32:08.949295 31479 net.cpp:406] res4.4.conv2 <- res4.4.conv1
I0308 15:32:08.949302 31479 net.cpp:380] res4.4.conv2 -> res4.4.conv2
I0308 15:32:08.955088 31479 net.cpp:122] Setting up res4.4.conv2
I0308 15:32:08.955128 31479 net.cpp:129] Top shape: 1 512 32 64 (1048576)
I0308 15:32:08.955132 31479 net.cpp:137] Memory required for data: 641728512
I0308 15:32:08.955152 31479 layer_factory.hpp:77] Creating layer res4.4.skipConv
I0308 15:32:08.955163 31479 net.cpp:84] Creating Layer res4.4.skipConv
I0308 15:32:08.955173 31479 net.cpp:406] res4.4.skipConv <- res4.3.sum_res4.3.relu_0_split_1
I0308 15:32:08.955181 31479 net.cpp:380] res4.4.skipConv -> res4.4.skipConv
I0308 15:32:08.957732 31479 net.cpp:122] Setting up res4.4.skipConv
I0308 15:32:08.957759 31479 net.cpp:129] Top shape: 1 512 32 64 (1048576)
I0308 15:32:08.957763 31479 net.cpp:137] Memory required for data: 645922816
I0308 15:32:08.957770 31479 layer_factory.hpp:77] Creating layer res4.4.sum
I0308 15:32:08.957779 31479 net.cpp:84] Creating Layer res4.4.sum
I0308 15:32:08.957783 31479 net.cpp:406] res4.4.sum <- res4.4.conv2
I0308 15:32:08.957789 31479 net.cpp:406] res4.4.sum <- res4.4.skipConv
I0308 15:32:08.957795 31479 net.cpp:380] res4.4.sum -> res4.4.sum
I0308 15:32:08.957834 31479 net.cpp:122] Setting up res4.4.sum
I0308 15:32:08.957840 31479 net.cpp:129] Top shape: 1 512 32 64 (1048576)
I0308 15:32:08.957844 31479 net.cpp:137] Memory required for data: 650117120
I0308 15:32:08.957846 31479 layer_factory.hpp:77] Creating layer res4.4.relu
I0308 15:32:08.957854 31479 net.cpp:84] Creating Layer res4.4.relu
I0308 15:32:08.957857 31479 net.cpp:406] res4.4.relu <- res4.4.sum
I0308 15:32:08.957861 31479 net.cpp:367] res4.4.relu -> res4.4.sum (in-place)
I0308 15:32:08.958324 31479 net.cpp:122] Setting up res4.4.relu
I0308 15:32:08.958338 31479 net.cpp:129] Top shape: 1 512 32 64 (1048576)
I0308 15:32:08.958353 31479 net.cpp:137] Memory required for data: 654311424
I0308 15:32:08.958355 31479 layer_factory.hpp:77] Creating layer res4.4.sum_res4.4.relu_0_split
I0308 15:32:08.958364 31479 net.cpp:84] Creating Layer res4.4.sum_res4.4.relu_0_split
I0308 15:32:08.958367 31479 net.cpp:406] res4.4.sum_res4.4.relu_0_split <- res4.4.sum
I0308 15:32:08.958374 31479 net.cpp:380] res4.4.sum_res4.4.relu_0_split -> res4.4.sum_res4.4.relu_0_split_0
I0308 15:32:08.958379 31479 net.cpp:380] res4.4.sum_res4.4.relu_0_split -> res4.4.sum_res4.4.relu_0_split_1
I0308 15:32:08.958398 31479 net.cpp:380] res4.4.sum_res4.4.relu_0_split -> res4.4.sum_res4.4.relu_0_split_2
I0308 15:32:08.958405 31479 net.cpp:380] res4.4.sum_res4.4.relu_0_split -> res4.4.sum_res4.4.relu_0_split_3
I0308 15:32:08.958420 31479 net.cpp:380] res4.4.sum_res4.4.relu_0_split -> res4.4.sum_res4.4.relu_0_split_4
I0308 15:32:08.958521 31479 net.cpp:122] Setting up res4.4.sum_res4.4.relu_0_split
I0308 15:32:08.958531 31479 net.cpp:129] Top shape: 1 512 32 64 (1048576)
I0308 15:32:08.958535 31479 net.cpp:129] Top shape: 1 512 32 64 (1048576)
I0308 15:32:08.958539 31479 net.cpp:129] Top shape: 1 512 32 64 (1048576)
I0308 15:32:08.958554 31479 net.cpp:129] Top shape: 1 512 32 64 (1048576)
I0308 15:32:08.958559 31479 net.cpp:129] Top shape: 1 512 32 64 (1048576)
I0308 15:32:08.958561 31479 net.cpp:137] Memory required for data: 675282944
I0308 15:32:08.958564 31479 layer_factory.hpp:77] Creating layer psp.pool1
I0308 15:32:08.958572 31479 net.cpp:84] Creating Layer psp.pool1
I0308 15:32:08.958577 31479 net.cpp:406] psp.pool1 <- res4.4.sum_res4.4.relu_0_split_0
I0308 15:32:08.958582 31479 net.cpp:380] psp.pool1 -> psp.pool1
I0308 15:32:08.959312 31479 net.cpp:122] Setting up psp.pool1
I0308 15:32:08.959340 31479 net.cpp:129] Top shape: 1 512 1 2 (1024)
I0308 15:32:08.959344 31479 net.cpp:137] Memory required for data: 675287040
I0308 15:32:08.959360 31479 layer_factory.hpp:77] Creating layer psp.pool1.conv
I0308 15:32:08.959370 31479 net.cpp:84] Creating Layer psp.pool1.conv
I0308 15:32:08.959374 31479 net.cpp:406] psp.pool1.conv <- psp.pool1
I0308 15:32:08.959380 31479 net.cpp:380] psp.pool1.conv -> psp.pool1.conv
I0308 15:32:08.961859 31479 net.cpp:122] Setting up psp.pool1.conv
I0308 15:32:08.961875 31479 net.cpp:129] Top shape: 1 128 1 2 (256)
I0308 15:32:08.961879 31479 net.cpp:137] Memory required for data: 675288064
I0308 15:32:08.961887 31479 layer_factory.hpp:77] Creating layer psp.pool1.conv/relu
I0308 15:32:08.961894 31479 net.cpp:84] Creating Layer psp.pool1.conv/relu
I0308 15:32:08.961897 31479 net.cpp:406] psp.pool1.conv/relu <- psp.pool1.conv
I0308 15:32:08.961904 31479 net.cpp:367] psp.pool1.conv/relu -> psp.pool1.conv (in-place)
I0308 15:32:08.962404 31479 net.cpp:122] Setting up psp.pool1.conv/relu
I0308 15:32:08.962417 31479 net.cpp:129] Top shape: 1 128 1 2 (256)
I0308 15:32:08.962432 31479 net.cpp:137] Memory required for data: 675289088
I0308 15:32:08.962436 31479 layer_factory.hpp:77] Creating layer psp.pool1.interp
I0308 15:32:08.962445 31479 net.cpp:84] Creating Layer psp.pool1.interp
I0308 15:32:08.962450 31479 net.cpp:406] psp.pool1.interp <- psp.pool1.conv
I0308 15:32:08.962456 31479 net.cpp:380] psp.pool1.interp -> psp.pool1.interp
I0308 15:32:08.962503 31479 net.cpp:122] Setting up psp.pool1.interp
I0308 15:32:08.962510 31479 net.cpp:129] Top shape: 1 128 32 64 (262144)
I0308 15:32:08.962513 31479 net.cpp:137] Memory required for data: 676337664
I0308 15:32:08.962517 31479 layer_factory.hpp:77] Creating layer psp.pool2
I0308 15:32:08.962523 31479 net.cpp:84] Creating Layer psp.pool2
I0308 15:32:08.962528 31479 net.cpp:406] psp.pool2 <- res4.4.sum_res4.4.relu_0_split_1
I0308 15:32:08.962533 31479 net.cpp:380] psp.pool2 -> psp.pool2
I0308 15:32:08.963246 31479 net.cpp:122] Setting up psp.pool2
I0308 15:32:08.963274 31479 net.cpp:129] Top shape: 1 512 2 4 (4096)
I0308 15:32:08.963277 31479 net.cpp:137] Memory required for data: 676354048
I0308 15:32:08.963281 31479 layer_factory.hpp:77] Creating layer psp.pool2.conv
I0308 15:32:08.963291 31479 net.cpp:84] Creating Layer psp.pool2.conv
I0308 15:32:08.963296 31479 net.cpp:406] psp.pool2.conv <- psp.pool2
I0308 15:32:08.963304 31479 net.cpp:380] psp.pool2.conv -> psp.pool2.conv
I0308 15:32:08.965402 31479 net.cpp:122] Setting up psp.pool2.conv
I0308 15:32:08.965417 31479 net.cpp:129] Top shape: 1 128 2 4 (1024)
I0308 15:32:08.965421 31479 net.cpp:137] Memory required for data: 676358144
I0308 15:32:08.965427 31479 layer_factory.hpp:77] Creating layer psp.pool2.conv/relu
I0308 15:32:08.965435 31479 net.cpp:84] Creating Layer psp.pool2.conv/relu
I0308 15:32:08.965438 31479 net.cpp:406] psp.pool2.conv/relu <- psp.pool2.conv
I0308 15:32:08.965445 31479 net.cpp:367] psp.pool2.conv/relu -> psp.pool2.conv (in-place)
I0308 15:32:08.966095 31479 net.cpp:122] Setting up psp.pool2.conv/relu
I0308 15:32:08.966110 31479 net.cpp:129] Top shape: 1 128 2 4 (1024)
I0308 15:32:08.966126 31479 net.cpp:137] Memory required for data: 676362240
I0308 15:32:08.966130 31479 layer_factory.hpp:77] Creating layer psp.pool2.interp
I0308 15:32:08.966137 31479 net.cpp:84] Creating Layer psp.pool2.interp
I0308 15:32:08.966141 31479 net.cpp:406] psp.pool2.interp <- psp.pool2.conv
I0308 15:32:08.966161 31479 net.cpp:380] psp.pool2.interp -> psp.pool2.interp
I0308 15:32:08.966209 31479 net.cpp:122] Setting up psp.pool2.interp
I0308 15:32:08.966217 31479 net.cpp:129] Top shape: 1 128 32 64 (262144)
I0308 15:32:08.966219 31479 net.cpp:137] Memory required for data: 677410816
I0308 15:32:08.966223 31479 layer_factory.hpp:77] Creating layer psp.pool3
I0308 15:32:08.966228 31479 net.cpp:84] Creating Layer psp.pool3
I0308 15:32:08.966233 31479 net.cpp:406] psp.pool3 <- res4.4.sum_res4.4.relu_0_split_2
I0308 15:32:08.966238 31479 net.cpp:380] psp.pool3 -> psp.pool3
I0308 15:32:08.966733 31479 net.cpp:122] Setting up psp.pool3
I0308 15:32:08.966745 31479 net.cpp:129] Top shape: 1 512 4 8 (16384)
I0308 15:32:08.966761 31479 net.cpp:137] Memory required for data: 677476352
I0308 15:32:08.966764 31479 layer_factory.hpp:77] Creating layer psp.pool3.conv
I0308 15:32:08.966786 31479 net.cpp:84] Creating Layer psp.pool3.conv
I0308 15:32:08.966791 31479 net.cpp:406] psp.pool3.conv <- psp.pool3
I0308 15:32:08.966796 31479 net.cpp:380] psp.pool3.conv -> psp.pool3.conv
I0308 15:32:08.968904 31479 net.cpp:122] Setting up psp.pool3.conv
I0308 15:32:08.968920 31479 net.cpp:129] Top shape: 1 128 4 8 (4096)
I0308 15:32:08.968924 31479 net.cpp:137] Memory required for data: 677492736
I0308 15:32:08.968930 31479 layer_factory.hpp:77] Creating layer psp.pool3.conv/relu
I0308 15:32:08.968937 31479 net.cpp:84] Creating Layer psp.pool3.conv/relu
I0308 15:32:08.968942 31479 net.cpp:406] psp.pool3.conv/relu <- psp.pool3.conv
I0308 15:32:08.968947 31479 net.cpp:367] psp.pool3.conv/relu -> psp.pool3.conv (in-place)
I0308 15:32:08.969609 31479 net.cpp:122] Setting up psp.pool3.conv/relu
I0308 15:32:08.969622 31479 net.cpp:129] Top shape: 1 128 4 8 (4096)
I0308 15:32:08.969637 31479 net.cpp:137] Memory required for data: 677509120
I0308 15:32:08.969641 31479 layer_factory.hpp:77] Creating layer psp.pool3.interp
I0308 15:32:08.969648 31479 net.cpp:84] Creating Layer psp.pool3.interp
I0308 15:32:08.969653 31479 net.cpp:406] psp.pool3.interp <- psp.pool3.conv
I0308 15:32:08.969660 31479 net.cpp:380] psp.pool3.interp -> psp.pool3.interp
I0308 15:32:08.969705 31479 net.cpp:122] Setting up psp.pool3.interp
I0308 15:32:08.969712 31479 net.cpp:129] Top shape: 1 128 32 64 (262144)
I0308 15:32:08.969715 31479 net.cpp:137] Memory required for data: 678557696
I0308 15:32:08.969718 31479 layer_factory.hpp:77] Creating layer psp.pool4
I0308 15:32:08.969725 31479 net.cpp:84] Creating Layer psp.pool4
I0308 15:32:08.969728 31479 net.cpp:406] psp.pool4 <- res4.4.sum_res4.4.relu_0_split_3
I0308 15:32:08.969735 31479 net.cpp:380] psp.pool4 -> psp.pool4
I0308 15:32:08.970227 31479 net.cpp:122] Setting up psp.pool4
I0308 15:32:08.970240 31479 net.cpp:129] Top shape: 1 512 8 16 (65536)
I0308 15:32:08.970255 31479 net.cpp:137] Memory required for data: 678819840
I0308 15:32:08.970258 31479 layer_factory.hpp:77] Creating layer psp.pool4.conv
I0308 15:32:08.970268 31479 net.cpp:84] Creating Layer psp.pool4.conv
I0308 15:32:08.970273 31479 net.cpp:406] psp.pool4.conv <- psp.pool4
I0308 15:32:08.970278 31479 net.cpp:380] psp.pool4.conv -> psp.pool4.conv
I0308 15:32:08.972611 31479 net.cpp:122] Setting up psp.pool4.conv
I0308 15:32:08.972638 31479 net.cpp:129] Top shape: 1 128 8 16 (16384)
I0308 15:32:08.972643 31479 net.cpp:137] Memory required for data: 678885376
I0308 15:32:08.972651 31479 layer_factory.hpp:77] Creating layer psp.pool4.conv/relu
I0308 15:32:08.972658 31479 net.cpp:84] Creating Layer psp.pool4.conv/relu
I0308 15:32:08.972663 31479 net.cpp:406] psp.pool4.conv/relu <- psp.pool4.conv
I0308 15:32:08.972668 31479 net.cpp:367] psp.pool4.conv/relu -> psp.pool4.conv (in-place)
I0308 15:32:08.973305 31479 net.cpp:122] Setting up psp.pool4.conv/relu
I0308 15:32:08.973320 31479 net.cpp:129] Top shape: 1 128 8 16 (16384)
I0308 15:32:08.973323 31479 net.cpp:137] Memory required for data: 678950912
I0308 15:32:08.973327 31479 layer_factory.hpp:77] Creating layer psp.pool4.interp
I0308 15:32:08.973335 31479 net.cpp:84] Creating Layer psp.pool4.interp
I0308 15:32:08.973348 31479 net.cpp:406] psp.pool4.interp <- psp.pool4.conv
I0308 15:32:08.973356 31479 net.cpp:380] psp.pool4.interp -> psp.pool4.interp
I0308 15:32:08.973412 31479 net.cpp:122] Setting up psp.pool4.interp
I0308 15:32:08.973419 31479 net.cpp:129] Top shape: 1 128 32 64 (262144)
I0308 15:32:08.973423 31479 net.cpp:137] Memory required for data: 679999488
I0308 15:32:08.973426 31479 layer_factory.hpp:77] Creating layer psp.concat
I0308 15:32:08.973433 31479 net.cpp:84] Creating Layer psp.concat
I0308 15:32:08.973438 31479 net.cpp:406] psp.concat <- res4.4.sum_res4.4.relu_0_split_4
I0308 15:32:08.973443 31479 net.cpp:406] psp.concat <- psp.pool1.interp
I0308 15:32:08.973446 31479 net.cpp:406] psp.concat <- psp.pool2.interp
I0308 15:32:08.973450 31479 net.cpp:406] psp.concat <- psp.pool3.interp
I0308 15:32:08.973454 31479 net.cpp:406] psp.concat <- psp.pool4.interp
I0308 15:32:08.973459 31479 net.cpp:380] psp.concat -> psp.concat
I0308 15:32:08.973495 31479 net.cpp:122] Setting up psp.concat
I0308 15:32:08.973501 31479 net.cpp:129] Top shape: 1 1024 32 64 (2097152)
I0308 15:32:08.973505 31479 net.cpp:137] Memory required for data: 688388096
I0308 15:32:08.973507 31479 layer_factory.hpp:77] Creating layer psp.concat.conv
I0308 15:32:08.973516 31479 net.cpp:84] Creating Layer psp.concat.conv
I0308 15:32:08.973520 31479 net.cpp:406] psp.concat.conv <- psp.concat
I0308 15:32:08.973529 31479 net.cpp:380] psp.concat.conv -> psp.concat.conv
I0308 15:32:08.983096 31479 net.cpp:122] Setting up psp.concat.conv
I0308 15:32:08.983127 31479 net.cpp:129] Top shape: 1 512 32 64 (1048576)
I0308 15:32:08.983131 31479 net.cpp:137] Memory required for data: 692582400
I0308 15:32:08.983139 31479 layer_factory.hpp:77] Creating layer psp.concat.conv/relu
I0308 15:32:08.983147 31479 net.cpp:84] Creating Layer psp.concat.conv/relu
I0308 15:32:08.983152 31479 net.cpp:406] psp.concat.conv/relu <- psp.concat.conv
I0308 15:32:08.983157 31479 net.cpp:367] psp.concat.conv/relu -> psp.concat.conv (in-place)
I0308 15:32:08.983832 31479 net.cpp:122] Setting up psp.concat.conv/relu
I0308 15:32:08.983847 31479 net.cpp:129] Top shape: 1 512 32 64 (1048576)
I0308 15:32:08.983851 31479 net.cpp:137] Memory required for data: 696776704
I0308 15:32:08.983855 31479 layer_factory.hpp:77] Creating layer Decoder_wc3
I0308 15:32:08.983863 31479 net.cpp:84] Creating Layer Decoder_wc3
I0308 15:32:08.983868 31479 net.cpp:406] Decoder_wc3 <- res2.3.sum_res2.3.relu_0_split_2
I0308 15:32:08.983875 31479 net.cpp:380] Decoder_wc3 -> Decoder_wc3
I0308 15:32:08.986533 31479 net.cpp:122] Setting up Decoder_wc3
I0308 15:32:08.986549 31479 net.cpp:129] Top shape: 1 19 128 256 (622592)
I0308 15:32:08.986553 31479 net.cpp:137] Memory required for data: 699267072
I0308 15:32:08.986560 31479 layer_factory.hpp:77] Creating layer Decoder_wc3/relu
I0308 15:32:08.986567 31479 net.cpp:84] Creating Layer Decoder_wc3/relu
I0308 15:32:08.986570 31479 net.cpp:406] Decoder_wc3/relu <- Decoder_wc3
I0308 15:32:08.986575 31479 net.cpp:367] Decoder_wc3/relu -> Decoder_wc3 (in-place)
I0308 15:32:08.987112 31479 net.cpp:122] Setting up Decoder_wc3/relu
I0308 15:32:08.987125 31479 net.cpp:129] Top shape: 1 19 128 256 (622592)
I0308 15:32:08.987141 31479 net.cpp:137] Memory required for data: 701757440
I0308 15:32:08.987145 31479 layer_factory.hpp:77] Creating layer Decoder_wc4
I0308 15:32:08.987165 31479 net.cpp:84] Creating Layer Decoder_wc4
I0308 15:32:08.987181 31479 net.cpp:406] Decoder_wc4 <- res3.3.sum_res3.3.relu_0_split_2
I0308 15:32:08.987190 31479 net.cpp:380] Decoder_wc4 -> Decoder_wc4
I0308 15:32:08.989339 31479 net.cpp:122] Setting up Decoder_wc4
I0308 15:32:08.989356 31479 net.cpp:129] Top shape: 1 32 64 128 (262144)
I0308 15:32:08.989359 31479 net.cpp:137] Memory required for data: 702806016
I0308 15:32:08.989374 31479 layer_factory.hpp:77] Creating layer Decoder_wc4/relu
I0308 15:32:08.989382 31479 net.cpp:84] Creating Layer Decoder_wc4/relu
I0308 15:32:08.989387 31479 net.cpp:406] Decoder_wc4/relu <- Decoder_wc4
I0308 15:32:08.989392 31479 net.cpp:367] Decoder_wc4/relu -> Decoder_wc4 (in-place)
I0308 15:32:08.990183 31479 net.cpp:122] Setting up Decoder_wc4/relu
I0308 15:32:08.990198 31479 net.cpp:129] Top shape: 1 32 64 128 (262144)
I0308 15:32:08.990201 31479 net.cpp:137] Memory required for data: 703854592
I0308 15:32:08.990206 31479 layer_factory.hpp:77] Creating layer Decoder_wc5
I0308 15:32:08.990214 31479 net.cpp:84] Creating Layer Decoder_wc5
I0308 15:32:08.990219 31479 net.cpp:406] Decoder_wc5 <- psp.concat.conv
I0308 15:32:08.990226 31479 net.cpp:380] Decoder_wc5 -> Decoder_wc5
I0308 15:32:08.992346 31479 net.cpp:122] Setting up Decoder_wc5
I0308 15:32:08.992362 31479 net.cpp:129] Top shape: 1 128 32 64 (262144)
I0308 15:32:08.992365 31479 net.cpp:137] Memory required for data: 704903168
I0308 15:32:08.992372 31479 layer_factory.hpp:77] Creating layer Decoder_wc5/relu
I0308 15:32:08.992377 31479 net.cpp:84] Creating Layer Decoder_wc5/relu
I0308 15:32:08.992381 31479 net.cpp:406] Decoder_wc5/relu <- Decoder_wc5
I0308 15:32:08.992388 31479 net.cpp:367] Decoder_wc5/relu -> Decoder_wc5 (in-place)
I0308 15:32:08.992874 31479 net.cpp:122] Setting up Decoder_wc5/relu
I0308 15:32:08.992887 31479 net.cpp:129] Top shape: 1 128 32 64 (262144)
I0308 15:32:08.992902 31479 net.cpp:137] Memory required for data: 705951744
I0308 15:32:08.992904 31479 layer_factory.hpp:77] Creating layer Decoder4_4.proj
I0308 15:32:08.992914 31479 net.cpp:84] Creating Layer Decoder4_4.proj
I0308 15:32:08.992918 31479 net.cpp:406] Decoder4_4.proj <- Decoder_wc5
I0308 15:32:08.992925 31479 net.cpp:380] Decoder4_4.proj -> Decoder4_4.proj
I0308 15:32:08.994984 31479 net.cpp:122] Setting up Decoder4_4.proj
I0308 15:32:08.995000 31479 net.cpp:129] Top shape: 1 32 32 64 (65536)
I0308 15:32:08.995003 31479 net.cpp:137] Memory required for data: 706213888
I0308 15:32:08.995010 31479 layer_factory.hpp:77] Creating layer Decoder4_4.proj/relu
I0308 15:32:08.995018 31479 net.cpp:84] Creating Layer Decoder4_4.proj/relu
I0308 15:32:08.995023 31479 net.cpp:406] Decoder4_4.proj/relu <- Decoder4_4.proj
I0308 15:32:08.995028 31479 net.cpp:367] Decoder4_4.proj/relu -> Decoder4_4.proj (in-place)
I0308 15:32:08.995798 31479 net.cpp:122] Setting up Decoder4_4.proj/relu
I0308 15:32:08.995815 31479 net.cpp:129] Top shape: 1 32 32 64 (65536)
I0308 15:32:08.995817 31479 net.cpp:137] Memory required for data: 706476032
I0308 15:32:08.995821 31479 layer_factory.hpp:77] Creating layer Decoder4_4.proj/up2
I0308 15:32:08.995831 31479 net.cpp:84] Creating Layer Decoder4_4.proj/up2
I0308 15:32:08.995836 31479 net.cpp:406] Decoder4_4.proj/up2 <- Decoder4_4.proj
I0308 15:32:08.995842 31479 net.cpp:380] Decoder4_4.proj/up2 -> Decoder4_4.proj/up2
I0308 15:32:09.051131 31479 net.cpp:122] Setting up Decoder4_4.proj/up2
I0308 15:32:09.051151 31479 net.cpp:129] Top shape: 1 32 64 128 (262144)
I0308 15:32:09.051156 31479 net.cpp:137] Memory required for data: 707524608
I0308 15:32:09.051162 31479 layer_factory.hpp:77] Creating layer Decoder4_4.concat
I0308 15:32:09.051170 31479 net.cpp:84] Creating Layer Decoder4_4.concat
I0308 15:32:09.051174 31479 net.cpp:406] Decoder4_4.concat <- Decoder_wc4
I0308 15:32:09.051180 31479 net.cpp:406] Decoder4_4.concat <- Decoder4_4.proj/up2
I0308 15:32:09.051185 31479 net.cpp:380] Decoder4_4.concat -> Decoder4_4.concat
I0308 15:32:09.051250 31479 net.cpp:122] Setting up Decoder4_4.concat
I0308 15:32:09.051260 31479 net.cpp:129] Top shape: 1 64 64 128 (524288)
I0308 15:32:09.051264 31479 net.cpp:137] Memory required for data: 709621760
I0308 15:32:09.051266 31479 layer_factory.hpp:77] Creating layer Decoder4_4.conv1
I0308 15:32:09.051275 31479 net.cpp:84] Creating Layer Decoder4_4.conv1
I0308 15:32:09.051280 31479 net.cpp:406] Decoder4_4.conv1 <- Decoder4_4.concat
I0308 15:32:09.051285 31479 net.cpp:380] Decoder4_4.conv1 -> Decoder4_4.conv1
I0308 15:32:09.053472 31479 net.cpp:122] Setting up Decoder4_4.conv1
I0308 15:32:09.053488 31479 net.cpp:129] Top shape: 1 32 64 128 (262144)
I0308 15:32:09.053490 31479 net.cpp:137] Memory required for data: 710670336
I0308 15:32:09.053498 31479 layer_factory.hpp:77] Creating layer Decoder4_4.conv1/relu
I0308 15:32:09.053520 31479 net.cpp:84] Creating Layer Decoder4_4.conv1/relu
I0308 15:32:09.053537 31479 net.cpp:406] Decoder4_4.conv1/relu <- Decoder4_4.conv1
I0308 15:32:09.053544 31479 net.cpp:367] Decoder4_4.conv1/relu -> Decoder4_4.conv1 (in-place)
I0308 15:32:09.054219 31479 net.cpp:122] Setting up Decoder4_4.conv1/relu
I0308 15:32:09.054234 31479 net.cpp:129] Top shape: 1 32 64 128 (262144)
I0308 15:32:09.054237 31479 net.cpp:137] Memory required for data: 711718912
I0308 15:32:09.054240 31479 layer_factory.hpp:77] Creating layer Decoder3_3.proj
I0308 15:32:09.054250 31479 net.cpp:84] Creating Layer Decoder3_3.proj
I0308 15:32:09.054253 31479 net.cpp:406] Decoder3_3.proj <- Decoder4_4.conv1
I0308 15:32:09.054260 31479 net.cpp:380] Decoder3_3.proj -> Decoder3_3.proj
I0308 15:32:09.056473 31479 net.cpp:122] Setting up Decoder3_3.proj
I0308 15:32:09.056489 31479 net.cpp:129] Top shape: 1 19 64 128 (155648)
I0308 15:32:09.056493 31479 net.cpp:137] Memory required for data: 712341504
I0308 15:32:09.056499 31479 layer_factory.hpp:77] Creating layer Decoder3_3.proj/relu
I0308 15:32:09.056505 31479 net.cpp:84] Creating Layer Decoder3_3.proj/relu
I0308 15:32:09.056509 31479 net.cpp:406] Decoder3_3.proj/relu <- Decoder3_3.proj
I0308 15:32:09.056516 31479 net.cpp:367] Decoder3_3.proj/relu -> Decoder3_3.proj (in-place)
I0308 15:32:09.057010 31479 net.cpp:122] Setting up Decoder3_3.proj/relu
I0308 15:32:09.057023 31479 net.cpp:129] Top shape: 1 19 64 128 (155648)
I0308 15:32:09.057037 31479 net.cpp:137] Memory required for data: 712964096
I0308 15:32:09.057041 31479 layer_factory.hpp:77] Creating layer Decoder3_3.proj/up2
I0308 15:32:09.057063 31479 net.cpp:84] Creating Layer Decoder3_3.proj/up2
I0308 15:32:09.057067 31479 net.cpp:406] Decoder3_3.proj/up2 <- Decoder3_3.proj
I0308 15:32:09.057086 31479 net.cpp:380] Decoder3_3.proj/up2 -> Decoder3_3.proj/up2
I0308 15:32:09.091073 31479 net.cpp:122] Setting up Decoder3_3.proj/up2
I0308 15:32:09.091089 31479 net.cpp:129] Top shape: 1 19 128 256 (622592)
I0308 15:32:09.091094 31479 net.cpp:137] Memory required for data: 715454464
I0308 15:32:09.091099 31479 layer_factory.hpp:77] Creating layer Decoder3_3.concat
I0308 15:32:09.091105 31479 net.cpp:84] Creating Layer Decoder3_3.concat
I0308 15:32:09.091109 31479 net.cpp:406] Decoder3_3.concat <- Decoder_wc3
I0308 15:32:09.091114 31479 net.cpp:406] Decoder3_3.concat <- Decoder3_3.proj/up2
I0308 15:32:09.091121 31479 net.cpp:380] Decoder3_3.concat -> Decoder3_3.concat
I0308 15:32:09.091187 31479 net.cpp:122] Setting up Decoder3_3.concat
I0308 15:32:09.091198 31479 net.cpp:129] Top shape: 1 38 128 256 (1245184)
I0308 15:32:09.091202 31479 net.cpp:137] Memory required for data: 720435200
I0308 15:32:09.091205 31479 layer_factory.hpp:77] Creating layer Decoder3_3.conv1
I0308 15:32:09.091212 31479 net.cpp:84] Creating Layer Decoder3_3.conv1
I0308 15:32:09.091217 31479 net.cpp:406] Decoder3_3.conv1 <- Decoder3_3.concat
I0308 15:32:09.091223 31479 net.cpp:380] Decoder3_3.conv1 -> Decoder3_3.conv1
I0308 15:32:09.093506 31479 net.cpp:122] Setting up Decoder3_3.conv1
I0308 15:32:09.093523 31479 net.cpp:129] Top shape: 1 19 128 256 (622592)
I0308 15:32:09.093526 31479 net.cpp:137] Memory required for data: 722925568
I0308 15:32:09.093533 31479 layer_factory.hpp:77] Creating layer Decoder3_3.conv1/relu
I0308 15:32:09.093538 31479 net.cpp:84] Creating Layer Decoder3_3.conv1/relu
I0308 15:32:09.093544 31479 net.cpp:406] Decoder3_3.conv1/relu <- Decoder3_3.conv1
I0308 15:32:09.093550 31479 net.cpp:367] Decoder3_3.conv1/relu -> Decoder3_3.conv1 (in-place)
I0308 15:32:09.094251 31479 net.cpp:122] Setting up Decoder3_3.conv1/relu
I0308 15:32:09.094269 31479 net.cpp:129] Top shape: 1 19 128 256 (622592)
I0308 15:32:09.094271 31479 net.cpp:137] Memory required for data: 725415936
I0308 15:32:09.094275 31479 layer_factory.hpp:77] Creating layer Decoder_score
I0308 15:32:09.094285 31479 net.cpp:84] Creating Layer Decoder_score
I0308 15:32:09.094290 31479 net.cpp:406] Decoder_score <- Decoder3_3.conv1
I0308 15:32:09.094318 31479 net.cpp:380] Decoder_score -> Decoder_score
I0308 15:32:09.096801 31479 net.cpp:122] Setting up Decoder_score
I0308 15:32:09.096817 31479 net.cpp:129] Top shape: 1 19 128 256 (622592)
I0308 15:32:09.096820 31479 net.cpp:137] Memory required for data: 727906304
I0308 15:32:09.096827 31479 net.cpp:200] Decoder_score does not need backward computation.
I0308 15:32:09.096834 31479 net.cpp:200] Decoder3_3.conv1/relu does not need backward computation.
I0308 15:32:09.096838 31479 net.cpp:200] Decoder3_3.conv1 does not need backward computation.
I0308 15:32:09.096841 31479 net.cpp:200] Decoder3_3.concat does not need backward computation.
…
