…
I0308 15:30:55.175552 31267 net.cpp:294] The NetState phase (0) differed from the phase (1) specified by a rule in layer pred
I0308 15:30:55.175554 31267 net.cpp:294] The NetState phase (0) differed from the phase (1) specified by a rule in layer prob_d8
I0308 15:30:55.175557 31267 net.cpp:294] The NetState phase (0) differed from the phase (1) specified by a rule in layer pred_d8
I0308 15:30:55.176007 31267 net.cpp:51] Initializing net from parameters: 
state {
  phase: TRAIN
  level: 0
  stage: ""
}
layer {
  name: "input"
  type: "Input"
  top: "data"
  input_param {
    shape {
      dim: 1
      dim: 3
      dim: 1024
      dim: 2048
    }
  }
}
layer {
  name: "conv1"
  type: "Convolution"
  bottom: "data"
  top: "conv1"
  convolution_param {
    num_output: 32
    bias_term: true
    pad: 1
    kernel_size: 3
    stride: 2
  }
}
layer {
  name: "conv1/relu"
  type: "ReLU"
  bottom: "conv1"
  top: "conv1"
}
layer {
  name: "conv2"
  type: "Convolution"
  bottom: "conv1"
  top: "conv2"
  convolution_param {
    num_output: 64
    bias_term: true
    pad: 1
    kernel_size: 3
    stride: 2
  }
}
layer {
  name: "conv2/relu"
  type: "ReLU"
  bottom: "conv2"
  top: "conv2"
}
layer {
  name: "res2.1.conv1"
  type: "Convolution"
  bottom: "conv2"
  top: "res2.1.conv1"
  convolution_param {
    num_output: 64
    bias_term: true
    pad: 1
    kernel_size: 3
    stride: 2
  }
}
layer {
  name: "res2.1.conv1/relu"
  type: "ReLU"
  bottom: "res2.1.conv1"
  top: "res2.1.conv1"
}
layer {
  name: "res2.1.conv2"
  type: "Convolution"
  bottom: "res2.1.conv1"
  top: "res2.1.conv2"
  convolution_param {
    num_output: 64
    bias_term: true
    pad: 1
    kernel_size: 3
    stride: 1
  }
}
layer {
  name: "res2.1.skipConv"
  type: "Convolution"
  bottom: "conv2"
  top: "res2.1.skipConv"
  convolution_param {
    num_output: 64
    bias_term: true
    pad: 0
    kernel_size: 1
    stride: 2
  }
}
layer {
  name: "res2.1.sum"
  type: "Eltwise"
  bottom: "res2.1.conv2"
  bottom: "res2.1.skipConv"
  top: "res2.1.sum"
  eltwise_param {
    operation: SUM
  }
}
layer {
  name: "res2.1.relu"
  type: "ReLU"
  bottom: "res2.1.sum"
  top: "res2.1.sum"
}
layer {
  name: "res2.2.conv1"
  type: "Convolution"
  bottom: "res2.1.sum"
  top: "res2.2.conv1"
  convolution_param {
    num_output: 64
    bias_term: true
    pad: 1
    kernel_size: 3
    stride: 1
  }
}
layer {
  name: "res2.2.conv1/relu"
  type: "ReLU"
  bottom: "res2.2.conv1"
  top: "res2.2.conv1"
}
layer {
  name: "res2.2.conv2"
  type: "Convolution"
  bottom: "res2.2.conv1"
  top: "res2.2.conv2"
  convolution_param {
    num_output: 64
    bias_term: true
    pad: 1
    kernel_size: 3
    stride: 1
  }
}
layer {
  name: "res2.2.sum"
  type: "Eltwise"
  bottom: "res2.2.conv2"
  bottom: "res2.1.sum"
  top: "res2.2.sum"
  eltwise_param {
    operation: SUM
  }
}
layer {
  name: "res2.2.relu"
  type: "ReLU"
  bottom: "res2.2.sum"
  top: "res2.2.sum"
}
layer {
  name: "res2.3.conv1"
  type: "Convolution"
  bottom: "res2.2.sum"
  top: "res2.3.conv1"
  convolution_param {
    num_output: 128
    bias_term: true
    pad: 1
    kernel_size: 3
    stride: 1
  }
}
layer {
  name: "res2.3.conv1/relu"
  type: "ReLU"
  bottom: "res2.3.conv1"
  top: "res2.3.conv1"
}
layer {
  name: "res2.3.conv2"
  type: "Convolution"
  bottom: "res2.3.conv1"
  top: "res2.3.conv2"
  convolution_param {
    num_output: 128
    bias_term: true
    pad: 1
    kernel_size: 3
    stride: 1
  }
}
layer {
  name: "res2.3.skipConv"
  type: "Convolution"
  bottom: "res2.2.sum"
  top: "res2.3.skipConv"
  convolution_param {
    num_output: 128
    bias_term: true
    pad: 0
    kernel_size: 1
    stride: 1
  }
}
layer {
  name: "res2.3.sum"
  type: "Eltwise"
  bottom: "res2.3.conv2"
  bottom: "res2.3.skipConv"
  top: "res2.3.sum"
  eltwise_param {
    operation: SUM
  }
}
layer {
  name: "res2.3.relu"
  type: "ReLU"
  bottom: "res2.3.sum"
  top: "res2.3.sum"
}
layer {
  name: "res3.1.conv1"
  type: "Convolution"
  bottom: "res2.3.sum"
  top: "res3.1.conv1"
  convolution_param {
    num_output: 128
    bias_term: true
    pad: 1
    kernel_size: 3
    stride: 2
  }
}
layer {
  name: "res3.1.conv1/relu"
  type: "ReLU"
  bottom: "res3.1.conv1"
  top: "res3.1.conv1"
}
layer {
  name: "res3.1.conv2"
  type: "Convolution"
  bottom: "res3.1.conv1"
  top: "res3.1.conv2"
  convolution_param {
    num_output: 128
    bias_term: true
    pad: 1
    kernel_size: 3
    stride: 1
  }
}
layer {
  name: "res3.1.skipConv"
  type: "Convolution"
  bottom: "res2.3.sum"
  top: "res3.1.skipConv"
  convolution_param {
    num_output: 128
    bias_term: true
    pad: 0
    kernel_size: 1
    stride: 2
  }
}
layer {
  name: "res3.1.sum"
  type: "Eltwise"
  bottom: "res3.1.conv2"
  bottom: "res3.1.skipConv"
  top: "res3.1.sum"
  eltwise_param {
    operation: SUM
  }
}
layer {
  name: "res3.1.relu"
  type: "ReLU"
  bottom: "res3.1.sum"
  top: "res3.1.sum"
}
layer {
  name: "res3.2.conv1"
  type: "Convolution"
  bottom: "res3.1.sum"
  top: "res3.2.conv1"
  convolution_param {
    num_output: 128
    bias_term: true
    pad: 1
    kernel_size: 3
    stride: 1
  }
}
layer {
  name: "res3.2.conv1/relu"
  type: "ReLU"
  bottom: "res3.2.conv1"
  top: "res3.2.conv1"
}
layer {
  name: "res3.2.conv2"
  type: "Convolution"
  bottom: "res3.2.conv1"
  top: "res3.2.conv2"
  convolution_param {
    num_output: 128
    bias_term: true
    pad: 1
    kernel_size: 3
    stride: 1
  }
}
layer {
  name: "res3.2.sum"
  type: "Eltwise"
  bottom: "res3.2.conv2"
  bottom: "res3.1.sum"
  top: "res3.2.sum"
  eltwise_param {
    operation: SUM
  }
}
layer {
  name: "res3.2.relu"
  type: "ReLU"
  bottom: "res3.2.sum"
  top: "res3.2.sum"
}
layer {
  name: "res3.3.conv1"
  type: "Convolution"
  bottom: "res3.2.sum"
  top: "res3.3.conv1"
  convolution_param {
    num_output: 128
    bias_term: true
    pad: 1
    kernel_size: 3
    stride: 1
  }
}
layer {
  name: "res3.3.conv1/relu"
  type: "ReLU"
  bottom: "res3.3.conv1"
  top: "res3.3.conv1"
}
layer {
  name: "res3.3.conv2"
  type: "Convolution"
  bottom: "res3.3.conv1"
  top: "res3.3.conv2"
  convolution_param {
    num_output: 128
    bias_term: true
    pad: 1
    kernel_size: 3
    stride: 1
  }
}
layer {
  name: "res3.3.sum"
  type: "Eltwise"
  bottom: "res3.3.conv2"
  bottom: "res3.2.sum"
  top: "res3.3.sum"
  eltwise_param {
    operation: SUM
  }
}
layer {
  name: "res3.3.relu"
  type: "ReLU"
  bottom: "res3.3.sum"
  top: "res3.3.sum"
}
layer {
  name: "res3.4.conv1"
  type: "Convolution"
  bottom: "res3.3.sum"
  top: "res3.4.conv1"
  convolution_param {
    num_output: 128
    bias_term: true
    pad: 1
    kernel_size: 3
    stride: 1
  }
}
layer {
  name: "res3.4.conv1/relu"
  type: "ReLU"
  bottom: "res3.4.conv1"
  top: "res3.4.conv1"
}
layer {
  name: "res3.4.conv2"
  type: "Convolution"
  bottom: "res3.4.conv1"
  top: "res3.4.conv2"
  convolution_param {
    num_output: 128
    bias_term: true
    pad: 1
    kernel_size: 3
    stride: 1
  }
}
layer {
  name: "res3.4.sum"
  type: "Eltwise"
  bottom: "res3.4.conv2"
  bottom: "res3.3.sum"
  top: "res3.4.sum"
  eltwise_param {
    operation: SUM
  }
}
layer {
  name: "res3.4.relu"
  type: "ReLU"
  bottom: "res3.4.sum"
  top: "res3.4.sum"
}
layer {
  name: "res3.5.conv1"
  type: "Convolution"
  bottom: "res3.4.sum"
  top: "res3.5.conv1"
  convolution_param {
    num_output: 128
    bias_term: true
    pad: 1
    kernel_size: 3
    stride: 1
  }
}
layer {
  name: "res3.5.conv1/relu"
  type: "ReLU"
  bottom: "res3.5.conv1"
  top: "res3.5.conv1"
}
layer {
  name: "res3.5.conv2"
  type: "Convolution"
  bottom: "res3.5.conv1"
  top: "res3.5.conv2"
  convolution_param {
    num_output: 128
    bias_term: true
    pad: 1
    kernel_size: 3
    stride: 1
  }
}
layer {
  name: "res3.5.sum"
  type: "Eltwise"
  bottom: "res3.5.conv2"
  bottom: "res3.4.sum"
  top: "res3.5.sum"
  eltwise_param {
    operation: SUM
  }
}
layer {
  name: "res3.5.relu"
  type: "ReLU"
  bottom: "res3.5.sum"
  top: "res3.5.sum"
}
layer {
  name: "res3.6.conv1"
  type: "Convolution"
  bottom: "res3.5.sum"
  top: "res3.6.conv1"
  convolution_param {
    num_output: 128
    bias_term: true
    pad: 1
    kernel_size: 3
    stride: 1
  }
}
layer {
  name: "res3.6.conv1/relu"
  type: "ReLU"
  bottom: "res3.6.conv1"
  top: "res3.6.conv1"
}
layer {
  name: "res3.6.conv2"
  type: "Convolution"
  bottom: "res3.6.conv1"
  top: "res3.6.conv2"
  convolution_param {
    num_output: 128
    bias_term: true
    pad: 1
    kernel_size: 3
    stride: 1
  }
}
layer {
  name: "res3.6.sum"
  type: "Eltwise"
  bottom: "res3.6.conv2"
  bottom: "res3.5.sum"
  top: "res3.6.sum"
  eltwise_param {
    operation: SUM
  }
}
layer {
  name: "res3.6.relu"
  type: "ReLU"
  bottom: "res3.6.sum"
  top: "res3.6.sum"
}
layer {
  name: "res3.7.conv1"
  type: "Convolution"
  bottom: "res3.6.sum"
  top: "res3.7.conv1"
  convolution_param {
    num_output: 128
    bias_term: true
    pad: 1
    kernel_size: 3
    stride: 1
  }
}
layer {
  name: "res3.7.conv1/relu"
  type: "ReLU"
  bottom: "res3.7.conv1"
  top: "res3.7.conv1"
}
layer {
  name: "res3.7.conv2"
  type: "Convolution"
  bottom: "res3.7.conv1"
  top: "res3.7.conv2"
  convolution_param {
    num_output: 128
    bias_term: true
    pad: 1
    kernel_size: 3
    stride: 1
  }
}
layer {
  name: "res3.7.sum"
  type: "Eltwise"
  bottom: "res3.7.conv2"
  bottom: "res3.6.sum"
  top: "res3.7.sum"
  eltwise_param {
    operation: SUM
  }
}
layer {
  name: "res3.7.relu"
  type: "ReLU"
  bottom: "res3.7.sum"
  top: "res3.7.sum"
}
layer {
  name: "res3.8.conv1"
  type: "Convolution"
  bottom: "res3.7.sum"
  top: "res3.8.conv1"
  convolution_param {
    num_output: 128
    bias_term: true
    pad: 1
    kernel_size: 3
    stride: 1
  }
}
layer {
  name: "res3.8.conv1/relu"
  type: "ReLU"
  bottom: "res3.8.conv1"
  top: "res3.8.conv1"
}
layer {
  name: "res3.8.conv2"
  type: "Convolution"
  bottom: "res3.8.conv1"
  top: "res3.8.conv2"
  convolution_param {
    num_output: 128
    bias_term: true
    pad: 1
    kernel_size: 3
    stride: 1
  }
}
layer {
  name: "res3.8.sum"
  type: "Eltwise"
  bottom: "res3.8.conv2"
  bottom: "res3.7.sum"
  top: "res3.8.sum"
  eltwise_param {
    operation: SUM
  }
}
layer {
  name: "res3.8.relu"
  type: "ReLU"
  bottom: "res3.8.sum"
  top: "res3.8.sum"
}
layer {
  name: "res3.9.conv1"
  type: "Convolution"
  bottom: "res3.8.sum"
  top: "res3.9.conv1"
  convolution_param {
    num_output: 128
    bias_term: true
    pad: 1
    kernel_size: 3
    stride: 1
  }
}
layer {
  name: "res3.9.conv1/relu"
  type: "ReLU"
  bottom: "res3.9.conv1"
  top: "res3.9.conv1"
}
layer {
  name: "res3.9.conv2"
  type: "Convolution"
  bottom: "res3.9.conv1"
  top: "res3.9.conv2"
  convolution_param {
    num_output: 128
    bias_term: true
    pad: 1
    kernel_size: 3
    stride: 1
  }
}
layer {
  name: "res3.9.sum"
  type: "Eltwise"
  bottom: "res3.9.conv2"
  bottom: "res3.8.sum"
  top: "res3.9.sum"
  eltwise_param {
    operation: SUM
  }
}
layer {
  name: "res3.9.relu"
  type: "ReLU"
  bottom: "res3.9.sum"
  top: "res3.9.sum"
}
layer {
  name: "res3.10.conv1"
  type: "Convolution"
  bottom: "res3.9.sum"
  top: "res3.10.conv1"
  convolution_param {
    num_output: 128
    bias_term: true
    pad: 1
    kernel_size: 3
    stride: 1
  }
}
layer {
  name: "res3.10.conv1/relu"
  type: "ReLU"
  bottom: "res3.10.conv1"
  top: "res3.10.conv1"
}
layer {
  name: "res3.10.conv2"
  type: "Convolution"
  bottom: "res3.10.conv1"
  top: "res3.10.conv2"
  convolution_param {
    num_output: 128
    bias_term: true
    pad: 1
    kernel_size: 3
    stride: 1
  }
}
layer {
  name: "res3.10.sum"
  type: "Eltwise"
  bottom: "res3.10.conv2"
  bottom: "res3.9.sum"
  top: "res3.10.sum"
  eltwise_param {
    operation: SUM
  }
}
layer {
  name: "res3.10.relu"
  type: "ReLU"
  bottom: "res3.10.sum"
  top: "res3.10.sum"
}
layer {
  name: "res3.11.conv1"
  type: "Convolution"
  bottom: "res3.10.sum"
  top: "res3.11.conv1"
  convolution_param {
    num_output: 256
    bias_term: true
    pad: 1
    kernel_size: 3
    stride: 1
  }
}
layer {
  name: "res3.11.conv1/relu"
  type: "ReLU"
  bottom: "res3.11.conv1"
  top: "res3.11.conv1"
}
layer {
  name: "res3.11.conv2"
  type: "Convolution"
  bottom: "res3.11.conv1"
  top: "res3.11.conv2"
  convolution_param {
    num_output: 256
    bias_term: true
    pad: 1
    kernel_size: 3
    stride: 1
  }
}
layer {
  name: "res3.11.skipConv"
  type: "Convolution"
  bottom: "res3.10.sum"
  top: "res3.11.skipConv"
  convolution_param {
    num_output: 256
    bias_term: true
    pad: 0
    kernel_size: 1
    stride: 1
  }
}
layer {
  name: "res3.11.sum"
  type: "Eltwise"
  bottom: "res3.11.conv2"
  bottom: "res3.11.skipConv"
  top: "res3.11.sum"
  eltwise_param {
    operation: SUM
  }
}
layer {
  name: "res3.11.relu"
  type: "ReLU"
  bottom: "res3.11.sum"
  top: "res3.11.sum"
}
layer {
  name: "res4.1.conv1"
  type: "Convolution"
  bottom: "res3.11.sum"
  top: "res4.1.conv1"
  convolution_param {
    num_output: 256
    bias_term: true
    pad: 1
    kernel_size: 3
    stride: 2
  }
}
layer {
  name: "res4.1.conv1/relu"
  type: "ReLU"
  bottom: "res4.1.conv1"
  top: "res4.1.conv1"
}
layer {
  name: "res4.1.conv2"
  type: "Convolution"
  bottom: "res4.1.conv1"
  top: "res4.1.conv2"
  convolution_param {
    num_output: 256
    bias_term: true
    pad: 1
    kernel_size: 3
    stride: 1
  }
}
layer {
  name: "res4.1.skipConv"
  type: "Convolution"
  bottom: "res3.11.sum"
  top: "res4.1.skipConv"
  convolution_param {
    num_output: 256
    bias_term: true
    pad: 0
    kernel_size: 1
    stride: 2
  }
}
layer {
  name: "res4.1.sum"
  type: "Eltwise"
  bottom: "res4.1.conv2"
  bottom: "res4.1.skipConv"
  top: "res4.1.sum"
  eltwise_param {
    operation: SUM
  }
}
layer {
  name: "res4.1.relu"
  type: "ReLU"
  bottom: "res4.1.sum"
  top: "res4.1.sum"
}
layer {
  name: "res4.2.conv1"
  type: "Convolution"
  bottom: "res4.1.sum"
  top: "res4.2.conv1"
  convolution_param {
    num_output: 256
    bias_term: true
    pad: 1
    kernel_size: 3
    stride: 1
  }
}
layer {
  name: "res4.2.conv1/relu"
  type: "ReLU"
  bottom: "res4.2.conv1"
  top: "res4.2.conv1"
}
layer {
  name: "res4.2.conv2"
  type: "Convolution"
  bottom: "res4.2.conv1"
  top: "res4.2.conv2"
  convolution_param {
    num_output: 256
    bias_term: true
    pad: 1
    kernel_size: 3
    stride: 1
  }
}
layer {
  name: "res4.2.sum"
  type: "Eltwise"
  bottom: "res4.2.conv2"
  bottom: "res4.1.sum"
  top: "res4.2.sum"
  eltwise_param {
    operation: SUM
  }
}
layer {
  name: "res4.2.relu"
  type: "ReLU"
  bottom: "res4.2.sum"
  top: "res4.2.sum"
}
layer {
  name: "res4.3.conv1"
  type: "Convolution"
  bottom: "res4.2.sum"
  top: "res4.3.conv1"
  convolution_param {
    num_output: 256
    bias_term: true
    pad: 1
    kernel_size: 3
    stride: 1
  }
}
layer {
  name: "res4.3.conv1/relu"
  type: "ReLU"
  bottom: "res4.3.conv1"
  top: "res4.3.conv1"
}
layer {
  name: "res4.3.conv2"
  type: "Convolution"
  bottom: "res4.3.conv1"
  top: "res4.3.conv2"
  convolution_param {
    num_output: 256
    bias_term: true
    pad: 1
    kernel_size: 3
    stride: 1
  }
}
layer {
  name: "res4.3.sum"
  type: "Eltwise"
  bottom: "res4.3.conv2"
  bottom: "res4.2.sum"
  top: "res4.3.sum"
  eltwise_param {
    operation: SUM
  }
}
layer {
  name: "res4.3.relu"
  type: "ReLU"
  bottom: "res4.3.sum"
  top: "res4.3.sum"
}
layer {
  name: "res4.4.conv1"
  type: "Convolution"
  bottom: "res4.3.sum"
  top: "res4.4.conv1"
  convolution_param {
    num_output: 256
    bias_term: true
    pad: 1
    kernel_size: 3
    stride: 1
  }
}
layer {
  name: "res4.4.conv1/relu"
  type: "ReLU"
  bottom: "res4.4.conv1"
  top: "res4.4.conv1"
}
layer {
  name: "res4.4.conv2"
  type: "Convolution"
  bottom: "res4.4.conv1"
  top: "res4.4.conv2"
  convolution_param {
    num_output: 256
    bias_term: true
    pad: 1
    kernel_size: 3
    stride: 1
  }
}
layer {
  name: "res4.4.sum"
  type: "Eltwise"
  bottom: "res4.4.conv2"
  bottom: "res4.3.sum"
  top: "res4.4.sum"
  eltwise_param {
    operation: SUM
  }
}
layer {
  name: "res4.4.relu"
  type: "ReLU"
  bottom: "res4.4.sum"
  top: "res4.4.sum"
}
layer {
  name: "res4.5.conv1"
  type: "Convolution"
  bottom: "res4.4.sum"
  top: "res4.5.conv1"
  convolution_param {
    num_output: 512
    bias_term: true
    pad: 1
    kernel_size: 3
    stride: 1
  }
}
layer {
  name: "res4.5.conv1/relu"
  type: "ReLU"
  bottom: "res4.5.conv1"
  top: "res4.5.conv1"
}
layer {
  name: "res4.5.conv2"
  type: "Convolution"
  bottom: "res4.5.conv1"
  top: "res4.5.conv2"
  convolution_param {
    num_output: 512
    bias_term: true
    pad: 1
    kernel_size: 3
    stride: 1
  }
}
layer {
  name: "res4.5.skipConv"
  type: "Convolution"
  bottom: "res4.4.sum"
  top: "res4.5.skipConv"
  convolution_param {
    num_output: 512
    bias_term: true
    pad: 0
    kernel_size: 1
    stride: 1
  }
}
layer {
  name: "res4.5.sum"
  type: "Eltwise"
  bottom: "res4.5.conv2"
  bottom: "res4.5.skipConv"
  top: "res4.5.sum"
  eltwise_param {
    operation: SUM
  }
}
layer {
  name: "res4.5.relu"
  type: "ReLU"
  bottom: "res4.5.sum"
  top: "res4.5.sum"
}
layer {
  name: "res4.6.conv1"
  type: "Convolution"
  bottom: "res4.5.sum"
  top: "res4.6.conv1"
  convolution_param {
    num_output: 512
    bias_term: true
    pad: 1
    kernel_size: 3
    stride: 1
  }
}
layer {
  name: "res4.6.conv1/relu"
  type: "ReLU"
  bottom: "res4.6.conv1"
  top: "res4.6.conv1"
}
layer {
  name: "res4.6.conv2"
  type: "Convolution"
  bottom: "res4.6.conv1"
  top: "res4.6.conv2"
  convolution_param {
    num_output: 512
    bias_term: true
    pad: 1
    kernel_size: 3
    stride: 1
  }
}
layer {
  name: "res4.6.sum"
  type: "Eltwise"
  bottom: "res4.6.conv2"
  bottom: "res4.5.sum"
  top: "res4.6.sum"
  eltwise_param {
    operation: SUM
  }
}
layer {
  name: "res4.6.relu"
  type: "ReLU"
  bottom: "res4.6.sum"
  top: "res4.6.sum"
}
layer {
  name: "psp.pool1"
  type: "Pooling"
  bottom: "res4.6.sum"
  top: "psp.pool1"
  pooling_param {
    pool: AVE
    kernel_size: 32
    stride: 32
  }
}
layer {
  name: "psp.pool1.conv"
  type: "Convolution"
  bottom: "psp.pool1"
  top: "psp.pool1.conv"
  convolution_param {
    num_output: 128
    bias_term: true
    pad: 0
    kernel_size: 1
    stride: 1
  }
}
layer {
  name: "psp.pool1.conv/relu"
  type: "ReLU"
  bottom: "psp.pool1.conv"
  top: "psp.pool1.conv"
}
layer {
  name: "psp.pool1.interp"
  type: "Interp"
  bottom: "psp.pool1.conv"
  top: "psp.pool1.interp"
  include {
    phase: TRAIN
  }
  interp_param {
    height: 32
    width: 64
  }
}
layer {
  name: "psp.pool2"
  type: "Pooling"
  bottom: "res4.6.sum"
  top: "psp.pool2"
  pooling_param {
    pool: AVE
    kernel_size: 16
    stride: 16
  }
}
layer {
  name: "psp.pool2.conv"
  type: "Convolution"
  bottom: "psp.pool2"
  top: "psp.pool2.conv"
  convolution_param {
    num_output: 128
    bias_term: true
    pad: 0
    kernel_size: 1
    stride: 1
  }
}
layer {
  name: "psp.pool2.conv/relu"
  type: "ReLU"
  bottom: "psp.pool2.conv"
  top: "psp.pool2.conv"
}
layer {
  name: "psp.pool2.interp"
  type: "Interp"
  bottom: "psp.pool2.conv"
  top: "psp.pool2.interp"
  include {
    phase: TRAIN
  }
  interp_param {
    height: 32
    width: 64
  }
}
layer {
  name: "psp.pool3"
  type: "Pooling"
  bottom: "res4.6.sum"
  top: "psp.pool3"
  pooling_param {
    pool: AVE
    kernel_size: 8
    stride: 8
  }
}
layer {
  name: "psp.pool3.conv"
  type: "Convolution"
  bottom: "psp.pool3"
  top: "psp.pool3.conv"
  convolution_param {
    num_output: 128
    bias_term: true
    pad: 0
    kernel_size: 1
    stride: 1
  }
}
layer {
  name: "psp.pool3.conv/relu"
  type: "ReLU"
  bottom: "psp.pool3.conv"
  top: "psp.pool3.conv"
}
layer {
  name: "psp.pool3.interp"
  type: "Interp"
  bottom: "psp.pool3.conv"
  top: "psp.pool3.interp"
  include {
    phase: TRAIN
  }
  interp_param {
    height: 32
    width: 64
  }
}
layer {
  name: "psp.pool4"
  type: "Pooling"
  bottom: "res4.6.sum"
  top: "psp.pool4"
  pooling_param {
    pool: AVE
    kernel_size: 4
    stride: 4
  }
}
layer {
  name: "psp.pool4.conv"
  type: "Convolution"
  bottom: "psp.pool4"
  top: "psp.pool4.conv"
  convolution_param {
    num_output: 128
    bias_term: true
    pad: 0
    kernel_size: 1
    stride: 1
  }
}
layer {
  name: "psp.pool4.conv/relu"
  type: "ReLU"
  bottom: "psp.pool4.conv"
  top: "psp.pool4.conv"
}
layer {
  name: "psp.pool4.interp"
  type: "Interp"
  bottom: "psp.pool4.conv"
  top: "psp.pool4.interp"
  include {
    phase: TRAIN
  }
  interp_param {
    height: 32
    width: 64
  }
}
layer {
  name: "psp.concat"
  type: "Concat"
  bottom: "res4.6.sum"
  bottom: "psp.pool1.interp"
  bottom: "psp.pool2.interp"
  bottom: "psp.pool3.interp"
  bottom: "psp.pool4.interp"
  top: "psp.concat"
}
layer {
  name: "psp.concat.conv"
  type: "Convolution"
  bottom: "psp.concat"
  top: "psp.concat.conv"
  convolution_param {
    num_output: 512
    bias_term: true
    pad: 1
    kernel_size: 3
    stride: 1
  }
}
layer {
  name: "psp.concat.conv/relu"
  type: "ReLU"
  bottom: "psp.concat.conv"
  top: "psp.concat.conv"
}
layer {
  name: "Decoder_wc3"
  type: "Convolution"
  bottom: "res2.3.sum"
  top: "Decoder_wc3"
  convolution_param {
    num_output: 19
    bias_term: true
    pad: 0
    kernel_size: 1
    stride: 1
  }
}
layer {
  name: "Decoder_wc3/relu"
  type: "ReLU"
  bottom: "Decoder_wc3"
  top: "Decoder_wc3"
}
layer {
  name: "Decoder_wc4"
  type: "Convolution"
  bottom: "res3.11.sum"
  top: "Decoder_wc4"
  convolution_param {
    num_output: 256
    bias_term: true
    pad: 0
    kernel_size: 1
    stride: 1
  }
}
layer {
  name: "Decoder_wc4/relu"
  type: "ReLU"
  bottom: "Decoder_wc4"
  top: "Decoder_wc4"
}
layer {
  name: "Decoder_wc5"
  type: "Convolution"
  bottom: "psp.concat.conv"
  top: "Decoder_wc5"
  convolution_param {
    num_output: 512
    bias_term: true
    pad: 0
    kernel_size: 1
    stride: 1
  }
}
layer {
  name: "Decoder_wc5/relu"
  type: "ReLU"
  bottom: "Decoder_wc5"
  top: "Decoder_wc5"
}
layer {
  name: "Decoder4_4.proj"
  type: "Convolution"
  bottom: "Decoder_wc5"
  top: "Decoder4_4.proj"
  convolution_param {
    num_output: 256
    bias_term: true
    pad: 0
    kernel_size: 1
    stride: 1
  }
}
layer {
  name: "Decoder4_4.proj/relu"
  type: "ReLU"
  bottom: "Decoder4_4.proj"
  top: "Decoder4_4.proj"
}
layer {
  name: "Decoder4_4.proj/up2"
  type: "Deconvolution"
  bottom: "Decoder4_4.proj"
  top: "Decoder4_4.proj/up2"
  param {
    lr_mult: 0
    decay_mult: 0
  }
  convolution_param {
    num_output: 256
    bias_term: false
    pad: 1
    kernel_size: 4
    group: 256
    stride: 2
    weight_filler {
      type: "bilinear"
    }
  }
}
layer {
  name: "Decoder4_4.concat"
  type: "Concat"
  bottom: "Decoder_wc4"
  bottom: "Decoder4_4.proj/up2"
  top: "Decoder4_4.concat"
}
layer {
  name: "Decoder4_4.conv1"
  type: "Convolution"
  bottom: "Decoder4_4.concat"
  top: "Decoder4_4.conv1"
  convolution_param {
    num_output: 256
    bias_term: true
    pad: 1
    kernel_size: 3
    stride: 1
  }
}
layer {
  name: "Decoder4_4.conv1/relu"
  type: "ReLU"
  bottom: "Decoder4_4.conv1"
  top: "Decoder4_4.conv1"
}
layer {
  name: "Decoder3_3.proj"
  type: "Convolution"
  bottom: "Decoder4_4.conv1"
  top: "Decoder3_3.proj"
  convolution_param {
    num_output: 19
    bias_term: true
    pad: 0
    kernel_size: 1
    stride: 1
  }
}
layer {
  name: "Decoder3_3.proj/relu"
  type: "ReLU"
  bottom: "Decoder3_3.proj"
  top: "Decoder3_3.proj"
}
layer {
  name: "Decoder3_3.proj/up2"
  type: "Deconvolution"
  bottom: "Decoder3_3.proj"
  top: "Decoder3_3.proj/up2"
  param {
    lr_mult: 0
    decay_mult: 0
  }
  convolution_param {
    num_output: 19
    bias_term: false
    pad: 1
    kernel_size: 4
    group: 19
    stride: 2
    weight_filler {
      type: "bilinear"
    }
  }
}
layer {
  name: "Decoder3_3.concat"
  type: "Concat"
  bottom: "Decoder_wc3"
  bottom: "Decoder3_3.proj/up2"
  top: "Decoder3_3.concat"
}
layer {
  name: "Decoder3_3.conv1"
  type: "Convolution"
  bottom: "Decoder3_3.concat"
  top: "Decoder3_3.conv1"
  convolution_param {
    num_output: 19
    bias_term: true
    pad: 1
    kernel_size: 3
    stride: 1
  }
}
layer {
  name: "Decoder3_3.conv1/relu"
  type: "ReLU"
  bottom: "Decoder3_3.conv1"
  top: "Decoder3_3.conv1"
}
layer {
  name: "Decoder_score"
  type: "Convolution"
  bottom: "Decoder3_3.conv1"
  top: "Decoder_score"
  convolution_param {
    num_output: 19
    bias_term: true
    pad: 1
    kernel_size: 3
    stride: 1
  }
}
layer {
  name: "Decoder_score.up8"
  type: "Deconvolution"
  bottom: "Decoder_score"
  top: "Decoder_score.up8"
  param {
    lr_mult: 0
    decay_mult: 0
  }
  convolution_param {
    num_output: 19
    bias_term: false
    pad: 4
    kernel_size: 16
    group: 19
    stride: 8
    weight_filler {
      type: "bilinear"
    }
  }
}
I0308 15:30:55.176609 31267 layer_factory.hpp:77] Creating layer input
I0308 15:30:55.176625 31267 net.cpp:84] Creating Layer input
I0308 15:30:55.176631 31267 net.cpp:380] input -> data
I0308 15:30:55.184811 31267 net.cpp:122] Setting up input
I0308 15:30:55.184831 31267 net.cpp:129] Top shape: 1 3 1024 2048 (6291456)
I0308 15:30:55.184835 31267 net.cpp:137] Memory required for data: 25165824
I0308 15:30:55.184841 31267 layer_factory.hpp:77] Creating layer conv1
I0308 15:30:55.184854 31267 net.cpp:84] Creating Layer conv1
I0308 15:30:55.184859 31267 net.cpp:406] conv1 <- data
I0308 15:30:55.184880 31267 net.cpp:380] conv1 -> conv1
I0308 15:30:55.642474 31267 net.cpp:122] Setting up conv1
I0308 15:30:55.642506 31267 net.cpp:129] Top shape: 1 32 512 1024 (16777216)
I0308 15:30:55.642511 31267 net.cpp:137] Memory required for data: 92274688
I0308 15:30:55.642530 31267 layer_factory.hpp:77] Creating layer conv1/relu
I0308 15:30:55.642544 31267 net.cpp:84] Creating Layer conv1/relu
I0308 15:30:55.642549 31267 net.cpp:406] conv1/relu <- conv1
I0308 15:30:55.642554 31267 net.cpp:367] conv1/relu -> conv1 (in-place)
I0308 15:30:55.643208 31267 net.cpp:122] Setting up conv1/relu
I0308 15:30:55.643234 31267 net.cpp:129] Top shape: 1 32 512 1024 (16777216)
I0308 15:30:55.643239 31267 net.cpp:137] Memory required for data: 159383552
I0308 15:30:55.643242 31267 layer_factory.hpp:77] Creating layer conv2
I0308 15:30:55.643255 31267 net.cpp:84] Creating Layer conv2
I0308 15:30:55.643260 31267 net.cpp:406] conv2 <- conv1
I0308 15:30:55.643276 31267 net.cpp:380] conv2 -> conv2
I0308 15:30:55.646248 31267 net.cpp:122] Setting up conv2
I0308 15:30:55.646266 31267 net.cpp:129] Top shape: 1 64 256 512 (8388608)
I0308 15:30:55.646270 31267 net.cpp:137] Memory required for data: 192937984
I0308 15:30:55.646279 31267 layer_factory.hpp:77] Creating layer conv2/relu
I0308 15:30:55.646286 31267 net.cpp:84] Creating Layer conv2/relu
I0308 15:30:55.646298 31267 net.cpp:406] conv2/relu <- conv2
I0308 15:30:55.646304 31267 net.cpp:367] conv2/relu -> conv2 (in-place)
I0308 15:30:55.646762 31267 net.cpp:122] Setting up conv2/relu
I0308 15:30:55.646775 31267 net.cpp:129] Top shape: 1 64 256 512 (8388608)
I0308 15:30:55.646790 31267 net.cpp:137] Memory required for data: 226492416
I0308 15:30:55.646795 31267 layer_factory.hpp:77] Creating layer conv2_conv2/relu_0_split
I0308 15:30:55.646801 31267 net.cpp:84] Creating Layer conv2_conv2/relu_0_split
I0308 15:30:55.646806 31267 net.cpp:406] conv2_conv2/relu_0_split <- conv2
I0308 15:30:55.646811 31267 net.cpp:380] conv2_conv2/relu_0_split -> conv2_conv2/relu_0_split_0
I0308 15:30:55.646822 31267 net.cpp:380] conv2_conv2/relu_0_split -> conv2_conv2/relu_0_split_1
I0308 15:30:55.646888 31267 net.cpp:122] Setting up conv2_conv2/relu_0_split
I0308 15:30:55.646896 31267 net.cpp:129] Top shape: 1 64 256 512 (8388608)
I0308 15:30:55.646900 31267 net.cpp:129] Top shape: 1 64 256 512 (8388608)
I0308 15:30:55.646903 31267 net.cpp:137] Memory required for data: 293601280
I0308 15:30:55.646906 31267 layer_factory.hpp:77] Creating layer res2.1.conv1
I0308 15:30:55.646915 31267 net.cpp:84] Creating Layer res2.1.conv1
I0308 15:30:55.646919 31267 net.cpp:406] res2.1.conv1 <- conv2_conv2/relu_0_split_0
I0308 15:30:55.646929 31267 net.cpp:380] res2.1.conv1 -> res2.1.conv1
I0308 15:30:55.649027 31267 net.cpp:122] Setting up res2.1.conv1
I0308 15:30:55.649045 31267 net.cpp:129] Top shape: 1 64 128 256 (2097152)
I0308 15:30:55.649049 31267 net.cpp:137] Memory required for data: 301989888
I0308 15:30:55.649058 31267 layer_factory.hpp:77] Creating layer res2.1.conv1/relu
I0308 15:30:55.649065 31267 net.cpp:84] Creating Layer res2.1.conv1/relu
I0308 15:30:55.649070 31267 net.cpp:406] res2.1.conv1/relu <- res2.1.conv1
I0308 15:30:55.649075 31267 net.cpp:367] res2.1.conv1/relu -> res2.1.conv1 (in-place)
I0308 15:30:55.649685 31267 net.cpp:122] Setting up res2.1.conv1/relu
I0308 15:30:55.649713 31267 net.cpp:129] Top shape: 1 64 128 256 (2097152)
I0308 15:30:55.649718 31267 net.cpp:137] Memory required for data: 310378496
I0308 15:30:55.649721 31267 layer_factory.hpp:77] Creating layer res2.1.conv2
I0308 15:30:55.649731 31267 net.cpp:84] Creating Layer res2.1.conv2
I0308 15:30:55.649735 31267 net.cpp:406] res2.1.conv2 <- res2.1.conv1
I0308 15:30:55.649741 31267 net.cpp:380] res2.1.conv2 -> res2.1.conv2
I0308 15:30:55.651791 31267 net.cpp:122] Setting up res2.1.conv2
I0308 15:30:55.651808 31267 net.cpp:129] Top shape: 1 64 128 256 (2097152)
I0308 15:30:55.651811 31267 net.cpp:137] Memory required for data: 318767104
I0308 15:30:55.651818 31267 layer_factory.hpp:77] Creating layer res2.1.skipConv
I0308 15:30:55.651829 31267 net.cpp:84] Creating Layer res2.1.skipConv
I0308 15:30:55.651832 31267 net.cpp:406] res2.1.skipConv <- conv2_conv2/relu_0_split_1
I0308 15:30:55.651839 31267 net.cpp:380] res2.1.skipConv -> res2.1.skipConv
I0308 15:30:55.654335 31267 net.cpp:122] Setting up res2.1.skipConv
I0308 15:30:55.654350 31267 net.cpp:129] Top shape: 1 64 128 256 (2097152)
I0308 15:30:55.654354 31267 net.cpp:137] Memory required for data: 327155712
I0308 15:30:55.654364 31267 layer_factory.hpp:77] Creating layer res2.1.sum
I0308 15:30:55.654372 31267 net.cpp:84] Creating Layer res2.1.sum
I0308 15:30:55.654376 31267 net.cpp:406] res2.1.sum <- res2.1.conv2
I0308 15:30:55.654381 31267 net.cpp:406] res2.1.sum <- res2.1.skipConv
I0308 15:30:55.654397 31267 net.cpp:380] res2.1.sum -> res2.1.sum
I0308 15:30:55.654438 31267 net.cpp:122] Setting up res2.1.sum
I0308 15:30:55.654453 31267 net.cpp:129] Top shape: 1 64 128 256 (2097152)
I0308 15:30:55.654455 31267 net.cpp:137] Memory required for data: 335544320
I0308 15:30:55.654458 31267 layer_factory.hpp:77] Creating layer res2.1.relu
I0308 15:30:55.654464 31267 net.cpp:84] Creating Layer res2.1.relu
I0308 15:30:55.654467 31267 net.cpp:406] res2.1.relu <- res2.1.sum
I0308 15:30:55.654471 31267 net.cpp:367] res2.1.relu -> res2.1.sum (in-place)
I0308 15:30:55.654918 31267 net.cpp:122] Setting up res2.1.relu
I0308 15:30:55.654932 31267 net.cpp:129] Top shape: 1 64 128 256 (2097152)
I0308 15:30:55.654945 31267 net.cpp:137] Memory required for data: 343932928
I0308 15:30:55.654949 31267 layer_factory.hpp:77] Creating layer res2.1.sum_res2.1.relu_0_split
I0308 15:30:55.654955 31267 net.cpp:84] Creating Layer res2.1.sum_res2.1.relu_0_split
I0308 15:30:55.654958 31267 net.cpp:406] res2.1.sum_res2.1.relu_0_split <- res2.1.sum
I0308 15:30:55.654963 31267 net.cpp:380] res2.1.sum_res2.1.relu_0_split -> res2.1.sum_res2.1.relu_0_split_0
I0308 15:30:55.654970 31267 net.cpp:380] res2.1.sum_res2.1.relu_0_split -> res2.1.sum_res2.1.relu_0_split_1
I0308 15:30:55.655016 31267 net.cpp:122] Setting up res2.1.sum_res2.1.relu_0_split
I0308 15:30:55.655023 31267 net.cpp:129] Top shape: 1 64 128 256 (2097152)
I0308 15:30:55.655040 31267 net.cpp:129] Top shape: 1 64 128 256 (2097152)
I0308 15:30:55.655043 31267 net.cpp:137] Memory required for data: 360710144
I0308 15:30:55.655046 31267 layer_factory.hpp:77] Creating layer res2.2.conv1
I0308 15:30:55.655076 31267 net.cpp:84] Creating Layer res2.2.conv1
I0308 15:30:55.655092 31267 net.cpp:406] res2.2.conv1 <- res2.1.sum_res2.1.relu_0_split_0
I0308 15:30:55.655100 31267 net.cpp:380] res2.2.conv1 -> res2.2.conv1
I0308 15:30:55.657230 31267 net.cpp:122] Setting up res2.2.conv1
I0308 15:30:55.657248 31267 net.cpp:129] Top shape: 1 64 128 256 (2097152)
I0308 15:30:55.657250 31267 net.cpp:137] Memory required for data: 369098752
I0308 15:30:55.657258 31267 layer_factory.hpp:77] Creating layer res2.2.conv1/relu
I0308 15:30:55.657263 31267 net.cpp:84] Creating Layer res2.2.conv1/relu
I0308 15:30:55.657268 31267 net.cpp:406] res2.2.conv1/relu <- res2.2.conv1
I0308 15:30:55.657274 31267 net.cpp:367] res2.2.conv1/relu -> res2.2.conv1 (in-place)
I0308 15:30:55.657892 31267 net.cpp:122] Setting up res2.2.conv1/relu
I0308 15:30:55.657908 31267 net.cpp:129] Top shape: 1 64 128 256 (2097152)
I0308 15:30:55.657912 31267 net.cpp:137] Memory required for data: 377487360
I0308 15:30:55.657915 31267 layer_factory.hpp:77] Creating layer res2.2.conv2
I0308 15:30:55.657925 31267 net.cpp:84] Creating Layer res2.2.conv2
I0308 15:30:55.657929 31267 net.cpp:406] res2.2.conv2 <- res2.2.conv1
I0308 15:30:55.657935 31267 net.cpp:380] res2.2.conv2 -> res2.2.conv2
I0308 15:30:55.660540 31267 net.cpp:122] Setting up res2.2.conv2
I0308 15:30:55.660557 31267 net.cpp:129] Top shape: 1 64 128 256 (2097152)
I0308 15:30:55.660562 31267 net.cpp:137] Memory required for data: 385875968
I0308 15:30:55.660568 31267 layer_factory.hpp:77] Creating layer res2.2.sum
I0308 15:30:55.660578 31267 net.cpp:84] Creating Layer res2.2.sum
I0308 15:30:55.660583 31267 net.cpp:406] res2.2.sum <- res2.2.conv2
I0308 15:30:55.660586 31267 net.cpp:406] res2.2.sum <- res2.1.sum_res2.1.relu_0_split_1
I0308 15:30:55.660596 31267 net.cpp:380] res2.2.sum -> res2.2.sum
I0308 15:30:55.660643 31267 net.cpp:122] Setting up res2.2.sum
I0308 15:30:55.660651 31267 net.cpp:129] Top shape: 1 64 128 256 (2097152)
I0308 15:30:55.660655 31267 net.cpp:137] Memory required for data: 394264576
I0308 15:30:55.660657 31267 layer_factory.hpp:77] Creating layer res2.2.relu
I0308 15:30:55.660662 31267 net.cpp:84] Creating Layer res2.2.relu
I0308 15:30:55.660665 31267 net.cpp:406] res2.2.relu <- res2.2.sum
I0308 15:30:55.660671 31267 net.cpp:367] res2.2.relu -> res2.2.sum (in-place)
I0308 15:30:55.661278 31267 net.cpp:122] Setting up res2.2.relu
I0308 15:30:55.661293 31267 net.cpp:129] Top shape: 1 64 128 256 (2097152)
I0308 15:30:55.661298 31267 net.cpp:137] Memory required for data: 402653184
I0308 15:30:55.661300 31267 layer_factory.hpp:77] Creating layer res2.2.sum_res2.2.relu_0_split
I0308 15:30:55.661306 31267 net.cpp:84] Creating Layer res2.2.sum_res2.2.relu_0_split
I0308 15:30:55.661310 31267 net.cpp:406] res2.2.sum_res2.2.relu_0_split <- res2.2.sum
I0308 15:30:55.661317 31267 net.cpp:380] res2.2.sum_res2.2.relu_0_split -> res2.2.sum_res2.2.relu_0_split_0
I0308 15:30:55.661324 31267 net.cpp:380] res2.2.sum_res2.2.relu_0_split -> res2.2.sum_res2.2.relu_0_split_1
I0308 15:30:55.661382 31267 net.cpp:122] Setting up res2.2.sum_res2.2.relu_0_split
I0308 15:30:55.661392 31267 net.cpp:129] Top shape: 1 64 128 256 (2097152)
I0308 15:30:55.661396 31267 net.cpp:129] Top shape: 1 64 128 256 (2097152)
I0308 15:30:55.661399 31267 net.cpp:137] Memory required for data: 419430400
I0308 15:30:55.661402 31267 layer_factory.hpp:77] Creating layer res2.3.conv1
I0308 15:30:55.661411 31267 net.cpp:84] Creating Layer res2.3.conv1
I0308 15:30:55.661413 31267 net.cpp:406] res2.3.conv1 <- res2.2.sum_res2.2.relu_0_split_0
I0308 15:30:55.661419 31267 net.cpp:380] res2.3.conv1 -> res2.3.conv1
I0308 15:30:55.663574 31267 net.cpp:122] Setting up res2.3.conv1
I0308 15:30:55.663591 31267 net.cpp:129] Top shape: 1 128 128 256 (4194304)
I0308 15:30:55.663619 31267 net.cpp:137] Memory required for data: 436207616
I0308 15:30:55.663627 31267 layer_factory.hpp:77] Creating layer res2.3.conv1/relu
I0308 15:30:55.663635 31267 net.cpp:84] Creating Layer res2.3.conv1/relu
I0308 15:30:55.663640 31267 net.cpp:406] res2.3.conv1/relu <- res2.3.conv1
I0308 15:30:55.663645 31267 net.cpp:367] res2.3.conv1/relu -> res2.3.conv1 (in-place)
I0308 15:30:55.664096 31267 net.cpp:122] Setting up res2.3.conv1/relu
I0308 15:30:55.664109 31267 net.cpp:129] Top shape: 1 128 128 256 (4194304)
I0308 15:30:55.664124 31267 net.cpp:137] Memory required for data: 452984832
I0308 15:30:55.664129 31267 layer_factory.hpp:77] Creating layer res2.3.conv2
I0308 15:30:55.664150 31267 net.cpp:84] Creating Layer res2.3.conv2
I0308 15:30:55.664155 31267 net.cpp:406] res2.3.conv2 <- res2.3.conv1
I0308 15:30:55.664160 31267 net.cpp:380] res2.3.conv2 -> res2.3.conv2
I0308 15:30:55.666894 31267 net.cpp:122] Setting up res2.3.conv2
I0308 15:30:55.666910 31267 net.cpp:129] Top shape: 1 128 128 256 (4194304)
I0308 15:30:55.666914 31267 net.cpp:137] Memory required for data: 469762048
I0308 15:30:55.666924 31267 layer_factory.hpp:77] Creating layer res2.3.skipConv
I0308 15:30:55.666934 31267 net.cpp:84] Creating Layer res2.3.skipConv
I0308 15:30:55.666939 31267 net.cpp:406] res2.3.skipConv <- res2.2.sum_res2.2.relu_0_split_1
I0308 15:30:55.666945 31267 net.cpp:380] res2.3.skipConv -> res2.3.skipConv
I0308 15:30:55.669488 31267 net.cpp:122] Setting up res2.3.skipConv
I0308 15:30:55.669505 31267 net.cpp:129] Top shape: 1 128 128 256 (4194304)
I0308 15:30:55.669509 31267 net.cpp:137] Memory required for data: 486539264
I0308 15:30:55.669517 31267 layer_factory.hpp:77] Creating layer res2.3.sum
I0308 15:30:55.669524 31267 net.cpp:84] Creating Layer res2.3.sum
I0308 15:30:55.669528 31267 net.cpp:406] res2.3.sum <- res2.3.conv2
I0308 15:30:55.669533 31267 net.cpp:406] res2.3.sum <- res2.3.skipConv
I0308 15:30:55.669538 31267 net.cpp:380] res2.3.sum -> res2.3.sum
I0308 15:30:55.669586 31267 net.cpp:122] Setting up res2.3.sum
I0308 15:30:55.669595 31267 net.cpp:129] Top shape: 1 128 128 256 (4194304)
I0308 15:30:55.669598 31267 net.cpp:137] Memory required for data: 503316480
I0308 15:30:55.669601 31267 layer_factory.hpp:77] Creating layer res2.3.relu
I0308 15:30:55.669607 31267 net.cpp:84] Creating Layer res2.3.relu
I0308 15:30:55.669610 31267 net.cpp:406] res2.3.relu <- res2.3.sum
I0308 15:30:55.669616 31267 net.cpp:367] res2.3.relu -> res2.3.sum (in-place)
I0308 15:30:55.670226 31267 net.cpp:122] Setting up res2.3.relu
I0308 15:30:55.670243 31267 net.cpp:129] Top shape: 1 128 128 256 (4194304)
I0308 15:30:55.670245 31267 net.cpp:137] Memory required for data: 520093696
I0308 15:30:55.670249 31267 layer_factory.hpp:77] Creating layer res2.3.sum_res2.3.relu_0_split
I0308 15:30:55.670254 31267 net.cpp:84] Creating Layer res2.3.sum_res2.3.relu_0_split
I0308 15:30:55.670258 31267 net.cpp:406] res2.3.sum_res2.3.relu_0_split <- res2.3.sum
I0308 15:30:55.670264 31267 net.cpp:380] res2.3.sum_res2.3.relu_0_split -> res2.3.sum_res2.3.relu_0_split_0
I0308 15:30:55.670271 31267 net.cpp:380] res2.3.sum_res2.3.relu_0_split -> res2.3.sum_res2.3.relu_0_split_1
I0308 15:30:55.670276 31267 net.cpp:380] res2.3.sum_res2.3.relu_0_split -> res2.3.sum_res2.3.relu_0_split_2
I0308 15:30:55.670351 31267 net.cpp:122] Setting up res2.3.sum_res2.3.relu_0_split
I0308 15:30:55.670357 31267 net.cpp:129] Top shape: 1 128 128 256 (4194304)
I0308 15:30:55.670361 31267 net.cpp:129] Top shape: 1 128 128 256 (4194304)
I0308 15:30:55.670364 31267 net.cpp:129] Top shape: 1 128 128 256 (4194304)
I0308 15:30:55.670367 31267 net.cpp:137] Memory required for data: 570425344
I0308 15:30:55.670372 31267 layer_factory.hpp:77] Creating layer res3.1.conv1
I0308 15:30:55.670380 31267 net.cpp:84] Creating Layer res3.1.conv1
I0308 15:30:55.670384 31267 net.cpp:406] res3.1.conv1 <- res2.3.sum_res2.3.relu_0_split_0
I0308 15:30:55.670389 31267 net.cpp:380] res3.1.conv1 -> res3.1.conv1
I0308 15:30:55.673051 31267 net.cpp:122] Setting up res3.1.conv1
I0308 15:30:55.673069 31267 net.cpp:129] Top shape: 1 128 64 128 (1048576)
I0308 15:30:55.673082 31267 net.cpp:137] Memory required for data: 574619648
I0308 15:30:55.673090 31267 layer_factory.hpp:77] Creating layer res3.1.conv1/relu
I0308 15:30:55.673099 31267 net.cpp:84] Creating Layer res3.1.conv1/relu
I0308 15:30:55.673104 31267 net.cpp:406] res3.1.conv1/relu <- res3.1.conv1
I0308 15:30:55.673120 31267 net.cpp:367] res3.1.conv1/relu -> res3.1.conv1 (in-place)
I0308 15:30:55.673573 31267 net.cpp:122] Setting up res3.1.conv1/relu
I0308 15:30:55.673585 31267 net.cpp:129] Top shape: 1 128 64 128 (1048576)
I0308 15:30:55.673600 31267 net.cpp:137] Memory required for data: 578813952
I0308 15:30:55.673604 31267 layer_factory.hpp:77] Creating layer res3.1.conv2
I0308 15:30:55.673614 31267 net.cpp:84] Creating Layer res3.1.conv2
I0308 15:30:55.673617 31267 net.cpp:406] res3.1.conv2 <- res3.1.conv1
I0308 15:30:55.673624 31267 net.cpp:380] res3.1.conv2 -> res3.1.conv2
I0308 15:30:55.676218 31267 net.cpp:122] Setting up res3.1.conv2
I0308 15:30:55.676236 31267 net.cpp:129] Top shape: 1 128 64 128 (1048576)
I0308 15:30:55.676240 31267 net.cpp:137] Memory required for data: 583008256
I0308 15:30:55.676247 31267 layer_factory.hpp:77] Creating layer res3.1.skipConv
I0308 15:30:55.676256 31267 net.cpp:84] Creating Layer res3.1.skipConv
I0308 15:30:55.676260 31267 net.cpp:406] res3.1.skipConv <- res2.3.sum_res2.3.relu_0_split_1
I0308 15:30:55.676266 31267 net.cpp:380] res3.1.skipConv -> res3.1.skipConv
I0308 15:30:55.678220 31267 net.cpp:122] Setting up res3.1.skipConv
I0308 15:30:55.678236 31267 net.cpp:129] Top shape: 1 128 64 128 (1048576)
I0308 15:30:55.678239 31267 net.cpp:137] Memory required for data: 587202560
I0308 15:30:55.678246 31267 layer_factory.hpp:77] Creating layer res3.1.sum
I0308 15:30:55.678253 31267 net.cpp:84] Creating Layer res3.1.sum
I0308 15:30:55.678258 31267 net.cpp:406] res3.1.sum <- res3.1.conv2
I0308 15:30:55.678262 31267 net.cpp:406] res3.1.sum <- res3.1.skipConv
I0308 15:30:55.678267 31267 net.cpp:380] res3.1.sum -> res3.1.sum
I0308 15:30:55.678315 31267 net.cpp:122] Setting up res3.1.sum
I0308 15:30:55.678324 31267 net.cpp:129] Top shape: 1 128 64 128 (1048576)
I0308 15:30:55.678328 31267 net.cpp:137] Memory required for data: 591396864
I0308 15:30:55.678330 31267 layer_factory.hpp:77] Creating layer res3.1.relu
I0308 15:30:55.678336 31267 net.cpp:84] Creating Layer res3.1.relu
I0308 15:30:55.678339 31267 net.cpp:406] res3.1.relu <- res3.1.sum
I0308 15:30:55.678345 31267 net.cpp:367] res3.1.relu -> res3.1.sum (in-place)
I0308 15:30:55.678951 31267 net.cpp:122] Setting up res3.1.relu
I0308 15:30:55.678967 31267 net.cpp:129] Top shape: 1 128 64 128 (1048576)
I0308 15:30:55.678970 31267 net.cpp:137] Memory required for data: 595591168
I0308 15:30:55.678974 31267 layer_factory.hpp:77] Creating layer res3.1.sum_res3.1.relu_0_split
I0308 15:30:55.678982 31267 net.cpp:84] Creating Layer res3.1.sum_res3.1.relu_0_split
I0308 15:30:55.678987 31267 net.cpp:406] res3.1.sum_res3.1.relu_0_split <- res3.1.sum
I0308 15:30:55.678993 31267 net.cpp:380] res3.1.sum_res3.1.relu_0_split -> res3.1.sum_res3.1.relu_0_split_0
I0308 15:30:55.678999 31267 net.cpp:380] res3.1.sum_res3.1.relu_0_split -> res3.1.sum_res3.1.relu_0_split_1
I0308 15:30:55.679085 31267 net.cpp:122] Setting up res3.1.sum_res3.1.relu_0_split
I0308 15:30:55.679093 31267 net.cpp:129] Top shape: 1 128 64 128 (1048576)
I0308 15:30:55.679098 31267 net.cpp:129] Top shape: 1 128 64 128 (1048576)
I0308 15:30:55.679101 31267 net.cpp:137] Memory required for data: 603979776
I0308 15:30:55.679105 31267 layer_factory.hpp:77] Creating layer res3.2.conv1
I0308 15:30:55.679114 31267 net.cpp:84] Creating Layer res3.2.conv1
I0308 15:30:55.679119 31267 net.cpp:406] res3.2.conv1 <- res3.1.sum_res3.1.relu_0_split_0
I0308 15:30:55.679124 31267 net.cpp:380] res3.2.conv1 -> res3.2.conv1
I0308 15:30:55.681740 31267 net.cpp:122] Setting up res3.2.conv1
I0308 15:30:55.681756 31267 net.cpp:129] Top shape: 1 128 64 128 (1048576)
I0308 15:30:55.681761 31267 net.cpp:137] Memory required for data: 608174080
I0308 15:30:55.681779 31267 layer_factory.hpp:77] Creating layer res3.2.conv1/relu
I0308 15:30:55.681787 31267 net.cpp:84] Creating Layer res3.2.conv1/relu
I0308 15:30:55.681790 31267 net.cpp:406] res3.2.conv1/relu <- res3.2.conv1
I0308 15:30:55.681816 31267 net.cpp:367] res3.2.conv1/relu -> res3.2.conv1 (in-place)
I0308 15:30:55.682461 31267 net.cpp:122] Setting up res3.2.conv1/relu
I0308 15:30:55.682490 31267 net.cpp:129] Top shape: 1 128 64 128 (1048576)
I0308 15:30:55.682494 31267 net.cpp:137] Memory required for data: 612368384
I0308 15:30:55.682498 31267 layer_factory.hpp:77] Creating layer res3.2.conv2
I0308 15:30:55.682507 31267 net.cpp:84] Creating Layer res3.2.conv2
I0308 15:30:55.682512 31267 net.cpp:406] res3.2.conv2 <- res3.2.conv1
I0308 15:30:55.682528 31267 net.cpp:380] res3.2.conv2 -> res3.2.conv2
I0308 15:30:55.685150 31267 net.cpp:122] Setting up res3.2.conv2
I0308 15:30:55.685168 31267 net.cpp:129] Top shape: 1 128 64 128 (1048576)
I0308 15:30:55.685171 31267 net.cpp:137] Memory required for data: 616562688
I0308 15:30:55.685178 31267 layer_factory.hpp:77] Creating layer res3.2.sum
I0308 15:30:55.685186 31267 net.cpp:84] Creating Layer res3.2.sum
I0308 15:30:55.685190 31267 net.cpp:406] res3.2.sum <- res3.2.conv2
I0308 15:30:55.685195 31267 net.cpp:406] res3.2.sum <- res3.1.sum_res3.1.relu_0_split_1
I0308 15:30:55.685201 31267 net.cpp:380] res3.2.sum -> res3.2.sum
I0308 15:30:55.685251 31267 net.cpp:122] Setting up res3.2.sum
I0308 15:30:55.685262 31267 net.cpp:129] Top shape: 1 128 64 128 (1048576)
I0308 15:30:55.685266 31267 net.cpp:137] Memory required for data: 620756992
I0308 15:30:55.685268 31267 layer_factory.hpp:77] Creating layer res3.2.relu
I0308 15:30:55.685274 31267 net.cpp:84] Creating Layer res3.2.relu
I0308 15:30:55.685277 31267 net.cpp:406] res3.2.relu <- res3.2.sum
I0308 15:30:55.685282 31267 net.cpp:367] res3.2.relu -> res3.2.sum (in-place)
I0308 15:30:55.685739 31267 net.cpp:122] Setting up res3.2.relu
I0308 15:30:55.685751 31267 net.cpp:129] Top shape: 1 128 64 128 (1048576)
I0308 15:30:55.685755 31267 net.cpp:137] Memory required for data: 624951296
I0308 15:30:55.685757 31267 layer_factory.hpp:77] Creating layer res3.2.sum_res3.2.relu_0_split
I0308 15:30:55.685765 31267 net.cpp:84] Creating Layer res3.2.sum_res3.2.relu_0_split
I0308 15:30:55.685768 31267 net.cpp:406] res3.2.sum_res3.2.relu_0_split <- res3.2.sum
I0308 15:30:55.685775 31267 net.cpp:380] res3.2.sum_res3.2.relu_0_split -> res3.2.sum_res3.2.relu_0_split_0
I0308 15:30:55.685783 31267 net.cpp:380] res3.2.sum_res3.2.relu_0_split -> res3.2.sum_res3.2.relu_0_split_1
I0308 15:30:55.685847 31267 net.cpp:122] Setting up res3.2.sum_res3.2.relu_0_split
I0308 15:30:55.685856 31267 net.cpp:129] Top shape: 1 128 64 128 (1048576)
I0308 15:30:55.685860 31267 net.cpp:129] Top shape: 1 128 64 128 (1048576)
I0308 15:30:55.685863 31267 net.cpp:137] Memory required for data: 633339904
I0308 15:30:55.685866 31267 layer_factory.hpp:77] Creating layer res3.3.conv1
I0308 15:30:55.685875 31267 net.cpp:84] Creating Layer res3.3.conv1
I0308 15:30:55.685879 31267 net.cpp:406] res3.3.conv1 <- res3.2.sum_res3.2.relu_0_split_0
I0308 15:30:55.685885 31267 net.cpp:380] res3.3.conv1 -> res3.3.conv1
I0308 15:30:55.688622 31267 net.cpp:122] Setting up res3.3.conv1
I0308 15:30:55.688639 31267 net.cpp:129] Top shape: 1 128 64 128 (1048576)
I0308 15:30:55.688654 31267 net.cpp:137] Memory required for data: 637534208
I0308 15:30:55.688664 31267 layer_factory.hpp:77] Creating layer res3.3.conv1/relu
I0308 15:30:55.688671 31267 net.cpp:84] Creating Layer res3.3.conv1/relu
I0308 15:30:55.688675 31267 net.cpp:406] res3.3.conv1/relu <- res3.3.conv1
I0308 15:30:55.688683 31267 net.cpp:367] res3.3.conv1/relu -> res3.3.conv1 (in-place)
I0308 15:30:55.689308 31267 net.cpp:122] Setting up res3.3.conv1/relu
I0308 15:30:55.689324 31267 net.cpp:129] Top shape: 1 128 64 128 (1048576)
I0308 15:30:55.689327 31267 net.cpp:137] Memory required for data: 641728512
I0308 15:30:55.689332 31267 layer_factory.hpp:77] Creating layer res3.3.conv2
I0308 15:30:55.689340 31267 net.cpp:84] Creating Layer res3.3.conv2
I0308 15:30:55.689354 31267 net.cpp:406] res3.3.conv2 <- res3.3.conv1
I0308 15:30:55.689363 31267 net.cpp:380] res3.3.conv2 -> res3.3.conv2
I0308 15:30:55.692183 31267 net.cpp:122] Setting up res3.3.conv2
I0308 15:30:55.692199 31267 net.cpp:129] Top shape: 1 128 64 128 (1048576)
I0308 15:30:55.692203 31267 net.cpp:137] Memory required for data: 645922816
I0308 15:30:55.692217 31267 layer_factory.hpp:77] Creating layer res3.3.sum
I0308 15:30:55.692225 31267 net.cpp:84] Creating Layer res3.3.sum
I0308 15:30:55.692229 31267 net.cpp:406] res3.3.sum <- res3.3.conv2
I0308 15:30:55.692234 31267 net.cpp:406] res3.3.sum <- res3.2.sum_res3.2.relu_0_split_1
I0308 15:30:55.692250 31267 net.cpp:380] res3.3.sum -> res3.3.sum
I0308 15:30:55.692291 31267 net.cpp:122] Setting up res3.3.sum
I0308 15:30:55.692299 31267 net.cpp:129] Top shape: 1 128 64 128 (1048576)
I0308 15:30:55.692303 31267 net.cpp:137] Memory required for data: 650117120
I0308 15:30:55.692306 31267 layer_factory.hpp:77] Creating layer res3.3.relu
I0308 15:30:55.692312 31267 net.cpp:84] Creating Layer res3.3.relu
I0308 15:30:55.692315 31267 net.cpp:406] res3.3.relu <- res3.3.sum
I0308 15:30:55.692322 31267 net.cpp:367] res3.3.relu -> res3.3.sum (in-place)
I0308 15:30:55.692790 31267 net.cpp:122] Setting up res3.3.relu
I0308 15:30:55.692802 31267 net.cpp:129] Top shape: 1 128 64 128 (1048576)
I0308 15:30:55.692806 31267 net.cpp:137] Memory required for data: 654311424
I0308 15:30:55.692809 31267 layer_factory.hpp:77] Creating layer res3.3.sum_res3.3.relu_0_split
I0308 15:30:55.692816 31267 net.cpp:84] Creating Layer res3.3.sum_res3.3.relu_0_split
I0308 15:30:55.692818 31267 net.cpp:406] res3.3.sum_res3.3.relu_0_split <- res3.3.sum
I0308 15:30:55.692826 31267 net.cpp:380] res3.3.sum_res3.3.relu_0_split -> res3.3.sum_res3.3.relu_0_split_0
I0308 15:30:55.692831 31267 net.cpp:380] res3.3.sum_res3.3.relu_0_split -> res3.3.sum_res3.3.relu_0_split_1
I0308 15:30:55.692895 31267 net.cpp:122] Setting up res3.3.sum_res3.3.relu_0_split
I0308 15:30:55.692903 31267 net.cpp:129] Top shape: 1 128 64 128 (1048576)
I0308 15:30:55.692908 31267 net.cpp:129] Top shape: 1 128 64 128 (1048576)
I0308 15:30:55.692910 31267 net.cpp:137] Memory required for data: 662700032
I0308 15:30:55.692914 31267 layer_factory.hpp:77] Creating layer res3.4.conv1
I0308 15:30:55.692920 31267 net.cpp:84] Creating Layer res3.4.conv1
I0308 15:30:55.692924 31267 net.cpp:406] res3.4.conv1 <- res3.3.sum_res3.3.relu_0_split_0
I0308 15:30:55.692930 31267 net.cpp:380] res3.4.conv1 -> res3.4.conv1
I0308 15:30:55.695612 31267 net.cpp:122] Setting up res3.4.conv1
I0308 15:30:55.695631 31267 net.cpp:129] Top shape: 1 128 64 128 (1048576)
I0308 15:30:55.695634 31267 net.cpp:137] Memory required for data: 666894336
I0308 15:30:55.695641 31267 layer_factory.hpp:77] Creating layer res3.4.conv1/relu
I0308 15:30:55.695648 31267 net.cpp:84] Creating Layer res3.4.conv1/relu
I0308 15:30:55.695652 31267 net.cpp:406] res3.4.conv1/relu <- res3.4.conv1
I0308 15:30:55.695657 31267 net.cpp:367] res3.4.conv1/relu -> res3.4.conv1 (in-place)
I0308 15:30:55.696306 31267 net.cpp:122] Setting up res3.4.conv1/relu
I0308 15:30:55.696321 31267 net.cpp:129] Top shape: 1 128 64 128 (1048576)
I0308 15:30:55.696326 31267 net.cpp:137] Memory required for data: 671088640
I0308 15:30:55.696328 31267 layer_factory.hpp:77] Creating layer res3.4.conv2
I0308 15:30:55.696337 31267 net.cpp:84] Creating Layer res3.4.conv2
I0308 15:30:55.696341 31267 net.cpp:406] res3.4.conv2 <- res3.4.conv1
I0308 15:30:55.696348 31267 net.cpp:380] res3.4.conv2 -> res3.4.conv2
I0308 15:30:55.699021 31267 net.cpp:122] Setting up res3.4.conv2
I0308 15:30:55.699038 31267 net.cpp:129] Top shape: 1 128 64 128 (1048576)
I0308 15:30:55.699041 31267 net.cpp:137] Memory required for data: 675282944
I0308 15:30:55.699048 31267 layer_factory.hpp:77] Creating layer res3.4.sum
I0308 15:30:55.699074 31267 net.cpp:84] Creating Layer res3.4.sum
I0308 15:30:55.699080 31267 net.cpp:406] res3.4.sum <- res3.4.conv2
I0308 15:30:55.699085 31267 net.cpp:406] res3.4.sum <- res3.3.sum_res3.3.relu_0_split_1
I0308 15:30:55.699115 31267 net.cpp:380] res3.4.sum -> res3.4.sum
I0308 15:30:55.699165 31267 net.cpp:122] Setting up res3.4.sum
I0308 15:30:55.699173 31267 net.cpp:129] Top shape: 1 128 64 128 (1048576)
I0308 15:30:55.699177 31267 net.cpp:137] Memory required for data: 679477248
I0308 15:30:55.699179 31267 layer_factory.hpp:77] Creating layer res3.4.relu
I0308 15:30:55.699187 31267 net.cpp:84] Creating Layer res3.4.relu
I0308 15:30:55.699192 31267 net.cpp:406] res3.4.relu <- res3.4.sum
I0308 15:30:55.699195 31267 net.cpp:367] res3.4.relu -> res3.4.sum (in-place)
I0308 15:30:55.699841 31267 net.cpp:122] Setting up res3.4.relu
I0308 15:30:55.699858 31267 net.cpp:129] Top shape: 1 128 64 128 (1048576)
I0308 15:30:55.699862 31267 net.cpp:137] Memory required for data: 683671552
I0308 15:30:55.699865 31267 layer_factory.hpp:77] Creating layer res3.4.sum_res3.4.relu_0_split
I0308 15:30:55.699872 31267 net.cpp:84] Creating Layer res3.4.sum_res3.4.relu_0_split
I0308 15:30:55.699874 31267 net.cpp:406] res3.4.sum_res3.4.relu_0_split <- res3.4.sum
I0308 15:30:55.699882 31267 net.cpp:380] res3.4.sum_res3.4.relu_0_split -> res3.4.sum_res3.4.relu_0_split_0
I0308 15:30:55.699887 31267 net.cpp:380] res3.4.sum_res3.4.relu_0_split -> res3.4.sum_res3.4.relu_0_split_1
I0308 15:30:55.699954 31267 net.cpp:122] Setting up res3.4.sum_res3.4.relu_0_split
I0308 15:30:55.699964 31267 net.cpp:129] Top shape: 1 128 64 128 (1048576)
I0308 15:30:55.699967 31267 net.cpp:129] Top shape: 1 128 64 128 (1048576)
I0308 15:30:55.699970 31267 net.cpp:137] Memory required for data: 692060160
I0308 15:30:55.699975 31267 layer_factory.hpp:77] Creating layer res3.5.conv1
I0308 15:30:55.699981 31267 net.cpp:84] Creating Layer res3.5.conv1
I0308 15:30:55.699985 31267 net.cpp:406] res3.5.conv1 <- res3.4.sum_res3.4.relu_0_split_0
I0308 15:30:55.699991 31267 net.cpp:380] res3.5.conv1 -> res3.5.conv1
I0308 15:30:55.702637 31267 net.cpp:122] Setting up res3.5.conv1
I0308 15:30:55.702654 31267 net.cpp:129] Top shape: 1 128 64 128 (1048576)
I0308 15:30:55.702669 31267 net.cpp:137] Memory required for data: 696254464
I0308 15:30:55.702677 31267 layer_factory.hpp:77] Creating layer res3.5.conv1/relu
I0308 15:30:55.702684 31267 net.cpp:84] Creating Layer res3.5.conv1/relu
I0308 15:30:55.702688 31267 net.cpp:406] res3.5.conv1/relu <- res3.5.conv1
I0308 15:30:55.702693 31267 net.cpp:367] res3.5.conv1/relu -> res3.5.conv1 (in-place)
I0308 15:30:55.703191 31267 net.cpp:122] Setting up res3.5.conv1/relu
I0308 15:30:55.703204 31267 net.cpp:129] Top shape: 1 128 64 128 (1048576)
I0308 15:30:55.703220 31267 net.cpp:137] Memory required for data: 700448768
I0308 15:30:55.703223 31267 layer_factory.hpp:77] Creating layer res3.5.conv2
I0308 15:30:55.703233 31267 net.cpp:84] Creating Layer res3.5.conv2
I0308 15:30:55.703238 31267 net.cpp:406] res3.5.conv2 <- res3.5.conv1
I0308 15:30:55.703243 31267 net.cpp:380] res3.5.conv2 -> res3.5.conv2
I0308 15:30:55.705927 31267 net.cpp:122] Setting up res3.5.conv2
I0308 15:30:55.705956 31267 net.cpp:129] Top shape: 1 128 64 128 (1048576)
I0308 15:30:55.705960 31267 net.cpp:137] Memory required for data: 704643072
I0308 15:30:55.705967 31267 layer_factory.hpp:77] Creating layer res3.5.sum
I0308 15:30:55.705976 31267 net.cpp:84] Creating Layer res3.5.sum
I0308 15:30:55.705979 31267 net.cpp:406] res3.5.sum <- res3.5.conv2
I0308 15:30:55.705984 31267 net.cpp:406] res3.5.sum <- res3.4.sum_res3.4.relu_0_split_1
I0308 15:30:55.705991 31267 net.cpp:380] res3.5.sum -> res3.5.sum
I0308 15:30:55.706032 31267 net.cpp:122] Setting up res3.5.sum
I0308 15:30:55.706043 31267 net.cpp:129] Top shape: 1 128 64 128 (1048576)
I0308 15:30:55.706045 31267 net.cpp:137] Memory required for data: 708837376
I0308 15:30:55.706049 31267 layer_factory.hpp:77] Creating layer res3.5.relu
I0308 15:30:55.706054 31267 net.cpp:84] Creating Layer res3.5.relu
I0308 15:30:55.706058 31267 net.cpp:406] res3.5.relu <- res3.5.sum
I0308 15:30:55.706063 31267 net.cpp:367] res3.5.relu -> res3.5.sum (in-place)
I0308 15:30:55.706699 31267 net.cpp:122] Setting up res3.5.relu
I0308 15:30:55.706737 31267 net.cpp:129] Top shape: 1 128 64 128 (1048576)
I0308 15:30:55.706743 31267 net.cpp:137] Memory required for data: 713031680
I0308 15:30:55.706746 31267 layer_factory.hpp:77] Creating layer res3.5.sum_res3.5.relu_0_split
I0308 15:30:55.706753 31267 net.cpp:84] Creating Layer res3.5.sum_res3.5.relu_0_split
I0308 15:30:55.706758 31267 net.cpp:406] res3.5.sum_res3.5.relu_0_split <- res3.5.sum
I0308 15:30:55.706764 31267 net.cpp:380] res3.5.sum_res3.5.relu_0_split -> res3.5.sum_res3.5.relu_0_split_0
I0308 15:30:55.706771 31267 net.cpp:380] res3.5.sum_res3.5.relu_0_split -> res3.5.sum_res3.5.relu_0_split_1
I0308 15:30:55.706830 31267 net.cpp:122] Setting up res3.5.sum_res3.5.relu_0_split
I0308 15:30:55.706837 31267 net.cpp:129] Top shape: 1 128 64 128 (1048576)
I0308 15:30:55.706841 31267 net.cpp:129] Top shape: 1 128 64 128 (1048576)
I0308 15:30:55.706845 31267 net.cpp:137] Memory required for data: 721420288
I0308 15:30:55.706847 31267 layer_factory.hpp:77] Creating layer res3.6.conv1
I0308 15:30:55.706856 31267 net.cpp:84] Creating Layer res3.6.conv1
I0308 15:30:55.706861 31267 net.cpp:406] res3.6.conv1 <- res3.5.sum_res3.5.relu_0_split_0
I0308 15:30:55.706866 31267 net.cpp:380] res3.6.conv1 -> res3.6.conv1
I0308 15:30:55.709594 31267 net.cpp:122] Setting up res3.6.conv1
I0308 15:30:55.709611 31267 net.cpp:129] Top shape: 1 128 64 128 (1048576)
I0308 15:30:55.709626 31267 net.cpp:137] Memory required for data: 725614592
I0308 15:30:55.709635 31267 layer_factory.hpp:77] Creating layer res3.6.conv1/relu
I0308 15:30:55.709641 31267 net.cpp:84] Creating Layer res3.6.conv1/relu
I0308 15:30:55.709645 31267 net.cpp:406] res3.6.conv1/relu <- res3.6.conv1
I0308 15:30:55.709652 31267 net.cpp:367] res3.6.conv1/relu -> res3.6.conv1 (in-place)
I0308 15:30:55.710131 31267 net.cpp:122] Setting up res3.6.conv1/relu
I0308 15:30:55.710144 31267 net.cpp:129] Top shape: 1 128 64 128 (1048576)
I0308 15:30:55.710147 31267 net.cpp:137] Memory required for data: 729808896
I0308 15:30:55.710151 31267 layer_factory.hpp:77] Creating layer res3.6.conv2
I0308 15:30:55.710160 31267 net.cpp:84] Creating Layer res3.6.conv2
I0308 15:30:55.710165 31267 net.cpp:406] res3.6.conv2 <- res3.6.conv1
I0308 15:30:55.710170 31267 net.cpp:380] res3.6.conv2 -> res3.6.conv2
I0308 15:30:55.712924 31267 net.cpp:122] Setting up res3.6.conv2
I0308 15:30:55.712941 31267 net.cpp:129] Top shape: 1 128 64 128 (1048576)
I0308 15:30:55.712945 31267 net.cpp:137] Memory required for data: 734003200
I0308 15:30:55.712952 31267 layer_factory.hpp:77] Creating layer res3.6.sum
I0308 15:30:55.712960 31267 net.cpp:84] Creating Layer res3.6.sum
I0308 15:30:55.712965 31267 net.cpp:406] res3.6.sum <- res3.6.conv2
I0308 15:30:55.712970 31267 net.cpp:406] res3.6.sum <- res3.5.sum_res3.5.relu_0_split_1
I0308 15:30:55.712975 31267 net.cpp:380] res3.6.sum -> res3.6.sum
I0308 15:30:55.713029 31267 net.cpp:122] Setting up res3.6.sum
I0308 15:30:55.713039 31267 net.cpp:129] Top shape: 1 128 64 128 (1048576)
I0308 15:30:55.713042 31267 net.cpp:137] Memory required for data: 738197504
I0308 15:30:55.713045 31267 layer_factory.hpp:77] Creating layer res3.6.relu
I0308 15:30:55.713052 31267 net.cpp:84] Creating Layer res3.6.relu
I0308 15:30:55.713054 31267 net.cpp:406] res3.6.relu <- res3.6.sum
I0308 15:30:55.713060 31267 net.cpp:367] res3.6.relu -> res3.6.sum (in-place)
I0308 15:30:55.713685 31267 net.cpp:122] Setting up res3.6.relu
I0308 15:30:55.713701 31267 net.cpp:129] Top shape: 1 128 64 128 (1048576)
I0308 15:30:55.713716 31267 net.cpp:137] Memory required for data: 742391808
I0308 15:30:55.713719 31267 layer_factory.hpp:77] Creating layer res3.6.sum_res3.6.relu_0_split
I0308 15:30:55.713728 31267 net.cpp:84] Creating Layer res3.6.sum_res3.6.relu_0_split
I0308 15:30:55.713732 31267 net.cpp:406] res3.6.sum_res3.6.relu_0_split <- res3.6.sum
I0308 15:30:55.713737 31267 net.cpp:380] res3.6.sum_res3.6.relu_0_split -> res3.6.sum_res3.6.relu_0_split_0
I0308 15:30:55.713744 31267 net.cpp:380] res3.6.sum_res3.6.relu_0_split -> res3.6.sum_res3.6.relu_0_split_1
I0308 15:30:55.713816 31267 net.cpp:122] Setting up res3.6.sum_res3.6.relu_0_split
I0308 15:30:55.713826 31267 net.cpp:129] Top shape: 1 128 64 128 (1048576)
I0308 15:30:55.713830 31267 net.cpp:129] Top shape: 1 128 64 128 (1048576)
I0308 15:30:55.713834 31267 net.cpp:137] Memory required for data: 750780416
I0308 15:30:55.713836 31267 layer_factory.hpp:77] Creating layer res3.7.conv1
I0308 15:30:55.713845 31267 net.cpp:84] Creating Layer res3.7.conv1
I0308 15:30:55.713848 31267 net.cpp:406] res3.7.conv1 <- res3.6.sum_res3.6.relu_0_split_0
I0308 15:30:55.713855 31267 net.cpp:380] res3.7.conv1 -> res3.7.conv1
I0308 15:30:55.716631 31267 net.cpp:122] Setting up res3.7.conv1
I0308 15:30:55.716661 31267 net.cpp:129] Top shape: 1 128 64 128 (1048576)
I0308 15:30:55.716666 31267 net.cpp:137] Memory required for data: 754974720
I0308 15:30:55.716673 31267 layer_factory.hpp:77] Creating layer res3.7.conv1/relu
I0308 15:30:55.716687 31267 net.cpp:84] Creating Layer res3.7.conv1/relu
I0308 15:30:55.716691 31267 net.cpp:406] res3.7.conv1/relu <- res3.7.conv1
I0308 15:30:55.716696 31267 net.cpp:367] res3.7.conv1/relu -> res3.7.conv1 (in-place)
I0308 15:30:55.717337 31267 net.cpp:122] Setting up res3.7.conv1/relu
I0308 15:30:55.717353 31267 net.cpp:129] Top shape: 1 128 64 128 (1048576)
I0308 15:30:55.717356 31267 net.cpp:137] Memory required for data: 759169024
I0308 15:30:55.717360 31267 layer_factory.hpp:77] Creating layer res3.7.conv2
I0308 15:30:55.717370 31267 net.cpp:84] Creating Layer res3.7.conv2
I0308 15:30:55.717375 31267 net.cpp:406] res3.7.conv2 <- res3.7.conv1
I0308 15:30:55.717380 31267 net.cpp:380] res3.7.conv2 -> res3.7.conv2
I0308 15:30:55.720274 31267 net.cpp:122] Setting up res3.7.conv2
I0308 15:30:55.720291 31267 net.cpp:129] Top shape: 1 128 64 128 (1048576)
I0308 15:30:55.720295 31267 net.cpp:137] Memory required for data: 763363328
I0308 15:30:55.720302 31267 layer_factory.hpp:77] Creating layer res3.7.sum
I0308 15:30:55.720309 31267 net.cpp:84] Creating Layer res3.7.sum
I0308 15:30:55.720314 31267 net.cpp:406] res3.7.sum <- res3.7.conv2
I0308 15:30:55.720319 31267 net.cpp:406] res3.7.sum <- res3.6.sum_res3.6.relu_0_split_1
I0308 15:30:55.720324 31267 net.cpp:380] res3.7.sum -> res3.7.sum
I0308 15:30:55.720379 31267 net.cpp:122] Setting up res3.7.sum
I0308 15:30:55.720388 31267 net.cpp:129] Top shape: 1 128 64 128 (1048576)
I0308 15:30:55.720392 31267 net.cpp:137] Memory required for data: 767557632
I0308 15:30:55.720396 31267 layer_factory.hpp:77] Creating layer res3.7.relu
I0308 15:30:55.720401 31267 net.cpp:84] Creating Layer res3.7.relu
I0308 15:30:55.720404 31267 net.cpp:406] res3.7.relu <- res3.7.sum
I0308 15:30:55.720408 31267 net.cpp:367] res3.7.relu -> res3.7.sum (in-place)
I0308 15:30:55.720881 31267 net.cpp:122] Setting up res3.7.relu
I0308 15:30:55.720894 31267 net.cpp:129] Top shape: 1 128 64 128 (1048576)
I0308 15:30:55.720909 31267 net.cpp:137] Memory required for data: 771751936
I0308 15:30:55.720913 31267 layer_factory.hpp:77] Creating layer res3.7.sum_res3.7.relu_0_split
I0308 15:30:55.720918 31267 net.cpp:84] Creating Layer res3.7.sum_res3.7.relu_0_split
I0308 15:30:55.720922 31267 net.cpp:406] res3.7.sum_res3.7.relu_0_split <- res3.7.sum
I0308 15:30:55.720928 31267 net.cpp:380] res3.7.sum_res3.7.relu_0_split -> res3.7.sum_res3.7.relu_0_split_0
I0308 15:30:55.720934 31267 net.cpp:380] res3.7.sum_res3.7.relu_0_split -> res3.7.sum_res3.7.relu_0_split_1
I0308 15:30:55.720994 31267 net.cpp:122] Setting up res3.7.sum_res3.7.relu_0_split
I0308 15:30:55.721001 31267 net.cpp:129] Top shape: 1 128 64 128 (1048576)
I0308 15:30:55.721005 31267 net.cpp:129] Top shape: 1 128 64 128 (1048576)
I0308 15:30:55.721009 31267 net.cpp:137] Memory required for data: 780140544
I0308 15:30:55.721011 31267 layer_factory.hpp:77] Creating layer res3.8.conv1
I0308 15:30:55.721020 31267 net.cpp:84] Creating Layer res3.8.conv1
I0308 15:30:55.721024 31267 net.cpp:406] res3.8.conv1 <- res3.7.sum_res3.7.relu_0_split_0
I0308 15:30:55.721030 31267 net.cpp:380] res3.8.conv1 -> res3.8.conv1
I0308 15:30:55.723778 31267 net.cpp:122] Setting up res3.8.conv1
I0308 15:30:55.723804 31267 net.cpp:129] Top shape: 1 128 64 128 (1048576)
I0308 15:30:55.723809 31267 net.cpp:137] Memory required for data: 784334848
I0308 15:30:55.723816 31267 layer_factory.hpp:77] Creating layer res3.8.conv1/relu
I0308 15:30:55.723824 31267 net.cpp:84] Creating Layer res3.8.conv1/relu
I0308 15:30:55.723829 31267 net.cpp:406] res3.8.conv1/relu <- res3.8.conv1
I0308 15:30:55.723834 31267 net.cpp:367] res3.8.conv1/relu -> res3.8.conv1 (in-place)
I0308 15:30:55.724486 31267 net.cpp:122] Setting up res3.8.conv1/relu
I0308 15:30:55.724503 31267 net.cpp:129] Top shape: 1 128 64 128 (1048576)
I0308 15:30:55.724506 31267 net.cpp:137] Memory required for data: 788529152
I0308 15:30:55.724509 31267 layer_factory.hpp:77] Creating layer res3.8.conv2
I0308 15:30:55.724519 31267 net.cpp:84] Creating Layer res3.8.conv2
I0308 15:30:55.724524 31267 net.cpp:406] res3.8.conv2 <- res3.8.conv1
I0308 15:30:55.724529 31267 net.cpp:380] res3.8.conv2 -> res3.8.conv2
I0308 15:30:55.727274 31267 net.cpp:122] Setting up res3.8.conv2
I0308 15:30:55.727291 31267 net.cpp:129] Top shape: 1 128 64 128 (1048576)
I0308 15:30:55.727308 31267 net.cpp:137] Memory required for data: 792723456
I0308 15:30:55.727316 31267 layer_factory.hpp:77] Creating layer res3.8.sum
I0308 15:30:55.727324 31267 net.cpp:84] Creating Layer res3.8.sum
I0308 15:30:55.727327 31267 net.cpp:406] res3.8.sum <- res3.8.conv2
I0308 15:30:55.727344 31267 net.cpp:406] res3.8.sum <- res3.7.sum_res3.7.relu_0_split_1
I0308 15:30:55.727349 31267 net.cpp:380] res3.8.sum -> res3.8.sum
I0308 15:30:55.727407 31267 net.cpp:122] Setting up res3.8.sum
I0308 15:30:55.727416 31267 net.cpp:129] Top shape: 1 128 64 128 (1048576)
I0308 15:30:55.727419 31267 net.cpp:137] Memory required for data: 796917760
I0308 15:30:55.727423 31267 layer_factory.hpp:77] Creating layer res3.8.relu
I0308 15:30:55.727428 31267 net.cpp:84] Creating Layer res3.8.relu
I0308 15:30:55.727432 31267 net.cpp:406] res3.8.relu <- res3.8.sum
I0308 15:30:55.727438 31267 net.cpp:367] res3.8.relu -> res3.8.sum (in-place)
I0308 15:30:55.727938 31267 net.cpp:122] Setting up res3.8.relu
I0308 15:30:55.727952 31267 net.cpp:129] Top shape: 1 128 64 128 (1048576)
I0308 15:30:55.727954 31267 net.cpp:137] Memory required for data: 801112064
I0308 15:30:55.727958 31267 layer_factory.hpp:77] Creating layer res3.8.sum_res3.8.relu_0_split
I0308 15:30:55.727963 31267 net.cpp:84] Creating Layer res3.8.sum_res3.8.relu_0_split
I0308 15:30:55.727967 31267 net.cpp:406] res3.8.sum_res3.8.relu_0_split <- res3.8.sum
I0308 15:30:55.727974 31267 net.cpp:380] res3.8.sum_res3.8.relu_0_split -> res3.8.sum_res3.8.relu_0_split_0
I0308 15:30:55.727980 31267 net.cpp:380] res3.8.sum_res3.8.relu_0_split -> res3.8.sum_res3.8.relu_0_split_1
I0308 15:30:55.728051 31267 net.cpp:122] Setting up res3.8.sum_res3.8.relu_0_split
I0308 15:30:55.728060 31267 net.cpp:129] Top shape: 1 128 64 128 (1048576)
I0308 15:30:55.728063 31267 net.cpp:129] Top shape: 1 128 64 128 (1048576)
I0308 15:30:55.728066 31267 net.cpp:137] Memory required for data: 809500672
I0308 15:30:55.728070 31267 layer_factory.hpp:77] Creating layer res3.9.conv1
I0308 15:30:55.728077 31267 net.cpp:84] Creating Layer res3.9.conv1
I0308 15:30:55.728080 31267 net.cpp:406] res3.9.conv1 <- res3.8.sum_res3.8.relu_0_split_0
I0308 15:30:55.728088 31267 net.cpp:380] res3.9.conv1 -> res3.9.conv1
I0308 15:30:55.730806 31267 net.cpp:122] Setting up res3.9.conv1
I0308 15:30:55.730823 31267 net.cpp:129] Top shape: 1 128 64 128 (1048576)
I0308 15:30:55.730828 31267 net.cpp:137] Memory required for data: 813694976
I0308 15:30:55.730834 31267 layer_factory.hpp:77] Creating layer res3.9.conv1/relu
I0308 15:30:55.730842 31267 net.cpp:84] Creating Layer res3.9.conv1/relu
I0308 15:30:55.730846 31267 net.cpp:406] res3.9.conv1/relu <- res3.9.conv1
I0308 15:30:55.730851 31267 net.cpp:367] res3.9.conv1/relu -> res3.9.conv1 (in-place)
I0308 15:30:55.731540 31267 net.cpp:122] Setting up res3.9.conv1/relu
I0308 15:30:55.731555 31267 net.cpp:129] Top shape: 1 128 64 128 (1048576)
I0308 15:30:55.731570 31267 net.cpp:137] Memory required for data: 817889280
I0308 15:30:55.731573 31267 layer_factory.hpp:77] Creating layer res3.9.conv2
I0308 15:30:55.731582 31267 net.cpp:84] Creating Layer res3.9.conv2
I0308 15:30:55.731586 31267 net.cpp:406] res3.9.conv2 <- res3.9.conv1
I0308 15:30:55.731592 31267 net.cpp:380] res3.9.conv2 -> res3.9.conv2
I0308 15:30:55.734442 31267 net.cpp:122] Setting up res3.9.conv2
I0308 15:30:55.734459 31267 net.cpp:129] Top shape: 1 128 64 128 (1048576)
I0308 15:30:55.734464 31267 net.cpp:137] Memory required for data: 822083584
I0308 15:30:55.734472 31267 layer_factory.hpp:77] Creating layer res3.9.sum
I0308 15:30:55.734478 31267 net.cpp:84] Creating Layer res3.9.sum
I0308 15:30:55.734483 31267 net.cpp:406] res3.9.sum <- res3.9.conv2
I0308 15:30:55.734488 31267 net.cpp:406] res3.9.sum <- res3.8.sum_res3.8.relu_0_split_1
I0308 15:30:55.734491 31267 net.cpp:380] res3.9.sum -> res3.9.sum
I0308 15:30:55.734549 31267 net.cpp:122] Setting up res3.9.sum
I0308 15:30:55.734560 31267 net.cpp:129] Top shape: 1 128 64 128 (1048576)
I0308 15:30:55.734562 31267 net.cpp:137] Memory required for data: 826277888
I0308 15:30:55.734565 31267 layer_factory.hpp:77] Creating layer res3.9.relu
I0308 15:30:55.734571 31267 net.cpp:84] Creating Layer res3.9.relu
I0308 15:30:55.734575 31267 net.cpp:406] res3.9.relu <- res3.9.sum
I0308 15:30:55.734580 31267 net.cpp:367] res3.9.relu -> res3.9.sum (in-place)
I0308 15:30:55.735285 31267 net.cpp:122] Setting up res3.9.relu
I0308 15:30:55.735301 31267 net.cpp:129] Top shape: 1 128 64 128 (1048576)
I0308 15:30:55.735317 31267 net.cpp:137] Memory required for data: 830472192
I0308 15:30:55.735321 31267 layer_factory.hpp:77] Creating layer res3.9.sum_res3.9.relu_0_split
I0308 15:30:55.735328 31267 net.cpp:84] Creating Layer res3.9.sum_res3.9.relu_0_split
I0308 15:30:55.735333 31267 net.cpp:406] res3.9.sum_res3.9.relu_0_split <- res3.9.sum
I0308 15:30:55.735339 31267 net.cpp:380] res3.9.sum_res3.9.relu_0_split -> res3.9.sum_res3.9.relu_0_split_0
I0308 15:30:55.735347 31267 net.cpp:380] res3.9.sum_res3.9.relu_0_split -> res3.9.sum_res3.9.relu_0_split_1
I0308 15:30:55.735437 31267 net.cpp:122] Setting up res3.9.sum_res3.9.relu_0_split
I0308 15:30:55.735446 31267 net.cpp:129] Top shape: 1 128 64 128 (1048576)
I0308 15:30:55.735450 31267 net.cpp:129] Top shape: 1 128 64 128 (1048576)
I0308 15:30:55.735453 31267 net.cpp:137] Memory required for data: 838860800
I0308 15:30:55.735456 31267 layer_factory.hpp:77] Creating layer res3.10.conv1
I0308 15:30:55.735464 31267 net.cpp:84] Creating Layer res3.10.conv1
I0308 15:30:55.735468 31267 net.cpp:406] res3.10.conv1 <- res3.9.sum_res3.9.relu_0_split_0
I0308 15:30:55.735476 31267 net.cpp:380] res3.10.conv1 -> res3.10.conv1
I0308 15:30:55.738227 31267 net.cpp:122] Setting up res3.10.conv1
I0308 15:30:55.738243 31267 net.cpp:129] Top shape: 1 128 64 128 (1048576)
I0308 15:30:55.738260 31267 net.cpp:137] Memory required for data: 843055104
I0308 15:30:55.738273 31267 layer_factory.hpp:77] Creating layer res3.10.conv1/relu
I0308 15:30:55.738282 31267 net.cpp:84] Creating Layer res3.10.conv1/relu
I0308 15:30:55.738287 31267 net.cpp:406] res3.10.conv1/relu <- res3.10.conv1
I0308 15:30:55.738293 31267 net.cpp:367] res3.10.conv1/relu -> res3.10.conv1 (in-place)
I0308 15:30:55.738775 31267 net.cpp:122] Setting up res3.10.conv1/relu
I0308 15:30:55.738790 31267 net.cpp:129] Top shape: 1 128 64 128 (1048576)
I0308 15:30:55.738792 31267 net.cpp:137] Memory required for data: 847249408
I0308 15:30:55.738796 31267 layer_factory.hpp:77] Creating layer res3.10.conv2
I0308 15:30:55.738806 31267 net.cpp:84] Creating Layer res3.10.conv2
I0308 15:30:55.738809 31267 net.cpp:406] res3.10.conv2 <- res3.10.conv1
I0308 15:30:55.738814 31267 net.cpp:380] res3.10.conv2 -> res3.10.conv2
I0308 15:30:55.741618 31267 net.cpp:122] Setting up res3.10.conv2
I0308 15:30:55.741634 31267 net.cpp:129] Top shape: 1 128 64 128 (1048576)
I0308 15:30:55.741638 31267 net.cpp:137] Memory required for data: 851443712
I0308 15:30:55.741647 31267 layer_factory.hpp:77] Creating layer res3.10.sum
I0308 15:30:55.741664 31267 net.cpp:84] Creating Layer res3.10.sum
I0308 15:30:55.741669 31267 net.cpp:406] res3.10.sum <- res3.10.conv2
I0308 15:30:55.741685 31267 net.cpp:406] res3.10.sum <- res3.9.sum_res3.9.relu_0_split_1
I0308 15:30:55.741693 31267 net.cpp:380] res3.10.sum -> res3.10.sum
I0308 15:30:55.741739 31267 net.cpp:122] Setting up res3.10.sum
I0308 15:30:55.741749 31267 net.cpp:129] Top shape: 1 128 64 128 (1048576)
I0308 15:30:55.741752 31267 net.cpp:137] Memory required for data: 855638016
I0308 15:30:55.741755 31267 layer_factory.hpp:77] Creating layer res3.10.relu
I0308 15:30:55.741762 31267 net.cpp:84] Creating Layer res3.10.relu
I0308 15:30:55.741766 31267 net.cpp:406] res3.10.relu <- res3.10.sum
I0308 15:30:55.741770 31267 net.cpp:367] res3.10.relu -> res3.10.sum (in-place)
I0308 15:30:55.742431 31267 net.cpp:122] Setting up res3.10.relu
I0308 15:30:55.742446 31267 net.cpp:129] Top shape: 1 128 64 128 (1048576)
I0308 15:30:55.742462 31267 net.cpp:137] Memory required for data: 859832320
I0308 15:30:55.742465 31267 layer_factory.hpp:77] Creating layer res3.10.sum_res3.10.relu_0_split
I0308 15:30:55.742472 31267 net.cpp:84] Creating Layer res3.10.sum_res3.10.relu_0_split
I0308 15:30:55.742476 31267 net.cpp:406] res3.10.sum_res3.10.relu_0_split <- res3.10.sum
I0308 15:30:55.742483 31267 net.cpp:380] res3.10.sum_res3.10.relu_0_split -> res3.10.sum_res3.10.relu_0_split_0
I0308 15:30:55.742491 31267 net.cpp:380] res3.10.sum_res3.10.relu_0_split -> res3.10.sum_res3.10.relu_0_split_1
I0308 15:30:55.742553 31267 net.cpp:122] Setting up res3.10.sum_res3.10.relu_0_split
I0308 15:30:55.742563 31267 net.cpp:129] Top shape: 1 128 64 128 (1048576)
I0308 15:30:55.742568 31267 net.cpp:129] Top shape: 1 128 64 128 (1048576)
I0308 15:30:55.742570 31267 net.cpp:137] Memory required for data: 868220928
I0308 15:30:55.742573 31267 layer_factory.hpp:77] Creating layer res3.11.conv1
I0308 15:30:55.742581 31267 net.cpp:84] Creating Layer res3.11.conv1
I0308 15:30:55.742585 31267 net.cpp:406] res3.11.conv1 <- res3.10.sum_res3.10.relu_0_split_0
I0308 15:30:55.742591 31267 net.cpp:380] res3.11.conv1 -> res3.11.conv1
I0308 15:30:55.745558 31267 net.cpp:122] Setting up res3.11.conv1
I0308 15:30:55.745574 31267 net.cpp:129] Top shape: 1 256 64 128 (2097152)
I0308 15:30:55.745589 31267 net.cpp:137] Memory required for data: 876609536
I0308 15:30:55.745597 31267 layer_factory.hpp:77] Creating layer res3.11.conv1/relu
I0308 15:30:55.745604 31267 net.cpp:84] Creating Layer res3.11.conv1/relu
I0308 15:30:55.745609 31267 net.cpp:406] res3.11.conv1/relu <- res3.11.conv1
I0308 15:30:55.745613 31267 net.cpp:367] res3.11.conv1/relu -> res3.11.conv1 (in-place)
I0308 15:30:55.746106 31267 net.cpp:122] Setting up res3.11.conv1/relu
I0308 15:30:55.746119 31267 net.cpp:129] Top shape: 1 256 64 128 (2097152)
I0308 15:30:55.746134 31267 net.cpp:137] Memory required for data: 884998144
I0308 15:30:55.746138 31267 layer_factory.hpp:77] Creating layer res3.11.conv2
I0308 15:30:55.746147 31267 net.cpp:84] Creating Layer res3.11.conv2
I0308 15:30:55.746151 31267 net.cpp:406] res3.11.conv2 <- res3.11.conv1
I0308 15:30:55.746157 31267 net.cpp:380] res3.11.conv2 -> res3.11.conv2
I0308 15:30:55.749644 31267 net.cpp:122] Setting up res3.11.conv2
I0308 15:30:55.749660 31267 net.cpp:129] Top shape: 1 256 64 128 (2097152)
I0308 15:30:55.749665 31267 net.cpp:137] Memory required for data: 893386752
I0308 15:30:55.749681 31267 layer_factory.hpp:77] Creating layer res3.11.skipConv
I0308 15:30:55.749692 31267 net.cpp:84] Creating Layer res3.11.skipConv
I0308 15:30:55.749696 31267 net.cpp:406] res3.11.skipConv <- res3.10.sum_res3.10.relu_0_split_1
I0308 15:30:55.749716 31267 net.cpp:380] res3.11.skipConv -> res3.11.skipConv
I0308 15:30:55.751927 31267 net.cpp:122] Setting up res3.11.skipConv
I0308 15:30:55.751945 31267 net.cpp:129] Top shape: 1 256 64 128 (2097152)
I0308 15:30:55.751960 31267 net.cpp:137] Memory required for data: 901775360
I0308 15:30:55.751967 31267 layer_factory.hpp:77] Creating layer res3.11.sum
I0308 15:30:55.751976 31267 net.cpp:84] Creating Layer res3.11.sum
I0308 15:30:55.751991 31267 net.cpp:406] res3.11.sum <- res3.11.conv2
I0308 15:30:55.751997 31267 net.cpp:406] res3.11.sum <- res3.11.skipConv
I0308 15:30:55.752003 31267 net.cpp:380] res3.11.sum -> res3.11.sum
I0308 15:30:55.752048 31267 net.cpp:122] Setting up res3.11.sum
I0308 15:30:55.752058 31267 net.cpp:129] Top shape: 1 256 64 128 (2097152)
I0308 15:30:55.752061 31267 net.cpp:137] Memory required for data: 910163968
I0308 15:30:55.752064 31267 layer_factory.hpp:77] Creating layer res3.11.relu
I0308 15:30:55.752070 31267 net.cpp:84] Creating Layer res3.11.relu
I0308 15:30:55.752074 31267 net.cpp:406] res3.11.relu <- res3.11.sum
I0308 15:30:55.752079 31267 net.cpp:367] res3.11.relu -> res3.11.sum (in-place)
I0308 15:30:55.752815 31267 net.cpp:122] Setting up res3.11.relu
I0308 15:30:55.752831 31267 net.cpp:129] Top shape: 1 256 64 128 (2097152)
I0308 15:30:55.752835 31267 net.cpp:137] Memory required for data: 918552576
I0308 15:30:55.752838 31267 layer_factory.hpp:77] Creating layer res3.11.sum_res3.11.relu_0_split
I0308 15:30:55.752846 31267 net.cpp:84] Creating Layer res3.11.sum_res3.11.relu_0_split
I0308 15:30:55.752849 31267 net.cpp:406] res3.11.sum_res3.11.relu_0_split <- res3.11.sum
I0308 15:30:55.752856 31267 net.cpp:380] res3.11.sum_res3.11.relu_0_split -> res3.11.sum_res3.11.relu_0_split_0
I0308 15:30:55.752861 31267 net.cpp:380] res3.11.sum_res3.11.relu_0_split -> res3.11.sum_res3.11.relu_0_split_1
I0308 15:30:55.752878 31267 net.cpp:380] res3.11.sum_res3.11.relu_0_split -> res3.11.sum_res3.11.relu_0_split_2
I0308 15:30:55.752961 31267 net.cpp:122] Setting up res3.11.sum_res3.11.relu_0_split
I0308 15:30:55.752970 31267 net.cpp:129] Top shape: 1 256 64 128 (2097152)
I0308 15:30:55.752975 31267 net.cpp:129] Top shape: 1 256 64 128 (2097152)
I0308 15:30:55.752979 31267 net.cpp:129] Top shape: 1 256 64 128 (2097152)
I0308 15:30:55.752981 31267 net.cpp:137] Memory required for data: 943718400
I0308 15:30:55.752985 31267 layer_factory.hpp:77] Creating layer res4.1.conv1
I0308 15:30:55.752993 31267 net.cpp:84] Creating Layer res4.1.conv1
I0308 15:30:55.752997 31267 net.cpp:406] res4.1.conv1 <- res3.11.sum_res3.11.relu_0_split_0
I0308 15:30:55.753003 31267 net.cpp:380] res4.1.conv1 -> res4.1.conv1
I0308 15:30:55.756234 31267 net.cpp:122] Setting up res4.1.conv1
I0308 15:30:55.756253 31267 net.cpp:129] Top shape: 1 256 32 64 (524288)
I0308 15:30:55.756268 31267 net.cpp:137] Memory required for data: 945815552
I0308 15:30:55.756275 31267 layer_factory.hpp:77] Creating layer res4.1.conv1/relu
I0308 15:30:55.756283 31267 net.cpp:84] Creating Layer res4.1.conv1/relu
I0308 15:30:55.756286 31267 net.cpp:406] res4.1.conv1/relu <- res4.1.conv1
I0308 15:30:55.756294 31267 net.cpp:367] res4.1.conv1/relu -> res4.1.conv1 (in-place)
I0308 15:30:55.756947 31267 net.cpp:122] Setting up res4.1.conv1/relu
I0308 15:30:55.756963 31267 net.cpp:129] Top shape: 1 256 32 64 (524288)
I0308 15:30:55.756966 31267 net.cpp:137] Memory required for data: 947912704
I0308 15:30:55.756970 31267 layer_factory.hpp:77] Creating layer res4.1.conv2
I0308 15:30:55.756979 31267 net.cpp:84] Creating Layer res4.1.conv2
I0308 15:30:55.756983 31267 net.cpp:406] res4.1.conv2 <- res4.1.conv1
I0308 15:30:55.756989 31267 net.cpp:380] res4.1.conv2 -> res4.1.conv2
I0308 15:30:55.760432 31267 net.cpp:122] Setting up res4.1.conv2
I0308 15:30:55.760450 31267 net.cpp:129] Top shape: 1 256 32 64 (524288)
I0308 15:30:55.760454 31267 net.cpp:137] Memory required for data: 950009856
I0308 15:30:55.760462 31267 layer_factory.hpp:77] Creating layer res4.1.skipConv
I0308 15:30:55.760469 31267 net.cpp:84] Creating Layer res4.1.skipConv
I0308 15:30:55.760474 31267 net.cpp:406] res4.1.skipConv <- res3.11.sum_res3.11.relu_0_split_1
I0308 15:30:55.760481 31267 net.cpp:380] res4.1.skipConv -> res4.1.skipConv
I0308 15:30:55.763120 31267 net.cpp:122] Setting up res4.1.skipConv
I0308 15:30:55.763149 31267 net.cpp:129] Top shape: 1 256 32 64 (524288)
I0308 15:30:55.763152 31267 net.cpp:137] Memory required for data: 952107008
I0308 15:30:55.763160 31267 layer_factory.hpp:77] Creating layer res4.1.sum
I0308 15:30:55.763191 31267 net.cpp:84] Creating Layer res4.1.sum
I0308 15:30:55.763197 31267 net.cpp:406] res4.1.sum <- res4.1.conv2
I0308 15:30:55.763203 31267 net.cpp:406] res4.1.sum <- res4.1.skipConv
I0308 15:30:55.763208 31267 net.cpp:380] res4.1.sum -> res4.1.sum
I0308 15:30:55.763257 31267 net.cpp:122] Setting up res4.1.sum
I0308 15:30:55.763267 31267 net.cpp:129] Top shape: 1 256 32 64 (524288)
I0308 15:30:55.763269 31267 net.cpp:137] Memory required for data: 954204160
I0308 15:30:55.763279 31267 layer_factory.hpp:77] Creating layer res4.1.relu
I0308 15:30:55.763285 31267 net.cpp:84] Creating Layer res4.1.relu
I0308 15:30:55.763288 31267 net.cpp:406] res4.1.relu <- res4.1.sum
I0308 15:30:55.763294 31267 net.cpp:367] res4.1.relu -> res4.1.sum (in-place)
I0308 15:30:55.763785 31267 net.cpp:122] Setting up res4.1.relu
I0308 15:30:55.763797 31267 net.cpp:129] Top shape: 1 256 32 64 (524288)
I0308 15:30:55.763813 31267 net.cpp:137] Memory required for data: 956301312
I0308 15:30:55.763816 31267 layer_factory.hpp:77] Creating layer res4.1.sum_res4.1.relu_0_split
I0308 15:30:55.763821 31267 net.cpp:84] Creating Layer res4.1.sum_res4.1.relu_0_split
I0308 15:30:55.763825 31267 net.cpp:406] res4.1.sum_res4.1.relu_0_split <- res4.1.sum
I0308 15:30:55.763833 31267 net.cpp:380] res4.1.sum_res4.1.relu_0_split -> res4.1.sum_res4.1.relu_0_split_0
I0308 15:30:55.763839 31267 net.cpp:380] res4.1.sum_res4.1.relu_0_split -> res4.1.sum_res4.1.relu_0_split_1
I0308 15:30:55.763906 31267 net.cpp:122] Setting up res4.1.sum_res4.1.relu_0_split
I0308 15:30:55.763913 31267 net.cpp:129] Top shape: 1 256 32 64 (524288)
I0308 15:30:55.763918 31267 net.cpp:129] Top shape: 1 256 32 64 (524288)
I0308 15:30:55.763921 31267 net.cpp:137] Memory required for data: 960495616
I0308 15:30:55.763923 31267 layer_factory.hpp:77] Creating layer res4.2.conv1
I0308 15:30:55.763932 31267 net.cpp:84] Creating Layer res4.2.conv1
I0308 15:30:55.763936 31267 net.cpp:406] res4.2.conv1 <- res4.1.sum_res4.1.relu_0_split_0
I0308 15:30:55.763942 31267 net.cpp:380] res4.2.conv1 -> res4.2.conv1
I0308 15:30:55.767377 31267 net.cpp:122] Setting up res4.2.conv1
I0308 15:30:55.767418 31267 net.cpp:129] Top shape: 1 256 32 64 (524288)
I0308 15:30:55.767433 31267 net.cpp:137] Memory required for data: 962592768
I0308 15:30:55.767441 31267 layer_factory.hpp:77] Creating layer res4.2.conv1/relu
I0308 15:30:55.767448 31267 net.cpp:84] Creating Layer res4.2.conv1/relu
I0308 15:30:55.767452 31267 net.cpp:406] res4.2.conv1/relu <- res4.2.conv1
I0308 15:30:55.767459 31267 net.cpp:367] res4.2.conv1/relu -> res4.2.conv1 (in-place)
I0308 15:30:55.768129 31267 net.cpp:122] Setting up res4.2.conv1/relu
I0308 15:30:55.768146 31267 net.cpp:129] Top shape: 1 256 32 64 (524288)
I0308 15:30:55.768151 31267 net.cpp:137] Memory required for data: 964689920
I0308 15:30:55.768154 31267 layer_factory.hpp:77] Creating layer res4.2.conv2
I0308 15:30:55.768162 31267 net.cpp:84] Creating Layer res4.2.conv2
I0308 15:30:55.768167 31267 net.cpp:406] res4.2.conv2 <- res4.2.conv1
I0308 15:30:55.768172 31267 net.cpp:380] res4.2.conv2 -> res4.2.conv2
I0308 15:30:55.771586 31267 net.cpp:122] Setting up res4.2.conv2
I0308 15:30:55.771605 31267 net.cpp:129] Top shape: 1 256 32 64 (524288)
I0308 15:30:55.771608 31267 net.cpp:137] Memory required for data: 966787072
I0308 15:30:55.771616 31267 layer_factory.hpp:77] Creating layer res4.2.sum
I0308 15:30:55.771622 31267 net.cpp:84] Creating Layer res4.2.sum
I0308 15:30:55.771627 31267 net.cpp:406] res4.2.sum <- res4.2.conv2
I0308 15:30:55.771631 31267 net.cpp:406] res4.2.sum <- res4.1.sum_res4.1.relu_0_split_1
I0308 15:30:55.771636 31267 net.cpp:380] res4.2.sum -> res4.2.sum
I0308 15:30:55.771697 31267 net.cpp:122] Setting up res4.2.sum
I0308 15:30:55.771708 31267 net.cpp:129] Top shape: 1 256 32 64 (524288)
I0308 15:30:55.771711 31267 net.cpp:137] Memory required for data: 968884224
I0308 15:30:55.771714 31267 layer_factory.hpp:77] Creating layer res4.2.relu
I0308 15:30:55.771720 31267 net.cpp:84] Creating Layer res4.2.relu
I0308 15:30:55.771736 31267 net.cpp:406] res4.2.relu <- res4.2.sum
I0308 15:30:55.771741 31267 net.cpp:367] res4.2.relu -> res4.2.sum (in-place)
I0308 15:30:55.772233 31267 net.cpp:122] Setting up res4.2.relu
I0308 15:30:55.772246 31267 net.cpp:129] Top shape: 1 256 32 64 (524288)
I0308 15:30:55.772261 31267 net.cpp:137] Memory required for data: 970981376
I0308 15:30:55.772265 31267 layer_factory.hpp:77] Creating layer res4.2.sum_res4.2.relu_0_split
I0308 15:30:55.772272 31267 net.cpp:84] Creating Layer res4.2.sum_res4.2.relu_0_split
I0308 15:30:55.772276 31267 net.cpp:406] res4.2.sum_res4.2.relu_0_split <- res4.2.sum
I0308 15:30:55.772282 31267 net.cpp:380] res4.2.sum_res4.2.relu_0_split -> res4.2.sum_res4.2.relu_0_split_0
I0308 15:30:55.772289 31267 net.cpp:380] res4.2.sum_res4.2.relu_0_split -> res4.2.sum_res4.2.relu_0_split_1
I0308 15:30:55.772357 31267 net.cpp:122] Setting up res4.2.sum_res4.2.relu_0_split
I0308 15:30:55.772367 31267 net.cpp:129] Top shape: 1 256 32 64 (524288)
I0308 15:30:55.772370 31267 net.cpp:129] Top shape: 1 256 32 64 (524288)
I0308 15:30:55.772373 31267 net.cpp:137] Memory required for data: 975175680
I0308 15:30:55.772377 31267 layer_factory.hpp:77] Creating layer res4.3.conv1
I0308 15:30:55.772385 31267 net.cpp:84] Creating Layer res4.3.conv1
I0308 15:30:55.772389 31267 net.cpp:406] res4.3.conv1 <- res4.2.sum_res4.2.relu_0_split_0
I0308 15:30:55.772394 31267 net.cpp:380] res4.3.conv1 -> res4.3.conv1
I0308 15:30:55.775833 31267 net.cpp:122] Setting up res4.3.conv1
I0308 15:30:55.775852 31267 net.cpp:129] Top shape: 1 256 32 64 (524288)
I0308 15:30:55.775856 31267 net.cpp:137] Memory required for data: 977272832
I0308 15:30:55.775862 31267 layer_factory.hpp:77] Creating layer res4.3.conv1/relu
I0308 15:30:55.775869 31267 net.cpp:84] Creating Layer res4.3.conv1/relu
I0308 15:30:55.775873 31267 net.cpp:406] res4.3.conv1/relu <- res4.3.conv1
I0308 15:30:55.775878 31267 net.cpp:367] res4.3.conv1/relu -> res4.3.conv1 (in-place)
I0308 15:30:55.776551 31267 net.cpp:122] Setting up res4.3.conv1/relu
I0308 15:30:55.776566 31267 net.cpp:129] Top shape: 1 256 32 64 (524288)
I0308 15:30:55.776569 31267 net.cpp:137] Memory required for data: 979369984
I0308 15:30:55.776572 31267 layer_factory.hpp:77] Creating layer res4.3.conv2
I0308 15:30:55.776582 31267 net.cpp:84] Creating Layer res4.3.conv2
I0308 15:30:55.776585 31267 net.cpp:406] res4.3.conv2 <- res4.3.conv1
I0308 15:30:55.776594 31267 net.cpp:380] res4.3.conv2 -> res4.3.conv2
I0308 15:30:55.780166 31267 net.cpp:122] Setting up res4.3.conv2
I0308 15:30:55.780184 31267 net.cpp:129] Top shape: 1 256 32 64 (524288)
I0308 15:30:55.780187 31267 net.cpp:137] Memory required for data: 981467136
I0308 15:30:55.780194 31267 layer_factory.hpp:77] Creating layer res4.3.sum
I0308 15:30:55.780202 31267 net.cpp:84] Creating Layer res4.3.sum
I0308 15:30:55.780207 31267 net.cpp:406] res4.3.sum <- res4.3.conv2
I0308 15:30:55.780211 31267 net.cpp:406] res4.3.sum <- res4.2.sum_res4.2.relu_0_split_1
I0308 15:30:55.780216 31267 net.cpp:380] res4.3.sum -> res4.3.sum
I0308 15:30:55.780278 31267 net.cpp:122] Setting up res4.3.sum
I0308 15:30:55.780287 31267 net.cpp:129] Top shape: 1 256 32 64 (524288)
I0308 15:30:55.780290 31267 net.cpp:137] Memory required for data: 983564288
I0308 15:30:55.780293 31267 layer_factory.hpp:77] Creating layer res4.3.relu
I0308 15:30:55.780299 31267 net.cpp:84] Creating Layer res4.3.relu
I0308 15:30:55.780303 31267 net.cpp:406] res4.3.relu <- res4.3.sum
I0308 15:30:55.780308 31267 net.cpp:367] res4.3.relu -> res4.3.sum (in-place)
I0308 15:30:55.780975 31267 net.cpp:122] Setting up res4.3.relu
I0308 15:30:55.780990 31267 net.cpp:129] Top shape: 1 256 32 64 (524288)
I0308 15:30:55.780997 31267 net.cpp:137] Memory required for data: 985661440
I0308 15:30:55.780999 31267 layer_factory.hpp:77] Creating layer res4.3.sum_res4.3.relu_0_split
I0308 15:30:55.781005 31267 net.cpp:84] Creating Layer res4.3.sum_res4.3.relu_0_split
I0308 15:30:55.781009 31267 net.cpp:406] res4.3.sum_res4.3.relu_0_split <- res4.3.sum
I0308 15:30:55.781014 31267 net.cpp:380] res4.3.sum_res4.3.relu_0_split -> res4.3.sum_res4.3.relu_0_split_0
I0308 15:30:55.781044 31267 net.cpp:380] res4.3.sum_res4.3.relu_0_split -> res4.3.sum_res4.3.relu_0_split_1
I0308 15:30:55.781116 31267 net.cpp:122] Setting up res4.3.sum_res4.3.relu_0_split
I0308 15:30:55.781126 31267 net.cpp:129] Top shape: 1 256 32 64 (524288)
I0308 15:30:55.781131 31267 net.cpp:129] Top shape: 1 256 32 64 (524288)
I0308 15:30:55.781133 31267 net.cpp:137] Memory required for data: 989855744
I0308 15:30:55.781136 31267 layer_factory.hpp:77] Creating layer res4.4.conv1
I0308 15:30:55.781145 31267 net.cpp:84] Creating Layer res4.4.conv1
I0308 15:30:55.781149 31267 net.cpp:406] res4.4.conv1 <- res4.3.sum_res4.3.relu_0_split_0
I0308 15:30:55.781157 31267 net.cpp:380] res4.4.conv1 -> res4.4.conv1
I0308 15:30:55.784698 31267 net.cpp:122] Setting up res4.4.conv1
I0308 15:30:55.784715 31267 net.cpp:129] Top shape: 1 256 32 64 (524288)
I0308 15:30:55.784718 31267 net.cpp:137] Memory required for data: 991952896
I0308 15:30:55.784726 31267 layer_factory.hpp:77] Creating layer res4.4.conv1/relu
I0308 15:30:55.784732 31267 net.cpp:84] Creating Layer res4.4.conv1/relu
I0308 15:30:55.784736 31267 net.cpp:406] res4.4.conv1/relu <- res4.4.conv1
I0308 15:30:55.784744 31267 net.cpp:367] res4.4.conv1/relu -> res4.4.conv1 (in-place)
I0308 15:30:55.785248 31267 net.cpp:122] Setting up res4.4.conv1/relu
I0308 15:30:55.785261 31267 net.cpp:129] Top shape: 1 256 32 64 (524288)
I0308 15:30:55.785276 31267 net.cpp:137] Memory required for data: 994050048
I0308 15:30:55.785279 31267 layer_factory.hpp:77] Creating layer res4.4.conv2
I0308 15:30:55.785290 31267 net.cpp:84] Creating Layer res4.4.conv2
I0308 15:30:55.785293 31267 net.cpp:406] res4.4.conv2 <- res4.4.conv1
I0308 15:30:55.785300 31267 net.cpp:380] res4.4.conv2 -> res4.4.conv2
I0308 15:30:55.788740 31267 net.cpp:122] Setting up res4.4.conv2
I0308 15:30:55.788758 31267 net.cpp:129] Top shape: 1 256 32 64 (524288)
I0308 15:30:55.788761 31267 net.cpp:137] Memory required for data: 996147200
I0308 15:30:55.788769 31267 layer_factory.hpp:77] Creating layer res4.4.sum
I0308 15:30:55.788775 31267 net.cpp:84] Creating Layer res4.4.sum
I0308 15:30:55.788779 31267 net.cpp:406] res4.4.sum <- res4.4.conv2
I0308 15:30:55.788784 31267 net.cpp:406] res4.4.sum <- res4.3.sum_res4.3.relu_0_split_1
I0308 15:30:55.788790 31267 net.cpp:380] res4.4.sum -> res4.4.sum
I0308 15:30:55.788851 31267 net.cpp:122] Setting up res4.4.sum
I0308 15:30:55.788863 31267 net.cpp:129] Top shape: 1 256 32 64 (524288)
I0308 15:30:55.788866 31267 net.cpp:137] Memory required for data: 998244352
I0308 15:30:55.788869 31267 layer_factory.hpp:77] Creating layer res4.4.relu
I0308 15:30:55.788875 31267 net.cpp:84] Creating Layer res4.4.relu
I0308 15:30:55.788878 31267 net.cpp:406] res4.4.relu <- res4.4.sum
I0308 15:30:55.788883 31267 net.cpp:367] res4.4.relu -> res4.4.sum (in-place)
I0308 15:30:55.789553 31267 net.cpp:122] Setting up res4.4.relu
I0308 15:30:55.789569 31267 net.cpp:129] Top shape: 1 256 32 64 (524288)
I0308 15:30:55.789584 31267 net.cpp:137] Memory required for data: 1000341504
I0308 15:30:55.789588 31267 layer_factory.hpp:77] Creating layer res4.4.sum_res4.4.relu_0_split
I0308 15:30:55.789595 31267 net.cpp:84] Creating Layer res4.4.sum_res4.4.relu_0_split
I0308 15:30:55.789599 31267 net.cpp:406] res4.4.sum_res4.4.relu_0_split <- res4.4.sum
I0308 15:30:55.789607 31267 net.cpp:380] res4.4.sum_res4.4.relu_0_split -> res4.4.sum_res4.4.relu_0_split_0
I0308 15:30:55.789613 31267 net.cpp:380] res4.4.sum_res4.4.relu_0_split -> res4.4.sum_res4.4.relu_0_split_1
I0308 15:30:55.789686 31267 net.cpp:122] Setting up res4.4.sum_res4.4.relu_0_split
I0308 15:30:55.789695 31267 net.cpp:129] Top shape: 1 256 32 64 (524288)
I0308 15:30:55.789700 31267 net.cpp:129] Top shape: 1 256 32 64 (524288)
I0308 15:30:55.789702 31267 net.cpp:137] Memory required for data: 1004535808
I0308 15:30:55.789706 31267 layer_factory.hpp:77] Creating layer res4.5.conv1
I0308 15:30:55.789716 31267 net.cpp:84] Creating Layer res4.5.conv1
I0308 15:30:55.789721 31267 net.cpp:406] res4.5.conv1 <- res4.4.sum_res4.4.relu_0_split_0
I0308 15:30:55.789738 31267 net.cpp:380] res4.5.conv1 -> res4.5.conv1
I0308 15:30:55.794134 31267 net.cpp:122] Setting up res4.5.conv1
I0308 15:30:55.794163 31267 net.cpp:129] Top shape: 1 512 32 64 (1048576)
I0308 15:30:55.794167 31267 net.cpp:137] Memory required for data: 1008730112
I0308 15:30:55.794174 31267 layer_factory.hpp:77] Creating layer res4.5.conv1/relu
I0308 15:30:55.794181 31267 net.cpp:84] Creating Layer res4.5.conv1/relu
I0308 15:30:55.794185 31267 net.cpp:406] res4.5.conv1/relu <- res4.5.conv1
I0308 15:30:55.794193 31267 net.cpp:367] res4.5.conv1/relu -> res4.5.conv1 (in-place)
I0308 15:30:55.794689 31267 net.cpp:122] Setting up res4.5.conv1/relu
I0308 15:30:55.794703 31267 net.cpp:129] Top shape: 1 512 32 64 (1048576)
I0308 15:30:55.794718 31267 net.cpp:137] Memory required for data: 1012924416
I0308 15:30:55.794721 31267 layer_factory.hpp:77] Creating layer res4.5.conv2
I0308 15:30:55.794730 31267 net.cpp:84] Creating Layer res4.5.conv2
I0308 15:30:55.794735 31267 net.cpp:406] res4.5.conv2 <- res4.5.conv1
I0308 15:30:55.794741 31267 net.cpp:380] res4.5.conv2 -> res4.5.conv2
I0308 15:30:55.800715 31267 net.cpp:122] Setting up res4.5.conv2
I0308 15:30:55.800734 31267 net.cpp:129] Top shape: 1 512 32 64 (1048576)
I0308 15:30:55.800737 31267 net.cpp:137] Memory required for data: 1017118720
I0308 15:30:55.800745 31267 layer_factory.hpp:77] Creating layer res4.5.skipConv
I0308 15:30:55.800753 31267 net.cpp:84] Creating Layer res4.5.skipConv
I0308 15:30:55.800757 31267 net.cpp:406] res4.5.skipConv <- res4.4.sum_res4.4.relu_0_split_1
I0308 15:30:55.800765 31267 net.cpp:380] res4.5.skipConv -> res4.5.skipConv
I0308 15:30:55.803577 31267 net.cpp:122] Setting up res4.5.skipConv
I0308 15:30:55.803606 31267 net.cpp:129] Top shape: 1 512 32 64 (1048576)
I0308 15:30:55.803611 31267 net.cpp:137] Memory required for data: 1021313024
I0308 15:30:55.803617 31267 layer_factory.hpp:77] Creating layer res4.5.sum
I0308 15:30:55.803624 31267 net.cpp:84] Creating Layer res4.5.sum
I0308 15:30:55.803628 31267 net.cpp:406] res4.5.sum <- res4.5.conv2
I0308 15:30:55.803633 31267 net.cpp:406] res4.5.sum <- res4.5.skipConv
I0308 15:30:55.803642 31267 net.cpp:380] res4.5.sum -> res4.5.sum
I0308 15:30:55.803689 31267 net.cpp:122] Setting up res4.5.sum
I0308 15:30:55.803699 31267 net.cpp:129] Top shape: 1 512 32 64 (1048576)
I0308 15:30:55.803702 31267 net.cpp:137] Memory required for data: 1025507328
I0308 15:30:55.803705 31267 layer_factory.hpp:77] Creating layer res4.5.relu
I0308 15:30:55.803712 31267 net.cpp:84] Creating Layer res4.5.relu
I0308 15:30:55.803716 31267 net.cpp:406] res4.5.relu <- res4.5.sum
I0308 15:30:55.803720 31267 net.cpp:367] res4.5.relu -> res4.5.sum (in-place)
I0308 15:30:55.804394 31267 net.cpp:122] Setting up res4.5.relu
I0308 15:30:55.804410 31267 net.cpp:129] Top shape: 1 512 32 64 (1048576)
I0308 15:30:55.804414 31267 net.cpp:137] Memory required for data: 1029701632
I0308 15:30:55.804417 31267 layer_factory.hpp:77] Creating layer res4.5.sum_res4.5.relu_0_split
I0308 15:30:55.804424 31267 net.cpp:84] Creating Layer res4.5.sum_res4.5.relu_0_split
I0308 15:30:55.804426 31267 net.cpp:406] res4.5.sum_res4.5.relu_0_split <- res4.5.sum
I0308 15:30:55.804432 31267 net.cpp:380] res4.5.sum_res4.5.relu_0_split -> res4.5.sum_res4.5.relu_0_split_0
I0308 15:30:55.804440 31267 net.cpp:380] res4.5.sum_res4.5.relu_0_split -> res4.5.sum_res4.5.relu_0_split_1
I0308 15:30:55.804523 31267 net.cpp:122] Setting up res4.5.sum_res4.5.relu_0_split
I0308 15:30:55.804533 31267 net.cpp:129] Top shape: 1 512 32 64 (1048576)
I0308 15:30:55.804538 31267 net.cpp:129] Top shape: 1 512 32 64 (1048576)
I0308 15:30:55.804540 31267 net.cpp:137] Memory required for data: 1038090240
I0308 15:30:55.804543 31267 layer_factory.hpp:77] Creating layer res4.6.conv1
I0308 15:30:55.804553 31267 net.cpp:84] Creating Layer res4.6.conv1
I0308 15:30:55.804558 31267 net.cpp:406] res4.6.conv1 <- res4.5.sum_res4.5.relu_0_split_0
I0308 15:30:55.804563 31267 net.cpp:380] res4.6.conv1 -> res4.6.conv1
I0308 15:30:55.810477 31267 net.cpp:122] Setting up res4.6.conv1
I0308 15:30:55.810493 31267 net.cpp:129] Top shape: 1 512 32 64 (1048576)
I0308 15:30:55.810500 31267 net.cpp:137] Memory required for data: 1042284544
I0308 15:30:55.810508 31267 layer_factory.hpp:77] Creating layer res4.6.conv1/relu
I0308 15:30:55.810513 31267 net.cpp:84] Creating Layer res4.6.conv1/relu
I0308 15:30:55.810518 31267 net.cpp:406] res4.6.conv1/relu <- res4.6.conv1
I0308 15:30:55.810523 31267 net.cpp:367] res4.6.conv1/relu -> res4.6.conv1 (in-place)
I0308 15:30:55.811251 31267 net.cpp:122] Setting up res4.6.conv1/relu
I0308 15:30:55.811267 31267 net.cpp:129] Top shape: 1 512 32 64 (1048576)
I0308 15:30:55.811283 31267 net.cpp:137] Memory required for data: 1046478848
I0308 15:30:55.811287 31267 layer_factory.hpp:77] Creating layer res4.6.conv2
I0308 15:30:55.811322 31267 net.cpp:84] Creating Layer res4.6.conv2
I0308 15:30:55.811328 31267 net.cpp:406] res4.6.conv2 <- res4.6.conv1
I0308 15:30:55.811334 31267 net.cpp:380] res4.6.conv2 -> res4.6.conv2
I0308 15:30:55.817457 31267 net.cpp:122] Setting up res4.6.conv2
I0308 15:30:55.817476 31267 net.cpp:129] Top shape: 1 512 32 64 (1048576)
I0308 15:30:55.817479 31267 net.cpp:137] Memory required for data: 1050673152
I0308 15:30:55.817487 31267 layer_factory.hpp:77] Creating layer res4.6.sum
I0308 15:30:55.817493 31267 net.cpp:84] Creating Layer res4.6.sum
I0308 15:30:55.817498 31267 net.cpp:406] res4.6.sum <- res4.6.conv2
I0308 15:30:55.817503 31267 net.cpp:406] res4.6.sum <- res4.5.sum_res4.5.relu_0_split_1
I0308 15:30:55.817507 31267 net.cpp:380] res4.6.sum -> res4.6.sum
I0308 15:30:55.817569 31267 net.cpp:122] Setting up res4.6.sum
I0308 15:30:55.817579 31267 net.cpp:129] Top shape: 1 512 32 64 (1048576)
I0308 15:30:55.817584 31267 net.cpp:137] Memory required for data: 1054867456
I0308 15:30:55.817586 31267 layer_factory.hpp:77] Creating layer res4.6.relu
I0308 15:30:55.817591 31267 net.cpp:84] Creating Layer res4.6.relu
I0308 15:30:55.817595 31267 net.cpp:406] res4.6.relu <- res4.6.sum
I0308 15:30:55.817600 31267 net.cpp:367] res4.6.relu -> res4.6.sum (in-place)
I0308 15:30:55.818104 31267 net.cpp:122] Setting up res4.6.relu
I0308 15:30:55.818116 31267 net.cpp:129] Top shape: 1 512 32 64 (1048576)
I0308 15:30:55.818131 31267 net.cpp:137] Memory required for data: 1059061760
I0308 15:30:55.818135 31267 layer_factory.hpp:77] Creating layer res4.6.sum_res4.6.relu_0_split
I0308 15:30:55.818141 31267 net.cpp:84] Creating Layer res4.6.sum_res4.6.relu_0_split
I0308 15:30:55.818145 31267 net.cpp:406] res4.6.sum_res4.6.relu_0_split <- res4.6.sum
I0308 15:30:55.818152 31267 net.cpp:380] res4.6.sum_res4.6.relu_0_split -> res4.6.sum_res4.6.relu_0_split_0
I0308 15:30:55.818159 31267 net.cpp:380] res4.6.sum_res4.6.relu_0_split -> res4.6.sum_res4.6.relu_0_split_1
I0308 15:30:55.818166 31267 net.cpp:380] res4.6.sum_res4.6.relu_0_split -> res4.6.sum_res4.6.relu_0_split_2
I0308 15:30:55.818171 31267 net.cpp:380] res4.6.sum_res4.6.relu_0_split -> res4.6.sum_res4.6.relu_0_split_3
I0308 15:30:55.818176 31267 net.cpp:380] res4.6.sum_res4.6.relu_0_split -> res4.6.sum_res4.6.relu_0_split_4
I0308 15:30:55.818307 31267 net.cpp:122] Setting up res4.6.sum_res4.6.relu_0_split
I0308 15:30:55.818318 31267 net.cpp:129] Top shape: 1 512 32 64 (1048576)
I0308 15:30:55.818322 31267 net.cpp:129] Top shape: 1 512 32 64 (1048576)
I0308 15:30:55.818326 31267 net.cpp:129] Top shape: 1 512 32 64 (1048576)
I0308 15:30:55.818329 31267 net.cpp:129] Top shape: 1 512 32 64 (1048576)
I0308 15:30:55.818333 31267 net.cpp:129] Top shape: 1 512 32 64 (1048576)
I0308 15:30:55.818336 31267 net.cpp:137] Memory required for data: 1080033280
I0308 15:30:55.818339 31267 layer_factory.hpp:77] Creating layer psp.pool1
I0308 15:30:55.818346 31267 net.cpp:84] Creating Layer psp.pool1
I0308 15:30:55.818351 31267 net.cpp:406] psp.pool1 <- res4.6.sum_res4.6.relu_0_split_0
I0308 15:30:55.818356 31267 net.cpp:380] psp.pool1 -> psp.pool1
I0308 15:30:55.819135 31267 net.cpp:122] Setting up psp.pool1
I0308 15:30:55.819164 31267 net.cpp:129] Top shape: 1 512 1 2 (1024)
I0308 15:30:55.819180 31267 net.cpp:137] Memory required for data: 1080037376
I0308 15:30:55.819185 31267 layer_factory.hpp:77] Creating layer psp.pool1.conv
I0308 15:30:55.819205 31267 net.cpp:84] Creating Layer psp.pool1.conv
I0308 15:30:55.819209 31267 net.cpp:406] psp.pool1.conv <- psp.pool1
I0308 15:30:55.819218 31267 net.cpp:380] psp.pool1.conv -> psp.pool1.conv
I0308 15:30:55.821550 31267 net.cpp:122] Setting up psp.pool1.conv
I0308 15:30:55.821566 31267 net.cpp:129] Top shape: 1 128 1 2 (256)
I0308 15:30:55.821570 31267 net.cpp:137] Memory required for data: 1080038400
I0308 15:30:55.821578 31267 layer_factory.hpp:77] Creating layer psp.pool1.conv/relu
I0308 15:30:55.821583 31267 net.cpp:84] Creating Layer psp.pool1.conv/relu
I0308 15:30:55.821588 31267 net.cpp:406] psp.pool1.conv/relu <- psp.pool1.conv
I0308 15:30:55.821594 31267 net.cpp:367] psp.pool1.conv/relu -> psp.pool1.conv (in-place)
I0308 15:30:55.822089 31267 net.cpp:122] Setting up psp.pool1.conv/relu
I0308 15:30:55.822103 31267 net.cpp:129] Top shape: 1 128 1 2 (256)
I0308 15:30:55.822105 31267 net.cpp:137] Memory required for data: 1080039424
I0308 15:30:55.822108 31267 layer_factory.hpp:77] Creating layer psp.pool1.interp
I0308 15:30:55.822116 31267 net.cpp:84] Creating Layer psp.pool1.interp
I0308 15:30:55.822120 31267 net.cpp:406] psp.pool1.interp <- psp.pool1.conv
I0308 15:30:55.822126 31267 net.cpp:380] psp.pool1.interp -> psp.pool1.interp
I0308 15:30:55.822193 31267 net.cpp:122] Setting up psp.pool1.interp
I0308 15:30:55.822201 31267 net.cpp:129] Top shape: 1 128 32 64 (262144)
I0308 15:30:55.822204 31267 net.cpp:137] Memory required for data: 1081088000
I0308 15:30:55.822207 31267 layer_factory.hpp:77] Creating layer psp.pool2
I0308 15:30:55.822213 31267 net.cpp:84] Creating Layer psp.pool2
I0308 15:30:55.822217 31267 net.cpp:406] psp.pool2 <- res4.6.sum_res4.6.relu_0_split_1
I0308 15:30:55.822224 31267 net.cpp:380] psp.pool2 -> psp.pool2
I0308 15:30:55.822940 31267 net.cpp:122] Setting up psp.pool2
I0308 15:30:55.822955 31267 net.cpp:129] Top shape: 1 512 2 4 (4096)
I0308 15:30:55.822959 31267 net.cpp:137] Memory required for data: 1081104384
I0308 15:30:55.822962 31267 layer_factory.hpp:77] Creating layer psp.pool2.conv
I0308 15:30:55.822970 31267 net.cpp:84] Creating Layer psp.pool2.conv
I0308 15:30:55.822974 31267 net.cpp:406] psp.pool2.conv <- psp.pool2
I0308 15:30:55.822981 31267 net.cpp:380] psp.pool2.conv -> psp.pool2.conv
I0308 15:30:55.825315 31267 net.cpp:122] Setting up psp.pool2.conv
I0308 15:30:55.825342 31267 net.cpp:129] Top shape: 1 128 2 4 (1024)
I0308 15:30:55.825346 31267 net.cpp:137] Memory required for data: 1081108480
I0308 15:30:55.825354 31267 layer_factory.hpp:77] Creating layer psp.pool2.conv/relu
I0308 15:30:55.825362 31267 net.cpp:84] Creating Layer psp.pool2.conv/relu
I0308 15:30:55.825378 31267 net.cpp:406] psp.pool2.conv/relu <- psp.pool2.conv
I0308 15:30:55.825397 31267 net.cpp:367] psp.pool2.conv/relu -> psp.pool2.conv (in-place)
I0308 15:30:55.826109 31267 net.cpp:122] Setting up psp.pool2.conv/relu
I0308 15:30:55.826125 31267 net.cpp:129] Top shape: 1 128 2 4 (1024)
I0308 15:30:55.826128 31267 net.cpp:137] Memory required for data: 1081112576
I0308 15:30:55.826133 31267 layer_factory.hpp:77] Creating layer psp.pool2.interp
I0308 15:30:55.826140 31267 net.cpp:84] Creating Layer psp.pool2.interp
I0308 15:30:55.826144 31267 net.cpp:406] psp.pool2.interp <- psp.pool2.conv
I0308 15:30:55.826150 31267 net.cpp:380] psp.pool2.interp -> psp.pool2.interp
I0308 15:30:55.826215 31267 net.cpp:122] Setting up psp.pool2.interp
I0308 15:30:55.826225 31267 net.cpp:129] Top shape: 1 128 32 64 (262144)
I0308 15:30:55.826227 31267 net.cpp:137] Memory required for data: 1082161152
I0308 15:30:55.826231 31267 layer_factory.hpp:77] Creating layer psp.pool3
I0308 15:30:55.826236 31267 net.cpp:84] Creating Layer psp.pool3
I0308 15:30:55.826246 31267 net.cpp:406] psp.pool3 <- res4.6.sum_res4.6.relu_0_split_2
I0308 15:30:55.826264 31267 net.cpp:380] psp.pool3 -> psp.pool3
I0308 15:30:55.826814 31267 net.cpp:122] Setting up psp.pool3
I0308 15:30:55.826841 31267 net.cpp:129] Top shape: 1 512 4 8 (16384)
I0308 15:30:55.826846 31267 net.cpp:137] Memory required for data: 1082226688
I0308 15:30:55.826849 31267 layer_factory.hpp:77] Creating layer psp.pool3.conv
I0308 15:30:55.826858 31267 net.cpp:84] Creating Layer psp.pool3.conv
I0308 15:30:55.826862 31267 net.cpp:406] psp.pool3.conv <- psp.pool3
I0308 15:30:55.826867 31267 net.cpp:380] psp.pool3.conv -> psp.pool3.conv
I0308 15:30:55.829515 31267 net.cpp:122] Setting up psp.pool3.conv
I0308 15:30:55.829532 31267 net.cpp:129] Top shape: 1 128 4 8 (4096)
I0308 15:30:55.829536 31267 net.cpp:137] Memory required for data: 1082243072
I0308 15:30:55.829543 31267 layer_factory.hpp:77] Creating layer psp.pool3.conv/relu
I0308 15:30:55.829551 31267 net.cpp:84] Creating Layer psp.pool3.conv/relu
I0308 15:30:55.829555 31267 net.cpp:406] psp.pool3.conv/relu <- psp.pool3.conv
I0308 15:30:55.829560 31267 net.cpp:367] psp.pool3.conv/relu -> psp.pool3.conv (in-place)
I0308 15:30:55.830286 31267 net.cpp:122] Setting up psp.pool3.conv/relu
I0308 15:30:55.830302 31267 net.cpp:129] Top shape: 1 128 4 8 (4096)
I0308 15:30:55.830304 31267 net.cpp:137] Memory required for data: 1082259456
I0308 15:30:55.830308 31267 layer_factory.hpp:77] Creating layer psp.pool3.interp
I0308 15:30:55.830314 31267 net.cpp:84] Creating Layer psp.pool3.interp
I0308 15:30:55.830318 31267 net.cpp:406] psp.pool3.interp <- psp.pool3.conv
I0308 15:30:55.830325 31267 net.cpp:380] psp.pool3.interp -> psp.pool3.interp
I0308 15:30:55.830390 31267 net.cpp:122] Setting up psp.pool3.interp
I0308 15:30:55.830399 31267 net.cpp:129] Top shape: 1 128 32 64 (262144)
I0308 15:30:55.830404 31267 net.cpp:137] Memory required for data: 1083308032
I0308 15:30:55.830406 31267 layer_factory.hpp:77] Creating layer psp.pool4
I0308 15:30:55.830412 31267 net.cpp:84] Creating Layer psp.pool4
I0308 15:30:55.830416 31267 net.cpp:406] psp.pool4 <- res4.6.sum_res4.6.relu_0_split_3
I0308 15:30:55.830422 31267 net.cpp:380] psp.pool4 -> psp.pool4
I0308 15:30:55.830977 31267 net.cpp:122] Setting up psp.pool4
I0308 15:30:55.830991 31267 net.cpp:129] Top shape: 1 512 8 16 (65536)
I0308 15:30:55.830994 31267 net.cpp:137] Memory required for data: 1083570176
I0308 15:30:55.830997 31267 layer_factory.hpp:77] Creating layer psp.pool4.conv
I0308 15:30:55.831005 31267 net.cpp:84] Creating Layer psp.pool4.conv
I0308 15:30:55.831009 31267 net.cpp:406] psp.pool4.conv <- psp.pool4
I0308 15:30:55.831015 31267 net.cpp:380] psp.pool4.conv -> psp.pool4.conv
I0308 15:30:55.833981 31267 net.cpp:122] Setting up psp.pool4.conv
I0308 15:30:55.833997 31267 net.cpp:129] Top shape: 1 128 8 16 (16384)
I0308 15:30:55.834000 31267 net.cpp:137] Memory required for data: 1083635712
I0308 15:30:55.834009 31267 layer_factory.hpp:77] Creating layer psp.pool4.conv/relu
I0308 15:30:55.834017 31267 net.cpp:84] Creating Layer psp.pool4.conv/relu
I0308 15:30:55.834020 31267 net.cpp:406] psp.pool4.conv/relu <- psp.pool4.conv
I0308 15:30:55.834026 31267 net.cpp:367] psp.pool4.conv/relu -> psp.pool4.conv (in-place)
I0308 15:30:55.834739 31267 net.cpp:122] Setting up psp.pool4.conv/relu
I0308 15:30:55.834754 31267 net.cpp:129] Top shape: 1 128 8 16 (16384)
I0308 15:30:55.834758 31267 net.cpp:137] Memory required for data: 1083701248
I0308 15:30:55.834761 31267 layer_factory.hpp:77] Creating layer psp.pool4.interp
I0308 15:30:55.834769 31267 net.cpp:84] Creating Layer psp.pool4.interp
I0308 15:30:55.834772 31267 net.cpp:406] psp.pool4.interp <- psp.pool4.conv
I0308 15:30:55.834779 31267 net.cpp:380] psp.pool4.interp -> psp.pool4.interp
I0308 15:30:55.834843 31267 net.cpp:122] Setting up psp.pool4.interp
I0308 15:30:55.834856 31267 net.cpp:129] Top shape: 1 128 32 64 (262144)
I0308 15:30:55.834858 31267 net.cpp:137] Memory required for data: 1084749824
I0308 15:30:55.834861 31267 layer_factory.hpp:77] Creating layer psp.concat
I0308 15:30:55.834868 31267 net.cpp:84] Creating Layer psp.concat
I0308 15:30:55.834872 31267 net.cpp:406] psp.concat <- res4.6.sum_res4.6.relu_0_split_4
I0308 15:30:55.834877 31267 net.cpp:406] psp.concat <- psp.pool1.interp
I0308 15:30:55.834908 31267 net.cpp:406] psp.concat <- psp.pool2.interp
I0308 15:30:55.834913 31267 net.cpp:406] psp.concat <- psp.pool3.interp
I0308 15:30:55.834916 31267 net.cpp:406] psp.concat <- psp.pool4.interp
I0308 15:30:55.834921 31267 net.cpp:380] psp.concat -> psp.concat
I0308 15:30:55.834986 31267 net.cpp:122] Setting up psp.concat
I0308 15:30:55.834998 31267 net.cpp:129] Top shape: 1 1024 32 64 (2097152)
I0308 15:30:55.835001 31267 net.cpp:137] Memory required for data: 1093138432
I0308 15:30:55.835005 31267 layer_factory.hpp:77] Creating layer psp.concat.conv
I0308 15:30:55.835014 31267 net.cpp:84] Creating Layer psp.concat.conv
I0308 15:30:55.835018 31267 net.cpp:406] psp.concat.conv <- psp.concat
I0308 15:30:55.835024 31267 net.cpp:380] psp.concat.conv -> psp.concat.conv
I0308 15:30:55.844734 31267 net.cpp:122] Setting up psp.concat.conv
I0308 15:30:55.844753 31267 net.cpp:129] Top shape: 1 512 32 64 (1048576)
I0308 15:30:55.844756 31267 net.cpp:137] Memory required for data: 1097332736
I0308 15:30:55.844763 31267 layer_factory.hpp:77] Creating layer psp.concat.conv/relu
I0308 15:30:55.844784 31267 net.cpp:84] Creating Layer psp.concat.conv/relu
I0308 15:30:55.844789 31267 net.cpp:406] psp.concat.conv/relu <- psp.concat.conv
I0308 15:30:55.844795 31267 net.cpp:367] psp.concat.conv/relu -> psp.concat.conv (in-place)
I0308 15:30:55.845567 31267 net.cpp:122] Setting up psp.concat.conv/relu
I0308 15:30:55.845583 31267 net.cpp:129] Top shape: 1 512 32 64 (1048576)
I0308 15:30:55.845598 31267 net.cpp:137] Memory required for data: 1101527040
I0308 15:30:55.845602 31267 layer_factory.hpp:77] Creating layer Decoder_wc3
I0308 15:30:55.845611 31267 net.cpp:84] Creating Layer Decoder_wc3
I0308 15:30:55.845615 31267 net.cpp:406] Decoder_wc3 <- res2.3.sum_res2.3.relu_0_split_2
I0308 15:30:55.845634 31267 net.cpp:380] Decoder_wc3 -> Decoder_wc3
I0308 15:30:55.848119 31267 net.cpp:122] Setting up Decoder_wc3
I0308 15:30:55.848136 31267 net.cpp:129] Top shape: 1 19 128 256 (622592)
I0308 15:30:55.848140 31267 net.cpp:137] Memory required for data: 1104017408
I0308 15:30:55.848148 31267 layer_factory.hpp:77] Creating layer Decoder_wc3/relu
I0308 15:30:55.848155 31267 net.cpp:84] Creating Layer Decoder_wc3/relu
I0308 15:30:55.848160 31267 net.cpp:406] Decoder_wc3/relu <- Decoder_wc3
I0308 15:30:55.848163 31267 net.cpp:367] Decoder_wc3/relu -> Decoder_wc3 (in-place)
I0308 15:30:55.848884 31267 net.cpp:122] Setting up Decoder_wc3/relu
I0308 15:30:55.848899 31267 net.cpp:129] Top shape: 1 19 128 256 (622592)
I0308 15:30:55.848903 31267 net.cpp:137] Memory required for data: 1106507776
I0308 15:30:55.848907 31267 layer_factory.hpp:77] Creating layer Decoder_wc4
I0308 15:30:55.848915 31267 net.cpp:84] Creating Layer Decoder_wc4
I0308 15:30:55.848922 31267 net.cpp:406] Decoder_wc4 <- res3.11.sum_res3.11.relu_0_split_2
I0308 15:30:55.848928 31267 net.cpp:380] Decoder_wc4 -> Decoder_wc4
I0308 15:30:55.851332 31267 net.cpp:122] Setting up Decoder_wc4
I0308 15:30:55.851361 31267 net.cpp:129] Top shape: 1 256 64 128 (2097152)
I0308 15:30:55.851366 31267 net.cpp:137] Memory required for data: 1114896384
I0308 15:30:55.851373 31267 layer_factory.hpp:77] Creating layer Decoder_wc4/relu
I0308 15:30:55.851392 31267 net.cpp:84] Creating Layer Decoder_wc4/relu
I0308 15:30:55.851397 31267 net.cpp:406] Decoder_wc4/relu <- Decoder_wc4
I0308 15:30:55.851414 31267 net.cpp:367] Decoder_wc4/relu -> Decoder_wc4 (in-place)
I0308 15:30:55.852134 31267 net.cpp:122] Setting up Decoder_wc4/relu
I0308 15:30:55.852150 31267 net.cpp:129] Top shape: 1 256 64 128 (2097152)
I0308 15:30:55.852154 31267 net.cpp:137] Memory required for data: 1123284992
I0308 15:30:55.852159 31267 layer_factory.hpp:77] Creating layer Decoder_wc5
I0308 15:30:55.852165 31267 net.cpp:84] Creating Layer Decoder_wc5
I0308 15:30:55.852169 31267 net.cpp:406] Decoder_wc5 <- psp.concat.conv
I0308 15:30:55.852176 31267 net.cpp:380] Decoder_wc5 -> Decoder_wc5
I0308 15:30:55.855152 31267 net.cpp:122] Setting up Decoder_wc5
I0308 15:30:55.855180 31267 net.cpp:129] Top shape: 1 512 32 64 (1048576)
I0308 15:30:55.855196 31267 net.cpp:137] Memory required for data: 1127479296
I0308 15:30:55.855204 31267 layer_factory.hpp:77] Creating layer Decoder_wc5/relu
I0308 15:30:55.855223 31267 net.cpp:84] Creating Layer Decoder_wc5/relu
I0308 15:30:55.855228 31267 net.cpp:406] Decoder_wc5/relu <- Decoder_wc5
I0308 15:30:55.855234 31267 net.cpp:367] Decoder_wc5/relu -> Decoder_wc5 (in-place)
I0308 15:30:55.855957 31267 net.cpp:122] Setting up Decoder_wc5/relu
I0308 15:30:55.855973 31267 net.cpp:129] Top shape: 1 512 32 64 (1048576)
I0308 15:30:55.855976 31267 net.cpp:137] Memory required for data: 1131673600
I0308 15:30:55.855980 31267 layer_factory.hpp:77] Creating layer Decoder4_4.proj
I0308 15:30:55.855988 31267 net.cpp:84] Creating Layer Decoder4_4.proj
I0308 15:30:55.855993 31267 net.cpp:406] Decoder4_4.proj <- Decoder_wc5
I0308 15:30:55.855999 31267 net.cpp:380] Decoder4_4.proj -> Decoder4_4.proj
I0308 15:30:55.858402 31267 net.cpp:122] Setting up Decoder4_4.proj
I0308 15:30:55.858418 31267 net.cpp:129] Top shape: 1 256 32 64 (524288)
I0308 15:30:55.858422 31267 net.cpp:137] Memory required for data: 1133770752
I0308 15:30:55.858428 31267 layer_factory.hpp:77] Creating layer Decoder4_4.proj/relu
I0308 15:30:55.858435 31267 net.cpp:84] Creating Layer Decoder4_4.proj/relu
I0308 15:30:55.858439 31267 net.cpp:406] Decoder4_4.proj/relu <- Decoder4_4.proj
I0308 15:30:55.858444 31267 net.cpp:367] Decoder4_4.proj/relu -> Decoder4_4.proj (in-place)
I0308 15:30:55.859201 31267 net.cpp:122] Setting up Decoder4_4.proj/relu
I0308 15:30:55.859228 31267 net.cpp:129] Top shape: 1 256 32 64 (524288)
I0308 15:30:55.859232 31267 net.cpp:137] Memory required for data: 1135867904
I0308 15:30:55.859236 31267 layer_factory.hpp:77] Creating layer Decoder4_4.proj/up2
I0308 15:30:55.859248 31267 net.cpp:84] Creating Layer Decoder4_4.proj/up2
I0308 15:30:55.859253 31267 net.cpp:406] Decoder4_4.proj/up2 <- Decoder4_4.proj
I0308 15:30:55.859272 31267 net.cpp:380] Decoder4_4.proj/up2 -> Decoder4_4.proj/up2
I0308 15:30:56.362992 31267 net.cpp:122] Setting up Decoder4_4.proj/up2
I0308 15:30:56.363027 31267 net.cpp:129] Top shape: 1 256 64 128 (2097152)
I0308 15:30:56.363032 31267 net.cpp:137] Memory required for data: 1144256512
I0308 15:30:56.363041 31267 layer_factory.hpp:77] Creating layer Decoder4_4.concat
I0308 15:30:56.363059 31267 net.cpp:84] Creating Layer Decoder4_4.concat
I0308 15:30:56.363065 31267 net.cpp:406] Decoder4_4.concat <- Decoder_wc4
I0308 15:30:56.363073 31267 net.cpp:406] Decoder4_4.concat <- Decoder4_4.proj/up2
I0308 15:30:56.363080 31267 net.cpp:380] Decoder4_4.concat -> Decoder4_4.concat
I0308 15:30:56.363198 31267 net.cpp:122] Setting up Decoder4_4.concat
I0308 15:30:56.363209 31267 net.cpp:129] Top shape: 1 512 64 128 (4194304)
I0308 15:30:56.363212 31267 net.cpp:137] Memory required for data: 1161033728
I0308 15:30:56.363215 31267 layer_factory.hpp:77] Creating layer Decoder4_4.conv1
I0308 15:30:56.363227 31267 net.cpp:84] Creating Layer Decoder4_4.conv1
I0308 15:30:56.363243 31267 net.cpp:406] Decoder4_4.conv1 <- Decoder4_4.concat
I0308 15:30:56.363250 31267 net.cpp:380] Decoder4_4.conv1 -> Decoder4_4.conv1
I0308 15:30:56.370782 31267 net.cpp:122] Setting up Decoder4_4.conv1
I0308 15:30:56.370800 31267 net.cpp:129] Top shape: 1 256 64 128 (2097152)
I0308 15:30:56.370805 31267 net.cpp:137] Memory required for data: 1169422336
I0308 15:30:56.370811 31267 layer_factory.hpp:77] Creating layer Decoder4_4.conv1/relu
I0308 15:30:56.370820 31267 net.cpp:84] Creating Layer Decoder4_4.conv1/relu
I0308 15:30:56.370823 31267 net.cpp:406] Decoder4_4.conv1/relu <- Decoder4_4.conv1
I0308 15:30:56.370831 31267 net.cpp:367] Decoder4_4.conv1/relu -> Decoder4_4.conv1 (in-place)
I0308 15:30:56.371750 31267 net.cpp:122] Setting up Decoder4_4.conv1/relu
I0308 15:30:56.371767 31267 net.cpp:129] Top shape: 1 256 64 128 (2097152)
I0308 15:30:56.371770 31267 net.cpp:137] Memory required for data: 1177810944
I0308 15:30:56.371774 31267 layer_factory.hpp:77] Creating layer Decoder3_3.proj
I0308 15:30:56.371783 31267 net.cpp:84] Creating Layer Decoder3_3.proj
I0308 15:30:56.371804 31267 net.cpp:406] Decoder3_3.proj <- Decoder4_4.conv1
I0308 15:30:56.371812 31267 net.cpp:380] Decoder3_3.proj -> Decoder3_3.proj
I0308 15:30:56.375398 31267 net.cpp:122] Setting up Decoder3_3.proj
I0308 15:30:56.375416 31267 net.cpp:129] Top shape: 1 19 64 128 (155648)
I0308 15:30:56.375419 31267 net.cpp:137] Memory required for data: 1178433536
I0308 15:30:56.375427 31267 layer_factory.hpp:77] Creating layer Decoder3_3.proj/relu
I0308 15:30:56.375433 31267 net.cpp:84] Creating Layer Decoder3_3.proj/relu
I0308 15:30:56.375437 31267 net.cpp:406] Decoder3_3.proj/relu <- Decoder3_3.proj
I0308 15:30:56.375443 31267 net.cpp:367] Decoder3_3.proj/relu -> Decoder3_3.proj (in-place)
I0308 15:30:56.376459 31267 net.cpp:122] Setting up Decoder3_3.proj/relu
I0308 15:30:56.376475 31267 net.cpp:129] Top shape: 1 19 64 128 (155648)
I0308 15:30:56.376478 31267 net.cpp:137] Memory required for data: 1179056128
I0308 15:30:56.376482 31267 layer_factory.hpp:77] Creating layer Decoder3_3.proj/up2
I0308 15:30:56.376493 31267 net.cpp:84] Creating Layer Decoder3_3.proj/up2
I0308 15:30:56.376498 31267 net.cpp:406] Decoder3_3.proj/up2 <- Decoder3_3.proj
I0308 15:30:56.376505 31267 net.cpp:380] Decoder3_3.proj/up2 -> Decoder3_3.proj/up2
I0308 15:30:56.412849 31267 net.cpp:122] Setting up Decoder3_3.proj/up2
I0308 15:30:56.412866 31267 net.cpp:129] Top shape: 1 19 128 256 (622592)
I0308 15:30:56.412870 31267 net.cpp:137] Memory required for data: 1181546496
I0308 15:30:56.412876 31267 layer_factory.hpp:77] Creating layer Decoder3_3.concat
I0308 15:30:56.412883 31267 net.cpp:84] Creating Layer Decoder3_3.concat
I0308 15:30:56.412889 31267 net.cpp:406] Decoder3_3.concat <- Decoder_wc3
I0308 15:30:56.412894 31267 net.cpp:406] Decoder3_3.concat <- Decoder3_3.proj/up2
I0308 15:30:56.412899 31267 net.cpp:380] Decoder3_3.concat -> Decoder3_3.concat
I0308 15:30:56.412947 31267 net.cpp:122] Setting up Decoder3_3.concat
I0308 15:30:56.412956 31267 net.cpp:129] Top shape: 1 38 128 256 (1245184)
I0308 15:30:56.412959 31267 net.cpp:137] Memory required for data: 1186527232
I0308 15:30:56.412962 31267 layer_factory.hpp:77] Creating layer Decoder3_3.conv1
I0308 15:30:56.412971 31267 net.cpp:84] Creating Layer Decoder3_3.conv1
I0308 15:30:56.412976 31267 net.cpp:406] Decoder3_3.conv1 <- Decoder3_3.concat
I0308 15:30:56.412981 31267 net.cpp:380] Decoder3_3.conv1 -> Decoder3_3.conv1
I0308 15:30:56.415365 31267 net.cpp:122] Setting up Decoder3_3.conv1
I0308 15:30:56.415382 31267 net.cpp:129] Top shape: 1 19 128 256 (622592)
I0308 15:30:56.415385 31267 net.cpp:137] Memory required for data: 1189017600
I0308 15:30:56.415392 31267 layer_factory.hpp:77] Creating layer Decoder3_3.conv1/relu
I0308 15:30:56.415400 31267 net.cpp:84] Creating Layer Decoder3_3.conv1/relu
I0308 15:30:56.415403 31267 net.cpp:406] Decoder3_3.conv1/relu <- Decoder3_3.conv1
I0308 15:30:56.415408 31267 net.cpp:367] Decoder3_3.conv1/relu -> Decoder3_3.conv1 (in-place)
I0308 15:30:56.416199 31267 net.cpp:122] Setting up Decoder3_3.conv1/relu
I0308 15:30:56.416214 31267 net.cpp:129] Top shape: 1 19 128 256 (622592)
I0308 15:30:56.416218 31267 net.cpp:137] Memory required for data: 1191507968
I0308 15:30:56.416221 31267 layer_factory.hpp:77] Creating layer Decoder_score
I0308 15:30:56.416231 31267 net.cpp:84] Creating Layer Decoder_score
I0308 15:30:56.416235 31267 net.cpp:406] Decoder_score <- Decoder3_3.conv1
I0308 15:30:56.416241 31267 net.cpp:380] Decoder_score -> Decoder_score
I0308 15:30:56.418881 31267 net.cpp:122] Setting up Decoder_score
I0308 15:30:56.418897 31267 net.cpp:129] Top shape: 1 19 128 256 (622592)
I0308 15:30:56.418900 31267 net.cpp:137] Memory required for data: 1193998336
I0308 15:30:56.418907 31267 layer_factory.hpp:77] Creating layer Decoder_score.up8
I0308 15:30:56.418918 31267 net.cpp:84] Creating Layer Decoder_score.up8
I0308 15:30:56.418923 31267 net.cpp:406] Decoder_score.up8 <- Decoder_score
I0308 15:30:56.418931 31267 net.cpp:380] Decoder_score.up8 -> Decoder_score.up8
I0308 15:30:56.456192 31267 net.cpp:122] Setting up Decoder_score.up8
I0308 15:30:56.456220 31267 net.cpp:129] Top shape: 1 19 1024 2048 (39845888)
I0308 15:30:56.456225 31267 net.cpp:137] Memory required for data: 1353381888
I0308 15:30:56.456231 31267 net.cpp:200] Decoder_score.up8 does not need backward computation.
I0308 15:30:56.456239 31267 net.cpp:200] Decoder_score does not need backward computation.
I0308 15:30:56.456243 31267 net.cpp:200] Decoder3_3.conv1/relu does not need backward computation.
I0308 15:30:56.456246 31267 net.cpp:200] Decoder3_3.conv1 does not need backward computation.
…
