…
I0308 15:23:28.356611 30878 net.cpp:294] The NetState phase (0) differed from the phase (1) specified by a rule in layer pred
I0308 15:23:28.356613 30878 net.cpp:294] The NetState phase (0) differed from the phase (1) specified by a rule in layer prob_d8
I0308 15:23:28.356616 30878 net.cpp:294] The NetState phase (0) differed from the phase (1) specified by a rule in layer pred_d8
I0308 15:23:28.357060 30878 net.cpp:51] Initializing net from parameters: 
state {
  phase: TRAIN
  level: 0
  stage: ""
}
layer {
  name: "input"
  type: "Input"
  top: "data"
  input_param {
    shape {
      dim: 1
      dim: 3
      dim: 1024
      dim: 2048
    }
  }
}
layer {
  name: "conv1"
  type: "Convolution"
  bottom: "data"
  top: "conv1"
  convolution_param {
    num_output: 32
    bias_term: true
    pad: 1
    kernel_size: 3
    stride: 2
  }
}
layer {
  name: "conv1/relu"
  type: "ReLU"
  bottom: "conv1"
  top: "conv1"
}
layer {
  name: "conv2"
  type: "Convolution"
  bottom: "conv1"
  top: "conv2"
  convolution_param {
    num_output: 64
    bias_term: true
    pad: 1
    kernel_size: 3
    stride: 2
  }
}
layer {
  name: "conv2/relu"
  type: "ReLU"
  bottom: "conv2"
  top: "conv2"
}
layer {
  name: "res2.1.conv1"
  type: "Convolution"
  bottom: "conv2"
  top: "res2.1.conv1"
  convolution_param {
    num_output: 64
    bias_term: true
    pad: 1
    kernel_size: 3
    stride: 2
  }
}
layer {
  name: "res2.1.conv1/relu"
  type: "ReLU"
  bottom: "res2.1.conv1"
  top: "res2.1.conv1"
}
layer {
  name: "res2.1.conv2"
  type: "Convolution"
  bottom: "res2.1.conv1"
  top: "res2.1.conv2"
  convolution_param {
    num_output: 64
    bias_term: true
    pad: 1
    kernel_size: 3
    stride: 1
  }
}
layer {
  name: "res2.1.skipConv"
  type: "Convolution"
  bottom: "conv2"
  top: "res2.1.skipConv"
  convolution_param {
    num_output: 64
    bias_term: true
    pad: 0
    kernel_size: 1
    stride: 2
  }
}
layer {
  name: "res2.1.sum"
  type: "Eltwise"
  bottom: "res2.1.conv2"
  bottom: "res2.1.skipConv"
  top: "res2.1.sum"
  eltwise_param {
    operation: SUM
  }
}
layer {
  name: "res2.1.relu"
  type: "ReLU"
  bottom: "res2.1.sum"
  top: "res2.1.sum"
}
layer {
  name: "res2.2.conv1"
  type: "Convolution"
  bottom: "res2.1.sum"
  top: "res2.2.conv1"
  convolution_param {
    num_output: 64
    bias_term: true
    pad: 1
    kernel_size: 3
    stride: 1
  }
}
layer {
  name: "res2.2.conv1/relu"
  type: "ReLU"
  bottom: "res2.2.conv1"
  top: "res2.2.conv1"
}
layer {
  name: "res2.2.conv2"
  type: "Convolution"
  bottom: "res2.2.conv1"
  top: "res2.2.conv2"
  convolution_param {
    num_output: 64
    bias_term: true
    pad: 1
    kernel_size: 3
    stride: 1
  }
}
layer {
  name: "res2.2.sum"
  type: "Eltwise"
  bottom: "res2.2.conv2"
  bottom: "res2.1.sum"
  top: "res2.2.sum"
  eltwise_param {
    operation: SUM
  }
}
layer {
  name: "res2.2.relu"
  type: "ReLU"
  bottom: "res2.2.sum"
  top: "res2.2.sum"
}
layer {
  name: "res2.3.conv1"
  type: "Convolution"
  bottom: "res2.2.sum"
  top: "res2.3.conv1"
  convolution_param {
    num_output: 128
    bias_term: true
    pad: 1
    kernel_size: 3
    stride: 1
  }
}
layer {
  name: "res2.3.conv1/relu"
  type: "ReLU"
  bottom: "res2.3.conv1"
  top: "res2.3.conv1"
}
layer {
  name: "res2.3.conv2"
  type: "Convolution"
  bottom: "res2.3.conv1"
  top: "res2.3.conv2"
  convolution_param {
    num_output: 128
    bias_term: true
    pad: 1
    kernel_size: 3
    stride: 1
  }
}
layer {
  name: "res2.3.skipConv"
  type: "Convolution"
  bottom: "res2.2.sum"
  top: "res2.3.skipConv"
  convolution_param {
    num_output: 128
    bias_term: true
    pad: 0
    kernel_size: 1
    stride: 1
  }
}
layer {
  name: "res2.3.sum"
  type: "Eltwise"
  bottom: "res2.3.conv2"
  bottom: "res2.3.skipConv"
  top: "res2.3.sum"
  eltwise_param {
    operation: SUM
  }
}
layer {
  name: "res2.3.relu"
  type: "ReLU"
  bottom: "res2.3.sum"
  top: "res2.3.sum"
}
layer {
  name: "res3.1.conv1"
  type: "Convolution"
  bottom: "res2.3.sum"
  top: "res3.1.conv1"
  convolution_param {
    num_output: 128
    bias_term: true
    pad: 1
    kernel_size: 3
    stride: 2
  }
}
layer {
  name: "res3.1.conv1/relu"
  type: "ReLU"
  bottom: "res3.1.conv1"
  top: "res3.1.conv1"
}
layer {
  name: "res3.1.conv2"
  type: "Convolution"
  bottom: "res3.1.conv1"
  top: "res3.1.conv2"
  convolution_param {
    num_output: 128
    bias_term: true
    pad: 1
    kernel_size: 3
    stride: 1
  }
}
layer {
  name: "res3.1.skipConv"
  type: "Convolution"
  bottom: "res2.3.sum"
  top: "res3.1.skipConv"
  convolution_param {
    num_output: 128
    bias_term: true
    pad: 0
    kernel_size: 1
    stride: 2
  }
}
layer {
  name: "res3.1.sum"
  type: "Eltwise"
  bottom: "res3.1.conv2"
  bottom: "res3.1.skipConv"
  top: "res3.1.sum"
  eltwise_param {
    operation: SUM
  }
}
layer {
  name: "res3.1.relu"
  type: "ReLU"
  bottom: "res3.1.sum"
  top: "res3.1.sum"
}
layer {
  name: "res3.2.conv1"
  type: "Convolution"
  bottom: "res3.1.sum"
  top: "res3.2.conv1"
  convolution_param {
    num_output: 128
    bias_term: true
    pad: 1
    kernel_size: 3
    stride: 1
  }
}
layer {
  name: "res3.2.conv1/relu"
  type: "ReLU"
  bottom: "res3.2.conv1"
  top: "res3.2.conv1"
}
layer {
  name: "res3.2.conv2"
  type: "Convolution"
  bottom: "res3.2.conv1"
  top: "res3.2.conv2"
  convolution_param {
    num_output: 128
    bias_term: true
    pad: 1
    kernel_size: 3
    stride: 1
  }
}
layer {
  name: "res3.2.sum"
  type: "Eltwise"
  bottom: "res3.2.conv2"
  bottom: "res3.1.sum"
  top: "res3.2.sum"
  eltwise_param {
    operation: SUM
  }
}
layer {
  name: "res3.2.relu"
  type: "ReLU"
  bottom: "res3.2.sum"
  top: "res3.2.sum"
}
layer {
  name: "res3.3.conv1"
  type: "Convolution"
  bottom: "res3.2.sum"
  top: "res3.3.conv1"
  convolution_param {
    num_output: 128
    bias_term: true
    pad: 1
    kernel_size: 3
    stride: 1
  }
}
layer {
  name: "res3.3.conv1/relu"
  type: "ReLU"
  bottom: "res3.3.conv1"
  top: "res3.3.conv1"
}
layer {
  name: "res3.3.conv2"
  type: "Convolution"
  bottom: "res3.3.conv1"
  top: "res3.3.conv2"
  convolution_param {
    num_output: 128
    bias_term: true
    pad: 1
    kernel_size: 3
    stride: 1
  }
}
layer {
  name: "res3.3.sum"
  type: "Eltwise"
  bottom: "res3.3.conv2"
  bottom: "res3.2.sum"
  top: "res3.3.sum"
  eltwise_param {
    operation: SUM
  }
}
layer {
  name: "res3.3.relu"
  type: "ReLU"
  bottom: "res3.3.sum"
  top: "res3.3.sum"
}
layer {
  name: "res3.4.conv1"
  type: "Convolution"
  bottom: "res3.3.sum"
  top: "res3.4.conv1"
  convolution_param {
    num_output: 128
    bias_term: true
    pad: 1
    kernel_size: 3
    stride: 1
  }
}
layer {
  name: "res3.4.conv1/relu"
  type: "ReLU"
  bottom: "res3.4.conv1"
  top: "res3.4.conv1"
}
layer {
  name: "res3.4.conv2"
  type: "Convolution"
  bottom: "res3.4.conv1"
  top: "res3.4.conv2"
  convolution_param {
    num_output: 128
    bias_term: true
    pad: 1
    kernel_size: 3
    stride: 1
  }
}
layer {
  name: "res3.4.sum"
  type: "Eltwise"
  bottom: "res3.4.conv2"
  bottom: "res3.3.sum"
  top: "res3.4.sum"
  eltwise_param {
    operation: SUM
  }
}
layer {
  name: "res3.4.relu"
  type: "ReLU"
  bottom: "res3.4.sum"
  top: "res3.4.sum"
}
layer {
  name: "res3.5.conv1"
  type: "Convolution"
  bottom: "res3.4.sum"
  top: "res3.5.conv1"
  convolution_param {
    num_output: 128
    bias_term: true
    pad: 1
    kernel_size: 3
    stride: 1
  }
}
layer {
  name: "res3.5.conv1/relu"
  type: "ReLU"
  bottom: "res3.5.conv1"
  top: "res3.5.conv1"
}
layer {
  name: "res3.5.conv2"
  type: "Convolution"
  bottom: "res3.5.conv1"
  top: "res3.5.conv2"
  convolution_param {
    num_output: 128
    bias_term: true
    pad: 1
    kernel_size: 3
    stride: 1
  }
}
layer {
  name: "res3.5.sum"
  type: "Eltwise"
  bottom: "res3.5.conv2"
  bottom: "res3.4.sum"
  top: "res3.5.sum"
  eltwise_param {
    operation: SUM
  }
}
layer {
  name: "res3.5.relu"
  type: "ReLU"
  bottom: "res3.5.sum"
  top: "res3.5.sum"
}
layer {
  name: "res3.6.conv1"
  type: "Convolution"
  bottom: "res3.5.sum"
  top: "res3.6.conv1"
  convolution_param {
    num_output: 128
    bias_term: true
    pad: 1
    kernel_size: 3
    stride: 1
  }
}
layer {
  name: "res3.6.conv1/relu"
  type: "ReLU"
  bottom: "res3.6.conv1"
  top: "res3.6.conv1"
}
layer {
  name: "res3.6.conv2"
  type: "Convolution"
  bottom: "res3.6.conv1"
  top: "res3.6.conv2"
  convolution_param {
    num_output: 128
    bias_term: true
    pad: 1
    kernel_size: 3
    stride: 1
  }
}
layer {
  name: "res3.6.sum"
  type: "Eltwise"
  bottom: "res3.6.conv2"
  bottom: "res3.5.sum"
  top: "res3.6.sum"
  eltwise_param {
    operation: SUM
  }
}
layer {
  name: "res3.6.relu"
  type: "ReLU"
  bottom: "res3.6.sum"
  top: "res3.6.sum"
}
layer {
  name: "res3.7.conv1"
  type: "Convolution"
  bottom: "res3.6.sum"
  top: "res3.7.conv1"
  convolution_param {
    num_output: 128
    bias_term: true
    pad: 1
    kernel_size: 3
    stride: 1
  }
}
layer {
  name: "res3.7.conv1/relu"
  type: "ReLU"
  bottom: "res3.7.conv1"
  top: "res3.7.conv1"
}
layer {
  name: "res3.7.conv2"
  type: "Convolution"
  bottom: "res3.7.conv1"
  top: "res3.7.conv2"
  convolution_param {
    num_output: 128
    bias_term: true
    pad: 1
    kernel_size: 3
    stride: 1
  }
}
layer {
  name: "res3.7.sum"
  type: "Eltwise"
  bottom: "res3.7.conv2"
  bottom: "res3.6.sum"
  top: "res3.7.sum"
  eltwise_param {
    operation: SUM
  }
}
layer {
  name: "res3.7.relu"
  type: "ReLU"
  bottom: "res3.7.sum"
  top: "res3.7.sum"
}
layer {
  name: "res3.8.conv1"
  type: "Convolution"
  bottom: "res3.7.sum"
  top: "res3.8.conv1"
  convolution_param {
    num_output: 128
    bias_term: true
    pad: 1
    kernel_size: 3
    stride: 1
  }
}
layer {
  name: "res3.8.conv1/relu"
  type: "ReLU"
  bottom: "res3.8.conv1"
  top: "res3.8.conv1"
}
layer {
  name: "res3.8.conv2"
  type: "Convolution"
  bottom: "res3.8.conv1"
  top: "res3.8.conv2"
  convolution_param {
    num_output: 128
    bias_term: true
    pad: 1
    kernel_size: 3
    stride: 1
  }
}
layer {
  name: "res3.8.sum"
  type: "Eltwise"
  bottom: "res3.8.conv2"
  bottom: "res3.7.sum"
  top: "res3.8.sum"
  eltwise_param {
    operation: SUM
  }
}
layer {
  name: "res3.8.relu"
  type: "ReLU"
  bottom: "res3.8.sum"
  top: "res3.8.sum"
}
layer {
  name: "res3.9.conv1"
  type: "Convolution"
  bottom: "res3.8.sum"
  top: "res3.9.conv1"
  convolution_param {
    num_output: 128
    bias_term: true
    pad: 1
    kernel_size: 3
    stride: 1
  }
}
layer {
  name: "res3.9.conv1/relu"
  type: "ReLU"
  bottom: "res3.9.conv1"
  top: "res3.9.conv1"
}
layer {
  name: "res3.9.conv2"
  type: "Convolution"
  bottom: "res3.9.conv1"
  top: "res3.9.conv2"
  convolution_param {
    num_output: 128
    bias_term: true
    pad: 1
    kernel_size: 3
    stride: 1
  }
}
layer {
  name: "res3.9.sum"
  type: "Eltwise"
  bottom: "res3.9.conv2"
  bottom: "res3.8.sum"
  top: "res3.9.sum"
  eltwise_param {
    operation: SUM
  }
}
layer {
  name: "res3.9.relu"
  type: "ReLU"
  bottom: "res3.9.sum"
  top: "res3.9.sum"
}
layer {
  name: "res3.10.conv1"
  type: "Convolution"
  bottom: "res3.9.sum"
  top: "res3.10.conv1"
  convolution_param {
    num_output: 128
    bias_term: true
    pad: 1
    kernel_size: 3
    stride: 1
  }
}
layer {
  name: "res3.10.conv1/relu"
  type: "ReLU"
  bottom: "res3.10.conv1"
  top: "res3.10.conv1"
}
layer {
  name: "res3.10.conv2"
  type: "Convolution"
  bottom: "res3.10.conv1"
  top: "res3.10.conv2"
  convolution_param {
    num_output: 128
    bias_term: true
    pad: 1
    kernel_size: 3
    stride: 1
  }
}
layer {
  name: "res3.10.sum"
  type: "Eltwise"
  bottom: "res3.10.conv2"
  bottom: "res3.9.sum"
  top: "res3.10.sum"
  eltwise_param {
    operation: SUM
  }
}
layer {
  name: "res3.10.relu"
  type: "ReLU"
  bottom: "res3.10.sum"
  top: "res3.10.sum"
}
layer {
  name: "res3.11.conv1"
  type: "Convolution"
  bottom: "res3.10.sum"
  top: "res3.11.conv1"
  convolution_param {
    num_output: 256
    bias_term: true
    pad: 1
    kernel_size: 3
    stride: 1
  }
}
layer {
  name: "res3.11.conv1/relu"
  type: "ReLU"
  bottom: "res3.11.conv1"
  top: "res3.11.conv1"
}
layer {
  name: "res3.11.conv2"
  type: "Convolution"
  bottom: "res3.11.conv1"
  top: "res3.11.conv2"
  convolution_param {
    num_output: 256
    bias_term: true
    pad: 1
    kernel_size: 3
    stride: 1
  }
}
layer {
  name: "res3.11.skipConv"
  type: "Convolution"
  bottom: "res3.10.sum"
  top: "res3.11.skipConv"
  convolution_param {
    num_output: 256
    bias_term: true
    pad: 0
    kernel_size: 1
    stride: 1
  }
}
layer {
  name: "res3.11.sum"
  type: "Eltwise"
  bottom: "res3.11.conv2"
  bottom: "res3.11.skipConv"
  top: "res3.11.sum"
  eltwise_param {
    operation: SUM
  }
}
layer {
  name: "res3.11.relu"
  type: "ReLU"
  bottom: "res3.11.sum"
  top: "res3.11.sum"
}
layer {
  name: "res4.1.conv1"
  type: "Convolution"
  bottom: "res3.11.sum"
  top: "res4.1.conv1"
  convolution_param {
    num_output: 256
    bias_term: true
    pad: 1
    kernel_size: 3
    stride: 2
  }
}
layer {
  name: "res4.1.conv1/relu"
  type: "ReLU"
  bottom: "res4.1.conv1"
  top: "res4.1.conv1"
}
layer {
  name: "res4.1.conv2"
  type: "Convolution"
  bottom: "res4.1.conv1"
  top: "res4.1.conv2"
  convolution_param {
    num_output: 256
    bias_term: true
    pad: 1
    kernel_size: 3
    stride: 1
  }
}
layer {
  name: "res4.1.skipConv"
  type: "Convolution"
  bottom: "res3.11.sum"
  top: "res4.1.skipConv"
  convolution_param {
    num_output: 256
    bias_term: true
    pad: 0
    kernel_size: 1
    stride: 2
  }
}
layer {
  name: "res4.1.sum"
  type: "Eltwise"
  bottom: "res4.1.conv2"
  bottom: "res4.1.skipConv"
  top: "res4.1.sum"
  eltwise_param {
    operation: SUM
  }
}
layer {
  name: "res4.1.relu"
  type: "ReLU"
  bottom: "res4.1.sum"
  top: "res4.1.sum"
}
layer {
  name: "res4.2.conv1"
  type: "Convolution"
  bottom: "res4.1.sum"
  top: "res4.2.conv1"
  convolution_param {
    num_output: 256
    bias_term: true
    pad: 1
    kernel_size: 3
    stride: 1
  }
}
layer {
  name: "res4.2.conv1/relu"
  type: "ReLU"
  bottom: "res4.2.conv1"
  top: "res4.2.conv1"
}
layer {
  name: "res4.2.conv2"
  type: "Convolution"
  bottom: "res4.2.conv1"
  top: "res4.2.conv2"
  convolution_param {
    num_output: 256
    bias_term: true
    pad: 1
    kernel_size: 3
    stride: 1
  }
}
layer {
  name: "res4.2.sum"
  type: "Eltwise"
  bottom: "res4.2.conv2"
  bottom: "res4.1.sum"
  top: "res4.2.sum"
  eltwise_param {
    operation: SUM
  }
}
layer {
  name: "res4.2.relu"
  type: "ReLU"
  bottom: "res4.2.sum"
  top: "res4.2.sum"
}
layer {
  name: "res4.3.conv1"
  type: "Convolution"
  bottom: "res4.2.sum"
  top: "res4.3.conv1"
  convolution_param {
    num_output: 256
    bias_term: true
    pad: 1
    kernel_size: 3
    stride: 1
  }
}
layer {
  name: "res4.3.conv1/relu"
  type: "ReLU"
  bottom: "res4.3.conv1"
  top: "res4.3.conv1"
}
layer {
  name: "res4.3.conv2"
  type: "Convolution"
  bottom: "res4.3.conv1"
  top: "res4.3.conv2"
  convolution_param {
    num_output: 256
    bias_term: true
    pad: 1
    kernel_size: 3
    stride: 1
  }
}
layer {
  name: "res4.3.sum"
  type: "Eltwise"
  bottom: "res4.3.conv2"
  bottom: "res4.2.sum"
  top: "res4.3.sum"
  eltwise_param {
    operation: SUM
  }
}
layer {
  name: "res4.3.relu"
  type: "ReLU"
  bottom: "res4.3.sum"
  top: "res4.3.sum"
}
layer {
  name: "res4.4.conv1"
  type: "Convolution"
  bottom: "res4.3.sum"
  top: "res4.4.conv1"
  convolution_param {
    num_output: 256
    bias_term: true
    pad: 1
    kernel_size: 3
    stride: 1
  }
}
layer {
  name: "res4.4.conv1/relu"
  type: "ReLU"
  bottom: "res4.4.conv1"
  top: "res4.4.conv1"
}
layer {
  name: "res4.4.conv2"
  type: "Convolution"
  bottom: "res4.4.conv1"
  top: "res4.4.conv2"
  convolution_param {
    num_output: 256
    bias_term: true
    pad: 1
    kernel_size: 3
    stride: 1
  }
}
layer {
  name: "res4.4.sum"
  type: "Eltwise"
  bottom: "res4.4.conv2"
  bottom: "res4.3.sum"
  top: "res4.4.sum"
  eltwise_param {
    operation: SUM
  }
}
layer {
  name: "res4.4.relu"
  type: "ReLU"
  bottom: "res4.4.sum"
  top: "res4.4.sum"
}
layer {
  name: "res4.5.conv1"
  type: "Convolution"
  bottom: "res4.4.sum"
  top: "res4.5.conv1"
  convolution_param {
    num_output: 512
    bias_term: true
    pad: 1
    kernel_size: 3
    stride: 1
  }
}
layer {
  name: "res4.5.conv1/relu"
  type: "ReLU"
  bottom: "res4.5.conv1"
  top: "res4.5.conv1"
}
layer {
  name: "res4.5.conv2"
  type: "Convolution"
  bottom: "res4.5.conv1"
  top: "res4.5.conv2"
  convolution_param {
    num_output: 512
    bias_term: true
    pad: 1
    kernel_size: 3
    stride: 1
  }
}
layer {
  name: "res4.5.skipConv"
  type: "Convolution"
  bottom: "res4.4.sum"
  top: "res4.5.skipConv"
  convolution_param {
    num_output: 512
    bias_term: true
    pad: 0
    kernel_size: 1
    stride: 1
  }
}
layer {
  name: "res4.5.sum"
  type: "Eltwise"
  bottom: "res4.5.conv2"
  bottom: "res4.5.skipConv"
  top: "res4.5.sum"
  eltwise_param {
    operation: SUM
  }
}
layer {
  name: "res4.5.relu"
  type: "ReLU"
  bottom: "res4.5.sum"
  top: "res4.5.sum"
}
layer {
  name: "res4.6.conv1"
  type: "Convolution"
  bottom: "res4.5.sum"
  top: "res4.6.conv1"
  convolution_param {
    num_output: 512
    bias_term: true
    pad: 1
    kernel_size: 3
    stride: 1
  }
}
layer {
  name: "res4.6.conv1/relu"
  type: "ReLU"
  bottom: "res4.6.conv1"
  top: "res4.6.conv1"
}
layer {
  name: "res4.6.conv2"
  type: "Convolution"
  bottom: "res4.6.conv1"
  top: "res4.6.conv2"
  convolution_param {
    num_output: 512
    bias_term: true
    pad: 1
    kernel_size: 3
    stride: 1
  }
}
layer {
  name: "res4.6.sum"
  type: "Eltwise"
  bottom: "res4.6.conv2"
  bottom: "res4.5.sum"
  top: "res4.6.sum"
  eltwise_param {
    operation: SUM
  }
}
layer {
  name: "res4.6.relu"
  type: "ReLU"
  bottom: "res4.6.sum"
  top: "res4.6.sum"
}
layer {
  name: "psp.pool1"
  type: "Pooling"
  bottom: "res4.6.sum"
  top: "psp.pool1"
  pooling_param {
    pool: AVE
    kernel_size: 32
    stride: 32
  }
}
layer {
  name: "psp.pool1.conv"
  type: "Convolution"
  bottom: "psp.pool1"
  top: "psp.pool1.conv"
  convolution_param {
    num_output: 128
    bias_term: true
    pad: 0
    kernel_size: 1
    stride: 1
  }
}
layer {
  name: "psp.pool1.conv/relu"
  type: "ReLU"
  bottom: "psp.pool1.conv"
  top: "psp.pool1.conv"
}
layer {
  name: "psp.pool1.interp"
  type: "Interp"
  bottom: "psp.pool1.conv"
  top: "psp.pool1.interp"
  include {
    phase: TRAIN
  }
  interp_param {
    height: 32
    width: 64
  }
}
layer {
  name: "psp.pool2"
  type: "Pooling"
  bottom: "res4.6.sum"
  top: "psp.pool2"
  pooling_param {
    pool: AVE
    kernel_size: 16
    stride: 16
  }
}
layer {
  name: "psp.pool2.conv"
  type: "Convolution"
  bottom: "psp.pool2"
  top: "psp.pool2.conv"
  convolution_param {
    num_output: 128
    bias_term: true
    pad: 0
    kernel_size: 1
    stride: 1
  }
}
layer {
  name: "psp.pool2.conv/relu"
  type: "ReLU"
  bottom: "psp.pool2.conv"
  top: "psp.pool2.conv"
}
layer {
  name: "psp.pool2.interp"
  type: "Interp"
  bottom: "psp.pool2.conv"
  top: "psp.pool2.interp"
  include {
    phase: TRAIN
  }
  interp_param {
    height: 32
    width: 64
  }
}
layer {
  name: "psp.pool3"
  type: "Pooling"
  bottom: "res4.6.sum"
  top: "psp.pool3"
  pooling_param {
    pool: AVE
    kernel_size: 8
    stride: 8
  }
}
layer {
  name: "psp.pool3.conv"
  type: "Convolution"
  bottom: "psp.pool3"
  top: "psp.pool3.conv"
  convolution_param {
    num_output: 128
    bias_term: true
    pad: 0
    kernel_size: 1
    stride: 1
  }
}
layer {
  name: "psp.pool3.conv/relu"
  type: "ReLU"
  bottom: "psp.pool3.conv"
  top: "psp.pool3.conv"
}
layer {
  name: "psp.pool3.interp"
  type: "Interp"
  bottom: "psp.pool3.conv"
  top: "psp.pool3.interp"
  include {
    phase: TRAIN
  }
  interp_param {
    height: 32
    width: 64
  }
}
layer {
  name: "psp.pool4"
  type: "Pooling"
  bottom: "res4.6.sum"
  top: "psp.pool4"
  pooling_param {
    pool: AVE
    kernel_size: 4
    stride: 4
  }
}
layer {
  name: "psp.pool4.conv"
  type: "Convolution"
  bottom: "psp.pool4"
  top: "psp.pool4.conv"
  convolution_param {
    num_output: 128
    bias_term: true
    pad: 0
    kernel_size: 1
    stride: 1
  }
}
layer {
  name: "psp.pool4.conv/relu"
  type: "ReLU"
  bottom: "psp.pool4.conv"
  top: "psp.pool4.conv"
}
layer {
  name: "psp.pool4.interp"
  type: "Interp"
  bottom: "psp.pool4.conv"
  top: "psp.pool4.interp"
  include {
    phase: TRAIN
  }
  interp_param {
    height: 32
    width: 64
  }
}
layer {
  name: "psp.concat"
  type: "Concat"
  bottom: "res4.6.sum"
  bottom: "psp.pool1.interp"
  bottom: "psp.pool2.interp"
  bottom: "psp.pool3.interp"
  bottom: "psp.pool4.interp"
  top: "psp.concat"
}
layer {
  name: "psp.concat.conv"
  type: "Convolution"
  bottom: "psp.concat"
  top: "psp.concat.conv"
  convolution_param {
    num_output: 512
    bias_term: true
    pad: 1
    kernel_size: 3
    stride: 1
  }
}
layer {
  name: "psp.concat.conv/relu"
  type: "ReLU"
  bottom: "psp.concat.conv"
  top: "psp.concat.conv"
}
layer {
  name: "Decoder_wc3"
  type: "Convolution"
  bottom: "res2.3.sum"
  top: "Decoder_wc3"
  convolution_param {
    num_output: 19
    bias_term: true
    pad: 0
    kernel_size: 1
    stride: 1
  }
}
layer {
  name: "Decoder_wc3/relu"
  type: "ReLU"
  bottom: "Decoder_wc3"
  top: "Decoder_wc3"
}
layer {
  name: "Decoder_wc4"
  type: "Convolution"
  bottom: "res3.11.sum"
  top: "Decoder_wc4"
  convolution_param {
    num_output: 19
    bias_term: true
    pad: 0
    kernel_size: 1
    stride: 1
  }
}
layer {
  name: "Decoder_wc4/relu"
  type: "ReLU"
  bottom: "Decoder_wc4"
  top: "Decoder_wc4"
}
layer {
  name: "Decoder_wc5"
  type: "Convolution"
  bottom: "psp.concat.conv"
  top: "Decoder_wc5"
  convolution_param {
    num_output: 32
    bias_term: true
    pad: 0
    kernel_size: 1
    stride: 1
  }
}
layer {
  name: "Decoder_wc5/relu"
  type: "ReLU"
  bottom: "Decoder_wc5"
  top: "Decoder_wc5"
}
layer {
  name: "Decoder4_4.proj"
  type: "Convolution"
  bottom: "Decoder_wc5"
  top: "Decoder4_4.proj"
  convolution_param {
    num_output: 19
    bias_term: true
    pad: 0
    kernel_size: 1
    stride: 1
  }
}
layer {
  name: "Decoder4_4.proj/relu"
  type: "ReLU"
  bottom: "Decoder4_4.proj"
  top: "Decoder4_4.proj"
}
layer {
  name: "Decoder4_4.proj/up2"
  type: "Deconvolution"
  bottom: "Decoder4_4.proj"
  top: "Decoder4_4.proj/up2"
  param {
    lr_mult: 0
    decay_mult: 0
  }
  convolution_param {
    num_output: 19
    bias_term: false
    pad: 1
    kernel_size: 4
    group: 19
    stride: 2
    weight_filler {
      type: "bilinear"
    }
  }
}
layer {
  name: "Decoder4_4.concat"
  type: "Concat"
  bottom: "Decoder_wc4"
  bottom: "Decoder4_4.proj/up2"
  top: "Decoder4_4.concat"
}
layer {
  name: "Decoder4_4.conv1"
  type: "Convolution"
  bottom: "Decoder4_4.concat"
  top: "Decoder4_4.conv1"
  convolution_param {
    num_output: 19
    bias_term: true
    pad: 1
    kernel_size: 3
    stride: 1
  }
}
layer {
  name: "Decoder4_4.conv1/relu"
  type: "ReLU"
  bottom: "Decoder4_4.conv1"
  top: "Decoder4_4.conv1"
}
layer {
  name: "Decoder3_3.proj"
  type: "Convolution"
  bottom: "Decoder4_4.conv1"
  top: "Decoder3_3.proj"
  convolution_param {
    num_output: 19
    bias_term: true
    pad: 0
    kernel_size: 1
    stride: 1
  }
}
layer {
  name: "Decoder3_3.proj/relu"
  type: "ReLU"
  bottom: "Decoder3_3.proj"
  top: "Decoder3_3.proj"
}
layer {
  name: "Decoder3_3.proj/up2"
  type: "Deconvolution"
  bottom: "Decoder3_3.proj"
  top: "Decoder3_3.proj/up2"
  param {
    lr_mult: 0
    decay_mult: 0
  }
  convolution_param {
    num_output: 19
    bias_term: false
    pad: 1
    kernel_size: 4
    group: 19
    stride: 2
    weight_filler {
      type: "bilinear"
    }
  }
}
layer {
  name: "Decoder3_3.concat"
  type: "Concat"
  bottom: "Decoder_wc3"
  bottom: "Decoder3_3.proj/up2"
  top: "Decoder3_3.concat"
}
layer {
  name: "Decoder3_3.conv1"
  type: "Convolution"
  bottom: "Decoder3_3.concat"
  top: "Decoder3_3.conv1"
  convolution_param {
    num_output: 19
    bias_term: true
    pad: 1
    kernel_size: 3
    stride: 1
  }
}
layer {
  name: "Decoder3_3.conv1/relu"
  type: "ReLU"
  bottom: "Decoder3_3.conv1"
  top: "Decoder3_3.conv1"
}
layer {
  name: "Decoder_score"
  type: "Convolution"
  bottom: "Decoder3_3.conv1"
  top: "Decoder_score"
  convolution_param {
    num_output: 19
    bias_term: true
    pad: 1
    kernel_size: 3
    stride: 1
  }
}
layer {
  name: "Decoder_score.up8"
  type: "Deconvolution"
  bottom: "Decoder_score"
  top: "Decoder_score.up8"
  param {
    lr_mult: 0
    decay_mult: 0
  }
  convolution_param {
    num_output: 19
    bias_term: false
    pad: 4
    kernel_size: 16
    group: 19
    stride: 8
    weight_filler {
      type: "bilinear"
    }
  }
}
I0308 15:23:28.357673 30878 layer_factory.hpp:77] Creating layer input
I0308 15:23:28.357688 30878 net.cpp:84] Creating Layer input
I0308 15:23:28.357694 30878 net.cpp:380] input -> data
I0308 15:23:28.365773 30878 net.cpp:122] Setting up input
I0308 15:23:28.365803 30878 net.cpp:129] Top shape: 1 3 1024 2048 (6291456)
I0308 15:23:28.365819 30878 net.cpp:137] Memory required for data: 25165824
I0308 15:23:28.365825 30878 layer_factory.hpp:77] Creating layer conv1
I0308 15:23:28.365839 30878 net.cpp:84] Creating Layer conv1
I0308 15:23:28.365844 30878 net.cpp:406] conv1 <- data
I0308 15:23:28.365852 30878 net.cpp:380] conv1 -> conv1
I0308 15:23:28.827260 30878 net.cpp:122] Setting up conv1
I0308 15:23:28.827301 30878 net.cpp:129] Top shape: 1 32 512 1024 (16777216)
I0308 15:23:28.827306 30878 net.cpp:137] Memory required for data: 92274688
I0308 15:23:28.827327 30878 layer_factory.hpp:77] Creating layer conv1/relu
I0308 15:23:28.827339 30878 net.cpp:84] Creating Layer conv1/relu
I0308 15:23:28.827344 30878 net.cpp:406] conv1/relu <- conv1
I0308 15:23:28.827361 30878 net.cpp:367] conv1/relu -> conv1 (in-place)
I0308 15:23:28.827909 30878 net.cpp:122] Setting up conv1/relu
I0308 15:23:28.827924 30878 net.cpp:129] Top shape: 1 32 512 1024 (16777216)
I0308 15:23:28.827929 30878 net.cpp:137] Memory required for data: 159383552
I0308 15:23:28.827932 30878 layer_factory.hpp:77] Creating layer conv2
I0308 15:23:28.827941 30878 net.cpp:84] Creating Layer conv2
I0308 15:23:28.827945 30878 net.cpp:406] conv2 <- conv1
I0308 15:23:28.827950 30878 net.cpp:380] conv2 -> conv2
I0308 15:23:28.830829 30878 net.cpp:122] Setting up conv2
I0308 15:23:28.830847 30878 net.cpp:129] Top shape: 1 64 256 512 (8388608)
I0308 15:23:28.830852 30878 net.cpp:137] Memory required for data: 192937984
I0308 15:23:28.830860 30878 layer_factory.hpp:77] Creating layer conv2/relu
I0308 15:23:28.830868 30878 net.cpp:84] Creating Layer conv2/relu
I0308 15:23:28.830871 30878 net.cpp:406] conv2/relu <- conv2
I0308 15:23:28.830876 30878 net.cpp:367] conv2/relu -> conv2 (in-place)
I0308 15:23:28.831405 30878 net.cpp:122] Setting up conv2/relu
I0308 15:23:28.831430 30878 net.cpp:129] Top shape: 1 64 256 512 (8388608)
I0308 15:23:28.831434 30878 net.cpp:137] Memory required for data: 226492416
I0308 15:23:28.831439 30878 layer_factory.hpp:77] Creating layer conv2_conv2/relu_0_split
I0308 15:23:28.831444 30878 net.cpp:84] Creating Layer conv2_conv2/relu_0_split
I0308 15:23:28.831459 30878 net.cpp:406] conv2_conv2/relu_0_split <- conv2
I0308 15:23:28.831465 30878 net.cpp:380] conv2_conv2/relu_0_split -> conv2_conv2/relu_0_split_0
I0308 15:23:28.831471 30878 net.cpp:380] conv2_conv2/relu_0_split -> conv2_conv2/relu_0_split_1
I0308 15:23:28.831545 30878 net.cpp:122] Setting up conv2_conv2/relu_0_split
I0308 15:23:28.831553 30878 net.cpp:129] Top shape: 1 64 256 512 (8388608)
I0308 15:23:28.831559 30878 net.cpp:129] Top shape: 1 64 256 512 (8388608)
I0308 15:23:28.831562 30878 net.cpp:137] Memory required for data: 293601280
I0308 15:23:28.831565 30878 layer_factory.hpp:77] Creating layer res2.1.conv1
I0308 15:23:28.831574 30878 net.cpp:84] Creating Layer res2.1.conv1
I0308 15:23:28.831578 30878 net.cpp:406] res2.1.conv1 <- conv2_conv2/relu_0_split_0
I0308 15:23:28.831588 30878 net.cpp:380] res2.1.conv1 -> res2.1.conv1
I0308 15:23:28.833593 30878 net.cpp:122] Setting up res2.1.conv1
I0308 15:23:28.833609 30878 net.cpp:129] Top shape: 1 64 128 256 (2097152)
I0308 15:23:28.833612 30878 net.cpp:137] Memory required for data: 301989888
I0308 15:23:28.833621 30878 layer_factory.hpp:77] Creating layer res2.1.conv1/relu
I0308 15:23:28.833629 30878 net.cpp:84] Creating Layer res2.1.conv1/relu
I0308 15:23:28.833633 30878 net.cpp:406] res2.1.conv1/relu <- res2.1.conv1
I0308 15:23:28.833639 30878 net.cpp:367] res2.1.conv1/relu -> res2.1.conv1 (in-place)
I0308 15:23:28.834251 30878 net.cpp:122] Setting up res2.1.conv1/relu
I0308 15:23:28.834267 30878 net.cpp:129] Top shape: 1 64 128 256 (2097152)
I0308 15:23:28.834270 30878 net.cpp:137] Memory required for data: 310378496
I0308 15:23:28.834275 30878 layer_factory.hpp:77] Creating layer res2.1.conv2
I0308 15:23:28.834283 30878 net.cpp:84] Creating Layer res2.1.conv2
I0308 15:23:28.834286 30878 net.cpp:406] res2.1.conv2 <- res2.1.conv1
I0308 15:23:28.834293 30878 net.cpp:380] res2.1.conv2 -> res2.1.conv2
I0308 15:23:28.836349 30878 net.cpp:122] Setting up res2.1.conv2
I0308 15:23:28.836365 30878 net.cpp:129] Top shape: 1 64 128 256 (2097152)
I0308 15:23:28.836369 30878 net.cpp:137] Memory required for data: 318767104
I0308 15:23:28.836377 30878 layer_factory.hpp:77] Creating layer res2.1.skipConv
I0308 15:23:28.836386 30878 net.cpp:84] Creating Layer res2.1.skipConv
I0308 15:23:28.836390 30878 net.cpp:406] res2.1.skipConv <- conv2_conv2/relu_0_split_1
I0308 15:23:28.836396 30878 net.cpp:380] res2.1.skipConv -> res2.1.skipConv
I0308 15:23:28.838872 30878 net.cpp:122] Setting up res2.1.skipConv
I0308 15:23:28.838888 30878 net.cpp:129] Top shape: 1 64 128 256 (2097152)
I0308 15:23:28.838891 30878 net.cpp:137] Memory required for data: 327155712
I0308 15:23:28.838902 30878 layer_factory.hpp:77] Creating layer res2.1.sum
I0308 15:23:28.838910 30878 net.cpp:84] Creating Layer res2.1.sum
I0308 15:23:28.838913 30878 net.cpp:406] res2.1.sum <- res2.1.conv2
I0308 15:23:28.838918 30878 net.cpp:406] res2.1.sum <- res2.1.skipConv
I0308 15:23:28.838924 30878 net.cpp:380] res2.1.sum -> res2.1.sum
I0308 15:23:28.838971 30878 net.cpp:122] Setting up res2.1.sum
I0308 15:23:28.838979 30878 net.cpp:129] Top shape: 1 64 128 256 (2097152)
I0308 15:23:28.838982 30878 net.cpp:137] Memory required for data: 335544320
I0308 15:23:28.838985 30878 layer_factory.hpp:77] Creating layer res2.1.relu
I0308 15:23:28.838992 30878 net.cpp:84] Creating Layer res2.1.relu
I0308 15:23:28.838995 30878 net.cpp:406] res2.1.relu <- res2.1.sum
I0308 15:23:28.838999 30878 net.cpp:367] res2.1.relu -> res2.1.sum (in-place)
I0308 15:23:28.839560 30878 net.cpp:122] Setting up res2.1.relu
I0308 15:23:28.839572 30878 net.cpp:129] Top shape: 1 64 128 256 (2097152)
I0308 15:23:28.839576 30878 net.cpp:137] Memory required for data: 343932928
I0308 15:23:28.839579 30878 layer_factory.hpp:77] Creating layer res2.1.sum_res2.1.relu_0_split
I0308 15:23:28.839586 30878 net.cpp:84] Creating Layer res2.1.sum_res2.1.relu_0_split
I0308 15:23:28.839589 30878 net.cpp:406] res2.1.sum_res2.1.relu_0_split <- res2.1.sum
I0308 15:23:28.839594 30878 net.cpp:380] res2.1.sum_res2.1.relu_0_split -> res2.1.sum_res2.1.relu_0_split_0
I0308 15:23:28.839601 30878 net.cpp:380] res2.1.sum_res2.1.relu_0_split -> res2.1.sum_res2.1.relu_0_split_1
I0308 15:23:28.839658 30878 net.cpp:122] Setting up res2.1.sum_res2.1.relu_0_split
I0308 15:23:28.839665 30878 net.cpp:129] Top shape: 1 64 128 256 (2097152)
I0308 15:23:28.839680 30878 net.cpp:129] Top shape: 1 64 128 256 (2097152)
I0308 15:23:28.839684 30878 net.cpp:137] Memory required for data: 360710144
I0308 15:23:28.839687 30878 layer_factory.hpp:77] Creating layer res2.2.conv1
I0308 15:23:28.839695 30878 net.cpp:84] Creating Layer res2.2.conv1
I0308 15:23:28.839700 30878 net.cpp:406] res2.2.conv1 <- res2.1.sum_res2.1.relu_0_split_0
I0308 15:23:28.839705 30878 net.cpp:380] res2.2.conv1 -> res2.2.conv1
I0308 15:23:28.841737 30878 net.cpp:122] Setting up res2.2.conv1
I0308 15:23:28.841765 30878 net.cpp:129] Top shape: 1 64 128 256 (2097152)
I0308 15:23:28.841769 30878 net.cpp:137] Memory required for data: 369098752
I0308 15:23:28.841778 30878 layer_factory.hpp:77] Creating layer res2.2.conv1/relu
I0308 15:23:28.841786 30878 net.cpp:84] Creating Layer res2.2.conv1/relu
I0308 15:23:28.841790 30878 net.cpp:406] res2.2.conv1/relu <- res2.2.conv1
I0308 15:23:28.841796 30878 net.cpp:367] res2.2.conv1/relu -> res2.2.conv1 (in-place)
I0308 15:23:28.842401 30878 net.cpp:122] Setting up res2.2.conv1/relu
I0308 15:23:28.842416 30878 net.cpp:129] Top shape: 1 64 128 256 (2097152)
I0308 15:23:28.842432 30878 net.cpp:137] Memory required for data: 377487360
I0308 15:23:28.842435 30878 layer_factory.hpp:77] Creating layer res2.2.conv2
I0308 15:23:28.842443 30878 net.cpp:84] Creating Layer res2.2.conv2
I0308 15:23:28.842447 30878 net.cpp:406] res2.2.conv2 <- res2.2.conv1
I0308 15:23:28.842454 30878 net.cpp:380] res2.2.conv2 -> res2.2.conv2
I0308 15:23:28.845001 30878 net.cpp:122] Setting up res2.2.conv2
I0308 15:23:28.845029 30878 net.cpp:129] Top shape: 1 64 128 256 (2097152)
I0308 15:23:28.845034 30878 net.cpp:137] Memory required for data: 385875968
I0308 15:23:28.845041 30878 layer_factory.hpp:77] Creating layer res2.2.sum
I0308 15:23:28.845052 30878 net.cpp:84] Creating Layer res2.2.sum
I0308 15:23:28.845057 30878 net.cpp:406] res2.2.sum <- res2.2.conv2
I0308 15:23:28.845062 30878 net.cpp:406] res2.2.sum <- res2.1.sum_res2.1.relu_0_split_1
I0308 15:23:28.845067 30878 net.cpp:380] res2.2.sum -> res2.2.sum
I0308 15:23:28.845104 30878 net.cpp:122] Setting up res2.2.sum
I0308 15:23:28.845111 30878 net.cpp:129] Top shape: 1 64 128 256 (2097152)
I0308 15:23:28.845114 30878 net.cpp:137] Memory required for data: 394264576
I0308 15:23:28.845118 30878 layer_factory.hpp:77] Creating layer res2.2.relu
I0308 15:23:28.845122 30878 net.cpp:84] Creating Layer res2.2.relu
I0308 15:23:28.845125 30878 net.cpp:406] res2.2.relu <- res2.2.sum
I0308 15:23:28.845131 30878 net.cpp:367] res2.2.relu -> res2.2.sum (in-place)
I0308 15:23:28.845736 30878 net.cpp:122] Setting up res2.2.relu
I0308 15:23:28.845762 30878 net.cpp:129] Top shape: 1 64 128 256 (2097152)
I0308 15:23:28.845767 30878 net.cpp:137] Memory required for data: 402653184
I0308 15:23:28.845770 30878 layer_factory.hpp:77] Creating layer res2.2.sum_res2.2.relu_0_split
I0308 15:23:28.845777 30878 net.cpp:84] Creating Layer res2.2.sum_res2.2.relu_0_split
I0308 15:23:28.845782 30878 net.cpp:406] res2.2.sum_res2.2.relu_0_split <- res2.2.sum
I0308 15:23:28.845787 30878 net.cpp:380] res2.2.sum_res2.2.relu_0_split -> res2.2.sum_res2.2.relu_0_split_0
I0308 15:23:28.845793 30878 net.cpp:380] res2.2.sum_res2.2.relu_0_split -> res2.2.sum_res2.2.relu_0_split_1
I0308 15:23:28.845842 30878 net.cpp:122] Setting up res2.2.sum_res2.2.relu_0_split
I0308 15:23:28.845849 30878 net.cpp:129] Top shape: 1 64 128 256 (2097152)
I0308 15:23:28.845854 30878 net.cpp:129] Top shape: 1 64 128 256 (2097152)
I0308 15:23:28.845856 30878 net.cpp:137] Memory required for data: 419430400
I0308 15:23:28.845860 30878 layer_factory.hpp:77] Creating layer res2.3.conv1
I0308 15:23:28.845867 30878 net.cpp:84] Creating Layer res2.3.conv1
I0308 15:23:28.845870 30878 net.cpp:406] res2.3.conv1 <- res2.2.sum_res2.2.relu_0_split_0
I0308 15:23:28.845877 30878 net.cpp:380] res2.3.conv1 -> res2.3.conv1
I0308 15:23:28.847990 30878 net.cpp:122] Setting up res2.3.conv1
I0308 15:23:28.848018 30878 net.cpp:129] Top shape: 1 128 128 256 (4194304)
I0308 15:23:28.848033 30878 net.cpp:137] Memory required for data: 436207616
I0308 15:23:28.848042 30878 layer_factory.hpp:77] Creating layer res2.3.conv1/relu
I0308 15:23:28.848048 30878 net.cpp:84] Creating Layer res2.3.conv1/relu
I0308 15:23:28.848052 30878 net.cpp:406] res2.3.conv1/relu <- res2.3.conv1
I0308 15:23:28.848058 30878 net.cpp:367] res2.3.conv1/relu -> res2.3.conv1 (in-place)
I0308 15:23:28.848505 30878 net.cpp:122] Setting up res2.3.conv1/relu
I0308 15:23:28.848520 30878 net.cpp:129] Top shape: 1 128 128 256 (4194304)
I0308 15:23:28.848534 30878 net.cpp:137] Memory required for data: 452984832
I0308 15:23:28.848538 30878 layer_factory.hpp:77] Creating layer res2.3.conv2
I0308 15:23:28.848546 30878 net.cpp:84] Creating Layer res2.3.conv2
I0308 15:23:28.848551 30878 net.cpp:406] res2.3.conv2 <- res2.3.conv1
I0308 15:23:28.848557 30878 net.cpp:380] res2.3.conv2 -> res2.3.conv2
I0308 15:23:28.851359 30878 net.cpp:122] Setting up res2.3.conv2
I0308 15:23:28.851389 30878 net.cpp:129] Top shape: 1 128 128 256 (4194304)
I0308 15:23:28.851394 30878 net.cpp:137] Memory required for data: 469762048
I0308 15:23:28.851406 30878 layer_factory.hpp:77] Creating layer res2.3.skipConv
I0308 15:23:28.851439 30878 net.cpp:84] Creating Layer res2.3.skipConv
I0308 15:23:28.851444 30878 net.cpp:406] res2.3.skipConv <- res2.2.sum_res2.2.relu_0_split_1
I0308 15:23:28.851460 30878 net.cpp:380] res2.3.skipConv -> res2.3.skipConv
I0308 15:23:28.853948 30878 net.cpp:122] Setting up res2.3.skipConv
I0308 15:23:28.853965 30878 net.cpp:129] Top shape: 1 128 128 256 (4194304)
I0308 15:23:28.853981 30878 net.cpp:137] Memory required for data: 486539264
I0308 15:23:28.853989 30878 layer_factory.hpp:77] Creating layer res2.3.sum
I0308 15:23:28.853996 30878 net.cpp:84] Creating Layer res2.3.sum
I0308 15:23:28.854001 30878 net.cpp:406] res2.3.sum <- res2.3.conv2
I0308 15:23:28.854005 30878 net.cpp:406] res2.3.sum <- res2.3.skipConv
I0308 15:23:28.854010 30878 net.cpp:380] res2.3.sum -> res2.3.sum
I0308 15:23:28.854048 30878 net.cpp:122] Setting up res2.3.sum
I0308 15:23:28.854054 30878 net.cpp:129] Top shape: 1 128 128 256 (4194304)
I0308 15:23:28.854058 30878 net.cpp:137] Memory required for data: 503316480
I0308 15:23:28.854060 30878 layer_factory.hpp:77] Creating layer res2.3.relu
I0308 15:23:28.854065 30878 net.cpp:84] Creating Layer res2.3.relu
I0308 15:23:28.854069 30878 net.cpp:406] res2.3.relu <- res2.3.sum
I0308 15:23:28.854074 30878 net.cpp:367] res2.3.relu -> res2.3.sum (in-place)
I0308 15:23:28.854740 30878 net.cpp:122] Setting up res2.3.relu
I0308 15:23:28.854768 30878 net.cpp:129] Top shape: 1 128 128 256 (4194304)
I0308 15:23:28.854771 30878 net.cpp:137] Memory required for data: 520093696
I0308 15:23:28.854775 30878 layer_factory.hpp:77] Creating layer res2.3.sum_res2.3.relu_0_split
I0308 15:23:28.854792 30878 net.cpp:84] Creating Layer res2.3.sum_res2.3.relu_0_split
I0308 15:23:28.854796 30878 net.cpp:406] res2.3.sum_res2.3.relu_0_split <- res2.3.sum
I0308 15:23:28.854801 30878 net.cpp:380] res2.3.sum_res2.3.relu_0_split -> res2.3.sum_res2.3.relu_0_split_0
I0308 15:23:28.854809 30878 net.cpp:380] res2.3.sum_res2.3.relu_0_split -> res2.3.sum_res2.3.relu_0_split_1
I0308 15:23:28.854815 30878 net.cpp:380] res2.3.sum_res2.3.relu_0_split -> res2.3.sum_res2.3.relu_0_split_2
I0308 15:23:28.854879 30878 net.cpp:122] Setting up res2.3.sum_res2.3.relu_0_split
I0308 15:23:28.854887 30878 net.cpp:129] Top shape: 1 128 128 256 (4194304)
I0308 15:23:28.854892 30878 net.cpp:129] Top shape: 1 128 128 256 (4194304)
I0308 15:23:28.854895 30878 net.cpp:129] Top shape: 1 128 128 256 (4194304)
I0308 15:23:28.854898 30878 net.cpp:137] Memory required for data: 570425344
I0308 15:23:28.854902 30878 layer_factory.hpp:77] Creating layer res3.1.conv1
I0308 15:23:28.854909 30878 net.cpp:84] Creating Layer res3.1.conv1
I0308 15:23:28.854912 30878 net.cpp:406] res3.1.conv1 <- res2.3.sum_res2.3.relu_0_split_0
I0308 15:23:28.854919 30878 net.cpp:380] res3.1.conv1 -> res3.1.conv1
I0308 15:23:28.857543 30878 net.cpp:122] Setting up res3.1.conv1
I0308 15:23:28.857570 30878 net.cpp:129] Top shape: 1 128 64 128 (1048576)
I0308 15:23:28.857585 30878 net.cpp:137] Memory required for data: 574619648
I0308 15:23:28.857595 30878 layer_factory.hpp:77] Creating layer res3.1.conv1/relu
I0308 15:23:28.857602 30878 net.cpp:84] Creating Layer res3.1.conv1/relu
I0308 15:23:28.857606 30878 net.cpp:406] res3.1.conv1/relu <- res3.1.conv1
I0308 15:23:28.857612 30878 net.cpp:367] res3.1.conv1/relu -> res3.1.conv1 (in-place)
I0308 15:23:28.858069 30878 net.cpp:122] Setting up res3.1.conv1/relu
I0308 15:23:28.858083 30878 net.cpp:129] Top shape: 1 128 64 128 (1048576)
I0308 15:23:28.858098 30878 net.cpp:137] Memory required for data: 578813952
I0308 15:23:28.858101 30878 layer_factory.hpp:77] Creating layer res3.1.conv2
I0308 15:23:28.858109 30878 net.cpp:84] Creating Layer res3.1.conv2
I0308 15:23:28.858114 30878 net.cpp:406] res3.1.conv2 <- res3.1.conv1
I0308 15:23:28.858120 30878 net.cpp:380] res3.1.conv2 -> res3.1.conv2
I0308 15:23:28.860798 30878 net.cpp:122] Setting up res3.1.conv2
I0308 15:23:28.860827 30878 net.cpp:129] Top shape: 1 128 64 128 (1048576)
I0308 15:23:28.860831 30878 net.cpp:137] Memory required for data: 583008256
I0308 15:23:28.860839 30878 layer_factory.hpp:77] Creating layer res3.1.skipConv
I0308 15:23:28.860849 30878 net.cpp:84] Creating Layer res3.1.skipConv
I0308 15:23:28.860853 30878 net.cpp:406] res3.1.skipConv <- res2.3.sum_res2.3.relu_0_split_1
I0308 15:23:28.860860 30878 net.cpp:380] res3.1.skipConv -> res3.1.skipConv
I0308 15:23:28.862757 30878 net.cpp:122] Setting up res3.1.skipConv
I0308 15:23:28.862773 30878 net.cpp:129] Top shape: 1 128 64 128 (1048576)
I0308 15:23:28.862788 30878 net.cpp:137] Memory required for data: 587202560
I0308 15:23:28.862795 30878 layer_factory.hpp:77] Creating layer res3.1.sum
I0308 15:23:28.862802 30878 net.cpp:84] Creating Layer res3.1.sum
I0308 15:23:28.862807 30878 net.cpp:406] res3.1.sum <- res3.1.conv2
I0308 15:23:28.862812 30878 net.cpp:406] res3.1.sum <- res3.1.skipConv
I0308 15:23:28.862819 30878 net.cpp:380] res3.1.sum -> res3.1.sum
I0308 15:23:28.862854 30878 net.cpp:122] Setting up res3.1.sum
I0308 15:23:28.862862 30878 net.cpp:129] Top shape: 1 128 64 128 (1048576)
I0308 15:23:28.862865 30878 net.cpp:137] Memory required for data: 591396864
I0308 15:23:28.862869 30878 layer_factory.hpp:77] Creating layer res3.1.relu
I0308 15:23:28.862874 30878 net.cpp:84] Creating Layer res3.1.relu
I0308 15:23:28.862877 30878 net.cpp:406] res3.1.relu <- res3.1.sum
I0308 15:23:28.862882 30878 net.cpp:367] res3.1.relu -> res3.1.sum (in-place)
I0308 15:23:28.863535 30878 net.cpp:122] Setting up res3.1.relu
I0308 15:23:28.863561 30878 net.cpp:129] Top shape: 1 128 64 128 (1048576)
I0308 15:23:28.863565 30878 net.cpp:137] Memory required for data: 595591168
I0308 15:23:28.863569 30878 layer_factory.hpp:77] Creating layer res3.1.sum_res3.1.relu_0_split
I0308 15:23:28.863579 30878 net.cpp:84] Creating Layer res3.1.sum_res3.1.relu_0_split
I0308 15:23:28.863584 30878 net.cpp:406] res3.1.sum_res3.1.relu_0_split <- res3.1.sum
I0308 15:23:28.863590 30878 net.cpp:380] res3.1.sum_res3.1.relu_0_split -> res3.1.sum_res3.1.relu_0_split_0
I0308 15:23:28.863597 30878 net.cpp:380] res3.1.sum_res3.1.relu_0_split -> res3.1.sum_res3.1.relu_0_split_1
I0308 15:23:28.863651 30878 net.cpp:122] Setting up res3.1.sum_res3.1.relu_0_split
I0308 15:23:28.863656 30878 net.cpp:129] Top shape: 1 128 64 128 (1048576)
I0308 15:23:28.863660 30878 net.cpp:129] Top shape: 1 128 64 128 (1048576)
I0308 15:23:28.863663 30878 net.cpp:137] Memory required for data: 603979776
I0308 15:23:28.863667 30878 layer_factory.hpp:77] Creating layer res3.2.conv1
I0308 15:23:28.863674 30878 net.cpp:84] Creating Layer res3.2.conv1
I0308 15:23:28.863678 30878 net.cpp:406] res3.2.conv1 <- res3.1.sum_res3.1.relu_0_split_0
I0308 15:23:28.863684 30878 net.cpp:380] res3.2.conv1 -> res3.2.conv1
I0308 15:23:28.866258 30878 net.cpp:122] Setting up res3.2.conv1
I0308 15:23:28.866287 30878 net.cpp:129] Top shape: 1 128 64 128 (1048576)
I0308 15:23:28.866291 30878 net.cpp:137] Memory required for data: 608174080
I0308 15:23:28.866310 30878 layer_factory.hpp:77] Creating layer res3.2.conv1/relu
I0308 15:23:28.866318 30878 net.cpp:84] Creating Layer res3.2.conv1/relu
I0308 15:23:28.866322 30878 net.cpp:406] res3.2.conv1/relu <- res3.2.conv1
I0308 15:23:28.866328 30878 net.cpp:367] res3.2.conv1/relu -> res3.2.conv1 (in-place)
I0308 15:23:28.866953 30878 net.cpp:122] Setting up res3.2.conv1/relu
I0308 15:23:28.866979 30878 net.cpp:129] Top shape: 1 128 64 128 (1048576)
I0308 15:23:28.866983 30878 net.cpp:137] Memory required for data: 612368384
I0308 15:23:28.866987 30878 layer_factory.hpp:77] Creating layer res3.2.conv2
I0308 15:23:28.866997 30878 net.cpp:84] Creating Layer res3.2.conv2
I0308 15:23:28.867002 30878 net.cpp:406] res3.2.conv2 <- res3.2.conv1
I0308 15:23:28.867008 30878 net.cpp:380] res3.2.conv2 -> res3.2.conv2
I0308 15:23:28.869710 30878 net.cpp:122] Setting up res3.2.conv2
I0308 15:23:28.869726 30878 net.cpp:129] Top shape: 1 128 64 128 (1048576)
I0308 15:23:28.869741 30878 net.cpp:137] Memory required for data: 616562688
I0308 15:23:28.869750 30878 layer_factory.hpp:77] Creating layer res3.2.sum
I0308 15:23:28.869760 30878 net.cpp:84] Creating Layer res3.2.sum
I0308 15:23:28.869765 30878 net.cpp:406] res3.2.sum <- res3.2.conv2
I0308 15:23:28.869769 30878 net.cpp:406] res3.2.sum <- res3.1.sum_res3.1.relu_0_split_1
I0308 15:23:28.869774 30878 net.cpp:380] res3.2.sum -> res3.2.sum
I0308 15:23:28.869814 30878 net.cpp:122] Setting up res3.2.sum
I0308 15:23:28.869822 30878 net.cpp:129] Top shape: 1 128 64 128 (1048576)
I0308 15:23:28.869825 30878 net.cpp:137] Memory required for data: 620756992
I0308 15:23:28.869828 30878 layer_factory.hpp:77] Creating layer res3.2.relu
I0308 15:23:28.869833 30878 net.cpp:84] Creating Layer res3.2.relu
I0308 15:23:28.869837 30878 net.cpp:406] res3.2.relu <- res3.2.sum
I0308 15:23:28.869843 30878 net.cpp:367] res3.2.relu -> res3.2.sum (in-place)
I0308 15:23:28.870301 30878 net.cpp:122] Setting up res3.2.relu
I0308 15:23:28.870313 30878 net.cpp:129] Top shape: 1 128 64 128 (1048576)
I0308 15:23:28.870328 30878 net.cpp:137] Memory required for data: 624951296
I0308 15:23:28.870332 30878 layer_factory.hpp:77] Creating layer res3.2.sum_res3.2.relu_0_split
I0308 15:23:28.870337 30878 net.cpp:84] Creating Layer res3.2.sum_res3.2.relu_0_split
I0308 15:23:28.870342 30878 net.cpp:406] res3.2.sum_res3.2.relu_0_split <- res3.2.sum
I0308 15:23:28.870348 30878 net.cpp:380] res3.2.sum_res3.2.relu_0_split -> res3.2.sum_res3.2.relu_0_split_0
I0308 15:23:28.870358 30878 net.cpp:380] res3.2.sum_res3.2.relu_0_split -> res3.2.sum_res3.2.relu_0_split_1
I0308 15:23:28.870419 30878 net.cpp:122] Setting up res3.2.sum_res3.2.relu_0_split
I0308 15:23:28.870426 30878 net.cpp:129] Top shape: 1 128 64 128 (1048576)
I0308 15:23:28.870430 30878 net.cpp:129] Top shape: 1 128 64 128 (1048576)
I0308 15:23:28.870435 30878 net.cpp:137] Memory required for data: 633339904
I0308 15:23:28.870438 30878 layer_factory.hpp:77] Creating layer res3.3.conv1
I0308 15:23:28.870447 30878 net.cpp:84] Creating Layer res3.3.conv1
I0308 15:23:28.870451 30878 net.cpp:406] res3.3.conv1 <- res3.2.sum_res3.2.relu_0_split_0
I0308 15:23:28.870457 30878 net.cpp:380] res3.3.conv1 -> res3.3.conv1
I0308 15:23:28.873143 30878 net.cpp:122] Setting up res3.3.conv1
I0308 15:23:28.873172 30878 net.cpp:129] Top shape: 1 128 64 128 (1048576)
I0308 15:23:28.873176 30878 net.cpp:137] Memory required for data: 637534208
I0308 15:23:28.873184 30878 layer_factory.hpp:77] Creating layer res3.3.conv1/relu
I0308 15:23:28.873191 30878 net.cpp:84] Creating Layer res3.3.conv1/relu
I0308 15:23:28.873195 30878 net.cpp:406] res3.3.conv1/relu <- res3.3.conv1
I0308 15:23:28.873201 30878 net.cpp:367] res3.3.conv1/relu -> res3.3.conv1 (in-place)
I0308 15:23:28.873823 30878 net.cpp:122] Setting up res3.3.conv1/relu
I0308 15:23:28.873850 30878 net.cpp:129] Top shape: 1 128 64 128 (1048576)
I0308 15:23:28.873854 30878 net.cpp:137] Memory required for data: 641728512
I0308 15:23:28.873857 30878 layer_factory.hpp:77] Creating layer res3.3.conv2
I0308 15:23:28.873867 30878 net.cpp:84] Creating Layer res3.3.conv2
I0308 15:23:28.873883 30878 net.cpp:406] res3.3.conv2 <- res3.3.conv1
I0308 15:23:28.873890 30878 net.cpp:380] res3.3.conv2 -> res3.3.conv2
I0308 15:23:28.876770 30878 net.cpp:122] Setting up res3.3.conv2
I0308 15:23:28.876798 30878 net.cpp:129] Top shape: 1 128 64 128 (1048576)
I0308 15:23:28.876802 30878 net.cpp:137] Memory required for data: 645922816
I0308 15:23:28.876816 30878 layer_factory.hpp:77] Creating layer res3.3.sum
I0308 15:23:28.876823 30878 net.cpp:84] Creating Layer res3.3.sum
I0308 15:23:28.876827 30878 net.cpp:406] res3.3.sum <- res3.3.conv2
I0308 15:23:28.876832 30878 net.cpp:406] res3.3.sum <- res3.2.sum_res3.2.relu_0_split_1
I0308 15:23:28.876838 30878 net.cpp:380] res3.3.sum -> res3.3.sum
I0308 15:23:28.876879 30878 net.cpp:122] Setting up res3.3.sum
I0308 15:23:28.876886 30878 net.cpp:129] Top shape: 1 128 64 128 (1048576)
I0308 15:23:28.876889 30878 net.cpp:137] Memory required for data: 650117120
I0308 15:23:28.876893 30878 layer_factory.hpp:77] Creating layer res3.3.relu
I0308 15:23:28.876899 30878 net.cpp:84] Creating Layer res3.3.relu
I0308 15:23:28.876901 30878 net.cpp:406] res3.3.relu <- res3.3.sum
I0308 15:23:28.876905 30878 net.cpp:367] res3.3.relu -> res3.3.sum (in-place)
I0308 15:23:28.877367 30878 net.cpp:122] Setting up res3.3.relu
I0308 15:23:28.877380 30878 net.cpp:129] Top shape: 1 128 64 128 (1048576)
I0308 15:23:28.877395 30878 net.cpp:137] Memory required for data: 654311424
I0308 15:23:28.877398 30878 layer_factory.hpp:77] Creating layer res3.3.sum_res3.3.relu_0_split
I0308 15:23:28.877405 30878 net.cpp:84] Creating Layer res3.3.sum_res3.3.relu_0_split
I0308 15:23:28.877409 30878 net.cpp:406] res3.3.sum_res3.3.relu_0_split <- res3.3.sum
I0308 15:23:28.877415 30878 net.cpp:380] res3.3.sum_res3.3.relu_0_split -> res3.3.sum_res3.3.relu_0_split_0
I0308 15:23:28.877421 30878 net.cpp:380] res3.3.sum_res3.3.relu_0_split -> res3.3.sum_res3.3.relu_0_split_1
I0308 15:23:28.877476 30878 net.cpp:122] Setting up res3.3.sum_res3.3.relu_0_split
I0308 15:23:28.877483 30878 net.cpp:129] Top shape: 1 128 64 128 (1048576)
I0308 15:23:28.877487 30878 net.cpp:129] Top shape: 1 128 64 128 (1048576)
I0308 15:23:28.877490 30878 net.cpp:137] Memory required for data: 662700032
I0308 15:23:28.877493 30878 layer_factory.hpp:77] Creating layer res3.4.conv1
I0308 15:23:28.877502 30878 net.cpp:84] Creating Layer res3.4.conv1
I0308 15:23:28.877506 30878 net.cpp:406] res3.4.conv1 <- res3.3.sum_res3.3.relu_0_split_0
I0308 15:23:28.877512 30878 net.cpp:380] res3.4.conv1 -> res3.4.conv1
I0308 15:23:28.880187 30878 net.cpp:122] Setting up res3.4.conv1
I0308 15:23:28.880214 30878 net.cpp:129] Top shape: 1 128 64 128 (1048576)
I0308 15:23:28.880218 30878 net.cpp:137] Memory required for data: 666894336
I0308 15:23:28.880225 30878 layer_factory.hpp:77] Creating layer res3.4.conv1/relu
I0308 15:23:28.880234 30878 net.cpp:84] Creating Layer res3.4.conv1/relu
I0308 15:23:28.880239 30878 net.cpp:406] res3.4.conv1/relu <- res3.4.conv1
I0308 15:23:28.880244 30878 net.cpp:367] res3.4.conv1/relu -> res3.4.conv1 (in-place)
I0308 15:23:28.880872 30878 net.cpp:122] Setting up res3.4.conv1/relu
I0308 15:23:28.880887 30878 net.cpp:129] Top shape: 1 128 64 128 (1048576)
I0308 15:23:28.880889 30878 net.cpp:137] Memory required for data: 671088640
I0308 15:23:28.880893 30878 layer_factory.hpp:77] Creating layer res3.4.conv2
I0308 15:23:28.880901 30878 net.cpp:84] Creating Layer res3.4.conv2
I0308 15:23:28.880905 30878 net.cpp:406] res3.4.conv2 <- res3.4.conv1
I0308 15:23:28.880911 30878 net.cpp:380] res3.4.conv2 -> res3.4.conv2
I0308 15:23:28.883643 30878 net.cpp:122] Setting up res3.4.conv2
I0308 15:23:28.883659 30878 net.cpp:129] Top shape: 1 128 64 128 (1048576)
I0308 15:23:28.883663 30878 net.cpp:137] Memory required for data: 675282944
I0308 15:23:28.883671 30878 layer_factory.hpp:77] Creating layer res3.4.sum
I0308 15:23:28.883678 30878 net.cpp:84] Creating Layer res3.4.sum
I0308 15:23:28.883682 30878 net.cpp:406] res3.4.sum <- res3.4.conv2
I0308 15:23:28.883687 30878 net.cpp:406] res3.4.sum <- res3.3.sum_res3.3.relu_0_split_1
I0308 15:23:28.883702 30878 net.cpp:380] res3.4.sum -> res3.4.sum
I0308 15:23:28.883756 30878 net.cpp:122] Setting up res3.4.sum
I0308 15:23:28.883764 30878 net.cpp:129] Top shape: 1 128 64 128 (1048576)
I0308 15:23:28.883767 30878 net.cpp:137] Memory required for data: 679477248
I0308 15:23:28.883770 30878 layer_factory.hpp:77] Creating layer res3.4.relu
I0308 15:23:28.883776 30878 net.cpp:84] Creating Layer res3.4.relu
I0308 15:23:28.883780 30878 net.cpp:406] res3.4.relu <- res3.4.sum
I0308 15:23:28.883785 30878 net.cpp:367] res3.4.relu -> res3.4.sum (in-place)
I0308 15:23:28.884411 30878 net.cpp:122] Setting up res3.4.relu
I0308 15:23:28.884428 30878 net.cpp:129] Top shape: 1 128 64 128 (1048576)
I0308 15:23:28.884431 30878 net.cpp:137] Memory required for data: 683671552
I0308 15:23:28.884434 30878 layer_factory.hpp:77] Creating layer res3.4.sum_res3.4.relu_0_split
I0308 15:23:28.884440 30878 net.cpp:84] Creating Layer res3.4.sum_res3.4.relu_0_split
I0308 15:23:28.884443 30878 net.cpp:406] res3.4.sum_res3.4.relu_0_split <- res3.4.sum
I0308 15:23:28.884460 30878 net.cpp:380] res3.4.sum_res3.4.relu_0_split -> res3.4.sum_res3.4.relu_0_split_0
I0308 15:23:28.884467 30878 net.cpp:380] res3.4.sum_res3.4.relu_0_split -> res3.4.sum_res3.4.relu_0_split_1
I0308 15:23:28.884538 30878 net.cpp:122] Setting up res3.4.sum_res3.4.relu_0_split
I0308 15:23:28.884547 30878 net.cpp:129] Top shape: 1 128 64 128 (1048576)
I0308 15:23:28.884552 30878 net.cpp:129] Top shape: 1 128 64 128 (1048576)
I0308 15:23:28.884555 30878 net.cpp:137] Memory required for data: 692060160
I0308 15:23:28.884558 30878 layer_factory.hpp:77] Creating layer res3.5.conv1
I0308 15:23:28.884567 30878 net.cpp:84] Creating Layer res3.5.conv1
I0308 15:23:28.884572 30878 net.cpp:406] res3.5.conv1 <- res3.4.sum_res3.4.relu_0_split_0
I0308 15:23:28.884577 30878 net.cpp:380] res3.5.conv1 -> res3.5.conv1
I0308 15:23:28.887261 30878 net.cpp:122] Setting up res3.5.conv1
I0308 15:23:28.887290 30878 net.cpp:129] Top shape: 1 128 64 128 (1048576)
I0308 15:23:28.887295 30878 net.cpp:137] Memory required for data: 696254464
I0308 15:23:28.887302 30878 layer_factory.hpp:77] Creating layer res3.5.conv1/relu
I0308 15:23:28.887311 30878 net.cpp:84] Creating Layer res3.5.conv1/relu
I0308 15:23:28.887316 30878 net.cpp:406] res3.5.conv1/relu <- res3.5.conv1
I0308 15:23:28.887321 30878 net.cpp:367] res3.5.conv1/relu -> res3.5.conv1 (in-place)
I0308 15:23:28.887805 30878 net.cpp:122] Setting up res3.5.conv1/relu
I0308 15:23:28.887817 30878 net.cpp:129] Top shape: 1 128 64 128 (1048576)
I0308 15:23:28.887832 30878 net.cpp:137] Memory required for data: 700448768
I0308 15:23:28.887836 30878 layer_factory.hpp:77] Creating layer res3.5.conv2
I0308 15:23:28.887845 30878 net.cpp:84] Creating Layer res3.5.conv2
I0308 15:23:28.887850 30878 net.cpp:406] res3.5.conv2 <- res3.5.conv1
I0308 15:23:28.887856 30878 net.cpp:380] res3.5.conv2 -> res3.5.conv2
I0308 15:23:28.890503 30878 net.cpp:122] Setting up res3.5.conv2
I0308 15:23:28.890519 30878 net.cpp:129] Top shape: 1 128 64 128 (1048576)
I0308 15:23:28.890523 30878 net.cpp:137] Memory required for data: 704643072
I0308 15:23:28.890532 30878 layer_factory.hpp:77] Creating layer res3.5.sum
I0308 15:23:28.890539 30878 net.cpp:84] Creating Layer res3.5.sum
I0308 15:23:28.890543 30878 net.cpp:406] res3.5.sum <- res3.5.conv2
I0308 15:23:28.890548 30878 net.cpp:406] res3.5.sum <- res3.4.sum_res3.4.relu_0_split_1
I0308 15:23:28.890554 30878 net.cpp:380] res3.5.sum -> res3.5.sum
I0308 15:23:28.890604 30878 net.cpp:122] Setting up res3.5.sum
I0308 15:23:28.890612 30878 net.cpp:129] Top shape: 1 128 64 128 (1048576)
I0308 15:23:28.890615 30878 net.cpp:137] Memory required for data: 708837376
I0308 15:23:28.890619 30878 layer_factory.hpp:77] Creating layer res3.5.relu
I0308 15:23:28.890624 30878 net.cpp:84] Creating Layer res3.5.relu
I0308 15:23:28.890627 30878 net.cpp:406] res3.5.relu <- res3.5.sum
I0308 15:23:28.890633 30878 net.cpp:367] res3.5.relu -> res3.5.sum (in-place)
I0308 15:23:28.891335 30878 net.cpp:122] Setting up res3.5.relu
I0308 15:23:28.891372 30878 net.cpp:129] Top shape: 1 128 64 128 (1048576)
I0308 15:23:28.891377 30878 net.cpp:137] Memory required for data: 713031680
I0308 15:23:28.891381 30878 layer_factory.hpp:77] Creating layer res3.5.sum_res3.5.relu_0_split
I0308 15:23:28.891388 30878 net.cpp:84] Creating Layer res3.5.sum_res3.5.relu_0_split
I0308 15:23:28.891392 30878 net.cpp:406] res3.5.sum_res3.5.relu_0_split <- res3.5.sum
I0308 15:23:28.891399 30878 net.cpp:380] res3.5.sum_res3.5.relu_0_split -> res3.5.sum_res3.5.relu_0_split_0
I0308 15:23:28.891407 30878 net.cpp:380] res3.5.sum_res3.5.relu_0_split -> res3.5.sum_res3.5.relu_0_split_1
I0308 15:23:28.891489 30878 net.cpp:122] Setting up res3.5.sum_res3.5.relu_0_split
I0308 15:23:28.891499 30878 net.cpp:129] Top shape: 1 128 64 128 (1048576)
I0308 15:23:28.891505 30878 net.cpp:129] Top shape: 1 128 64 128 (1048576)
I0308 15:23:28.891507 30878 net.cpp:137] Memory required for data: 721420288
I0308 15:23:28.891510 30878 layer_factory.hpp:77] Creating layer res3.6.conv1
I0308 15:23:28.891517 30878 net.cpp:84] Creating Layer res3.6.conv1
I0308 15:23:28.891521 30878 net.cpp:406] res3.6.conv1 <- res3.5.sum_res3.5.relu_0_split_0
I0308 15:23:28.891527 30878 net.cpp:380] res3.6.conv1 -> res3.6.conv1
I0308 15:23:28.894186 30878 net.cpp:122] Setting up res3.6.conv1
I0308 15:23:28.894201 30878 net.cpp:129] Top shape: 1 128 64 128 (1048576)
I0308 15:23:28.894217 30878 net.cpp:137] Memory required for data: 725614592
I0308 15:23:28.894224 30878 layer_factory.hpp:77] Creating layer res3.6.conv1/relu
I0308 15:23:28.894232 30878 net.cpp:84] Creating Layer res3.6.conv1/relu
I0308 15:23:28.894235 30878 net.cpp:406] res3.6.conv1/relu <- res3.6.conv1
I0308 15:23:28.894240 30878 net.cpp:367] res3.6.conv1/relu -> res3.6.conv1 (in-place)
I0308 15:23:28.894719 30878 net.cpp:122] Setting up res3.6.conv1/relu
I0308 15:23:28.894731 30878 net.cpp:129] Top shape: 1 128 64 128 (1048576)
I0308 15:23:28.894747 30878 net.cpp:137] Memory required for data: 729808896
I0308 15:23:28.894749 30878 layer_factory.hpp:77] Creating layer res3.6.conv2
I0308 15:23:28.894758 30878 net.cpp:84] Creating Layer res3.6.conv2
I0308 15:23:28.894763 30878 net.cpp:406] res3.6.conv2 <- res3.6.conv1
I0308 15:23:28.894768 30878 net.cpp:380] res3.6.conv2 -> res3.6.conv2
I0308 15:23:28.897552 30878 net.cpp:122] Setting up res3.6.conv2
I0308 15:23:28.897568 30878 net.cpp:129] Top shape: 1 128 64 128 (1048576)
I0308 15:23:28.897572 30878 net.cpp:137] Memory required for data: 734003200
I0308 15:23:28.897579 30878 layer_factory.hpp:77] Creating layer res3.6.sum
I0308 15:23:28.897586 30878 net.cpp:84] Creating Layer res3.6.sum
I0308 15:23:28.897590 30878 net.cpp:406] res3.6.sum <- res3.6.conv2
I0308 15:23:28.897595 30878 net.cpp:406] res3.6.sum <- res3.5.sum_res3.5.relu_0_split_1
I0308 15:23:28.897603 30878 net.cpp:380] res3.6.sum -> res3.6.sum
I0308 15:23:28.897655 30878 net.cpp:122] Setting up res3.6.sum
I0308 15:23:28.897661 30878 net.cpp:129] Top shape: 1 128 64 128 (1048576)
I0308 15:23:28.897665 30878 net.cpp:137] Memory required for data: 738197504
I0308 15:23:28.897668 30878 layer_factory.hpp:77] Creating layer res3.6.relu
I0308 15:23:28.897675 30878 net.cpp:84] Creating Layer res3.6.relu
I0308 15:23:28.897680 30878 net.cpp:406] res3.6.relu <- res3.6.sum
I0308 15:23:28.897684 30878 net.cpp:367] res3.6.relu -> res3.6.sum (in-place)
I0308 15:23:28.898311 30878 net.cpp:122] Setting up res3.6.relu
I0308 15:23:28.898326 30878 net.cpp:129] Top shape: 1 128 64 128 (1048576)
I0308 15:23:28.898330 30878 net.cpp:137] Memory required for data: 742391808
I0308 15:23:28.898334 30878 layer_factory.hpp:77] Creating layer res3.6.sum_res3.6.relu_0_split
I0308 15:23:28.898340 30878 net.cpp:84] Creating Layer res3.6.sum_res3.6.relu_0_split
I0308 15:23:28.898344 30878 net.cpp:406] res3.6.sum_res3.6.relu_0_split <- res3.6.sum
I0308 15:23:28.898350 30878 net.cpp:380] res3.6.sum_res3.6.relu_0_split -> res3.6.sum_res3.6.relu_0_split_0
I0308 15:23:28.898356 30878 net.cpp:380] res3.6.sum_res3.6.relu_0_split -> res3.6.sum_res3.6.relu_0_split_1
I0308 15:23:28.898437 30878 net.cpp:122] Setting up res3.6.sum_res3.6.relu_0_split
I0308 15:23:28.898447 30878 net.cpp:129] Top shape: 1 128 64 128 (1048576)
I0308 15:23:28.898450 30878 net.cpp:129] Top shape: 1 128 64 128 (1048576)
I0308 15:23:28.898453 30878 net.cpp:137] Memory required for data: 750780416
I0308 15:23:28.898456 30878 layer_factory.hpp:77] Creating layer res3.7.conv1
I0308 15:23:28.898464 30878 net.cpp:84] Creating Layer res3.7.conv1
I0308 15:23:28.898468 30878 net.cpp:406] res3.7.conv1 <- res3.6.sum_res3.6.relu_0_split_0
I0308 15:23:28.898474 30878 net.cpp:380] res3.7.conv1 -> res3.7.conv1
I0308 15:23:28.901163 30878 net.cpp:122] Setting up res3.7.conv1
I0308 15:23:28.901180 30878 net.cpp:129] Top shape: 1 128 64 128 (1048576)
I0308 15:23:28.901183 30878 net.cpp:137] Memory required for data: 754974720
I0308 15:23:28.901190 30878 layer_factory.hpp:77] Creating layer res3.7.conv1/relu
I0308 15:23:28.901204 30878 net.cpp:84] Creating Layer res3.7.conv1/relu
I0308 15:23:28.901208 30878 net.cpp:406] res3.7.conv1/relu <- res3.7.conv1
I0308 15:23:28.901214 30878 net.cpp:367] res3.7.conv1/relu -> res3.7.conv1 (in-place)
I0308 15:23:28.901862 30878 net.cpp:122] Setting up res3.7.conv1/relu
I0308 15:23:28.901877 30878 net.cpp:129] Top shape: 1 128 64 128 (1048576)
I0308 15:23:28.901880 30878 net.cpp:137] Memory required for data: 759169024
I0308 15:23:28.901885 30878 layer_factory.hpp:77] Creating layer res3.7.conv2
I0308 15:23:28.901892 30878 net.cpp:84] Creating Layer res3.7.conv2
I0308 15:23:28.901896 30878 net.cpp:406] res3.7.conv2 <- res3.7.conv1
I0308 15:23:28.901903 30878 net.cpp:380] res3.7.conv2 -> res3.7.conv2
I0308 15:23:28.904768 30878 net.cpp:122] Setting up res3.7.conv2
I0308 15:23:28.904784 30878 net.cpp:129] Top shape: 1 128 64 128 (1048576)
I0308 15:23:28.904788 30878 net.cpp:137] Memory required for data: 763363328
I0308 15:23:28.904796 30878 layer_factory.hpp:77] Creating layer res3.7.sum
I0308 15:23:28.904803 30878 net.cpp:84] Creating Layer res3.7.sum
I0308 15:23:28.904808 30878 net.cpp:406] res3.7.sum <- res3.7.conv2
I0308 15:23:28.904814 30878 net.cpp:406] res3.7.sum <- res3.6.sum_res3.6.relu_0_split_1
I0308 15:23:28.904819 30878 net.cpp:380] res3.7.sum -> res3.7.sum
I0308 15:23:28.904871 30878 net.cpp:122] Setting up res3.7.sum
I0308 15:23:28.904880 30878 net.cpp:129] Top shape: 1 128 64 128 (1048576)
I0308 15:23:28.904882 30878 net.cpp:137] Memory required for data: 767557632
I0308 15:23:28.904886 30878 layer_factory.hpp:77] Creating layer res3.7.relu
I0308 15:23:28.904891 30878 net.cpp:84] Creating Layer res3.7.relu
I0308 15:23:28.904896 30878 net.cpp:406] res3.7.relu <- res3.7.sum
I0308 15:23:28.904901 30878 net.cpp:367] res3.7.relu -> res3.7.sum (in-place)
I0308 15:23:28.905372 30878 net.cpp:122] Setting up res3.7.relu
I0308 15:23:28.905385 30878 net.cpp:129] Top shape: 1 128 64 128 (1048576)
I0308 15:23:28.905400 30878 net.cpp:137] Memory required for data: 771751936
I0308 15:23:28.905403 30878 layer_factory.hpp:77] Creating layer res3.7.sum_res3.7.relu_0_split
I0308 15:23:28.905421 30878 net.cpp:84] Creating Layer res3.7.sum_res3.7.relu_0_split
I0308 15:23:28.905424 30878 net.cpp:406] res3.7.sum_res3.7.relu_0_split <- res3.7.sum
I0308 15:23:28.905429 30878 net.cpp:380] res3.7.sum_res3.7.relu_0_split -> res3.7.sum_res3.7.relu_0_split_0
I0308 15:23:28.905436 30878 net.cpp:380] res3.7.sum_res3.7.relu_0_split -> res3.7.sum_res3.7.relu_0_split_1
I0308 15:23:28.905508 30878 net.cpp:122] Setting up res3.7.sum_res3.7.relu_0_split
I0308 15:23:28.905517 30878 net.cpp:129] Top shape: 1 128 64 128 (1048576)
I0308 15:23:28.905521 30878 net.cpp:129] Top shape: 1 128 64 128 (1048576)
I0308 15:23:28.905524 30878 net.cpp:137] Memory required for data: 780140544
I0308 15:23:28.905527 30878 layer_factory.hpp:77] Creating layer res3.8.conv1
I0308 15:23:28.905535 30878 net.cpp:84] Creating Layer res3.8.conv1
I0308 15:23:28.905539 30878 net.cpp:406] res3.8.conv1 <- res3.7.sum_res3.7.relu_0_split_0
I0308 15:23:28.905545 30878 net.cpp:380] res3.8.conv1 -> res3.8.conv1
I0308 15:23:28.908318 30878 net.cpp:122] Setting up res3.8.conv1
I0308 15:23:28.908345 30878 net.cpp:129] Top shape: 1 128 64 128 (1048576)
I0308 15:23:28.908349 30878 net.cpp:137] Memory required for data: 784334848
I0308 15:23:28.908357 30878 layer_factory.hpp:77] Creating layer res3.8.conv1/relu
I0308 15:23:28.908365 30878 net.cpp:84] Creating Layer res3.8.conv1/relu
I0308 15:23:28.908370 30878 net.cpp:406] res3.8.conv1/relu <- res3.8.conv1
I0308 15:23:28.908375 30878 net.cpp:367] res3.8.conv1/relu -> res3.8.conv1 (in-place)
I0308 15:23:28.909035 30878 net.cpp:122] Setting up res3.8.conv1/relu
I0308 15:23:28.909051 30878 net.cpp:129] Top shape: 1 128 64 128 (1048576)
I0308 15:23:28.909054 30878 net.cpp:137] Memory required for data: 788529152
I0308 15:23:28.909059 30878 layer_factory.hpp:77] Creating layer res3.8.conv2
I0308 15:23:28.909065 30878 net.cpp:84] Creating Layer res3.8.conv2
I0308 15:23:28.909070 30878 net.cpp:406] res3.8.conv2 <- res3.8.conv1
I0308 15:23:28.909076 30878 net.cpp:380] res3.8.conv2 -> res3.8.conv2
I0308 15:23:28.911823 30878 net.cpp:122] Setting up res3.8.conv2
I0308 15:23:28.911839 30878 net.cpp:129] Top shape: 1 128 64 128 (1048576)
I0308 15:23:28.911842 30878 net.cpp:137] Memory required for data: 792723456
I0308 15:23:28.911849 30878 layer_factory.hpp:77] Creating layer res3.8.sum
I0308 15:23:28.911856 30878 net.cpp:84] Creating Layer res3.8.sum
I0308 15:23:28.911860 30878 net.cpp:406] res3.8.sum <- res3.8.conv2
I0308 15:23:28.911865 30878 net.cpp:406] res3.8.sum <- res3.7.sum_res3.7.relu_0_split_1
I0308 15:23:28.911871 30878 net.cpp:380] res3.8.sum -> res3.8.sum
I0308 15:23:28.911927 30878 net.cpp:122] Setting up res3.8.sum
I0308 15:23:28.911936 30878 net.cpp:129] Top shape: 1 128 64 128 (1048576)
I0308 15:23:28.911938 30878 net.cpp:137] Memory required for data: 796917760
I0308 15:23:28.911942 30878 layer_factory.hpp:77] Creating layer res3.8.relu
I0308 15:23:28.911947 30878 net.cpp:84] Creating Layer res3.8.relu
I0308 15:23:28.911950 30878 net.cpp:406] res3.8.relu <- res3.8.sum
I0308 15:23:28.911954 30878 net.cpp:367] res3.8.relu -> res3.8.sum (in-place)
I0308 15:23:28.912461 30878 net.cpp:122] Setting up res3.8.relu
I0308 15:23:28.912474 30878 net.cpp:129] Top shape: 1 128 64 128 (1048576)
I0308 15:23:28.912478 30878 net.cpp:137] Memory required for data: 801112064
I0308 15:23:28.912482 30878 layer_factory.hpp:77] Creating layer res3.8.sum_res3.8.relu_0_split
I0308 15:23:28.912487 30878 net.cpp:84] Creating Layer res3.8.sum_res3.8.relu_0_split
I0308 15:23:28.912490 30878 net.cpp:406] res3.8.sum_res3.8.relu_0_split <- res3.8.sum
I0308 15:23:28.912495 30878 net.cpp:380] res3.8.sum_res3.8.relu_0_split -> res3.8.sum_res3.8.relu_0_split_0
I0308 15:23:28.912503 30878 net.cpp:380] res3.8.sum_res3.8.relu_0_split -> res3.8.sum_res3.8.relu_0_split_1
I0308 15:23:28.912575 30878 net.cpp:122] Setting up res3.8.sum_res3.8.relu_0_split
I0308 15:23:28.912588 30878 net.cpp:129] Top shape: 1 128 64 128 (1048576)
I0308 15:23:28.912593 30878 net.cpp:129] Top shape: 1 128 64 128 (1048576)
I0308 15:23:28.912596 30878 net.cpp:137] Memory required for data: 809500672
I0308 15:23:28.912600 30878 layer_factory.hpp:77] Creating layer res3.9.conv1
I0308 15:23:28.912607 30878 net.cpp:84] Creating Layer res3.9.conv1
I0308 15:23:28.912611 30878 net.cpp:406] res3.9.conv1 <- res3.8.sum_res3.8.relu_0_split_0
I0308 15:23:28.912618 30878 net.cpp:380] res3.9.conv1 -> res3.9.conv1
I0308 15:23:28.915370 30878 net.cpp:122] Setting up res3.9.conv1
I0308 15:23:28.915400 30878 net.cpp:129] Top shape: 1 128 64 128 (1048576)
I0308 15:23:28.915405 30878 net.cpp:137] Memory required for data: 813694976
I0308 15:23:28.915423 30878 layer_factory.hpp:77] Creating layer res3.9.conv1/relu
I0308 15:23:28.915442 30878 net.cpp:84] Creating Layer res3.9.conv1/relu
I0308 15:23:28.915446 30878 net.cpp:406] res3.9.conv1/relu <- res3.9.conv1
I0308 15:23:28.915462 30878 net.cpp:367] res3.9.conv1/relu -> res3.9.conv1 (in-place)
I0308 15:23:28.916115 30878 net.cpp:122] Setting up res3.9.conv1/relu
I0308 15:23:28.916129 30878 net.cpp:129] Top shape: 1 128 64 128 (1048576)
I0308 15:23:28.916142 30878 net.cpp:137] Memory required for data: 817889280
I0308 15:23:28.916146 30878 layer_factory.hpp:77] Creating layer res3.9.conv2
I0308 15:23:28.916155 30878 net.cpp:84] Creating Layer res3.9.conv2
I0308 15:23:28.916159 30878 net.cpp:406] res3.9.conv2 <- res3.9.conv1
I0308 15:23:28.916165 30878 net.cpp:380] res3.9.conv2 -> res3.9.conv2
I0308 15:23:28.918901 30878 net.cpp:122] Setting up res3.9.conv2
I0308 15:23:28.918918 30878 net.cpp:129] Top shape: 1 128 64 128 (1048576)
I0308 15:23:28.918921 30878 net.cpp:137] Memory required for data: 822083584
I0308 15:23:28.918928 30878 layer_factory.hpp:77] Creating layer res3.9.sum
I0308 15:23:28.918936 30878 net.cpp:84] Creating Layer res3.9.sum
I0308 15:23:28.918941 30878 net.cpp:406] res3.9.sum <- res3.9.conv2
I0308 15:23:28.918947 30878 net.cpp:406] res3.9.sum <- res3.8.sum_res3.8.relu_0_split_1
I0308 15:23:28.918952 30878 net.cpp:380] res3.9.sum -> res3.9.sum
I0308 15:23:28.919008 30878 net.cpp:122] Setting up res3.9.sum
I0308 15:23:28.919016 30878 net.cpp:129] Top shape: 1 128 64 128 (1048576)
I0308 15:23:28.919019 30878 net.cpp:137] Memory required for data: 826277888
I0308 15:23:28.919023 30878 layer_factory.hpp:77] Creating layer res3.9.relu
I0308 15:23:28.919028 30878 net.cpp:84] Creating Layer res3.9.relu
I0308 15:23:28.919031 30878 net.cpp:406] res3.9.relu <- res3.9.sum
I0308 15:23:28.919037 30878 net.cpp:367] res3.9.relu -> res3.9.sum (in-place)
I0308 15:23:28.919723 30878 net.cpp:122] Setting up res3.9.relu
I0308 15:23:28.919739 30878 net.cpp:129] Top shape: 1 128 64 128 (1048576)
I0308 15:23:28.919741 30878 net.cpp:137] Memory required for data: 830472192
I0308 15:23:28.919745 30878 layer_factory.hpp:77] Creating layer res3.9.sum_res3.9.relu_0_split
I0308 15:23:28.919751 30878 net.cpp:84] Creating Layer res3.9.sum_res3.9.relu_0_split
I0308 15:23:28.919754 30878 net.cpp:406] res3.9.sum_res3.9.relu_0_split <- res3.9.sum
I0308 15:23:28.919760 30878 net.cpp:380] res3.9.sum_res3.9.relu_0_split -> res3.9.sum_res3.9.relu_0_split_0
I0308 15:23:28.919770 30878 net.cpp:380] res3.9.sum_res3.9.relu_0_split -> res3.9.sum_res3.9.relu_0_split_1
I0308 15:23:28.919842 30878 net.cpp:122] Setting up res3.9.sum_res3.9.relu_0_split
I0308 15:23:28.919860 30878 net.cpp:129] Top shape: 1 128 64 128 (1048576)
I0308 15:23:28.919864 30878 net.cpp:129] Top shape: 1 128 64 128 (1048576)
I0308 15:23:28.919867 30878 net.cpp:137] Memory required for data: 838860800
I0308 15:23:28.919870 30878 layer_factory.hpp:77] Creating layer res3.10.conv1
I0308 15:23:28.919878 30878 net.cpp:84] Creating Layer res3.10.conv1
I0308 15:23:28.919883 30878 net.cpp:406] res3.10.conv1 <- res3.9.sum_res3.9.relu_0_split_0
I0308 15:23:28.919888 30878 net.cpp:380] res3.10.conv1 -> res3.10.conv1
I0308 15:23:28.922621 30878 net.cpp:122] Setting up res3.10.conv1
I0308 15:23:28.922637 30878 net.cpp:129] Top shape: 1 128 64 128 (1048576)
I0308 15:23:28.922641 30878 net.cpp:137] Memory required for data: 843055104
I0308 15:23:28.922649 30878 layer_factory.hpp:77] Creating layer res3.10.conv1/relu
I0308 15:23:28.922657 30878 net.cpp:84] Creating Layer res3.10.conv1/relu
I0308 15:23:28.922660 30878 net.cpp:406] res3.10.conv1/relu <- res3.10.conv1
I0308 15:23:28.922665 30878 net.cpp:367] res3.10.conv1/relu -> res3.10.conv1 (in-place)
I0308 15:23:28.923211 30878 net.cpp:122] Setting up res3.10.conv1/relu
I0308 15:23:28.923225 30878 net.cpp:129] Top shape: 1 128 64 128 (1048576)
I0308 15:23:28.923241 30878 net.cpp:137] Memory required for data: 847249408
I0308 15:23:28.923245 30878 layer_factory.hpp:77] Creating layer res3.10.conv2
I0308 15:23:28.923255 30878 net.cpp:84] Creating Layer res3.10.conv2
I0308 15:23:28.923259 30878 net.cpp:406] res3.10.conv2 <- res3.10.conv1
I0308 15:23:28.923267 30878 net.cpp:380] res3.10.conv2 -> res3.10.conv2
I0308 15:23:28.926061 30878 net.cpp:122] Setting up res3.10.conv2
I0308 15:23:28.926090 30878 net.cpp:129] Top shape: 1 128 64 128 (1048576)
I0308 15:23:28.926093 30878 net.cpp:137] Memory required for data: 851443712
I0308 15:23:28.926102 30878 layer_factory.hpp:77] Creating layer res3.10.sum
I0308 15:23:28.926120 30878 net.cpp:84] Creating Layer res3.10.sum
I0308 15:23:28.926126 30878 net.cpp:406] res3.10.sum <- res3.10.conv2
I0308 15:23:28.926131 30878 net.cpp:406] res3.10.sum <- res3.9.sum_res3.9.relu_0_split_1
I0308 15:23:28.926136 30878 net.cpp:380] res3.10.sum -> res3.10.sum
I0308 15:23:28.926183 30878 net.cpp:122] Setting up res3.10.sum
I0308 15:23:28.926192 30878 net.cpp:129] Top shape: 1 128 64 128 (1048576)
I0308 15:23:28.926194 30878 net.cpp:137] Memory required for data: 855638016
I0308 15:23:28.926198 30878 layer_factory.hpp:77] Creating layer res3.10.relu
I0308 15:23:28.926203 30878 net.cpp:84] Creating Layer res3.10.relu
I0308 15:23:28.926208 30878 net.cpp:406] res3.10.relu <- res3.10.sum
I0308 15:23:28.926213 30878 net.cpp:367] res3.10.relu -> res3.10.sum (in-place)
I0308 15:23:28.926867 30878 net.cpp:122] Setting up res3.10.relu
I0308 15:23:28.926882 30878 net.cpp:129] Top shape: 1 128 64 128 (1048576)
I0308 15:23:28.926898 30878 net.cpp:137] Memory required for data: 859832320
I0308 15:23:28.926901 30878 layer_factory.hpp:77] Creating layer res3.10.sum_res3.10.relu_0_split
I0308 15:23:28.926908 30878 net.cpp:84] Creating Layer res3.10.sum_res3.10.relu_0_split
I0308 15:23:28.926911 30878 net.cpp:406] res3.10.sum_res3.10.relu_0_split <- res3.10.sum
I0308 15:23:28.926916 30878 net.cpp:380] res3.10.sum_res3.10.relu_0_split -> res3.10.sum_res3.10.relu_0_split_0
I0308 15:23:28.926923 30878 net.cpp:380] res3.10.sum_res3.10.relu_0_split -> res3.10.sum_res3.10.relu_0_split_1
I0308 15:23:28.926990 30878 net.cpp:122] Setting up res3.10.sum_res3.10.relu_0_split
I0308 15:23:28.926996 30878 net.cpp:129] Top shape: 1 128 64 128 (1048576)
I0308 15:23:28.927000 30878 net.cpp:129] Top shape: 1 128 64 128 (1048576)
I0308 15:23:28.927004 30878 net.cpp:137] Memory required for data: 868220928
I0308 15:23:28.927007 30878 layer_factory.hpp:77] Creating layer res3.11.conv1
I0308 15:23:28.927016 30878 net.cpp:84] Creating Layer res3.11.conv1
I0308 15:23:28.927019 30878 net.cpp:406] res3.11.conv1 <- res3.10.sum_res3.10.relu_0_split_0
I0308 15:23:28.927026 30878 net.cpp:380] res3.11.conv1 -> res3.11.conv1
I0308 15:23:28.929937 30878 net.cpp:122] Setting up res3.11.conv1
I0308 15:23:28.929965 30878 net.cpp:129] Top shape: 1 256 64 128 (2097152)
I0308 15:23:28.929970 30878 net.cpp:137] Memory required for data: 876609536
I0308 15:23:28.929977 30878 layer_factory.hpp:77] Creating layer res3.11.conv1/relu
I0308 15:23:28.929986 30878 net.cpp:84] Creating Layer res3.11.conv1/relu
I0308 15:23:28.929991 30878 net.cpp:406] res3.11.conv1/relu <- res3.11.conv1
I0308 15:23:28.929996 30878 net.cpp:367] res3.11.conv1/relu -> res3.11.conv1 (in-place)
I0308 15:23:28.930485 30878 net.cpp:122] Setting up res3.11.conv1/relu
I0308 15:23:28.930496 30878 net.cpp:129] Top shape: 1 256 64 128 (2097152)
I0308 15:23:28.930510 30878 net.cpp:137] Memory required for data: 884998144
I0308 15:23:28.930514 30878 layer_factory.hpp:77] Creating layer res3.11.conv2
I0308 15:23:28.930524 30878 net.cpp:84] Creating Layer res3.11.conv2
I0308 15:23:28.930528 30878 net.cpp:406] res3.11.conv2 <- res3.11.conv1
I0308 15:23:28.930546 30878 net.cpp:380] res3.11.conv2 -> res3.11.conv2
I0308 15:23:28.934069 30878 net.cpp:122] Setting up res3.11.conv2
I0308 15:23:28.934085 30878 net.cpp:129] Top shape: 1 256 64 128 (2097152)
I0308 15:23:28.934089 30878 net.cpp:137] Memory required for data: 893386752
I0308 15:23:28.934106 30878 layer_factory.hpp:77] Creating layer res3.11.skipConv
I0308 15:23:28.934116 30878 net.cpp:84] Creating Layer res3.11.skipConv
I0308 15:23:28.934120 30878 net.cpp:406] res3.11.skipConv <- res3.10.sum_res3.10.relu_0_split_1
I0308 15:23:28.934126 30878 net.cpp:380] res3.11.skipConv -> res3.11.skipConv
I0308 15:23:28.936336 30878 net.cpp:122] Setting up res3.11.skipConv
I0308 15:23:28.936352 30878 net.cpp:129] Top shape: 1 256 64 128 (2097152)
I0308 15:23:28.936354 30878 net.cpp:137] Memory required for data: 901775360
I0308 15:23:28.936362 30878 layer_factory.hpp:77] Creating layer res3.11.sum
I0308 15:23:28.936369 30878 net.cpp:84] Creating Layer res3.11.sum
I0308 15:23:28.936384 30878 net.cpp:406] res3.11.sum <- res3.11.conv2
I0308 15:23:28.936389 30878 net.cpp:406] res3.11.sum <- res3.11.skipConv
I0308 15:23:28.936395 30878 net.cpp:380] res3.11.sum -> res3.11.sum
I0308 15:23:28.936448 30878 net.cpp:122] Setting up res3.11.sum
I0308 15:23:28.936456 30878 net.cpp:129] Top shape: 1 256 64 128 (2097152)
I0308 15:23:28.936460 30878 net.cpp:137] Memory required for data: 910163968
I0308 15:23:28.936462 30878 layer_factory.hpp:77] Creating layer res3.11.relu
I0308 15:23:28.936470 30878 net.cpp:84] Creating Layer res3.11.relu
I0308 15:23:28.936473 30878 net.cpp:406] res3.11.relu <- res3.11.sum
I0308 15:23:28.936480 30878 net.cpp:367] res3.11.relu -> res3.11.sum (in-place)
I0308 15:23:28.937216 30878 net.cpp:122] Setting up res3.11.relu
I0308 15:23:28.937232 30878 net.cpp:129] Top shape: 1 256 64 128 (2097152)
I0308 15:23:28.937235 30878 net.cpp:137] Memory required for data: 918552576
I0308 15:23:28.937238 30878 layer_factory.hpp:77] Creating layer res3.11.sum_res3.11.relu_0_split
I0308 15:23:28.937244 30878 net.cpp:84] Creating Layer res3.11.sum_res3.11.relu_0_split
I0308 15:23:28.937248 30878 net.cpp:406] res3.11.sum_res3.11.relu_0_split <- res3.11.sum
I0308 15:23:28.937255 30878 net.cpp:380] res3.11.sum_res3.11.relu_0_split -> res3.11.sum_res3.11.relu_0_split_0
I0308 15:23:28.937263 30878 net.cpp:380] res3.11.sum_res3.11.relu_0_split -> res3.11.sum_res3.11.relu_0_split_1
I0308 15:23:28.937268 30878 net.cpp:380] res3.11.sum_res3.11.relu_0_split -> res3.11.sum_res3.11.relu_0_split_2
I0308 15:23:28.937362 30878 net.cpp:122] Setting up res3.11.sum_res3.11.relu_0_split
I0308 15:23:28.937372 30878 net.cpp:129] Top shape: 1 256 64 128 (2097152)
I0308 15:23:28.937376 30878 net.cpp:129] Top shape: 1 256 64 128 (2097152)
I0308 15:23:28.937381 30878 net.cpp:129] Top shape: 1 256 64 128 (2097152)
I0308 15:23:28.937383 30878 net.cpp:137] Memory required for data: 943718400
I0308 15:23:28.937386 30878 layer_factory.hpp:77] Creating layer res4.1.conv1
I0308 15:23:28.937395 30878 net.cpp:84] Creating Layer res4.1.conv1
I0308 15:23:28.937399 30878 net.cpp:406] res4.1.conv1 <- res3.11.sum_res3.11.relu_0_split_0
I0308 15:23:28.937404 30878 net.cpp:380] res4.1.conv1 -> res4.1.conv1
I0308 15:23:28.940618 30878 net.cpp:122] Setting up res4.1.conv1
I0308 15:23:28.940646 30878 net.cpp:129] Top shape: 1 256 32 64 (524288)
I0308 15:23:28.940651 30878 net.cpp:137] Memory required for data: 945815552
I0308 15:23:28.940659 30878 layer_factory.hpp:77] Creating layer res4.1.conv1/relu
I0308 15:23:28.940665 30878 net.cpp:84] Creating Layer res4.1.conv1/relu
I0308 15:23:28.940670 30878 net.cpp:406] res4.1.conv1/relu <- res4.1.conv1
I0308 15:23:28.940676 30878 net.cpp:367] res4.1.conv1/relu -> res4.1.conv1 (in-place)
I0308 15:23:28.941331 30878 net.cpp:122] Setting up res4.1.conv1/relu
I0308 15:23:28.941346 30878 net.cpp:129] Top shape: 1 256 32 64 (524288)
I0308 15:23:28.941361 30878 net.cpp:137] Memory required for data: 947912704
I0308 15:23:28.941365 30878 layer_factory.hpp:77] Creating layer res4.1.conv2
I0308 15:23:28.941375 30878 net.cpp:84] Creating Layer res4.1.conv2
I0308 15:23:28.941380 30878 net.cpp:406] res4.1.conv2 <- res4.1.conv1
I0308 15:23:28.941385 30878 net.cpp:380] res4.1.conv2 -> res4.1.conv2
I0308 15:23:28.944957 30878 net.cpp:122] Setting up res4.1.conv2
I0308 15:23:28.944988 30878 net.cpp:129] Top shape: 1 256 32 64 (524288)
I0308 15:23:28.944991 30878 net.cpp:137] Memory required for data: 950009856
I0308 15:23:28.944999 30878 layer_factory.hpp:77] Creating layer res4.1.skipConv
I0308 15:23:28.945013 30878 net.cpp:84] Creating Layer res4.1.skipConv
I0308 15:23:28.945017 30878 net.cpp:406] res4.1.skipConv <- res3.11.sum_res3.11.relu_0_split_1
I0308 15:23:28.945025 30878 net.cpp:380] res4.1.skipConv -> res4.1.skipConv
I0308 15:23:28.947671 30878 net.cpp:122] Setting up res4.1.skipConv
I0308 15:23:28.947688 30878 net.cpp:129] Top shape: 1 256 32 64 (524288)
I0308 15:23:28.947703 30878 net.cpp:137] Memory required for data: 952107008
I0308 15:23:28.947711 30878 layer_factory.hpp:77] Creating layer res4.1.sum
I0308 15:23:28.947729 30878 net.cpp:84] Creating Layer res4.1.sum
I0308 15:23:28.947736 30878 net.cpp:406] res4.1.sum <- res4.1.conv2
I0308 15:23:28.947741 30878 net.cpp:406] res4.1.sum <- res4.1.skipConv
I0308 15:23:28.947746 30878 net.cpp:380] res4.1.sum -> res4.1.sum
I0308 15:23:28.947789 30878 net.cpp:122] Setting up res4.1.sum
I0308 15:23:28.947798 30878 net.cpp:129] Top shape: 1 256 32 64 (524288)
I0308 15:23:28.947800 30878 net.cpp:137] Memory required for data: 954204160
I0308 15:23:28.947803 30878 layer_factory.hpp:77] Creating layer res4.1.relu
I0308 15:23:28.947810 30878 net.cpp:84] Creating Layer res4.1.relu
I0308 15:23:28.947814 30878 net.cpp:406] res4.1.relu <- res4.1.sum
I0308 15:23:28.947819 30878 net.cpp:367] res4.1.relu -> res4.1.sum (in-place)
I0308 15:23:28.948300 30878 net.cpp:122] Setting up res4.1.relu
I0308 15:23:28.948313 30878 net.cpp:129] Top shape: 1 256 32 64 (524288)
I0308 15:23:28.948328 30878 net.cpp:137] Memory required for data: 956301312
I0308 15:23:28.948333 30878 layer_factory.hpp:77] Creating layer res4.1.sum_res4.1.relu_0_split
I0308 15:23:28.948338 30878 net.cpp:84] Creating Layer res4.1.sum_res4.1.relu_0_split
I0308 15:23:28.948341 30878 net.cpp:406] res4.1.sum_res4.1.relu_0_split <- res4.1.sum
I0308 15:23:28.948348 30878 net.cpp:380] res4.1.sum_res4.1.relu_0_split -> res4.1.sum_res4.1.relu_0_split_0
I0308 15:23:28.948355 30878 net.cpp:380] res4.1.sum_res4.1.relu_0_split -> res4.1.sum_res4.1.relu_0_split_1
I0308 15:23:28.948420 30878 net.cpp:122] Setting up res4.1.sum_res4.1.relu_0_split
I0308 15:23:28.948431 30878 net.cpp:129] Top shape: 1 256 32 64 (524288)
I0308 15:23:28.948434 30878 net.cpp:129] Top shape: 1 256 32 64 (524288)
I0308 15:23:28.948437 30878 net.cpp:137] Memory required for data: 960495616
I0308 15:23:28.948441 30878 layer_factory.hpp:77] Creating layer res4.2.conv1
I0308 15:23:28.948447 30878 net.cpp:84] Creating Layer res4.2.conv1
I0308 15:23:28.948451 30878 net.cpp:406] res4.2.conv1 <- res4.1.sum_res4.1.relu_0_split_0
I0308 15:23:28.948463 30878 net.cpp:380] res4.2.conv1 -> res4.2.conv1
I0308 15:23:28.951910 30878 net.cpp:122] Setting up res4.2.conv1
I0308 15:23:28.951926 30878 net.cpp:129] Top shape: 1 256 32 64 (524288)
I0308 15:23:28.951930 30878 net.cpp:137] Memory required for data: 962592768
I0308 15:23:28.951937 30878 layer_factory.hpp:77] Creating layer res4.2.conv1/relu
I0308 15:23:28.951944 30878 net.cpp:84] Creating Layer res4.2.conv1/relu
I0308 15:23:28.951948 30878 net.cpp:406] res4.2.conv1/relu <- res4.2.conv1
I0308 15:23:28.951953 30878 net.cpp:367] res4.2.conv1/relu -> res4.2.conv1 (in-place)
I0308 15:23:28.952625 30878 net.cpp:122] Setting up res4.2.conv1/relu
I0308 15:23:28.952641 30878 net.cpp:129] Top shape: 1 256 32 64 (524288)
I0308 15:23:28.952643 30878 net.cpp:137] Memory required for data: 964689920
I0308 15:23:28.952647 30878 layer_factory.hpp:77] Creating layer res4.2.conv2
I0308 15:23:28.952656 30878 net.cpp:84] Creating Layer res4.2.conv2
I0308 15:23:28.952661 30878 net.cpp:406] res4.2.conv2 <- res4.2.conv1
I0308 15:23:28.952667 30878 net.cpp:380] res4.2.conv2 -> res4.2.conv2
I0308 15:23:28.956079 30878 net.cpp:122] Setting up res4.2.conv2
I0308 15:23:28.956094 30878 net.cpp:129] Top shape: 1 256 32 64 (524288)
I0308 15:23:28.956099 30878 net.cpp:137] Memory required for data: 966787072
I0308 15:23:28.956105 30878 layer_factory.hpp:77] Creating layer res4.2.sum
I0308 15:23:28.956113 30878 net.cpp:84] Creating Layer res4.2.sum
I0308 15:23:28.956118 30878 net.cpp:406] res4.2.sum <- res4.2.conv2
I0308 15:23:28.956125 30878 net.cpp:406] res4.2.sum <- res4.1.sum_res4.1.relu_0_split_1
I0308 15:23:28.956130 30878 net.cpp:380] res4.2.sum -> res4.2.sum
I0308 15:23:28.956190 30878 net.cpp:122] Setting up res4.2.sum
I0308 15:23:28.956198 30878 net.cpp:129] Top shape: 1 256 32 64 (524288)
I0308 15:23:28.956202 30878 net.cpp:137] Memory required for data: 968884224
I0308 15:23:28.956204 30878 layer_factory.hpp:77] Creating layer res4.2.relu
I0308 15:23:28.956209 30878 net.cpp:84] Creating Layer res4.2.relu
I0308 15:23:28.956223 30878 net.cpp:406] res4.2.relu <- res4.2.sum
I0308 15:23:28.956231 30878 net.cpp:367] res4.2.relu -> res4.2.sum (in-place)
I0308 15:23:28.956722 30878 net.cpp:122] Setting up res4.2.relu
I0308 15:23:28.956735 30878 net.cpp:129] Top shape: 1 256 32 64 (524288)
I0308 15:23:28.956738 30878 net.cpp:137] Memory required for data: 970981376
I0308 15:23:28.956743 30878 layer_factory.hpp:77] Creating layer res4.2.sum_res4.2.relu_0_split
I0308 15:23:28.956748 30878 net.cpp:84] Creating Layer res4.2.sum_res4.2.relu_0_split
I0308 15:23:28.956751 30878 net.cpp:406] res4.2.sum_res4.2.relu_0_split <- res4.2.sum
I0308 15:23:28.956758 30878 net.cpp:380] res4.2.sum_res4.2.relu_0_split -> res4.2.sum_res4.2.relu_0_split_0
I0308 15:23:28.956763 30878 net.cpp:380] res4.2.sum_res4.2.relu_0_split -> res4.2.sum_res4.2.relu_0_split_1
I0308 15:23:28.956840 30878 net.cpp:122] Setting up res4.2.sum_res4.2.relu_0_split
I0308 15:23:28.956859 30878 net.cpp:129] Top shape: 1 256 32 64 (524288)
I0308 15:23:28.956863 30878 net.cpp:129] Top shape: 1 256 32 64 (524288)
I0308 15:23:28.956866 30878 net.cpp:137] Memory required for data: 975175680
I0308 15:23:28.956871 30878 layer_factory.hpp:77] Creating layer res4.3.conv1
I0308 15:23:28.956878 30878 net.cpp:84] Creating Layer res4.3.conv1
I0308 15:23:28.956883 30878 net.cpp:406] res4.3.conv1 <- res4.2.sum_res4.2.relu_0_split_0
I0308 15:23:28.956888 30878 net.cpp:380] res4.3.conv1 -> res4.3.conv1
I0308 15:23:28.960275 30878 net.cpp:122] Setting up res4.3.conv1
I0308 15:23:28.960292 30878 net.cpp:129] Top shape: 1 256 32 64 (524288)
I0308 15:23:28.960295 30878 net.cpp:137] Memory required for data: 977272832
I0308 15:23:28.960304 30878 layer_factory.hpp:77] Creating layer res4.3.conv1/relu
I0308 15:23:28.960309 30878 net.cpp:84] Creating Layer res4.3.conv1/relu
I0308 15:23:28.960314 30878 net.cpp:406] res4.3.conv1/relu <- res4.3.conv1
I0308 15:23:28.960319 30878 net.cpp:367] res4.3.conv1/relu -> res4.3.conv1 (in-place)
I0308 15:23:28.960994 30878 net.cpp:122] Setting up res4.3.conv1/relu
I0308 15:23:28.961009 30878 net.cpp:129] Top shape: 1 256 32 64 (524288)
I0308 15:23:28.961024 30878 net.cpp:137] Memory required for data: 979369984
I0308 15:23:28.961028 30878 layer_factory.hpp:77] Creating layer res4.3.conv2
I0308 15:23:28.961037 30878 net.cpp:84] Creating Layer res4.3.conv2
I0308 15:23:28.961042 30878 net.cpp:406] res4.3.conv2 <- res4.3.conv1
I0308 15:23:28.961048 30878 net.cpp:380] res4.3.conv2 -> res4.3.conv2
I0308 15:23:28.964684 30878 net.cpp:122] Setting up res4.3.conv2
I0308 15:23:28.964700 30878 net.cpp:129] Top shape: 1 256 32 64 (524288)
I0308 15:23:28.964704 30878 net.cpp:137] Memory required for data: 981467136
I0308 15:23:28.964711 30878 layer_factory.hpp:77] Creating layer res4.3.sum
I0308 15:23:28.964718 30878 net.cpp:84] Creating Layer res4.3.sum
I0308 15:23:28.964722 30878 net.cpp:406] res4.3.sum <- res4.3.conv2
I0308 15:23:28.964727 30878 net.cpp:406] res4.3.sum <- res4.2.sum_res4.2.relu_0_split_1
I0308 15:23:28.964733 30878 net.cpp:380] res4.3.sum -> res4.3.sum
I0308 15:23:28.964792 30878 net.cpp:122] Setting up res4.3.sum
I0308 15:23:28.964802 30878 net.cpp:129] Top shape: 1 256 32 64 (524288)
I0308 15:23:28.964804 30878 net.cpp:137] Memory required for data: 983564288
I0308 15:23:28.964808 30878 layer_factory.hpp:77] Creating layer res4.3.relu
I0308 15:23:28.964813 30878 net.cpp:84] Creating Layer res4.3.relu
I0308 15:23:28.964818 30878 net.cpp:406] res4.3.relu <- res4.3.sum
I0308 15:23:28.964821 30878 net.cpp:367] res4.3.relu -> res4.3.sum (in-place)
I0308 15:23:28.965487 30878 net.cpp:122] Setting up res4.3.relu
I0308 15:23:28.965502 30878 net.cpp:129] Top shape: 1 256 32 64 (524288)
I0308 15:23:28.965505 30878 net.cpp:137] Memory required for data: 985661440
I0308 15:23:28.965509 30878 layer_factory.hpp:77] Creating layer res4.3.sum_res4.3.relu_0_split
I0308 15:23:28.965514 30878 net.cpp:84] Creating Layer res4.3.sum_res4.3.relu_0_split
I0308 15:23:28.965518 30878 net.cpp:406] res4.3.sum_res4.3.relu_0_split <- res4.3.sum
I0308 15:23:28.965526 30878 net.cpp:380] res4.3.sum_res4.3.relu_0_split -> res4.3.sum_res4.3.relu_0_split_0
I0308 15:23:28.965544 30878 net.cpp:380] res4.3.sum_res4.3.relu_0_split -> res4.3.sum_res4.3.relu_0_split_1
I0308 15:23:28.965627 30878 net.cpp:122] Setting up res4.3.sum_res4.3.relu_0_split
I0308 15:23:28.965636 30878 net.cpp:129] Top shape: 1 256 32 64 (524288)
I0308 15:23:28.965639 30878 net.cpp:129] Top shape: 1 256 32 64 (524288)
I0308 15:23:28.965642 30878 net.cpp:137] Memory required for data: 989855744
I0308 15:23:28.965646 30878 layer_factory.hpp:77] Creating layer res4.4.conv1
I0308 15:23:28.965656 30878 net.cpp:84] Creating Layer res4.4.conv1
I0308 15:23:28.965661 30878 net.cpp:406] res4.4.conv1 <- res4.3.sum_res4.3.relu_0_split_0
I0308 15:23:28.965667 30878 net.cpp:380] res4.4.conv1 -> res4.4.conv1
I0308 15:23:28.969063 30878 net.cpp:122] Setting up res4.4.conv1
I0308 15:23:28.969079 30878 net.cpp:129] Top shape: 1 256 32 64 (524288)
I0308 15:23:28.969084 30878 net.cpp:137] Memory required for data: 991952896
I0308 15:23:28.969091 30878 layer_factory.hpp:77] Creating layer res4.4.conv1/relu
I0308 15:23:28.969099 30878 net.cpp:84] Creating Layer res4.4.conv1/relu
I0308 15:23:28.969102 30878 net.cpp:406] res4.4.conv1/relu <- res4.4.conv1
I0308 15:23:28.969108 30878 net.cpp:367] res4.4.conv1/relu -> res4.4.conv1 (in-place)
I0308 15:23:28.969610 30878 net.cpp:122] Setting up res4.4.conv1/relu
I0308 15:23:28.969624 30878 net.cpp:129] Top shape: 1 256 32 64 (524288)
I0308 15:23:28.969626 30878 net.cpp:137] Memory required for data: 994050048
I0308 15:23:28.969641 30878 layer_factory.hpp:77] Creating layer res4.4.conv2
I0308 15:23:28.969651 30878 net.cpp:84] Creating Layer res4.4.conv2
I0308 15:23:28.969655 30878 net.cpp:406] res4.4.conv2 <- res4.4.conv1
I0308 15:23:28.969661 30878 net.cpp:380] res4.4.conv2 -> res4.4.conv2
I0308 15:23:28.973176 30878 net.cpp:122] Setting up res4.4.conv2
I0308 15:23:28.973204 30878 net.cpp:129] Top shape: 1 256 32 64 (524288)
I0308 15:23:28.973208 30878 net.cpp:137] Memory required for data: 996147200
I0308 15:23:28.973215 30878 layer_factory.hpp:77] Creating layer res4.4.sum
I0308 15:23:28.973224 30878 net.cpp:84] Creating Layer res4.4.sum
I0308 15:23:28.973228 30878 net.cpp:406] res4.4.sum <- res4.4.conv2
I0308 15:23:28.973233 30878 net.cpp:406] res4.4.sum <- res4.3.sum_res4.3.relu_0_split_1
I0308 15:23:28.973238 30878 net.cpp:380] res4.4.sum -> res4.4.sum
I0308 15:23:28.973289 30878 net.cpp:122] Setting up res4.4.sum
I0308 15:23:28.973296 30878 net.cpp:129] Top shape: 1 256 32 64 (524288)
I0308 15:23:28.973300 30878 net.cpp:137] Memory required for data: 998244352
I0308 15:23:28.973304 30878 layer_factory.hpp:77] Creating layer res4.4.relu
I0308 15:23:28.973309 30878 net.cpp:84] Creating Layer res4.4.relu
I0308 15:23:28.973312 30878 net.cpp:406] res4.4.relu <- res4.4.sum
I0308 15:23:28.973318 30878 net.cpp:367] res4.4.relu -> res4.4.sum (in-place)
I0308 15:23:28.973985 30878 net.cpp:122] Setting up res4.4.relu
I0308 15:23:28.974011 30878 net.cpp:129] Top shape: 1 256 32 64 (524288)
I0308 15:23:28.974015 30878 net.cpp:137] Memory required for data: 1000341504
I0308 15:23:28.974020 30878 layer_factory.hpp:77] Creating layer res4.4.sum_res4.4.relu_0_split
I0308 15:23:28.974027 30878 net.cpp:84] Creating Layer res4.4.sum_res4.4.relu_0_split
I0308 15:23:28.974031 30878 net.cpp:406] res4.4.sum_res4.4.relu_0_split <- res4.4.sum
I0308 15:23:28.974038 30878 net.cpp:380] res4.4.sum_res4.4.relu_0_split -> res4.4.sum_res4.4.relu_0_split_0
I0308 15:23:28.974045 30878 net.cpp:380] res4.4.sum_res4.4.relu_0_split -> res4.4.sum_res4.4.relu_0_split_1
I0308 15:23:28.974115 30878 net.cpp:122] Setting up res4.4.sum_res4.4.relu_0_split
I0308 15:23:28.974123 30878 net.cpp:129] Top shape: 1 256 32 64 (524288)
I0308 15:23:28.974128 30878 net.cpp:129] Top shape: 1 256 32 64 (524288)
I0308 15:23:28.974130 30878 net.cpp:137] Memory required for data: 1004535808
I0308 15:23:28.974133 30878 layer_factory.hpp:77] Creating layer res4.5.conv1
I0308 15:23:28.974141 30878 net.cpp:84] Creating Layer res4.5.conv1
I0308 15:23:28.974145 30878 net.cpp:406] res4.5.conv1 <- res4.4.sum_res4.4.relu_0_split_0
I0308 15:23:28.974164 30878 net.cpp:380] res4.5.conv1 -> res4.5.conv1
I0308 15:23:28.978557 30878 net.cpp:122] Setting up res4.5.conv1
I0308 15:23:28.978586 30878 net.cpp:129] Top shape: 1 512 32 64 (1048576)
I0308 15:23:28.978590 30878 net.cpp:137] Memory required for data: 1008730112
I0308 15:23:28.978598 30878 layer_factory.hpp:77] Creating layer res4.5.conv1/relu
I0308 15:23:28.978606 30878 net.cpp:84] Creating Layer res4.5.conv1/relu
I0308 15:23:28.978610 30878 net.cpp:406] res4.5.conv1/relu <- res4.5.conv1
I0308 15:23:28.978616 30878 net.cpp:367] res4.5.conv1/relu -> res4.5.conv1 (in-place)
I0308 15:23:28.979179 30878 net.cpp:122] Setting up res4.5.conv1/relu
I0308 15:23:28.979207 30878 net.cpp:129] Top shape: 1 512 32 64 (1048576)
I0308 15:23:28.979210 30878 net.cpp:137] Memory required for data: 1012924416
I0308 15:23:28.979214 30878 layer_factory.hpp:77] Creating layer res4.5.conv2
I0308 15:23:28.979223 30878 net.cpp:84] Creating Layer res4.5.conv2
I0308 15:23:28.979228 30878 net.cpp:406] res4.5.conv2 <- res4.5.conv1
I0308 15:23:28.979234 30878 net.cpp:380] res4.5.conv2 -> res4.5.conv2
I0308 15:23:28.985232 30878 net.cpp:122] Setting up res4.5.conv2
I0308 15:23:28.985249 30878 net.cpp:129] Top shape: 1 512 32 64 (1048576)
I0308 15:23:28.985252 30878 net.cpp:137] Memory required for data: 1017118720
I0308 15:23:28.985260 30878 layer_factory.hpp:77] Creating layer res4.5.skipConv
I0308 15:23:28.985270 30878 net.cpp:84] Creating Layer res4.5.skipConv
I0308 15:23:28.985275 30878 net.cpp:406] res4.5.skipConv <- res4.4.sum_res4.4.relu_0_split_1
I0308 15:23:28.985281 30878 net.cpp:380] res4.5.skipConv -> res4.5.skipConv
I0308 15:23:28.988095 30878 net.cpp:122] Setting up res4.5.skipConv
I0308 15:23:28.988123 30878 net.cpp:129] Top shape: 1 512 32 64 (1048576)
I0308 15:23:28.988128 30878 net.cpp:137] Memory required for data: 1021313024
I0308 15:23:28.988135 30878 layer_factory.hpp:77] Creating layer res4.5.sum
I0308 15:23:28.988142 30878 net.cpp:84] Creating Layer res4.5.sum
I0308 15:23:28.988147 30878 net.cpp:406] res4.5.sum <- res4.5.conv2
I0308 15:23:28.988152 30878 net.cpp:406] res4.5.sum <- res4.5.skipConv
I0308 15:23:28.988157 30878 net.cpp:380] res4.5.sum -> res4.5.sum
I0308 15:23:28.988204 30878 net.cpp:122] Setting up res4.5.sum
I0308 15:23:28.988212 30878 net.cpp:129] Top shape: 1 512 32 64 (1048576)
I0308 15:23:28.988215 30878 net.cpp:137] Memory required for data: 1025507328
I0308 15:23:28.988219 30878 layer_factory.hpp:77] Creating layer res4.5.relu
I0308 15:23:28.988224 30878 net.cpp:84] Creating Layer res4.5.relu
I0308 15:23:28.988229 30878 net.cpp:406] res4.5.relu <- res4.5.sum
I0308 15:23:28.988232 30878 net.cpp:367] res4.5.relu -> res4.5.sum (in-place)
I0308 15:23:28.988916 30878 net.cpp:122] Setting up res4.5.relu
I0308 15:23:28.988931 30878 net.cpp:129] Top shape: 1 512 32 64 (1048576)
I0308 15:23:28.988934 30878 net.cpp:137] Memory required for data: 1029701632
I0308 15:23:28.988939 30878 layer_factory.hpp:77] Creating layer res4.5.sum_res4.5.relu_0_split
I0308 15:23:28.988945 30878 net.cpp:84] Creating Layer res4.5.sum_res4.5.relu_0_split
I0308 15:23:28.988948 30878 net.cpp:406] res4.5.sum_res4.5.relu_0_split <- res4.5.sum
I0308 15:23:28.988955 30878 net.cpp:380] res4.5.sum_res4.5.relu_0_split -> res4.5.sum_res4.5.relu_0_split_0
I0308 15:23:28.988962 30878 net.cpp:380] res4.5.sum_res4.5.relu_0_split -> res4.5.sum_res4.5.relu_0_split_1
I0308 15:23:28.989048 30878 net.cpp:122] Setting up res4.5.sum_res4.5.relu_0_split
I0308 15:23:28.989056 30878 net.cpp:129] Top shape: 1 512 32 64 (1048576)
I0308 15:23:28.989061 30878 net.cpp:129] Top shape: 1 512 32 64 (1048576)
I0308 15:23:28.989064 30878 net.cpp:137] Memory required for data: 1038090240
I0308 15:23:28.989068 30878 layer_factory.hpp:77] Creating layer res4.6.conv1
I0308 15:23:28.989076 30878 net.cpp:84] Creating Layer res4.6.conv1
I0308 15:23:28.989080 30878 net.cpp:406] res4.6.conv1 <- res4.5.sum_res4.5.relu_0_split_0
I0308 15:23:28.989085 30878 net.cpp:380] res4.6.conv1 -> res4.6.conv1
I0308 15:23:28.994976 30878 net.cpp:122] Setting up res4.6.conv1
I0308 15:23:28.994993 30878 net.cpp:129] Top shape: 1 512 32 64 (1048576)
I0308 15:23:28.994997 30878 net.cpp:137] Memory required for data: 1042284544
I0308 15:23:28.995004 30878 layer_factory.hpp:77] Creating layer res4.6.conv1/relu
I0308 15:23:28.995010 30878 net.cpp:84] Creating Layer res4.6.conv1/relu
I0308 15:23:28.995014 30878 net.cpp:406] res4.6.conv1/relu <- res4.6.conv1
I0308 15:23:28.995021 30878 net.cpp:367] res4.6.conv1/relu -> res4.6.conv1 (in-place)
I0308 15:23:28.995793 30878 net.cpp:122] Setting up res4.6.conv1/relu
I0308 15:23:28.995808 30878 net.cpp:129] Top shape: 1 512 32 64 (1048576)
I0308 15:23:28.995812 30878 net.cpp:137] Memory required for data: 1046478848
I0308 15:23:28.995815 30878 layer_factory.hpp:77] Creating layer res4.6.conv2
I0308 15:23:28.995838 30878 net.cpp:84] Creating Layer res4.6.conv2
I0308 15:23:28.995843 30878 net.cpp:406] res4.6.conv2 <- res4.6.conv1
I0308 15:23:28.995849 30878 net.cpp:380] res4.6.conv2 -> res4.6.conv2
I0308 15:23:29.002018 30878 net.cpp:122] Setting up res4.6.conv2
I0308 15:23:29.002035 30878 net.cpp:129] Top shape: 1 512 32 64 (1048576)
I0308 15:23:29.002038 30878 net.cpp:137] Memory required for data: 1050673152
I0308 15:23:29.002048 30878 layer_factory.hpp:77] Creating layer res4.6.sum
I0308 15:23:29.002054 30878 net.cpp:84] Creating Layer res4.6.sum
I0308 15:23:29.002058 30878 net.cpp:406] res4.6.sum <- res4.6.conv2
I0308 15:23:29.002064 30878 net.cpp:406] res4.6.sum <- res4.5.sum_res4.5.relu_0_split_1
I0308 15:23:29.002071 30878 net.cpp:380] res4.6.sum -> res4.6.sum
I0308 15:23:29.002128 30878 net.cpp:122] Setting up res4.6.sum
I0308 15:23:29.002136 30878 net.cpp:129] Top shape: 1 512 32 64 (1048576)
I0308 15:23:29.002140 30878 net.cpp:137] Memory required for data: 1054867456
I0308 15:23:29.002142 30878 layer_factory.hpp:77] Creating layer res4.6.relu
I0308 15:23:29.002149 30878 net.cpp:84] Creating Layer res4.6.relu
I0308 15:23:29.002153 30878 net.cpp:406] res4.6.relu <- res4.6.sum
I0308 15:23:29.002157 30878 net.cpp:367] res4.6.relu -> res4.6.sum (in-place)
I0308 15:23:29.002663 30878 net.cpp:122] Setting up res4.6.relu
I0308 15:23:29.002676 30878 net.cpp:129] Top shape: 1 512 32 64 (1048576)
I0308 15:23:29.002678 30878 net.cpp:137] Memory required for data: 1059061760
I0308 15:23:29.002682 30878 layer_factory.hpp:77] Creating layer res4.6.sum_res4.6.relu_0_split
I0308 15:23:29.002691 30878 net.cpp:84] Creating Layer res4.6.sum_res4.6.relu_0_split
I0308 15:23:29.002693 30878 net.cpp:406] res4.6.sum_res4.6.relu_0_split <- res4.6.sum
I0308 15:23:29.002698 30878 net.cpp:380] res4.6.sum_res4.6.relu_0_split -> res4.6.sum_res4.6.relu_0_split_0
I0308 15:23:29.002707 30878 net.cpp:380] res4.6.sum_res4.6.relu_0_split -> res4.6.sum_res4.6.relu_0_split_1
I0308 15:23:29.002712 30878 net.cpp:380] res4.6.sum_res4.6.relu_0_split -> res4.6.sum_res4.6.relu_0_split_2
I0308 15:23:29.002717 30878 net.cpp:380] res4.6.sum_res4.6.relu_0_split -> res4.6.sum_res4.6.relu_0_split_3
I0308 15:23:29.002722 30878 net.cpp:380] res4.6.sum_res4.6.relu_0_split -> res4.6.sum_res4.6.relu_0_split_4
I0308 15:23:29.002866 30878 net.cpp:122] Setting up res4.6.sum_res4.6.relu_0_split
I0308 15:23:29.002876 30878 net.cpp:129] Top shape: 1 512 32 64 (1048576)
I0308 15:23:29.002880 30878 net.cpp:129] Top shape: 1 512 32 64 (1048576)
I0308 15:23:29.002884 30878 net.cpp:129] Top shape: 1 512 32 64 (1048576)
I0308 15:23:29.002888 30878 net.cpp:129] Top shape: 1 512 32 64 (1048576)
I0308 15:23:29.002892 30878 net.cpp:129] Top shape: 1 512 32 64 (1048576)
I0308 15:23:29.002894 30878 net.cpp:137] Memory required for data: 1080033280
I0308 15:23:29.002898 30878 layer_factory.hpp:77] Creating layer psp.pool1
I0308 15:23:29.002907 30878 net.cpp:84] Creating Layer psp.pool1
I0308 15:23:29.002910 30878 net.cpp:406] psp.pool1 <- res4.6.sum_res4.6.relu_0_split_0
I0308 15:23:29.002916 30878 net.cpp:380] psp.pool1 -> psp.pool1
I0308 15:23:29.003710 30878 net.cpp:122] Setting up psp.pool1
I0308 15:23:29.003737 30878 net.cpp:129] Top shape: 1 512 1 2 (1024)
I0308 15:23:29.003751 30878 net.cpp:137] Memory required for data: 1080037376
I0308 15:23:29.003756 30878 layer_factory.hpp:77] Creating layer psp.pool1.conv
I0308 15:23:29.003765 30878 net.cpp:84] Creating Layer psp.pool1.conv
I0308 15:23:29.003770 30878 net.cpp:406] psp.pool1.conv <- psp.pool1
I0308 15:23:29.003777 30878 net.cpp:380] psp.pool1.conv -> psp.pool1.conv
I0308 15:23:29.006052 30878 net.cpp:122] Setting up psp.pool1.conv
I0308 15:23:29.006080 30878 net.cpp:129] Top shape: 1 128 1 2 (256)
I0308 15:23:29.006085 30878 net.cpp:137] Memory required for data: 1080038400
I0308 15:23:29.006093 30878 layer_factory.hpp:77] Creating layer psp.pool1.conv/relu
I0308 15:23:29.006098 30878 net.cpp:84] Creating Layer psp.pool1.conv/relu
I0308 15:23:29.006103 30878 net.cpp:406] psp.pool1.conv/relu <- psp.pool1.conv
I0308 15:23:29.006109 30878 net.cpp:367] psp.pool1.conv/relu -> psp.pool1.conv (in-place)
I0308 15:23:29.006603 30878 net.cpp:122] Setting up psp.pool1.conv/relu
I0308 15:23:29.006615 30878 net.cpp:129] Top shape: 1 128 1 2 (256)
I0308 15:23:29.006630 30878 net.cpp:137] Memory required for data: 1080039424
I0308 15:23:29.006634 30878 layer_factory.hpp:77] Creating layer psp.pool1.interp
I0308 15:23:29.006644 30878 net.cpp:84] Creating Layer psp.pool1.interp
I0308 15:23:29.006647 30878 net.cpp:406] psp.pool1.interp <- psp.pool1.conv
I0308 15:23:29.006654 30878 net.cpp:380] psp.pool1.interp -> psp.pool1.interp
I0308 15:23:29.006729 30878 net.cpp:122] Setting up psp.pool1.interp
I0308 15:23:29.006739 30878 net.cpp:129] Top shape: 1 128 32 64 (262144)
I0308 15:23:29.006743 30878 net.cpp:137] Memory required for data: 1081088000
I0308 15:23:29.006747 30878 layer_factory.hpp:77] Creating layer psp.pool2
I0308 15:23:29.006753 30878 net.cpp:84] Creating Layer psp.pool2
I0308 15:23:29.006758 30878 net.cpp:406] psp.pool2 <- res4.6.sum_res4.6.relu_0_split_1
I0308 15:23:29.006763 30878 net.cpp:380] psp.pool2 -> psp.pool2
I0308 15:23:29.007575 30878 net.cpp:122] Setting up psp.pool2
I0308 15:23:29.007591 30878 net.cpp:129] Top shape: 1 512 2 4 (4096)
I0308 15:23:29.007594 30878 net.cpp:137] Memory required for data: 1081104384
I0308 15:23:29.007597 30878 layer_factory.hpp:77] Creating layer psp.pool2.conv
I0308 15:23:29.007606 30878 net.cpp:84] Creating Layer psp.pool2.conv
I0308 15:23:29.007611 30878 net.cpp:406] psp.pool2.conv <- psp.pool2
I0308 15:23:29.007617 30878 net.cpp:380] psp.pool2.conv -> psp.pool2.conv
I0308 15:23:29.009920 30878 net.cpp:122] Setting up psp.pool2.conv
I0308 15:23:29.009937 30878 net.cpp:129] Top shape: 1 128 2 4 (1024)
I0308 15:23:29.009939 30878 net.cpp:137] Memory required for data: 1081108480
I0308 15:23:29.009946 30878 layer_factory.hpp:77] Creating layer psp.pool2.conv/relu
I0308 15:23:29.009953 30878 net.cpp:84] Creating Layer psp.pool2.conv/relu
I0308 15:23:29.009956 30878 net.cpp:406] psp.pool2.conv/relu <- psp.pool2.conv
I0308 15:23:29.009963 30878 net.cpp:367] psp.pool2.conv/relu -> psp.pool2.conv (in-place)
I0308 15:23:29.010655 30878 net.cpp:122] Setting up psp.pool2.conv/relu
I0308 15:23:29.010670 30878 net.cpp:129] Top shape: 1 128 2 4 (1024)
I0308 15:23:29.010674 30878 net.cpp:137] Memory required for data: 1081112576
I0308 15:23:29.010677 30878 layer_factory.hpp:77] Creating layer psp.pool2.interp
I0308 15:23:29.010684 30878 net.cpp:84] Creating Layer psp.pool2.interp
I0308 15:23:29.010689 30878 net.cpp:406] psp.pool2.interp <- psp.pool2.conv
I0308 15:23:29.010694 30878 net.cpp:380] psp.pool2.interp -> psp.pool2.interp
I0308 15:23:29.010757 30878 net.cpp:122] Setting up psp.pool2.interp
I0308 15:23:29.010766 30878 net.cpp:129] Top shape: 1 128 32 64 (262144)
I0308 15:23:29.010768 30878 net.cpp:137] Memory required for data: 1082161152
I0308 15:23:29.010771 30878 layer_factory.hpp:77] Creating layer psp.pool3
I0308 15:23:29.010777 30878 net.cpp:84] Creating Layer psp.pool3
I0308 15:23:29.010782 30878 net.cpp:406] psp.pool3 <- res4.6.sum_res4.6.relu_0_split_2
I0308 15:23:29.010787 30878 net.cpp:380] psp.pool3 -> psp.pool3
I0308 15:23:29.011361 30878 net.cpp:122] Setting up psp.pool3
I0308 15:23:29.011385 30878 net.cpp:129] Top shape: 1 512 4 8 (16384)
I0308 15:23:29.011389 30878 net.cpp:137] Memory required for data: 1082226688
I0308 15:23:29.011392 30878 layer_factory.hpp:77] Creating layer psp.pool3.conv
I0308 15:23:29.011402 30878 net.cpp:84] Creating Layer psp.pool3.conv
I0308 15:23:29.011406 30878 net.cpp:406] psp.pool3.conv <- psp.pool3
I0308 15:23:29.011411 30878 net.cpp:380] psp.pool3.conv -> psp.pool3.conv
I0308 15:23:29.013969 30878 net.cpp:122] Setting up psp.pool3.conv
I0308 15:23:29.013986 30878 net.cpp:129] Top shape: 1 128 4 8 (4096)
I0308 15:23:29.013989 30878 net.cpp:137] Memory required for data: 1082243072
I0308 15:23:29.013996 30878 layer_factory.hpp:77] Creating layer psp.pool3.conv/relu
I0308 15:23:29.014003 30878 net.cpp:84] Creating Layer psp.pool3.conv/relu
I0308 15:23:29.014006 30878 net.cpp:406] psp.pool3.conv/relu <- psp.pool3.conv
I0308 15:23:29.014012 30878 net.cpp:367] psp.pool3.conv/relu -> psp.pool3.conv (in-place)
I0308 15:23:29.014713 30878 net.cpp:122] Setting up psp.pool3.conv/relu
I0308 15:23:29.014727 30878 net.cpp:129] Top shape: 1 128 4 8 (4096)
I0308 15:23:29.014742 30878 net.cpp:137] Memory required for data: 1082259456
I0308 15:23:29.014746 30878 layer_factory.hpp:77] Creating layer psp.pool3.interp
I0308 15:23:29.014755 30878 net.cpp:84] Creating Layer psp.pool3.interp
I0308 15:23:29.014760 30878 net.cpp:406] psp.pool3.interp <- psp.pool3.conv
I0308 15:23:29.014767 30878 net.cpp:380] psp.pool3.interp -> psp.pool3.interp
I0308 15:23:29.014818 30878 net.cpp:122] Setting up psp.pool3.interp
I0308 15:23:29.014827 30878 net.cpp:129] Top shape: 1 128 32 64 (262144)
I0308 15:23:29.014829 30878 net.cpp:137] Memory required for data: 1083308032
I0308 15:23:29.014832 30878 layer_factory.hpp:77] Creating layer psp.pool4
I0308 15:23:29.014839 30878 net.cpp:84] Creating Layer psp.pool4
I0308 15:23:29.014844 30878 net.cpp:406] psp.pool4 <- res4.6.sum_res4.6.relu_0_split_3
I0308 15:23:29.014849 30878 net.cpp:380] psp.pool4 -> psp.pool4
I0308 15:23:29.015481 30878 net.cpp:122] Setting up psp.pool4
I0308 15:23:29.015509 30878 net.cpp:129] Top shape: 1 512 8 16 (65536)
I0308 15:23:29.015512 30878 net.cpp:137] Memory required for data: 1083570176
I0308 15:23:29.015516 30878 layer_factory.hpp:77] Creating layer psp.pool4.conv
I0308 15:23:29.015524 30878 net.cpp:84] Creating Layer psp.pool4.conv
I0308 15:23:29.015528 30878 net.cpp:406] psp.pool4.conv <- psp.pool4
I0308 15:23:29.015535 30878 net.cpp:380] psp.pool4.conv -> psp.pool4.conv
I0308 15:23:29.018477 30878 net.cpp:122] Setting up psp.pool4.conv
I0308 15:23:29.018504 30878 net.cpp:129] Top shape: 1 128 8 16 (16384)
I0308 15:23:29.018508 30878 net.cpp:137] Memory required for data: 1083635712
I0308 15:23:29.018517 30878 layer_factory.hpp:77] Creating layer psp.pool4.conv/relu
I0308 15:23:29.018523 30878 net.cpp:84] Creating Layer psp.pool4.conv/relu
I0308 15:23:29.018527 30878 net.cpp:406] psp.pool4.conv/relu <- psp.pool4.conv
I0308 15:23:29.018534 30878 net.cpp:367] psp.pool4.conv/relu -> psp.pool4.conv (in-place)
I0308 15:23:29.019217 30878 net.cpp:122] Setting up psp.pool4.conv/relu
I0308 15:23:29.019243 30878 net.cpp:129] Top shape: 1 128 8 16 (16384)
I0308 15:23:29.019248 30878 net.cpp:137] Memory required for data: 1083701248
I0308 15:23:29.019251 30878 layer_factory.hpp:77] Creating layer psp.pool4.interp
I0308 15:23:29.019259 30878 net.cpp:84] Creating Layer psp.pool4.interp
I0308 15:23:29.019264 30878 net.cpp:406] psp.pool4.interp <- psp.pool4.conv
I0308 15:23:29.019270 30878 net.cpp:380] psp.pool4.interp -> psp.pool4.interp
I0308 15:23:29.019336 30878 net.cpp:122] Setting up psp.pool4.interp
I0308 15:23:29.019354 30878 net.cpp:129] Top shape: 1 128 32 64 (262144)
I0308 15:23:29.019358 30878 net.cpp:137] Memory required for data: 1084749824
I0308 15:23:29.019361 30878 layer_factory.hpp:77] Creating layer psp.concat
I0308 15:23:29.019378 30878 net.cpp:84] Creating Layer psp.concat
I0308 15:23:29.019383 30878 net.cpp:406] psp.concat <- res4.6.sum_res4.6.relu_0_split_4
I0308 15:23:29.019388 30878 net.cpp:406] psp.concat <- psp.pool1.interp
I0308 15:23:29.019403 30878 net.cpp:406] psp.concat <- psp.pool2.interp
I0308 15:23:29.019408 30878 net.cpp:406] psp.concat <- psp.pool3.interp
I0308 15:23:29.019412 30878 net.cpp:406] psp.concat <- psp.pool4.interp
I0308 15:23:29.019420 30878 net.cpp:380] psp.concat -> psp.concat
I0308 15:23:29.019484 30878 net.cpp:122] Setting up psp.concat
I0308 15:23:29.019495 30878 net.cpp:129] Top shape: 1 1024 32 64 (2097152)
I0308 15:23:29.019498 30878 net.cpp:137] Memory required for data: 1093138432
I0308 15:23:29.019502 30878 layer_factory.hpp:77] Creating layer psp.concat.conv
I0308 15:23:29.019510 30878 net.cpp:84] Creating Layer psp.concat.conv
I0308 15:23:29.019513 30878 net.cpp:406] psp.concat.conv <- psp.concat
I0308 15:23:29.019520 30878 net.cpp:380] psp.concat.conv -> psp.concat.conv
I0308 15:23:29.029040 30878 net.cpp:122] Setting up psp.concat.conv
I0308 15:23:29.029060 30878 net.cpp:129] Top shape: 1 512 32 64 (1048576)
I0308 15:23:29.029063 30878 net.cpp:137] Memory required for data: 1097332736
I0308 15:23:29.029070 30878 layer_factory.hpp:77] Creating layer psp.concat.conv/relu
I0308 15:23:29.029078 30878 net.cpp:84] Creating Layer psp.concat.conv/relu
I0308 15:23:29.029083 30878 net.cpp:406] psp.concat.conv/relu <- psp.concat.conv
I0308 15:23:29.029088 30878 net.cpp:367] psp.concat.conv/relu -> psp.concat.conv (in-place)
I0308 15:23:29.029839 30878 net.cpp:122] Setting up psp.concat.conv/relu
I0308 15:23:29.029852 30878 net.cpp:129] Top shape: 1 512 32 64 (1048576)
I0308 15:23:29.029868 30878 net.cpp:137] Memory required for data: 1101527040
I0308 15:23:29.029872 30878 layer_factory.hpp:77] Creating layer Decoder_wc3
I0308 15:23:29.029881 30878 net.cpp:84] Creating Layer Decoder_wc3
I0308 15:23:29.029886 30878 net.cpp:406] Decoder_wc3 <- res2.3.sum_res2.3.relu_0_split_2
I0308 15:23:29.029893 30878 net.cpp:380] Decoder_wc3 -> Decoder_wc3
I0308 15:23:29.032399 30878 net.cpp:122] Setting up Decoder_wc3
I0308 15:23:29.032415 30878 net.cpp:129] Top shape: 1 19 128 256 (622592)
I0308 15:23:29.032430 30878 net.cpp:137] Memory required for data: 1104017408
I0308 15:23:29.032438 30878 layer_factory.hpp:77] Creating layer Decoder_wc3/relu
I0308 15:23:29.032444 30878 net.cpp:84] Creating Layer Decoder_wc3/relu
I0308 15:23:29.032449 30878 net.cpp:406] Decoder_wc3/relu <- Decoder_wc3
I0308 15:23:29.032455 30878 net.cpp:367] Decoder_wc3/relu -> Decoder_wc3 (in-place)
I0308 15:23:29.033138 30878 net.cpp:122] Setting up Decoder_wc3/relu
I0308 15:23:29.033164 30878 net.cpp:129] Top shape: 1 19 128 256 (622592)
I0308 15:23:29.033167 30878 net.cpp:137] Memory required for data: 1106507776
I0308 15:23:29.033170 30878 layer_factory.hpp:77] Creating layer Decoder_wc4
I0308 15:23:29.033180 30878 net.cpp:84] Creating Layer Decoder_wc4
I0308 15:23:29.033185 30878 net.cpp:406] Decoder_wc4 <- res3.11.sum_res3.11.relu_0_split_2
I0308 15:23:29.033191 30878 net.cpp:380] Decoder_wc4 -> Decoder_wc4
I0308 15:23:29.035596 30878 net.cpp:122] Setting up Decoder_wc4
I0308 15:23:29.035624 30878 net.cpp:129] Top shape: 1 19 64 128 (155648)
I0308 15:23:29.035629 30878 net.cpp:137] Memory required for data: 1107130368
I0308 15:23:29.035636 30878 layer_factory.hpp:77] Creating layer Decoder_wc4/relu
I0308 15:23:29.035643 30878 net.cpp:84] Creating Layer Decoder_wc4/relu
I0308 15:23:29.035647 30878 net.cpp:406] Decoder_wc4/relu <- Decoder_wc4
I0308 15:23:29.035653 30878 net.cpp:367] Decoder_wc4/relu -> Decoder_wc4 (in-place)
I0308 15:23:29.036340 30878 net.cpp:122] Setting up Decoder_wc4/relu
I0308 15:23:29.036355 30878 net.cpp:129] Top shape: 1 19 64 128 (155648)
I0308 15:23:29.036370 30878 net.cpp:137] Memory required for data: 1107752960
I0308 15:23:29.036375 30878 layer_factory.hpp:77] Creating layer Decoder_wc5
I0308 15:23:29.036383 30878 net.cpp:84] Creating Layer Decoder_wc5
I0308 15:23:29.036388 30878 net.cpp:406] Decoder_wc5 <- psp.concat.conv
I0308 15:23:29.036396 30878 net.cpp:380] Decoder_wc5 -> Decoder_wc5
I0308 15:23:29.038686 30878 net.cpp:122] Setting up Decoder_wc5
I0308 15:23:29.038712 30878 net.cpp:129] Top shape: 1 32 32 64 (65536)
I0308 15:23:29.038728 30878 net.cpp:137] Memory required for data: 1108015104
I0308 15:23:29.038736 30878 layer_factory.hpp:77] Creating layer Decoder_wc5/relu
I0308 15:23:29.038743 30878 net.cpp:84] Creating Layer Decoder_wc5/relu
I0308 15:23:29.038748 30878 net.cpp:406] Decoder_wc5/relu <- Decoder_wc5
I0308 15:23:29.038753 30878 net.cpp:367] Decoder_wc5/relu -> Decoder_wc5 (in-place)
I0308 15:23:29.039439 30878 net.cpp:122] Setting up Decoder_wc5/relu
I0308 15:23:29.039465 30878 net.cpp:129] Top shape: 1 32 32 64 (65536)
I0308 15:23:29.039469 30878 net.cpp:137] Memory required for data: 1108277248
I0308 15:23:29.039474 30878 layer_factory.hpp:77] Creating layer Decoder4_4.proj
I0308 15:23:29.039482 30878 net.cpp:84] Creating Layer Decoder4_4.proj
I0308 15:23:29.039487 30878 net.cpp:406] Decoder4_4.proj <- Decoder_wc5
I0308 15:23:29.039494 30878 net.cpp:380] Decoder4_4.proj -> Decoder4_4.proj
I0308 15:23:29.041745 30878 net.cpp:122] Setting up Decoder4_4.proj
I0308 15:23:29.041760 30878 net.cpp:129] Top shape: 1 19 32 64 (38912)
I0308 15:23:29.041776 30878 net.cpp:137] Memory required for data: 1108432896
I0308 15:23:29.041784 30878 layer_factory.hpp:77] Creating layer Decoder4_4.proj/relu
I0308 15:23:29.041790 30878 net.cpp:84] Creating Layer Decoder4_4.proj/relu
I0308 15:23:29.041795 30878 net.cpp:406] Decoder4_4.proj/relu <- Decoder4_4.proj
I0308 15:23:29.041800 30878 net.cpp:367] Decoder4_4.proj/relu -> Decoder4_4.proj (in-place)
I0308 15:23:29.042484 30878 net.cpp:122] Setting up Decoder4_4.proj/relu
I0308 15:23:29.042511 30878 net.cpp:129] Top shape: 1 19 32 64 (38912)
I0308 15:23:29.042515 30878 net.cpp:137] Memory required for data: 1108588544
I0308 15:23:29.042520 30878 layer_factory.hpp:77] Creating layer Decoder4_4.proj/up2
I0308 15:23:29.042531 30878 net.cpp:84] Creating Layer Decoder4_4.proj/up2
I0308 15:23:29.042536 30878 net.cpp:406] Decoder4_4.proj/up2 <- Decoder4_4.proj
I0308 15:23:29.042542 30878 net.cpp:380] Decoder4_4.proj/up2 -> Decoder4_4.proj/up2
I0308 15:23:29.076767 30878 net.cpp:122] Setting up Decoder4_4.proj/up2
I0308 15:23:29.076797 30878 net.cpp:129] Top shape: 1 19 64 128 (155648)
I0308 15:23:29.076802 30878 net.cpp:137] Memory required for data: 1109211136
I0308 15:23:29.076808 30878 layer_factory.hpp:77] Creating layer Decoder4_4.concat
I0308 15:23:29.076815 30878 net.cpp:84] Creating Layer Decoder4_4.concat
I0308 15:23:29.076819 30878 net.cpp:406] Decoder4_4.concat <- Decoder_wc4
I0308 15:23:29.076825 30878 net.cpp:406] Decoder4_4.concat <- Decoder4_4.proj/up2
I0308 15:23:29.076830 30878 net.cpp:380] Decoder4_4.concat -> Decoder4_4.concat
I0308 15:23:29.076885 30878 net.cpp:122] Setting up Decoder4_4.concat
I0308 15:23:29.076894 30878 net.cpp:129] Top shape: 1 38 64 128 (311296)
I0308 15:23:29.076896 30878 net.cpp:137] Memory required for data: 1110456320
I0308 15:23:29.076900 30878 layer_factory.hpp:77] Creating layer Decoder4_4.conv1
I0308 15:23:29.076907 30878 net.cpp:84] Creating Layer Decoder4_4.conv1
I0308 15:23:29.076912 30878 net.cpp:406] Decoder4_4.conv1 <- Decoder4_4.concat
I0308 15:23:29.076918 30878 net.cpp:380] Decoder4_4.conv1 -> Decoder4_4.conv1
I0308 15:23:29.079802 30878 net.cpp:122] Setting up Decoder4_4.conv1
I0308 15:23:29.079830 30878 net.cpp:129] Top shape: 1 19 64 128 (155648)
I0308 15:23:29.079834 30878 net.cpp:137] Memory required for data: 1111078912
I0308 15:23:29.079841 30878 layer_factory.hpp:77] Creating layer Decoder4_4.conv1/relu
I0308 15:23:29.079849 30878 net.cpp:84] Creating Layer Decoder4_4.conv1/relu
I0308 15:23:29.079854 30878 net.cpp:406] Decoder4_4.conv1/relu <- Decoder4_4.conv1
I0308 15:23:29.079860 30878 net.cpp:367] Decoder4_4.conv1/relu -> Decoder4_4.conv1 (in-place)
I0308 15:23:29.080560 30878 net.cpp:122] Setting up Decoder4_4.conv1/relu
I0308 15:23:29.080587 30878 net.cpp:129] Top shape: 1 19 64 128 (155648)
I0308 15:23:29.080591 30878 net.cpp:137] Memory required for data: 1111701504
I0308 15:23:29.080595 30878 layer_factory.hpp:77] Creating layer Decoder3_3.proj
I0308 15:23:29.080603 30878 net.cpp:84] Creating Layer Decoder3_3.proj
I0308 15:23:29.080618 30878 net.cpp:406] Decoder3_3.proj <- Decoder4_4.conv1
I0308 15:23:29.080626 30878 net.cpp:380] Decoder3_3.proj -> Decoder3_3.proj
I0308 15:23:29.083035 30878 net.cpp:122] Setting up Decoder3_3.proj
I0308 15:23:29.083068 30878 net.cpp:129] Top shape: 1 19 64 128 (155648)
I0308 15:23:29.083084 30878 net.cpp:137] Memory required for data: 1112324096
I0308 15:23:29.083092 30878 layer_factory.hpp:77] Creating layer Decoder3_3.proj/relu
I0308 15:23:29.083099 30878 net.cpp:84] Creating Layer Decoder3_3.proj/relu
I0308 15:23:29.083103 30878 net.cpp:406] Decoder3_3.proj/relu <- Decoder3_3.proj
I0308 15:23:29.083109 30878 net.cpp:367] Decoder3_3.proj/relu -> Decoder3_3.proj (in-place)
I0308 15:23:29.083633 30878 net.cpp:122] Setting up Decoder3_3.proj/relu
I0308 15:23:29.083659 30878 net.cpp:129] Top shape: 1 19 64 128 (155648)
I0308 15:23:29.083662 30878 net.cpp:137] Memory required for data: 1112946688
I0308 15:23:29.083667 30878 layer_factory.hpp:77] Creating layer Decoder3_3.proj/up2
I0308 15:23:29.083675 30878 net.cpp:84] Creating Layer Decoder3_3.proj/up2
I0308 15:23:29.083679 30878 net.cpp:406] Decoder3_3.proj/up2 <- Decoder3_3.proj
I0308 15:23:29.083686 30878 net.cpp:380] Decoder3_3.proj/up2 -> Decoder3_3.proj/up2
I0308 15:23:29.119572 30878 net.cpp:122] Setting up Decoder3_3.proj/up2
I0308 15:23:29.119601 30878 net.cpp:129] Top shape: 1 19 128 256 (622592)
I0308 15:23:29.119606 30878 net.cpp:137] Memory required for data: 1115437056
I0308 15:23:29.119613 30878 layer_factory.hpp:77] Creating layer Decoder3_3.concat
I0308 15:23:29.119621 30878 net.cpp:84] Creating Layer Decoder3_3.concat
I0308 15:23:29.119626 30878 net.cpp:406] Decoder3_3.concat <- Decoder_wc3
I0308 15:23:29.119630 30878 net.cpp:406] Decoder3_3.concat <- Decoder3_3.proj/up2
I0308 15:23:29.119637 30878 net.cpp:380] Decoder3_3.concat -> Decoder3_3.concat
I0308 15:23:29.119699 30878 net.cpp:122] Setting up Decoder3_3.concat
I0308 15:23:29.119706 30878 net.cpp:129] Top shape: 1 38 128 256 (1245184)
I0308 15:23:29.119709 30878 net.cpp:137] Memory required for data: 1120417792
I0308 15:23:29.119714 30878 layer_factory.hpp:77] Creating layer Decoder3_3.conv1
I0308 15:23:29.119722 30878 net.cpp:84] Creating Layer Decoder3_3.conv1
I0308 15:23:29.119726 30878 net.cpp:406] Decoder3_3.conv1 <- Decoder3_3.concat
I0308 15:23:29.119732 30878 net.cpp:380] Decoder3_3.conv1 -> Decoder3_3.conv1
I0308 15:23:29.122200 30878 net.cpp:122] Setting up Decoder3_3.conv1
I0308 15:23:29.122226 30878 net.cpp:129] Top shape: 1 19 128 256 (622592)
I0308 15:23:29.122231 30878 net.cpp:137] Memory required for data: 1122908160
I0308 15:23:29.122237 30878 layer_factory.hpp:77] Creating layer Decoder3_3.conv1/relu
I0308 15:23:29.122246 30878 net.cpp:84] Creating Layer Decoder3_3.conv1/relu
I0308 15:23:29.122251 30878 net.cpp:406] Decoder3_3.conv1/relu <- Decoder3_3.conv1
I0308 15:23:29.122256 30878 net.cpp:367] Decoder3_3.conv1/relu -> Decoder3_3.conv1 (in-place)
I0308 15:23:29.122972 30878 net.cpp:122] Setting up Decoder3_3.conv1/relu
I0308 15:23:29.122998 30878 net.cpp:129] Top shape: 1 19 128 256 (622592)
I0308 15:23:29.123003 30878 net.cpp:137] Memory required for data: 1125398528
I0308 15:23:29.123006 30878 layer_factory.hpp:77] Creating layer Decoder_score
I0308 15:23:29.123014 30878 net.cpp:84] Creating Layer Decoder_score
I0308 15:23:29.123019 30878 net.cpp:406] Decoder_score <- Decoder3_3.conv1
I0308 15:23:29.123026 30878 net.cpp:380] Decoder_score -> Decoder_score
I0308 15:23:29.125708 30878 net.cpp:122] Setting up Decoder_score
I0308 15:23:29.125736 30878 net.cpp:129] Top shape: 1 19 128 256 (622592)
I0308 15:23:29.125741 30878 net.cpp:137] Memory required for data: 1127888896
I0308 15:23:29.125747 30878 layer_factory.hpp:77] Creating layer Decoder_score.up8
I0308 15:23:29.125758 30878 net.cpp:84] Creating Layer Decoder_score.up8
I0308 15:23:29.125763 30878 net.cpp:406] Decoder_score.up8 <- Decoder_score
I0308 15:23:29.125771 30878 net.cpp:380] Decoder_score.up8 -> Decoder_score.up8
I0308 15:23:29.162432 30878 net.cpp:122] Setting up Decoder_score.up8
I0308 15:23:29.162472 30878 net.cpp:129] Top shape: 1 19 1024 2048 (39845888)
I0308 15:23:29.162477 30878 net.cpp:137] Memory required for data: 1287272448
I0308 15:23:29.162483 30878 net.cpp:200] Decoder_score.up8 does not need backward computation.
I0308 15:23:29.162492 30878 net.cpp:200] Decoder_score does not need backward computation.
I0308 15:23:29.162494 30878 net.cpp:200] Decoder3_3.conv1/relu does not need backward computation.
I0308 15:23:29.162498 30878 net.cpp:200] Decoder3_3.conv1 does not need backward computation.
…
