…
I0308 09:27:05.206208 16819 caffe.cpp:270] GPU device name: GeForce GTX 1080 Ti
I0308 09:27:05.545234 16819 net.cpp:51] Initializing net from parameters: 
state {
  phase: TEST
  level: 0
  stage: ""
}
layer {
  name: "data"
  type: "ImageData"
  top: "data"
  top: "label"
  include {
    phase: TEST
  }
  transform_param {
    scale: 0.008
    mirror: false
    crop_size: 224
    mean_value: 104
    mean_value: 117
    mean_value: 123
  }
  image_data_param {
    source: "/home/vip/dataset/imagenet/ILSVRC2012_val_256xN_list.txt"
    batch_size: 100
    shuffle: false
  }
}
layer {
  name: "conv1"
  type: "Convolution"
  bottom: "data"
  top: "conv1"
  convolution_param {
    num_output: 32
    bias_term: true
    pad: 1
    kernel_size: 3
    stride: 2
  }
}
layer {
  name: "conv1/relu"
  type: "ReLU"
  bottom: "conv1"
  top: "conv1"
}
layer {
  name: "conv2"
  type: "Convolution"
  bottom: "conv1"
  top: "conv2"
  convolution_param {
    num_output: 64
    bias_term: true
    pad: 1
    kernel_size: 3
    stride: 2
  }
}
layer {
  name: "conv2/relu"
  type: "ReLU"
  bottom: "conv2"
  top: "conv2"
}
layer {
  name: "res2.1.conv1"
  type: "Convolution"
  bottom: "conv2"
  top: "res2.1.conv1"
  convolution_param {
    num_output: 64
    bias_term: true
    pad: 1
    kernel_size: 3
    stride: 2
  }
}
layer {
  name: "res2.1.conv1/relu"
  type: "ReLU"
  bottom: "res2.1.conv1"
  top: "res2.1.conv1"
}
layer {
  name: "res2.1.conv2"
  type: "Convolution"
  bottom: "res2.1.conv1"
  top: "res2.1.conv2"
  convolution_param {
    num_output: 64
    bias_term: true
    pad: 1
    kernel_size: 3
    stride: 1
  }
}
layer {
  name: "res2.1.skipConv"
  type: "Convolution"
  bottom: "conv2"
  top: "res2.1.skipConv"
  convolution_param {
    num_output: 64
    bias_term: true
    pad: 0
    kernel_size: 1
    stride: 2
  }
}
layer {
  name: "res2.1.sum"
  type: "Eltwise"
  bottom: "res2.1.conv2"
  bottom: "res2.1.skipConv"
  top: "res2.1.sum"
  eltwise_param {
    operation: SUM
  }
}
layer {
  name: "res2.1.relu"
  type: "ReLU"
  bottom: "res2.1.sum"
  top: "res2.1.sum"
}
layer {
  name: "res2.2.conv1"
  type: "Convolution"
  bottom: "res2.1.sum"
  top: "res2.2.conv1"
  convolution_param {
    num_output: 64
    bias_term: true
    pad: 1
    kernel_size: 3
    stride: 1
  }
}
layer {
  name: "res2.2.conv1/relu"
  type: "ReLU"
  bottom: "res2.2.conv1"
  top: "res2.2.conv1"
}
layer {
  name: "res2.2.conv2"
  type: "Convolution"
  bottom: "res2.2.conv1"
  top: "res2.2.conv2"
  convolution_param {
    num_output: 64
    bias_term: true
    pad: 1
    kernel_size: 3
    stride: 1
  }
}
layer {
  name: "res2.2.sum"
  type: "Eltwise"
  bottom: "res2.2.conv2"
  bottom: "res2.1.sum"
  top: "res2.2.sum"
  eltwise_param {
    operation: SUM
  }
}
layer {
  name: "res2.2.relu"
  type: "ReLU"
  bottom: "res2.2.sum"
  top: "res2.2.sum"
}
layer {
  name: "res2.3.conv1"
  type: "Convolution"
  bottom: "res2.2.sum"
  top: "res2.3.conv1"
  convolution_param {
    num_output: 64
    bias_term: true
    pad: 1
    kernel_size: 3
    stride: 1
  }
}
layer {
  name: "res2.3.conv1/relu"
  type: "ReLU"
  bottom: "res2.3.conv1"
  top: "res2.3.conv1"
}
layer {
  name: "res2.3.conv2"
  type: "Convolution"
  bottom: "res2.3.conv1"
  top: "res2.3.conv2"
  convolution_param {
    num_output: 64
    bias_term: true
    pad: 1
    kernel_size: 3
    stride: 1
  }
}
layer {
  name: "res2.3.sum"
  type: "Eltwise"
  bottom: "res2.3.conv2"
  bottom: "res2.2.sum"
  top: "res2.3.sum"
  eltwise_param {
    operation: SUM
  }
}
layer {
  name: "res2.3.relu"
  type: "ReLU"
  bottom: "res2.3.sum"
  top: "res2.3.sum"
}
layer {
  name: "res3.1.conv1"
  type: "Convolution"
  bottom: "res2.3.sum"
  top: "res3.1.conv1"
  convolution_param {
    num_output: 128
    bias_term: true
    pad: 1
    kernel_size: 3
    stride: 2
  }
}
layer {
  name: "res3.1.conv1/relu"
  type: "ReLU"
  bottom: "res3.1.conv1"
  top: "res3.1.conv1"
}
layer {
  name: "res3.1.conv2"
  type: "Convolution"
  bottom: "res3.1.conv1"
  top: "res3.1.conv2"
  convolution_param {
    num_output: 128
    bias_term: true
    pad: 1
    kernel_size: 3
    stride: 1
  }
}
layer {
  name: "res3.1.skipConv"
  type: "Convolution"
  bottom: "res2.3.sum"
  top: "res3.1.skipConv"
  convolution_param {
    num_output: 128
    bias_term: true
    pad: 0
    kernel_size: 1
    stride: 2
  }
}
layer {
  name: "res3.1.sum"
  type: "Eltwise"
  bottom: "res3.1.conv2"
  bottom: "res3.1.skipConv"
  top: "res3.1.sum"
  eltwise_param {
    operation: SUM
  }
}
layer {
  name: "res3.1.relu"
  type: "ReLU"
  bottom: "res3.1.sum"
  top: "res3.1.sum"
}
layer {
  name: "res3.2.conv1"
  type: "Convolution"
  bottom: "res3.1.sum"
  top: "res3.2.conv1"
  convolution_param {
    num_output: 128
    bias_term: true
    pad: 1
    kernel_size: 3
    stride: 1
  }
}
layer {
  name: "res3.2.conv1/relu"
  type: "ReLU"
  bottom: "res3.2.conv1"
  top: "res3.2.conv1"
}
layer {
  name: "res3.2.conv2"
  type: "Convolution"
  bottom: "res3.2.conv1"
  top: "res3.2.conv2"
  convolution_param {
    num_output: 128
    bias_term: true
    pad: 1
    kernel_size: 3
    stride: 1
  }
}
layer {
  name: "res3.2.sum"
  type: "Eltwise"
  bottom: "res3.2.conv2"
  bottom: "res3.1.sum"
  top: "res3.2.sum"
  eltwise_param {
    operation: SUM
  }
}
layer {
  name: "res3.2.relu"
  type: "ReLU"
  bottom: "res3.2.sum"
  top: "res3.2.sum"
}
layer {
  name: "res3.3.conv1"
  type: "Convolution"
  bottom: "res3.2.sum"
  top: "res3.3.conv1"
  convolution_param {
    num_output: 128
    bias_term: true
    pad: 1
    kernel_size: 3
    stride: 1
  }
}
layer {
  name: "res3.3.conv1/relu"
  type: "ReLU"
  bottom: "res3.3.conv1"
  top: "res3.3.conv1"
}
layer {
  name: "res3.3.conv2"
  type: "Convolution"
  bottom: "res3.3.conv1"
  top: "res3.3.conv2"
  convolution_param {
    num_output: 128
    bias_term: true
    pad: 1
    kernel_size: 3
    stride: 1
  }
}
layer {
  name: "res3.3.sum"
  type: "Eltwise"
  bottom: "res3.3.conv2"
  bottom: "res3.2.sum"
  top: "res3.3.sum"
  eltwise_param {
    operation: SUM
  }
}
layer {
  name: "res3.3.relu"
  type: "ReLU"
  bottom: "res3.3.sum"
  top: "res3.3.sum"
}
layer {
  name: "res4.1.conv1"
  type: "Convolution"
  bottom: "res3.3.sum"
  top: "res4.1.conv1"
  convolution_param {
    num_output: 256
    bias_term: true
    pad: 1
    kernel_size: 3
    stride: 2
  }
}
layer {
  name: "res4.1.conv1/relu"
  type: "ReLU"
  bottom: "res4.1.conv1"
  top: "res4.1.conv1"
}
layer {
  name: "res4.1.conv2"
  type: "Convolution"
  bottom: "res4.1.conv1"
  top: "res4.1.conv2"
  convolution_param {
    num_output: 256
    bias_term: true
    pad: 1
    kernel_size: 3
    stride: 1
  }
}
layer {
  name: "res4.1.skipConv"
  type: "Convolution"
  bottom: "res3.3.sum"
  top: "res4.1.skipConv"
  convolution_param {
    num_output: 256
    bias_term: true
    pad: 0
    kernel_size: 1
    stride: 2
  }
}
layer {
  name: "res4.1.sum"
  type: "Eltwise"
  bottom: "res4.1.conv2"
  bottom: "res4.1.skipConv"
  top: "res4.1.sum"
  eltwise_param {
    operation: SUM
  }
}
layer {
  name: "res4.1.relu"
  type: "ReLU"
  bottom: "res4.1.sum"
  top: "res4.1.sum"
}
layer {
  name: "res4.2.conv1"
  type: "Convolution"
  bottom: "res4.1.sum"
  top: "res4.2.conv1"
  convolution_param {
    num_output: 256
    bias_term: true
    pad: 1
    kernel_size: 3
    stride: 1
  }
}
layer {
  name: "res4.2.conv1/relu"
  type: "ReLU"
  bottom: "res4.2.conv1"
  top: "res4.2.conv1"
}
layer {
  name: "res4.2.conv2"
  type: "Convolution"
  bottom: "res4.2.conv1"
  top: "res4.2.conv2"
  convolution_param {
    num_output: 256
    bias_term: true
    pad: 1
    kernel_size: 3
    stride: 1
  }
}
layer {
  name: "res4.2.sum"
  type: "Eltwise"
  bottom: "res4.2.conv2"
  bottom: "res4.1.sum"
  top: "res4.2.sum"
  eltwise_param {
    operation: SUM
  }
}
layer {
  name: "res4.2.relu"
  type: "ReLU"
  bottom: "res4.2.sum"
  top: "res4.2.sum"
}
layer {
  name: "res4.3.conv1"
  type: "Convolution"
  bottom: "res4.2.sum"
  top: "res4.3.conv1"
  convolution_param {
    num_output: 256
    bias_term: true
    pad: 1
    kernel_size: 3
    stride: 1
  }
}
layer {
  name: "res4.3.conv1/relu"
  type: "ReLU"
  bottom: "res4.3.conv1"
  top: "res4.3.conv1"
}
layer {
  name: "res4.3.conv2"
  type: "Convolution"
  bottom: "res4.3.conv1"
  top: "res4.3.conv2"
  convolution_param {
    num_output: 256
    bias_term: true
    pad: 1
    kernel_size: 3
    stride: 1
  }
}
layer {
  name: "res4.3.sum"
  type: "Eltwise"
  bottom: "res4.3.conv2"
  bottom: "res4.2.sum"
  top: "res4.3.sum"
  eltwise_param {
    operation: SUM
  }
}
layer {
  name: "res4.3.relu"
  type: "ReLU"
  bottom: "res4.3.sum"
  top: "res4.3.sum"
}
layer {
  name: "res4.4.conv1"
  type: "Convolution"
  bottom: "res4.3.sum"
  top: "res4.4.conv1"
  convolution_param {
    num_output: 512
    bias_term: true
    pad: 1
    kernel_size: 3
    stride: 1
  }
}
layer {
  name: "res4.4.conv1/relu"
  type: "ReLU"
  bottom: "res4.4.conv1"
  top: "res4.4.conv1"
}
layer {
  name: "res4.4.conv2"
  type: "Convolution"
  bottom: "res4.4.conv1"
  top: "res4.4.conv2"
  convolution_param {
    num_output: 512
    bias_term: true
    pad: 1
    kernel_size: 3
    stride: 1
  }
}
layer {
  name: "res4.4.skipConv"
  type: "Convolution"
  bottom: "res4.3.sum"
  top: "res4.4.skipConv"
  convolution_param {
    num_output: 512
    bias_term: true
    pad: 0
    kernel_size: 1
    stride: 1
  }
}
layer {
  name: "res4.4.sum"
  type: "Eltwise"
  bottom: "res4.4.conv2"
  bottom: "res4.4.skipConv"
  top: "res4.4.sum"
  eltwise_param {
    operation: SUM
  }
}
layer {
  name: "res4.4.relu"
  type: "ReLU"
  bottom: "res4.4.sum"
  top: "res4.4.sum"
}
layer {
  name: "pool5"
  type: "Pooling"
  bottom: "res4.4.sum"
  top: "pool5"
  pooling_param {
    pool: AVE
    kernel_size: 7
    stride: 1
  }
}
layer {
  name: "fc"
  type: "InnerProduct"
  bottom: "pool5"
  top: "fc"
  inner_product_param {
    num_output: 1000
    bias_term: true
  }
}
layer {
  name: "accuracy/top-1"
  type: "Accuracy"
  bottom: "fc"
  bottom: "label"
  top: "accuracy/top-1"
  accuracy_param {
    top_k: 1
  }
}
layer {
  name: "accuracy/top-5"
  type: "Accuracy"
  bottom: "fc"
  bottom: "label"
  top: "accuracy/top-5"
  accuracy_param {
    top_k: 5
  }
}
I0308 09:27:05.545636 16819 layer_factory.hpp:77] Creating layer data
I0308 09:27:05.545670 16819 net.cpp:84] Creating Layer data
I0308 09:27:05.545678 16819 net.cpp:380] data -> data
I0308 09:27:05.545703 16819 net.cpp:380] data -> label
I0308 09:27:05.545742 16819 image_data_layer.cpp:38] Opening file /home/vip/dataset/imagenet/ILSVRC2012_val_256xN_list.txt
I0308 09:27:05.571746 16819 image_data_layer.cpp:63] A total of 50000 images.
I0308 09:27:05.586614 16819 image_data_layer.cpp:90] output data size: 100,3,224,224
I0308 09:27:05.705022 16819 net.cpp:122] Setting up data
I0308 09:27:05.705065 16819 net.cpp:129] Top shape: 100 3 224 224 (15052800)
I0308 09:27:05.705072 16819 net.cpp:129] Top shape: 100 (100)
I0308 09:27:05.705077 16819 net.cpp:137] Memory required for data: 60211600
I0308 09:27:05.705086 16819 layer_factory.hpp:77] Creating layer label_data_1_split
I0308 09:27:05.705102 16819 net.cpp:84] Creating Layer label_data_1_split
I0308 09:27:05.705109 16819 net.cpp:406] label_data_1_split <- label
I0308 09:27:05.705126 16819 net.cpp:380] label_data_1_split -> label_data_1_split_0
I0308 09:27:05.705138 16819 net.cpp:380] label_data_1_split -> label_data_1_split_1
I0308 09:27:05.705282 16819 net.cpp:122] Setting up label_data_1_split
I0308 09:27:05.705294 16819 net.cpp:129] Top shape: 100 (100)
I0308 09:27:05.705301 16819 net.cpp:129] Top shape: 100 (100)
I0308 09:27:05.705304 16819 net.cpp:137] Memory required for data: 60212400
I0308 09:27:05.705309 16819 layer_factory.hpp:77] Creating layer conv1
I0308 09:27:05.705327 16819 net.cpp:84] Creating Layer conv1
I0308 09:27:05.705335 16819 net.cpp:406] conv1 <- data
I0308 09:27:05.705343 16819 net.cpp:380] conv1 -> conv1
I0308 09:27:06.333526 16819 net.cpp:122] Setting up conv1
I0308 09:27:06.333570 16819 net.cpp:129] Top shape: 100 32 112 112 (40140800)
I0308 09:27:06.333575 16819 net.cpp:137] Memory required for data: 220775600
I0308 09:27:06.333626 16819 layer_factory.hpp:77] Creating layer conv1/relu
I0308 09:27:06.333652 16819 net.cpp:84] Creating Layer conv1/relu
I0308 09:27:06.333685 16819 net.cpp:406] conv1/relu <- conv1
I0308 09:27:06.333694 16819 net.cpp:367] conv1/relu -> conv1 (in-place)
I0308 09:27:06.334183 16819 net.cpp:122] Setting up conv1/relu
I0308 09:27:06.334197 16819 net.cpp:129] Top shape: 100 32 112 112 (40140800)
I0308 09:27:06.334218 16819 net.cpp:137] Memory required for data: 381338800
I0308 09:27:06.334223 16819 layer_factory.hpp:77] Creating layer conv2
I0308 09:27:06.334234 16819 net.cpp:84] Creating Layer conv2
I0308 09:27:06.334239 16819 net.cpp:406] conv2 <- conv1
I0308 09:27:06.334245 16819 net.cpp:380] conv2 -> conv2
I0308 09:27:06.337774 16819 net.cpp:122] Setting up conv2
I0308 09:27:06.337790 16819 net.cpp:129] Top shape: 100 64 56 56 (20070400)
I0308 09:27:06.337810 16819 net.cpp:137] Memory required for data: 461620400
I0308 09:27:06.337821 16819 layer_factory.hpp:77] Creating layer conv2/relu
I0308 09:27:06.337828 16819 net.cpp:84] Creating Layer conv2/relu
I0308 09:27:06.337832 16819 net.cpp:406] conv2/relu <- conv2
I0308 09:27:06.337838 16819 net.cpp:367] conv2/relu -> conv2 (in-place)
I0308 09:27:06.338336 16819 net.cpp:122] Setting up conv2/relu
I0308 09:27:06.338348 16819 net.cpp:129] Top shape: 100 64 56 56 (20070400)
I0308 09:27:06.338369 16819 net.cpp:137] Memory required for data: 541902000
I0308 09:27:06.338372 16819 layer_factory.hpp:77] Creating layer conv2_conv2/relu_0_split
I0308 09:27:06.338379 16819 net.cpp:84] Creating Layer conv2_conv2/relu_0_split
I0308 09:27:06.338397 16819 net.cpp:406] conv2_conv2/relu_0_split <- conv2
I0308 09:27:06.338402 16819 net.cpp:380] conv2_conv2/relu_0_split -> conv2_conv2/relu_0_split_0
I0308 09:27:06.338410 16819 net.cpp:380] conv2_conv2/relu_0_split -> conv2_conv2/relu_0_split_1
I0308 09:27:06.338501 16819 net.cpp:122] Setting up conv2_conv2/relu_0_split
I0308 09:27:06.338511 16819 net.cpp:129] Top shape: 100 64 56 56 (20070400)
I0308 09:27:06.338516 16819 net.cpp:129] Top shape: 100 64 56 56 (20070400)
I0308 09:27:06.338521 16819 net.cpp:137] Memory required for data: 702465200
I0308 09:27:06.338524 16819 layer_factory.hpp:77] Creating layer res2.1.conv1
I0308 09:27:06.338551 16819 net.cpp:84] Creating Layer res2.1.conv1
I0308 09:27:06.338558 16819 net.cpp:406] res2.1.conv1 <- conv2_conv2/relu_0_split_0
I0308 09:27:06.338565 16819 net.cpp:380] res2.1.conv1 -> res2.1.conv1
I0308 09:27:06.340389 16819 net.cpp:122] Setting up res2.1.conv1
I0308 09:27:06.340404 16819 net.cpp:129] Top shape: 100 64 28 28 (5017600)
I0308 09:27:06.340425 16819 net.cpp:137] Memory required for data: 722535600
I0308 09:27:06.340435 16819 layer_factory.hpp:77] Creating layer res2.1.conv1/relu
I0308 09:27:06.340445 16819 net.cpp:84] Creating Layer res2.1.conv1/relu
I0308 09:27:06.340448 16819 net.cpp:406] res2.1.conv1/relu <- res2.1.conv1
I0308 09:27:06.340454 16819 net.cpp:367] res2.1.conv1/relu -> res2.1.conv1 (in-place)
I0308 09:27:06.341334 16819 net.cpp:122] Setting up res2.1.conv1/relu
I0308 09:27:06.341348 16819 net.cpp:129] Top shape: 100 64 28 28 (5017600)
I0308 09:27:06.341369 16819 net.cpp:137] Memory required for data: 742606000
I0308 09:27:06.341373 16819 layer_factory.hpp:77] Creating layer res2.1.conv2
I0308 09:27:06.341382 16819 net.cpp:84] Creating Layer res2.1.conv2
I0308 09:27:06.341385 16819 net.cpp:406] res2.1.conv2 <- res2.1.conv1
I0308 09:27:06.341392 16819 net.cpp:380] res2.1.conv2 -> res2.1.conv2
I0308 09:27:06.343588 16819 net.cpp:122] Setting up res2.1.conv2
I0308 09:27:06.343603 16819 net.cpp:129] Top shape: 100 64 28 28 (5017600)
I0308 09:27:06.343623 16819 net.cpp:137] Memory required for data: 762676400
I0308 09:27:06.343631 16819 layer_factory.hpp:77] Creating layer res2.1.skipConv
I0308 09:27:06.343641 16819 net.cpp:84] Creating Layer res2.1.skipConv
I0308 09:27:06.343644 16819 net.cpp:406] res2.1.skipConv <- conv2_conv2/relu_0_split_1
I0308 09:27:06.343650 16819 net.cpp:380] res2.1.skipConv -> res2.1.skipConv
I0308 09:27:06.345537 16819 net.cpp:122] Setting up res2.1.skipConv
I0308 09:27:06.345553 16819 net.cpp:129] Top shape: 100 64 28 28 (5017600)
I0308 09:27:06.345585 16819 net.cpp:137] Memory required for data: 782746800
I0308 09:27:06.345597 16819 layer_factory.hpp:77] Creating layer res2.1.sum
I0308 09:27:06.345623 16819 net.cpp:84] Creating Layer res2.1.sum
I0308 09:27:06.345626 16819 net.cpp:406] res2.1.sum <- res2.1.conv2
I0308 09:27:06.345633 16819 net.cpp:406] res2.1.sum <- res2.1.skipConv
I0308 09:27:06.345638 16819 net.cpp:380] res2.1.sum -> res2.1.sum
I0308 09:27:06.345707 16819 net.cpp:122] Setting up res2.1.sum
I0308 09:27:06.345718 16819 net.cpp:129] Top shape: 100 64 28 28 (5017600)
I0308 09:27:06.345722 16819 net.cpp:137] Memory required for data: 802817200
I0308 09:27:06.345726 16819 layer_factory.hpp:77] Creating layer res2.1.relu
I0308 09:27:06.345733 16819 net.cpp:84] Creating Layer res2.1.relu
I0308 09:27:06.345738 16819 net.cpp:406] res2.1.relu <- res2.1.sum
I0308 09:27:06.345743 16819 net.cpp:367] res2.1.relu -> res2.1.sum (in-place)
I0308 09:27:06.346283 16819 net.cpp:122] Setting up res2.1.relu
I0308 09:27:06.346303 16819 net.cpp:129] Top shape: 100 64 28 28 (5017600)
I0308 09:27:06.346309 16819 net.cpp:137] Memory required for data: 822887600
I0308 09:27:06.346316 16819 layer_factory.hpp:77] Creating layer res2.1.sum_res2.1.relu_0_split
I0308 09:27:06.346343 16819 net.cpp:84] Creating Layer res2.1.sum_res2.1.relu_0_split
I0308 09:27:06.346349 16819 net.cpp:406] res2.1.sum_res2.1.relu_0_split <- res2.1.sum
I0308 09:27:06.346375 16819 net.cpp:380] res2.1.sum_res2.1.relu_0_split -> res2.1.sum_res2.1.relu_0_split_0
I0308 09:27:06.346403 16819 net.cpp:380] res2.1.sum_res2.1.relu_0_split -> res2.1.sum_res2.1.relu_0_split_1
I0308 09:27:06.346460 16819 net.cpp:122] Setting up res2.1.sum_res2.1.relu_0_split
I0308 09:27:06.346472 16819 net.cpp:129] Top shape: 100 64 28 28 (5017600)
I0308 09:27:06.346477 16819 net.cpp:129] Top shape: 100 64 28 28 (5017600)
I0308 09:27:06.346482 16819 net.cpp:137] Memory required for data: 863028400
I0308 09:27:06.346487 16819 layer_factory.hpp:77] Creating layer res2.2.conv1
I0308 09:27:06.346495 16819 net.cpp:84] Creating Layer res2.2.conv1
I0308 09:27:06.346500 16819 net.cpp:406] res2.2.conv1 <- res2.1.sum_res2.1.relu_0_split_0
I0308 09:27:06.346508 16819 net.cpp:380] res2.2.conv1 -> res2.2.conv1
I0308 09:27:06.348454 16819 net.cpp:122] Setting up res2.2.conv1
I0308 09:27:06.348471 16819 net.cpp:129] Top shape: 100 64 28 28 (5017600)
I0308 09:27:06.348492 16819 net.cpp:137] Memory required for data: 883098800
I0308 09:27:06.348500 16819 layer_factory.hpp:77] Creating layer res2.2.conv1/relu
I0308 09:27:06.348507 16819 net.cpp:84] Creating Layer res2.2.conv1/relu
I0308 09:27:06.348512 16819 net.cpp:406] res2.2.conv1/relu <- res2.2.conv1
I0308 09:27:06.348518 16819 net.cpp:367] res2.2.conv1/relu -> res2.2.conv1 (in-place)
I0308 09:27:06.349021 16819 net.cpp:122] Setting up res2.2.conv1/relu
I0308 09:27:06.349032 16819 net.cpp:129] Top shape: 100 64 28 28 (5017600)
I0308 09:27:06.349052 16819 net.cpp:137] Memory required for data: 903169200
I0308 09:27:06.349056 16819 layer_factory.hpp:77] Creating layer res2.2.conv2
I0308 09:27:06.349067 16819 net.cpp:84] Creating Layer res2.2.conv2
I0308 09:27:06.349071 16819 net.cpp:406] res2.2.conv2 <- res2.2.conv1
I0308 09:27:06.349078 16819 net.cpp:380] res2.2.conv2 -> res2.2.conv2
I0308 09:27:06.351455 16819 net.cpp:122] Setting up res2.2.conv2
I0308 09:27:06.351470 16819 net.cpp:129] Top shape: 100 64 28 28 (5017600)
I0308 09:27:06.351491 16819 net.cpp:137] Memory required for data: 923239600
I0308 09:27:06.351500 16819 layer_factory.hpp:77] Creating layer res2.2.sum
I0308 09:27:06.351507 16819 net.cpp:84] Creating Layer res2.2.sum
I0308 09:27:06.351512 16819 net.cpp:406] res2.2.sum <- res2.2.conv2
I0308 09:27:06.351517 16819 net.cpp:406] res2.2.sum <- res2.1.sum_res2.1.relu_0_split_1
I0308 09:27:06.351541 16819 net.cpp:380] res2.2.sum -> res2.2.sum
I0308 09:27:06.351610 16819 net.cpp:122] Setting up res2.2.sum
I0308 09:27:06.351620 16819 net.cpp:129] Top shape: 100 64 28 28 (5017600)
I0308 09:27:06.351624 16819 net.cpp:137] Memory required for data: 943310000
I0308 09:27:06.351629 16819 layer_factory.hpp:77] Creating layer res2.2.relu
I0308 09:27:06.351649 16819 net.cpp:84] Creating Layer res2.2.relu
I0308 09:27:06.351655 16819 net.cpp:406] res2.2.relu <- res2.2.sum
I0308 09:27:06.351660 16819 net.cpp:367] res2.2.relu -> res2.2.sum (in-place)
I0308 09:27:06.352473 16819 net.cpp:122] Setting up res2.2.relu
I0308 09:27:06.352488 16819 net.cpp:129] Top shape: 100 64 28 28 (5017600)
I0308 09:27:06.352507 16819 net.cpp:137] Memory required for data: 963380400
I0308 09:27:06.352511 16819 layer_factory.hpp:77] Creating layer res2.2.sum_res2.2.relu_0_split
I0308 09:27:06.352519 16819 net.cpp:84] Creating Layer res2.2.sum_res2.2.relu_0_split
I0308 09:27:06.352524 16819 net.cpp:406] res2.2.sum_res2.2.relu_0_split <- res2.2.sum
I0308 09:27:06.352530 16819 net.cpp:380] res2.2.sum_res2.2.relu_0_split -> res2.2.sum_res2.2.relu_0_split_0
I0308 09:27:06.352537 16819 net.cpp:380] res2.2.sum_res2.2.relu_0_split -> res2.2.sum_res2.2.relu_0_split_1
I0308 09:27:06.352618 16819 net.cpp:122] Setting up res2.2.sum_res2.2.relu_0_split
I0308 09:27:06.352627 16819 net.cpp:129] Top shape: 100 64 28 28 (5017600)
I0308 09:27:06.352633 16819 net.cpp:129] Top shape: 100 64 28 28 (5017600)
I0308 09:27:06.352636 16819 net.cpp:137] Memory required for data: 1003521200
I0308 09:27:06.352641 16819 layer_factory.hpp:77] Creating layer res2.3.conv1
I0308 09:27:06.352650 16819 net.cpp:84] Creating Layer res2.3.conv1
I0308 09:27:06.352655 16819 net.cpp:406] res2.3.conv1 <- res2.2.sum_res2.2.relu_0_split_0
I0308 09:27:06.352661 16819 net.cpp:380] res2.3.conv1 -> res2.3.conv1
I0308 09:27:06.354614 16819 net.cpp:122] Setting up res2.3.conv1
I0308 09:27:06.354630 16819 net.cpp:129] Top shape: 100 64 28 28 (5017600)
I0308 09:27:06.354650 16819 net.cpp:137] Memory required for data: 1023591600
I0308 09:27:06.354658 16819 layer_factory.hpp:77] Creating layer res2.3.conv1/relu
I0308 09:27:06.354666 16819 net.cpp:84] Creating Layer res2.3.conv1/relu
I0308 09:27:06.354671 16819 net.cpp:406] res2.3.conv1/relu <- res2.3.conv1
I0308 09:27:06.354676 16819 net.cpp:367] res2.3.conv1/relu -> res2.3.conv1 (in-place)
I0308 09:27:06.355193 16819 net.cpp:122] Setting up res2.3.conv1/relu
I0308 09:27:06.355206 16819 net.cpp:129] Top shape: 100 64 28 28 (5017600)
I0308 09:27:06.355226 16819 net.cpp:137] Memory required for data: 1043662000
I0308 09:27:06.355228 16819 layer_factory.hpp:77] Creating layer res2.3.conv2
I0308 09:27:06.355237 16819 net.cpp:84] Creating Layer res2.3.conv2
I0308 09:27:06.355242 16819 net.cpp:406] res2.3.conv2 <- res2.3.conv1
I0308 09:27:06.355247 16819 net.cpp:380] res2.3.conv2 -> res2.3.conv2
I0308 09:27:06.357412 16819 net.cpp:122] Setting up res2.3.conv2
I0308 09:27:06.357427 16819 net.cpp:129] Top shape: 100 64 28 28 (5017600)
I0308 09:27:06.357448 16819 net.cpp:137] Memory required for data: 1063732400
I0308 09:27:06.357460 16819 layer_factory.hpp:77] Creating layer res2.3.sum
I0308 09:27:06.357466 16819 net.cpp:84] Creating Layer res2.3.sum
I0308 09:27:06.357470 16819 net.cpp:406] res2.3.sum <- res2.3.conv2
I0308 09:27:06.357493 16819 net.cpp:406] res2.3.sum <- res2.2.sum_res2.2.relu_0_split_1
I0308 09:27:06.357499 16819 net.cpp:380] res2.3.sum -> res2.3.sum
I0308 09:27:06.357565 16819 net.cpp:122] Setting up res2.3.sum
I0308 09:27:06.357575 16819 net.cpp:129] Top shape: 100 64 28 28 (5017600)
I0308 09:27:06.357580 16819 net.cpp:137] Memory required for data: 1083802800
I0308 09:27:06.357584 16819 layer_factory.hpp:77] Creating layer res2.3.relu
I0308 09:27:06.357590 16819 net.cpp:84] Creating Layer res2.3.relu
I0308 09:27:06.357594 16819 net.cpp:406] res2.3.relu <- res2.3.sum
I0308 09:27:06.357601 16819 net.cpp:367] res2.3.relu -> res2.3.sum (in-place)
I0308 09:27:06.358093 16819 net.cpp:122] Setting up res2.3.relu
I0308 09:27:06.358105 16819 net.cpp:129] Top shape: 100 64 28 28 (5017600)
I0308 09:27:06.358109 16819 net.cpp:137] Memory required for data: 1103873200
I0308 09:27:06.358114 16819 layer_factory.hpp:77] Creating layer res2.3.sum_res2.3.relu_0_split
I0308 09:27:06.358120 16819 net.cpp:84] Creating Layer res2.3.sum_res2.3.relu_0_split
I0308 09:27:06.358155 16819 net.cpp:406] res2.3.sum_res2.3.relu_0_split <- res2.3.sum
I0308 09:27:06.358162 16819 net.cpp:380] res2.3.sum_res2.3.relu_0_split -> res2.3.sum_res2.3.relu_0_split_0
I0308 09:27:06.358170 16819 net.cpp:380] res2.3.sum_res2.3.relu_0_split -> res2.3.sum_res2.3.relu_0_split_1
I0308 09:27:06.358217 16819 net.cpp:122] Setting up res2.3.sum_res2.3.relu_0_split
I0308 09:27:06.358225 16819 net.cpp:129] Top shape: 100 64 28 28 (5017600)
I0308 09:27:06.358230 16819 net.cpp:129] Top shape: 100 64 28 28 (5017600)
I0308 09:27:06.358234 16819 net.cpp:137] Memory required for data: 1144014000
I0308 09:27:06.358238 16819 layer_factory.hpp:77] Creating layer res3.1.conv1
I0308 09:27:06.358247 16819 net.cpp:84] Creating Layer res3.1.conv1
I0308 09:27:06.358250 16819 net.cpp:406] res3.1.conv1 <- res2.3.sum_res2.3.relu_0_split_0
I0308 09:27:06.358258 16819 net.cpp:380] res3.1.conv1 -> res3.1.conv1
I0308 09:27:06.361102 16819 net.cpp:122] Setting up res3.1.conv1
I0308 09:27:06.361119 16819 net.cpp:129] Top shape: 100 128 14 14 (2508800)
I0308 09:27:06.361140 16819 net.cpp:137] Memory required for data: 1154049200
I0308 09:27:06.361147 16819 layer_factory.hpp:77] Creating layer res3.1.conv1/relu
I0308 09:27:06.361155 16819 net.cpp:84] Creating Layer res3.1.conv1/relu
I0308 09:27:06.361160 16819 net.cpp:406] res3.1.conv1/relu <- res3.1.conv1
I0308 09:27:06.361166 16819 net.cpp:367] res3.1.conv1/relu -> res3.1.conv1 (in-place)
I0308 09:27:06.361693 16819 net.cpp:122] Setting up res3.1.conv1/relu
I0308 09:27:06.361706 16819 net.cpp:129] Top shape: 100 128 14 14 (2508800)
I0308 09:27:06.361726 16819 net.cpp:137] Memory required for data: 1164084400
I0308 09:27:06.361730 16819 layer_factory.hpp:77] Creating layer res3.1.conv2
I0308 09:27:06.361739 16819 net.cpp:84] Creating Layer res3.1.conv2
I0308 09:27:06.361744 16819 net.cpp:406] res3.1.conv2 <- res3.1.conv1
I0308 09:27:06.361750 16819 net.cpp:380] res3.1.conv2 -> res3.1.conv2
I0308 09:27:06.364289 16819 net.cpp:122] Setting up res3.1.conv2
I0308 09:27:06.364320 16819 net.cpp:129] Top shape: 100 128 14 14 (2508800)
I0308 09:27:06.364326 16819 net.cpp:137] Memory required for data: 1174119600
I0308 09:27:06.364333 16819 layer_factory.hpp:77] Creating layer res3.1.skipConv
I0308 09:27:06.364342 16819 net.cpp:84] Creating Layer res3.1.skipConv
I0308 09:27:06.364348 16819 net.cpp:406] res3.1.skipConv <- res2.3.sum_res2.3.relu_0_split_1
I0308 09:27:06.364374 16819 net.cpp:380] res3.1.skipConv -> res3.1.skipConv
I0308 09:27:06.366792 16819 net.cpp:122] Setting up res3.1.skipConv
I0308 09:27:06.366823 16819 net.cpp:129] Top shape: 100 128 14 14 (2508800)
I0308 09:27:06.366828 16819 net.cpp:137] Memory required for data: 1184154800
I0308 09:27:06.366835 16819 layer_factory.hpp:77] Creating layer res3.1.sum
I0308 09:27:06.366844 16819 net.cpp:84] Creating Layer res3.1.sum
I0308 09:27:06.366848 16819 net.cpp:406] res3.1.sum <- res3.1.conv2
I0308 09:27:06.366854 16819 net.cpp:406] res3.1.sum <- res3.1.skipConv
I0308 09:27:06.366878 16819 net.cpp:380] res3.1.sum -> res3.1.sum
I0308 09:27:06.366942 16819 net.cpp:122] Setting up res3.1.sum
I0308 09:27:06.366952 16819 net.cpp:129] Top shape: 100 128 14 14 (2508800)
I0308 09:27:06.366957 16819 net.cpp:137] Memory required for data: 1194190000
I0308 09:27:06.366961 16819 layer_factory.hpp:77] Creating layer res3.1.relu
I0308 09:27:06.366967 16819 net.cpp:84] Creating Layer res3.1.relu
I0308 09:27:06.366971 16819 net.cpp:406] res3.1.relu <- res3.1.sum
I0308 09:27:06.366978 16819 net.cpp:367] res3.1.relu -> res3.1.sum (in-place)
I0308 09:27:06.367805 16819 net.cpp:122] Setting up res3.1.relu
I0308 09:27:06.367820 16819 net.cpp:129] Top shape: 100 128 14 14 (2508800)
I0308 09:27:06.367839 16819 net.cpp:137] Memory required for data: 1204225200
I0308 09:27:06.367844 16819 layer_factory.hpp:77] Creating layer res3.1.sum_res3.1.relu_0_split
I0308 09:27:06.367856 16819 net.cpp:84] Creating Layer res3.1.sum_res3.1.relu_0_split
I0308 09:27:06.367859 16819 net.cpp:406] res3.1.sum_res3.1.relu_0_split <- res3.1.sum
I0308 09:27:06.367895 16819 net.cpp:380] res3.1.sum_res3.1.relu_0_split -> res3.1.sum_res3.1.relu_0_split_0
I0308 09:27:06.367920 16819 net.cpp:380] res3.1.sum_res3.1.relu_0_split -> res3.1.sum_res3.1.relu_0_split_1
I0308 09:27:06.367970 16819 net.cpp:122] Setting up res3.1.sum_res3.1.relu_0_split
I0308 09:27:06.367980 16819 net.cpp:129] Top shape: 100 128 14 14 (2508800)
I0308 09:27:06.367986 16819 net.cpp:129] Top shape: 100 128 14 14 (2508800)
I0308 09:27:06.367990 16819 net.cpp:137] Memory required for data: 1224295600
I0308 09:27:06.367995 16819 layer_factory.hpp:77] Creating layer res3.2.conv1
I0308 09:27:06.368019 16819 net.cpp:84] Creating Layer res3.2.conv1
I0308 09:27:06.368024 16819 net.cpp:406] res3.2.conv1 <- res3.1.sum_res3.1.relu_0_split_0
I0308 09:27:06.368032 16819 net.cpp:380] res3.2.conv1 -> res3.2.conv1
I0308 09:27:06.370420 16819 net.cpp:122] Setting up res3.2.conv1
I0308 09:27:06.370451 16819 net.cpp:129] Top shape: 100 128 14 14 (2508800)
I0308 09:27:06.370456 16819 net.cpp:137] Memory required for data: 1234330800
I0308 09:27:06.370465 16819 layer_factory.hpp:77] Creating layer res3.2.conv1/relu
I0308 09:27:06.370471 16819 net.cpp:84] Creating Layer res3.2.conv1/relu
I0308 09:27:06.370476 16819 net.cpp:406] res3.2.conv1/relu <- res3.2.conv1
I0308 09:27:06.370482 16819 net.cpp:367] res3.2.conv1/relu -> res3.2.conv1 (in-place)
I0308 09:27:06.371002 16819 net.cpp:122] Setting up res3.2.conv1/relu
I0308 09:27:06.371014 16819 net.cpp:129] Top shape: 100 128 14 14 (2508800)
I0308 09:27:06.371034 16819 net.cpp:137] Memory required for data: 1244366000
I0308 09:27:06.371039 16819 layer_factory.hpp:77] Creating layer res3.2.conv2
I0308 09:27:06.371048 16819 net.cpp:84] Creating Layer res3.2.conv2
I0308 09:27:06.371052 16819 net.cpp:406] res3.2.conv2 <- res3.2.conv1
I0308 09:27:06.371058 16819 net.cpp:380] res3.2.conv2 -> res3.2.conv2
I0308 09:27:06.373528 16819 net.cpp:122] Setting up res3.2.conv2
I0308 09:27:06.373543 16819 net.cpp:129] Top shape: 100 128 14 14 (2508800)
I0308 09:27:06.373564 16819 net.cpp:137] Memory required for data: 1254401200
I0308 09:27:06.373571 16819 layer_factory.hpp:77] Creating layer res3.2.sum
I0308 09:27:06.373581 16819 net.cpp:84] Creating Layer res3.2.sum
I0308 09:27:06.373587 16819 net.cpp:406] res3.2.sum <- res3.2.conv2
I0308 09:27:06.373610 16819 net.cpp:406] res3.2.sum <- res3.1.sum_res3.1.relu_0_split_1
I0308 09:27:06.373616 16819 net.cpp:380] res3.2.sum -> res3.2.sum
I0308 09:27:06.373677 16819 net.cpp:122] Setting up res3.2.sum
I0308 09:27:06.373689 16819 net.cpp:129] Top shape: 100 128 14 14 (2508800)
I0308 09:27:06.373693 16819 net.cpp:137] Memory required for data: 1264436400
I0308 09:27:06.373698 16819 layer_factory.hpp:77] Creating layer res3.2.relu
I0308 09:27:06.373704 16819 net.cpp:84] Creating Layer res3.2.relu
I0308 09:27:06.373709 16819 net.cpp:406] res3.2.relu <- res3.2.sum
I0308 09:27:06.373718 16819 net.cpp:367] res3.2.relu -> res3.2.sum (in-place)
I0308 09:27:06.374294 16819 net.cpp:122] Setting up res3.2.relu
I0308 09:27:06.374306 16819 net.cpp:129] Top shape: 100 128 14 14 (2508800)
I0308 09:27:06.374327 16819 net.cpp:137] Memory required for data: 1274471600
I0308 09:27:06.374331 16819 layer_factory.hpp:77] Creating layer res3.2.sum_res3.2.relu_0_split
I0308 09:27:06.374337 16819 net.cpp:84] Creating Layer res3.2.sum_res3.2.relu_0_split
I0308 09:27:06.374342 16819 net.cpp:406] res3.2.sum_res3.2.relu_0_split <- res3.2.sum
I0308 09:27:06.374351 16819 net.cpp:380] res3.2.sum_res3.2.relu_0_split -> res3.2.sum_res3.2.relu_0_split_0
I0308 09:27:06.374358 16819 net.cpp:380] res3.2.sum_res3.2.relu_0_split -> res3.2.sum_res3.2.relu_0_split_1
I0308 09:27:06.374429 16819 net.cpp:122] Setting up res3.2.sum_res3.2.relu_0_split
I0308 09:27:06.374439 16819 net.cpp:129] Top shape: 100 128 14 14 (2508800)
I0308 09:27:06.374445 16819 net.cpp:129] Top shape: 100 128 14 14 (2508800)
I0308 09:27:06.374449 16819 net.cpp:137] Memory required for data: 1294542000
I0308 09:27:06.374452 16819 layer_factory.hpp:77] Creating layer res3.3.conv1
I0308 09:27:06.374464 16819 net.cpp:84] Creating Layer res3.3.conv1
I0308 09:27:06.374482 16819 net.cpp:406] res3.3.conv1 <- res3.2.sum_res3.2.relu_0_split_0
I0308 09:27:06.374490 16819 net.cpp:380] res3.3.conv1 -> res3.3.conv1
I0308 09:27:06.380801 16819 net.cpp:122] Setting up res3.3.conv1
I0308 09:27:06.380817 16819 net.cpp:129] Top shape: 100 128 14 14 (2508800)
I0308 09:27:06.380839 16819 net.cpp:137] Memory required for data: 1304577200
I0308 09:27:06.380846 16819 layer_factory.hpp:77] Creating layer res3.3.conv1/relu
I0308 09:27:06.380854 16819 net.cpp:84] Creating Layer res3.3.conv1/relu
I0308 09:27:06.380859 16819 net.cpp:406] res3.3.conv1/relu <- res3.3.conv1
I0308 09:27:06.380869 16819 net.cpp:367] res3.3.conv1/relu -> res3.3.conv1 (in-place)
I0308 09:27:06.381814 16819 net.cpp:122] Setting up res3.3.conv1/relu
I0308 09:27:06.381829 16819 net.cpp:129] Top shape: 100 128 14 14 (2508800)
I0308 09:27:06.381850 16819 net.cpp:137] Memory required for data: 1314612400
I0308 09:27:06.381853 16819 layer_factory.hpp:77] Creating layer res3.3.conv2
I0308 09:27:06.381877 16819 net.cpp:84] Creating Layer res3.3.conv2
I0308 09:27:06.381884 16819 net.cpp:406] res3.3.conv2 <- res3.3.conv1
I0308 09:27:06.381909 16819 net.cpp:380] res3.3.conv2 -> res3.3.conv2
I0308 09:27:06.384868 16819 net.cpp:122] Setting up res3.3.conv2
I0308 09:27:06.384883 16819 net.cpp:129] Top shape: 100 128 14 14 (2508800)
I0308 09:27:06.384903 16819 net.cpp:137] Memory required for data: 1324647600
I0308 09:27:06.384910 16819 layer_factory.hpp:77] Creating layer res3.3.sum
I0308 09:27:06.384922 16819 net.cpp:84] Creating Layer res3.3.sum
I0308 09:27:06.384925 16819 net.cpp:406] res3.3.sum <- res3.3.conv2
I0308 09:27:06.384946 16819 net.cpp:406] res3.3.sum <- res3.2.sum_res3.2.relu_0_split_1
I0308 09:27:06.384953 16819 net.cpp:380] res3.3.sum -> res3.3.sum
I0308 09:27:06.385007 16819 net.cpp:122] Setting up res3.3.sum
I0308 09:27:06.385017 16819 net.cpp:129] Top shape: 100 128 14 14 (2508800)
I0308 09:27:06.385020 16819 net.cpp:137] Memory required for data: 1334682800
I0308 09:27:06.385025 16819 layer_factory.hpp:77] Creating layer res3.3.relu
I0308 09:27:06.385031 16819 net.cpp:84] Creating Layer res3.3.relu
I0308 09:27:06.385035 16819 net.cpp:406] res3.3.relu <- res3.3.sum
I0308 09:27:06.385042 16819 net.cpp:367] res3.3.relu -> res3.3.sum (in-place)
I0308 09:27:06.385576 16819 net.cpp:122] Setting up res3.3.relu
I0308 09:27:06.385587 16819 net.cpp:129] Top shape: 100 128 14 14 (2508800)
I0308 09:27:06.385607 16819 net.cpp:137] Memory required for data: 1344718000
I0308 09:27:06.385612 16819 layer_factory.hpp:77] Creating layer res3.3.sum_res3.3.relu_0_split
I0308 09:27:06.385617 16819 net.cpp:84] Creating Layer res3.3.sum_res3.3.relu_0_split
I0308 09:27:06.385622 16819 net.cpp:406] res3.3.sum_res3.3.relu_0_split <- res3.3.sum
I0308 09:27:06.385630 16819 net.cpp:380] res3.3.sum_res3.3.relu_0_split -> res3.3.sum_res3.3.relu_0_split_0
I0308 09:27:06.385637 16819 net.cpp:380] res3.3.sum_res3.3.relu_0_split -> res3.3.sum_res3.3.relu_0_split_1
I0308 09:27:06.385704 16819 net.cpp:122] Setting up res3.3.sum_res3.3.relu_0_split
I0308 09:27:06.385715 16819 net.cpp:129] Top shape: 100 128 14 14 (2508800)
I0308 09:27:06.385720 16819 net.cpp:129] Top shape: 100 128 14 14 (2508800)
I0308 09:27:06.385722 16819 net.cpp:137] Memory required for data: 1364788400
I0308 09:27:06.385726 16819 layer_factory.hpp:77] Creating layer res4.1.conv1
I0308 09:27:06.385737 16819 net.cpp:84] Creating Layer res4.1.conv1
I0308 09:27:06.385741 16819 net.cpp:406] res4.1.conv1 <- res3.3.sum_res3.3.relu_0_split_0
I0308 09:27:06.385747 16819 net.cpp:380] res4.1.conv1 -> res4.1.conv1
I0308 09:27:06.388986 16819 net.cpp:122] Setting up res4.1.conv1
I0308 09:27:06.389019 16819 net.cpp:129] Top shape: 100 256 7 7 (1254400)
I0308 09:27:06.389022 16819 net.cpp:137] Memory required for data: 1369806000
I0308 09:27:06.389036 16819 layer_factory.hpp:77] Creating layer res4.1.conv1/relu
I0308 09:27:06.389045 16819 net.cpp:84] Creating Layer res4.1.conv1/relu
I0308 09:27:06.389050 16819 net.cpp:406] res4.1.conv1/relu <- res4.1.conv1
I0308 09:27:06.389084 16819 net.cpp:367] res4.1.conv1/relu -> res4.1.conv1 (in-place)
I0308 09:27:06.389631 16819 net.cpp:122] Setting up res4.1.conv1/relu
I0308 09:27:06.389642 16819 net.cpp:129] Top shape: 100 256 7 7 (1254400)
I0308 09:27:06.389663 16819 net.cpp:137] Memory required for data: 1374823600
I0308 09:27:06.389667 16819 layer_factory.hpp:77] Creating layer res4.1.conv2
I0308 09:27:06.389677 16819 net.cpp:84] Creating Layer res4.1.conv2
I0308 09:27:06.389680 16819 net.cpp:406] res4.1.conv2 <- res4.1.conv1
I0308 09:27:06.389688 16819 net.cpp:380] res4.1.conv2 -> res4.1.conv2
I0308 09:27:06.393518 16819 net.cpp:122] Setting up res4.1.conv2
I0308 09:27:06.393550 16819 net.cpp:129] Top shape: 100 256 7 7 (1254400)
I0308 09:27:06.393554 16819 net.cpp:137] Memory required for data: 1379841200
I0308 09:27:06.393563 16819 layer_factory.hpp:77] Creating layer res4.1.skipConv
I0308 09:27:06.393573 16819 net.cpp:84] Creating Layer res4.1.skipConv
I0308 09:27:06.393576 16819 net.cpp:406] res4.1.skipConv <- res3.3.sum_res3.3.relu_0_split_1
I0308 09:27:06.393601 16819 net.cpp:380] res4.1.skipConv -> res4.1.skipConv
I0308 09:27:06.395704 16819 net.cpp:122] Setting up res4.1.skipConv
I0308 09:27:06.395750 16819 net.cpp:129] Top shape: 100 256 7 7 (1254400)
I0308 09:27:06.395756 16819 net.cpp:137] Memory required for data: 1384858800
I0308 09:27:06.395762 16819 layer_factory.hpp:77] Creating layer res4.1.sum
I0308 09:27:06.395771 16819 net.cpp:84] Creating Layer res4.1.sum
I0308 09:27:06.395774 16819 net.cpp:406] res4.1.sum <- res4.1.conv2
I0308 09:27:06.395781 16819 net.cpp:406] res4.1.sum <- res4.1.skipConv
I0308 09:27:06.395787 16819 net.cpp:380] res4.1.sum -> res4.1.sum
I0308 09:27:06.395851 16819 net.cpp:122] Setting up res4.1.sum
I0308 09:27:06.395864 16819 net.cpp:129] Top shape: 100 256 7 7 (1254400)
I0308 09:27:06.395867 16819 net.cpp:137] Memory required for data: 1389876400
I0308 09:27:06.395871 16819 layer_factory.hpp:77] Creating layer res4.1.relu
I0308 09:27:06.395877 16819 net.cpp:84] Creating Layer res4.1.relu
I0308 09:27:06.395881 16819 net.cpp:406] res4.1.relu <- res4.1.sum
I0308 09:27:06.395887 16819 net.cpp:367] res4.1.relu -> res4.1.sum (in-place)
I0308 09:27:06.396781 16819 net.cpp:122] Setting up res4.1.relu
I0308 09:27:06.396813 16819 net.cpp:129] Top shape: 100 256 7 7 (1254400)
I0308 09:27:06.396817 16819 net.cpp:137] Memory required for data: 1394894000
I0308 09:27:06.396821 16819 layer_factory.hpp:77] Creating layer res4.1.sum_res4.1.relu_0_split
I0308 09:27:06.396828 16819 net.cpp:84] Creating Layer res4.1.sum_res4.1.relu_0_split
I0308 09:27:06.396833 16819 net.cpp:406] res4.1.sum_res4.1.relu_0_split <- res4.1.sum
I0308 09:27:06.396842 16819 net.cpp:380] res4.1.sum_res4.1.relu_0_split -> res4.1.sum_res4.1.relu_0_split_0
I0308 09:27:06.396849 16819 net.cpp:380] res4.1.sum_res4.1.relu_0_split -> res4.1.sum_res4.1.relu_0_split_1
I0308 09:27:06.396917 16819 net.cpp:122] Setting up res4.1.sum_res4.1.relu_0_split
I0308 09:27:06.396929 16819 net.cpp:129] Top shape: 100 256 7 7 (1254400)
I0308 09:27:06.396934 16819 net.cpp:129] Top shape: 100 256 7 7 (1254400)
I0308 09:27:06.396939 16819 net.cpp:137] Memory required for data: 1404929200
I0308 09:27:06.396941 16819 layer_factory.hpp:77] Creating layer res4.2.conv1
I0308 09:27:06.396950 16819 net.cpp:84] Creating Layer res4.2.conv1
I0308 09:27:06.396955 16819 net.cpp:406] res4.2.conv1 <- res4.1.sum_res4.1.relu_0_split_0
I0308 09:27:06.396963 16819 net.cpp:380] res4.2.conv1 -> res4.2.conv1
I0308 09:27:06.400966 16819 net.cpp:122] Setting up res4.2.conv1
I0308 09:27:06.401000 16819 net.cpp:129] Top shape: 100 256 7 7 (1254400)
I0308 09:27:06.401005 16819 net.cpp:137] Memory required for data: 1409946800
I0308 09:27:06.401011 16819 layer_factory.hpp:77] Creating layer res4.2.conv1/relu
I0308 09:27:06.401021 16819 net.cpp:84] Creating Layer res4.2.conv1/relu
I0308 09:27:06.401026 16819 net.cpp:406] res4.2.conv1/relu <- res4.2.conv1
I0308 09:27:06.401032 16819 net.cpp:367] res4.2.conv1/relu -> res4.2.conv1 (in-place)
I0308 09:27:06.401597 16819 net.cpp:122] Setting up res4.2.conv1/relu
I0308 09:27:06.401638 16819 net.cpp:129] Top shape: 100 256 7 7 (1254400)
I0308 09:27:06.401646 16819 net.cpp:137] Memory required for data: 1414964400
I0308 09:27:06.401652 16819 layer_factory.hpp:77] Creating layer res4.2.conv2
I0308 09:27:06.401666 16819 net.cpp:84] Creating Layer res4.2.conv2
I0308 09:27:06.401690 16819 net.cpp:406] res4.2.conv2 <- res4.2.conv1
I0308 09:27:06.401703 16819 net.cpp:380] res4.2.conv2 -> res4.2.conv2
I0308 09:27:06.405829 16819 net.cpp:122] Setting up res4.2.conv2
I0308 09:27:06.405844 16819 net.cpp:129] Top shape: 100 256 7 7 (1254400)
I0308 09:27:06.405876 16819 net.cpp:137] Memory required for data: 1419982000
I0308 09:27:06.405885 16819 layer_factory.hpp:77] Creating layer res4.2.sum
I0308 09:27:06.405894 16819 net.cpp:84] Creating Layer res4.2.sum
I0308 09:27:06.405899 16819 net.cpp:406] res4.2.sum <- res4.2.conv2
I0308 09:27:06.405920 16819 net.cpp:406] res4.2.sum <- res4.1.sum_res4.1.relu_0_split_1
I0308 09:27:06.405926 16819 net.cpp:380] res4.2.sum -> res4.2.sum
I0308 09:27:06.405982 16819 net.cpp:122] Setting up res4.2.sum
I0308 09:27:06.405995 16819 net.cpp:129] Top shape: 100 256 7 7 (1254400)
I0308 09:27:06.405999 16819 net.cpp:137] Memory required for data: 1424999600
I0308 09:27:06.406003 16819 layer_factory.hpp:77] Creating layer res4.2.relu
I0308 09:27:06.406009 16819 net.cpp:84] Creating Layer res4.2.relu
I0308 09:27:06.406013 16819 net.cpp:406] res4.2.relu <- res4.2.sum
I0308 09:27:06.406020 16819 net.cpp:367] res4.2.relu -> res4.2.sum (in-place)
I0308 09:27:06.406610 16819 net.cpp:122] Setting up res4.2.relu
I0308 09:27:06.406622 16819 net.cpp:129] Top shape: 100 256 7 7 (1254400)
I0308 09:27:06.406641 16819 net.cpp:137] Memory required for data: 1430017200
I0308 09:27:06.406646 16819 layer_factory.hpp:77] Creating layer res4.2.sum_res4.2.relu_0_split
I0308 09:27:06.406653 16819 net.cpp:84] Creating Layer res4.2.sum_res4.2.relu_0_split
I0308 09:27:06.406657 16819 net.cpp:406] res4.2.sum_res4.2.relu_0_split <- res4.2.sum
I0308 09:27:06.406664 16819 net.cpp:380] res4.2.sum_res4.2.relu_0_split -> res4.2.sum_res4.2.relu_0_split_0
I0308 09:27:06.406672 16819 net.cpp:380] res4.2.sum_res4.2.relu_0_split -> res4.2.sum_res4.2.relu_0_split_1
I0308 09:27:06.406774 16819 net.cpp:122] Setting up res4.2.sum_res4.2.relu_0_split
I0308 09:27:06.406783 16819 net.cpp:129] Top shape: 100 256 7 7 (1254400)
I0308 09:27:06.406788 16819 net.cpp:129] Top shape: 100 256 7 7 (1254400)
I0308 09:27:06.406792 16819 net.cpp:137] Memory required for data: 1440052400
I0308 09:27:06.406796 16819 layer_factory.hpp:77] Creating layer res4.3.conv1
I0308 09:27:06.406806 16819 net.cpp:84] Creating Layer res4.3.conv1
I0308 09:27:06.406810 16819 net.cpp:406] res4.3.conv1 <- res4.2.sum_res4.2.relu_0_split_0
I0308 09:27:06.406817 16819 net.cpp:380] res4.3.conv1 -> res4.3.conv1
I0308 09:27:06.410640 16819 net.cpp:122] Setting up res4.3.conv1
I0308 09:27:06.410672 16819 net.cpp:129] Top shape: 100 256 7 7 (1254400)
I0308 09:27:06.410676 16819 net.cpp:137] Memory required for data: 1445070000
I0308 09:27:06.410683 16819 layer_factory.hpp:77] Creating layer res4.3.conv1/relu
I0308 09:27:06.410691 16819 net.cpp:84] Creating Layer res4.3.conv1/relu
I0308 09:27:06.410694 16819 net.cpp:406] res4.3.conv1/relu <- res4.3.conv1
I0308 09:27:06.410699 16819 net.cpp:367] res4.3.conv1/relu -> res4.3.conv1 (in-place)
I0308 09:27:06.411216 16819 net.cpp:122] Setting up res4.3.conv1/relu
I0308 09:27:06.411243 16819 net.cpp:129] Top shape: 100 256 7 7 (1254400)
I0308 09:27:06.411247 16819 net.cpp:137] Memory required for data: 1450087600
I0308 09:27:06.411250 16819 layer_factory.hpp:77] Creating layer res4.3.conv2
I0308 09:27:06.411259 16819 net.cpp:84] Creating Layer res4.3.conv2
I0308 09:27:06.411263 16819 net.cpp:406] res4.3.conv2 <- res4.3.conv1
I0308 09:27:06.411269 16819 net.cpp:380] res4.3.conv2 -> res4.3.conv2
I0308 09:27:06.414882 16819 net.cpp:122] Setting up res4.3.conv2
I0308 09:27:06.414912 16819 net.cpp:129] Top shape: 100 256 7 7 (1254400)
I0308 09:27:06.414917 16819 net.cpp:137] Memory required for data: 1455105200
I0308 09:27:06.414934 16819 layer_factory.hpp:77] Creating layer res4.3.sum
I0308 09:27:06.414944 16819 net.cpp:84] Creating Layer res4.3.sum
I0308 09:27:06.414963 16819 net.cpp:406] res4.3.sum <- res4.3.conv2
I0308 09:27:06.414969 16819 net.cpp:406] res4.3.sum <- res4.2.sum_res4.2.relu_0_split_1
I0308 09:27:06.414991 16819 net.cpp:380] res4.3.sum -> res4.3.sum
I0308 09:27:06.415029 16819 net.cpp:122] Setting up res4.3.sum
I0308 09:27:06.415037 16819 net.cpp:129] Top shape: 100 256 7 7 (1254400)
I0308 09:27:06.415041 16819 net.cpp:137] Memory required for data: 1460122800
I0308 09:27:06.415045 16819 layer_factory.hpp:77] Creating layer res4.3.relu
I0308 09:27:06.415050 16819 net.cpp:84] Creating Layer res4.3.relu
I0308 09:27:06.415055 16819 net.cpp:406] res4.3.relu <- res4.3.sum
I0308 09:27:06.415062 16819 net.cpp:367] res4.3.relu -> res4.3.sum (in-place)
I0308 09:27:06.415889 16819 net.cpp:122] Setting up res4.3.relu
I0308 09:27:06.415902 16819 net.cpp:129] Top shape: 100 256 7 7 (1254400)
I0308 09:27:06.415922 16819 net.cpp:137] Memory required for data: 1465140400
I0308 09:27:06.415926 16819 layer_factory.hpp:77] Creating layer res4.3.sum_res4.3.relu_0_split
I0308 09:27:06.415932 16819 net.cpp:84] Creating Layer res4.3.sum_res4.3.relu_0_split
I0308 09:27:06.415938 16819 net.cpp:406] res4.3.sum_res4.3.relu_0_split <- res4.3.sum
I0308 09:27:06.415944 16819 net.cpp:380] res4.3.sum_res4.3.relu_0_split -> res4.3.sum_res4.3.relu_0_split_0
I0308 09:27:06.415967 16819 net.cpp:380] res4.3.sum_res4.3.relu_0_split -> res4.3.sum_res4.3.relu_0_split_1
I0308 09:27:06.416018 16819 net.cpp:122] Setting up res4.3.sum_res4.3.relu_0_split
I0308 09:27:06.416026 16819 net.cpp:129] Top shape: 100 256 7 7 (1254400)
I0308 09:27:06.416031 16819 net.cpp:129] Top shape: 100 256 7 7 (1254400)
I0308 09:27:06.416035 16819 net.cpp:137] Memory required for data: 1475175600
I0308 09:27:06.416039 16819 layer_factory.hpp:77] Creating layer res4.4.conv1
I0308 09:27:06.416057 16819 net.cpp:84] Creating Layer res4.4.conv1
I0308 09:27:06.416064 16819 net.cpp:406] res4.4.conv1 <- res4.3.sum_res4.3.relu_0_split_0
I0308 09:27:06.416070 16819 net.cpp:380] res4.4.conv1 -> res4.4.conv1
I0308 09:27:06.420161 16819 net.cpp:122] Setting up res4.4.conv1
I0308 09:27:06.420176 16819 net.cpp:129] Top shape: 100 512 7 7 (2508800)
I0308 09:27:06.420197 16819 net.cpp:137] Memory required for data: 1485210800
I0308 09:27:06.420203 16819 layer_factory.hpp:77] Creating layer res4.4.conv1/relu
I0308 09:27:06.420210 16819 net.cpp:84] Creating Layer res4.4.conv1/relu
I0308 09:27:06.420214 16819 net.cpp:406] res4.4.conv1/relu <- res4.4.conv1
I0308 09:27:06.420222 16819 net.cpp:367] res4.4.conv1/relu -> res4.4.conv1 (in-place)
I0308 09:27:06.420711 16819 net.cpp:122] Setting up res4.4.conv1/relu
I0308 09:27:06.420720 16819 net.cpp:129] Top shape: 100 512 7 7 (2508800)
I0308 09:27:06.420740 16819 net.cpp:137] Memory required for data: 1495246000
I0308 09:27:06.420743 16819 layer_factory.hpp:77] Creating layer res4.4.conv2
I0308 09:27:06.420753 16819 net.cpp:84] Creating Layer res4.4.conv2
I0308 09:27:06.420756 16819 net.cpp:406] res4.4.conv2 <- res4.4.conv1
I0308 09:27:06.420763 16819 net.cpp:380] res4.4.conv2 -> res4.4.conv2
I0308 09:27:06.426625 16819 net.cpp:122] Setting up res4.4.conv2
I0308 09:27:06.426657 16819 net.cpp:129] Top shape: 100 512 7 7 (2508800)
I0308 09:27:06.426661 16819 net.cpp:137] Memory required for data: 1505281200
I0308 09:27:06.426668 16819 layer_factory.hpp:77] Creating layer res4.4.skipConv
I0308 09:27:06.426678 16819 net.cpp:84] Creating Layer res4.4.skipConv
I0308 09:27:06.426683 16819 net.cpp:406] res4.4.skipConv <- res4.3.sum_res4.3.relu_0_split_1
I0308 09:27:06.426707 16819 net.cpp:380] res4.4.skipConv -> res4.4.skipConv
I0308 09:27:06.428747 16819 net.cpp:122] Setting up res4.4.skipConv
I0308 09:27:06.428762 16819 net.cpp:129] Top shape: 100 512 7 7 (2508800)
I0308 09:27:06.428766 16819 net.cpp:137] Memory required for data: 1515316400
I0308 09:27:06.428772 16819 layer_factory.hpp:77] Creating layer res4.4.sum
I0308 09:27:06.428779 16819 net.cpp:84] Creating Layer res4.4.sum
I0308 09:27:06.428794 16819 net.cpp:406] res4.4.sum <- res4.4.conv2
I0308 09:27:06.428800 16819 net.cpp:406] res4.4.sum <- res4.4.skipConv
I0308 09:27:06.428807 16819 net.cpp:380] res4.4.sum -> res4.4.sum
I0308 09:27:06.428854 16819 net.cpp:122] Setting up res4.4.sum
I0308 09:27:06.428861 16819 net.cpp:129] Top shape: 100 512 7 7 (2508800)
I0308 09:27:06.428865 16819 net.cpp:137] Memory required for data: 1525351600
I0308 09:27:06.428869 16819 layer_factory.hpp:77] Creating layer res4.4.relu
I0308 09:27:06.428876 16819 net.cpp:84] Creating Layer res4.4.relu
I0308 09:27:06.428880 16819 net.cpp:406] res4.4.relu <- res4.4.sum
I0308 09:27:06.428885 16819 net.cpp:367] res4.4.relu -> res4.4.sum (in-place)
I0308 09:27:06.429404 16819 net.cpp:122] Setting up res4.4.relu
I0308 09:27:06.429415 16819 net.cpp:129] Top shape: 100 512 7 7 (2508800)
I0308 09:27:06.429419 16819 net.cpp:137] Memory required for data: 1535386800
I0308 09:27:06.429422 16819 layer_factory.hpp:77] Creating layer pool5
I0308 09:27:06.429430 16819 net.cpp:84] Creating Layer pool5
I0308 09:27:06.429432 16819 net.cpp:406] pool5 <- res4.4.sum
I0308 09:27:06.429440 16819 net.cpp:380] pool5 -> pool5
I0308 09:27:06.430359 16819 net.cpp:122] Setting up pool5
I0308 09:27:06.430372 16819 net.cpp:129] Top shape: 100 512 1 1 (51200)
I0308 09:27:06.430377 16819 net.cpp:137] Memory required for data: 1535591600
I0308 09:27:06.430380 16819 layer_factory.hpp:77] Creating layer fc
I0308 09:27:06.430387 16819 net.cpp:84] Creating Layer fc
I0308 09:27:06.430392 16819 net.cpp:406] fc <- pool5
I0308 09:27:06.430398 16819 net.cpp:380] fc -> fc
I0308 09:27:06.431717 16819 net.cpp:122] Setting up fc
I0308 09:27:06.431731 16819 net.cpp:129] Top shape: 100 1000 (100000)
I0308 09:27:06.431735 16819 net.cpp:137] Memory required for data: 1535991600
I0308 09:27:06.431741 16819 layer_factory.hpp:77] Creating layer fc_fc_0_split
I0308 09:27:06.431766 16819 net.cpp:84] Creating Layer fc_fc_0_split
I0308 09:27:06.431769 16819 net.cpp:406] fc_fc_0_split <- fc
I0308 09:27:06.431777 16819 net.cpp:380] fc_fc_0_split -> fc_fc_0_split_0
I0308 09:27:06.431783 16819 net.cpp:380] fc_fc_0_split -> fc_fc_0_split_1
I0308 09:27:06.431862 16819 net.cpp:122] Setting up fc_fc_0_split
I0308 09:27:06.431872 16819 net.cpp:129] Top shape: 100 1000 (100000)
I0308 09:27:06.431876 16819 net.cpp:129] Top shape: 100 1000 (100000)
I0308 09:27:06.431880 16819 net.cpp:137] Memory required for data: 1536791600
I0308 09:27:06.431883 16819 layer_factory.hpp:77] Creating layer accuracy/top-1
I0308 09:27:06.431892 16819 net.cpp:84] Creating Layer accuracy/top-1
I0308 09:27:06.431896 16819 net.cpp:406] accuracy/top-1 <- fc_fc_0_split_0
I0308 09:27:06.431902 16819 net.cpp:406] accuracy/top-1 <- label_data_1_split_0
I0308 09:27:06.431907 16819 net.cpp:380] accuracy/top-1 -> accuracy/top-1
…
