…
I0308 15:21:29.306735 30756 net.cpp:294] The NetState phase (0) differed from the phase (1) specified by a rule in layer pred
I0308 15:21:29.306737 30756 net.cpp:294] The NetState phase (0) differed from the phase (1) specified by a rule in layer prob_d8
I0308 15:21:29.306740 30756 net.cpp:294] The NetState phase (0) differed from the phase (1) specified by a rule in layer pred_d8
I0308 15:21:29.307003 30756 net.cpp:51] Initializing net from parameters: 
state {
  phase: TRAIN
  level: 0
  stage: ""
}
layer {
  name: "input"
  type: "Input"
  top: "data"
  input_param {
    shape {
      dim: 1
      dim: 3
      dim: 1024
      dim: 2048
    }
  }
}
layer {
  name: "conv1"
  type: "Convolution"
  bottom: "data"
  top: "conv1"
  convolution_param {
    num_output: 32
    bias_term: true
    pad: 1
    kernel_size: 3
    stride: 2
  }
}
layer {
  name: "conv1/relu"
  type: "ReLU"
  bottom: "conv1"
  top: "conv1"
}
layer {
  name: "conv2"
  type: "Convolution"
  bottom: "conv1"
  top: "conv2"
  convolution_param {
    num_output: 64
    bias_term: true
    pad: 1
    kernel_size: 3
    stride: 2
  }
}
layer {
  name: "conv2/relu"
  type: "ReLU"
  bottom: "conv2"
  top: "conv2"
}
layer {
  name: "res2.1.conv1"
  type: "Convolution"
  bottom: "conv2"
  top: "res2.1.conv1"
  convolution_param {
    num_output: 64
    bias_term: true
    pad: 1
    kernel_size: 3
    stride: 2
  }
}
layer {
  name: "res2.1.conv1/relu"
  type: "ReLU"
  bottom: "res2.1.conv1"
  top: "res2.1.conv1"
}
layer {
  name: "res2.1.conv2"
  type: "Convolution"
  bottom: "res2.1.conv1"
  top: "res2.1.conv2"
  convolution_param {
    num_output: 64
    bias_term: true
    pad: 1
    kernel_size: 3
    stride: 1
  }
}
layer {
  name: "res2.1.skipConv"
  type: "Convolution"
  bottom: "conv2"
  top: "res2.1.skipConv"
  convolution_param {
    num_output: 64
    bias_term: true
    pad: 0
    kernel_size: 1
    stride: 2
  }
}
layer {
  name: "res2.1.sum"
  type: "Eltwise"
  bottom: "res2.1.conv2"
  bottom: "res2.1.skipConv"
  top: "res2.1.sum"
  eltwise_param {
    operation: SUM
  }
}
layer {
  name: "res2.1.relu"
  type: "ReLU"
  bottom: "res2.1.sum"
  top: "res2.1.sum"
}
layer {
  name: "res2.2.conv1"
  type: "Convolution"
  bottom: "res2.1.sum"
  top: "res2.2.conv1"
  convolution_param {
    num_output: 64
    bias_term: true
    pad: 1
    kernel_size: 3
    stride: 1
  }
}
layer {
  name: "res2.2.conv1/relu"
  type: "ReLU"
  bottom: "res2.2.conv1"
  top: "res2.2.conv1"
}
layer {
  name: "res2.2.conv2"
  type: "Convolution"
  bottom: "res2.2.conv1"
  top: "res2.2.conv2"
  convolution_param {
    num_output: 64
    bias_term: true
    pad: 1
    kernel_size: 3
    stride: 1
  }
}
layer {
  name: "res2.2.sum"
  type: "Eltwise"
  bottom: "res2.2.conv2"
  bottom: "res2.1.sum"
  top: "res2.2.sum"
  eltwise_param {
    operation: SUM
  }
}
layer {
  name: "res2.2.relu"
  type: "ReLU"
  bottom: "res2.2.sum"
  top: "res2.2.sum"
}
layer {
  name: "res3.1.conv1"
  type: "Convolution"
  bottom: "res2.2.sum"
  top: "res3.1.conv1"
  convolution_param {
    num_output: 128
    bias_term: true
    pad: 1
    kernel_size: 3
    stride: 2
  }
}
layer {
  name: "res3.1.conv1/relu"
  type: "ReLU"
  bottom: "res3.1.conv1"
  top: "res3.1.conv1"
}
layer {
  name: "res3.1.conv2"
  type: "Convolution"
  bottom: "res3.1.conv1"
  top: "res3.1.conv2"
  convolution_param {
    num_output: 128
    bias_term: true
    pad: 1
    kernel_size: 3
    stride: 1
  }
}
layer {
  name: "res3.1.skipConv"
  type: "Convolution"
  bottom: "res2.2.sum"
  top: "res3.1.skipConv"
  convolution_param {
    num_output: 128
    bias_term: true
    pad: 0
    kernel_size: 1
    stride: 2
  }
}
layer {
  name: "res3.1.sum"
  type: "Eltwise"
  bottom: "res3.1.conv2"
  bottom: "res3.1.skipConv"
  top: "res3.1.sum"
  eltwise_param {
    operation: SUM
  }
}
layer {
  name: "res3.1.relu"
  type: "ReLU"
  bottom: "res3.1.sum"
  top: "res3.1.sum"
}
layer {
  name: "res3.2.conv1"
  type: "Convolution"
  bottom: "res3.1.sum"
  top: "res3.2.conv1"
  convolution_param {
    num_output: 128
    bias_term: true
    pad: 1
    kernel_size: 3
    stride: 1
  }
}
layer {
  name: "res3.2.conv1/relu"
  type: "ReLU"
  bottom: "res3.2.conv1"
  top: "res3.2.conv1"
}
layer {
  name: "res3.2.conv2"
  type: "Convolution"
  bottom: "res3.2.conv1"
  top: "res3.2.conv2"
  convolution_param {
    num_output: 128
    bias_term: true
    pad: 1
    kernel_size: 3
    stride: 1
  }
}
layer {
  name: "res3.2.sum"
  type: "Eltwise"
  bottom: "res3.2.conv2"
  bottom: "res3.1.sum"
  top: "res3.2.sum"
  eltwise_param {
    operation: SUM
  }
}
layer {
  name: "res3.2.relu"
  type: "ReLU"
  bottom: "res3.2.sum"
  top: "res3.2.sum"
}
layer {
  name: "res4.1.conv1"
  type: "Convolution"
  bottom: "res3.2.sum"
  top: "res4.1.conv1"
  convolution_param {
    num_output: 256
    bias_term: true
    pad: 1
    kernel_size: 3
    stride: 2
  }
}
layer {
  name: "res4.1.conv1/relu"
  type: "ReLU"
  bottom: "res4.1.conv1"
  top: "res4.1.conv1"
}
layer {
  name: "res4.1.conv2"
  type: "Convolution"
  bottom: "res4.1.conv1"
  top: "res4.1.conv2"
  convolution_param {
    num_output: 256
    bias_term: true
    pad: 1
    kernel_size: 3
    stride: 1
  }
}
layer {
  name: "res4.1.skipConv"
  type: "Convolution"
  bottom: "res3.2.sum"
  top: "res4.1.skipConv"
  convolution_param {
    num_output: 256
    bias_term: true
    pad: 0
    kernel_size: 1
    stride: 2
  }
}
layer {
  name: "res4.1.sum"
  type: "Eltwise"
  bottom: "res4.1.conv2"
  bottom: "res4.1.skipConv"
  top: "res4.1.sum"
  eltwise_param {
    operation: SUM
  }
}
layer {
  name: "res4.1.relu"
  type: "ReLU"
  bottom: "res4.1.sum"
  top: "res4.1.sum"
}
layer {
  name: "res4.2.conv1"
  type: "Convolution"
  bottom: "res4.1.sum"
  top: "res4.2.conv1"
  convolution_param {
    num_output: 512
    bias_term: true
    pad: 1
    kernel_size: 3
    stride: 1
  }
}
layer {
  name: "res4.2.conv1/relu"
  type: "ReLU"
  bottom: "res4.2.conv1"
  top: "res4.2.conv1"
}
layer {
  name: "res4.2.conv2"
  type: "Convolution"
  bottom: "res4.2.conv1"
  top: "res4.2.conv2"
  convolution_param {
    num_output: 512
    bias_term: true
    pad: 1
    kernel_size: 3
    stride: 1
  }
}
layer {
  name: "res4.2.skipConv"
  type: "Convolution"
  bottom: "res4.1.sum"
  top: "res4.2.skipConv"
  convolution_param {
    num_output: 512
    bias_term: true
    pad: 0
    kernel_size: 1
    stride: 1
  }
}
layer {
  name: "res4.2.sum"
  type: "Eltwise"
  bottom: "res4.2.conv2"
  bottom: "res4.2.skipConv"
  top: "res4.2.sum"
  eltwise_param {
    operation: SUM
  }
}
layer {
  name: "res4.2.relu"
  type: "ReLU"
  bottom: "res4.2.sum"
  top: "res4.2.sum"
}
layer {
  name: "psp.pool1"
  type: "Pooling"
  bottom: "res4.2.sum"
  top: "psp.pool1"
  pooling_param {
    pool: AVE
    kernel_size: 32
    stride: 32
  }
}
layer {
  name: "psp.pool1.conv"
  type: "Convolution"
  bottom: "psp.pool1"
  top: "psp.pool1.conv"
  convolution_param {
    num_output: 128
    bias_term: true
    pad: 0
    kernel_size: 1
    stride: 1
  }
}
layer {
  name: "psp.pool1.conv/relu"
  type: "ReLU"
  bottom: "psp.pool1.conv"
  top: "psp.pool1.conv"
}
layer {
  name: "psp.pool1.interp"
  type: "Interp"
  bottom: "psp.pool1.conv"
  top: "psp.pool1.interp"
  include {
    phase: TRAIN
  }
  interp_param {
    height: 32
    width: 64
  }
}
layer {
  name: "psp.pool2"
  type: "Pooling"
  bottom: "res4.2.sum"
  top: "psp.pool2"
  pooling_param {
    pool: AVE
    kernel_size: 16
    stride: 16
  }
}
layer {
  name: "psp.pool2.conv"
  type: "Convolution"
  bottom: "psp.pool2"
  top: "psp.pool2.conv"
  convolution_param {
    num_output: 128
    bias_term: true
    pad: 0
    kernel_size: 1
    stride: 1
  }
}
layer {
  name: "psp.pool2.conv/relu"
  type: "ReLU"
  bottom: "psp.pool2.conv"
  top: "psp.pool2.conv"
}
layer {
  name: "psp.pool2.interp"
  type: "Interp"
  bottom: "psp.pool2.conv"
  top: "psp.pool2.interp"
  include {
    phase: TRAIN
  }
  interp_param {
    height: 32
    width: 64
  }
}
layer {
  name: "psp.pool3"
  type: "Pooling"
  bottom: "res4.2.sum"
  top: "psp.pool3"
  pooling_param {
    pool: AVE
    kernel_size: 8
    stride: 8
  }
}
layer {
  name: "psp.pool3.conv"
  type: "Convolution"
  bottom: "psp.pool3"
  top: "psp.pool3.conv"
  convolution_param {
    num_output: 128
    bias_term: true
    pad: 0
    kernel_size: 1
    stride: 1
  }
}
layer {
  name: "psp.pool3.conv/relu"
  type: "ReLU"
  bottom: "psp.pool3.conv"
  top: "psp.pool3.conv"
}
layer {
  name: "psp.pool3.interp"
  type: "Interp"
  bottom: "psp.pool3.conv"
  top: "psp.pool3.interp"
  include {
    phase: TRAIN
  }
  interp_param {
    height: 32
    width: 64
  }
}
layer {
  name: "psp.pool4"
  type: "Pooling"
  bottom: "res4.2.sum"
  top: "psp.pool4"
  pooling_param {
    pool: AVE
    kernel_size: 4
    stride: 4
  }
}
layer {
  name: "psp.pool4.conv"
  type: "Convolution"
  bottom: "psp.pool4"
  top: "psp.pool4.conv"
  convolution_param {
    num_output: 128
    bias_term: true
    pad: 0
    kernel_size: 1
    stride: 1
  }
}
layer {
  name: "psp.pool4.conv/relu"
  type: "ReLU"
  bottom: "psp.pool4.conv"
  top: "psp.pool4.conv"
}
layer {
  name: "psp.pool4.interp"
  type: "Interp"
  bottom: "psp.pool4.conv"
  top: "psp.pool4.interp"
  include {
    phase: TRAIN
  }
  interp_param {
    height: 32
    width: 64
  }
}
layer {
  name: "psp.concat"
  type: "Concat"
  bottom: "res4.2.sum"
  bottom: "psp.pool1.interp"
  bottom: "psp.pool2.interp"
  bottom: "psp.pool3.interp"
  bottom: "psp.pool4.interp"
  top: "psp.concat"
}
layer {
  name: "psp.concat.conv"
  type: "Convolution"
  bottom: "psp.concat"
  top: "psp.concat.conv"
  convolution_param {
    num_output: 512
    bias_term: true
    pad: 1
    kernel_size: 3
    stride: 1
  }
}
layer {
  name: "psp.concat.conv/relu"
  type: "ReLU"
  bottom: "psp.concat.conv"
  top: "psp.concat.conv"
}
layer {
  name: "Decoder_wc3"
  type: "Convolution"
  bottom: "res2.2.sum"
  top: "Decoder_wc3"
  convolution_param {
    num_output: 32
    bias_term: true
    pad: 0
    kernel_size: 1
    stride: 1
  }
}
layer {
  name: "Decoder_wc3/relu"
  type: "ReLU"
  bottom: "Decoder_wc3"
  top: "Decoder_wc3"
}
layer {
  name: "Decoder_wc4"
  type: "Convolution"
  bottom: "res3.2.sum"
  top: "Decoder_wc4"
  convolution_param {
    num_output: 32
    bias_term: true
    pad: 0
    kernel_size: 1
    stride: 1
  }
}
layer {
  name: "Decoder_wc4/relu"
  type: "ReLU"
  bottom: "Decoder_wc4"
  top: "Decoder_wc4"
}
layer {
  name: "Decoder_wc5"
  type: "Convolution"
  bottom: "psp.concat.conv"
  top: "Decoder_wc5"
  convolution_param {
    num_output: 512
    bias_term: true
    pad: 0
    kernel_size: 1
    stride: 1
  }
}
layer {
  name: "Decoder_wc5/relu"
  type: "ReLU"
  bottom: "Decoder_wc5"
  top: "Decoder_wc5"
}
layer {
  name: "Decoder4_4.proj"
  type: "Convolution"
  bottom: "Decoder_wc5"
  top: "Decoder4_4.proj"
  convolution_param {
    num_output: 32
    bias_term: true
    pad: 0
    kernel_size: 1
    stride: 1
  }
}
layer {
  name: "Decoder4_4.proj/relu"
  type: "ReLU"
  bottom: "Decoder4_4.proj"
  top: "Decoder4_4.proj"
}
layer {
  name: "Decoder4_4.proj/up2"
  type: "Deconvolution"
  bottom: "Decoder4_4.proj"
  top: "Decoder4_4.proj/up2"
  param {
    lr_mult: 0
    decay_mult: 0
  }
  convolution_param {
    num_output: 32
    bias_term: false
    pad: 1
    kernel_size: 4
    group: 32
    stride: 2
    weight_filler {
      type: "bilinear"
    }
  }
}
layer {
  name: "Decoder4_4.concat"
  type: "Concat"
  bottom: "Decoder_wc4"
  bottom: "Decoder4_4.proj/up2"
  top: "Decoder4_4.concat"
}
layer {
  name: "Decoder4_4.conv1"
  type: "Convolution"
  bottom: "Decoder4_4.concat"
  top: "Decoder4_4.conv1"
  convolution_param {
    num_output: 32
    bias_term: true
    pad: 1
    kernel_size: 3
    stride: 1
  }
}
layer {
  name: "Decoder4_4.conv1/relu"
  type: "ReLU"
  bottom: "Decoder4_4.conv1"
  top: "Decoder4_4.conv1"
}
layer {
  name: "Decoder3_3.proj"
  type: "Convolution"
  bottom: "Decoder4_4.conv1"
  top: "Decoder3_3.proj"
  convolution_param {
    num_output: 32
    bias_term: true
    pad: 0
    kernel_size: 1
    stride: 1
  }
}
layer {
  name: "Decoder3_3.proj/relu"
  type: "ReLU"
  bottom: "Decoder3_3.proj"
  top: "Decoder3_3.proj"
}
layer {
  name: "Decoder3_3.proj/up2"
  type: "Deconvolution"
  bottom: "Decoder3_3.proj"
  top: "Decoder3_3.proj/up2"
  param {
    lr_mult: 0
    decay_mult: 0
  }
  convolution_param {
    num_output: 32
    bias_term: false
    pad: 1
    kernel_size: 4
    group: 32
    stride: 2
    weight_filler {
      type: "bilinear"
    }
  }
}
layer {
  name: "Decoder3_3.concat"
  type: "Concat"
  bottom: "Decoder_wc3"
  bottom: "Decoder3_3.proj/up2"
  top: "Decoder3_3.concat"
}
layer {
  name: "Decoder3_3.conv1"
  type: "Convolution"
  bottom: "Decoder3_3.concat"
  top: "Decoder3_3.conv1"
  convolution_param {
    num_output: 32
    bias_term: true
    pad: 1
    kernel_size: 3
    stride: 1
  }
}
layer {
  name: "Decoder3_3.conv1/relu"
  type: "ReLU"
  bottom: "Decoder3_3.conv1"
  top: "Decoder3_3.conv1"
}
layer {
  name: "Decoder_score"
  type: "Convolution"
  bottom: "Decoder3_3.conv1"
  top: "Decoder_score"
  convolution_param {
    num_output: 19
    bias_term: true
    pad: 1
    kernel_size: 3
    stride: 1
  }
}
layer {
  name: "Decoder_score.up8"
  type: "Deconvolution"
  bottom: "Decoder_score"
  top: "Decoder_score.up8"
  param {
    lr_mult: 0
    decay_mult: 0
  }
  convolution_param {
    num_output: 19
    bias_term: false
    pad: 4
    kernel_size: 16
    group: 19
    stride: 8
    weight_filler {
      type: "bilinear"
    }
  }
}
I0308 15:21:29.307385 30756 layer_factory.hpp:77] Creating layer input
I0308 15:21:29.307402 30756 net.cpp:84] Creating Layer input
I0308 15:21:29.307409 30756 net.cpp:380] input -> data
I0308 15:21:29.315265 30756 net.cpp:122] Setting up input
I0308 15:21:29.315297 30756 net.cpp:129] Top shape: 1 3 1024 2048 (6291456)
I0308 15:21:29.315302 30756 net.cpp:137] Memory required for data: 25165824
I0308 15:21:29.315309 30756 layer_factory.hpp:77] Creating layer conv1
I0308 15:21:29.315322 30756 net.cpp:84] Creating Layer conv1
I0308 15:21:29.315330 30756 net.cpp:406] conv1 <- data
I0308 15:21:29.315336 30756 net.cpp:380] conv1 -> conv1
I0308 15:21:29.775883 30756 net.cpp:122] Setting up conv1
I0308 15:21:29.775914 30756 net.cpp:129] Top shape: 1 32 512 1024 (16777216)
I0308 15:21:29.775918 30756 net.cpp:137] Memory required for data: 92274688
I0308 15:21:29.775939 30756 layer_factory.hpp:77] Creating layer conv1/relu
I0308 15:21:29.775951 30756 net.cpp:84] Creating Layer conv1/relu
I0308 15:21:29.775966 30756 net.cpp:406] conv1/relu <- conv1
I0308 15:21:29.775972 30756 net.cpp:367] conv1/relu -> conv1 (in-place)
I0308 15:21:29.776506 30756 net.cpp:122] Setting up conv1/relu
I0308 15:21:29.776522 30756 net.cpp:129] Top shape: 1 32 512 1024 (16777216)
I0308 15:21:29.776525 30756 net.cpp:137] Memory required for data: 159383552
I0308 15:21:29.776530 30756 layer_factory.hpp:77] Creating layer conv2
I0308 15:21:29.776540 30756 net.cpp:84] Creating Layer conv2
I0308 15:21:29.776542 30756 net.cpp:406] conv2 <- conv1
I0308 15:21:29.776547 30756 net.cpp:380] conv2 -> conv2
I0308 15:21:29.779301 30756 net.cpp:122] Setting up conv2
I0308 15:21:29.779335 30756 net.cpp:129] Top shape: 1 64 256 512 (8388608)
I0308 15:21:29.779340 30756 net.cpp:137] Memory required for data: 192937984
I0308 15:21:29.779362 30756 layer_factory.hpp:77] Creating layer conv2/relu
I0308 15:21:29.779371 30756 net.cpp:84] Creating Layer conv2/relu
I0308 15:21:29.779374 30756 net.cpp:406] conv2/relu <- conv2
I0308 15:21:29.779390 30756 net.cpp:367] conv2/relu -> conv2 (in-place)
I0308 15:21:29.779783 30756 net.cpp:122] Setting up conv2/relu
I0308 15:21:29.779795 30756 net.cpp:129] Top shape: 1 64 256 512 (8388608)
I0308 15:21:29.779810 30756 net.cpp:137] Memory required for data: 226492416
I0308 15:21:29.779814 30756 layer_factory.hpp:77] Creating layer conv2_conv2/relu_0_split
I0308 15:21:29.779822 30756 net.cpp:84] Creating Layer conv2_conv2/relu_0_split
I0308 15:21:29.779825 30756 net.cpp:406] conv2_conv2/relu_0_split <- conv2
I0308 15:21:29.779830 30756 net.cpp:380] conv2_conv2/relu_0_split -> conv2_conv2/relu_0_split_0
I0308 15:21:29.779836 30756 net.cpp:380] conv2_conv2/relu_0_split -> conv2_conv2/relu_0_split_1
I0308 15:21:29.779880 30756 net.cpp:122] Setting up conv2_conv2/relu_0_split
I0308 15:21:29.779887 30756 net.cpp:129] Top shape: 1 64 256 512 (8388608)
I0308 15:21:29.779892 30756 net.cpp:129] Top shape: 1 64 256 512 (8388608)
I0308 15:21:29.779896 30756 net.cpp:137] Memory required for data: 293601280
I0308 15:21:29.779898 30756 layer_factory.hpp:77] Creating layer res2.1.conv1
I0308 15:21:29.779906 30756 net.cpp:84] Creating Layer res2.1.conv1
I0308 15:21:29.779909 30756 net.cpp:406] res2.1.conv1 <- conv2_conv2/relu_0_split_0
I0308 15:21:29.779918 30756 net.cpp:380] res2.1.conv1 -> res2.1.conv1
I0308 15:21:29.781811 30756 net.cpp:122] Setting up res2.1.conv1
I0308 15:21:29.781839 30756 net.cpp:129] Top shape: 1 64 128 256 (2097152)
I0308 15:21:29.781843 30756 net.cpp:137] Memory required for data: 301989888
I0308 15:21:29.781852 30756 layer_factory.hpp:77] Creating layer res2.1.conv1/relu
I0308 15:21:29.781859 30756 net.cpp:84] Creating Layer res2.1.conv1/relu
I0308 15:21:29.781863 30756 net.cpp:406] res2.1.conv1/relu <- res2.1.conv1
I0308 15:21:29.781870 30756 net.cpp:367] res2.1.conv1/relu -> res2.1.conv1 (in-place)
I0308 15:21:29.782469 30756 net.cpp:122] Setting up res2.1.conv1/relu
I0308 15:21:29.782495 30756 net.cpp:129] Top shape: 1 64 128 256 (2097152)
I0308 15:21:29.782498 30756 net.cpp:137] Memory required for data: 310378496
I0308 15:21:29.782502 30756 layer_factory.hpp:77] Creating layer res2.1.conv2
I0308 15:21:29.782513 30756 net.cpp:84] Creating Layer res2.1.conv2
I0308 15:21:29.782517 30756 net.cpp:406] res2.1.conv2 <- res2.1.conv1
I0308 15:21:29.782524 30756 net.cpp:380] res2.1.conv2 -> res2.1.conv2
I0308 15:21:29.784605 30756 net.cpp:122] Setting up res2.1.conv2
I0308 15:21:29.784632 30756 net.cpp:129] Top shape: 1 64 128 256 (2097152)
I0308 15:21:29.784636 30756 net.cpp:137] Memory required for data: 318767104
I0308 15:21:29.784643 30756 layer_factory.hpp:77] Creating layer res2.1.skipConv
I0308 15:21:29.784654 30756 net.cpp:84] Creating Layer res2.1.skipConv
I0308 15:21:29.784658 30756 net.cpp:406] res2.1.skipConv <- conv2_conv2/relu_0_split_1
I0308 15:21:29.784664 30756 net.cpp:380] res2.1.skipConv -> res2.1.skipConv
I0308 15:21:29.787154 30756 net.cpp:122] Setting up res2.1.skipConv
I0308 15:21:29.787184 30756 net.cpp:129] Top shape: 1 64 128 256 (2097152)
I0308 15:21:29.787187 30756 net.cpp:137] Memory required for data: 327155712
I0308 15:21:29.787197 30756 layer_factory.hpp:77] Creating layer res2.1.sum
I0308 15:21:29.787207 30756 net.cpp:84] Creating Layer res2.1.sum
I0308 15:21:29.787211 30756 net.cpp:406] res2.1.sum <- res2.1.conv2
I0308 15:21:29.787216 30756 net.cpp:406] res2.1.sum <- res2.1.skipConv
I0308 15:21:29.787222 30756 net.cpp:380] res2.1.sum -> res2.1.sum
I0308 15:21:29.787261 30756 net.cpp:122] Setting up res2.1.sum
I0308 15:21:29.787271 30756 net.cpp:129] Top shape: 1 64 128 256 (2097152)
I0308 15:21:29.787273 30756 net.cpp:137] Memory required for data: 335544320
I0308 15:21:29.787276 30756 layer_factory.hpp:77] Creating layer res2.1.relu
I0308 15:21:29.787297 30756 net.cpp:84] Creating Layer res2.1.relu
I0308 15:21:29.787302 30756 net.cpp:406] res2.1.relu <- res2.1.sum
I0308 15:21:29.787307 30756 net.cpp:367] res2.1.relu -> res2.1.sum (in-place)
I0308 15:21:29.787761 30756 net.cpp:122] Setting up res2.1.relu
I0308 15:21:29.787773 30756 net.cpp:129] Top shape: 1 64 128 256 (2097152)
I0308 15:21:29.787788 30756 net.cpp:137] Memory required for data: 343932928
I0308 15:21:29.787792 30756 layer_factory.hpp:77] Creating layer res2.1.sum_res2.1.relu_0_split
I0308 15:21:29.787798 30756 net.cpp:84] Creating Layer res2.1.sum_res2.1.relu_0_split
I0308 15:21:29.787802 30756 net.cpp:406] res2.1.sum_res2.1.relu_0_split <- res2.1.sum
I0308 15:21:29.787809 30756 net.cpp:380] res2.1.sum_res2.1.relu_0_split -> res2.1.sum_res2.1.relu_0_split_0
I0308 15:21:29.787816 30756 net.cpp:380] res2.1.sum_res2.1.relu_0_split -> res2.1.sum_res2.1.relu_0_split_1
I0308 15:21:29.787863 30756 net.cpp:122] Setting up res2.1.sum_res2.1.relu_0_split
I0308 15:21:29.787870 30756 net.cpp:129] Top shape: 1 64 128 256 (2097152)
I0308 15:21:29.787875 30756 net.cpp:129] Top shape: 1 64 128 256 (2097152)
I0308 15:21:29.787878 30756 net.cpp:137] Memory required for data: 360710144
I0308 15:21:29.787881 30756 layer_factory.hpp:77] Creating layer res2.2.conv1
I0308 15:21:29.787889 30756 net.cpp:84] Creating Layer res2.2.conv1
I0308 15:21:29.787894 30756 net.cpp:406] res2.2.conv1 <- res2.1.sum_res2.1.relu_0_split_0
I0308 15:21:29.787899 30756 net.cpp:380] res2.2.conv1 -> res2.2.conv1
I0308 15:21:29.789922 30756 net.cpp:122] Setting up res2.2.conv1
I0308 15:21:29.789938 30756 net.cpp:129] Top shape: 1 64 128 256 (2097152)
I0308 15:21:29.789953 30756 net.cpp:137] Memory required for data: 369098752
I0308 15:21:29.789961 30756 layer_factory.hpp:77] Creating layer res2.2.conv1/relu
I0308 15:21:29.789969 30756 net.cpp:84] Creating Layer res2.2.conv1/relu
I0308 15:21:29.789973 30756 net.cpp:406] res2.2.conv1/relu <- res2.2.conv1
I0308 15:21:29.789978 30756 net.cpp:367] res2.2.conv1/relu -> res2.2.conv1 (in-place)
I0308 15:21:29.790575 30756 net.cpp:122] Setting up res2.2.conv1/relu
I0308 15:21:29.790601 30756 net.cpp:129] Top shape: 1 64 128 256 (2097152)
I0308 15:21:29.790604 30756 net.cpp:137] Memory required for data: 377487360
I0308 15:21:29.790608 30756 layer_factory.hpp:77] Creating layer res2.2.conv2
I0308 15:21:29.790618 30756 net.cpp:84] Creating Layer res2.2.conv2
I0308 15:21:29.790622 30756 net.cpp:406] res2.2.conv2 <- res2.2.conv1
I0308 15:21:29.790629 30756 net.cpp:380] res2.2.conv2 -> res2.2.conv2
I0308 15:21:29.793279 30756 net.cpp:122] Setting up res2.2.conv2
I0308 15:21:29.793308 30756 net.cpp:129] Top shape: 1 64 128 256 (2097152)
I0308 15:21:29.793311 30756 net.cpp:137] Memory required for data: 385875968
I0308 15:21:29.793330 30756 layer_factory.hpp:77] Creating layer res2.2.sum
I0308 15:21:29.793341 30756 net.cpp:84] Creating Layer res2.2.sum
I0308 15:21:29.793345 30756 net.cpp:406] res2.2.sum <- res2.2.conv2
I0308 15:21:29.793350 30756 net.cpp:406] res2.2.sum <- res2.1.sum_res2.1.relu_0_split_1
I0308 15:21:29.793368 30756 net.cpp:380] res2.2.sum -> res2.2.sum
I0308 15:21:29.793406 30756 net.cpp:122] Setting up res2.2.sum
I0308 15:21:29.793416 30756 net.cpp:129] Top shape: 1 64 128 256 (2097152)
I0308 15:21:29.793419 30756 net.cpp:137] Memory required for data: 394264576
I0308 15:21:29.793422 30756 layer_factory.hpp:77] Creating layer res2.2.relu
I0308 15:21:29.793428 30756 net.cpp:84] Creating Layer res2.2.relu
I0308 15:21:29.793431 30756 net.cpp:406] res2.2.relu <- res2.2.sum
I0308 15:21:29.793438 30756 net.cpp:367] res2.2.relu -> res2.2.sum (in-place)
I0308 15:21:29.794044 30756 net.cpp:122] Setting up res2.2.relu
I0308 15:21:29.794061 30756 net.cpp:129] Top shape: 1 64 128 256 (2097152)
I0308 15:21:29.794064 30756 net.cpp:137] Memory required for data: 402653184
I0308 15:21:29.794068 30756 layer_factory.hpp:77] Creating layer res2.2.sum_res2.2.relu_0_split
I0308 15:21:29.794075 30756 net.cpp:84] Creating Layer res2.2.sum_res2.2.relu_0_split
I0308 15:21:29.794077 30756 net.cpp:406] res2.2.sum_res2.2.relu_0_split <- res2.2.sum
I0308 15:21:29.794095 30756 net.cpp:380] res2.2.sum_res2.2.relu_0_split -> res2.2.sum_res2.2.relu_0_split_0
I0308 15:21:29.794113 30756 net.cpp:380] res2.2.sum_res2.2.relu_0_split -> res2.2.sum_res2.2.relu_0_split_1
I0308 15:21:29.794119 30756 net.cpp:380] res2.2.sum_res2.2.relu_0_split -> res2.2.sum_res2.2.relu_0_split_2
I0308 15:21:29.794184 30756 net.cpp:122] Setting up res2.2.sum_res2.2.relu_0_split
I0308 15:21:29.794195 30756 net.cpp:129] Top shape: 1 64 128 256 (2097152)
I0308 15:21:29.794199 30756 net.cpp:129] Top shape: 1 64 128 256 (2097152)
I0308 15:21:29.794204 30756 net.cpp:129] Top shape: 1 64 128 256 (2097152)
I0308 15:21:29.794206 30756 net.cpp:137] Memory required for data: 427819008
I0308 15:21:29.794210 30756 layer_factory.hpp:77] Creating layer res3.1.conv1
I0308 15:21:29.794217 30756 net.cpp:84] Creating Layer res3.1.conv1
I0308 15:21:29.794220 30756 net.cpp:406] res3.1.conv1 <- res2.2.sum_res2.2.relu_0_split_0
I0308 15:21:29.794227 30756 net.cpp:380] res3.1.conv1 -> res3.1.conv1
I0308 15:21:29.796784 30756 net.cpp:122] Setting up res3.1.conv1
I0308 15:21:29.796802 30756 net.cpp:129] Top shape: 1 128 64 128 (1048576)
I0308 15:21:29.796805 30756 net.cpp:137] Memory required for data: 432013312
I0308 15:21:29.796813 30756 layer_factory.hpp:77] Creating layer res3.1.conv1/relu
I0308 15:21:29.796818 30756 net.cpp:84] Creating Layer res3.1.conv1/relu
I0308 15:21:29.796823 30756 net.cpp:406] res3.1.conv1/relu <- res3.1.conv1
I0308 15:21:29.796828 30756 net.cpp:367] res3.1.conv1/relu -> res3.1.conv1 (in-place)
I0308 15:21:29.797282 30756 net.cpp:122] Setting up res3.1.conv1/relu
I0308 15:21:29.797308 30756 net.cpp:129] Top shape: 1 128 64 128 (1048576)
I0308 15:21:29.797312 30756 net.cpp:137] Memory required for data: 436207616
I0308 15:21:29.797317 30756 layer_factory.hpp:77] Creating layer res3.1.conv2
I0308 15:21:29.797324 30756 net.cpp:84] Creating Layer res3.1.conv2
I0308 15:21:29.797328 30756 net.cpp:406] res3.1.conv2 <- res3.1.conv1
I0308 15:21:29.797335 30756 net.cpp:380] res3.1.conv2 -> res3.1.conv2
I0308 15:21:29.800081 30756 net.cpp:122] Setting up res3.1.conv2
I0308 15:21:29.800097 30756 net.cpp:129] Top shape: 1 128 64 128 (1048576)
I0308 15:21:29.800101 30756 net.cpp:137] Memory required for data: 440401920
I0308 15:21:29.800112 30756 layer_factory.hpp:77] Creating layer res3.1.skipConv
I0308 15:21:29.800122 30756 net.cpp:84] Creating Layer res3.1.skipConv
I0308 15:21:29.800125 30756 net.cpp:406] res3.1.skipConv <- res2.2.sum_res2.2.relu_0_split_1
I0308 15:21:29.800144 30756 net.cpp:380] res3.1.skipConv -> res3.1.skipConv
I0308 15:21:29.802022 30756 net.cpp:122] Setting up res3.1.skipConv
I0308 15:21:29.802039 30756 net.cpp:129] Top shape: 1 128 64 128 (1048576)
I0308 15:21:29.802043 30756 net.cpp:137] Memory required for data: 444596224
I0308 15:21:29.802050 30756 layer_factory.hpp:77] Creating layer res3.1.sum
I0308 15:21:29.802057 30756 net.cpp:84] Creating Layer res3.1.sum
I0308 15:21:29.802060 30756 net.cpp:406] res3.1.sum <- res3.1.conv2
I0308 15:21:29.802065 30756 net.cpp:406] res3.1.sum <- res3.1.skipConv
I0308 15:21:29.802070 30756 net.cpp:380] res3.1.sum -> res3.1.sum
I0308 15:21:29.802116 30756 net.cpp:122] Setting up res3.1.sum
I0308 15:21:29.802125 30756 net.cpp:129] Top shape: 1 128 64 128 (1048576)
I0308 15:21:29.802129 30756 net.cpp:137] Memory required for data: 448790528
I0308 15:21:29.802131 30756 layer_factory.hpp:77] Creating layer res3.1.relu
I0308 15:21:29.802139 30756 net.cpp:84] Creating Layer res3.1.relu
I0308 15:21:29.802142 30756 net.cpp:406] res3.1.relu <- res3.1.sum
I0308 15:21:29.802146 30756 net.cpp:367] res3.1.relu -> res3.1.sum (in-place)
I0308 15:21:29.802748 30756 net.cpp:122] Setting up res3.1.relu
I0308 15:21:29.802763 30756 net.cpp:129] Top shape: 1 128 64 128 (1048576)
I0308 15:21:29.802778 30756 net.cpp:137] Memory required for data: 452984832
I0308 15:21:29.802783 30756 layer_factory.hpp:77] Creating layer res3.1.sum_res3.1.relu_0_split
I0308 15:21:29.802788 30756 net.cpp:84] Creating Layer res3.1.sum_res3.1.relu_0_split
I0308 15:21:29.802803 30756 net.cpp:406] res3.1.sum_res3.1.relu_0_split <- res3.1.sum
I0308 15:21:29.802811 30756 net.cpp:380] res3.1.sum_res3.1.relu_0_split -> res3.1.sum_res3.1.relu_0_split_0
I0308 15:21:29.802819 30756 net.cpp:380] res3.1.sum_res3.1.relu_0_split -> res3.1.sum_res3.1.relu_0_split_1
I0308 15:21:29.802870 30756 net.cpp:122] Setting up res3.1.sum_res3.1.relu_0_split
I0308 15:21:29.802878 30756 net.cpp:129] Top shape: 1 128 64 128 (1048576)
I0308 15:21:29.802882 30756 net.cpp:129] Top shape: 1 128 64 128 (1048576)
I0308 15:21:29.802886 30756 net.cpp:137] Memory required for data: 461373440
I0308 15:21:29.802889 30756 layer_factory.hpp:77] Creating layer res3.2.conv1
I0308 15:21:29.802899 30756 net.cpp:84] Creating Layer res3.2.conv1
I0308 15:21:29.802903 30756 net.cpp:406] res3.2.conv1 <- res3.1.sum_res3.1.relu_0_split_0
I0308 15:21:29.802908 30756 net.cpp:380] res3.2.conv1 -> res3.2.conv1
I0308 15:21:29.805562 30756 net.cpp:122] Setting up res3.2.conv1
I0308 15:21:29.805589 30756 net.cpp:129] Top shape: 1 128 64 128 (1048576)
I0308 15:21:29.805593 30756 net.cpp:137] Memory required for data: 465567744
I0308 15:21:29.805600 30756 layer_factory.hpp:77] Creating layer res3.2.conv1/relu
I0308 15:21:29.805609 30756 net.cpp:84] Creating Layer res3.2.conv1/relu
I0308 15:21:29.805613 30756 net.cpp:406] res3.2.conv1/relu <- res3.2.conv1
I0308 15:21:29.805619 30756 net.cpp:367] res3.2.conv1/relu -> res3.2.conv1 (in-place)
I0308 15:21:29.806071 30756 net.cpp:122] Setting up res3.2.conv1/relu
I0308 15:21:29.806084 30756 net.cpp:129] Top shape: 1 128 64 128 (1048576)
I0308 15:21:29.806087 30756 net.cpp:137] Memory required for data: 469762048
I0308 15:21:29.806090 30756 layer_factory.hpp:77] Creating layer res3.2.conv2
I0308 15:21:29.806099 30756 net.cpp:84] Creating Layer res3.2.conv2
I0308 15:21:29.806103 30756 net.cpp:406] res3.2.conv2 <- res3.2.conv1
I0308 15:21:29.806110 30756 net.cpp:380] res3.2.conv2 -> res3.2.conv2
I0308 15:21:29.808699 30756 net.cpp:122] Setting up res3.2.conv2
I0308 15:21:29.808715 30756 net.cpp:129] Top shape: 1 128 64 128 (1048576)
I0308 15:21:29.808719 30756 net.cpp:137] Memory required for data: 473956352
I0308 15:21:29.808727 30756 layer_factory.hpp:77] Creating layer res3.2.sum
I0308 15:21:29.808734 30756 net.cpp:84] Creating Layer res3.2.sum
I0308 15:21:29.808739 30756 net.cpp:406] res3.2.sum <- res3.2.conv2
I0308 15:21:29.808743 30756 net.cpp:406] res3.2.sum <- res3.1.sum_res3.1.relu_0_split_1
I0308 15:21:29.808749 30756 net.cpp:380] res3.2.sum -> res3.2.sum
I0308 15:21:29.808799 30756 net.cpp:122] Setting up res3.2.sum
I0308 15:21:29.808807 30756 net.cpp:129] Top shape: 1 128 64 128 (1048576)
I0308 15:21:29.808810 30756 net.cpp:137] Memory required for data: 478150656
I0308 15:21:29.808814 30756 layer_factory.hpp:77] Creating layer res3.2.relu
I0308 15:21:29.808818 30756 net.cpp:84] Creating Layer res3.2.relu
I0308 15:21:29.808822 30756 net.cpp:406] res3.2.relu <- res3.2.sum
I0308 15:21:29.808828 30756 net.cpp:367] res3.2.relu -> res3.2.sum (in-place)
I0308 15:21:29.809439 30756 net.cpp:122] Setting up res3.2.relu
I0308 15:21:29.809466 30756 net.cpp:129] Top shape: 1 128 64 128 (1048576)
I0308 15:21:29.809470 30756 net.cpp:137] Memory required for data: 482344960
I0308 15:21:29.809474 30756 layer_factory.hpp:77] Creating layer res3.2.sum_res3.2.relu_0_split
I0308 15:21:29.809482 30756 net.cpp:84] Creating Layer res3.2.sum_res3.2.relu_0_split
I0308 15:21:29.809486 30756 net.cpp:406] res3.2.sum_res3.2.relu_0_split <- res3.2.sum
I0308 15:21:29.809494 30756 net.cpp:380] res3.2.sum_res3.2.relu_0_split -> res3.2.sum_res3.2.relu_0_split_0
I0308 15:21:29.809500 30756 net.cpp:380] res3.2.sum_res3.2.relu_0_split -> res3.2.sum_res3.2.relu_0_split_1
I0308 15:21:29.809505 30756 net.cpp:380] res3.2.sum_res3.2.relu_0_split -> res3.2.sum_res3.2.relu_0_split_2
I0308 15:21:29.809571 30756 net.cpp:122] Setting up res3.2.sum_res3.2.relu_0_split
I0308 15:21:29.809581 30756 net.cpp:129] Top shape: 1 128 64 128 (1048576)
I0308 15:21:29.809584 30756 net.cpp:129] Top shape: 1 128 64 128 (1048576)
I0308 15:21:29.809599 30756 net.cpp:129] Top shape: 1 128 64 128 (1048576)
I0308 15:21:29.809603 30756 net.cpp:137] Memory required for data: 494927872
I0308 15:21:29.809607 30756 layer_factory.hpp:77] Creating layer res4.1.conv1
I0308 15:21:29.809618 30756 net.cpp:84] Creating Layer res4.1.conv1
I0308 15:21:29.809623 30756 net.cpp:406] res4.1.conv1 <- res3.2.sum_res3.2.relu_0_split_0
I0308 15:21:29.809629 30756 net.cpp:380] res4.1.conv1 -> res4.1.conv1
I0308 15:21:29.812279 30756 net.cpp:122] Setting up res4.1.conv1
I0308 15:21:29.812295 30756 net.cpp:129] Top shape: 1 256 32 64 (524288)
I0308 15:21:29.812311 30756 net.cpp:137] Memory required for data: 497025024
I0308 15:21:29.812319 30756 layer_factory.hpp:77] Creating layer res4.1.conv1/relu
I0308 15:21:29.812325 30756 net.cpp:84] Creating Layer res4.1.conv1/relu
I0308 15:21:29.812330 30756 net.cpp:406] res4.1.conv1/relu <- res4.1.conv1
I0308 15:21:29.812336 30756 net.cpp:367] res4.1.conv1/relu -> res4.1.conv1 (in-place)
I0308 15:21:29.812948 30756 net.cpp:122] Setting up res4.1.conv1/relu
I0308 15:21:29.812963 30756 net.cpp:129] Top shape: 1 256 32 64 (524288)
I0308 15:21:29.812978 30756 net.cpp:137] Memory required for data: 499122176
I0308 15:21:29.812983 30756 layer_factory.hpp:77] Creating layer res4.1.conv2
I0308 15:21:29.812992 30756 net.cpp:84] Creating Layer res4.1.conv2
I0308 15:21:29.812997 30756 net.cpp:406] res4.1.conv2 <- res4.1.conv1
I0308 15:21:29.813002 30756 net.cpp:380] res4.1.conv2 -> res4.1.conv2
I0308 15:21:29.816198 30756 net.cpp:122] Setting up res4.1.conv2
I0308 15:21:29.816215 30756 net.cpp:129] Top shape: 1 256 32 64 (524288)
I0308 15:21:29.816220 30756 net.cpp:137] Memory required for data: 501219328
I0308 15:21:29.816226 30756 layer_factory.hpp:77] Creating layer res4.1.skipConv
I0308 15:21:29.816237 30756 net.cpp:84] Creating Layer res4.1.skipConv
I0308 15:21:29.816241 30756 net.cpp:406] res4.1.skipConv <- res3.2.sum_res3.2.relu_0_split_1
I0308 15:21:29.816247 30756 net.cpp:380] res4.1.skipConv -> res4.1.skipConv
I0308 15:21:29.818207 30756 net.cpp:122] Setting up res4.1.skipConv
I0308 15:21:29.818223 30756 net.cpp:129] Top shape: 1 256 32 64 (524288)
I0308 15:21:29.818226 30756 net.cpp:137] Memory required for data: 503316480
I0308 15:21:29.818233 30756 layer_factory.hpp:77] Creating layer res4.1.sum
I0308 15:21:29.818241 30756 net.cpp:84] Creating Layer res4.1.sum
I0308 15:21:29.818245 30756 net.cpp:406] res4.1.sum <- res4.1.conv2
I0308 15:21:29.818250 30756 net.cpp:406] res4.1.sum <- res4.1.skipConv
I0308 15:21:29.818255 30756 net.cpp:380] res4.1.sum -> res4.1.sum
I0308 15:21:29.818305 30756 net.cpp:122] Setting up res4.1.sum
I0308 15:21:29.818315 30756 net.cpp:129] Top shape: 1 256 32 64 (524288)
I0308 15:21:29.818317 30756 net.cpp:137] Memory required for data: 505413632
I0308 15:21:29.818321 30756 layer_factory.hpp:77] Creating layer res4.1.relu
I0308 15:21:29.818327 30756 net.cpp:84] Creating Layer res4.1.relu
I0308 15:21:29.818331 30756 net.cpp:406] res4.1.relu <- res4.1.sum
I0308 15:21:29.818336 30756 net.cpp:367] res4.1.relu -> res4.1.sum (in-place)
I0308 15:21:29.818784 30756 net.cpp:122] Setting up res4.1.relu
I0308 15:21:29.818814 30756 net.cpp:129] Top shape: 1 256 32 64 (524288)
I0308 15:21:29.818817 30756 net.cpp:137] Memory required for data: 507510784
I0308 15:21:29.818821 30756 layer_factory.hpp:77] Creating layer res4.1.sum_res4.1.relu_0_split
I0308 15:21:29.818827 30756 net.cpp:84] Creating Layer res4.1.sum_res4.1.relu_0_split
I0308 15:21:29.818831 30756 net.cpp:406] res4.1.sum_res4.1.relu_0_split <- res4.1.sum
I0308 15:21:29.818836 30756 net.cpp:380] res4.1.sum_res4.1.relu_0_split -> res4.1.sum_res4.1.relu_0_split_0
I0308 15:21:29.818842 30756 net.cpp:380] res4.1.sum_res4.1.relu_0_split -> res4.1.sum_res4.1.relu_0_split_1
I0308 15:21:29.818895 30756 net.cpp:122] Setting up res4.1.sum_res4.1.relu_0_split
I0308 15:21:29.818904 30756 net.cpp:129] Top shape: 1 256 32 64 (524288)
I0308 15:21:29.818908 30756 net.cpp:129] Top shape: 1 256 32 64 (524288)
I0308 15:21:29.818912 30756 net.cpp:137] Memory required for data: 511705088
I0308 15:21:29.818926 30756 layer_factory.hpp:77] Creating layer res4.2.conv1
I0308 15:21:29.818935 30756 net.cpp:84] Creating Layer res4.2.conv1
I0308 15:21:29.818939 30756 net.cpp:406] res4.2.conv1 <- res4.1.sum_res4.1.relu_0_split_0
I0308 15:21:29.818946 30756 net.cpp:380] res4.2.conv1 -> res4.2.conv1
I0308 15:21:29.823168 30756 net.cpp:122] Setting up res4.2.conv1
I0308 15:21:29.823185 30756 net.cpp:129] Top shape: 1 512 32 64 (1048576)
I0308 15:21:29.823201 30756 net.cpp:137] Memory required for data: 515899392
I0308 15:21:29.823210 30756 layer_factory.hpp:77] Creating layer res4.2.conv1/relu
I0308 15:21:29.823217 30756 net.cpp:84] Creating Layer res4.2.conv1/relu
I0308 15:21:29.823222 30756 net.cpp:406] res4.2.conv1/relu <- res4.2.conv1
I0308 15:21:29.823227 30756 net.cpp:367] res4.2.conv1/relu -> res4.2.conv1 (in-place)
I0308 15:21:29.824010 30756 net.cpp:122] Setting up res4.2.conv1/relu
I0308 15:21:29.824036 30756 net.cpp:129] Top shape: 1 512 32 64 (1048576)
I0308 15:21:29.824040 30756 net.cpp:137] Memory required for data: 520093696
I0308 15:21:29.824044 30756 layer_factory.hpp:77] Creating layer res4.2.conv2
I0308 15:21:29.824054 30756 net.cpp:84] Creating Layer res4.2.conv2
I0308 15:21:29.824059 30756 net.cpp:406] res4.2.conv2 <- res4.2.conv1
I0308 15:21:29.824065 30756 net.cpp:380] res4.2.conv2 -> res4.2.conv2
I0308 15:21:29.829831 30756 net.cpp:122] Setting up res4.2.conv2
I0308 15:21:29.829849 30756 net.cpp:129] Top shape: 1 512 32 64 (1048576)
I0308 15:21:29.829852 30756 net.cpp:137] Memory required for data: 524288000
I0308 15:21:29.829864 30756 layer_factory.hpp:77] Creating layer res4.2.skipConv
I0308 15:21:29.829875 30756 net.cpp:84] Creating Layer res4.2.skipConv
I0308 15:21:29.829879 30756 net.cpp:406] res4.2.skipConv <- res4.1.sum_res4.1.relu_0_split_1
I0308 15:21:29.829898 30756 net.cpp:380] res4.2.skipConv -> res4.2.skipConv
I0308 15:21:29.832372 30756 net.cpp:122] Setting up res4.2.skipConv
I0308 15:21:29.832389 30756 net.cpp:129] Top shape: 1 512 32 64 (1048576)
I0308 15:21:29.832393 30756 net.cpp:137] Memory required for data: 528482304
I0308 15:21:29.832399 30756 layer_factory.hpp:77] Creating layer res4.2.sum
I0308 15:21:29.832407 30756 net.cpp:84] Creating Layer res4.2.sum
I0308 15:21:29.832412 30756 net.cpp:406] res4.2.sum <- res4.2.conv2
I0308 15:21:29.832417 30756 net.cpp:406] res4.2.sum <- res4.2.skipConv
I0308 15:21:29.832422 30756 net.cpp:380] res4.2.sum -> res4.2.sum
I0308 15:21:29.832470 30756 net.cpp:122] Setting up res4.2.sum
I0308 15:21:29.832480 30756 net.cpp:129] Top shape: 1 512 32 64 (1048576)
I0308 15:21:29.832484 30756 net.cpp:137] Memory required for data: 532676608
I0308 15:21:29.832486 30756 layer_factory.hpp:77] Creating layer res4.2.relu
I0308 15:21:29.832492 30756 net.cpp:84] Creating Layer res4.2.relu
I0308 15:21:29.832495 30756 net.cpp:406] res4.2.relu <- res4.2.sum
I0308 15:21:29.832501 30756 net.cpp:367] res4.2.relu -> res4.2.sum (in-place)
I0308 15:21:29.832953 30756 net.cpp:122] Setting up res4.2.relu
I0308 15:21:29.832967 30756 net.cpp:129] Top shape: 1 512 32 64 (1048576)
I0308 15:21:29.832981 30756 net.cpp:137] Memory required for data: 536870912
I0308 15:21:29.832985 30756 layer_factory.hpp:77] Creating layer res4.2.sum_res4.2.relu_0_split
I0308 15:21:29.832993 30756 net.cpp:84] Creating Layer res4.2.sum_res4.2.relu_0_split
I0308 15:21:29.832998 30756 net.cpp:406] res4.2.sum_res4.2.relu_0_split <- res4.2.sum
I0308 15:21:29.833003 30756 net.cpp:380] res4.2.sum_res4.2.relu_0_split -> res4.2.sum_res4.2.relu_0_split_0
I0308 15:21:29.833009 30756 net.cpp:380] res4.2.sum_res4.2.relu_0_split -> res4.2.sum_res4.2.relu_0_split_1
I0308 15:21:29.833014 30756 net.cpp:380] res4.2.sum_res4.2.relu_0_split -> res4.2.sum_res4.2.relu_0_split_2
I0308 15:21:29.833019 30756 net.cpp:380] res4.2.sum_res4.2.relu_0_split -> res4.2.sum_res4.2.relu_0_split_3
I0308 15:21:29.833024 30756 net.cpp:380] res4.2.sum_res4.2.relu_0_split -> res4.2.sum_res4.2.relu_0_split_4
I0308 15:21:29.833122 30756 net.cpp:122] Setting up res4.2.sum_res4.2.relu_0_split
I0308 15:21:29.833129 30756 net.cpp:129] Top shape: 1 512 32 64 (1048576)
I0308 15:21:29.833145 30756 net.cpp:129] Top shape: 1 512 32 64 (1048576)
I0308 15:21:29.833150 30756 net.cpp:129] Top shape: 1 512 32 64 (1048576)
I0308 15:21:29.833154 30756 net.cpp:129] Top shape: 1 512 32 64 (1048576)
I0308 15:21:29.833158 30756 net.cpp:129] Top shape: 1 512 32 64 (1048576)
I0308 15:21:29.833160 30756 net.cpp:137] Memory required for data: 557842432
I0308 15:21:29.833164 30756 layer_factory.hpp:77] Creating layer psp.pool1
I0308 15:21:29.833171 30756 net.cpp:84] Creating Layer psp.pool1
I0308 15:21:29.833178 30756 net.cpp:406] psp.pool1 <- res4.2.sum_res4.2.relu_0_split_0
I0308 15:21:29.833182 30756 net.cpp:380] psp.pool1 -> psp.pool1
I0308 15:21:29.833853 30756 net.cpp:122] Setting up psp.pool1
I0308 15:21:29.833869 30756 net.cpp:129] Top shape: 1 512 1 2 (1024)
I0308 15:21:29.833885 30756 net.cpp:137] Memory required for data: 557846528
I0308 15:21:29.833889 30756 layer_factory.hpp:77] Creating layer psp.pool1.conv
I0308 15:21:29.833899 30756 net.cpp:84] Creating Layer psp.pool1.conv
I0308 15:21:29.833904 30756 net.cpp:406] psp.pool1.conv <- psp.pool1
I0308 15:21:29.833909 30756 net.cpp:380] psp.pool1.conv -> psp.pool1.conv
I0308 15:21:29.836005 30756 net.cpp:122] Setting up psp.pool1.conv
I0308 15:21:29.836035 30756 net.cpp:129] Top shape: 1 128 1 2 (256)
I0308 15:21:29.836038 30756 net.cpp:137] Memory required for data: 557847552
I0308 15:21:29.836045 30756 layer_factory.hpp:77] Creating layer psp.pool1.conv/relu
I0308 15:21:29.836052 30756 net.cpp:84] Creating Layer psp.pool1.conv/relu
I0308 15:21:29.836056 30756 net.cpp:406] psp.pool1.conv/relu <- psp.pool1.conv
I0308 15:21:29.836061 30756 net.cpp:367] psp.pool1.conv/relu -> psp.pool1.conv (in-place)
I0308 15:21:29.836686 30756 net.cpp:122] Setting up psp.pool1.conv/relu
I0308 15:21:29.836701 30756 net.cpp:129] Top shape: 1 128 1 2 (256)
I0308 15:21:29.836705 30756 net.cpp:137] Memory required for data: 557848576
I0308 15:21:29.836709 30756 layer_factory.hpp:77] Creating layer psp.pool1.interp
I0308 15:21:29.836719 30756 net.cpp:84] Creating Layer psp.pool1.interp
I0308 15:21:29.836722 30756 net.cpp:406] psp.pool1.interp <- psp.pool1.conv
I0308 15:21:29.836728 30756 net.cpp:380] psp.pool1.interp -> psp.pool1.interp
I0308 15:21:29.836783 30756 net.cpp:122] Setting up psp.pool1.interp
I0308 15:21:29.836792 30756 net.cpp:129] Top shape: 1 128 32 64 (262144)
I0308 15:21:29.836796 30756 net.cpp:137] Memory required for data: 558897152
I0308 15:21:29.836798 30756 layer_factory.hpp:77] Creating layer psp.pool2
I0308 15:21:29.836805 30756 net.cpp:84] Creating Layer psp.pool2
I0308 15:21:29.836808 30756 net.cpp:406] psp.pool2 <- res4.2.sum_res4.2.relu_0_split_1
I0308 15:21:29.836815 30756 net.cpp:380] psp.pool2 -> psp.pool2
I0308 15:21:29.837290 30756 net.cpp:122] Setting up psp.pool2
I0308 15:21:29.837302 30756 net.cpp:129] Top shape: 1 512 2 4 (4096)
I0308 15:21:29.837317 30756 net.cpp:137] Memory required for data: 558913536
I0308 15:21:29.837321 30756 layer_factory.hpp:77] Creating layer psp.pool2.conv
I0308 15:21:29.837330 30756 net.cpp:84] Creating Layer psp.pool2.conv
I0308 15:21:29.837334 30756 net.cpp:406] psp.pool2.conv <- psp.pool2
I0308 15:21:29.837340 30756 net.cpp:380] psp.pool2.conv -> psp.pool2.conv
I0308 15:21:29.839404 30756 net.cpp:122] Setting up psp.pool2.conv
I0308 15:21:29.839433 30756 net.cpp:129] Top shape: 1 128 2 4 (1024)
I0308 15:21:29.839437 30756 net.cpp:137] Memory required for data: 558917632
I0308 15:21:29.839444 30756 layer_factory.hpp:77] Creating layer psp.pool2.conv/relu
I0308 15:21:29.839452 30756 net.cpp:84] Creating Layer psp.pool2.conv/relu
I0308 15:21:29.839455 30756 net.cpp:406] psp.pool2.conv/relu <- psp.pool2.conv
I0308 15:21:29.839460 30756 net.cpp:367] psp.pool2.conv/relu -> psp.pool2.conv (in-place)
I0308 15:21:29.840097 30756 net.cpp:122] Setting up psp.pool2.conv/relu
I0308 15:21:29.840113 30756 net.cpp:129] Top shape: 1 128 2 4 (1024)
I0308 15:21:29.840116 30756 net.cpp:137] Memory required for data: 558921728
I0308 15:21:29.840121 30756 layer_factory.hpp:77] Creating layer psp.pool2.interp
I0308 15:21:29.840138 30756 net.cpp:84] Creating Layer psp.pool2.interp
I0308 15:21:29.840143 30756 net.cpp:406] psp.pool2.interp <- psp.pool2.conv
I0308 15:21:29.840162 30756 net.cpp:380] psp.pool2.interp -> psp.pool2.interp
I0308 15:21:29.840203 30756 net.cpp:122] Setting up psp.pool2.interp
I0308 15:21:29.840211 30756 net.cpp:129] Top shape: 1 128 32 64 (262144)
I0308 15:21:29.840214 30756 net.cpp:137] Memory required for data: 559970304
I0308 15:21:29.840217 30756 layer_factory.hpp:77] Creating layer psp.pool3
I0308 15:21:29.840225 30756 net.cpp:84] Creating Layer psp.pool3
I0308 15:21:29.840229 30756 net.cpp:406] psp.pool3 <- res4.2.sum_res4.2.relu_0_split_2
I0308 15:21:29.840235 30756 net.cpp:380] psp.pool3 -> psp.pool3
I0308 15:21:29.840710 30756 net.cpp:122] Setting up psp.pool3
I0308 15:21:29.840723 30756 net.cpp:129] Top shape: 1 512 4 8 (16384)
I0308 15:21:29.840741 30756 net.cpp:137] Memory required for data: 560035840
I0308 15:21:29.840744 30756 layer_factory.hpp:77] Creating layer psp.pool3.conv
I0308 15:21:29.840752 30756 net.cpp:84] Creating Layer psp.pool3.conv
I0308 15:21:29.840756 30756 net.cpp:406] psp.pool3.conv <- psp.pool3
I0308 15:21:29.840764 30756 net.cpp:380] psp.pool3.conv -> psp.pool3.conv
I0308 15:21:29.843340 30756 net.cpp:122] Setting up psp.pool3.conv
I0308 15:21:29.843359 30756 net.cpp:129] Top shape: 1 128 4 8 (4096)
I0308 15:21:29.843364 30756 net.cpp:137] Memory required for data: 560052224
I0308 15:21:29.843371 30756 layer_factory.hpp:77] Creating layer psp.pool3.conv/relu
I0308 15:21:29.843389 30756 net.cpp:84] Creating Layer psp.pool3.conv/relu
I0308 15:21:29.843394 30756 net.cpp:406] psp.pool3.conv/relu <- psp.pool3.conv
I0308 15:21:29.843400 30756 net.cpp:367] psp.pool3.conv/relu -> psp.pool3.conv (in-place)
I0308 15:21:29.844043 30756 net.cpp:122] Setting up psp.pool3.conv/relu
I0308 15:21:29.844058 30756 net.cpp:129] Top shape: 1 128 4 8 (4096)
I0308 15:21:29.844063 30756 net.cpp:137] Memory required for data: 560068608
I0308 15:21:29.844066 30756 layer_factory.hpp:77] Creating layer psp.pool3.interp
I0308 15:21:29.844072 30756 net.cpp:84] Creating Layer psp.pool3.interp
I0308 15:21:29.844076 30756 net.cpp:406] psp.pool3.interp <- psp.pool3.conv
I0308 15:21:29.844084 30756 net.cpp:380] psp.pool3.interp -> psp.pool3.interp
I0308 15:21:29.844135 30756 net.cpp:122] Setting up psp.pool3.interp
I0308 15:21:29.844143 30756 net.cpp:129] Top shape: 1 128 32 64 (262144)
I0308 15:21:29.844146 30756 net.cpp:137] Memory required for data: 561117184
I0308 15:21:29.844149 30756 layer_factory.hpp:77] Creating layer psp.pool4
I0308 15:21:29.844156 30756 net.cpp:84] Creating Layer psp.pool4
I0308 15:21:29.844161 30756 net.cpp:406] psp.pool4 <- res4.2.sum_res4.2.relu_0_split_3
I0308 15:21:29.844166 30756 net.cpp:380] psp.pool4 -> psp.pool4
I0308 15:21:29.844812 30756 net.cpp:122] Setting up psp.pool4
I0308 15:21:29.844827 30756 net.cpp:129] Top shape: 1 512 8 16 (65536)
I0308 15:21:29.844830 30756 net.cpp:137] Memory required for data: 561379328
I0308 15:21:29.844835 30756 layer_factory.hpp:77] Creating layer psp.pool4.conv
I0308 15:21:29.844841 30756 net.cpp:84] Creating Layer psp.pool4.conv
I0308 15:21:29.844846 30756 net.cpp:406] psp.pool4.conv <- psp.pool4
I0308 15:21:29.844852 30756 net.cpp:380] psp.pool4.conv -> psp.pool4.conv
I0308 15:21:29.847019 30756 net.cpp:122] Setting up psp.pool4.conv
I0308 15:21:29.847034 30756 net.cpp:129] Top shape: 1 128 8 16 (16384)
I0308 15:21:29.847038 30756 net.cpp:137] Memory required for data: 561444864
I0308 15:21:29.847046 30756 layer_factory.hpp:77] Creating layer psp.pool4.conv/relu
I0308 15:21:29.847071 30756 net.cpp:84] Creating Layer psp.pool4.conv/relu
I0308 15:21:29.847077 30756 net.cpp:406] psp.pool4.conv/relu <- psp.pool4.conv
I0308 15:21:29.847084 30756 net.cpp:367] psp.pool4.conv/relu -> psp.pool4.conv (in-place)
I0308 15:21:29.847625 30756 net.cpp:122] Setting up psp.pool4.conv/relu
I0308 15:21:29.847638 30756 net.cpp:129] Top shape: 1 128 8 16 (16384)
I0308 15:21:29.847641 30756 net.cpp:137] Memory required for data: 561510400
I0308 15:21:29.847656 30756 layer_factory.hpp:77] Creating layer psp.pool4.interp
I0308 15:21:29.847662 30756 net.cpp:84] Creating Layer psp.pool4.interp
I0308 15:21:29.847666 30756 net.cpp:406] psp.pool4.interp <- psp.pool4.conv
I0308 15:21:29.847673 30756 net.cpp:380] psp.pool4.interp -> psp.pool4.interp
I0308 15:21:29.847728 30756 net.cpp:122] Setting up psp.pool4.interp
I0308 15:21:29.847738 30756 net.cpp:129] Top shape: 1 128 32 64 (262144)
I0308 15:21:29.847741 30756 net.cpp:137] Memory required for data: 562558976
I0308 15:21:29.847744 30756 layer_factory.hpp:77] Creating layer psp.concat
I0308 15:21:29.847751 30756 net.cpp:84] Creating Layer psp.concat
I0308 15:21:29.847755 30756 net.cpp:406] psp.concat <- res4.2.sum_res4.2.relu_0_split_4
I0308 15:21:29.847759 30756 net.cpp:406] psp.concat <- psp.pool1.interp
I0308 15:21:29.847764 30756 net.cpp:406] psp.concat <- psp.pool2.interp
I0308 15:21:29.847769 30756 net.cpp:406] psp.concat <- psp.pool3.interp
I0308 15:21:29.847771 30756 net.cpp:406] psp.concat <- psp.pool4.interp
I0308 15:21:29.847776 30756 net.cpp:380] psp.concat -> psp.concat
I0308 15:21:29.847812 30756 net.cpp:122] Setting up psp.concat
I0308 15:21:29.847820 30756 net.cpp:129] Top shape: 1 1024 32 64 (2097152)
I0308 15:21:29.847823 30756 net.cpp:137] Memory required for data: 570947584
I0308 15:21:29.847826 30756 layer_factory.hpp:77] Creating layer psp.concat.conv
I0308 15:21:29.847836 30756 net.cpp:84] Creating Layer psp.concat.conv
I0308 15:21:29.847839 30756 net.cpp:406] psp.concat.conv <- psp.concat
I0308 15:21:29.847846 30756 net.cpp:380] psp.concat.conv -> psp.concat.conv
I0308 15:21:29.857384 30756 net.cpp:122] Setting up psp.concat.conv
I0308 15:21:29.857417 30756 net.cpp:129] Top shape: 1 512 32 64 (1048576)
I0308 15:21:29.857421 30756 net.cpp:137] Memory required for data: 575141888
I0308 15:21:29.857429 30756 layer_factory.hpp:77] Creating layer psp.concat.conv/relu
I0308 15:21:29.857444 30756 net.cpp:84] Creating Layer psp.concat.conv/relu
I0308 15:21:29.857448 30756 net.cpp:406] psp.concat.conv/relu <- psp.concat.conv
I0308 15:21:29.857455 30756 net.cpp:367] psp.concat.conv/relu -> psp.concat.conv (in-place)
I0308 15:21:29.858083 30756 net.cpp:122] Setting up psp.concat.conv/relu
I0308 15:21:29.858109 30756 net.cpp:129] Top shape: 1 512 32 64 (1048576)
I0308 15:21:29.858114 30756 net.cpp:137] Memory required for data: 579336192
I0308 15:21:29.858117 30756 layer_factory.hpp:77] Creating layer Decoder_wc3
I0308 15:21:29.858127 30756 net.cpp:84] Creating Layer Decoder_wc3
I0308 15:21:29.858131 30756 net.cpp:406] Decoder_wc3 <- res2.2.sum_res2.2.relu_0_split_2
I0308 15:21:29.858139 30756 net.cpp:380] Decoder_wc3 -> Decoder_wc3
I0308 15:21:29.860323 30756 net.cpp:122] Setting up Decoder_wc3
I0308 15:21:29.860339 30756 net.cpp:129] Top shape: 1 32 128 256 (1048576)
I0308 15:21:29.860343 30756 net.cpp:137] Memory required for data: 583530496
I0308 15:21:29.860350 30756 layer_factory.hpp:77] Creating layer Decoder_wc3/relu
I0308 15:21:29.860357 30756 net.cpp:84] Creating Layer Decoder_wc3/relu
I0308 15:21:29.860363 30756 net.cpp:406] Decoder_wc3/relu <- Decoder_wc3
I0308 15:21:29.860368 30756 net.cpp:367] Decoder_wc3/relu -> Decoder_wc3 (in-place)
I0308 15:21:29.860849 30756 net.cpp:122] Setting up Decoder_wc3/relu
I0308 15:21:29.860862 30756 net.cpp:129] Top shape: 1 32 128 256 (1048576)
I0308 15:21:29.860865 30756 net.cpp:137] Memory required for data: 587724800
I0308 15:21:29.860868 30756 layer_factory.hpp:77] Creating layer Decoder_wc4
I0308 15:21:29.860877 30756 net.cpp:84] Creating Layer Decoder_wc4
I0308 15:21:29.860882 30756 net.cpp:406] Decoder_wc4 <- res3.2.sum_res3.2.relu_0_split_2
I0308 15:21:29.860888 30756 net.cpp:380] Decoder_wc4 -> Decoder_wc4
I0308 15:21:29.862915 30756 net.cpp:122] Setting up Decoder_wc4
I0308 15:21:29.862931 30756 net.cpp:129] Top shape: 1 32 64 128 (262144)
I0308 15:21:29.862936 30756 net.cpp:137] Memory required for data: 588773376
I0308 15:21:29.862941 30756 layer_factory.hpp:77] Creating layer Decoder_wc4/relu
I0308 15:21:29.862948 30756 net.cpp:84] Creating Layer Decoder_wc4/relu
I0308 15:21:29.862963 30756 net.cpp:406] Decoder_wc4/relu <- Decoder_wc4
I0308 15:21:29.862983 30756 net.cpp:367] Decoder_wc4/relu -> Decoder_wc4 (in-place)
I0308 15:21:29.863680 30756 net.cpp:122] Setting up Decoder_wc4/relu
I0308 15:21:29.863696 30756 net.cpp:129] Top shape: 1 32 64 128 (262144)
I0308 15:21:29.863699 30756 net.cpp:137] Memory required for data: 589821952
I0308 15:21:29.863703 30756 layer_factory.hpp:77] Creating layer Decoder_wc5
I0308 15:21:29.863713 30756 net.cpp:84] Creating Layer Decoder_wc5
I0308 15:21:29.863718 30756 net.cpp:406] Decoder_wc5 <- psp.concat.conv
I0308 15:21:29.863723 30756 net.cpp:380] Decoder_wc5 -> Decoder_wc5
I0308 15:21:29.866344 30756 net.cpp:122] Setting up Decoder_wc5
I0308 15:21:29.866361 30756 net.cpp:129] Top shape: 1 512 32 64 (1048576)
I0308 15:21:29.866366 30756 net.cpp:137] Memory required for data: 594016256
I0308 15:21:29.866372 30756 layer_factory.hpp:77] Creating layer Decoder_wc5/relu
I0308 15:21:29.866379 30756 net.cpp:84] Creating Layer Decoder_wc5/relu
I0308 15:21:29.866384 30756 net.cpp:406] Decoder_wc5/relu <- Decoder_wc5
I0308 15:21:29.866389 30756 net.cpp:367] Decoder_wc5/relu -> Decoder_wc5 (in-place)
I0308 15:21:29.867039 30756 net.cpp:122] Setting up Decoder_wc5/relu
I0308 15:21:29.867059 30756 net.cpp:129] Top shape: 1 512 32 64 (1048576)
I0308 15:21:29.867064 30756 net.cpp:137] Memory required for data: 598210560
I0308 15:21:29.867079 30756 layer_factory.hpp:77] Creating layer Decoder4_4.proj
I0308 15:21:29.867090 30756 net.cpp:84] Creating Layer Decoder4_4.proj
I0308 15:21:29.867095 30756 net.cpp:406] Decoder4_4.proj <- Decoder_wc5
I0308 15:21:29.867112 30756 net.cpp:380] Decoder4_4.proj -> Decoder4_4.proj
I0308 15:21:29.869181 30756 net.cpp:122] Setting up Decoder4_4.proj
I0308 15:21:29.869197 30756 net.cpp:129] Top shape: 1 32 32 64 (65536)
I0308 15:21:29.869200 30756 net.cpp:137] Memory required for data: 598472704
I0308 15:21:29.869207 30756 layer_factory.hpp:77] Creating layer Decoder4_4.proj/relu
I0308 15:21:29.869215 30756 net.cpp:84] Creating Layer Decoder4_4.proj/relu
I0308 15:21:29.869218 30756 net.cpp:406] Decoder4_4.proj/relu <- Decoder4_4.proj
I0308 15:21:29.869225 30756 net.cpp:367] Decoder4_4.proj/relu -> Decoder4_4.proj (in-place)
I0308 15:21:29.869704 30756 net.cpp:122] Setting up Decoder4_4.proj/relu
I0308 15:21:29.869719 30756 net.cpp:129] Top shape: 1 32 32 64 (65536)
I0308 15:21:29.869732 30756 net.cpp:137] Memory required for data: 598734848
I0308 15:21:29.869736 30756 layer_factory.hpp:77] Creating layer Decoder4_4.proj/up2
I0308 15:21:29.869747 30756 net.cpp:84] Creating Layer Decoder4_4.proj/up2
I0308 15:21:29.869752 30756 net.cpp:406] Decoder4_4.proj/up2 <- Decoder4_4.proj
I0308 15:21:29.869760 30756 net.cpp:380] Decoder4_4.proj/up2 -> Decoder4_4.proj/up2
I0308 15:21:29.923595 30756 net.cpp:122] Setting up Decoder4_4.proj/up2
I0308 15:21:29.923616 30756 net.cpp:129] Top shape: 1 32 64 128 (262144)
I0308 15:21:29.923620 30756 net.cpp:137] Memory required for data: 599783424
I0308 15:21:29.923626 30756 layer_factory.hpp:77] Creating layer Decoder4_4.concat
I0308 15:21:29.923633 30756 net.cpp:84] Creating Layer Decoder4_4.concat
I0308 15:21:29.923638 30756 net.cpp:406] Decoder4_4.concat <- Decoder_wc4
I0308 15:21:29.923643 30756 net.cpp:406] Decoder4_4.concat <- Decoder4_4.proj/up2
I0308 15:21:29.923648 30756 net.cpp:380] Decoder4_4.concat -> Decoder4_4.concat
I0308 15:21:29.923708 30756 net.cpp:122] Setting up Decoder4_4.concat
I0308 15:21:29.923718 30756 net.cpp:129] Top shape: 1 64 64 128 (524288)
I0308 15:21:29.923722 30756 net.cpp:137] Memory required for data: 601880576
I0308 15:21:29.923724 30756 layer_factory.hpp:77] Creating layer Decoder4_4.conv1
I0308 15:21:29.923733 30756 net.cpp:84] Creating Layer Decoder4_4.conv1
I0308 15:21:29.923738 30756 net.cpp:406] Decoder4_4.conv1 <- Decoder4_4.concat
I0308 15:21:29.923743 30756 net.cpp:380] Decoder4_4.conv1 -> Decoder4_4.conv1
I0308 15:21:29.925958 30756 net.cpp:122] Setting up Decoder4_4.conv1
I0308 15:21:29.925976 30756 net.cpp:129] Top shape: 1 32 64 128 (262144)
I0308 15:21:29.925990 30756 net.cpp:137] Memory required for data: 602929152
I0308 15:21:29.925999 30756 layer_factory.hpp:77] Creating layer Decoder4_4.conv1/relu
I0308 15:21:29.926007 30756 net.cpp:84] Creating Layer Decoder4_4.conv1/relu
I0308 15:21:29.926023 30756 net.cpp:406] Decoder4_4.conv1/relu <- Decoder4_4.conv1
I0308 15:21:29.926028 30756 net.cpp:367] Decoder4_4.conv1/relu -> Decoder4_4.conv1 (in-place)
I0308 15:21:29.926692 30756 net.cpp:122] Setting up Decoder4_4.conv1/relu
I0308 15:21:29.926707 30756 net.cpp:129] Top shape: 1 32 64 128 (262144)
I0308 15:21:29.926710 30756 net.cpp:137] Memory required for data: 603977728
I0308 15:21:29.926714 30756 layer_factory.hpp:77] Creating layer Decoder3_3.proj
I0308 15:21:29.926723 30756 net.cpp:84] Creating Layer Decoder3_3.proj
I0308 15:21:29.926728 30756 net.cpp:406] Decoder3_3.proj <- Decoder4_4.conv1
I0308 15:21:29.926735 30756 net.cpp:380] Decoder3_3.proj -> Decoder3_3.proj
I0308 15:21:29.928920 30756 net.cpp:122] Setting up Decoder3_3.proj
I0308 15:21:29.928937 30756 net.cpp:129] Top shape: 1 32 64 128 (262144)
I0308 15:21:29.928941 30756 net.cpp:137] Memory required for data: 605026304
I0308 15:21:29.928947 30756 layer_factory.hpp:77] Creating layer Decoder3_3.proj/relu
I0308 15:21:29.928953 30756 net.cpp:84] Creating Layer Decoder3_3.proj/relu
I0308 15:21:29.928958 30756 net.cpp:406] Decoder3_3.proj/relu <- Decoder3_3.proj
I0308 15:21:29.928966 30756 net.cpp:367] Decoder3_3.proj/relu -> Decoder3_3.proj (in-place)
I0308 15:21:29.929457 30756 net.cpp:122] Setting up Decoder3_3.proj/relu
I0308 15:21:29.929471 30756 net.cpp:129] Top shape: 1 32 64 128 (262144)
I0308 15:21:29.929473 30756 net.cpp:137] Memory required for data: 606074880
I0308 15:21:29.929476 30756 layer_factory.hpp:77] Creating layer Decoder3_3.proj/up2
I0308 15:21:29.929486 30756 net.cpp:84] Creating Layer Decoder3_3.proj/up2
I0308 15:21:29.929491 30756 net.cpp:406] Decoder3_3.proj/up2 <- Decoder3_3.proj
I0308 15:21:29.929497 30756 net.cpp:380] Decoder3_3.proj/up2 -> Decoder3_3.proj/up2
I0308 15:21:29.985915 30756 net.cpp:122] Setting up Decoder3_3.proj/up2
I0308 15:21:29.985935 30756 net.cpp:129] Top shape: 1 32 128 256 (1048576)
I0308 15:21:29.985939 30756 net.cpp:137] Memory required for data: 610269184
I0308 15:21:29.985945 30756 layer_factory.hpp:77] Creating layer Decoder3_3.concat
I0308 15:21:29.985952 30756 net.cpp:84] Creating Layer Decoder3_3.concat
I0308 15:21:29.985956 30756 net.cpp:406] Decoder3_3.concat <- Decoder_wc3
I0308 15:21:29.985961 30756 net.cpp:406] Decoder3_3.concat <- Decoder3_3.proj/up2
I0308 15:21:29.985967 30756 net.cpp:380] Decoder3_3.concat -> Decoder3_3.concat
I0308 15:21:29.986032 30756 net.cpp:122] Setting up Decoder3_3.concat
I0308 15:21:29.986042 30756 net.cpp:129] Top shape: 1 64 128 256 (2097152)
I0308 15:21:29.986045 30756 net.cpp:137] Memory required for data: 618657792
I0308 15:21:29.986048 30756 layer_factory.hpp:77] Creating layer Decoder3_3.conv1
I0308 15:21:29.986057 30756 net.cpp:84] Creating Layer Decoder3_3.conv1
I0308 15:21:29.986063 30756 net.cpp:406] Decoder3_3.conv1 <- Decoder3_3.concat
I0308 15:21:29.986068 30756 net.cpp:380] Decoder3_3.conv1 -> Decoder3_3.conv1
I0308 15:21:29.988570 30756 net.cpp:122] Setting up Decoder3_3.conv1
I0308 15:21:29.988598 30756 net.cpp:129] Top shape: 1 32 128 256 (1048576)
I0308 15:21:29.988602 30756 net.cpp:137] Memory required for data: 622852096
I0308 15:21:29.988610 30756 layer_factory.hpp:77] Creating layer Decoder3_3.conv1/relu
I0308 15:21:29.988616 30756 net.cpp:84] Creating Layer Decoder3_3.conv1/relu
I0308 15:21:29.988620 30756 net.cpp:406] Decoder3_3.conv1/relu <- Decoder3_3.conv1
I0308 15:21:29.988627 30756 net.cpp:367] Decoder3_3.conv1/relu -> Decoder3_3.conv1 (in-place)
I0308 15:21:29.989315 30756 net.cpp:122] Setting up Decoder3_3.conv1/relu
I0308 15:21:29.989342 30756 net.cpp:129] Top shape: 1 32 128 256 (1048576)
I0308 15:21:29.989346 30756 net.cpp:137] Memory required for data: 627046400
I0308 15:21:29.989351 30756 layer_factory.hpp:77] Creating layer Decoder_score
I0308 15:21:29.989372 30756 net.cpp:84] Creating Layer Decoder_score
I0308 15:21:29.989377 30756 net.cpp:406] Decoder_score <- Decoder3_3.conv1
I0308 15:21:29.989383 30756 net.cpp:380] Decoder_score -> Decoder_score
I0308 15:21:29.992236 30756 net.cpp:122] Setting up Decoder_score
I0308 15:21:29.992252 30756 net.cpp:129] Top shape: 1 19 128 256 (622592)
I0308 15:21:29.992269 30756 net.cpp:137] Memory required for data: 629536768
I0308 15:21:29.992275 30756 layer_factory.hpp:77] Creating layer Decoder_score.up8
I0308 15:21:29.992286 30756 net.cpp:84] Creating Layer Decoder_score.up8
I0308 15:21:29.992291 30756 net.cpp:406] Decoder_score.up8 <- Decoder_score
I0308 15:21:29.992300 30756 net.cpp:380] Decoder_score.up8 -> Decoder_score.up8
I0308 15:21:30.027038 30756 net.cpp:122] Setting up Decoder_score.up8
I0308 15:21:30.027061 30756 net.cpp:129] Top shape: 1 19 1024 2048 (39845888)
I0308 15:21:30.027066 30756 net.cpp:137] Memory required for data: 788920320
I0308 15:21:30.027082 30756 net.cpp:200] Decoder_score.up8 does not need backward computation.
I0308 15:21:30.027091 30756 net.cpp:200] Decoder_score does not need backward computation.
I0308 15:21:30.027107 30756 net.cpp:200] Decoder3_3.conv1/relu does not need backward computation.
I0308 15:21:30.027109 30756 net.cpp:200] Decoder3_3.conv1 does not need backward computation.
…
