…
I0309 16:04:48.820672  2861 caffe.cpp:270] GPU device name: GeForce GTX 1080 Ti
I0309 16:04:49.168215  2861 net.cpp:51] Initializing net from parameters: 
state {
  phase: TEST
  level: 0
  stage: ""
}
layer {
  name: "data"
  type: "ImageData"
  top: "data"
  top: "label"
  include {
    phase: TEST
  }
  transform_param {
    scale: 0.008
    mirror: false
    crop_size: 224
    mean_value: 104
    mean_value: 117
    mean_value: 123
  }
  image_data_param {
    source: "/home/vip/dataset/imagenet/ILSVRC2012_val_256xN_list.txt"
    batch_size: 100
    shuffle: false
  }
}
layer {
  name: "conv1"
  type: "Convolution"
  bottom: "data"
  top: "conv1"
  convolution_param {
    num_output: 32
    bias_term: false
    pad: 1
    kernel_size: 3
    stride: 2
  }
}
layer {
  name: "conv1/bn"
  type: "BatchNorm"
  bottom: "conv1"
  top: "conv1/bn"
  batch_norm_param {
    moving_average_fraction: 0.9
    eps: 0.0001
  }
}
layer {
  name: "conv1/bn_scale"
  type: "Scale"
  bottom: "conv1/bn"
  top: "conv1/bn"
  scale_param {
    bias_term: true
  }
}
layer {
  name: "conv1/relu"
  type: "ReLU"
  bottom: "conv1/bn"
  top: "conv1/bn"
}
layer {
  name: "conv2"
  type: "Convolution"
  bottom: "conv1/bn"
  top: "conv2"
  convolution_param {
    num_output: 64
    bias_term: false
    pad: 1
    kernel_size: 3
    stride: 2
  }
}
layer {
  name: "conv2/bn"
  type: "BatchNorm"
  bottom: "conv2"
  top: "conv2/bn"
  batch_norm_param {
    moving_average_fraction: 0.9
    eps: 0.0001
  }
}
layer {
  name: "conv2/bn_scale"
  type: "Scale"
  bottom: "conv2/bn"
  top: "conv2/bn"
  scale_param {
    bias_term: true
  }
}
layer {
  name: "conv2/relu"
  type: "ReLU"
  bottom: "conv2/bn"
  top: "conv2/bn"
}
layer {
  name: "res2.1.conv1"
  type: "Convolution"
  bottom: "conv2/bn"
  top: "res2.1.conv1"
  convolution_param {
    num_output: 64
    bias_term: false
    pad: 1
    kernel_size: 3
    stride: 2
  }
}
layer {
  name: "res2.1.conv1/bn"
  type: "BatchNorm"
  bottom: "res2.1.conv1"
  top: "res2.1.conv1/bn"
  batch_norm_param {
    moving_average_fraction: 0.9
    eps: 0.0001
  }
}
layer {
  name: "res2.1.conv1/bn_scale"
  type: "Scale"
  bottom: "res2.1.conv1/bn"
  top: "res2.1.conv1/bn"
  scale_param {
    bias_term: true
  }
}
layer {
  name: "res2.1.conv1/relu"
  type: "ReLU"
  bottom: "res2.1.conv1/bn"
  top: "res2.1.conv1/bn"
}
layer {
  name: "res2.1.conv2"
  type: "Convolution"
  bottom: "res2.1.conv1/bn"
  top: "res2.1.conv2"
  convolution_param {
    num_output: 64
    bias_term: false
    pad: 1
    kernel_size: 3
    stride: 1
  }
}
layer {
  name: "res2.1.conv2/bn"
  type: "BatchNorm"
  bottom: "res2.1.conv2"
  top: "res2.1.conv2/bn"
  batch_norm_param {
    moving_average_fraction: 0.9
    eps: 0.0001
  }
}
layer {
  name: "res2.1.conv2/bn_scale"
  type: "Scale"
  bottom: "res2.1.conv2/bn"
  top: "res2.1.conv2/bn"
  scale_param {
    bias_term: true
  }
}
layer {
  name: "res2.1.skipConv"
  type: "Convolution"
  bottom: "conv2/bn"
  top: "res2.1.skipConv"
  convolution_param {
    num_output: 64
    bias_term: false
    pad: 0
    kernel_size: 1
    stride: 2
  }
}
layer {
  name: "res2.1skipConv/bn"
  type: "BatchNorm"
  bottom: "res2.1.skipConv"
  top: "res2.1.skipConv/bn"
  batch_norm_param {
    moving_average_fraction: 0.9
    eps: 0.0001
  }
}
layer {
  name: "res2.1skipConv/bn_scale"
  type: "Scale"
  bottom: "res2.1.skipConv/bn"
  top: "res2.1.skipConv/bn"
  scale_param {
    bias_term: true
  }
}
layer {
  name: "res2.1.sum"
  type: "Eltwise"
  bottom: "res2.1.conv2/bn"
  bottom: "res2.1.skipConv/bn"
  top: "res2.1.sum"
  eltwise_param {
    operation: SUM
  }
}
layer {
  name: "res2.1.relu"
  type: "ReLU"
  bottom: "res2.1.sum"
  top: "res2.1.sum"
}
layer {
  name: "res2.2.conv1"
  type: "Convolution"
  bottom: "res2.1.sum"
  top: "res2.2.conv1"
  convolution_param {
    num_output: 64
    bias_term: false
    pad: 1
    kernel_size: 3
    stride: 1
  }
}
layer {
  name: "res2.2.conv1/bn"
  type: "BatchNorm"
  bottom: "res2.2.conv1"
  top: "res2.2.conv1/bn"
  batch_norm_param {
    moving_average_fraction: 0.9
    eps: 0.0001
  }
}
layer {
  name: "res2.2.conv1/bn_scale"
  type: "Scale"
  bottom: "res2.2.conv1/bn"
  top: "res2.2.conv1/bn"
  scale_param {
    bias_term: true
  }
}
layer {
  name: "res2.2.conv1/relu"
  type: "ReLU"
  bottom: "res2.2.conv1/bn"
  top: "res2.2.conv1/bn"
}
layer {
  name: "res2.2.conv2"
  type: "Convolution"
  bottom: "res2.2.conv1/bn"
  top: "res2.2.conv2"
  convolution_param {
    num_output: 64
    bias_term: false
    pad: 1
    kernel_size: 3
    stride: 1
  }
}
layer {
  name: "res2.2.conv2/bn"
  type: "BatchNorm"
  bottom: "res2.2.conv2"
  top: "res2.2.conv2/bn"
  batch_norm_param {
    moving_average_fraction: 0.9
    eps: 0.0001
  }
}
layer {
  name: "res2.2.conv2/bn_scale"
  type: "Scale"
  bottom: "res2.2.conv2/bn"
  top: "res2.2.conv2/bn"
  scale_param {
    bias_term: true
  }
}
layer {
  name: "res2.2.sum"
  type: "Eltwise"
  bottom: "res2.2.conv2/bn"
  bottom: "res2.1.sum"
  top: "res2.2.sum"
  eltwise_param {
    operation: SUM
  }
}
layer {
  name: "res2.2.relu"
  type: "ReLU"
  bottom: "res2.2.sum"
  top: "res2.2.sum"
}
layer {
  name: "res2.3.conv1"
  type: "Convolution"
  bottom: "res2.2.sum"
  top: "res2.3.conv1"
  convolution_param {
    num_output: 128
    bias_term: false
    pad: 1
    kernel_size: 3
    stride: 1
  }
}
layer {
  name: "res2.3.conv1/bn"
  type: "BatchNorm"
  bottom: "res2.3.conv1"
  top: "res2.3.conv1/bn"
  batch_norm_param {
    moving_average_fraction: 0.9
    eps: 0.0001
  }
}
layer {
  name: "res2.3.conv1/bn_scale"
  type: "Scale"
  bottom: "res2.3.conv1/bn"
  top: "res2.3.conv1/bn"
  scale_param {
    bias_term: true
  }
}
layer {
  name: "res2.3.conv1/relu"
  type: "ReLU"
  bottom: "res2.3.conv1/bn"
  top: "res2.3.conv1/bn"
}
layer {
  name: "res2.3.conv2"
  type: "Convolution"
  bottom: "res2.3.conv1/bn"
  top: "res2.3.conv2"
  convolution_param {
    num_output: 128
    bias_term: false
    pad: 1
    kernel_size: 3
    stride: 1
  }
}
layer {
  name: "res2.3.conv2/bn"
  type: "BatchNorm"
  bottom: "res2.3.conv2"
  top: "res2.3.conv2/bn"
  batch_norm_param {
    moving_average_fraction: 0.9
    eps: 0.0001
  }
}
layer {
  name: "res2.3.conv2/bn_scale"
  type: "Scale"
  bottom: "res2.3.conv2/bn"
  top: "res2.3.conv2/bn"
  scale_param {
    bias_term: true
  }
}
layer {
  name: "res2.3.skipConv"
  type: "Convolution"
  bottom: "res2.2.sum"
  top: "res2.3.skipConv"
  convolution_param {
    num_output: 128
    bias_term: false
    pad: 0
    kernel_size: 1
    stride: 1
  }
}
layer {
  name: "res2.3skipConv/bn"
  type: "BatchNorm"
  bottom: "res2.3.skipConv"
  top: "res2.3.skipConv/bn"
  batch_norm_param {
    moving_average_fraction: 0.9
    eps: 0.0001
  }
}
layer {
  name: "res2.3skipConv/bn_scale"
  type: "Scale"
  bottom: "res2.3.skipConv/bn"
  top: "res2.3.skipConv/bn"
  scale_param {
    bias_term: true
  }
}
layer {
  name: "res2.3.sum"
  type: "Eltwise"
  bottom: "res2.3.conv2/bn"
  bottom: "res2.3.skipConv/bn"
  top: "res2.3.sum"
  eltwise_param {
    operation: SUM
  }
}
layer {
  name: "res2.3.relu"
  type: "ReLU"
  bottom: "res2.3.sum"
  top: "res2.3.sum"
}
layer {
  name: "res3.1.conv1"
  type: "Convolution"
  bottom: "res2.3.sum"
  top: "res3.1.conv1"
  convolution_param {
    num_output: 128
    bias_term: false
    pad: 1
    kernel_size: 3
    stride: 2
  }
}
layer {
  name: "res3.1.conv1/bn"
  type: "BatchNorm"
  bottom: "res3.1.conv1"
  top: "res3.1.conv1/bn"
  batch_norm_param {
    moving_average_fraction: 0.9
    eps: 0.0001
  }
}
layer {
  name: "res3.1.conv1/bn_scale"
  type: "Scale"
  bottom: "res3.1.conv1/bn"
  top: "res3.1.conv1/bn"
  scale_param {
    bias_term: true
  }
}
layer {
  name: "res3.1.conv1/relu"
  type: "ReLU"
  bottom: "res3.1.conv1/bn"
  top: "res3.1.conv1/bn"
}
layer {
  name: "res3.1.conv2"
  type: "Convolution"
  bottom: "res3.1.conv1/bn"
  top: "res3.1.conv2"
  convolution_param {
    num_output: 128
    bias_term: false
    pad: 1
    kernel_size: 3
    stride: 1
  }
}
layer {
  name: "res3.1.conv2/bn"
  type: "BatchNorm"
  bottom: "res3.1.conv2"
  top: "res3.1.conv2/bn"
  batch_norm_param {
    moving_average_fraction: 0.9
    eps: 0.0001
  }
}
layer {
  name: "res3.1.conv2/bn_scale"
  type: "Scale"
  bottom: "res3.1.conv2/bn"
  top: "res3.1.conv2/bn"
  scale_param {
    bias_term: true
  }
}
layer {
  name: "res3.1.skipConv"
  type: "Convolution"
  bottom: "res2.3.sum"
  top: "res3.1.skipConv"
  convolution_param {
    num_output: 128
    bias_term: false
    pad: 0
    kernel_size: 1
    stride: 2
  }
}
layer {
  name: "res3.1skipConv/bn"
  type: "BatchNorm"
  bottom: "res3.1.skipConv"
  top: "res3.1.skipConv/bn"
  batch_norm_param {
    moving_average_fraction: 0.9
    eps: 0.0001
  }
}
layer {
  name: "res3.1skipConv/bn_scale"
  type: "Scale"
  bottom: "res3.1.skipConv/bn"
  top: "res3.1.skipConv/bn"
  scale_param {
    bias_term: true
  }
}
layer {
  name: "res3.1.sum"
  type: "Eltwise"
  bottom: "res3.1.conv2/bn"
  bottom: "res3.1.skipConv/bn"
  top: "res3.1.sum"
  eltwise_param {
    operation: SUM
  }
}
layer {
  name: "res3.1.relu"
  type: "ReLU"
  bottom: "res3.1.sum"
  top: "res3.1.sum"
}
layer {
  name: "res3.2.conv1"
  type: "Convolution"
  bottom: "res3.1.sum"
  top: "res3.2.conv1"
  convolution_param {
    num_output: 128
    bias_term: false
    pad: 1
    kernel_size: 3
    stride: 1
  }
}
layer {
  name: "res3.2.conv1/bn"
  type: "BatchNorm"
  bottom: "res3.2.conv1"
  top: "res3.2.conv1/bn"
  batch_norm_param {
    moving_average_fraction: 0.9
    eps: 0.0001
  }
}
layer {
  name: "res3.2.conv1/bn_scale"
  type: "Scale"
  bottom: "res3.2.conv1/bn"
  top: "res3.2.conv1/bn"
  scale_param {
    bias_term: true
  }
}
layer {
  name: "res3.2.conv1/relu"
  type: "ReLU"
  bottom: "res3.2.conv1/bn"
  top: "res3.2.conv1/bn"
}
layer {
  name: "res3.2.conv2"
  type: "Convolution"
  bottom: "res3.2.conv1/bn"
  top: "res3.2.conv2"
  convolution_param {
    num_output: 128
    bias_term: false
    pad: 1
    kernel_size: 3
    stride: 1
  }
}
layer {
  name: "res3.2.conv2/bn"
  type: "BatchNorm"
  bottom: "res3.2.conv2"
  top: "res3.2.conv2/bn"
  batch_norm_param {
    moving_average_fraction: 0.9
    eps: 0.0001
  }
}
layer {
  name: "res3.2.conv2/bn_scale"
  type: "Scale"
  bottom: "res3.2.conv2/bn"
  top: "res3.2.conv2/bn"
  scale_param {
    bias_term: true
  }
}
layer {
  name: "res3.2.sum"
  type: "Eltwise"
  bottom: "res3.2.conv2/bn"
  bottom: "res3.1.sum"
  top: "res3.2.sum"
  eltwise_param {
    operation: SUM
  }
}
layer {
  name: "res3.2.relu"
  type: "ReLU"
  bottom: "res3.2.sum"
  top: "res3.2.sum"
}
layer {
  name: "res3.3.conv1"
  type: "Convolution"
  bottom: "res3.2.sum"
  top: "res3.3.conv1"
  convolution_param {
    num_output: 128
    bias_term: false
    pad: 1
    kernel_size: 3
    stride: 1
  }
}
layer {
  name: "res3.3.conv1/bn"
  type: "BatchNorm"
  bottom: "res3.3.conv1"
  top: "res3.3.conv1/bn"
  batch_norm_param {
    moving_average_fraction: 0.9
    eps: 0.0001
  }
}
layer {
  name: "res3.3.conv1/bn_scale"
  type: "Scale"
  bottom: "res3.3.conv1/bn"
  top: "res3.3.conv1/bn"
  scale_param {
    bias_term: true
  }
}
layer {
  name: "res3.3.conv1/relu"
  type: "ReLU"
  bottom: "res3.3.conv1/bn"
  top: "res3.3.conv1/bn"
}
layer {
  name: "res3.3.conv2"
  type: "Convolution"
  bottom: "res3.3.conv1/bn"
  top: "res3.3.conv2"
  convolution_param {
    num_output: 128
    bias_term: false
    pad: 1
    kernel_size: 3
    stride: 1
  }
}
layer {
  name: "res3.3.conv2/bn"
  type: "BatchNorm"
  bottom: "res3.3.conv2"
  top: "res3.3.conv2/bn"
  batch_norm_param {
    moving_average_fraction: 0.9
    eps: 0.0001
  }
}
layer {
  name: "res3.3.conv2/bn_scale"
  type: "Scale"
  bottom: "res3.3.conv2/bn"
  top: "res3.3.conv2/bn"
  scale_param {
    bias_term: true
  }
}
layer {
  name: "res3.3.sum"
  type: "Eltwise"
  bottom: "res3.3.conv2/bn"
  bottom: "res3.2.sum"
  top: "res3.3.sum"
  eltwise_param {
    operation: SUM
  }
}
layer {
  name: "res3.3.relu"
  type: "ReLU"
  bottom: "res3.3.sum"
  top: "res3.3.sum"
}
layer {
  name: "res3.4.conv1"
  type: "Convolution"
  bottom: "res3.3.sum"
  top: "res3.4.conv1"
  convolution_param {
    num_output: 128
    bias_term: false
    pad: 1
    kernel_size: 3
    stride: 1
  }
}
layer {
  name: "res3.4.conv1/bn"
  type: "BatchNorm"
  bottom: "res3.4.conv1"
  top: "res3.4.conv1/bn"
  batch_norm_param {
    moving_average_fraction: 0.9
    eps: 0.0001
  }
}
layer {
  name: "res3.4.conv1/bn_scale"
  type: "Scale"
  bottom: "res3.4.conv1/bn"
  top: "res3.4.conv1/bn"
  scale_param {
    bias_term: true
  }
}
layer {
  name: "res3.4.conv1/relu"
  type: "ReLU"
  bottom: "res3.4.conv1/bn"
  top: "res3.4.conv1/bn"
}
layer {
  name: "res3.4.conv2"
  type: "Convolution"
  bottom: "res3.4.conv1/bn"
  top: "res3.4.conv2"
  convolution_param {
    num_output: 128
    bias_term: false
    pad: 1
    kernel_size: 3
    stride: 1
  }
}
layer {
  name: "res3.4.conv2/bn"
  type: "BatchNorm"
  bottom: "res3.4.conv2"
  top: "res3.4.conv2/bn"
  batch_norm_param {
    moving_average_fraction: 0.9
    eps: 0.0001
  }
}
layer {
  name: "res3.4.conv2/bn_scale"
  type: "Scale"
  bottom: "res3.4.conv2/bn"
  top: "res3.4.conv2/bn"
  scale_param {
    bias_term: true
  }
}
layer {
  name: "res3.4.sum"
  type: "Eltwise"
  bottom: "res3.4.conv2/bn"
  bottom: "res3.3.sum"
  top: "res3.4.sum"
  eltwise_param {
    operation: SUM
  }
}
layer {
  name: "res3.4.relu"
  type: "ReLU"
  bottom: "res3.4.sum"
  top: "res3.4.sum"
}
layer {
  name: "res3.5.conv1"
  type: "Convolution"
  bottom: "res3.4.sum"
  top: "res3.5.conv1"
  convolution_param {
    num_output: 128
    bias_term: false
    pad: 1
    kernel_size: 3
    stride: 1
  }
}
layer {
  name: "res3.5.conv1/bn"
  type: "BatchNorm"
  bottom: "res3.5.conv1"
  top: "res3.5.conv1/bn"
  batch_norm_param {
    moving_average_fraction: 0.9
    eps: 0.0001
  }
}
layer {
  name: "res3.5.conv1/bn_scale"
  type: "Scale"
  bottom: "res3.5.conv1/bn"
  top: "res3.5.conv1/bn"
  scale_param {
    bias_term: true
  }
}
layer {
  name: "res3.5.conv1/relu"
  type: "ReLU"
  bottom: "res3.5.conv1/bn"
  top: "res3.5.conv1/bn"
}
layer {
  name: "res3.5.conv2"
  type: "Convolution"
  bottom: "res3.5.conv1/bn"
  top: "res3.5.conv2"
  convolution_param {
    num_output: 128
    bias_term: false
    pad: 1
    kernel_size: 3
    stride: 1
  }
}
layer {
  name: "res3.5.conv2/bn"
  type: "BatchNorm"
  bottom: "res3.5.conv2"
  top: "res3.5.conv2/bn"
  batch_norm_param {
    moving_average_fraction: 0.9
    eps: 0.0001
  }
}
layer {
  name: "res3.5.conv2/bn_scale"
  type: "Scale"
  bottom: "res3.5.conv2/bn"
  top: "res3.5.conv2/bn"
  scale_param {
    bias_term: true
  }
}
layer {
  name: "res3.5.sum"
  type: "Eltwise"
  bottom: "res3.5.conv2/bn"
  bottom: "res3.4.sum"
  top: "res3.5.sum"
  eltwise_param {
    operation: SUM
  }
}
layer {
  name: "res3.5.relu"
  type: "ReLU"
  bottom: "res3.5.sum"
  top: "res3.5.sum"
}
layer {
  name: "res3.6.conv1"
  type: "Convolution"
  bottom: "res3.5.sum"
  top: "res3.6.conv1"
  convolution_param {
    num_output: 128
    bias_term: false
    pad: 1
    kernel_size: 3
    stride: 1
  }
}
layer {
  name: "res3.6.conv1/bn"
  type: "BatchNorm"
  bottom: "res3.6.conv1"
  top: "res3.6.conv1/bn"
  batch_norm_param {
    moving_average_fraction: 0.9
    eps: 0.0001
  }
}
layer {
  name: "res3.6.conv1/bn_scale"
  type: "Scale"
  bottom: "res3.6.conv1/bn"
  top: "res3.6.conv1/bn"
  scale_param {
    bias_term: true
  }
}
layer {
  name: "res3.6.conv1/relu"
  type: "ReLU"
  bottom: "res3.6.conv1/bn"
  top: "res3.6.conv1/bn"
}
layer {
  name: "res3.6.conv2"
  type: "Convolution"
  bottom: "res3.6.conv1/bn"
  top: "res3.6.conv2"
  convolution_param {
    num_output: 128
    bias_term: false
    pad: 1
    kernel_size: 3
    stride: 1
  }
}
layer {
  name: "res3.6.conv2/bn"
  type: "BatchNorm"
  bottom: "res3.6.conv2"
  top: "res3.6.conv2/bn"
  batch_norm_param {
    moving_average_fraction: 0.9
    eps: 0.0001
  }
}
layer {
  name: "res3.6.conv2/bn_scale"
  type: "Scale"
  bottom: "res3.6.conv2/bn"
  top: "res3.6.conv2/bn"
  scale_param {
    bias_term: true
  }
}
layer {
  name: "res3.6.sum"
  type: "Eltwise"
  bottom: "res3.6.conv2/bn"
  bottom: "res3.5.sum"
  top: "res3.6.sum"
  eltwise_param {
    operation: SUM
  }
}
layer {
  name: "res3.6.relu"
  type: "ReLU"
  bottom: "res3.6.sum"
  top: "res3.6.sum"
}
layer {
  name: "res3.7.conv1"
  type: "Convolution"
  bottom: "res3.6.sum"
  top: "res3.7.conv1"
  convolution_param {
    num_output: 128
    bias_term: false
    pad: 1
    kernel_size: 3
    stride: 1
  }
}
layer {
  name: "res3.7.conv1/bn"
  type: "BatchNorm"
  bottom: "res3.7.conv1"
  top: "res3.7.conv1/bn"
  batch_norm_param {
    moving_average_fraction: 0.9
    eps: 0.0001
  }
}
layer {
  name: "res3.7.conv1/bn_scale"
  type: "Scale"
  bottom: "res3.7.conv1/bn"
  top: "res3.7.conv1/bn"
  scale_param {
    bias_term: true
  }
}
layer {
  name: "res3.7.conv1/relu"
  type: "ReLU"
  bottom: "res3.7.conv1/bn"
  top: "res3.7.conv1/bn"
}
layer {
  name: "res3.7.conv2"
  type: "Convolution"
  bottom: "res3.7.conv1/bn"
  top: "res3.7.conv2"
  convolution_param {
    num_output: 128
    bias_term: false
    pad: 1
    kernel_size: 3
    stride: 1
  }
}
layer {
  name: "res3.7.conv2/bn"
  type: "BatchNorm"
  bottom: "res3.7.conv2"
  top: "res3.7.conv2/bn"
  batch_norm_param {
    moving_average_fraction: 0.9
    eps: 0.0001
  }
}
layer {
  name: "res3.7.conv2/bn_scale"
  type: "Scale"
  bottom: "res3.7.conv2/bn"
  top: "res3.7.conv2/bn"
  scale_param {
    bias_term: true
  }
}
layer {
  name: "res3.7.sum"
  type: "Eltwise"
  bottom: "res3.7.conv2/bn"
  bottom: "res3.6.sum"
  top: "res3.7.sum"
  eltwise_param {
    operation: SUM
  }
}
layer {
  name: "res3.7.relu"
  type: "ReLU"
  bottom: "res3.7.sum"
  top: "res3.7.sum"
}
layer {
  name: "res3.8.conv1"
  type: "Convolution"
  bottom: "res3.7.sum"
  top: "res3.8.conv1"
  convolution_param {
    num_output: 128
    bias_term: false
    pad: 1
    kernel_size: 3
    stride: 1
  }
}
layer {
  name: "res3.8.conv1/bn"
  type: "BatchNorm"
  bottom: "res3.8.conv1"
  top: "res3.8.conv1/bn"
  batch_norm_param {
    moving_average_fraction: 0.9
    eps: 0.0001
  }
}
layer {
  name: "res3.8.conv1/bn_scale"
  type: "Scale"
  bottom: "res3.8.conv1/bn"
  top: "res3.8.conv1/bn"
  scale_param {
    bias_term: true
  }
}
layer {
  name: "res3.8.conv1/relu"
  type: "ReLU"
  bottom: "res3.8.conv1/bn"
  top: "res3.8.conv1/bn"
}
layer {
  name: "res3.8.conv2"
  type: "Convolution"
  bottom: "res3.8.conv1/bn"
  top: "res3.8.conv2"
  convolution_param {
    num_output: 128
    bias_term: false
    pad: 1
    kernel_size: 3
    stride: 1
  }
}
layer {
  name: "res3.8.conv2/bn"
  type: "BatchNorm"
  bottom: "res3.8.conv2"
  top: "res3.8.conv2/bn"
  batch_norm_param {
    moving_average_fraction: 0.9
    eps: 0.0001
  }
}
layer {
  name: "res3.8.conv2/bn_scale"
  type: "Scale"
  bottom: "res3.8.conv2/bn"
  top: "res3.8.conv2/bn"
  scale_param {
    bias_term: true
  }
}
layer {
  name: "res3.8.sum"
  type: "Eltwise"
  bottom: "res3.8.conv2/bn"
  bottom: "res3.7.sum"
  top: "res3.8.sum"
  eltwise_param {
    operation: SUM
  }
}
layer {
  name: "res3.8.relu"
  type: "ReLU"
  bottom: "res3.8.sum"
  top: "res3.8.sum"
}
layer {
  name: "res3.9.conv1"
  type: "Convolution"
  bottom: "res3.8.sum"
  top: "res3.9.conv1"
  convolution_param {
    num_output: 128
    bias_term: false
    pad: 1
    kernel_size: 3
    stride: 1
  }
}
layer {
  name: "res3.9.conv1/bn"
  type: "BatchNorm"
  bottom: "res3.9.conv1"
  top: "res3.9.conv1/bn"
  batch_norm_param {
    moving_average_fraction: 0.9
    eps: 0.0001
  }
}
layer {
  name: "res3.9.conv1/bn_scale"
  type: "Scale"
  bottom: "res3.9.conv1/bn"
  top: "res3.9.conv1/bn"
  scale_param {
    bias_term: true
  }
}
layer {
  name: "res3.9.conv1/relu"
  type: "ReLU"
  bottom: "res3.9.conv1/bn"
  top: "res3.9.conv1/bn"
}
layer {
  name: "res3.9.conv2"
  type: "Convolution"
  bottom: "res3.9.conv1/bn"
  top: "res3.9.conv2"
  convolution_param {
    num_output: 128
    bias_term: false
    pad: 1
    kernel_size: 3
    stride: 1
  }
}
layer {
  name: "res3.9.conv2/bn"
  type: "BatchNorm"
  bottom: "res3.9.conv2"
  top: "res3.9.conv2/bn"
  batch_norm_param {
    moving_average_fraction: 0.9
    eps: 0.0001
  }
}
layer {
  name: "res3.9.conv2/bn_scale"
  type: "Scale"
  bottom: "res3.9.conv2/bn"
  top: "res3.9.conv2/bn"
  scale_param {
    bias_term: true
  }
}
layer {
  name: "res3.9.sum"
  type: "Eltwise"
  bottom: "res3.9.conv2/bn"
  bottom: "res3.8.sum"
  top: "res3.9.sum"
  eltwise_param {
    operation: SUM
  }
}
layer {
  name: "res3.9.relu"
  type: "ReLU"
  bottom: "res3.9.sum"
  top: "res3.9.sum"
}
layer {
  name: "res3.10.conv1"
  type: "Convolution"
  bottom: "res3.9.sum"
  top: "res3.10.conv1"
  convolution_param {
    num_output: 128
    bias_term: false
    pad: 1
    kernel_size: 3
    stride: 1
  }
}
layer {
  name: "res3.10.conv1/bn"
  type: "BatchNorm"
  bottom: "res3.10.conv1"
  top: "res3.10.conv1/bn"
  batch_norm_param {
    moving_average_fraction: 0.9
    eps: 0.0001
  }
}
layer {
  name: "res3.10.conv1/bn_scale"
  type: "Scale"
  bottom: "res3.10.conv1/bn"
  top: "res3.10.conv1/bn"
  scale_param {
    bias_term: true
  }
}
layer {
  name: "res3.10.conv1/relu"
  type: "ReLU"
  bottom: "res3.10.conv1/bn"
  top: "res3.10.conv1/bn"
}
layer {
  name: "res3.10.conv2"
  type: "Convolution"
  bottom: "res3.10.conv1/bn"
  top: "res3.10.conv2"
  convolution_param {
    num_output: 128
    bias_term: false
    pad: 1
    kernel_size: 3
    stride: 1
  }
}
layer {
  name: "res3.10.conv2/bn"
  type: "BatchNorm"
  bottom: "res3.10.conv2"
  top: "res3.10.conv2/bn"
  batch_norm_param {
    moving_average_fraction: 0.9
    eps: 0.0001
  }
}
layer {
  name: "res3.10.conv2/bn_scale"
  type: "Scale"
  bottom: "res3.10.conv2/bn"
  top: "res3.10.conv2/bn"
  scale_param {
    bias_term: true
  }
}
layer {
  name: "res3.10.sum"
  type: "Eltwise"
  bottom: "res3.10.conv2/bn"
  bottom: "res3.9.sum"
  top: "res3.10.sum"
  eltwise_param {
    operation: SUM
  }
}
layer {
  name: "res3.10.relu"
  type: "ReLU"
  bottom: "res3.10.sum"
  top: "res3.10.sum"
}
layer {
  name: "res3.11.conv1"
  type: "Convolution"
  bottom: "res3.10.sum"
  top: "res3.11.conv1"
  convolution_param {
    num_output: 256
    bias_term: false
    pad: 1
    kernel_size: 3
    stride: 1
  }
}
layer {
  name: "res3.11.conv1/bn"
  type: "BatchNorm"
  bottom: "res3.11.conv1"
  top: "res3.11.conv1/bn"
  batch_norm_param {
    moving_average_fraction: 0.9
    eps: 0.0001
  }
}
layer {
  name: "res3.11.conv1/bn_scale"
  type: "Scale"
  bottom: "res3.11.conv1/bn"
  top: "res3.11.conv1/bn"
  scale_param {
    bias_term: true
  }
}
layer {
  name: "res3.11.conv1/relu"
  type: "ReLU"
  bottom: "res3.11.conv1/bn"
  top: "res3.11.conv1/bn"
}
layer {
  name: "res3.11.conv2"
  type: "Convolution"
  bottom: "res3.11.conv1/bn"
  top: "res3.11.conv2"
  convolution_param {
    num_output: 256
    bias_term: false
    pad: 1
    kernel_size: 3
    stride: 1
  }
}
layer {
  name: "res3.11.conv2/bn"
  type: "BatchNorm"
  bottom: "res3.11.conv2"
  top: "res3.11.conv2/bn"
  batch_norm_param {
    moving_average_fraction: 0.9
    eps: 0.0001
  }
}
layer {
  name: "res3.11.conv2/bn_scale"
  type: "Scale"
  bottom: "res3.11.conv2/bn"
  top: "res3.11.conv2/bn"
  scale_param {
    bias_term: true
  }
}
layer {
  name: "res3.11.skipConv"
  type: "Convolution"
  bottom: "res3.10.sum"
  top: "res3.11.skipConv"
  convolution_param {
    num_output: 256
    bias_term: false
    pad: 0
    kernel_size: 1
    stride: 1
  }
}
layer {
  name: "res3.11skipConv/bn"
  type: "BatchNorm"
  bottom: "res3.11.skipConv"
  top: "res3.11.skipConv/bn"
  batch_norm_param {
    moving_average_fraction: 0.9
    eps: 0.0001
  }
}
layer {
  name: "res3.11skipConv/bn_scale"
  type: "Scale"
  bottom: "res3.11.skipConv/bn"
  top: "res3.11.skipConv/bn"
  scale_param {
    bias_term: true
  }
}
layer {
  name: "res3.11.sum"
  type: "Eltwise"
  bottom: "res3.11.conv2/bn"
  bottom: "res3.11.skipConv/bn"
  top: "res3.11.sum"
  eltwise_param {
    operation: SUM
  }
}
layer {
  name: "res3.11.relu"
  type: "ReLU"
  bottom: "res3.11.sum"
  top: "res3.11.sum"
}
layer {
  name: "res4.1.conv1"
  type: "Convolution"
  bottom: "res3.11.sum"
  top: "res4.1.conv1"
  convolution_param {
    num_output: 256
    bias_term: false
    pad: 1
    kernel_size: 3
    stride: 2
  }
}
layer {
  name: "res4.1.conv1/bn"
  type: "BatchNorm"
  bottom: "res4.1.conv1"
  top: "res4.1.conv1/bn"
  batch_norm_param {
    moving_average_fraction: 0.9
    eps: 0.0001
  }
}
layer {
  name: "res4.1.conv1/bn_scale"
  type: "Scale"
  bottom: "res4.1.conv1/bn"
  top: "res4.1.conv1/bn"
  scale_param {
    bias_term: true
  }
}
layer {
  name: "res4.1.conv1/relu"
  type: "ReLU"
  bottom: "res4.1.conv1/bn"
  top: "res4.1.conv1/bn"
}
layer {
  name: "res4.1.conv2"
  type: "Convolution"
  bottom: "res4.1.conv1/bn"
  top: "res4.1.conv2"
  convolution_param {
    num_output: 256
    bias_term: false
    pad: 1
    kernel_size: 3
    stride: 1
  }
}
layer {
  name: "res4.1.conv2/bn"
  type: "BatchNorm"
  bottom: "res4.1.conv2"
  top: "res4.1.conv2/bn"
  batch_norm_param {
    moving_average_fraction: 0.9
    eps: 0.0001
  }
}
layer {
  name: "res4.1.conv2/bn_scale"
  type: "Scale"
  bottom: "res4.1.conv2/bn"
  top: "res4.1.conv2/bn"
  scale_param {
    bias_term: true
  }
}
layer {
  name: "res4.1.skipConv"
  type: "Convolution"
  bottom: "res3.11.sum"
  top: "res4.1.skipConv"
  convolution_param {
    num_output: 256
    bias_term: false
    pad: 0
    kernel_size: 1
    stride: 2
  }
}
layer {
  name: "res4.1skipConv/bn"
  type: "BatchNorm"
  bottom: "res4.1.skipConv"
  top: "res4.1.skipConv/bn"
  batch_norm_param {
    moving_average_fraction: 0.9
    eps: 0.0001
  }
}
layer {
  name: "res4.1skipConv/bn_scale"
  type: "Scale"
  bottom: "res4.1.skipConv/bn"
  top: "res4.1.skipConv/bn"
  scale_param {
    bias_term: true
  }
}
layer {
  name: "res4.1.sum"
  type: "Eltwise"
  bottom: "res4.1.conv2/bn"
  bottom: "res4.1.skipConv/bn"
  top: "res4.1.sum"
  eltwise_param {
    operation: SUM
  }
}
layer {
  name: "res4.1.relu"
  type: "ReLU"
  bottom: "res4.1.sum"
  top: "res4.1.sum"
}
layer {
  name: "res4.2.conv1"
  type: "Convolution"
  bottom: "res4.1.sum"
  top: "res4.2.conv1"
  convolution_param {
    num_output: 256
    bias_term: false
    pad: 1
    kernel_size: 3
    stride: 1
  }
}
layer {
  name: "res4.2.conv1/bn"
  type: "BatchNorm"
  bottom: "res4.2.conv1"
  top: "res4.2.conv1/bn"
  batch_norm_param {
    moving_average_fraction: 0.9
    eps: 0.0001
  }
}
layer {
  name: "res4.2.conv1/bn_scale"
  type: "Scale"
  bottom: "res4.2.conv1/bn"
  top: "res4.2.conv1/bn"
  scale_param {
    bias_term: true
  }
}
layer {
  name: "res4.2.conv1/relu"
  type: "ReLU"
  bottom: "res4.2.conv1/bn"
  top: "res4.2.conv1/bn"
}
layer {
  name: "res4.2.conv2"
  type: "Convolution"
  bottom: "res4.2.conv1/bn"
  top: "res4.2.conv2"
  convolution_param {
    num_output: 256
    bias_term: false
    pad: 1
    kernel_size: 3
    stride: 1
  }
}
layer {
  name: "res4.2.conv2/bn"
  type: "BatchNorm"
  bottom: "res4.2.conv2"
  top: "res4.2.conv2/bn"
  batch_norm_param {
    moving_average_fraction: 0.9
    eps: 0.0001
  }
}
layer {
  name: "res4.2.conv2/bn_scale"
  type: "Scale"
  bottom: "res4.2.conv2/bn"
  top: "res4.2.conv2/bn"
  scale_param {
    bias_term: true
  }
}
layer {
  name: "res4.2.sum"
  type: "Eltwise"
  bottom: "res4.2.conv2/bn"
  bottom: "res4.1.sum"
  top: "res4.2.sum"
  eltwise_param {
    operation: SUM
  }
}
layer {
  name: "res4.2.relu"
  type: "ReLU"
  bottom: "res4.2.sum"
  top: "res4.2.sum"
}
layer {
  name: "res4.3.conv1"
  type: "Convolution"
  bottom: "res4.2.sum"
  top: "res4.3.conv1"
  convolution_param {
    num_output: 256
    bias_term: false
    pad: 1
    kernel_size: 3
    stride: 1
  }
}
layer {
  name: "res4.3.conv1/bn"
  type: "BatchNorm"
  bottom: "res4.3.conv1"
  top: "res4.3.conv1/bn"
  batch_norm_param {
    moving_average_fraction: 0.9
    eps: 0.0001
  }
}
layer {
  name: "res4.3.conv1/bn_scale"
  type: "Scale"
  bottom: "res4.3.conv1/bn"
  top: "res4.3.conv1/bn"
  scale_param {
    bias_term: true
  }
}
layer {
  name: "res4.3.conv1/relu"
  type: "ReLU"
  bottom: "res4.3.conv1/bn"
  top: "res4.3.conv1/bn"
}
layer {
  name: "res4.3.conv2"
  type: "Convolution"
  bottom: "res4.3.conv1/bn"
  top: "res4.3.conv2"
  convolution_param {
    num_output: 256
    bias_term: false
    pad: 1
    kernel_size: 3
    stride: 1
  }
}
layer {
  name: "res4.3.conv2/bn"
  type: "BatchNorm"
  bottom: "res4.3.conv2"
  top: "res4.3.conv2/bn"
  batch_norm_param {
    moving_average_fraction: 0.9
    eps: 0.0001
  }
}
layer {
  name: "res4.3.conv2/bn_scale"
  type: "Scale"
  bottom: "res4.3.conv2/bn"
  top: "res4.3.conv2/bn"
  scale_param {
    bias_term: true
  }
}
layer {
  name: "res4.3.sum"
  type: "Eltwise"
  bottom: "res4.3.conv2/bn"
  bottom: "res4.2.sum"
  top: "res4.3.sum"
  eltwise_param {
    operation: SUM
  }
}
layer {
  name: "res4.3.relu"
  type: "ReLU"
  bottom: "res4.3.sum"
  top: "res4.3.sum"
}
layer {
  name: "res4.4.conv1"
  type: "Convolution"
  bottom: "res4.3.sum"
  top: "res4.4.conv1"
  convolution_param {
    num_output: 256
    bias_term: false
    pad: 1
    kernel_size: 3
    stride: 1
  }
}
layer {
  name: "res4.4.conv1/bn"
  type: "BatchNorm"
  bottom: "res4.4.conv1"
  top: "res4.4.conv1/bn"
  batch_norm_param {
    moving_average_fraction: 0.9
    eps: 0.0001
  }
}
layer {
  name: "res4.4.conv1/bn_scale"
  type: "Scale"
  bottom: "res4.4.conv1/bn"
  top: "res4.4.conv1/bn"
  scale_param {
    bias_term: true
  }
}
layer {
  name: "res4.4.conv1/relu"
  type: "ReLU"
  bottom: "res4.4.conv1/bn"
  top: "res4.4.conv1/bn"
}
layer {
  name: "res4.4.conv2"
  type: "Convolution"
  bottom: "res4.4.conv1/bn"
  top: "res4.4.conv2"
  convolution_param {
    num_output: 256
    bias_term: false
    pad: 1
    kernel_size: 3
    stride: 1
  }
}
lay
I0309 16:04:49.169222  2861 layer_factory.hpp:77] Creating layer data
I0309 16:04:49.169257  2861 net.cpp:84] Creating Layer data
I0309 16:04:49.169267  2861 net.cpp:380] data -> data
I0309 16:04:49.169292  2861 net.cpp:380] data -> label
I0309 16:04:49.169313  2861 image_data_layer.cpp:38] Opening file /home/vip/dataset/imagenet/ILSVRC2012_val_256xN_list.txt
I0309 16:04:49.203078  2861 image_data_layer.cpp:63] A total of 50000 images.
I0309 16:04:49.220381  2861 image_data_layer.cpp:90] output data size: 100,3,224,224
I0309 16:04:49.342823  2861 net.cpp:122] Setting up data
I0309 16:04:49.342856  2861 net.cpp:129] Top shape: 100 3 224 224 (15052800)
I0309 16:04:49.342864  2861 net.cpp:129] Top shape: 100 (100)
I0309 16:04:49.342869  2861 net.cpp:137] Memory required for data: 60211600
I0309 16:04:49.342877  2861 layer_factory.hpp:77] Creating layer label_data_1_split
I0309 16:04:49.342895  2861 net.cpp:84] Creating Layer label_data_1_split
I0309 16:04:49.342901  2861 net.cpp:406] label_data_1_split <- label
I0309 16:04:49.342917  2861 net.cpp:380] label_data_1_split -> label_data_1_split_0
I0309 16:04:49.342932  2861 net.cpp:380] label_data_1_split -> label_data_1_split_1
I0309 16:04:49.343029  2861 net.cpp:122] Setting up label_data_1_split
I0309 16:04:49.343039  2861 net.cpp:129] Top shape: 100 (100)
I0309 16:04:49.343044  2861 net.cpp:129] Top shape: 100 (100)
I0309 16:04:49.343047  2861 net.cpp:137] Memory required for data: 60212400
I0309 16:04:49.343052  2861 layer_factory.hpp:77] Creating layer conv1
I0309 16:04:49.343067  2861 net.cpp:84] Creating Layer conv1
I0309 16:04:49.343075  2861 net.cpp:406] conv1 <- data
I0309 16:04:49.343081  2861 net.cpp:380] conv1 -> conv1
I0309 16:04:49.971545  2861 net.cpp:122] Setting up conv1
I0309 16:04:49.971588  2861 net.cpp:129] Top shape: 100 32 112 112 (40140800)
I0309 16:04:49.971593  2861 net.cpp:137] Memory required for data: 220775600
I0309 16:04:49.971616  2861 layer_factory.hpp:77] Creating layer conv1/bn
I0309 16:04:49.971643  2861 net.cpp:84] Creating Layer conv1/bn
I0309 16:04:49.971649  2861 net.cpp:406] conv1/bn <- conv1
I0309 16:04:49.971657  2861 net.cpp:380] conv1/bn -> conv1/bn
I0309 16:04:49.972746  2861 net.cpp:122] Setting up conv1/bn
I0309 16:04:49.972759  2861 net.cpp:129] Top shape: 100 32 112 112 (40140800)
I0309 16:04:49.972779  2861 net.cpp:137] Memory required for data: 381338800
I0309 16:04:49.972791  2861 layer_factory.hpp:77] Creating layer conv1/bn_scale
I0309 16:04:49.972800  2861 net.cpp:84] Creating Layer conv1/bn_scale
I0309 16:04:49.972821  2861 net.cpp:406] conv1/bn_scale <- conv1/bn
I0309 16:04:49.972827  2861 net.cpp:367] conv1/bn_scale -> conv1/bn (in-place)
I0309 16:04:49.972895  2861 layer_factory.hpp:77] Creating layer conv1/bn_scale
I0309 16:04:49.973019  2861 net.cpp:122] Setting up conv1/bn_scale
I0309 16:04:49.973027  2861 net.cpp:129] Top shape: 100 32 112 112 (40140800)
I0309 16:04:49.973031  2861 net.cpp:137] Memory required for data: 541902000
I0309 16:04:49.973040  2861 layer_factory.hpp:77] Creating layer conv1/relu
I0309 16:04:49.973047  2861 net.cpp:84] Creating Layer conv1/relu
I0309 16:04:49.973049  2861 net.cpp:406] conv1/relu <- conv1/bn
I0309 16:04:49.973053  2861 net.cpp:367] conv1/relu -> conv1/bn (in-place)
I0309 16:04:49.973466  2861 net.cpp:122] Setting up conv1/relu
I0309 16:04:49.973476  2861 net.cpp:129] Top shape: 100 32 112 112 (40140800)
I0309 16:04:49.973495  2861 net.cpp:137] Memory required for data: 702465200
I0309 16:04:49.973500  2861 layer_factory.hpp:77] Creating layer conv2
I0309 16:04:49.973511  2861 net.cpp:84] Creating Layer conv2
I0309 16:04:49.973515  2861 net.cpp:406] conv2 <- conv1/bn
I0309 16:04:49.973520  2861 net.cpp:380] conv2 -> conv2
I0309 16:04:49.976183  2861 net.cpp:122] Setting up conv2
I0309 16:04:49.976217  2861 net.cpp:129] Top shape: 100 64 56 56 (20070400)
I0309 16:04:49.976219  2861 net.cpp:137] Memory required for data: 782746800
I0309 16:04:49.976225  2861 layer_factory.hpp:77] Creating layer conv2/bn
I0309 16:04:49.976231  2861 net.cpp:84] Creating Layer conv2/bn
I0309 16:04:49.976235  2861 net.cpp:406] conv2/bn <- conv2
I0309 16:04:49.976243  2861 net.cpp:380] conv2/bn -> conv2/bn
I0309 16:04:49.977303  2861 net.cpp:122] Setting up conv2/bn
I0309 16:04:49.977315  2861 net.cpp:129] Top shape: 100 64 56 56 (20070400)
I0309 16:04:49.977336  2861 net.cpp:137] Memory required for data: 863028400
I0309 16:04:49.977347  2861 layer_factory.hpp:77] Creating layer conv2/bn_scale
I0309 16:04:49.977355  2861 net.cpp:84] Creating Layer conv2/bn_scale
I0309 16:04:49.977358  2861 net.cpp:406] conv2/bn_scale <- conv2/bn
I0309 16:04:49.977381  2861 net.cpp:367] conv2/bn_scale -> conv2/bn (in-place)
I0309 16:04:49.977427  2861 layer_factory.hpp:77] Creating layer conv2/bn_scale
I0309 16:04:49.977547  2861 net.cpp:122] Setting up conv2/bn_scale
I0309 16:04:49.977555  2861 net.cpp:129] Top shape: 100 64 56 56 (20070400)
I0309 16:04:49.977560  2861 net.cpp:137] Memory required for data: 943310000
I0309 16:04:49.977566  2861 layer_factory.hpp:77] Creating layer conv2/relu
I0309 16:04:49.977571  2861 net.cpp:84] Creating Layer conv2/relu
I0309 16:04:49.977573  2861 net.cpp:406] conv2/relu <- conv2/bn
I0309 16:04:49.977579  2861 net.cpp:367] conv2/relu -> conv2/bn (in-place)
I0309 16:04:49.978050  2861 net.cpp:122] Setting up conv2/relu
I0309 16:04:49.978080  2861 net.cpp:129] Top shape: 100 64 56 56 (20070400)
I0309 16:04:49.978083  2861 net.cpp:137] Memory required for data: 1023591600
I0309 16:04:49.978086  2861 layer_factory.hpp:77] Creating layer conv2/bn_conv2/relu_0_split
I0309 16:04:49.978093  2861 net.cpp:84] Creating Layer conv2/bn_conv2/relu_0_split
I0309 16:04:49.978096  2861 net.cpp:406] conv2/bn_conv2/relu_0_split <- conv2/bn
I0309 16:04:49.978103  2861 net.cpp:380] conv2/bn_conv2/relu_0_split -> conv2/bn_conv2/relu_0_split_0
I0309 16:04:49.978112  2861 net.cpp:380] conv2/bn_conv2/relu_0_split -> conv2/bn_conv2/relu_0_split_1
I0309 16:04:49.978160  2861 net.cpp:122] Setting up conv2/bn_conv2/relu_0_split
I0309 16:04:49.978168  2861 net.cpp:129] Top shape: 100 64 56 56 (20070400)
I0309 16:04:49.978171  2861 net.cpp:129] Top shape: 100 64 56 56 (20070400)
I0309 16:04:49.978174  2861 net.cpp:137] Memory required for data: 1184154800
I0309 16:04:49.978178  2861 layer_factory.hpp:77] Creating layer res2.1.conv1
I0309 16:04:49.978186  2861 net.cpp:84] Creating Layer res2.1.conv1
I0309 16:04:49.978189  2861 net.cpp:406] res2.1.conv1 <- conv2/bn_conv2/relu_0_split_0
I0309 16:04:49.978194  2861 net.cpp:380] res2.1.conv1 -> res2.1.conv1
I0309 16:04:49.979997  2861 net.cpp:122] Setting up res2.1.conv1
I0309 16:04:49.980011  2861 net.cpp:129] Top shape: 100 64 28 28 (5017600)
I0309 16:04:49.980031  2861 net.cpp:137] Memory required for data: 1204225200
I0309 16:04:49.980047  2861 layer_factory.hpp:77] Creating layer res2.1.conv1/bn
I0309 16:04:49.980056  2861 net.cpp:84] Creating Layer res2.1.conv1/bn
I0309 16:04:49.980074  2861 net.cpp:406] res2.1.conv1/bn <- res2.1.conv1
I0309 16:04:49.980080  2861 net.cpp:380] res2.1.conv1/bn -> res2.1.conv1/bn
I0309 16:04:49.980299  2861 net.cpp:122] Setting up res2.1.conv1/bn
I0309 16:04:49.980310  2861 net.cpp:129] Top shape: 100 64 28 28 (5017600)
I0309 16:04:49.980314  2861 net.cpp:137] Memory required for data: 1224295600
I0309 16:04:49.980320  2861 layer_factory.hpp:77] Creating layer res2.1.conv1/bn_scale
I0309 16:04:49.980326  2861 net.cpp:84] Creating Layer res2.1.conv1/bn_scale
I0309 16:04:49.980329  2861 net.cpp:406] res2.1.conv1/bn_scale <- res2.1.conv1/bn
I0309 16:04:49.980335  2861 net.cpp:367] res2.1.conv1/bn_scale -> res2.1.conv1/bn (in-place)
I0309 16:04:49.980376  2861 layer_factory.hpp:77] Creating layer res2.1.conv1/bn_scale
I0309 16:04:49.980499  2861 net.cpp:122] Setting up res2.1.conv1/bn_scale
I0309 16:04:49.980505  2861 net.cpp:129] Top shape: 100 64 28 28 (5017600)
I0309 16:04:49.980509  2861 net.cpp:137] Memory required for data: 1244366000
I0309 16:04:49.980518  2861 layer_factory.hpp:77] Creating layer res2.1.conv1/relu
I0309 16:04:49.980526  2861 net.cpp:84] Creating Layer res2.1.conv1/relu
I0309 16:04:49.980530  2861 net.cpp:406] res2.1.conv1/relu <- res2.1.conv1/bn
I0309 16:04:49.980535  2861 net.cpp:367] res2.1.conv1/relu -> res2.1.conv1/bn (in-place)
I0309 16:04:49.981321  2861 net.cpp:122] Setting up res2.1.conv1/relu
I0309 16:04:49.981336  2861 net.cpp:129] Top shape: 100 64 28 28 (5017600)
I0309 16:04:49.981357  2861 net.cpp:137] Memory required for data: 1264436400
I0309 16:04:49.981360  2861 layer_factory.hpp:77] Creating layer res2.1.conv2
I0309 16:04:49.981370  2861 net.cpp:84] Creating Layer res2.1.conv2
I0309 16:04:49.981374  2861 net.cpp:406] res2.1.conv2 <- res2.1.conv1/bn
I0309 16:04:49.981382  2861 net.cpp:380] res2.1.conv2 -> res2.1.conv2
I0309 16:04:49.983589  2861 net.cpp:122] Setting up res2.1.conv2
I0309 16:04:49.983604  2861 net.cpp:129] Top shape: 100 64 28 28 (5017600)
I0309 16:04:49.983624  2861 net.cpp:137] Memory required for data: 1284506800
I0309 16:04:49.983630  2861 layer_factory.hpp:77] Creating layer res2.1.conv2/bn
I0309 16:04:49.983640  2861 net.cpp:84] Creating Layer res2.1.conv2/bn
I0309 16:04:49.983644  2861 net.cpp:406] res2.1.conv2/bn <- res2.1.conv2
I0309 16:04:49.983649  2861 net.cpp:380] res2.1.conv2/bn -> res2.1.conv2/bn
I0309 16:04:49.983870  2861 net.cpp:122] Setting up res2.1.conv2/bn
I0309 16:04:49.983878  2861 net.cpp:129] Top shape: 100 64 28 28 (5017600)
I0309 16:04:49.983881  2861 net.cpp:137] Memory required for data: 1304577200
I0309 16:04:49.983889  2861 layer_factory.hpp:77] Creating layer res2.1.conv2/bn_scale
I0309 16:04:49.983896  2861 net.cpp:84] Creating Layer res2.1.conv2/bn_scale
I0309 16:04:49.983899  2861 net.cpp:406] res2.1.conv2/bn_scale <- res2.1.conv2/bn
I0309 16:04:49.983906  2861 net.cpp:367] res2.1.conv2/bn_scale -> res2.1.conv2/bn (in-place)
I0309 16:04:49.983947  2861 layer_factory.hpp:77] Creating layer res2.1.conv2/bn_scale
I0309 16:04:49.984064  2861 net.cpp:122] Setting up res2.1.conv2/bn_scale
I0309 16:04:49.984072  2861 net.cpp:129] Top shape: 100 64 28 28 (5017600)
I0309 16:04:49.984076  2861 net.cpp:137] Memory required for data: 1324647600
I0309 16:04:49.984081  2861 layer_factory.hpp:77] Creating layer res2.1.skipConv
I0309 16:04:49.984089  2861 net.cpp:84] Creating Layer res2.1.skipConv
I0309 16:04:49.984093  2861 net.cpp:406] res2.1.skipConv <- conv2/bn_conv2/relu_0_split_1
I0309 16:04:49.984099  2861 net.cpp:380] res2.1.skipConv -> res2.1.skipConv
I0309 16:04:49.986328  2861 net.cpp:122] Setting up res2.1.skipConv
I0309 16:04:49.986343  2861 net.cpp:129] Top shape: 100 64 28 28 (5017600)
I0309 16:04:49.986363  2861 net.cpp:137] Memory required for data: 1344718000
I0309 16:04:49.986368  2861 layer_factory.hpp:77] Creating layer res2.1skipConv/bn
I0309 16:04:49.986377  2861 net.cpp:84] Creating Layer res2.1skipConv/bn
I0309 16:04:49.986392  2861 net.cpp:406] res2.1skipConv/bn <- res2.1.skipConv
I0309 16:04:49.986402  2861 net.cpp:380] res2.1skipConv/bn -> res2.1.skipConv/bn
I0309 16:04:49.986616  2861 net.cpp:122] Setting up res2.1skipConv/bn
I0309 16:04:49.986626  2861 net.cpp:129] Top shape: 100 64 28 28 (5017600)
I0309 16:04:49.986629  2861 net.cpp:137] Memory required for data: 1364788400
I0309 16:04:49.986635  2861 layer_factory.hpp:77] Creating layer res2.1skipConv/bn_scale
I0309 16:04:49.986641  2861 net.cpp:84] Creating Layer res2.1skipConv/bn_scale
I0309 16:04:49.986646  2861 net.cpp:406] res2.1skipConv/bn_scale <- res2.1.skipConv/bn
I0309 16:04:49.986652  2861 net.cpp:367] res2.1skipConv/bn_scale -> res2.1.skipConv/bn (in-place)
I0309 16:04:49.986694  2861 layer_factory.hpp:77] Creating layer res2.1skipConv/bn_scale
I0309 16:04:49.986815  2861 net.cpp:122] Setting up res2.1skipConv/bn_scale
I0309 16:04:49.986824  2861 net.cpp:129] Top shape: 100 64 28 28 (5017600)
I0309 16:04:49.986826  2861 net.cpp:137] Memory required for data: 1384858800
I0309 16:04:49.986831  2861 layer_factory.hpp:77] Creating layer res2.1.sum
I0309 16:04:49.986855  2861 net.cpp:84] Creating Layer res2.1.sum
I0309 16:04:49.986861  2861 net.cpp:406] res2.1.sum <- res2.1.conv2/bn
I0309 16:04:49.986881  2861 net.cpp:406] res2.1.sum <- res2.1.skipConv/bn
I0309 16:04:49.986886  2861 net.cpp:380] res2.1.sum -> res2.1.sum
I0309 16:04:49.986919  2861 net.cpp:122] Setting up res2.1.sum
I0309 16:04:49.986928  2861 net.cpp:129] Top shape: 100 64 28 28 (5017600)
I0309 16:04:49.986932  2861 net.cpp:137] Memory required for data: 1404929200
I0309 16:04:49.986935  2861 layer_factory.hpp:77] Creating layer res2.1.relu
I0309 16:04:49.986943  2861 net.cpp:84] Creating Layer res2.1.relu
I0309 16:04:49.986946  2861 net.cpp:406] res2.1.relu <- res2.1.sum
I0309 16:04:49.986950  2861 net.cpp:367] res2.1.relu -> res2.1.sum (in-place)
I0309 16:04:49.987460  2861 net.cpp:122] Setting up res2.1.relu
I0309 16:04:49.987473  2861 net.cpp:129] Top shape: 100 64 28 28 (5017600)
I0309 16:04:49.987493  2861 net.cpp:137] Memory required for data: 1424999600
I0309 16:04:49.987495  2861 layer_factory.hpp:77] Creating layer res2.1.sum_res2.1.relu_0_split
I0309 16:04:49.987501  2861 net.cpp:84] Creating Layer res2.1.sum_res2.1.relu_0_split
I0309 16:04:49.987504  2861 net.cpp:406] res2.1.sum_res2.1.relu_0_split <- res2.1.sum
I0309 16:04:49.987511  2861 net.cpp:380] res2.1.sum_res2.1.relu_0_split -> res2.1.sum_res2.1.relu_0_split_0
I0309 16:04:49.987534  2861 net.cpp:380] res2.1.sum_res2.1.relu_0_split -> res2.1.sum_res2.1.relu_0_split_1
I0309 16:04:49.987578  2861 net.cpp:122] Setting up res2.1.sum_res2.1.relu_0_split
I0309 16:04:49.987586  2861 net.cpp:129] Top shape: 100 64 28 28 (5017600)
I0309 16:04:49.987591  2861 net.cpp:129] Top shape: 100 64 28 28 (5017600)
I0309 16:04:49.987594  2861 net.cpp:137] Memory required for data: 1465140400
I0309 16:04:49.987597  2861 layer_factory.hpp:77] Creating layer res2.2.conv1
I0309 16:04:49.987620  2861 net.cpp:84] Creating Layer res2.2.conv1
I0309 16:04:49.987625  2861 net.cpp:406] res2.2.conv1 <- res2.1.sum_res2.1.relu_0_split_0
I0309 16:04:49.987632  2861 net.cpp:380] res2.2.conv1 -> res2.2.conv1
I0309 16:04:49.989640  2861 net.cpp:122] Setting up res2.2.conv1
I0309 16:04:49.989653  2861 net.cpp:129] Top shape: 100 64 28 28 (5017600)
I0309 16:04:49.989675  2861 net.cpp:137] Memory required for data: 1485210800
I0309 16:04:49.989681  2861 layer_factory.hpp:77] Creating layer res2.2.conv1/bn
I0309 16:04:49.989686  2861 net.cpp:84] Creating Layer res2.2.conv1/bn
I0309 16:04:49.989689  2861 net.cpp:406] res2.2.conv1/bn <- res2.2.conv1
I0309 16:04:49.989697  2861 net.cpp:380] res2.2.conv1/bn -> res2.2.conv1/bn
I0309 16:04:49.989966  2861 net.cpp:122] Setting up res2.2.conv1/bn
I0309 16:04:49.989975  2861 net.cpp:129] Top shape: 100 64 28 28 (5017600)
I0309 16:04:49.989979  2861 net.cpp:137] Memory required for data: 1505281200
I0309 16:04:49.989992  2861 layer_factory.hpp:77] Creating layer res2.2.conv1/bn_scale
I0309 16:04:49.990000  2861 net.cpp:84] Creating Layer res2.2.conv1/bn_scale
I0309 16:04:49.990017  2861 net.cpp:406] res2.2.conv1/bn_scale <- res2.2.conv1/bn
I0309 16:04:49.990025  2861 net.cpp:367] res2.2.conv1/bn_scale -> res2.2.conv1/bn (in-place)
I0309 16:04:49.990072  2861 layer_factory.hpp:77] Creating layer res2.2.conv1/bn_scale
I0309 16:04:49.990217  2861 net.cpp:122] Setting up res2.2.conv1/bn_scale
I0309 16:04:49.990226  2861 net.cpp:129] Top shape: 100 64 28 28 (5017600)
I0309 16:04:49.990228  2861 net.cpp:137] Memory required for data: 1525351600
I0309 16:04:49.990236  2861 layer_factory.hpp:77] Creating layer res2.2.conv1/relu
I0309 16:04:49.990242  2861 net.cpp:84] Creating Layer res2.2.conv1/relu
I0309 16:04:49.990244  2861 net.cpp:406] res2.2.conv1/relu <- res2.2.conv1/bn
I0309 16:04:49.990250  2861 net.cpp:367] res2.2.conv1/relu -> res2.2.conv1/bn (in-place)
I0309 16:04:49.990741  2861 net.cpp:122] Setting up res2.2.conv1/relu
I0309 16:04:49.990751  2861 net.cpp:129] Top shape: 100 64 28 28 (5017600)
I0309 16:04:49.990772  2861 net.cpp:137] Memory required for data: 1545422000
I0309 16:04:49.990774  2861 layer_factory.hpp:77] Creating layer res2.2.conv2
I0309 16:04:49.990783  2861 net.cpp:84] Creating Layer res2.2.conv2
I0309 16:04:49.990787  2861 net.cpp:406] res2.2.conv2 <- res2.2.conv1/bn
I0309 16:04:49.990793  2861 net.cpp:380] res2.2.conv2 -> res2.2.conv2
I0309 16:04:49.993058  2861 net.cpp:122] Setting up res2.2.conv2
I0309 16:04:49.993091  2861 net.cpp:129] Top shape: 100 64 28 28 (5017600)
I0309 16:04:49.993094  2861 net.cpp:137] Memory required for data: 1565492400
I0309 16:04:49.993100  2861 layer_factory.hpp:77] Creating layer res2.2.conv2/bn
I0309 16:04:49.993106  2861 net.cpp:84] Creating Layer res2.2.conv2/bn
I0309 16:04:49.993110  2861 net.cpp:406] res2.2.conv2/bn <- res2.2.conv2
I0309 16:04:49.993118  2861 net.cpp:380] res2.2.conv2/bn -> res2.2.conv2/bn
I0309 16:04:49.993367  2861 net.cpp:122] Setting up res2.2.conv2/bn
I0309 16:04:49.993376  2861 net.cpp:129] Top shape: 100 64 28 28 (5017600)
I0309 16:04:49.993379  2861 net.cpp:137] Memory required for data: 1585562800
I0309 16:04:49.993387  2861 layer_factory.hpp:77] Creating layer res2.2.conv2/bn_scale
I0309 16:04:49.993393  2861 net.cpp:84] Creating Layer res2.2.conv2/bn_scale
I0309 16:04:49.993396  2861 net.cpp:406] res2.2.conv2/bn_scale <- res2.2.conv2/bn
I0309 16:04:49.993402  2861 net.cpp:367] res2.2.conv2/bn_scale -> res2.2.conv2/bn (in-place)
I0309 16:04:49.993444  2861 layer_factory.hpp:77] Creating layer res2.2.conv2/bn_scale
I0309 16:04:49.993573  2861 net.cpp:122] Setting up res2.2.conv2/bn_scale
I0309 16:04:49.993582  2861 net.cpp:129] Top shape: 100 64 28 28 (5017600)
I0309 16:04:49.993585  2861 net.cpp:137] Memory required for data: 1605633200
I0309 16:04:49.993592  2861 layer_factory.hpp:77] Creating layer res2.2.sum
I0309 16:04:49.993597  2861 net.cpp:84] Creating Layer res2.2.sum
I0309 16:04:49.993602  2861 net.cpp:406] res2.2.sum <- res2.2.conv2/bn
I0309 16:04:49.993607  2861 net.cpp:406] res2.2.sum <- res2.1.sum_res2.1.relu_0_split_1
I0309 16:04:49.993610  2861 net.cpp:380] res2.2.sum -> res2.2.sum
I0309 16:04:49.993635  2861 net.cpp:122] Setting up res2.2.sum
I0309 16:04:49.993643  2861 net.cpp:129] Top shape: 100 64 28 28 (5017600)
I0309 16:04:49.993646  2861 net.cpp:137] Memory required for data: 1625703600
I0309 16:04:49.993649  2861 layer_factory.hpp:77] Creating layer res2.2.relu
I0309 16:04:49.993659  2861 net.cpp:84] Creating Layer res2.2.relu
I0309 16:04:49.993664  2861 net.cpp:406] res2.2.relu <- res2.2.sum
I0309 16:04:49.993669  2861 net.cpp:367] res2.2.relu -> res2.2.sum (in-place)
I0309 16:04:49.994521  2861 net.cpp:122] Setting up res2.2.relu
I0309 16:04:49.994535  2861 net.cpp:129] Top shape: 100 64 28 28 (5017600)
I0309 16:04:49.994555  2861 net.cpp:137] Memory required for data: 1645774000
I0309 16:04:49.994560  2861 layer_factory.hpp:77] Creating layer res2.2.sum_res2.2.relu_0_split
I0309 16:04:49.994567  2861 net.cpp:84] Creating Layer res2.2.sum_res2.2.relu_0_split
I0309 16:04:49.994570  2861 net.cpp:406] res2.2.sum_res2.2.relu_0_split <- res2.2.sum
I0309 16:04:49.994604  2861 net.cpp:380] res2.2.sum_res2.2.relu_0_split -> res2.2.sum_res2.2.relu_0_split_0
I0309 16:04:49.994616  2861 net.cpp:380] res2.2.sum_res2.2.relu_0_split -> res2.2.sum_res2.2.relu_0_split_1
I0309 16:04:49.994663  2861 net.cpp:122] Setting up res2.2.sum_res2.2.relu_0_split
I0309 16:04:49.994671  2861 net.cpp:129] Top shape: 100 64 28 28 (5017600)
I0309 16:04:49.994675  2861 net.cpp:129] Top shape: 100 64 28 28 (5017600)
I0309 16:04:49.994678  2861 net.cpp:137] Memory required for data: 1685914800
I0309 16:04:49.994681  2861 layer_factory.hpp:77] Creating layer res2.3.conv1
I0309 16:04:49.994690  2861 net.cpp:84] Creating Layer res2.3.conv1
I0309 16:04:49.994693  2861 net.cpp:406] res2.3.conv1 <- res2.2.sum_res2.2.relu_0_split_0
I0309 16:04:49.994699  2861 net.cpp:380] res2.3.conv1 -> res2.3.conv1
I0309 16:04:49.997854  2861 net.cpp:122] Setting up res2.3.conv1
I0309 16:04:49.997912  2861 net.cpp:129] Top shape: 100 128 28 28 (10035200)
I0309 16:04:49.997917  2861 net.cpp:137] Memory required for data: 1726055600
I0309 16:04:49.997923  2861 layer_factory.hpp:77] Creating layer res2.3.conv1/bn
I0309 16:04:49.997931  2861 net.cpp:84] Creating Layer res2.3.conv1/bn
I0309 16:04:49.997934  2861 net.cpp:406] res2.3.conv1/bn <- res2.3.conv1
I0309 16:04:49.997941  2861 net.cpp:380] res2.3.conv1/bn -> res2.3.conv1/bn
I0309 16:04:49.998198  2861 net.cpp:122] Setting up res2.3.conv1/bn
I0309 16:04:49.998206  2861 net.cpp:129] Top shape: 100 128 28 28 (10035200)
I0309 16:04:49.998209  2861 net.cpp:137] Memory required for data: 1766196400
I0309 16:04:49.998216  2861 layer_factory.hpp:77] Creating layer res2.3.conv1/bn_scale
I0309 16:04:49.998224  2861 net.cpp:84] Creating Layer res2.3.conv1/bn_scale
I0309 16:04:49.998227  2861 net.cpp:406] res2.3.conv1/bn_scale <- res2.3.conv1/bn
I0309 16:04:49.998231  2861 net.cpp:367] res2.3.conv1/bn_scale -> res2.3.conv1/bn (in-place)
I0309 16:04:49.998273  2861 layer_factory.hpp:77] Creating layer res2.3.conv1/bn_scale
I0309 16:04:49.998394  2861 net.cpp:122] Setting up res2.3.conv1/bn_scale
I0309 16:04:49.998401  2861 net.cpp:129] Top shape: 100 128 28 28 (10035200)
I0309 16:04:49.998404  2861 net.cpp:137] Memory required for data: 1806337200
I0309 16:04:49.998409  2861 layer_factory.hpp:77] Creating layer res2.3.conv1/relu
I0309 16:04:49.998419  2861 net.cpp:84] Creating Layer res2.3.conv1/relu
I0309 16:04:49.998421  2861 net.cpp:406] res2.3.conv1/relu <- res2.3.conv1/bn
I0309 16:04:49.998426  2861 net.cpp:367] res2.3.conv1/relu -> res2.3.conv1/bn (in-place)
I0309 16:04:49.998906  2861 net.cpp:122] Setting up res2.3.conv1/relu
I0309 16:04:49.998919  2861 net.cpp:129] Top shape: 100 128 28 28 (10035200)
I0309 16:04:49.998939  2861 net.cpp:137] Memory required for data: 1846478000
I0309 16:04:49.998942  2861 layer_factory.hpp:77] Creating layer res2.3.conv2
I0309 16:04:49.998950  2861 net.cpp:84] Creating Layer res2.3.conv2
I0309 16:04:49.998955  2861 net.cpp:406] res2.3.conv2 <- res2.3.conv1/bn
I0309 16:04:49.998960  2861 net.cpp:380] res2.3.conv2 -> res2.3.conv2
I0309 16:04:50.001338  2861 net.cpp:122] Setting up res2.3.conv2
I0309 16:04:50.001351  2861 net.cpp:129] Top shape: 100 128 28 28 (10035200)
I0309 16:04:50.001372  2861 net.cpp:137] Memory required for data: 1886618800
I0309 16:04:50.001379  2861 layer_factory.hpp:77] Creating layer res2.3.conv2/bn
I0309 16:04:50.001385  2861 net.cpp:84] Creating Layer res2.3.conv2/bn
I0309 16:04:50.001389  2861 net.cpp:406] res2.3.conv2/bn <- res2.3.conv2
I0309 16:04:50.001396  2861 net.cpp:380] res2.3.conv2/bn -> res2.3.conv2/bn
I0309 16:04:50.001643  2861 net.cpp:122] Setting up res2.3.conv2/bn
I0309 16:04:50.001652  2861 net.cpp:129] Top shape: 100 128 28 28 (10035200)
I0309 16:04:50.001655  2861 net.cpp:137] Memory required for data: 1926759600
I0309 16:04:50.001663  2861 layer_factory.hpp:77] Creating layer res2.3.conv2/bn_scale
I0309 16:04:50.001669  2861 net.cpp:84] Creating Layer res2.3.conv2/bn_scale
I0309 16:04:50.001672  2861 net.cpp:406] res2.3.conv2/bn_scale <- res2.3.conv2/bn
I0309 16:04:50.001693  2861 net.cpp:367] res2.3.conv2/bn_scale -> res2.3.conv2/bn (in-place)
I0309 16:04:50.001741  2861 layer_factory.hpp:77] Creating layer res2.3.conv2/bn_scale
I0309 16:04:50.001899  2861 net.cpp:122] Setting up res2.3.conv2/bn_scale
I0309 16:04:50.001907  2861 net.cpp:129] Top shape: 100 128 28 28 (10035200)
I0309 16:04:50.001929  2861 net.cpp:137] Memory required for data: 1966900400
I0309 16:04:50.001936  2861 layer_factory.hpp:77] Creating layer res2.3.skipConv
I0309 16:04:50.001955  2861 net.cpp:84] Creating Layer res2.3.skipConv
I0309 16:04:50.001960  2861 net.cpp:406] res2.3.skipConv <- res2.2.sum_res2.2.relu_0_split_1
I0309 16:04:50.001965  2861 net.cpp:380] res2.3.skipConv -> res2.3.skipConv
I0309 16:04:50.004928  2861 net.cpp:122] Setting up res2.3.skipConv
I0309 16:04:50.004943  2861 net.cpp:129] Top shape: 100 128 28 28 (10035200)
I0309 16:04:50.004962  2861 net.cpp:137] Memory required for data: 2007041200
I0309 16:04:50.004967  2861 layer_factory.hpp:77] Creating layer res2.3skipConv/bn
I0309 16:04:50.004977  2861 net.cpp:84] Creating Layer res2.3skipConv/bn
I0309 16:04:50.004981  2861 net.cpp:406] res2.3skipConv/bn <- res2.3.skipConv
I0309 16:04:50.005002  2861 net.cpp:380] res2.3skipConv/bn -> res2.3.skipConv/bn
I0309 16:04:50.005229  2861 net.cpp:122] Setting up res2.3skipConv/bn
I0309 16:04:50.005239  2861 net.cpp:129] Top shape: 100 128 28 28 (10035200)
I0309 16:04:50.005241  2861 net.cpp:137] Memory required for data: 2047182000
I0309 16:04:50.005249  2861 layer_factory.hpp:77] Creating layer res2.3skipConv/bn_scale
I0309 16:04:50.005255  2861 net.cpp:84] Creating Layer res2.3skipConv/bn_scale
I0309 16:04:50.005259  2861 net.cpp:406] res2.3skipConv/bn_scale <- res2.3.skipConv/bn
I0309 16:04:50.005265  2861 net.cpp:367] res2.3skipConv/bn_scale -> res2.3.skipConv/bn (in-place)
I0309 16:04:50.005309  2861 layer_factory.hpp:77] Creating layer res2.3skipConv/bn_scale
I0309 16:04:50.005432  2861 net.cpp:122] Setting up res2.3skipConv/bn_scale
I0309 16:04:50.005440  2861 net.cpp:129] Top shape: 100 128 28 28 (10035200)
I0309 16:04:50.005443  2861 net.cpp:137] Memory required for data: 2087322800
I0309 16:04:50.005448  2861 layer_factory.hpp:77] Creating layer res2.3.sum
I0309 16:04:50.005455  2861 net.cpp:84] Creating Layer res2.3.sum
I0309 16:04:50.005460  2861 net.cpp:406] res2.3.sum <- res2.3.conv2/bn
I0309 16:04:50.005465  2861 net.cpp:406] res2.3.sum <- res2.3.skipConv/bn
I0309 16:04:50.005470  2861 net.cpp:380] res2.3.sum -> res2.3.sum
I0309 16:04:50.005501  2861 net.cpp:122] Setting up res2.3.sum
I0309 16:04:50.005508  2861 net.cpp:129] Top shape: 100 128 28 28 (10035200)
I0309 16:04:50.005511  2861 net.cpp:137] Memory required for data: 2127463600
I0309 16:04:50.005514  2861 layer_factory.hpp:77] Creating layer res2.3.relu
I0309 16:04:50.005522  2861 net.cpp:84] Creating Layer res2.3.relu
I0309 16:04:50.005525  2861 net.cpp:406] res2.3.relu <- res2.3.sum
I0309 16:04:50.005529  2861 net.cpp:367] res2.3.relu -> res2.3.sum (in-place)
I0309 16:04:50.006090  2861 net.cpp:122] Setting up res2.3.relu
I0309 16:04:50.006103  2861 net.cpp:129] Top shape: 100 128 28 28 (10035200)
I0309 16:04:50.006124  2861 net.cpp:137] Memory required for data: 2167604400
I0309 16:04:50.006126  2861 layer_factory.hpp:77] Creating layer res2.3.sum_res2.3.relu_0_split
I0309 16:04:50.006132  2861 net.cpp:84] Creating Layer res2.3.sum_res2.3.relu_0_split
I0309 16:04:50.006136  2861 net.cpp:406] res2.3.sum_res2.3.relu_0_split <- res2.3.sum
I0309 16:04:50.006144  2861 net.cpp:380] res2.3.sum_res2.3.relu_0_split -> res2.3.sum_res2.3.relu_0_split_0
I0309 16:04:50.006166  2861 net.cpp:380] res2.3.sum_res2.3.relu_0_split -> res2.3.sum_res2.3.relu_0_split_1
I0309 16:04:50.006230  2861 net.cpp:122] Setting up res2.3.sum_res2.3.relu_0_split
I0309 16:04:50.006238  2861 net.cpp:129] Top shape: 100 128 28 28 (10035200)
I0309 16:04:50.006242  2861 net.cpp:129] Top shape: 100 128 28 28 (10035200)
I0309 16:04:50.006245  2861 net.cpp:137] Memory required for data: 2247886000
I0309 16:04:50.006249  2861 layer_factory.hpp:77] Creating layer res3.1.conv1
I0309 16:04:50.006270  2861 net.cpp:84] Creating Layer res3.1.conv1
I0309 16:04:50.006275  2861 net.cpp:406] res3.1.conv1 <- res2.3.sum_res2.3.relu_0_split_0
I0309 16:04:50.006281  2861 net.cpp:380] res3.1.conv1 -> res3.1.conv1
I0309 16:04:50.009804  2861 net.cpp:122] Setting up res3.1.conv1
I0309 16:04:50.009836  2861 net.cpp:129] Top shape: 100 128 14 14 (2508800)
I0309 16:04:50.009840  2861 net.cpp:137] Memory required for data: 2257921200
I0309 16:04:50.009846  2861 layer_factory.hpp:77] Creating layer res3.1.conv1/bn
I0309 16:04:50.009852  2861 net.cpp:84] Creating Layer res3.1.conv1/bn
I0309 16:04:50.009856  2861 net.cpp:406] res3.1.conv1/bn <- res3.1.conv1
I0309 16:04:50.009903  2861 net.cpp:380] res3.1.conv1/bn -> res3.1.conv1/bn
I0309 16:04:50.010141  2861 net.cpp:122] Setting up res3.1.conv1/bn
I0309 16:04:50.010149  2861 net.cpp:129] Top shape: 100 128 14 14 (2508800)
I0309 16:04:50.010152  2861 net.cpp:137] Memory required for data: 2267956400
I0309 16:04:50.010161  2861 layer_factory.hpp:77] Creating layer res3.1.conv1/bn_scale
I0309 16:04:50.010169  2861 net.cpp:84] Creating Layer res3.1.conv1/bn_scale
I0309 16:04:50.010172  2861 net.cpp:406] res3.1.conv1/bn_scale <- res3.1.conv1/bn
I0309 16:04:50.010192  2861 net.cpp:367] res3.1.conv1/bn_scale -> res3.1.conv1/bn (in-place)
I0309 16:04:50.010236  2861 layer_factory.hpp:77] Creating layer res3.1.conv1/bn_scale
I0309 16:04:50.010360  2861 net.cpp:122] Setting up res3.1.conv1/bn_scale
I0309 16:04:50.010367  2861 net.cpp:129] Top shape: 100 128 14 14 (2508800)
I0309 16:04:50.010370  2861 net.cpp:137] Memory required for data: 2277991600
I0309 16:04:50.010387  2861 layer_factory.hpp:77] Creating layer res3.1.conv1/relu
I0309 16:04:50.010394  2861 net.cpp:84] Creating Layer res3.1.conv1/relu
I0309 16:04:50.010398  2861 net.cpp:406] res3.1.conv1/relu <- res3.1.conv1/bn
I0309 16:04:50.010404  2861 net.cpp:367] res3.1.conv1/relu -> res3.1.conv1/bn (in-place)
I0309 16:04:50.010887  2861 net.cpp:122] Setting up res3.1.conv1/relu
I0309 16:04:50.010897  2861 net.cpp:129] Top shape: 100 128 14 14 (2508800)
I0309 16:04:50.010900  2861 net.cpp:137] Memory required for data: 2288026800
I0309 16:04:50.010920  2861 layer_factory.hpp:77] Creating layer res3.1.conv2
I0309 16:04:50.010929  2861 net.cpp:84] Creating Layer res3.1.conv2
I0309 16:04:50.010933  2861 net.cpp:406] res3.1.conv2 <- res3.1.conv1/bn
I0309 16:04:50.010939  2861 net.cpp:380] res3.1.conv2 -> res3.1.conv2
I0309 16:04:50.013274  2861 net.cpp:122] Setting up res3.1.conv2
I0309 16:04:50.013288  2861 net.cpp:129] Top shape: 100 128 14 14 (2508800)
I0309 16:04:50.013308  2861 net.cpp:137] Memory required for data: 2298062000
I0309 16:04:50.013314  2861 layer_factory.hpp:77] Creating layer res3.1.conv2/bn
I0309 16:04:50.013321  2861 net.cpp:84] Creating Layer res3.1.conv2/bn
I0309 16:04:50.013342  2861 net.cpp:406] res3.1.conv2/bn <- res3.1.conv2
I0309 16:04:50.013348  2861 net.cpp:380] res3.1.conv2/bn -> res3.1.conv2/bn
I0309 16:04:50.013581  2861 net.cpp:122] Setting up res3.1.conv2/bn
I0309 16:04:50.013589  2861 net.cpp:129] Top shape: 100 128 14 14 (2508800)
I0309 16:04:50.013593  2861 net.cpp:137] Memory required for data: 2308097200
I0309 16:04:50.013600  2861 layer_factory.hpp:77] Creating layer res3.1.conv2/bn_scale
I0309 16:04:50.013607  2861 net.cpp:84] Creating Layer res3.1.conv2/bn_scale
I0309 16:04:50.013610  2861 net.cpp:406] res3.1.conv2/bn_scale <- res3.1.conv2/bn
I0309 16:04:50.013615  2861 net.cpp:367] res3.1.conv2/bn_scale -> res3.1.conv2/bn (in-place)
I0309 16:04:50.013659  2861 layer_factory.hpp:77] Creating layer res3.1.conv2/bn_scale
I0309 16:04:50.013775  2861 net.cpp:122] Setting up res3.1.conv2/bn_scale
I0309 16:04:50.013783  2861 net.cpp:129] Top shape: 100 128 14 14 (2508800)
I0309 16:04:50.013787  2861 net.cpp:137] Memory required for data: 2318132400
I0309 16:04:50.013793  2861 layer_factory.hpp:77] Creating layer res3.1.skipConv
I0309 16:04:50.013801  2861 net.cpp:84] Creating Layer res3.1.skipConv
I0309 16:04:50.013804  2861 net.cpp:406] res3.1.skipConv <- res2.3.sum_res2.3.relu_0_split_1
I0309 16:04:50.013823  2861 net.cpp:380] res3.1.skipConv -> res3.1.skipConv
I0309 16:04:50.015799  2861 net.cpp:122] Setting up res3.1.skipConv
I0309 16:04:50.015830  2861 net.cpp:129] Top shape: 100 128 14 14 (2508800)
I0309 16:04:50.015833  2861 net.cpp:137] Memory required for data: 2328167600
I0309 16:04:50.015839  2861 layer_factory.hpp:77] Creating layer res3.1skipConv/bn
I0309 16:04:50.015846  2861 net.cpp:84] Creating Layer res3.1skipConv/bn
I0309 16:04:50.015849  2861 net.cpp:406] res3.1skipConv/bn <- res3.1.skipConv
I0309 16:04:50.015856  2861 net.cpp:380] res3.1skipConv/bn -> res3.1.skipConv/bn
I0309 16:04:50.016098  2861 net.cpp:122] Setting up res3.1skipConv/bn
I0309 16:04:50.016105  2861 net.cpp:129] Top shape: 100 128 14 14 (2508800)
I0309 16:04:50.016108  2861 net.cpp:137] Memory required for data: 2338202800
I0309 16:04:50.016115  2861 layer_factory.hpp:77] Creating layer res3.1skipConv/bn_scale
I0309 16:04:50.016124  2861 net.cpp:84] Creating Layer res3.1skipConv/bn_scale
I0309 16:04:50.016126  2861 net.cpp:406] res3.1skipConv/bn_scale <- res3.1.skipConv/bn
I0309 16:04:50.016132  2861 net.cpp:367] res3.1skipConv/bn_scale -> res3.1.skipConv/bn (in-place)
I0309 16:04:50.016175  2861 layer_factory.hpp:77] Creating layer res3.1skipConv/bn_scale
I0309 16:04:50.016299  2861 net.cpp:122] Setting up res3.1skipConv/bn_scale
I0309 16:04:50.016307  2861 net.cpp:129] Top shape: 100 128 14 14 (2508800)
I0309 16:04:50.016310  2861 net.cpp:137] Memory required for data: 2348238000
I0309 16:04:50.016316  2861 layer_factory.hpp:77] Creating layer res3.1.sum
I0309 16:04:50.016324  2861 net.cpp:84] Creating Layer res3.1.sum
I0309 16:04:50.016327  2861 net.cpp:406] res3.1.sum <- res3.1.conv2/bn
I0309 16:04:50.016331  2861 net.cpp:406] res3.1.sum <- res3.1.skipConv/bn
I0309 16:04:50.016335  2861 net.cpp:380] res3.1.sum -> res3.1.sum
I0309 16:04:50.016363  2861 net.cpp:122] Setting up res3.1.sum
I0309 16:04:50.016371  2861 net.cpp:129] Top shape: 100 128 14 14 (2508800)
I0309 16:04:50.016373  2861 net.cpp:137] Memory required for data: 2358273200
I0309 16:04:50.016376  2861 layer_factory.hpp:77] Creating layer res3.1.relu
I0309 16:04:50.016383  2861 net.cpp:84] Creating Layer res3.1.relu
I0309 16:04:50.016386  2861 net.cpp:406] res3.1.relu <- res3.1.sum
I0309 16:04:50.016391  2861 net.cpp:367] res3.1.relu -> res3.1.sum (in-place)
I0309 16:04:50.017201  2861 net.cpp:122] Setting up res3.1.relu
I0309 16:04:50.017215  2861 net.cpp:129] Top shape: 100 128 14 14 (2508800)
I0309 16:04:50.017235  2861 net.cpp:137] Memory required for data: 2368308400
I0309 16:04:50.017238  2861 layer_factory.hpp:77] Creating layer res3.1.sum_res3.1.relu_0_split
I0309 16:04:50.017246  2861 net.cpp:84] Creating Layer res3.1.sum_res3.1.relu_0_split
I0309 16:04:50.017251  2861 net.cpp:406] res3.1.sum_res3.1.relu_0_split <- res3.1.sum
I0309 16:04:50.017256  2861 net.cpp:380] res3.1.sum_res3.1.relu_0_split -> res3.1.sum_res3.1.relu_0_split_0
I0309 16:04:50.017280  2861 net.cpp:380] res3.1.sum_res3.1.relu_0_split -> res3.1.sum_res3.1.relu_0_split_1
I0309 16:04:50.017328  2861 net.cpp:122] Setting up res3.1.sum_res3.1.relu_0_split
I0309 16:04:50.017338  2861 net.cpp:129] Top shape: 100 128 14 14 (2508800)
I0309 16:04:50.017352  2861 net.cpp:129] Top shape: 100 128 14 14 (2508800)
I0309 16:04:50.017355  2861 net.cpp:137] Memory required for data: 2388378800
I0309 16:04:50.017359  2861 layer_factory.hpp:77] Creating layer res3.2.conv1
I0309 16:04:50.017366  2861 net.cpp:84] Creating Layer res3.2.conv1
I0309 16:04:50.017369  2861 net.cpp:406] res3.2.conv1 <- res3.1.sum_res3.1.relu_0_split_0
I0309 16:04:50.017375  2861 net.cpp:380] res3.2.conv1 -> res3.2.conv1
I0309 16:04:50.020519  2861 net.cpp:122] Setting up res3.2.conv1
I0309 16:04:50.020534  2861 net.cpp:129] Top shape: 100 128 14 14 (2508800)
I0309 16:04:50.020552  2861 net.cpp:137] Memory required for data: 2398414000
I0309 16:04:50.020558  2861 layer_factory.hpp:77] Creating layer res3.2.conv1/bn
I0309 16:04:50.020566  2861 net.cpp:84] Creating Layer res3.2.conv1/bn
I0309 16:04:50.020587  2861 net.cpp:406] res3.2.conv1/bn <- res3.2.conv1
I0309 16:04:50.020604  2861 net.cpp:380] res3.2.conv1/bn -> res3.2.conv1/bn
I0309 16:04:50.020838  2861 net.cpp:122] Setting up res3.2.conv1/bn
I0309 16:04:50.020846  2861 net.cpp:129] Top shape: 100 128 14 14 (2508800)
I0309 16:04:50.020850  2861 net.cpp:137] Memory required for data: 2408449200
I0309 16:04:50.020857  2861 layer_factory.hpp:77] Creating layer res3.2.conv1/bn_scale
I0309 16:04:50.020864  2861 net.cpp:84] Creating Layer res3.2.conv1/bn_scale
I0309 16:04:50.020866  2861 net.cpp:406] res3.2.conv1/bn_scale <- res3.2.conv1/bn
I0309 16:04:50.020874  2861 net.cpp:367] res3.2.conv1/bn_scale -> res3.2.conv1/bn (in-place)
I0309 16:04:50.020915  2861 layer_factory.hpp:77] Creating layer res3.2.conv1/bn_scale
I0309 16:04:50.021033  2861 net.cpp:122] Setting up res3.2.conv1/bn_scale
I0309 16:04:50.021039  2861 net.cpp:129] Top shape: 100 128 14 14 (2508800)
I0309 16:04:50.021044  2861 net.cpp:137] Memory required for data: 2418484400
I0309 16:04:50.021049  2861 layer_factory.hpp:77] Creating layer res3.2.conv1/relu
I0309 16:04:50.021054  2861 net.cpp:84] Creating Layer res3.2.conv1/relu
I0309 16:04:50.021057  2861 net.cpp:406] res3.2.conv1/relu <- res3.2.conv1/bn
I0309 16:04:50.021064  2861 net.cpp:367] res3.2.conv1/relu -> res3.2.conv1/bn (in-place)
I0309 16:04:50.021536  2861 net.cpp:122] Setting up res3.2.conv1/relu
I0309 16:04:50.021546  2861 net.cpp:129] Top shape: 100 128 14 14 (2508800)
I0309 16:04:50.021564  2861 net.cpp:137] Memory required for data: 2428519600
I0309 16:04:50.021569  2861 layer_factory.hpp:77] Creating layer res3.2.conv2
I0309 16:04:50.021584  2861 net.cpp:84] Creating Layer res3.2.conv2
I0309 16:04:50.021589  2861 net.cpp:406] res3.2.conv2 <- res3.2.conv1/bn
I0309 16:04:50.021594  2861 net.cpp:380] res3.2.conv2 -> res3.2.conv2
I0309 16:04:50.023931  2861 net.cpp:122] Setting up res3.2.conv2
I0309 16:04:50.023946  2861 net.cpp:129] Top shape: 100 128 14 14 (2508800)
I0309 16:04:50.023965  2861 net.cpp:137] Memory required for data: 2438554800
I0309 16:04:50.023972  2861 layer_factory.hpp:77] Creating layer res3.2.conv2/bn
I0309 16:04:50.023978  2861 net.cpp:84] Creating Layer res3.2.conv2/bn
I0309 16:04:50.023982  2861 net.cpp:406] res3.2.conv2/bn <- res3.2.conv2
I0309 16:04:50.023988  2861 net.cpp:380] res3.2.conv2/bn -> res3.2.conv2/bn
I0309 16:04:50.024233  2861 net.cpp:122] Setting up res3.2.conv2/bn
I0309 16:04:50.024243  2861 net.cpp:129] Top shape: 100 128 14 14 (2508800)
I0309 16:04:50.024246  2861 net.cpp:137] Memory required for data: 2448590000
I0309 16:04:50.024253  2861 layer_factory.hpp:77] Creating layer res3.2.conv2/bn_scale
I0309 16:04:50.024258  2861 net.cpp:84] Creating Layer res3.2.conv2/bn_scale
I0309 16:04:50.024262  2861 net.cpp:406] res3.2.conv2/bn_scale <- res3.2.conv2/bn
I0309 16:04:50.024267  2861 net.cpp:367] res3.2.conv2/bn_scale -> res3.2.conv2/bn (in-place)
I0309 16:04:50.024309  2861 layer_factory.hpp:77] Creating layer res3.2.conv2/bn_scale
I0309 16:04:50.024426  2861 net.cpp:122] Setting up res3.2.conv2/bn_scale
I0309 16:04:50.024435  2861 net.cpp:129] Top shape: 100 128 14 14 (2508800)
I0309 16:04:50.024437  2861 net.cpp:137] Memory required for data: 2458625200
I0309 16:04:50.024442  2861 layer_factory.hpp:77] Creating layer res3.2.sum
I0309 16:04:50.024449  2861 net.cpp:84] Creating Layer res3.2.sum
I0309 16:04:50.024453  2861 net.cpp:406] res3.2.sum <- res3.2.conv2/bn
I0309 16:04:50.024457  2861 net.cpp:406] res3.2.sum <- res3.1.sum_res3.1.relu_0_split_1
I0309 16:04:50.024464  2861 net.cpp:380] res3.2.sum -> res3.2.sum
I0309 16:04:50.024489  2861 net.cpp:122] Setting up res3.2.sum
I0309 16:04:50.024497  2861 net.cpp:129] Top shape: 100 128 14 14 (2508800)
I0309 16:04:50.024500  2861 net.cpp:137] Memory required for data: 2468660400
I0309 16:04:50.024503  2861 layer_factory.hpp:77] Creating layer res3.2.relu
I0309 16:04:50.024508  2861 net.cpp:84] Creating Layer res3.2.relu
I0309 16:04:50.024513  2861 net.cpp:406] res3.2.relu <- res3.2.sum
I0309 16:04:50.024518  2861 net.cpp:367] res3.2.relu -> res3.2.sum (in-place)
I0309 16:04:50.024993  2861 net.cpp:122] Setting up res3.2.relu
I0309 16:04:50.025004  2861 net.cpp:129] Top shape: 100 128 14 14 (2508800)
I0309 16:04:50.025023  2861 net.cpp:137] Memory required for data: 2478695600
I0309 16:04:50.025027  2861 layer_factory.hpp:77] Creating layer res3.2.sum_res3.2.relu_0_split
I0309 16:04:50.025033  2861 net.cpp:84] Creating Layer res3.2.sum_res3.2.relu_0_split
I0309 16:04:50.025038  2861 net.cpp:406] res3.2.sum_res3.2.relu_0_split <- res3.2.sum
I0309 16:04:50.025043  2861 net.cpp:380] res3.2.sum_res3.2.relu_0_split -> res3.2.sum_res3.2.relu_0_split_0
I0309 16:04:50.025061  2861 net.cpp:380] res3.2.sum_res3.2.relu_0_split -> res3.2.sum_res3.2.relu_0_split_1
I0309 16:04:50.025120  2861 net.cpp:122] Setting up res3.2.sum_res3.2.relu_0_split
I0309 16:04:50.025128  2861 net.cpp:129] Top shape: 100 128 14 14 (2508800)
I0309 16:04:50.025133  2861 net.cpp:129] Top shape: 100 128 14 14 (2508800)
I0309 16:04:50.025136  2861 net.cpp:137] Memory required for data: 2498766000
I0309 16:04:50.025140  2861 layer_factory.hpp:77] Creating layer res3.3.conv1
I0309 16:04:50.025146  2861 net.cpp:84] Creating Layer res3.3.conv1
I0309 16:04:50.025151  2861 net.cpp:406] res3.3.conv1 <- res3.2.sum_res3.2.relu_0_split_0
I0309 16:04:50.025156  2861 net.cpp:380] res3.3.conv1 -> res3.3.conv1
I0309 16:04:50.027761  2861 net.cpp:122] Setting up res3.3.conv1
I0309 16:04:50.027776  2861 net.cpp:129] Top shape: 100 128 14 14 (2508800)
I0309 16:04:50.027794  2861 net.cpp:137] Memory required for data: 2508801200
I0309 16:04:50.027801  2861 layer_factory.hpp:77] Creating layer res3.3.conv1/bn
I0309 16:04:50.027807  2861 net.cpp:84] Creating Layer res3.3.conv1/bn
I0309 16:04:50.027823  2861 net.cpp:406] res3.3.conv1/bn <- res3.3.conv1
I0309 16:04:50.027830  2861 net.cpp:380] res3.3.conv1/bn -> res3.3.conv1/bn
I0309 16:04:50.028059  2861 net.cpp:122] Setting up res3.3.conv1/bn
I0309 16:04:50.028067  2861 net.cpp:129] Top shape: 100 128 14 14 (2508800)
I0309 16:04:50.028070  2861 net.cpp:137] Memory required for data: 2518836400
I0309 16:04:50.028077  2861 layer_factory.hpp:77] Creating layer res3.3.conv1/bn_scale
I0309 16:04:50.028086  2861 net.cpp:84] Creating Layer res3.3.conv1/bn_scale
I0309 16:04:50.028090  2861 net.cpp:406] res3.3.conv1/bn_scale <- res3.3.conv1/bn
I0309 16:04:50.028095  2861 net.cpp:367] res3.3.conv1/bn_scale -> res3.3.conv1/bn (in-place)
I0309 16:04:50.028138  2861 layer_factory.hpp:77] Creating layer res3.3.conv1/bn_scale
I0309 16:04:50.028256  2861 net.cpp:122] Setting up res3.3.conv1/bn_scale
I0309 16:04:50.028264  2861 net.cpp:129] Top shape: 100 128 14 14 (2508800)
I0309 16:04:50.028275  2861 net.cpp:137] Memory required for data: 2528871600
I0309 16:04:50.028281  2861 layer_factory.hpp:77] Creating layer res3.3.conv1/relu
I0309 16:04:50.028286  2861 net.cpp:84] Creating Layer res3.3.conv1/relu
I0309 16:04:50.028290  2861 net.cpp:406] res3.3.conv1/relu <- res3.3.conv1/bn
I0309 16:04:50.028295  2861 net.cpp:367] res3.3.conv1/relu -> res3.3.conv1/bn (in-place)
I0309 16:04:50.029088  2861 net.cpp:122] Setting up res3.3.conv1/relu
I0309 16:04:50.029101  2861 net.cpp:129] Top shape: 100 128 14 14 (2508800)
I0309 16:04:50.029121  2861 net.cpp:137] Memory required for data: 2538906800
I0309 16:04:50.029124  2861 layer_factory.hpp:77] Creating layer res3.3.conv2
I0309 16:04:50.029134  2861 net.cpp:84] Creating Layer res3.3.conv2
I0309 16:04:50.029139  2861 net.cpp:406] res3.3.conv2 <- res3.3.conv1/bn
I0309 16:04:50.029160  2861 net.cpp:380] res3.3.conv2 -> res3.3.conv2
I0309 16:04:50.032230  2861 net.cpp:122] Setting up res3.3.conv2
I0309 16:04:50.032263  2861 net.cpp:129] Top shape: 100 128 14 14 (2508800)
I0309 16:04:50.032268  2861 net.cpp:137] Memory required for data: 2548942000
I0309 16:04:50.032272  2861 layer_factory.hpp:77] Creating layer res3.3.conv2/bn
I0309 16:04:50.032279  2861 net.cpp:84] Creating Layer res3.3.conv2/bn
I0309 16:04:50.032284  2861 net.cpp:406] res3.3.conv2/bn <- res3.3.conv2
I0309 16:04:50.032306  2861 net.cpp:380] res3.3.conv2/bn -> res3.3.conv2/bn
I0309 16:04:50.032552  2861 net.cpp:122] Setting up res3.3.conv2/bn
I0309 16:04:50.032560  2861 net.cpp:129] Top shape: 100 128 14 14 (2508800)
I0309 16:04:50.032564  2861 net.cpp:137] Memory required for data: 2558977200
I0309 16:04:50.032570  2861 layer_factory.hpp:77] Creating layer res3.3.conv2/bn_scale
I0309 16:04:50.032577  2861 net.cpp:84] Creating Layer res3.3.conv2/bn_scale
I0309 16:04:50.032579  2861 net.cpp:406] res3.3.conv2/bn_scale <- res3.3.conv2/bn
I0309 16:04:50.032586  2861 net.cpp:367] res3.3.conv2/bn_scale -> res3.3.conv2/bn (in-place)
I0309 16:04:50.032630  2861 layer_factory.hpp:77] Creating layer res3.3.conv2/bn_scale
I0309 16:04:50.032749  2861 net.cpp:122] Setting up res3.3.conv2/bn_scale
I0309 16:04:50.032759  2861 net.cpp:129] Top shape: 100 128 14 14 (2508800)
I0309 16:04:50.032763  2861 net.cpp:137] Memory required for data: 2569012400
I0309 16:04:50.032768  2861 layer_factory.hpp:77] Creating layer res3.3.sum
I0309 16:04:50.032774  2861 net.cpp:84] Creating Layer res3.3.sum
I0309 16:04:50.032778  2861 net.cpp:406] res3.3.sum <- res3.3.conv2/bn
I0309 16:04:50.032783  2861 net.cpp:406] res3.3.sum <- res3.2.sum_res3.2.relu_0_split_1
I0309 16:04:50.032786  2861 net.cpp:380] res3.3.sum -> res3.3.sum
I0309 16:04:50.032812  2861 net.cpp:122] Setting up res3.3.sum
I0309 16:04:50.032819  2861 net.cpp:129] Top shape: 100 128 14 14 (2508800)
I0309 16:04:50.032824  2861 net.cpp:137] Memory required for data: 2579047600
I0309 16:04:50.032826  2861 layer_factory.hpp:77] Creating layer res3.3.relu
I0309 16:04:50.032832  2861 net.cpp:84] Creating Layer res3.3.relu
I0309 16:04:50.032835  2861 net.cpp:406] res3.3.relu <- res3.3.sum
I0309 16:04:50.032840  2861 net.cpp:367] res3.3.relu -> res3.3.sum (in-place)
I0309 16:04:50.033305  2861 net.cpp:122] Setting up res3.3.relu
I0309 16:04:50.033315  2861 net.cpp:129] Top shape: 100 128 14 14 (2508800)
I0309 16:04:50.033336  2861 net.cpp:137] Memory required for data: 2589082800
I0309 16:04:50.033340  2861 layer_factory.hpp:77] Creating layer res3.3.sum_res3.3.relu_0_split
I0309 16:04:50.033345  2861 net.cpp:84] Creating Layer res3.3.sum_res3.3.relu_0_split
I0309 16:04:50.033349  2861 net.cpp:406] res3.3.sum_res3.3.relu_0_split <- res3.3.sum
I0309 16:04:50.033354  2861 net.cpp:380] res3.3.sum_res3.3.relu_0_split -> res3.3.sum_res3.3.relu_0_split_0
I0309 16:04:50.033375  2861 net.cpp:380] res3.3.sum_res3.3.relu_0_split -> res3.3.sum_res3.3.relu_0_split_1
I0309 16:04:50.033421  2861 net.cpp:122] Setting up res3.3.sum_res3.3.relu_0_split
I0309 16:04:50.033428  2861 net.cpp:129] Top shape: 100 128 14 14 (2508800)
I0309 16:04:50.033432  2861 net.cpp:129] Top shape: 100 128 14 14 (2508800)
I0309 16:04:50.033435  2861 net.cpp:137] Memory required for data: 2609153200
I0309 16:04:50.033438  2861 layer_factory.hpp:77] Creating layer res3.4.conv1
I0309 16:04:50.033447  2861 net.cpp:84] Creating Layer res3.4.conv1
I0309 16:04:50.033449  2861 net.cpp:406] res3.4.conv1 <- res3.3.sum_res3.3.relu_0_split_0
I0309 16:04:50.033457  2861 net.cpp:380] res3.4.conv1 -> res3.4.conv1
I0309 16:04:50.035742  2861 net.cpp:122] Setting up res3.4.conv1
I0309 16:04:50.035773  2861 net.cpp:129] Top shape: 100 128 14 14 (2508800)
I0309 16:04:50.035778  2861 net.cpp:137] Memory required for data: 2619188400
I0309 16:04:50.035784  2861 layer_factory.hpp:77] Creating layer res3.4.conv1/bn
I0309 16:04:50.035789  2861 net.cpp:84] Creating Layer res3.4.conv1/bn
I0309 16:04:50.035794  2861 net.cpp:406] res3.4.conv1/bn <- res3.4.conv1
I0309 16:04:50.035799  2861 net.cpp:380] res3.4.conv1/bn -> res3.4.conv1/bn
I0309 16:04:50.036034  2861 net.cpp:122] Setting up res3.4.conv1/bn
I0309 16:04:50.036042  2861 net.cpp:129] Top shape: 100 128 14 14 (2508800)
I0309 16:04:50.036046  2861 net.cpp:137] Memory required for data: 2629223600
I0309 16:04:50.036052  2861 layer_factory.hpp:77] Creating layer res3.4.conv1/bn_scale
I0309 16:04:50.036058  2861 net.cpp:84] Creating Layer res3.4.conv1/bn_scale
I0309 16:04:50.036062  2861 net.cpp:406] res3.4.conv1/bn_scale <- res3.4.conv1/bn
I0309 16:04:50.036067  2861 net.cpp:367] res3.4.conv1/bn_scale -> res3.4.conv1/bn (in-place)
I0309 16:04:50.036124  2861 layer_factory.hpp:77] Creating layer res3.4.conv1/bn_scale
I0309 16:04:50.036244  2861 net.cpp:122] Setting up res3.4.conv1/bn_scale
I0309 16:04:50.036253  2861 net.cpp:129] Top shape: 100 128 14 14 (2508800)
I0309 16:04:50.036257  2861 net.cpp:137] Memory required for data: 2639258800
I0309 16:04:50.036262  2861 layer_factory.hpp:77] Creating layer res3.4.conv1/relu
I0309 16:04:50.036268  2861 net.cpp:84] Creating Layer res3.4.conv1/relu
I0309 16:04:50.036272  2861 net.cpp:406] res3.4.conv1/relu <- res3.4.conv1/bn
I0309 16:04:50.036275  2861 net.cpp:367] res3.4.conv1/relu -> res3.4.conv1/bn (in-place)
I0309 16:04:50.036743  2861 net.cpp:122] Setting up res3.4.conv1/relu
I0309 16:04:50.036756  2861 net.cpp:129] Top shape: 100 128 14 14 (2508800)
I0309 16:04:50.036775  2861 net.cpp:137] Memory required for data: 2649294000
I0309 16:04:50.036779  2861 layer_factory.hpp:77] Creating layer res3.4.conv2
I0309 16:04:50.036785  2861 net.cpp:84] Creating Layer res3.4.conv2
I0309 16:04:50.036789  2861 net.cpp:406] res3.4.conv2 <- res3.4.conv1/bn
I0309 16:04:50.036795  2861 net.cpp:380] res3.4.conv2 -> res3.4.conv2
I0309 16:04:50.039172  2861 net.cpp:122] Setting up res3.4.conv2
I0309 16:04:50.039186  2861 net.cpp:129] Top shape: 100 128 14 14 (2508800)
I0309 16:04:50.039207  2861 net.cpp:137] Memory required for data: 2659329200
I0309 16:04:50.039212  2861 layer_factory.hpp:77] Creating layer res3.4.conv2/bn
I0309 16:04:50.039221  2861 net.cpp:84] Creating Layer res3.4.conv2/bn
I0309 16:04:50.039223  2861 net.cpp:406] res3.4.conv2/bn <- res3.4.conv2
I0309 16:04:50.039229  2861 net.cpp:380] res3.4.conv2/bn -> res3.4.conv2/bn
I0309 16:04:50.039464  2861 net.cpp:122] Setting up res3.4.conv2/bn
I0309 16:04:50.039474  2861 net.cpp:129] Top shape: 100 128 14 14 (2508800)
I0309 16:04:50.039476  2861 net.cpp:137] Memory required for data: 2669364400
I0309 16:04:50.039484  2861 layer_factory.hpp:77] Creating layer res3.4.conv2/bn_scale
I0309 16:04:50.039489  2861 net.cpp:84] Creating Layer res3.4.conv2/bn_scale
I0309 16:04:50.039492  2861 net.cpp:406] res3.4.conv2/bn_scale <- res3.4.conv2/bn
I0309 16:04:50.039497  2861 net.cpp:367] res3.4.conv2/bn_scale -> res3.4.conv2/bn (in-place)
I0309 16:04:50.039542  2861 layer_factory.hpp:77] Creating layer res3.4.conv2/bn_scale
I0309 16:04:50.039664  2861 net.cpp:122] Setting up res3.4.conv2/bn_scale
I0309 16:04:50.039670  2861 net.cpp:129] Top shape: 100 128 14 14 (2508800)
I0309 16:04:50.039674  2861 net.cpp:137] Memory required for data: 2679399600
I0309 16:04:50.039680  2861 layer_factory.hpp:77] Creating layer res3.4.sum
I0309 16:04:50.039685  2861 net.cpp:84] Creating Layer res3.4.sum
I0309 16:04:50.039690  2861 net.cpp:406] res3.4.sum <- res3.4.conv2/bn
I0309 16:04:50.039693  2861 net.cpp:406] res3.4.sum <- res3.3.sum_res3.3.relu_0_split_1
I0309 16:04:50.039700  2861 net.cpp:380] res3.4.sum -> res3.4.sum
I0309 16:04:50.039726  2861 net.cpp:122] Setting up res3.4.sum
I0309 16:04:50.039732  2861 net.cpp:129] Top shape: 100 128 14 14 (2508800)
I0309 16:04:50.039736  2861 net.cpp:137] Memory required for data: 2689434800
I0309 16:04:50.039739  2861 layer_factory.hpp:77] Creating layer res3.4.relu
I0309 16:04:50.039746  2861 net.cpp:84] Creating Layer res3.4.relu
I0309 16:04:50.039749  2861 net.cpp:406] res3.4.relu <- res3.4.sum
I0309 16:04:50.039753  2861 net.cpp:367] res3.4.relu -> res3.4.sum (in-place)
I0309 16:04:50.040565  2861 net.cpp:122] Setting up res3.4.relu
I0309 16:04:50.040594  2861 net.cpp:129] Top shape: 100 128 14 14 (2508800)
I0309 16:04:50.040598  2861 net.cpp:137] Memory required for data: 2699470000
I0309 16:04:50.040601  2861 layer_factory.hpp:77] Creating layer res3.4.sum_res3.4.relu_0_split
I0309 16:04:50.040608  2861 net.cpp:84] Creating Layer res3.4.sum_res3.4.relu_0_split
I0309 16:04:50.040612  2861 net.cpp:406] res3.4.sum_res3.4.relu_0_split <- res3.4.sum
I0309 16:04:50.040619  2861 net.cpp:380] res3.4.sum_res3.4.relu_0_split -> res3.4.sum_res3.4.relu_0_split_0
I0309 16:04:50.040627  2861 net.cpp:380] res3.4.sum_res3.4.relu_0_split -> res3.4.sum_res3.4.relu_0_split_1
I0309 16:04:50.040697  2861 net.cpp:122] Setting up res3.4.sum_res3.4.relu_0_split
I0309 16:04:50.040705  2861 net.cpp:129] Top shape: 100 128 14 14 (2508800)
I0309 16:04:50.040709  2861 net.cpp:129] Top shape: 100 128 14 14 (2508800)
I0309 16:04:50.040712  2861 net.cpp:137] Memory required for data: 2719540400
I0309 16:04:50.040716  2861 layer_factory.hpp:77] Creating layer res3.5.conv1
I0309 16:04:50.040724  2861 net.cpp:84] Creating Layer res3.5.conv1
I0309 16:04:50.040729  2861 net.cpp:406] res3.5.conv1 <- res3.4.sum_res3.4.relu_0_split_0
I0309 16:04:50.040735  2861 net.cpp:380] res3.5.conv1 -> res3.5.conv1
I0309 16:04:50.044608  2861 net.cpp:122] Setting up res3.5.conv1
I0309 16:04:50.044637  2861 net.cpp:129] Top shape: 100 128 14 14 (2508800)
I0309 16:04:50.044641  2861 net.cpp:137] Memory required for data: 2729575600
I0309 16:04:50.044646  2861 layer_factory.hpp:77] Creating layer res3.5.conv1/bn
I0309 16:04:50.044652  2861 net.cpp:84] Creating Layer res3.5.conv1/bn
I0309 16:04:50.044672  2861 net.cpp:406] res3.5.conv1/bn <- res3.5.conv1
I0309 16:04:50.044679  2861 net.cpp:380] res3.5.conv1/bn -> res3.5.conv1/bn
I0309 16:04:50.044919  2861 net.cpp:122] Setting up res3.5.conv1/bn
I0309 16:04:50.044939  2861 net.cpp:129] Top shape: 100 128 14 14 (2508800)
I0309 16:04:50.044942  2861 net.cpp:137] Memory required for data: 2739610800
I0309 16:04:50.044950  2861 layer_factory.hpp:77] Creating layer res3.5.conv1/bn_scale
I0309 16:04:50.044955  2861 net.cpp:84] Creating Layer res3.5.conv1/bn_scale
I0309 16:04:50.044960  2861 net.cpp:406] res3.5.conv1/bn_scale <- res3.5.conv1/bn
I0309 16:04:50.044981  2861 net.cpp:367] res3.5.conv1/bn_scale -> res3.5.conv1/bn (in-place)
I0309 16:04:50.045042  2861 layer_factory.hpp:77] Creating layer res3.5.conv1/bn_scale
I0309 16:04:50.045176  2861 net.cpp:122] Setting up res3.5.conv1/bn_scale
I0309 16:04:50.045184  2861 net.cpp:129] Top shape: 100 128 14 14 (2508800)
I0309 16:04:50.045187  2861 net.cpp:137] Memory required for data: 2749646000
I0309 16:04:50.045193  2861 layer_factory.hpp:77] Creating layer res3.5.conv1/relu
I0309 16:04:50.045200  2861 net.cpp:84] Creating Layer res3.5.conv1/relu
I0309 16:04:50.045204  2861 net.cpp:406] res3.5.conv1/relu <- res3.5.conv1/bn
I0309 16:04:50.045209  2861 net.cpp:367] res3.5.conv1/relu -> res3.5.conv1/bn (in-place)
I0309 16:04:50.045802  2861 net.cpp:122] Setting up res3.5.conv1/relu
I0309 16:04:50.045814  2861 net.cpp:129] Top shape: 100 128 14 14 (2508800)
I0309 16:04:50.045819  2861 net.cpp:137] Memory required for data: 2759681200
I0309 16:04:50.045836  2861 layer_factory.hpp:77] Creating layer res3.5.conv2
I0309 16:04:50.045845  2861 net.cpp:84] Creating Layer res3.5.conv2
I0309 16:04:50.045850  2861 net.cpp:406] res3.5.conv2 <- res3.5.conv1/bn
I0309 16:04:50.045855  2861 net.cpp:380] res3.5.conv2 -> res3.5.conv2
I0309 16:04:50.048352  2861 net.cpp:122] Setting up res3.5.conv2
I0309 16:04:50.048365  2861 net.cpp:129] Top shape: 100 128 14 14 (2508800)
I0309 16:04:50.048368  2861 net.cpp:137] Memory required for data: 2769716400
I0309 16:04:50.048389  2861 layer_factory.hpp:77] Creating layer res3.5.conv2/bn
I0309 16:04:50.048398  2861 net.cpp:84] Creating Layer res3.5.conv2/bn
I0309 16:04:50.048403  2861 net.cpp:406] res3.5.conv2/bn <- res3.5.conv2
I0309 16:04:50.048408  2861 net.cpp:380] res3.5.conv2/bn -> res3.5.conv2/bn
I0309 16:04:50.048661  2861 net.cpp:122] Setting up res3.5.conv2/bn
I0309 16:04:50.048669  2861 net.cpp:129] Top shape: 100 128 14 14 (2508800)
I0309 16:04:50.048672  2861 net.cpp:137] Memory required for data: 2779751600
I0309 16:04:50.048679  2861 layer_factory.hpp:77] Creating layer res3.5.conv2/bn_scale
I0309 16:04:50.048686  2861 net.cpp:84] Creating Layer res3.5.conv2/bn_scale
I0309 16:04:50.048691  2861 net.cpp:406] res3.5.conv2/bn_scale <- res3.5.conv2/bn
I0309 16:04:50.048694  2861 net.cpp:367] res3.5.conv2/bn_scale -> res3.5.conv2/bn (in-place)
I0309 16:04:50.048740  2861 layer_factory.hpp:77] Creating layer res3.5.conv2/bn_scale
I0309 16:04:50.048882  2861 net.cpp:122] Setting up res3.5.conv2/bn_scale
I0309 16:04:50.048889  2861 net.cpp:129] Top shape: 100 128 14 14 (2508800)
I0309 16:04:50.048892  2861 net.cpp:137] Memory required for data: 2789786800
I0309 16:04:50.048898  2861 layer_factory.hpp:77] Creating layer res3.5.sum
I0309 16:04:50.048904  2861 net.cpp:84] Creating Layer res3.5.sum
I0309 16:04:50.048907  2861 net.cpp:406] res3.5.sum <- res3.5.conv2/bn
I0309 16:04:50.048913  2861 net.cpp:406] res3.5.sum <- res3.4.sum_res3.4.relu_0_split_1
I0309 16:04:50.048918  2861 net.cpp:380] res3.5.sum -> res3.5.sum
I0309 16:04:50.048945  2861 net.cpp:122] Setting up res3.5.sum
I0309 16:04:50.048952  2861 net.cpp:129] Top shape: 100 128 14 14 (2508800)
I0309 16:04:50.048955  2861 net.cpp:137] Memory required for data: 2799822000
I0309 16:04:50.048959  2861 layer_factory.hpp:77] Creating layer res3.5.relu
I0309 16:04:50.048964  2861 net.cpp:84] Creating Layer res3.5.relu
I0309 16:04:50.048982  2861 net.cpp:406] res3.5.relu <- res3.5.sum
I0309 16:04:50.048986  2861 net.cpp:367] res3.5.relu -> res3.5.sum (in-place)
I0309 16:04:50.049437  2861 net.cpp:122] Setting up res3.5.relu
I0309 16:04:50.049448  2861 net.cpp:129] Top shape: 100 128 14 14 (2508800)
I0309 16:04:50.049451  2861 net.cpp:137] Memory required for data: 2809857200
I0309 16:04:50.049454  2861 layer_factory.hpp:77] Creating layer res3.5.sum_res3.5.relu_0_split
I0309 16:04:50.049475  2861 net.cpp:84] Creating Layer res3.5.sum_res3.5.relu_0_split
I0309 16:04:50.049479  2861 net.cpp:406] res3.5.sum_res3.5.relu_0_split <- res3.5.sum
I0309 16:04:50.049486  2861 net.cpp:380] res3.5.sum_res3.5.relu_0_split -> res3.5.sum_res3.5.relu_0_split_0
I0309 16:04:50.049492  2861 net.cpp:380] res3.5.sum_res3.5.relu_0_split -> res3.5.sum_res3.5.relu_0_split_1
I0309 16:04:50.049538  2861 net.cpp:122] Setting up res3.5.sum_res3.5.relu_0_split
I0309 16:04:50.049546  2861 net.cpp:129] Top shape: 100 128 14 14 (2508800)
I0309 16:04:50.049551  2861 net.cpp:129] Top shape: 100 128 14 14 (2508800)
I0309 16:04:50.049552  2861 net.cpp:137] Memory required for data: 2829927600
I0309 16:04:50.049556  2861 layer_factory.hpp:77] Creating layer res3.6.conv1
I0309 16:04:50.049566  2861 net.cpp:84] Creating Layer res3.6.conv1
I0309 16:04:50.049569  2861 net.cpp:406] res3.6.conv1 <- res3.5.sum_res3.5.relu_0_split_0
I0309 16:04:50.049574  2861 net.cpp:380] res3.6.conv1 -> res3.6.conv1
I0309 16:04:50.052001  2861 net.cpp:122] Setting up res3.6.conv1
I0309 16:04:50.052016  2861 net.cpp:129] Top shape: 100 128 14 14 (2508800)
I0309 16:04:50.052021  2861 net.cpp:137] Memory required for data: 2839962800
I0309 16:04:50.052026  2861 layer_factory.hpp:77] Creating layer res3.6.conv1/bn
I0309 16:04:50.052033  2861 net.cpp:84] Creating Layer res3.6.conv1/bn
I0309 16:04:50.052037  2861 net.cpp:406] res3.6.conv1/bn <- res3.6.conv1
I0309 16:04:50.052042  2861 net.cpp:380] res3.6.conv1/bn -> res3.6.conv1/bn
I0309 16:04:50.052296  2861 net.cpp:122] Setting up res3.6.conv1/bn
I0309 16:04:50.052305  2861 net.cpp:129] Top shape: 100 128 14 14 (2508800)
I0309 16:04:50.052309  2861 net.cpp:137] Memory required for data: 2849998000
I0309 16:04:50.052333  2861 layer_factory.hpp:77] Creating layer res3.6.conv1/bn_scale
I0309 16:04:50.052342  2861 net.cpp:84] Creating Layer res3.6.conv1/bn_scale
I0309 16:04:50.052345  2861 net.cpp:406] res3.6.conv1/bn_scale <- res3.6.conv1/bn
I0309 16:04:50.052351  2861 net.cpp:367] res3.6.conv1/bn_scale -> res3.6.conv1/bn (in-place)
I0309 16:04:50.052397  2861 layer_factory.hpp:77] Creating layer res3.6.conv1/bn_scale
I0309 16:04:50.052516  2861 net.cpp:122] Setting up res3.6.conv1/bn_scale
I0309 16:04:50.052523  2861 net.cpp:129] Top shape: 100 128 14 14 (2508800)
I0309 16:04:50.052527  2861 net.cpp:137] Memory required for data: 2860033200
I0309 16:04:50.052532  2861 layer_factory.hpp:77] Creating layer res3.6.conv1/relu
I0309 16:04:50.052537  2861 net.cpp:84] Creating Layer res3.6.conv1/relu
I0309 16:04:50.052541  2861 net.cpp:406] res3.6.conv1/relu <- res3.6.conv1/bn
I0309 16:04:50.052547  2861 net.cpp:367] res3.6.conv1/relu -> res3.6.conv1/bn (in-place)
I0309 16:04:50.053030  2861 net.cpp:122] Setting up res3.6.conv1/relu
I0309 16:04:50.053040  2861 net.cpp:129] Top shape: 100 128 14 14 (2508800)
I0309 16:04:50.053043  2861 net.cpp:137] Memory required for data: 2870068400
I0309 16:04:50.053047  2861 layer_factory.hpp:77] Creating layer res3.6.conv2
I0309 16:04:50.053071  2861 net.cpp:84] Creating Layer res3.6.conv2
I0309 16:04:50.053077  2861 net.cpp:406] res3.6.conv2 <- res3.6.conv1/bn
I0309 16:04:50.053082  2861 net.cpp:380] res3.6.conv2 -> res3.6.conv2
I0309 16:04:50.056273  2861 net.cpp:122] Setting up res3.6.conv2
I0309 16:04:50.056288  2861 net.cpp:129] Top shape: 100 128 14 14 (2508800)
I0309 16:04:50.056291  2861 net.cpp:137] Memory required for data: 2880103600
I0309 16:04:50.056296  2861 layer_factory.hpp:77] Creating layer res3.6.conv2/bn
I0309 16:04:50.056318  2861 net.cpp:84] Creating Layer res3.6.conv2/bn
I0309 16:04:50.056322  2861 net.cpp:406] res3.6.conv2/bn <- res3.6.conv2
I0309 16:04:50.056329  2861 net.cpp:380] res3.6.conv2/bn -> res3.6.conv2/bn
I0309 16:04:50.056568  2861 net.cpp:122] Setting up res3.6.conv2/bn
I0309 16:04:50.056577  2861 net.cpp:129] Top shape: 100 128 14 14 (2508800)
I0309 16:04:50.056581  2861 net.cpp:137] Memory required for data: 2890138800
I0309 16:04:50.056587  2861 layer_factory.hpp:77] Creating layer res3.6.conv2/bn_scale
I0309 16:04:50.056592  2861 net.cpp:84] Creating Layer res3.6.conv2/bn_scale
I0309 16:04:50.056596  2861 net.cpp:406] res3.6.conv2/bn_scale <- res3.6.conv2/bn
I0309 16:04:50.056601  2861 net.cpp:367] res3.6.conv2/bn_scale -> res3.6.conv2/bn (in-place)
I0309 16:04:50.056644  2861 layer_factory.hpp:77] Creating layer res3.6.conv2/bn_scale
I0309 16:04:50.056764  2861 net.cpp:122] Setting up res3.6.conv2/bn_scale
I0309 16:04:50.056773  2861 net.cpp:129] Top shape: 100 128 14 14 (2508800)
I0309 16:04:50.056776  2861 net.cpp:137] Memory required for data: 2900174000
I0309 16:04:50.056782  2861 layer_factory.hpp:77] Creating layer res3.6.sum
I0309 16:04:50.056787  2861 net.cpp:84] Creating Layer res3.6.sum
I0309 16:04:50.056792  2861 net.cpp:406] res3.6.sum <- res3.6.conv2/bn
I0309 16:04:50.056795  2861 net.cpp:406] res3.6.sum <- res3.5.sum_res3.5.relu_0_split_1
I0309 16:04:50.056802  2861 net.cpp:380] res3.6.sum -> res3.6.sum
I0309 16:04:50.056843  2861 net.cpp:122] Setting up res3.6.sum
I0309 16:04:50.056850  2861 net.cpp:129] Top shape: 100 128 14 14 (2508800)
I0309 16:04:50.056854  2861 net.cpp:137] Memory required for data: 2910209200
I0309 16:04:50.056856  2861 layer_factory.hpp:77] Creating layer res3.6.relu
I0309 16:04:50.056861  2861 net.cpp:84] Creating Layer res3.6.relu
I0309 16:04:50.056865  2861 net.cpp:406] res3.6.relu <- res3.6.sum
I0309 16:04:50.056871  2861 net.cpp:367] res3.6.relu -> res3.6.sum (in-place)
I0309 16:04:50.057668  2861 net.cpp:122] Setting up res3.6.relu
I0309 16:04:50.057682  2861 net.cpp:129] Top shape: 100 128 14 14 (2508800)
I0309 16:04:50.057687  2861 net.cpp:137] Memory required for data: 2920244400
I0309 16:04:50.057706  2861 layer_factory.hpp:77] Creating layer res3.6.sum_res3.6.relu_0_split
I0309 16:04:50.057711  2861 net.cpp:84] Creating Layer res3.6.sum_res3.6.relu_0_split
I0309 16:04:50.057715  2861 net.cpp:406] res3.6.sum_res3.6.relu_0_split <- res3.6.sum
I0309 16:04:50.057721  2861 net.cpp:380] res3.6.sum_res3.6.relu_0_split -> res3.6.sum_res3.6.relu_0_split_0
I0309 16:04:50.057741  2861 net.cpp:380] res3.6.sum_res3.6.relu_0_split -> res3.6.sum_res3.6.relu_0_split_1
I0309 16:04:50.057790  2861 net.cpp:122] Setting up res3.6.sum_res3.6.relu_0_split
I0309 16:04:50.057798  2861 net.cpp:129] Top shape: 100 128 14 14 (2508800)
I0309 16:04:50.057803  2861 net.cpp:129] Top shape: 100 128 14 14 (2508800)
I0309 16:04:50.057806  2861 net.cpp:137] Memory required for data: 2940314800
I0309 16:04:50.057808  2861 layer_factory.hpp:77] Creating layer res3.7.conv1
I0309 16:04:50.057817  2861 net.cpp:84] Creating Layer res3.7.conv1
I0309 16:04:50.057822  2861 net.cpp:406] res3.7.conv1 <- res3.6.sum_res3.6.relu_0_split_0
I0309 16:04:50.057829  2861 net.cpp:380] res3.7.conv1 -> res3.7.conv1
I0309 16:04:50.060184  2861 net.cpp:122] Setting up res3.7.conv1
I0309 16:04:50.060212  2861 net.cpp:129] Top shape: 100 128 14 14 (2508800)
I0309 16:04:50.060216  2861 net.cpp:137] Memory required for data: 2950350000
I0309 16:04:50.060222  2861 layer_factory.hpp:77] Creating layer res3.7.conv1/bn
I0309 16:04:50.060230  2861 net.cpp:84] Creating Layer res3.7.conv1/bn
I0309 16:04:50.060245  2861 net.cpp:406] res3.7.conv1/bn <- res3.7.conv1
I0309 16:04:50.060250  2861 net.cpp:380] res3.7.conv1/bn -> res3.7.conv1/bn
I0309 16:04:50.060493  2861 net.cpp:122] Setting up res3.7.conv1/bn
I0309 16:04:50.060503  2861 net.cpp:129] Top shape: 100 128 14 14 (2508800)
I0309 16:04:50.060505  2861 net.cpp:137] Memory required for data: 2960385200
I0309 16:04:50.060513  2861 layer_factory.hpp:77] Creating layer res3.7.conv1/bn_scale
I0309 16:04:50.060518  2861 net.cpp:84] Creating Layer res3.7.conv1/bn_scale
I0309 16:04:50.060521  2861 net.cpp:406] res3.7.conv1/bn_scale <- res3.7.conv1/bn
I0309 16:04:50.060526  2861 net.cpp:367] res3.7.conv1/bn_scale -> res3.7.conv1/bn (in-place)
I0309 16:04:50.060572  2861 layer_factory.hpp:77] Creating layer res3.7.conv1/bn_scale
I0309 16:04:50.060704  2861 net.cpp:122] Setting up res3.7.conv1/bn_scale
I0309 16:04:50.060714  2861 net.cpp:129] Top shape: 100 128 14 14 (2508800)
I0309 16:04:50.060716  2861 net.cpp:137] Memory required for data: 2970420400
I0309 16:04:50.060722  2861 layer_factory.hpp:77] Creating layer res3.7.conv1/relu
I0309 16:04:50.060727  2861 net.cpp:84] Creating Layer res3.7.conv1/relu
I0309 16:04:50.060731  2861 net.cpp:406] res3.7.conv1/relu <- res3.7.conv1/bn
I0309 16:04:50.060735  2861 net.cpp:367] res3.7.conv1/relu -> res3.7.conv1/bn (in-place)
I0309 16:04:50.061213  2861 net.cpp:122] Setting up res3.7.conv1/relu
I0309 16:04:50.061223  2861 net.cpp:129] Top shape: 100 128 14 14 (2508800)
I0309 16:04:50.061225  2861 net.cpp:137] Memory required for data: 2980455600
I0309 16:04:50.061228  2861 layer_factory.hpp:77] Creating layer res3.7.conv2
I0309 16:04:50.061247  2861 net.cpp:84] Creating Layer res3.7.conv2
I0309 16:04:50.061251  2861 net.cpp:406] res3.7.conv2 <- res3.7.conv1/bn
I0309 16:04:50.061256  2861 net.cpp:380] res3.7.conv2 -> res3.7.conv2
I0309 16:04:50.063621  2861 net.cpp:122] Setting up res3.7.conv2
I0309 16:04:50.063635  2861 net.cpp:129] Top shape: 100 128 14 14 (2508800)
I0309 16:04:50.063639  2861 net.cpp:137] Memory required for data: 2990490800
I0309 16:04:50.063659  2861 layer_factory.hpp:77] Creating layer res3.7.conv2/bn
I0309 16:04:50.063668  2861 net.cpp:84] Creating Layer res3.7.conv2/bn
I0309 16:04:50.063673  2861 net.cpp:406] res3.7.conv2/bn <- res3.7.conv2
I0309 16:04:50.063678  2861 net.cpp:380] res3.7.conv2/bn -> res3.7.conv2/bn
I0309 16:04:50.063935  2861 net.cpp:122] Setting up res3.7.conv2/bn
I0309 16:04:50.063942  2861 net.cpp:129] Top shape: 100 128 14 14 (2508800)
I0309 16:04:50.063946  2861 net.cpp:137] Memory required for data: 3000526000
I0309 16:04:50.063952  2861 layer_factory.hpp:77] Creating layer res3.7.conv2/bn_scale
I0309 16:04:50.063961  2861 net.cpp:84] Creating Layer res3.7.conv2/bn_scale
I0309 16:04:50.063964  2861 net.cpp:406] res3.7.conv2/bn_scale <- res3.7.conv2/bn
I0309 16:04:50.063969  2861 net.cpp:367] res3.7.conv2/bn_scale -> res3.7.conv2/bn (in-place)
I0309 16:04:50.064018  2861 layer_factory.hpp:77] Creating layer res3.7.conv2/bn_scale
I0309 16:04:50.064141  2861 net.cpp:122] Setting up res3.7.conv2/bn_scale
I0309 16:04:50.064148  2861 net.cpp:129] Top shape: 100 128 14 14 (2508800)
I0309 16:04:50.064152  2861 net.cpp:137] Memory required for data: 3010561200
I0309 16:04:50.064157  2861 layer_factory.hpp:77] Creating layer res3.7.sum
I0309 16:04:50.064164  2861 net.cpp:84] Creating Layer res3.7.sum
I0309 16:04:50.064168  2861 net.cpp:406] res3.7.sum <- res3.7.conv2/bn
I0309 16:04:50.064172  2861 net.cpp:406] res3.7.sum <- res3.6.sum_res3.6.relu_0_split_1
I0309 16:04:50.064177  2861 net.cpp:380] res3.7.sum -> res3.7.sum
I0309 16:04:50.064205  2861 net.cpp:122] Setting up res3.7.sum
I0309 16:04:50.064224  2861 net.cpp:129] Top shape: 100 128 14 14 (2508800)
I0309 16:04:50.064227  2861 net.cpp:137] Memory required for data: 3020596400
I0309 16:04:50.064230  2861 layer_factory.hpp:77] Creating layer res3.7.relu
I0309 16:04:50.064235  2861 net.cpp:84] Creating Layer res3.7.relu
I0309 16:04:50.064239  2861 net.cpp:406] res3.7.relu <- res3.7.sum
I0309 16:04:50.064246  2861 net.cpp:367] res3.7.relu -> res3.7.sum (in-place)
I0309 16:04:50.064723  2861 net.cpp:122] Setting up res3.7.relu
I0309 16:04:50.064733  2861 net.cpp:129] Top shape: 100 128 14 14 (2508800)
I0309 16:04:50.064752  2861 net.cpp:137] Memory required for data: 3030631600
I0309 16:04:50.064756  2861 layer_factory.hpp:77] Creating layer res3.7.sum_res3.7.relu_0_split
I0309 16:04:50.064762  2861 net.cpp:84] Creating Layer res3.7.sum_res3.7.relu_0_split
I0309 16:04:50.064765  2861 net.cpp:406] res3.7.sum_res3.7.relu_0_split <- res3.7.sum
I0309 16:04:50.064771  2861 net.cpp:380] res3.7.sum_res3.7.relu_0_split -> res3.7.sum_res3.7.relu_0_split_0
I0309 16:04:50.064779  2861 net.cpp:380] res3.7.sum_res3.7.relu_0_split -> res3.7.sum_res3.7.relu_0_split_1
I0309 16:04:50.064838  2861 net.cpp:122] Setting up res3.7.sum_res3.7.relu_0_split
I0309 16:04:50.064846  2861 net.cpp:129] Top shape: 100 128 14 14 (2508800)
I0309 16:04:50.064849  2861 net.cpp:129] Top shape: 100 128 14 14 (2508800)
I0309 16:04:50.064852  2861 net.cpp:137] Memory required for data: 3050702000
I0309 16:04:50.064855  2861 layer_factory.hpp:77] Creating layer res3.8.conv1
I0309 16:04:50.064863  2861 net.cpp:84] Creating Layer res3.8.conv1
I0309 16:04:50.064867  2861 net.cpp:406] res3.8.conv1 <- res3.7.sum_res3.7.relu_0_split_0
I0309 16:04:50.064872  2861 net.cpp:380] res3.8.conv1 -> res3.8.conv1
I0309 16:04:50.068078  2861 net.cpp:122] Setting up res3.8.conv1
I0309 16:04:50.068109  2861 net.cpp:129] Top shape: 100 128 14 14 (2508800)
I0309 16:04:50.068111  2861 net.cpp:137] Memory required for data: 3060737200
I0309 16:04:50.068117  2861 layer_factory.hpp:77] Creating layer res3.8.conv1/bn
I0309 16:04:50.068125  2861 net.cpp:84] Creating Layer res3.8.conv1/bn
I0309 16:04:50.068127  2861 net.cpp:406] res3.8.conv1/bn <- res3.8.conv1
I0309 16:04:50.068135  2861 net.cpp:380] res3.8.conv1/bn -> res3.8.conv1/bn
I0309 16:04:50.068399  2861 net.cpp:122] Setting up res3.8.conv1/bn
I0309 16:04:50.068408  2861 net.cpp:129] Top shape: 100 128 14 14 (2508800)
I0309 16:04:50.068411  2861 net.cpp:137] Memory required for data: 3070772400
I0309 16:04:50.068418  2861 layer_factory.hpp:77] Creating layer res3.8.conv1/bn_scale
I0309 16:04:50.068425  2861 net.cpp:84] Creating Layer res3.8.conv1/bn_scale
I0309 16:04:50.068429  2861 net.cpp:406] res3.8.conv1/bn_scale <- res3.8.conv1/bn
I0309 16:04:50.068434  2861 net.cpp:367] res3.8.conv1/bn_scale -> res3.8.conv1/bn (in-place)
I0309 16:04:50.068478  2861 layer_factory.hpp:77] Creating layer res3.8.conv1/bn_scale
I0309 16:04:50.068605  2861 net.cpp:122] Setting up res3.8.conv1/bn_scale
I0309 16:04:50.068612  2861 net.cpp:129] Top shape: 100 128 14 14 (2508800)
I0309 16:04:50.068615  2861 net.cpp:137] Memory required for data: 3080807600
I0309 16:04:50.068620  2861 layer_factory.hpp:77] Creating layer res3.8.conv1/relu
I0309 16:04:50.068629  2861 net.cpp:84] Creating Layer res3.8.conv1/relu
I0309 16:04:50.068631  2861 net.cpp:406] res3.8.conv1/relu <- res3.8.conv1/bn
I0309 16:04:50.068635  2861 net.cpp:367] res3.8.conv1/relu -> res3.8.conv1/bn (in-place)
I0309 16:04:50.069440  2861 net.cpp:122] Setting up res3.8.conv1/relu
I0309 16:04:50.069455  2861 net.cpp:129] Top shape: 100 128 14 14 (2508800)
I0309 16:04:50.069458  2861 net.cpp:137] Memory required for data: 3090842800
I0309 16:04:50.069463  2861 layer_factory.hpp:77] Creating layer res3.8.conv2
I0309 16:04:50.069484  2861 net.cpp:84] Creating Layer res3.8.conv2
I0309 16:04:50.069490  2861 net.cpp:406] res3.8.conv2 <- res3.8.conv1/bn
I0309 16:04:50.069497  2861 net.cpp:380] res3.8.conv2 -> res3.8.conv2
I0309 16:04:50.071841  2861 net.cpp:122] Setting up res3.8.conv2
I0309 16:04:50.071853  2861 net.cpp:129] Top shape: 100 128 14 14 (2508800)
I0309 16:04:50.071883  2861 net.cpp:137] Memory required for data: 3100878000
I0309 16:04:50.071889  2861 layer_factory.hpp:77] Creating layer res3.8.conv2/bn
I0309 16:04:50.071895  2861 net.cpp:84] Creating Layer res3.8.conv2/bn
I0309 16:04:50.071899  2861 net.cpp:406] res3.8.conv2/bn <- res3.8.conv2
I0309 16:04:50.071907  2861 net.cpp:380] res3.8.conv2/bn -> res3.8.conv2/bn
I0309 16:04:50.072144  2861 net.cpp:122] Setting up res3.8.conv2/bn
I0309 16:04:50.072154  2861 net.cpp:129] Top shape: 100 128 14 14 (2508800)
I0309 16:04:50.072157  2861 net.cpp:137] Memory required for data: 3110913200
I0309 16:04:50.072165  2861 layer_factory.hpp:77] Creating layer res3.8.conv2/bn_scale
I0309 16:04:50.072175  2861 net.cpp:84] Creating Layer res3.8.conv2/bn_scale
I0309 16:04:50.072180  2861 net.cpp:406] res3.8.conv2/bn_scale <- res3.8.conv2/bn
I0309 16:04:50.072183  2861 net.cpp:367] res3.8.conv2/bn_scale -> res3.8.conv2/bn (in-place)
I0309 16:04:50.072228  2861 layer_factory.hpp:77] Creating layer res3.8.conv2/bn_scale
I0309 16:04:50.072352  2861 net.cpp:122] Setting up res3.8.conv2/bn_scale
I0309 16:04:50.072360  2861 net.cpp:129] Top shape: 100 128 14 14 (2508800)
I0309 16:04:50.072363  2861 net.cpp:137] Memory required for data: 3120948400
I0309 16:04:50.072368  2861 layer_factory.hpp:77] Creating layer res3.8.sum
I0309 16:04:50.072377  2861 net.cpp:84] Creating Layer res3.8.sum
I0309 16:04:50.072381  2861 net.cpp:406] res3.8.sum <- res3.8.conv2/bn
I0309 16:04:50.072384  2861 net.cpp:406] res3.8.sum <- res3.7.sum_res3.7.relu_0_split_1
I0309 16:04:50.072391  2861 net.cpp:380] res3.8.sum -> res3.8.sum
I0309 16:04:50.072417  2861 net.cpp:122] Setting up res3.8.sum
I0309 16:04:50.072424  2861 net.cpp:129] Top shape: 100 128 14 14 (2508800)
I0309 16:04:50.072427  2861 net.cpp:137] Memory required for data: 3130983600
I0309 16:04:50.072432  2861 layer_factory.hpp:77] Creating layer res3.8.relu
I0309 16:04:50.072450  2861 net.cpp:84] Creating Layer res3.8.relu
I0309 16:04:50.072455  2861 net.cpp:406] res3.8.relu <- res3.8.sum
I0309 16:04:50.072459  2861 net.cpp:367] res3.8.relu -> res3.8.sum (in-place)
I0309 16:04:50.072917  2861 net.cpp:122] Setting up res3.8.relu
I0309 16:04:50.072929  2861 net.cpp:129] Top shape: 100 128 14 14 (2508800)
I0309 16:04:50.072932  2861 net.cpp:137] Memory required for data: 3141018800
I0309 16:04:50.072935  2861 layer_factory.hpp:77] Creating layer res3.8.sum_res3.8.relu_0_split
I0309 16:04:50.072952  2861 net.cpp:84] Creating Layer res3.8.sum_res3.8.relu_0_split
I0309 16:04:50.072955  2861 net.cpp:406] res3.8.sum_res3.8.relu_0_split <- res3.8.sum
I0309 16:04:50.072960  2861 net.cpp:380] res3.8.sum_res3.8.relu_0_split -> res3.8.sum_res3.8.relu_0_split_0
I0309 16:04:50.072968  2861 net.cpp:380] res3.8.sum_res3.8.relu_0_split -> res3.8.sum_res3.8.relu_0_split_1
I0309 16:04:50.073016  2861 net.cpp:122] Setting up res3.8.sum_res3.8.relu_0_split
I0309 16:04:50.073024  2861 net.cpp:129] Top shape: 100 128 14 14 (2508800)
I0309 16:04:50.073027  2861 net.cpp:129] Top shape: 100 128 14 14 (2508800)
I0309 16:04:50.073030  2861 net.cpp:137] Memory required for data: 3161089200
I0309 16:04:50.073034  2861 layer_factory.hpp:77] Creating layer res3.9.conv1
I0309 16:04:50.073041  2861 net.cpp:84] Creating Layer res3.9.conv1
I0309 16:04:50.073045  2861 net.cpp:406] res3.9.conv1 <- res3.8.sum_res3.8.relu_0_split_0
I0309 16:04:50.073051  2861 net.cpp:380] res3.9.conv1 -> res3.9.conv1
I0309 16:04:50.075489  2861 net.cpp:122] Setting up res3.9.conv1
I0309 16:04:50.075505  2861 net.cpp:129] Top shape: 100 128 14 14 (2508800)
I0309 16:04:50.075507  2861 net.cpp:137] Memory required for data: 3171124400
I0309 16:04:50.075512  2861 layer_factory.hpp:77] Creating layer res3.9.conv1/bn
I0309 16:04:50.075520  2861 net.cpp:84] Creating Layer res3.9.conv1/bn
I0309 16:04:50.075522  2861 net.cpp:406] res3.9.conv1/bn <- res3.9.conv1
I0309 16:04:50.075531  2861 net.cpp:380] res3.9.conv1/bn -> res3.9.conv1/bn
I0309 16:04:50.075767  2861 net.cpp:122] Setting up res3.9.conv1/bn
I0309 16:04:50.075788  2861 net.cpp:129] Top shape: 100 128 14 14 (2508800)
I0309 16:04:50.075790  2861 net.cpp:137] Memory required for data: 3181159600
I0309 16:04:50.075798  2861 layer_factory.hpp:77] Creating layer res3.9.conv1/bn_scale
I0309 16:04:50.075803  2861 net.cpp:84] Creating Layer res3.9.conv1/bn_scale
I0309 16:04:50.075806  2861 net.cpp:406] res3.9.conv1/bn_scale <- res3.9.conv1/bn
I0309 16:04:50.075812  2861 net.cpp:367] res3.9.conv1/bn_scale -> res3.9.conv1/bn (in-place)
I0309 16:04:50.075858  2861 layer_factory.hpp:77] Creating layer res3.9.conv1/bn_scale
I0309 16:04:50.075983  2861 net.cpp:122] Setting up res3.9.conv1/bn_scale
I0309 16:04:50.075992  2861 net.cpp:129] Top shape: 100 128 14 14 (2508800)
I0309 16:04:50.075995  2861 net.cpp:137] Memory required for data: 3191194800
I0309 16:04:50.076000  2861 layer_factory.hpp:77] Creating layer res3.9.conv1/relu
I0309 16:04:50.076005  2861 net.cpp:84] Creating Layer res3.9.conv1/relu
I0309 16:04:50.076009  2861 net.cpp:406] res3.9.conv1/relu <- res3.9.conv1/bn
I0309 16:04:50.076014  2861 net.cpp:367] res3.9.conv1/relu -> res3.9.conv1/bn (in-place)
I0309 16:04:50.076470  2861 net.cpp:122] Setting up res3.9.conv1/relu
I0309 16:04:50.076481  2861 net.cpp:129] Top shape: 100 128 14 14 (2508800)
I0309 16:04:50.076484  2861 net.cpp:137] Memory required for data: 3201230000
I0309 16:04:50.076488  2861 layer_factory.hpp:77] Creating layer res3.9.conv2
I0309 16:04:50.076498  2861 net.cpp:84] Creating Layer res3.9.conv2
I0309 16:04:50.076500  2861 net.cpp:406] res3.9.conv2 <- res3.9.conv1/bn
I0309 16:04:50.076506  2861 net.cpp:380] res3.9.conv2 -> res3.9.conv2
I0309 16:04:50.079875  2861 net.cpp:122] Setting up res3.9.conv2
I0309 16:04:50.079893  2861 net.cpp:129] Top shape: 100 128 14 14 (2508800)
I0309 16:04:50.079897  2861 net.cpp:137] Memory required for data: 3211265200
I0309 16:04:50.079905  2861 layer_factory.hpp:77] Creating layer res3.9.conv2/bn
I0309 16:04:50.079912  2861 net.cpp:84] Creating Layer res3.9.conv2/bn
I0309 16:04:50.079932  2861 net.cpp:406] res3.9.conv2/bn <- res3.9.conv2
I0309 16:04:50.079938  2861 net.cpp:380] res3.9.conv2/bn -> res3.9.conv2/bn
I0309 16:04:50.080273  2861 net.cpp:122] Setting up res3.9.conv2/bn
I0309 16:04:50.080298  2861 net.cpp:129] Top shape: 100 128 14 14 (2508800)
I0309 16:04:50.080322  2861 net.cpp:137] Memory required for data: 3221300400
I0309 16:04:50.080329  2861 layer_factory.hpp:77] Creating layer res3.9.conv2/bn_scale
I0309 16:04:50.080338  2861 net.cpp:84] Creating Layer res3.9.conv2/bn_scale
I0309 16:04:50.080341  2861 net.cpp:406] res3.9.conv2/bn_scale <- res3.9.conv2/bn
I0309 16:04:50.080346  2861 net.cpp:367] res3.9.conv2/bn_scale -> res3.9.conv2/bn (in-place)
I0309 16:04:50.080396  2861 layer_factory.hpp:77] Creating layer res3.9.conv2/bn_scale
I0309 16:04:50.080564  2861 net.cpp:122] Setting up res3.9.conv2/bn_scale
I0309 16:04:50.080570  2861 net.cpp:129] Top shape: 100 128 14 14 (2508800)
I0309 16:04:50.080574  2861 net.cpp:137] Memory required for data: 3231335600
I0309 16:04:50.080579  2861 layer_factory.hpp:77] Creating layer res3.9.sum
I0309 16:04:50.080587  2861 net.cpp:84] Creating Layer res3.9.sum
I0309 16:04:50.080590  2861 net.cpp:406] res3.9.sum <- res3.9.conv2/bn
I0309 16:04:50.080595  2861 net.cpp:406] res3.9.sum <- res3.8.sum_res3.8.relu_0_split_1
I0309 16:04:50.080600  2861 net.cpp:380] res3.9.sum -> res3.9.sum
I0309 16:04:50.080643  2861 net.cpp:122] Setting up res3.9.sum
I0309 16:04:50.080651  2861 net.cpp:129] Top shape: 100 128 14 14 (2508800)
I0309 16:04:50.080653  2861 net.cpp:137] Memory required for data: 3241370800
I0309 16:04:50.080655  2861 layer_factory.hpp:77] Creating layer res3.9.relu
I0309 16:04:50.080662  2861 net.cpp:84] Creating Layer res3.9.relu
I0309 16:04:50.080665  2861 net.cpp:406] res3.9.relu <- res3.9.sum
I0309 16:04:50.080672  2861 net.cpp:367] res3.9.relu -> res3.9.sum (in-place)
I0309 16:04:50.081497  2861 net.cpp:122] Setting up res3.9.relu
I0309 16:04:50.081512  2861 net.cpp:129] Top shape: 100 128 14 14 (2508800)
I0309 16:04:50.081516  2861 net.cpp:137] Memory required for data: 3251406000
I0309 16:04:50.081531  2861 layer_factory.hpp:77] Creating layer res3.9.sum_res3.9.relu_0_split
I0309 16:04:50.081537  2861 net.cpp:84] Creating Layer res3.9.sum_res3.9.relu_0_split
I0309 16:04:50.081542  2861 net.cpp:406] res3.9.sum_res3.9.relu_0_split <- res3.9.sum
I0309 16:04:50.081548  2861 net.cpp:380] res3.9.sum_res3.9.relu_0_split -> res3.9.sum_res3.9.relu_0_split_0
I0309 16:04:50.081557  2861 net.cpp:380] res3.9.sum_res3.9.relu_0_split -> res3.9.sum_res3.9.relu_0_split_1
I0309 16:04:50.081609  2861 net.cpp:122] Setting up res3.9.sum_res3.9.relu_0_split
I0309 16:04:50.081616  2861 net.cpp:129] Top shape: 100 128 14 14 (2508800)
I0309 16:04:50.081620  2861 net.cpp:129] Top shape: 100 128 14 14 (2508800)
I0309 16:04:50.081624  2861 net.cpp:137] Memory required for data: 3271476400
I0309 16:04:50.081626  2861 layer_factory.hpp:77] Creating layer res3.10.conv1
I0309 16:04:50.081635  2861 net.cpp:84] Creating Layer res3.10.conv1
I0309 16:04:50.081655  2861 net.cpp:406] res3.10.conv1 <- res3.9.sum_res3.9.relu_0_split_0
I0309 16:04:50.081660  2861 net.cpp:380] res3.10.conv1 -> res3.10.conv1
I0309 16:04:50.084278  2861 net.cpp:122] Setting up res3.10.conv1
I0309 16:04:50.084295  2861 net.cpp:129] Top shape: 100 128 14 14 (2508800)
I0309 16:04:50.084297  2861 net.cpp:137] Memory required for data: 3281511600
I0309 16:04:50.084303  2861 layer_factory.hpp:77] Creating layer res3.10.conv1/bn
I0309 16:04:50.084326  2861 net.cpp:84] Creating Layer res3.10.conv1/bn
I0309 16:04:50.084333  2861 net.cpp:406] res3.10.conv1/bn <- res3.10.conv1
I0309 16:04:50.084342  2861 net.cpp:380] res3.10.conv1/bn -> res3.10.conv1/bn
I0309 16:04:50.084599  2861 net.cpp:122] Setting up res3.10.conv1/bn
I0309 16:04:50.084607  2861 net.cpp:129] Top shape: 100 128 14 14 (2508800)
I0309 16:04:50.084611  2861 net.cpp:137] Memory required for data: 3291546800
I0309 16:04:50.084619  2861 layer_factory.hpp:77] Creating layer res3.10.conv1/bn_scale
I0309 16:04:50.084625  2861 net.cpp:84] Creating Layer res3.10.conv1/bn_scale
I0309 16:04:50.084628  2861 net.cpp:406] res3.10.conv1/bn_scale <- res3.10.conv1/bn
I0309 16:04:50.084633  2861 net.cpp:367] res3.10.conv1/bn_scale -> res3.10.conv1/bn (in-place)
I0309 16:04:50.084703  2861 layer_factory.hpp:77] Creating layer res3.10.conv1/bn_scale
I0309 16:04:50.084832  2861 net.cpp:122] Setting up res3.10.conv1/bn_scale
I0309 16:04:50.084841  2861 net.cpp:129] Top shape: 100 128 14 14 (2508800)
I0309 16:04:50.084843  2861 net.cpp:137] Memory required for data: 3301582000
I0309 16:04:50.084849  2861 layer_factory.hpp:77] Creating layer res3.10.conv1/relu
I0309 16:04:50.084856  2861 net.cpp:84] Creating Layer res3.10.conv1/relu
I0309 16:04:50.084859  2861 net.cpp:406] res3.10.conv1/relu <- res3.10.conv1/bn
I0309 16:04:50.084864  2861 net.cpp:367] res3.10.conv1/relu -> res3.10.conv1/bn (in-place)
I0309 16:04:50.085472  2861 net.cpp:122] Setting up res3.10.conv1/relu
I0309 16:04:50.085484  2861 net.cpp:129] Top shape: 100 128 14 14 (2508800)
I0309 16:04:50.085487  2861 net.cpp:137] Memory required for data: 3311617200
I0309 16:04:50.085501  2861 layer_factory.hpp:77] Creating layer res3.10.conv2
I0309 16:04:50.085510  2861 net.cpp:84] Creating Layer res3.10.conv2
I0309 16:04:50.085512  2861 net.cpp:406] res3.10.conv2 <- res3.10.conv1/bn
I0309 16:04:50.085534  2861 net.cpp:380] res3.10.conv2 -> res3.10.conv2
I0309 16:04:50.087905  2861 net.cpp:122] Setting up res3.10.conv2
I0309 16:04:50.087919  2861 net.cpp:129] Top shape: 100 128 14 14 (2508800)
I0309 16:04:50.087922  2861 net.cpp:137] Memory required for data: 3321652400
I0309 16:04:50.087927  2861 layer_factory.hpp:77] Creating layer res3.10.conv2/bn
I0309 16:04:50.087934  2861 net.cpp:84] Creating Layer res3.10.conv2/bn
I0309 16:04:50.087939  2861 net.cpp:406] res3.10.conv2/bn <- res3.10.conv2
I0309 16:04:50.087944  2861 net.cpp:380] res3.10.conv2/bn -> res3.10.conv2/bn
I0309 16:04:50.088227  2861 net.cpp:122] Setting up res3.10.conv2/bn
I0309 16:04:50.088251  2861 net.cpp:129] Top shape: 100 128 14 14 (2508800)
I0309 16:04:50.088254  2861 net.cpp:137] Memory required for data: 3331687600
I0309 16:04:50.088301  2861 layer_factory.hpp:77] Creating layer res3.10.conv2/bn_scale
I0309 16:04:50.088307  2861 net.cpp:84] Creating Layer res3.10.conv2/bn_scale
I0309 16:04:50.088327  2861 net.cpp:406] res3.10.conv2/bn_scale <- res3.10.conv2/bn
I0309 16:04:50.088332  2861 net.cpp:367] res3.10.conv2/bn_scale -> res3.10.conv2/bn (in-place)
I0309 16:04:50.088413  2861 layer_factory.hpp:77] Creating layer res3.10.conv2/bn_scale
I0309 16:04:50.088553  2861 net.cpp:122] Setting up res3.10.conv2/bn_scale
I0309 16:04:50.088562  2861 net.cpp:129] Top shape: 100 128 14 14 (2508800)
I0309 16:04:50.088564  2861 net.cpp:137] Memory required for data: 3341722800
I0309 16:04:50.088569  2861 layer_factory.hpp:77] Creating layer res3.10.sum
I0309 16:04:50.088575  2861 net.cpp:84] Creating Layer res3.10.sum
I0309 16:04:50.088579  2861 net.cpp:406] res3.10.sum <- res3.10.conv2/bn
I0309 16:04:50.088584  2861 net.cpp:406] res3.10.sum <- res3.9.sum_res3.9.relu_0_split_1
I0309 16:04:50.088590  2861 net.cpp:380] res3.10.sum -> res3.10.sum
I0309 16:04:50.088618  2861 net.cpp:122] Setting up res3.10.sum
I0309 16:04:50.088626  2861 net.cpp:129] Top shape: 100 128 14 14 (2508800)
I0309 16:04:50.088629  2861 net.cpp:137] Memory required for data: 3351758000
I0309 16:04:50.088632  2861 layer_factory.hpp:77] Creating layer res3.10.relu
I0309 16:04:50.088639  2861 net.cpp:84] Creating Layer res3.10.relu
I0309 16:04:50.088642  2861 net.cpp:406] res3.10.relu <- res3.10.sum
I0309 16:04:50.088647  2861 net.cpp:367] res3.10.relu -> res3.10.sum (in-place)
I0309 16:04:50.089129  2861 net.cpp:122] Setting up res3.10.relu
I0309 16:04:50.089140  2861 net.cpp:129] Top shape: 100 128 14 14 (2508800)
I0309 16:04:50.089160  2861 net.cpp:137] Memory required for data: 3361793200
I0309 16:04:50.089164  2861 layer_factory.hpp:77] Creating layer res3.10.sum_res3.10.relu_0_split
I0309 16:04:50.089169  2861 net.cpp:84] Creating Layer res3.10.sum_res3.10.relu_0_split
I0309 16:04:50.089172  2861 net.cpp:406] res3.10.sum_res3.10.relu_0_split <- res3.10.sum
I0309 16:04:50.089179  2861 net.cpp:380] res3.10.sum_res3.10.relu_0_split -> res3.10.sum_res3.10.relu_0_split_0
I0309 16:04:50.089185  2861 net.cpp:380] res3.10.sum_res3.10.relu_0_split -> res3.10.sum_res3.10.relu_0_split_1
I0309 16:04:50.089252  2861 net.cpp:122] Setting up res3.10.sum_res3.10.relu_0_split
I0309 16:04:50.089259  2861 net.cpp:129] Top shape: 100 128 14 14 (2508800)
I0309 16:04:50.089264  2861 net.cpp:129] Top shape: 100 128 14 14 (2508800)
I0309 16:04:50.089267  2861 net.cpp:137] Memory required for data: 3381863600
I0309 16:04:50.089270  2861 layer_factory.hpp:77] Creating layer res3.11.conv1
I0309 16:04:50.089277  2861 net.cpp:84] Creating Layer res3.11.conv1
I0309 16:04:50.089282  2861 net.cpp:406] res3.11.conv1 <- res3.10.sum_res3.10.relu_0_split_0
I0309 16:04:50.089287  2861 net.cpp:380] res3.11.conv1 -> res3.11.conv1
I0309 16:04:50.092841  2861 net.cpp:122] Setting up res3.11.conv1
I0309 16:04:50.092871  2861 net.cpp:129] Top shape: 100 256 14 14 (5017600)
I0309 16:04:50.092875  2861 net.cpp:137] Memory required for data: 3401934000
I0309 16:04:50.092881  2861 layer_factory.hpp:77] Creating layer res3.11.conv1/bn
I0309 16:04:50.092890  2861 net.cpp:84] Creating Layer res3.11.conv1/bn
I0309 16:04:50.092893  2861 net.cpp:406] res3.11.conv1/bn <- res3.11.conv1
I0309 16:04:50.092900  2861 net.cpp:380] res3.11.conv1/bn -> res3.11.conv1/bn
I0309 16:04:50.093169  2861 net.cpp:122] Setting up res3.11.conv1/bn
I0309 16:04:50.093178  2861 net.cpp:129] Top shape: 100 256 14 14 (5017600)
I0309 16:04:50.093181  2861 net.cpp:137] Memory required for data: 3422004400
I0309 16:04:50.093189  2861 layer_factory.hpp:77] Creating layer res3.11.conv1/bn_scale
I0309 16:04:50.093194  2861 net.cpp:84] Creating Layer res3.11.conv1/bn_scale
I0309 16:04:50.093197  2861 net.cpp:406] res3.11.conv1/bn_scale <- res3.11.conv1/bn
I0309 16:04:50.093202  2861 net.cpp:367] res3.11.conv1/bn_scale -> res3.11.conv1/bn (in-place)
I0309 16:04:50.093252  2861 layer_factory.hpp:77] Creating layer res3.11.conv1/bn_scale
I0309 16:04:50.093399  2861 net.cpp:122] Setting up res3.11.conv1/bn_scale
I0309 16:04:50.093406  2861 net.cpp:129] Top shape: 100 256 14 14 (5017600)
I0309 16:04:50.093410  2861 net.cpp:137] Memory required for data: 3442074800
I0309 16:04:50.093415  2861 layer_factory.hpp:77] Creating layer res3.11.conv1/relu
I0309 16:04:50.093422  2861 net.cpp:84] Creating Layer res3.11.conv1/relu
I0309 16:04:50.093426  2861 net.cpp:406] res3.11.conv1/relu <- res3.11.conv1/bn
I0309 16:04:50.093430  2861 net.cpp:367] res3.11.conv1/relu -> res3.11.conv1/bn (in-place)
I0309 16:04:50.093943  2861 net.cpp:122] Setting up res3.11.conv1/relu
I0309 16:04:50.093956  2861 net.cpp:129] Top shape: 100 256 14 14 (5017600)
I0309 16:04:50.093960  2861 net.cpp:137] Memory required for data: 3462145200
I0309 16:04:50.093962  2861 layer_factory.hpp:77] Creating layer res3.11.conv2
I0309 16:04:50.093987  2861 net.cpp:84] Creating Layer res3.11.conv2
I0309 16:04:50.093992  2861 net.cpp:406] res3.11.conv2 <- res3.11.conv1/bn
I0309 16:04:50.093998  2861 net.cpp:380] res3.11.conv2 -> res3.11.conv2
I0309 16:04:50.097470  2861 net.cpp:122] Setting up res3.11.conv2
I0309 16:04:50.097486  2861 net.cpp:129] Top shape: 100 256 14 14 (5017600)
I0309 16:04:50.097489  2861 net.cpp:137] Memory required for data: 3482215600
I0309 16:04:50.097494  2861 layer_factory.hpp:77] Creating layer res3.11.conv2/bn
I0309 16:04:50.097518  2861 net.cpp:84] Creating Layer res3.11.conv2/bn
I0309 16:04:50.097522  2861 net.cpp:406] res3.11.conv2/bn <- res3.11.conv2
I0309 16:04:50.097529  2861 net.cpp:380] res3.11.conv2/bn -> res3.11.conv2/bn
I0309 16:04:50.097774  2861 net.cpp:122] Setting up res3.11.conv2/bn
I0309 16:04:50.097782  2861 net.cpp:129] Top shape: 100 256 14 14 (5017600)
I0309 16:04:50.097786  2861 net.cpp:137] Memory required for data: 3502286000
I0309 16:04:50.097792  2861 layer_factory.hpp:77] Creating layer res3.11.conv2/bn_scale
I0309 16:04:50.097798  2861 net.cpp:84] Creating Layer res3.11.conv2/bn_scale
I0309 16:04:50.097801  2861 net.cpp:406] res3.11.conv2/bn_scale <- res3.11.conv2/bn
I0309 16:04:50.097808  2861 net.cpp:367] res3.11.conv2/bn_scale -> res3.11.conv2/bn (in-place)
I0309 16:04:50.097882  2861 layer_factory.hpp:77] Creating layer res3.11.conv2/bn_scale
I0309 16:04:50.098017  2861 net.cpp:122] Setting up res3.11.conv2/bn_scale
I0309 16:04:50.098024  2861 net.cpp:129] Top shape: 100 256 14 14 (5017600)
I0309 16:04:50.098028  2861 net.cpp:137] Memory required for data: 3522356400
I0309 16:04:50.098034  2861 layer_factory.hpp:77] Creating layer res3.11.skipConv
I0309 16:04:50.098042  2861 net.cpp:84] Creating Layer res3.11.skipConv
I0309 16:04:50.098047  2861 net.cpp:406] res3.11.skipConv <- res3.10.sum_res3.10.relu_0_split_1
I0309 16:04:50.098052  2861 net.cpp:380] res3.11.skipConv -> res3.11.skipConv
I0309 16:04:50.100008  2861 net.cpp:122] Setting up res3.11.skipConv
I0309 16:04:50.100023  2861 net.cpp:129] Top shape: 100 256 14 14 (5017600)
I0309 16:04:50.100025  2861 net.cpp:137] Memory required for data: 3542426800
I0309 16:04:50.100030  2861 layer_factory.hpp:77] Creating layer res3.11skipConv/bn
I0309 16:04:50.100054  2861 net.cpp:84] Creating Layer res3.11skipConv/bn
I0309 16:04:50.100059  2861 net.cpp:406] res3.11skipConv/bn <- res3.11.skipConv
I0309 16:04:50.100065  2861 net.cpp:380] res3.11skipConv/bn -> res3.11.skipConv/bn
I0309 16:04:50.100311  2861 net.cpp:122] Setting up res3.11skipConv/bn
I0309 16:04:50.100318  2861 net.cpp:129] Top shape: 100 256 14 14 (5017600)
I0309 16:04:50.100322  2861 net.cpp:137] Memory required for data: 3562497200
I0309 16:04:50.100327  2861 layer_factory.hpp:77] Creating layer res3.11skipConv/bn_scale
I0309 16:04:50.100333  2861 net.cpp:84] Creating Layer res3.11skipConv/bn_scale
I0309 16:04:50.100337  2861 net.cpp:406] res3.11skipConv/bn_scale <- res3.11.skipConv/bn
I0309 16:04:50.100342  2861 net.cpp:367] res3.11skipConv/bn_scale -> res3.11.skipConv/bn (in-place)
I0309 16:04:50.100414  2861 layer_factory.hpp:77] Creating layer res3.11skipConv/bn_scale
I0309 16:04:50.100546  2861 net.cpp:122] Setting up res3.11skipConv/bn_scale
I0309 16:04:50.100565  2861 net.cpp:129] Top shape: 100 256 14 14 (5017600)
I0309 16:04:50.100569  2861 net.cpp:137] Memory required for data: 3582567600
I0309 16:04:50.100574  2861 layer_factory.hpp:77] Creating layer res3.11.sum
I0309 16:04:50.100580  2861 net.cpp:84] Creating Layer res3.11.sum
I0309 16:04:50.100584  2861 net.cpp:406] res3.11.sum <- res3.11.conv2/bn
I0309 16:04:50.100589  2861 net.cpp:406] res3.11.sum <- res3.11.skipConv/bn
I0309 16:04:50.100594  2861 net.cpp:380] res3.11.sum -> res3.11.sum
I0309 16:04:50.100626  2861 net.cpp:122] Setting up res3.11.sum
I0309 16:04:50.100633  2861 net.cpp:129] Top shape: 100 256 14 14 (5017600)
I0309 16:04:50.100636  2861 net.cpp:137] Memory required for data: 3602638000
I0309 16:04:50.100639  2861 layer_factory.hpp:77] Creating layer res3.11.relu
I0309 16:04:50.100646  2861 net.cpp:84] Creating Layer res3.11.relu
I0309 16:04:50.100648  2861 net.cpp:406] res3.11.relu <- res3.11.sum
I0309 16:04:50.100653  2861 net.cpp:367] res3.11.relu -> res3.11.sum (in-place)
I0309 16:04:50.101619  2861 net.cpp:122] Setting up res3.11.relu
I0309 16:04:50.101635  2861 net.cpp:129] Top shape: 100 256 14 14 (5017600)
I0309 16:04:50.101639  2861 net.cpp:137] Memory required for data: 3622708400
I0309 16:04:50.101642  2861 layer_factory.hpp:77] Creating layer res3.11.sum_res3.11.relu_0_split
I0309 16:04:50.101660  2861 net.cpp:84] Creating Layer res3.11.sum_res3.11.relu_0_split
I0309 16:04:50.101665  2861 net.cpp:406] res3.11.sum_res3.11.relu_0_split <- res3.11.sum
I0309 16:04:50.101670  2861 net.cpp:380] res3.11.sum_res3.11.relu_0_split -> res3.11.sum_res3.11.relu_0_split_0
I0309 16:04:50.101680  2861 net.cpp:380] res3.11.sum_res3.11.relu_0_split -> res3.11.sum_res3.11.relu_0_split_1
I0309 16:04:50.101734  2861 net.cpp:122] Setting up res3.11.sum_res3.11.relu_0_split
I0309 16:04:50.101742  2861 net.cpp:129] Top shape: 100 256 14 14 (5017600)
I0309 16:04:50.101747  2861 net.cpp:129] Top shape: 100 256 14 14 (5017600)
I0309 16:04:50.101749  2861 net.cpp:137] Memory required for data: 3662849200
I0309 16:04:50.101752  2861 layer_factory.hpp:77] Creating layer res4.1.conv1
I0309 16:04:50.101761  2861 net.cpp:84] Creating Layer res4.1.conv1
I0309 16:04:50.101766  2861 net.cpp:406] res4.1.conv1 <- res3.11.sum_res3.11.relu_0_split_0
I0309 16:04:50.101773  2861 net.cpp:380] res4.1.conv1 -> res4.1.conv1
I0309 16:04:50.105115  2861 net.cpp:122] Setting up res4.1.conv1
I0309 16:04:50.105131  2861 net.cpp:129] Top shape: 100 256 7 7 (1254400)
I0309 16:04:50.105134  2861 net.cpp:137] Memory required for data: 3667866800
I0309 16:04:50.105139  2861 layer_factory.hpp:77] Creating layer res4.1.conv1/bn
I0309 16:04:50.105159  2861 net.cpp:84] Creating Layer res4.1.conv1/bn
I0309 16:04:50.105165  2861 net.cpp:406] res4.1.conv1/bn <- res4.1.conv1
I0309 16:04:50.105171  2861 net.cpp:380] res4.1.conv1/bn -> res4.1.conv1/bn
I0309 16:04:50.105433  2861 net.cpp:122] Setting up res4.1.conv1/bn
I0309 16:04:50.105442  2861 net.cpp:129] Top shape: 100 256 7 7 (1254400)
I0309 16:04:50.105445  2861 net.cpp:137] Memory required for data: 3672884400
I0309 16:04:50.105451  2861 layer_factory.hpp:77] Creating layer res4.1.conv1/bn_scale
I0309 16:04:50.105458  2861 net.cpp:84] Creating Layer res4.1.conv1/bn_scale
I0309 16:04:50.105460  2861 net.cpp:406] res4.1.conv1/bn_scale <- res4.1.conv1/bn
I0309 16:04:50.105468  2861 net.cpp:367] res4.1.conv1/bn_scale -> res4.1.conv1/bn (in-place)
I0309 16:04:50.105517  2861 layer_factory.hpp:77] Creating layer res4.1.conv1/bn_scale
I0309 16:04:50.105656  2861 net.cpp:122] Setting up res4.1.conv1/bn_scale
I0309 16:04:50.105664  2861 net.cpp:129] Top shape: 100 256 7 7 (1254400)
I0309 16:04:50.105667  2861 net.cpp:137] Memory required for data: 3677902000
I0309 16:04:50.105674  2861 layer_factory.hpp:77] Creating layer res4.1.conv1/relu
I0309 16:04:50.105679  2861 net.cpp:84] Creating Layer res4.1.conv1/relu
I0309 16:04:50.105681  2861 net.cpp:406] res4.1.conv1/relu <- res4.1.conv1/bn
I0309 16:04:50.105689  2861 net.cpp:367] res4.1.conv1/relu -> res4.1.conv1/bn (in-place)
I0309 16:04:50.106189  2861 net.cpp:122] Setting up res4.1.conv1/relu
I0309 16:04:50.106200  2861 net.cpp:129] Top shape: 100 256 7 7 (1254400)
I0309 16:04:50.106204  2861 net.cpp:137] Memory required for data: 3682919600
I0309 16:04:50.106207  2861 layer_factory.hpp:77] Creating layer res4.1.conv2
I0309 16:04:50.106231  2861 net.cpp:84] Creating Layer res4.1.conv2
I0309 16:04:50.106236  2861 net.cpp:406] res4.1.conv2 <- res4.1.conv1/bn
I0309 16:04:50.106241  2861 net.cpp:380] res4.1.conv2 -> res4.1.conv2
I0309 16:04:50.109964  2861 net.cpp:122] Setting up res4.1.conv2
I0309 16:04:50.109979  2861 net.cpp:129] Top shape: 100 256 7 7 (1254400)
I0309 16:04:50.109982  2861 net.cpp:137] Memory required for data: 3687937200
I0309 16:04:50.109987  2861 layer_factory.hpp:77] Creating layer res4.1.conv2/bn
I0309 16:04:50.110013  2861 net.cpp:84] Creating Layer res4.1.conv2/bn
I0309 16:04:50.110016  2861 net.cpp:406] res4.1.conv2/bn <- res4.1.conv2
I0309 16:04:50.110030  2861 net.cpp:380] res4.1.conv2/bn -> res4.1.conv2/bn
I0309 16:04:50.110293  2861 net.cpp:122] Setting up res4.1.conv2/bn
I0309 16:04:50.110304  2861 net.cpp:129] Top shape: 100 256 7 7 (1254400)
I0309 16:04:50.110307  2861 net.cpp:137] Memory required for data: 3692954800
I0309 16:04:50.110316  2861 layer_factory.hpp:77] Creating layer res4.1.conv2/bn_scale
I0309 16:04:50.110321  2861 net.cpp:84] Creating Layer res4.1.conv2/bn_scale
I0309 16:04:50.110325  2861 net.cpp:406] res4.1.conv2/bn_scale <- res4.1.conv2/bn
I0309 16:04:50.110329  2861 net.cpp:367] res4.1.conv2/bn_scale -> res4.1.conv2/bn (in-place)
I0309 16:04:50.110380  2861 layer_factory.hpp:77] Creating layer res4.1.conv2/bn_scale
I0309 16:04:50.110518  2861 net.cpp:122] Setting up res4.1.conv2/bn_scale
I0309 16:04:50.110527  2861 net.cpp:129] Top shape: 100 256 7 7 (1254400)
I0309 16:04:50.110530  2861 net.cpp:137] Memory required for data: 3697972400
I0309 16:04:50.110535  2861 layer_factory.hpp:77] Creating layer res4.1.skipConv
I0309 16:04:50.110544  2861 net.cpp:84] Creating Layer res4.1.skipConv
I0309 16:04:50.110551  2861 net.cpp:406] res4.1.skipConv <- res3.11.sum_res3.11.relu_0_split_1
I0309 16:04:50.110556  2861 net.cpp:380] res4.1.skipConv -> res4.1.skipConv
I0309 16:04:50.112563  2861 net.cpp:122] Setting up res4.1.skipConv
I0309 16:04:50.112576  2861 net.cpp:129] Top shape: 100 256 7 7 (1254400)
I0309 16:04:50.112596  2861 net.cpp:137] Memory required for data: 3702990000
I0309 16:04:50.112601  2861 layer_factory.hpp:77] Creating layer res4.1skipConv/bn
I0309 16:04:50.112607  2861 net.cpp:84] Creating Layer res4.1skipConv/bn
I0309 16:04:50.112612  2861 net.cpp:406] res4.1skipConv/bn <- res4.1.skipConv
I0309 16:04:50.112620  2861 net.cpp:380] res4.1skipConv/bn -> res4.1.skipConv/bn
I0309 16:04:50.112890  2861 net.cpp:122] Setting up res4.1skipConv/bn
I0309 16:04:50.112900  2861 net.cpp:129] Top shape: 100 256 7 7 (1254400)
I0309 16:04:50.112902  2861 net.cpp:137] Memory required for data: 3708007600
I0309 16:04:50.112910  2861 layer_factory.hpp:77] Creating layer res4.1skipConv/bn_scale
I0309 16:04:50.112915  2861 net.cpp:84] Creating Layer res4.1skipConv/bn_scale
I0309 16:04:50.112918  2861 net.cpp:406] res4.1skipConv/bn_scale <- res4.1.skipConv/bn
I0309 16:04:50.112922  2861 net.cpp:367] res4.1skipConv/bn_scale -> res4.1.skipConv/bn (in-place)
I0309 16:04:50.112973  2861 layer_factory.hpp:77] Creating layer res4.1skipConv/bn_scale
I0309 16:04:50.113111  2861 net.cpp:122] Setting up res4.1skipConv/bn_scale
I0309 16:04:50.113119  2861 net.cpp:129] Top shape: 100 256 7 7 (1254400)
I0309 16:04:50.113122  2861 net.cpp:137] Memory required for data: 3713025200
I0309 16:04:50.113128  2861 layer_factory.hpp:77] Creating layer res4.1.sum
I0309 16:04:50.113134  2861 net.cpp:84] Creating Layer res4.1.sum
I0309 16:04:50.113138  2861 net.cpp:406] res4.1.sum <- res4.1.conv2/bn
I0309 16:04:50.113142  2861 net.cpp:406] res4.1.sum <- res4.1.skipConv/bn
I0309 16:04:50.113149  2861 net.cpp:380] res4.1.sum -> res4.1.sum
I0309 16:04:50.113178  2861 net.cpp:122] Setting up res4.1.sum
I0309 16:04:50.113196  2861 net.cpp:129] Top shape: 100 256 7 7 (1254400)
I0309 16:04:50.113200  2861 net.cpp:137] Memory required for data: 3718042800
I0309 16:04:50.113204  2861 layer_factory.hpp:77] Creating layer res4.1.relu
I0309 16:04:50.113211  2861 net.cpp:84] Creating Layer res4.1.relu
I0309 16:04:50.113214  2861 net.cpp:406] res4.1.relu <- res4.1.sum
I0309 16:04:50.113219  2861 net.cpp:367] res4.1.relu -> res4.1.sum (in-place)
I0309 16:04:50.113687  2861 net.cpp:122] Setting up res4.1.relu
I0309 16:04:50.113699  2861 net.cpp:129] Top shape: 100 256 7 7 (1254400)
I0309 16:04:50.113703  2861 net.cpp:137] Memory required for data: 3723060400
I0309 16:04:50.113705  2861 layer_factory.hpp:77] Creating layer res4.1.sum_res4.1.relu_0_split
I0309 16:04:50.113711  2861 net.cpp:84] Creating Layer res4.1.sum_res4.1.relu_0_split
I0309 16:04:50.113715  2861 net.cpp:406] res4.1.sum_res4.1.relu_0_split <- res4.1.sum
I0309 16:04:50.113721  2861 net.cpp:380] res4.1.sum_res4.1.relu_0_split -> res4.1.sum_res4.1.relu_0_split_0
I0309 16:04:50.113729  2861 net.cpp:380] res4.1.sum_res4.1.relu_0_split -> res4.1.sum_res4.1.relu_0_split_1
I0309 16:04:50.113781  2861 net.cpp:122] Setting up res4.1.sum_res4.1.relu_0_split
I0309 16:04:50.113788  2861 net.cpp:129] Top shape: 100 256 7 7 (1254400)
I0309 16:04:50.113792  2861 net.cpp:129] Top shape: 100 256 7 7 (1254400)
I0309 16:04:50.113795  2861 net.cpp:137] Memory required for data: 3733095600
I0309 16:04:50.113800  2861 layer_factory.hpp:77] Creating layer res4.2.conv1
I0309 16:04:50.113806  2861 net.cpp:84] Creating Layer res4.2.conv1
I0309 16:04:50.113809  2861 net.cpp:406] res4.2.conv1 <- res4.1.sum_res4.1.relu_0_split_0
I0309 16:04:50.113816  2861 net.cpp:380] res4.2.conv1 -> res4.2.conv1
I0309 16:04:50.117589  2861 net.cpp:122] Setting up res4.2.conv1
I0309 16:04:50.117604  2861 net.cpp:129] Top shape: 100 256 7 7 (1254400)
I0309 16:04:50.117609  2861 net.cpp:137] Memory required for data: 3738113200
I0309 16:04:50.117614  2861 layer_factory.hpp:77] Creating layer res4.2.conv1/bn
I0309 16:04:50.117621  2861 net.cpp:84] Creating Layer res4.2.conv1/bn
I0309 16:04:50.117625  2861 net.cpp:406] res4.2.conv1/bn <- res4.2.conv1
I0309 16:04:50.117631  2861 net.cpp:380] res4.2.conv1/bn -> res4.2.conv1/bn
I0309 16:04:50.117907  2861 net.cpp:122] Setting up res4.2.conv1/bn
I0309 16:04:50.117916  2861 net.cpp:129] Top shape: 100 256 7 7 (1254400)
I0309 16:04:50.117919  2861 net.cpp:137] Memory required for data: 3743130800
I0309 16:04:50.117926  2861 layer_factory.hpp:77] Creating layer res4.2.conv1/bn_scale
I0309 16:04:50.117933  2861 net.cpp:84] Creating Layer res4.2.conv1/bn_scale
I0309 16:04:50.117936  2861 net.cpp:406] res4.2.conv1/bn_scale <- res4.2.conv1/bn
I0309 16:04:50.117941  2861 net.cpp:367] res4.2.conv1/bn_scale -> res4.2.conv1/bn (in-place)
I0309 16:04:50.117993  2861 layer_factory.hpp:77] Creating layer res4.2.conv1/bn_scale
I0309 16:04:50.118131  2861 net.cpp:122] Setting up res4.2.conv1/bn_scale
I0309 16:04:50.118154  2861 net.cpp:129] Top shape: 100 256 7 7 (1254400)
I0309 16:04:50.118156  2861 net.cpp:137] Memory required for data: 3748148400
I0309 16:04:50.118161  2861 layer_factory.hpp:77] Creating layer res4.2.conv1/relu
I0309 16:04:50.118166  2861 net.cpp:84] Creating Layer res4.2.conv1/relu
I0309 16:04:50.118170  2861 net.cpp:406] res4.2.conv1/relu <- res4.2.conv1/bn
I0309 16:04:50.118175  2861 net.cpp:367] res4.2.conv1/relu -> res4.2.conv1/bn (in-place)
I0309 16:04:50.119025  2861 net.cpp:122] Setting up res4.2.conv1/relu
I0309 16:04:50.119040  2861 net.cpp:129] Top shape: 100 256 7 7 (1254400)
I0309 16:04:50.119043  2861 net.cpp:137] Memory required for data: 3753166000
I0309 16:04:50.119048  2861 layer_factory.hpp:77] Creating layer res4.2.conv2
I0309 16:04:50.119056  2861 net.cpp:84] Creating Layer res4.2.conv2
I0309 16:04:50.119078  2861 net.cpp:406] res4.2.conv2 <- res4.2.conv1/bn
I0309 16:04:50.119086  2861 net.cpp:380] res4.2.conv2 -> res4.2.conv2
I0309 16:04:50.123770  2861 net.cpp:122] Setting up res4.2.conv2
I0309 16:04:50.123785  2861 net.cpp:129] Top shape: 100 256 7 7 (1254400)
I0309 16:04:50.123817  2861 net.cpp:137] Memory required for data: 3758183600
I0309 16:04:50.123824  2861 layer_factory.hpp:77] Creating layer res4.2.conv2/bn
I0309 16:04:50.123832  2861 net.cpp:84] Creating Layer res4.2.conv2/bn
I0309 16:04:50.123836  2861 net.cpp:406] res4.2.conv2/bn <- res4.2.conv2
I0309 16:04:50.123843  2861 net.cpp:380] res4.2.conv2/bn -> res4.2.conv2/bn
I0309 16:04:50.124205  2861 net.cpp:122] Setting up res4.2.conv2/bn
I0309 16:04:50.124217  2861 net.cpp:129] Top shape: 100 256 7 7 (1254400)
I0309 16:04:50.124219  2861 net.cpp:137] Memory required for data: 3763201200
I0309 16:04:50.124241  2861 layer_factory.hpp:77] Creating layer res4.2.conv2/bn_scale
I0309 16:04:50.124249  2861 net.cpp:84] Creating Layer res4.2.conv2/bn_scale
I0309 16:04:50.124253  2861 net.cpp:406] res4.2.conv2/bn_scale <- res4.2.conv2/bn
I0309 16:04:50.124275  2861 net.cpp:367] res4.2.conv2/bn_scale -> res4.2.conv2/bn (in-place)
I0309 16:04:50.124330  2861 layer_factory.hpp:77] Creating layer res4.2.conv2/bn_scale
I0309 16:04:50.124492  2861 net.cpp:122] Setting up res4.2.conv2/bn_scale
I0309 16:04:50.124500  2861 net.cpp:129] Top shape: 100 256 7 7 (1254400)
I0309 16:04:50.124503  2861 net.cpp:137] Memory required for data: 3768218800
I0309 16:04:50.124509  2861 layer_factory.hpp:77] Creating layer res4.2.sum
I0309 16:04:50.124516  2861 net.cpp:84] Creating Layer res4.2.sum
I0309 16:04:50.124521  2861 net.cpp:406] res4.2.sum <- res4.2.conv2/bn
I0309 16:04:50.124524  2861 net.cpp:406] res4.2.sum <- res4.1.sum_res4.1.relu_0_split_1
I0309 16:04:50.124529  2861 net.cpp:380] res4.2.sum -> res4.2.sum
I0309 16:04:50.124562  2861 net.cpp:122] Setting up res4.2.sum
I0309 16:04:50.124569  2861 net.cpp:129] Top shape: 100 256 7 7 (1254400)
I0309 16:04:50.124572  2861 net.cpp:137] Memory required for data: 3773236400
I0309 16:04:50.124575  2861 layer_factory.hpp:77] Creating layer res4.2.relu
I0309 16:04:50.124581  2861 net.cpp:84] Creating Layer res4.2.relu
I0309 16:04:50.124585  2861 net.cpp:406] res4.2.relu <- res4.2.sum
I0309 16:04:50.124590  2861 net.cpp:367] res4.2.relu -> res4.2.sum (in-place)
I0309 16:04:50.125181  2861 net.cpp:122] Setting up res4.2.relu
I0309 16:04:50.125193  2861 net.cpp:129] Top shape: 100 256 7 7 (1254400)
I0309 16:04:50.125196  2861 net.cpp:137] Memory required for data: 3778254000
I0309 16:04:50.125200  2861 layer_factory.hpp:77] Creating layer res4.2.sum_res4.2.relu_0_split
I0309 16:04:50.125223  2861 net.cpp:84] Creating Layer res4.2.sum_res4.2.relu_0_split
I0309 16:04:50.125231  2861 net.cpp:406] res4.2.sum_res4.2.relu_0_split <- res4.2.sum
I0309 16:04:50.125238  2861 net.cpp:380] res4.2.sum_res4.2.relu_0_split -> res4.2.sum_res4.2.relu_0_split_0
I0309 16:04:50.125248  2861 net.cpp:380] res4.2.sum_res4.2.relu_0_split -> res4.2.sum_res4.2.relu_0_split_1
I0309 16:04:50.125306  2861 net.cpp:122] Setting up res4.2.sum_res4.2.relu_0_split
I0309 16:04:50.125315  2861 net.cpp:129] Top shape: 100 256 7 7 (1254400)
I0309 16:04:50.125319  2861 net.cpp:129] Top shape: 100 256 7 7 (1254400)
I0309 16:04:50.125322  2861 net.cpp:137] Memory required for data: 3788289200
I0309 16:04:50.125325  2861 layer_factory.hpp:77] Creating layer res4.3.conv1
I0309 16:04:50.125334  2861 net.cpp:84] Creating Layer res4.3.conv1
I0309 16:04:50.125337  2861 net.cpp:406] res4.3.conv1 <- res4.2.sum_res4.2.relu_0_split_0
I0309 16:04:50.125344  2861 net.cpp:380] res4.3.conv1 -> res4.3.conv1
I0309 16:04:50.129145  2861 net.cpp:122] Setting up res4.3.conv1
I0309 16:04:50.129160  2861 net.cpp:129] Top shape: 100 256 7 7 (1254400)
I0309 16:04:50.129163  2861 net.cpp:137] Memory required for data: 3793306800
I0309 16:04:50.129169  2861 layer_factory.hpp:77] Creating layer res4.3.conv1/bn
I0309 16:04:50.129192  2861 net.cpp:84] Creating Layer res4.3.conv1/bn
I0309 16:04:50.129199  2861 net.cpp:406] res4.3.conv1/bn <- res4.3.conv1
I0309 16:04:50.129205  2861 net.cpp:380] res4.3.conv1/bn -> res4.3.conv1/bn
I0309 16:04:50.129478  2861 net.cpp:122] Setting up res4.3.conv1/bn
I0309 16:04:50.129500  2861 net.cpp:129] Top shape: 100 256 7 7 (1254400)
I0309 16:04:50.129531  2861 net.cpp:137] Memory required for data: 3798324400
I0309 16:04:50.129554  2861 layer_factory.hpp:77] Creating layer res4.3.conv1/bn_scale
I0309 16:04:50.129559  2861 net.cpp:84] Creating Layer res4.3.conv1/bn_scale
I0309 16:04:50.129578  2861 net.cpp:406] res4.3.conv1/bn_scale <- res4.3.conv1/bn
I0309 16:04:50.129583  2861 net.cpp:367] res4.3.conv1/bn_scale -> res4.3.conv1/bn (in-place)
I0309 16:04:50.129638  2861 layer_factory.hpp:77] Creating layer res4.3.conv1/bn_scale
I0309 16:04:50.129779  2861 net.cpp:122] Setting up res4.3.conv1/bn_scale
I0309 16:04:50.129787  2861 net.cpp:129] Top shape: 100 256 7 7 (1254400)
I0309 16:04:50.129791  2861 net.cpp:137] Memory required for data: 3803342000
I0309 16:04:50.129796  2861 layer_factory.hpp:77] Creating layer res4.3.conv1/relu
I0309 16:04:50.129802  2861 net.cpp:84] Creating Layer res4.3.conv1/relu
I0309 16:04:50.129806  2861 net.cpp:406] res4.3.conv1/relu <- res4.3.conv1/bn
I0309 16:04:50.129812  2861 net.cpp:367] res4.3.conv1/relu -> res4.3.conv1/bn (in-place)
I0309 16:04:50.130344  2861 net.cpp:122] Setting up res4.3.conv1/relu
I0309 16:04:50.130373  2861 net.cpp:129] Top shape: 100 256 7 7 (1254400)
I0309 16:04:50.130375  2861 net.cpp:137] Memory required for data: 3808359600
I0309 16:04:50.130379  2861 layer_factory.hpp:77] Creating layer res4.3.conv2
I0309 16:04:50.130385  2861 net.cpp:84] Creating Layer res4.3.conv2
I0309 16:04:50.130389  2861 net.cpp:406] res4.3.conv2 <- res4.3.conv1/bn
I0309 16:04:50.130396  2861 net.cpp:380] res4.3.conv2 -> res4.3.conv2
I0309 16:04:50.133935  2861 net.cpp:122] Setting up res4.3.conv2
I0309 16:04:50.133966  2861 net.cpp:129] Top shape: 100 256 7 7 (1254400)
I0309 16:04:50.133970  2861 net.cpp:137] Memory required for data: 3813377200
I0309 16:04:50.133975  2861 layer_factory.hpp:77] Creating layer res4.3.conv2/bn
I0309 16:04:50.133982  2861 net.cpp:84] Creating Layer res4.3.conv2/bn
I0309 16:04:50.133986  2861 net.cpp:406] res4.3.conv2/bn <- res4.3.conv2
I0309 16:04:50.133992  2861 net.cpp:380] res4.3.conv2/bn -> res4.3.conv2/bn
I0309 16:04:50.134304  2861 net.cpp:122] Setting up res4.3.conv2/bn
I0309 16:04:50.134311  2861 net.cpp:129] Top shape: 100 256 7 7 (1254400)
I0309 16:04:50.134330  2861 net.cpp:137] Memory required for data: 3818394800
I0309 16:04:50.134336  2861 layer_factory.hpp:77] Creating layer res4.3.conv2/bn_scale
I0309 16:04:50.134342  2861 net.cpp:84] Creating Layer res4.3.conv2/bn_scale
I0309 16:04:50.134346  2861 net.cpp:406] res4.3.conv2/bn_scale <- res4.3.conv2/bn
I0309 16:04:50.134351  2861 net.cpp:367] res4.3.conv2/bn_scale -> res4.3.conv2/bn (in-place)
I0309 16:04:50.134429  2861 layer_factory.hpp:77] Creating layer res4.3.conv2/bn_scale
I0309 16:04:50.134565  2861 net.cpp:122] Setting up res4.3.conv2/bn_scale
I0309 16:04:50.134574  2861 net.cpp:129] Top shape: 100 256 7 7 (1254400)
I0309 16:04:50.134577  2861 net.cpp:137] Memory required for data: 3823412400
I0309 16:04:50.134582  2861 layer_factory.hpp:77] Creating layer res4.3.sum
I0309 16:04:50.134588  2861 net.cpp:84] Creating Layer res4.3.sum
I0309 16:04:50.134593  2861 net.cpp:406] res4.3.sum <- res4.3.conv2/bn
I0309 16:04:50.134596  2861 net.cpp:406] res4.3.sum <- res4.2.sum_res4.2.relu_0_split_1
I0309 16:04:50.134600  2861 net.cpp:380] res4.3.sum -> res4.3.sum
I0309 16:04:50.134630  2861 net.cpp:122] Setting up res4.3.sum
I0309 16:04:50.134639  2861 net.cpp:129] Top shape: 100 256 7 7 (1254400)
I0309 16:04:50.134641  2861 net.cpp:137] Memory required for data: 3828430000
I0309 16:04:50.134644  2861 layer_factory.hpp:77] Creating layer res4.3.relu
I0309 16:04:50.134649  2861 net.cpp:84] Creating Layer res4.3.relu
I0309 16:04:50.134654  2861 net.cpp:406] res4.3.relu <- res4.3.sum
I0309 16:04:50.134657  2861 net.cpp:367] res4.3.relu -> res4.3.sum (in-place)
I0309 16:04:50.135521  2861 net.cpp:122] Setting up res4.3.relu
I0309 16:04:50.135535  2861 net.cpp:129] Top shape: 100 256 7 7 (1254400)
I0309 16:04:50.135538  2861 net.cpp:137] Memory required for data: 3833447600
I0309 16:04:50.135557  2861 layer_factory.hpp:77] Creating layer res4.3.sum_res4.3.relu_0_split
I0309 16:04:50.135574  2861 net.cpp:84] Creating Layer res4.3.sum_res4.3.relu_0_split
I0309 16:04:50.135594  2861 net.cpp:406] res4.3.sum_res4.3.relu_0_split <- res4.3.sum
I0309 16:04:50.135602  2861 net.cpp:380] res4.3.sum_res4.3.relu_0_split -> res4.3.sum_res4.3.relu_0_split_0
I0309 16:04:50.135610  2861 net.cpp:380] res4.3.sum_res4.3.relu_0_split -> res4.3.sum_res4.3.relu_0_split_1
I0309 16:04:50.135666  2861 net.cpp:122] Setting up res4.3.sum_res4.3.relu_0_split
I0309 16:04:50.135673  2861 net.cpp:129] Top shape: 100 256 7 7 (1254400)
I0309 16:04:50.135679  2861 net.cpp:129] Top shape: 100 256 7 7 (1254400)
I0309 16:04:50.135681  2861 net.cpp:137] Memory required for data: 3843482800
I0309 16:04:50.135684  2861 layer_factory.hpp:77] Creating layer res4.4.conv1
I0309 16:04:50.135692  2861 net.cpp:84] Creating Layer res4.4.conv1
I0309 16:04:50.135697  2861 net.cpp:406] res4.4.conv1 <- res4.3.sum_res4.3.relu_0_split_0
I0309 16:04:50.135702  2861 net.cpp:380] res4.4.conv1 -> res4.4.conv1
I0309 16:04:50.139448  2861 net.cpp:122] Setting up res4.4.conv1
I0309 16:04:50.139464  2861 net.cpp:129] Top shape: 100 256 7 7 (1254400)
I0309 16:04:50.139468  2861 net.cpp:137] Memory required for data: 3848500400
I0309 16:04:50.139473  2861 layer_factory.hpp:77] Creating layer res4.4.conv1/bn
I0309 16:04:50.139497  2861 net.cpp:84] Creating Layer res4.4.conv1/bn
I0309 16:04:50.139502  2861 net.cpp:406] res4.4.conv1/bn <- res4.4.conv1
I0309 16:04:50.139509  2861 net.cpp:380] res4.4.conv1/bn -> res4.4.conv1/bn
I0309 16:04:50.139781  2861 net.cpp:122] Setting up res4.4.conv1/bn
I0309 16:04:50.139791  2861 net.cpp:129] Top shape: 100 256 7 7 (1254400)
I0309 16:04:50.139794  2861 net.cpp:137] Memory required for data: 3853518000
I0309 16:04:50.139802  2861 layer_factory.hpp:77] Creating layer res4.4.conv1/bn_scale
I0309 16:04:50.139808  2861 net.cpp:84] Creating Layer res4.4.conv1/bn_scale
I0309 16:04:50.139811  2861 net.cpp:406] res4.4.conv1/bn_scale <- res4.4.conv1/bn
I0309 16:04:50.139817  2861 net.cpp:367] res4.4.conv1/bn_scale -> res4.4.conv1/bn (in-place)
I0309 16:04:50.139868  2861 layer_factory.hpp:77] Creating layer res4.4.conv1/bn_scale
I0309 16:04:50.140007  2861 net.cpp:122] Setting up res4.4.conv1/bn_scale
I0309 16:04:50.140017  2861 net.cpp:129] Top shape: 100 256 7 7 (1254400)
I0309 16:04:50.140019  2861 net.cpp:137] Memory required for data: 3858535600
I0309 16:04:50.140027  2861 layer_factory.hpp:77] Creating layer res4.4.conv1/relu
I0309 16:04:50.140031  2861 net.cpp:84] Creating Layer res4.4.conv1/relu
I0309 16:04:50.140034  2861 net.cpp:406] res4.4.conv1/relu <- res4.4.conv1/bn
I0309 16:04:50.140038  2861 net.cpp:367] res4.4.conv1/relu -> res4.4.conv1/bn (in-place)
I0309 16:04:50.140525  2861 net.cpp:122] Setting up res4.4.conv1/relu
I0309 16:04:50.140537  2861 net.cpp:129] Top shape: 100 256 7 7 (1254400)
I0309 16:04:50.140540  2861 net.cpp:137] Memory required for data: 3863553200
I0309 16:04:50.140544  2861 layer_factory.hpp:77] Creating layer res4.4.conv2
I0309 16:04:50.140568  2861 net.cpp:84] Creating Layer res4.4.conv2
I0309 16:04:50.140573  2861 net.cpp:406] res4.4.conv2 <- res4.4.conv1/bn
I0309 16:04:50.140579  2861 net.cpp:380] res4.4.conv2 -> res4.4.conv2
I0309 16:04:50.144346  2861 net.cpp:122] Setting up res4.4.conv2
I0309 16:04:50.144362  2861 net.cpp:129] Top shape: 100 256 7 7 (1254400)
I0309 16:04:50.144366  2861 net.cpp:137] Memory required for data: 3868570800
I0309 16:04:50.144371  2861 layer_factory.hpp:77] Creating layer res4.4.conv2/bn
I0309 16:04:50.144395  2861 net.cpp:84] Creating Layer res4.4.conv2/bn
I0309 16:04:50.144400  2861 net.cpp:406] res4.4.conv2/bn <- res4.4.conv2
I0309 16:04:50.144407  2861 net.cpp:380] res4.4.conv2/bn -> res4.4.conv2/bn
I0309 16:04:50.144685  2861 net.cpp:122] Setting up res4.4.conv2/bn
I0309 16:04:50.144695  2861 net.cpp:129] Top shape: 100 256 7 7 (1254400)
I0309 16:04:50.144699  2861 net.cpp:137] Memory required for data: 3873588400
I0309 16:04:50.144706  2861 layer_factory.hpp:77] Creating layer res4.4.conv2/bn_scale
I0309 16:04:50.144724  2861 net.cpp:84] Creating Layer res4.4.conv2/bn_scale
I0309 16:04:50.144728  2861 net.cpp:406] res4.4.conv2/bn_scale <- res4.4.conv2/bn
I0309 16:04:50.144734  2861 net.cpp:367] res4.4.conv2/bn_scale -> res4.4.conv2/bn (in-place)
I0309 16:04:50.144789  2861 layer_factory.hpp:77] Creating layer res4.4.conv2/bn_scale
I0309 16:04:50.144932  2861 net.cpp:122] Setting up res4.4.conv2/bn_scale
I0309 16:04:50.144940  2861 net.cpp:129] Top shape: 100 256 7 7 (1254400)
I0309 16:04:50.144944  2861 net.cpp:137] Memory required for data: 3878606000
I0309 16:04:50.144976  2861 layer_factory.hpp:77] Creating layer res4.4.sum
I0309 16:04:50.144984  2861 net.cpp:84] Creating Layer res4.4.sum
I0309 16:04:50.144987  2861 net.cpp:406] res4.4.sum <- res4.4.conv2/bn
I0309 16:04:50.144992  2861 net.cpp:406] res4.4.sum <- res4.3.sum_res4.3.relu_0_split_1
I0309 16:04:50.144997  2861 net.cpp:380] res4.4.sum -> res4.4.sum
I0309 16:04:50.145030  2861 net.cpp:122] Setting up res4.4.sum
I0309 16:04:50.145036  2861 net.cpp:129] Top shape: 100 256 7 7 (1254400)
I0309 16:04:50.145040  2861 net.cpp:137] Memory required for data: 3883623600
I0309 16:04:50.145043  2861 layer_factory.hpp:77] Creating layer res4.4.relu
I0309 16:04:50.145048  2861 net.cpp:84] Creating Layer res4.4.relu
I0309 16:04:50.145051  2861 net.cpp:406] res4.4.relu <- res4.4.sum
I0309 16:04:50.145057  2861 net.cpp:367] res4.4.relu -> res4.4.sum (in-place)
I0309 16:04:50.145553  2861 net.cpp:122] Setting up res4.4.relu
I0309 16:04:50.145566  2861 net.cpp:129] Top shape: 100 256 7 7 (1254400)
I0309 16:04:50.145570  2861 net.cpp:137] Memory required for data: 3888641200
I0309 16:04:50.145575  2861 layer_factory.hpp:77] Creating layer res4.4.sum_res4.4.relu_0_split
I0309 16:04:50.145596  2861 net.cpp:84] Creating Layer res4.4.sum_res4.4.relu_0_split
I0309 16:04:50.145598  2861 net.cpp:406] res4.4.sum_res4.4.relu_0_split <- res4.4.sum
I0309 16:04:50.145606  2861 net.cpp:380] res4.4.sum_res4.4.relu_0_split -> res4.4.sum_res4.4.relu_0_split_0
I0309 16:04:50.145614  2861 net.cpp:380] res4.4.sum_res4.4.relu_0_split -> res4.4.sum_res4.4.relu_0_split_1
I0309 16:04:50.145669  2861 net.cpp:122] Setting up res4.4.sum_res4.4.relu_0_split
I0309 16:04:50.145676  2861 net.cpp:129] Top shape: 100 256 7 7 (1254400)
I0309 16:04:50.145680  2861 net.cpp:129] Top shape: 100 256 7 7 (1254400)
I0309 16:04:50.145684  2861 net.cpp:137] Memory required for data: 3898676400
I0309 16:04:50.145687  2861 layer_factory.hpp:77] Creating layer res4.5.conv1
I0309 16:04:50.145695  2861 net.cpp:84] Creating Layer res4.5.conv1
I0309 16:04:50.145701  2861 net.cpp:406] res4.5.conv1 <- res4.4.sum_res4.4.relu_0_split_0
I0309 16:04:50.145707  2861 net.cpp:380] res4.5.conv1 -> res4.5.conv1
I0309 16:04:50.149999  2861 net.cpp:122] Setting up res4.5.conv1
I0309 16:04:50.150014  2861 net.cpp:129] Top shape: 100 512 7 7 (2508800)
I0309 16:04:50.150017  2861 net.cpp:137] Memory required for data: 3908711600
I0309 16:04:50.150039  2861 layer_factory.hpp:77] Creating layer res4.5.conv1/bn
I0309 16:04:50.150048  2861 net.cpp:84] Creating Layer res4.5.conv1/bn
I0309 16:04:50.150054  2861 net.cpp:406] res4.5.conv1/bn <- res4.5.conv1
I0309 16:04:50.150059  2861 net.cpp:380] res4.5.conv1/bn -> res4.5.conv1/bn
I0309 16:04:50.150353  2861 net.cpp:122] Setting up res4.5.conv1/bn
I0309 16:04:50.150362  2861 net.cpp:129] Top shape: 100 512 7 7 (2508800)
I0309 16:04:50.150365  2861 net.cpp:137] Memory required for data: 3918746800
I0309 16:04:50.150372  2861 layer_factory.hpp:77] Creating layer res4.5.conv1/bn_scale
I0309 16:04:50.150379  2861 net.cpp:84] Creating Layer res4.5.conv1/bn_scale
I0309 16:04:50.150382  2861 net.cpp:406] res4.5.conv1/bn_scale <- res4.5.conv1/bn
I0309 16:04:50.150388  2861 net.cpp:367] res4.5.conv1/bn_scale -> res4.5.conv1/bn (in-place)
I0309 16:04:50.150439  2861 layer_factory.hpp:77] Creating layer res4.5.conv1/bn_scale
I0309 16:04:50.150588  2861 net.cpp:122] Setting up res4.5.conv1/bn_scale
I0309 16:04:50.150595  2861 net.cpp:129] Top shape: 100 512 7 7 (2508800)
I0309 16:04:50.150611  2861 net.cpp:137] Memory required for data: 3928782000
I0309 16:04:50.150617  2861 layer_factory.hpp:77] Creating layer res4.5.conv1/relu
I0309 16:04:50.150624  2861 net.cpp:84] Creating Layer res4.5.conv1/relu
I0309 16:04:50.150627  2861 net.cpp:406] res4.5.conv1/relu <- res4.5.conv1/bn
I0309 16:04:50.150631  2861 net.cpp:367] res4.5.conv1/relu -> res4.5.conv1/bn (in-place)
I0309 16:04:50.151118  2861 net.cpp:122] Setting up res4.5.conv1/relu
I0309 16:04:50.151129  2861 net.cpp:129] Top shape: 100 512 7 7 (2508800)
I0309 16:04:50.151132  2861 net.cpp:137] Memory required for data: 3938817200
I0309 16:04:50.151135  2861 layer_factory.hpp:77] Creating layer res4.5.conv2
I0309 16:04:50.151154  2861 net.cpp:84] Creating Layer res4.5.conv2
I0309 16:04:50.151160  2861 net.cpp:406] res4.5.conv2 <- res4.5.conv1/bn
I0309 16:04:50.151166  2861 net.cpp:380] res4.5.conv2 -> res4.5.conv2
I0309 16:04:50.157402  2861 net.cpp:122] Setting up res4.5.conv2
I0309 16:04:50.157420  2861 net.cpp:129] Top shape: 100 512 7 7 (2508800)
I0309 16:04:50.157424  2861 net.cpp:137] Memory required for data: 3948852400
I0309 16:04:50.157430  2861 layer_factory.hpp:77] Creating layer res4.5.conv2/bn
I0309 16:04:50.157436  2861 net.cpp:84] Creating Layer res4.5.conv2/bn
I0309 16:04:50.157440  2861 net.cpp:406] res4.5.conv2/bn <- res4.5.conv2
I0309 16:04:50.157449  2861 net.cpp:380] res4.5.conv2/bn -> res4.5.conv2/bn
I0309 16:04:50.157729  2861 net.cpp:122] Setting up res4.5.conv2/bn
I0309 16:04:50.157737  2861 net.cpp:129] Top shape: 100 512 7 7 (2508800)
I0309 16:04:50.157742  2861 net.cpp:137] Memory required for data: 3958887600
I0309 16:04:50.157748  2861 layer_factory.hpp:77] Creating layer res4.5.conv2/bn_scale
I0309 16:04:50.157753  2861 net.cpp:84] Creating Layer res4.5.conv2/bn_scale
I0309 16:04:50.157757  2861 net.cpp:406] res4.5.conv2/bn_scale <- res4.5.conv2/bn
I0309 16:04:50.157763  2861 net.cpp:367] res4.5.conv2/bn_scale -> res4.5.conv2/bn (in-place)
I0309 16:04:50.157814  2861 layer_factory.hpp:77] Creating layer res4.5.conv2/bn_scale
I0309 16:04:50.157999  2861 net.cpp:122] Setting up res4.5.conv2/bn_scale
I0309 16:04:50.158010  2861 net.cpp:129] Top shape: 100 512 7 7 (2508800)
I0309 16:04:50.158012  2861 net.cpp:137] Memory required for data: 3968922800
I0309 16:04:50.158018  2861 layer_factory.hpp:77] Creating layer res4.5.skipConv
I0309 16:04:50.158025  2861 net.cpp:84] Creating Layer res4.5.skipConv
I0309 16:04:50.158030  2861 net.cpp:406] res4.5.skipConv <- res4.4.sum_res4.4.relu_0_split_1
I0309 16:04:50.158036  2861 net.cpp:380] res4.5.skipConv -> res4.5.skipConv
I0309 16:04:50.160591  2861 net.cpp:122] Setting up res4.5.skipConv
I0309 16:04:50.160606  2861 net.cpp:129] Top shape: 100 512 7 7 (2508800)
I0309 16:04:50.160610  2861 net.cpp:137] Memory required for data: 3978958000
I0309 16:04:50.160615  2861 layer_factory.hpp:77] Creating layer res4.5skipConv/bn
I0309 16:04:50.160624  2861 net.cpp:84] Creating Layer res4.5skipConv/bn
I0309 16:04:50.160629  2861 net.cpp:406] res4.5skipConv/bn <- res4.5.skipConv
I0309 16:04:50.160634  2861 net.cpp:380] res4.5skipConv/bn -> res4.5.skipConv/bn
I0309 16:04:50.160907  2861 net.cpp:122] Setting up res4.5skipConv/bn
I0309 16:04:50.160917  2861 net.cpp:129] Top shape: 100 512 7 7 (2508800)
I0309 16:04:50.160920  2861 net.cpp:137] Memory required for data: 3988993200
I0309 16:04:50.160926  2861 layer_factory.hpp:77] Creating layer res4.5skipConv/bn_scale
I0309 16:04:50.160933  2861 net.cpp:84] Creating Layer res4.5skipConv/bn_scale
I0309 16:04:50.160936  2861 net.cpp:406] res4.5skipConv/bn_scale <- res4.5.skipConv/bn
I0309 16:04:50.160943  2861 net.cpp:367] res4.5skipConv/bn_scale -> res4.5.skipConv/bn (in-place)
I0309 16:04:50.160992  2861 layer_factory.hpp:77] Creating layer res4.5skipConv/bn_scale
I0309 16:04:50.161144  2861 net.cpp:122] Setting up res4.5skipConv/bn_scale
I0309 16:04:50.161151  2861 net.cpp:129] Top shape: 100 512 7 7 (2508800)
I0309 16:04:50.161154  2861 net.cpp:137] Memory required for data: 3999028400
I0309 16:04:50.161159  2861 layer_factory.hpp:77] Creating layer res4.5.sum
I0309 16:04:50.161181  2861 net.cpp:84] Creating Layer res4.5.sum
I0309 16:04:50.161186  2861 net.cpp:406] res4.5.sum <- res4.5.conv2/bn
I0309 16:04:50.161190  2861 net.cpp:406] res4.5.sum <- res4.5.skipConv/bn
I0309 16:04:50.161196  2861 net.cpp:380] res4.5.sum -> res4.5.sum
I0309 16:04:50.161231  2861 net.cpp:122] Setting up res4.5.sum
I0309 16:04:50.161239  2861 net.cpp:129] Top shape: 100 512 7 7 (2508800)
I0309 16:04:50.161242  2861 net.cpp:137] Memory required for data: 4009063600
I0309 16:04:50.161245  2861 layer_factory.hpp:77] Creating layer res4.5.relu
I0309 16:04:50.161250  2861 net.cpp:84] Creating Layer res4.5.relu
I0309 16:04:50.161254  2861 net.cpp:406] res4.5.relu <- res4.5.sum
I0309 16:04:50.161259  2861 net.cpp:367] res4.5.relu -> res4.5.sum (in-place)
I0309 16:04:50.162289  2861 net.cpp:122] Setting up res4.5.relu
I0309 16:04:50.162305  2861 net.cpp:129] Top shape: 100 512 7 7 (2508800)
I0309 16:04:50.162309  2861 net.cpp:137] Memory required for data: 4019098800
I0309 16:04:50.162312  2861 layer_factory.hpp:77] Creating layer res4.5.sum_res4.5.relu_0_split
I0309 16:04:50.162334  2861 net.cpp:84] Creating Layer res4.5.sum_res4.5.relu_0_split
I0309 16:04:50.162338  2861 net.cpp:406] res4.5.sum_res4.5.relu_0_split <- res4.5.sum
I0309 16:04:50.162345  2861 net.cpp:380] res4.5.sum_res4.5.relu_0_split -> res4.5.sum_res4.5.relu_0_split_0
I0309 16:04:50.162353  2861 net.cpp:380] res4.5.sum_res4.5.relu_0_split -> res4.5.sum_res4.5.relu_0_split_1
I0309 16:04:50.162410  2861 net.cpp:122] Setting up res4.5.sum_res4.5.relu_0_split
I0309 16:04:50.162417  2861 net.cpp:129] Top shape: 100 512 7 7 (2508800)
I0309 16:04:50.162421  2861 net.cpp:129] Top shape: 100 512 7 7 (2508800)
I0309 16:04:50.162425  2861 net.cpp:137] Memory required for data: 4039169200
I0309 16:04:50.162427  2861 layer_factory.hpp:77] Creating layer res4.6.conv1
I0309 16:04:50.162452  2861 net.cpp:84] Creating Layer res4.6.conv1
I0309 16:04:50.162458  2861 net.cpp:406] res4.6.conv1 <- res4.5.sum_res4.5.relu_0_split_0
I0309 16:04:50.162463  2861 net.cpp:380] res4.6.conv1 -> res4.6.conv1
I0309 16:04:50.168889  2861 net.cpp:122] Setting up res4.6.conv1
I0309 16:04:50.168907  2861 net.cpp:129] Top shape: 100 512 7 7 (2508800)
I0309 16:04:50.168911  2861 net.cpp:137] Memory required for data: 4049204400
I0309 16:04:50.168917  2861 layer_factory.hpp:77] Creating layer res4.6.conv1/bn
I0309 16:04:50.168942  2861 net.cpp:84] Creating Layer res4.6.conv1/bn
I0309 16:04:50.168949  2861 net.cpp:406] res4.6.conv1/bn <- res4.6.conv1
I0309 16:04:50.168956  2861 net.cpp:380] res4.6.conv1/bn -> res4.6.conv1/bn
I0309 16:04:50.169239  2861 net.cpp:122] Setting up res4.6.conv1/bn
I0309 16:04:50.169247  2861 net.cpp:129] Top shape: 100 512 7 7 (2508800)
I0309 16:04:50.169250  2861 net.cpp:137] Memory required for data: 4059239600
I0309 16:04:50.169258  2861 layer_factory.hpp:77] Creating layer res4.6.conv1/bn_scale
I0309 16:04:50.169265  2861 net.cpp:84] Creating Layer res4.6.conv1/bn_scale
I0309 16:04:50.169268  2861 net.cpp:406] res4.6.conv1/bn_scale <- res4.6.conv1/bn
I0309 16:04:50.169272  2861 net.cpp:367] res4.6.conv1/bn_scale -> res4.6.conv1/bn (in-place)
I0309 16:04:50.169323  2861 layer_factory.hpp:77] Creating layer res4.6.conv1/bn_scale
I0309 16:04:50.169476  2861 net.cpp:122] Setting up res4.6.conv1/bn_scale
I0309 16:04:50.169482  2861 net.cpp:129] Top shape: 100 512 7 7 (2508800)
I0309 16:04:50.169486  2861 net.cpp:137] Memory required for data: 4069274800
I0309 16:04:50.169492  2861 layer_factory.hpp:77] Creating layer res4.6.conv1/relu
I0309 16:04:50.169497  2861 net.cpp:84] Creating Layer res4.6.conv1/relu
I0309 16:04:50.169502  2861 net.cpp:406] res4.6.conv1/relu <- res4.6.conv1/bn
I0309 16:04:50.169505  2861 net.cpp:367] res4.6.conv1/relu -> res4.6.conv1/bn (in-place)
I0309 16:04:50.170019  2861 net.cpp:122] Setting up res4.6.conv1/relu
I0309 16:04:50.170032  2861 net.cpp:129] Top shape: 100 512 7 7 (2508800)
I0309 16:04:50.170034  2861 net.cpp:137] Memory required for data: 4079310000
I0309 16:04:50.170037  2861 layer_factory.hpp:77] Creating layer res4.6.conv2
I0309 16:04:50.170075  2861 net.cpp:84] Creating Layer res4.6.conv2
I0309 16:04:50.170079  2861 net.cpp:406] res4.6.conv2 <- res4.6.conv1/bn
I0309 16:04:50.170086  2861 net.cpp:380] res4.6.conv2 -> res4.6.conv2
I0309 16:04:50.176138  2861 net.cpp:122] Setting up res4.6.conv2
I0309 16:04:50.176156  2861 net.cpp:129] Top shape: 100 512 7 7 (2508800)
I0309 16:04:50.176159  2861 net.cpp:137] Memory required for data: 4089345200
I0309 16:04:50.176180  2861 layer_factory.hpp:77] Creating layer res4.6.conv2/bn
I0309 16:04:50.176187  2861 net.cpp:84] Creating Layer res4.6.conv2/bn
I0309 16:04:50.176193  2861 net.cpp:406] res4.6.conv2/bn <- res4.6.conv2
I0309 16:04:50.176215  2861 net.cpp:380] res4.6.conv2/bn -> res4.6.conv2/bn
I0309 16:04:50.176512  2861 net.cpp:122] Setting up res4.6.conv2/bn
I0309 16:04:50.176522  2861 net.cpp:129] Top shape: 100 512 7 7 (2508800)
I0309 16:04:50.176525  2861 net.cpp:137] Memory required for data: 4099380400
I0309 16:04:50.176532  2861 layer_factory.hpp:77] Creating layer res4.6.conv2/bn_scale
I0309 16:04:50.176537  2861 net.cpp:84] Creating Layer res4.6.conv2/bn_scale
I0309 16:04:50.176540  2861 net.cpp:406] res4.6.conv2/bn_scale <- res4.6.conv2/bn
I0309 16:04:50.176545  2861 net.cpp:367] res4.6.conv2/bn_scale -> res4.6.conv2/bn (in-place)
I0309 16:04:50.176595  2861 layer_factory.hpp:77] Creating layer res4.6.conv2/bn_scale
I0309 16:04:50.176744  2861 net.cpp:122] Setting up res4.6.conv2/bn_scale
I0309 16:04:50.176751  2861 net.cpp:129] Top shape: 100 512 7 7 (2508800)
I0309 16:04:50.176755  2861 net.cpp:137] Memory required for data: 4109415600
I0309 16:04:50.176760  2861 layer_factory.hpp:77] Creating layer res4.6.sum
I0309 16:04:50.176769  2861 net.cpp:84] Creating Layer res4.6.sum
I0309 16:04:50.176772  2861 net.cpp:406] res4.6.sum <- res4.6.conv2/bn
I0309 16:04:50.176776  2861 net.cpp:406] res4.6.sum <- res4.5.sum_res4.5.relu_0_split_1
I0309 16:04:50.176798  2861 net.cpp:380] res4.6.sum -> res4.6.sum
I0309 16:04:50.176831  2861 net.cpp:122] Setting up res4.6.sum
I0309 16:04:50.176838  2861 net.cpp:129] Top shape: 100 512 7 7 (2508800)
I0309 16:04:50.176842  2861 net.cpp:137] Memory required for data: 4119450800
I0309 16:04:50.176846  2861 layer_factory.hpp:77] Creating layer res4.6.relu
I0309 16:04:50.176851  2861 net.cpp:84] Creating Layer res4.6.relu
I0309 16:04:50.176854  2861 net.cpp:406] res4.6.relu <- res4.6.sum
I0309 16:04:50.176859  2861 net.cpp:367] res4.6.relu -> res4.6.sum (in-place)
I0309 16:04:50.177340  2861 net.cpp:122] Setting up res4.6.relu
I0309 16:04:50.177352  2861 net.cpp:129] Top shape: 100 512 7 7 (2508800)
I0309 16:04:50.177356  2861 net.cpp:137] Memory required for data: 4129486000
I0309 16:04:50.177358  2861 layer_factory.hpp:77] Creating layer pool5
I0309 16:04:50.177376  2861 net.cpp:84] Creating Layer pool5
I0309 16:04:50.177379  2861 net.cpp:406] pool5 <- res4.6.sum
I0309 16:04:50.177402  2861 net.cpp:380] pool5 -> pool5
I0309 16:04:50.178395  2861 net.cpp:122] Setting up pool5
I0309 16:04:50.178409  2861 net.cpp:129] Top shape: 100 512 1 1 (51200)
I0309 16:04:50.178412  2861 net.cpp:137] Memory required for data: 4129690800
I0309 16:04:50.178416  2861 layer_factory.hpp:77] Creating layer fc
I0309 16:04:50.178438  2861 net.cpp:84] Creating Layer fc
I0309 16:04:50.178444  2861 net.cpp:406] fc <- pool5
I0309 16:04:50.178452  2861 net.cpp:380] fc -> fc
I0309 16:04:50.179741  2861 net.cpp:122] Setting up fc
I0309 16:04:50.179755  2861 net.cpp:129] Top shape: 100 1000 (100000)
I0309 16:04:50.179759  2861 net.cpp:137] Memory required for data: 4130090800
I0309 16:04:50.179764  2861 layer_factory.hpp:77] Creating layer fc_fc_0_split
I0309 16:04:50.179787  2861 net.cpp:84] Creating Layer fc_fc_0_split
I0309 16:04:50.179793  2861 net.cpp:406] fc_fc_0_split <- fc
I0309 16:04:50.179798  2861 net.cpp:380] fc_fc_0_split -> fc_fc_0_split_0
I0309 16:04:50.179805  2861 net.cpp:380] fc_fc_0_split -> fc_fc_0_split_1
I0309 16:04:50.179857  2861 net.cpp:122] Setting up fc_fc_0_split
I0309 16:04:50.179864  2861 net.cpp:129] Top shape: 100 1000 (100000)
I0309 16:04:50.179880  2861 net.cpp:129] Top shape: 100 1000 (100000)
I0309 16:04:50.179883  2861 net.cpp:137] Memory required for data: 4130890800
I0309 16:04:50.179886  2861 layer_factory.hpp:77] Creating layer accuracy/top-1
I0309 16:04:50.179893  2861 net.cpp:84] Creating Layer accuracy/top-1
I0309 16:04:50.179898  2861 net.cpp:406] accuracy/top-1 <- fc_fc_0_split_0
I0309 16:04:50.179901  2861 net.cpp:406] accuracy/top-1 <- label_data_1_split_0
I0309 16:04:50.179906  2861 net.cpp:380] accuracy/top-1 -> accuracy/top-1
…
