…
I0309 16:03:18.671954  2833 caffe.cpp:270] GPU device name: GeForce GTX 1080 Ti
I0309 16:03:19.004743  2833 net.cpp:51] Initializing net from parameters: 
state {
  phase: TEST
  level: 0
  stage: ""
}
layer {
  name: "data"
  type: "ImageData"
  top: "data"
  top: "label"
  include {
    phase: TEST
  }
  transform_param {
    scale: 0.008
    mirror: false
    crop_size: 224
    mean_value: 104
    mean_value: 117
    mean_value: 123
  }
  image_data_param {
    source: "/home/vip/dataset/imagenet/ILSVRC2012_val_256xN_list.txt"
    batch_size: 100
    shuffle: false
  }
}
layer {
  name: "conv1"
  type: "Convolution"
  bottom: "data"
  top: "conv1"
  convolution_param {
    num_output: 32
    bias_term: false
    pad: 1
    kernel_size: 3
    stride: 2
  }
}
layer {
  name: "conv1/bn"
  type: "BatchNorm"
  bottom: "conv1"
  top: "conv1/bn"
  batch_norm_param {
    moving_average_fraction: 0.9
    eps: 0.0001
  }
}
layer {
  name: "conv1/bn_scale"
  type: "Scale"
  bottom: "conv1/bn"
  top: "conv1/bn"
  scale_param {
    bias_term: true
  }
}
layer {
  name: "conv1/relu"
  type: "ReLU"
  bottom: "conv1/bn"
  top: "conv1/bn"
}
layer {
  name: "conv2"
  type: "Convolution"
  bottom: "conv1/bn"
  top: "conv2"
  convolution_param {
    num_output: 64
    bias_term: false
    pad: 1
    kernel_size: 3
    stride: 2
  }
}
layer {
  name: "conv2/bn"
  type: "BatchNorm"
  bottom: "conv2"
  top: "conv2/bn"
  batch_norm_param {
    moving_average_fraction: 0.9
    eps: 0.0001
  }
}
layer {
  name: "conv2/bn_scale"
  type: "Scale"
  bottom: "conv2/bn"
  top: "conv2/bn"
  scale_param {
    bias_term: true
  }
}
layer {
  name: "conv2/relu"
  type: "ReLU"
  bottom: "conv2/bn"
  top: "conv2/bn"
}
layer {
  name: "res2.1.conv1"
  type: "Convolution"
  bottom: "conv2/bn"
  top: "res2.1.conv1"
  convolution_param {
    num_output: 64
    bias_term: false
    pad: 1
    kernel_size: 3
    stride: 2
  }
}
layer {
  name: "res2.1.conv1/bn"
  type: "BatchNorm"
  bottom: "res2.1.conv1"
  top: "res2.1.conv1/bn"
  batch_norm_param {
    moving_average_fraction: 0.9
    eps: 0.0001
  }
}
layer {
  name: "res2.1.conv1/bn_scale"
  type: "Scale"
  bottom: "res2.1.conv1/bn"
  top: "res2.1.conv1/bn"
  scale_param {
    bias_term: true
  }
}
layer {
  name: "res2.1.conv1/relu"
  type: "ReLU"
  bottom: "res2.1.conv1/bn"
  top: "res2.1.conv1/bn"
}
layer {
  name: "res2.1.conv2"
  type: "Convolution"
  bottom: "res2.1.conv1/bn"
  top: "res2.1.conv2"
  convolution_param {
    num_output: 64
    bias_term: false
    pad: 1
    kernel_size: 3
    stride: 1
  }
}
layer {
  name: "res2.1.conv2/bn"
  type: "BatchNorm"
  bottom: "res2.1.conv2"
  top: "res2.1.conv2/bn"
  batch_norm_param {
    moving_average_fraction: 0.9
    eps: 0.0001
  }
}
layer {
  name: "res2.1.conv2/bn_scale"
  type: "Scale"
  bottom: "res2.1.conv2/bn"
  top: "res2.1.conv2/bn"
  scale_param {
    bias_term: true
  }
}
layer {
  name: "res2.1.skipConv"
  type: "Convolution"
  bottom: "conv2/bn"
  top: "res2.1.skipConv"
  convolution_param {
    num_output: 64
    bias_term: false
    pad: 0
    kernel_size: 1
    stride: 2
  }
}
layer {
  name: "res2.1skipConv/bn"
  type: "BatchNorm"
  bottom: "res2.1.skipConv"
  top: "res2.1.skipConv/bn"
  batch_norm_param {
    moving_average_fraction: 0.9
    eps: 0.0001
  }
}
layer {
  name: "res2.1skipConv/bn_scale"
  type: "Scale"
  bottom: "res2.1.skipConv/bn"
  top: "res2.1.skipConv/bn"
  scale_param {
    bias_term: true
  }
}
layer {
  name: "res2.1.sum"
  type: "Eltwise"
  bottom: "res2.1.conv2/bn"
  bottom: "res2.1.skipConv/bn"
  top: "res2.1.sum"
  eltwise_param {
    operation: SUM
  }
}
layer {
  name: "res2.1.relu"
  type: "ReLU"
  bottom: "res2.1.sum"
  top: "res2.1.sum"
}
layer {
  name: "res2.2.conv1"
  type: "Convolution"
  bottom: "res2.1.sum"
  top: "res2.2.conv1"
  convolution_param {
    num_output: 64
    bias_term: false
    pad: 1
    kernel_size: 3
    stride: 1
  }
}
layer {
  name: "res2.2.conv1/bn"
  type: "BatchNorm"
  bottom: "res2.2.conv1"
  top: "res2.2.conv1/bn"
  batch_norm_param {
    moving_average_fraction: 0.9
    eps: 0.0001
  }
}
layer {
  name: "res2.2.conv1/bn_scale"
  type: "Scale"
  bottom: "res2.2.conv1/bn"
  top: "res2.2.conv1/bn"
  scale_param {
    bias_term: true
  }
}
layer {
  name: "res2.2.conv1/relu"
  type: "ReLU"
  bottom: "res2.2.conv1/bn"
  top: "res2.2.conv1/bn"
}
layer {
  name: "res2.2.conv2"
  type: "Convolution"
  bottom: "res2.2.conv1/bn"
  top: "res2.2.conv2"
  convolution_param {
    num_output: 64
    bias_term: false
    pad: 1
    kernel_size: 3
    stride: 1
  }
}
layer {
  name: "res2.2.conv2/bn"
  type: "BatchNorm"
  bottom: "res2.2.conv2"
  top: "res2.2.conv2/bn"
  batch_norm_param {
    moving_average_fraction: 0.9
    eps: 0.0001
  }
}
layer {
  name: "res2.2.conv2/bn_scale"
  type: "Scale"
  bottom: "res2.2.conv2/bn"
  top: "res2.2.conv2/bn"
  scale_param {
    bias_term: true
  }
}
layer {
  name: "res2.2.sum"
  type: "Eltwise"
  bottom: "res2.2.conv2/bn"
  bottom: "res2.1.sum"
  top: "res2.2.sum"
  eltwise_param {
    operation: SUM
  }
}
layer {
  name: "res2.2.relu"
  type: "ReLU"
  bottom: "res2.2.sum"
  top: "res2.2.sum"
}
layer {
  name: "res2.3.conv1"
  type: "Convolution"
  bottom: "res2.2.sum"
  top: "res2.3.conv1"
  convolution_param {
    num_output: 64
    bias_term: false
    pad: 1
    kernel_size: 3
    stride: 1
  }
}
layer {
  name: "res2.3.conv1/bn"
  type: "BatchNorm"
  bottom: "res2.3.conv1"
  top: "res2.3.conv1/bn"
  batch_norm_param {
    moving_average_fraction: 0.9
    eps: 0.0001
  }
}
layer {
  name: "res2.3.conv1/bn_scale"
  type: "Scale"
  bottom: "res2.3.conv1/bn"
  top: "res2.3.conv1/bn"
  scale_param {
    bias_term: true
  }
}
layer {
  name: "res2.3.conv1/relu"
  type: "ReLU"
  bottom: "res2.3.conv1/bn"
  top: "res2.3.conv1/bn"
}
layer {
  name: "res2.3.conv2"
  type: "Convolution"
  bottom: "res2.3.conv1/bn"
  top: "res2.3.conv2"
  convolution_param {
    num_output: 64
    bias_term: false
    pad: 1
    kernel_size: 3
    stride: 1
  }
}
layer {
  name: "res2.3.conv2/bn"
  type: "BatchNorm"
  bottom: "res2.3.conv2"
  top: "res2.3.conv2/bn"
  batch_norm_param {
    moving_average_fraction: 0.9
    eps: 0.0001
  }
}
layer {
  name: "res2.3.conv2/bn_scale"
  type: "Scale"
  bottom: "res2.3.conv2/bn"
  top: "res2.3.conv2/bn"
  scale_param {
    bias_term: true
  }
}
layer {
  name: "res2.3.sum"
  type: "Eltwise"
  bottom: "res2.3.conv2/bn"
  bottom: "res2.2.sum"
  top: "res2.3.sum"
  eltwise_param {
    operation: SUM
  }
}
layer {
  name: "res2.3.relu"
  type: "ReLU"
  bottom: "res2.3.sum"
  top: "res2.3.sum"
}
layer {
  name: "res3.1.conv1"
  type: "Convolution"
  bottom: "res2.3.sum"
  top: "res3.1.conv1"
  convolution_param {
    num_output: 128
    bias_term: false
    pad: 1
    kernel_size: 3
    stride: 2
  }
}
layer {
  name: "res3.1.conv1/bn"
  type: "BatchNorm"
  bottom: "res3.1.conv1"
  top: "res3.1.conv1/bn"
  batch_norm_param {
    moving_average_fraction: 0.9
    eps: 0.0001
  }
}
layer {
  name: "res3.1.conv1/bn_scale"
  type: "Scale"
  bottom: "res3.1.conv1/bn"
  top: "res3.1.conv1/bn"
  scale_param {
    bias_term: true
  }
}
layer {
  name: "res3.1.conv1/relu"
  type: "ReLU"
  bottom: "res3.1.conv1/bn"
  top: "res3.1.conv1/bn"
}
layer {
  name: "res3.1.conv2"
  type: "Convolution"
  bottom: "res3.1.conv1/bn"
  top: "res3.1.conv2"
  convolution_param {
    num_output: 128
    bias_term: false
    pad: 1
    kernel_size: 3
    stride: 1
  }
}
layer {
  name: "res3.1.conv2/bn"
  type: "BatchNorm"
  bottom: "res3.1.conv2"
  top: "res3.1.conv2/bn"
  batch_norm_param {
    moving_average_fraction: 0.9
    eps: 0.0001
  }
}
layer {
  name: "res3.1.conv2/bn_scale"
  type: "Scale"
  bottom: "res3.1.conv2/bn"
  top: "res3.1.conv2/bn"
  scale_param {
    bias_term: true
  }
}
layer {
  name: "res3.1.skipConv"
  type: "Convolution"
  bottom: "res2.3.sum"
  top: "res3.1.skipConv"
  convolution_param {
    num_output: 128
    bias_term: false
    pad: 0
    kernel_size: 1
    stride: 2
  }
}
layer {
  name: "res3.1skipConv/bn"
  type: "BatchNorm"
  bottom: "res3.1.skipConv"
  top: "res3.1.skipConv/bn"
  batch_norm_param {
    moving_average_fraction: 0.9
    eps: 0.0001
  }
}
layer {
  name: "res3.1skipConv/bn_scale"
  type: "Scale"
  bottom: "res3.1.skipConv/bn"
  top: "res3.1.skipConv/bn"
  scale_param {
    bias_term: true
  }
}
layer {
  name: "res3.1.sum"
  type: "Eltwise"
  bottom: "res3.1.conv2/bn"
  bottom: "res3.1.skipConv/bn"
  top: "res3.1.sum"
  eltwise_param {
    operation: SUM
  }
}
layer {
  name: "res3.1.relu"
  type: "ReLU"
  bottom: "res3.1.sum"
  top: "res3.1.sum"
}
layer {
  name: "res3.2.conv1"
  type: "Convolution"
  bottom: "res3.1.sum"
  top: "res3.2.conv1"
  convolution_param {
    num_output: 128
    bias_term: false
    pad: 1
    kernel_size: 3
    stride: 1
  }
}
layer {
  name: "res3.2.conv1/bn"
  type: "BatchNorm"
  bottom: "res3.2.conv1"
  top: "res3.2.conv1/bn"
  batch_norm_param {
    moving_average_fraction: 0.9
    eps: 0.0001
  }
}
layer {
  name: "res3.2.conv1/bn_scale"
  type: "Scale"
  bottom: "res3.2.conv1/bn"
  top: "res3.2.conv1/bn"
  scale_param {
    bias_term: true
  }
}
layer {
  name: "res3.2.conv1/relu"
  type: "ReLU"
  bottom: "res3.2.conv1/bn"
  top: "res3.2.conv1/bn"
}
layer {
  name: "res3.2.conv2"
  type: "Convolution"
  bottom: "res3.2.conv1/bn"
  top: "res3.2.conv2"
  convolution_param {
    num_output: 128
    bias_term: false
    pad: 1
    kernel_size: 3
    stride: 1
  }
}
layer {
  name: "res3.2.conv2/bn"
  type: "BatchNorm"
  bottom: "res3.2.conv2"
  top: "res3.2.conv2/bn"
  batch_norm_param {
    moving_average_fraction: 0.9
    eps: 0.0001
  }
}
layer {
  name: "res3.2.conv2/bn_scale"
  type: "Scale"
  bottom: "res3.2.conv2/bn"
  top: "res3.2.conv2/bn"
  scale_param {
    bias_term: true
  }
}
layer {
  name: "res3.2.sum"
  type: "Eltwise"
  bottom: "res3.2.conv2/bn"
  bottom: "res3.1.sum"
  top: "res3.2.sum"
  eltwise_param {
    operation: SUM
  }
}
layer {
  name: "res3.2.relu"
  type: "ReLU"
  bottom: "res3.2.sum"
  top: "res3.2.sum"
}
layer {
  name: "res3.3.conv1"
  type: "Convolution"
  bottom: "res3.2.sum"
  top: "res3.3.conv1"
  convolution_param {
    num_output: 128
    bias_term: false
    pad: 1
    kernel_size: 3
    stride: 1
  }
}
layer {
  name: "res3.3.conv1/bn"
  type: "BatchNorm"
  bottom: "res3.3.conv1"
  top: "res3.3.conv1/bn"
  batch_norm_param {
    moving_average_fraction: 0.9
    eps: 0.0001
  }
}
layer {
  name: "res3.3.conv1/bn_scale"
  type: "Scale"
  bottom: "res3.3.conv1/bn"
  top: "res3.3.conv1/bn"
  scale_param {
    bias_term: true
  }
}
layer {
  name: "res3.3.conv1/relu"
  type: "ReLU"
  bottom: "res3.3.conv1/bn"
  top: "res3.3.conv1/bn"
}
layer {
  name: "res3.3.conv2"
  type: "Convolution"
  bottom: "res3.3.conv1/bn"
  top: "res3.3.conv2"
  convolution_param {
    num_output: 128
    bias_term: false
    pad: 1
    kernel_size: 3
    stride: 1
  }
}
layer {
  name: "res3.3.conv2/bn"
  type: "BatchNorm"
  bottom: "res3.3.conv2"
  top: "res3.3.conv2/bn"
  batch_norm_param {
    moving_average_fraction: 0.9
    eps: 0.0001
  }
}
layer {
  name: "res3.3.conv2/bn_scale"
  type: "Scale"
  bottom: "res3.3.conv2/bn"
  top: "res3.3.conv2/bn"
  scale_param {
    bias_term: true
  }
}
layer {
  name: "res3.3.sum"
  type: "Eltwise"
  bottom: "res3.3.conv2/bn"
  bottom: "res3.2.sum"
  top: "res3.3.sum"
  eltwise_param {
    operation: SUM
  }
}
layer {
  name: "res3.3.relu"
  type: "ReLU"
  bottom: "res3.3.sum"
  top: "res3.3.sum"
}
layer {
  name: "res4.1.conv1"
  type: "Convolution"
  bottom: "res3.3.sum"
  top: "res4.1.conv1"
  convolution_param {
    num_output: 256
    bias_term: false
    pad: 1
    kernel_size: 3
    stride: 2
  }
}
layer {
  name: "res4.1.conv1/bn"
  type: "BatchNorm"
  bottom: "res4.1.conv1"
  top: "res4.1.conv1/bn"
  batch_norm_param {
    moving_average_fraction: 0.9
    eps: 0.0001
  }
}
layer {
  name: "res4.1.conv1/bn_scale"
  type: "Scale"
  bottom: "res4.1.conv1/bn"
  top: "res4.1.conv1/bn"
  scale_param {
    bias_term: true
  }
}
layer {
  name: "res4.1.conv1/relu"
  type: "ReLU"
  bottom: "res4.1.conv1/bn"
  top: "res4.1.conv1/bn"
}
layer {
  name: "res4.1.conv2"
  type: "Convolution"
  bottom: "res4.1.conv1/bn"
  top: "res4.1.conv2"
  convolution_param {
    num_output: 256
    bias_term: false
    pad: 1
    kernel_size: 3
    stride: 1
  }
}
layer {
  name: "res4.1.conv2/bn"
  type: "BatchNorm"
  bottom: "res4.1.conv2"
  top: "res4.1.conv2/bn"
  batch_norm_param {
    moving_average_fraction: 0.9
    eps: 0.0001
  }
}
layer {
  name: "res4.1.conv2/bn_scale"
  type: "Scale"
  bottom: "res4.1.conv2/bn"
  top: "res4.1.conv2/bn"
  scale_param {
    bias_term: true
  }
}
layer {
  name: "res4.1.skipConv"
  type: "Convolution"
  bottom: "res3.3.sum"
  top: "res4.1.skipConv"
  convolution_param {
    num_output: 256
    bias_term: false
    pad: 0
    kernel_size: 1
    stride: 2
  }
}
layer {
  name: "res4.1skipConv/bn"
  type: "BatchNorm"
  bottom: "res4.1.skipConv"
  top: "res4.1.skipConv/bn"
  batch_norm_param {
    moving_average_fraction: 0.9
    eps: 0.0001
  }
}
layer {
  name: "res4.1skipConv/bn_scale"
  type: "Scale"
  bottom: "res4.1.skipConv/bn"
  top: "res4.1.skipConv/bn"
  scale_param {
    bias_term: true
  }
}
layer {
  name: "res4.1.sum"
  type: "Eltwise"
  bottom: "res4.1.conv2/bn"
  bottom: "res4.1.skipConv/bn"
  top: "res4.1.sum"
  eltwise_param {
    operation: SUM
  }
}
layer {
  name: "res4.1.relu"
  type: "ReLU"
  bottom: "res4.1.sum"
  top: "res4.1.sum"
}
layer {
  name: "res4.2.conv1"
  type: "Convolution"
  bottom: "res4.1.sum"
  top: "res4.2.conv1"
  convolution_param {
    num_output: 256
    bias_term: false
    pad: 1
    kernel_size: 3
    stride: 1
  }
}
layer {
  name: "res4.2.conv1/bn"
  type: "BatchNorm"
  bottom: "res4.2.conv1"
  top: "res4.2.conv1/bn"
  batch_norm_param {
    moving_average_fraction: 0.9
    eps: 0.0001
  }
}
layer {
  name: "res4.2.conv1/bn_scale"
  type: "Scale"
  bottom: "res4.2.conv1/bn"
  top: "res4.2.conv1/bn"
  scale_param {
    bias_term: true
  }
}
layer {
  name: "res4.2.conv1/relu"
  type: "ReLU"
  bottom: "res4.2.conv1/bn"
  top: "res4.2.conv1/bn"
}
layer {
  name: "res4.2.conv2"
  type: "Convolution"
  bottom: "res4.2.conv1/bn"
  top: "res4.2.conv2"
  convolution_param {
    num_output: 256
    bias_term: false
    pad: 1
    kernel_size: 3
    stride: 1
  }
}
layer {
  name: "res4.2.conv2/bn"
  type: "BatchNorm"
  bottom: "res4.2.conv2"
  top: "res4.2.conv2/bn"
  batch_norm_param {
    moving_average_fraction: 0.9
    eps: 0.0001
  }
}
layer {
  name: "res4.2.conv2/bn_scale"
  type: "Scale"
  bottom: "res4.2.conv2/bn"
  top: "res4.2.conv2/bn"
  scale_param {
    bias_term: true
  }
}
layer {
  name: "res4.2.sum"
  type: "Eltwise"
  bottom: "res4.2.conv2/bn"
  bottom: "res4.1.sum"
  top: "res4.2.sum"
  eltwise_param {
    operation: SUM
  }
}
layer {
  name: "res4.2.relu"
  type: "ReLU"
  bottom: "res4.2.sum"
  top: "res4.2.sum"
}
layer {
  name: "res4.3.conv1"
  type: "Convolution"
  bottom: "res4.2.sum"
  top: "res4.3.conv1"
  convolution_param {
    num_output: 256
    bias_term: false
    pad: 1
    kernel_size: 3
    stride: 1
  }
}
layer {
  name: "res4.3.conv1/bn"
  type: "BatchNorm"
  bottom: "res4.3.conv1"
  top: "res4.3.conv1/bn"
  batch_norm_param {
    moving_average_fraction: 0.9
    eps: 0.0001
  }
}
layer {
  name: "res4.3.conv1/bn_scale"
  type: "Scale"
  bottom: "res4.3.conv1/bn"
  top: "res4.3.conv1/bn"
  scale_param {
    bias_term: true
  }
}
layer {
  name: "res4.3.conv1/relu"
  type: "ReLU"
  bottom: "res4.3.conv1/bn"
  top: "res4.3.conv1/bn"
}
layer {
  name: "res4.3.conv2"
  type: "Convolution"
  bottom: "res4.3.conv1/bn"
  top: "res4.3.conv2"
  convolution_param {
    num_output: 256
    bias_term: false
    pad: 1
    kernel_size: 3
    stride: 1
  }
}
layer {
  name: "res4.3.conv2/bn"
  type: "BatchNorm"
  bottom: "res4.3.conv2"
  top: "res4.3.conv2/bn"
  batch_norm_param {
    moving_average_fraction: 0.9
    eps: 0.0001
  }
}
layer {
  name: "res4.3.conv2/bn_scale"
  type: "Scale"
  bottom: "res4.3.conv2/bn"
  top: "res4.3.conv2/bn"
  scale_param {
    bias_term: true
  }
}
layer {
  name: "res4.3.sum"
  type: "Eltwise"
  bottom: "res4.3.conv2/bn"
  bottom: "res4.2.sum"
  top: "res4.3.sum"
  eltwise_param {
    operation: SUM
  }
}
layer {
  name: "res4.3.relu"
  type: "ReLU"
  bottom: "res4.3.sum"
  top: "res4.3.sum"
}
layer {
  name: "res4.4.conv1"
  type: "Convolution"
  bottom: "res4.3.sum"
  top: "res4.4.conv1"
  convolution_param {
    num_output: 512
    bias_term: false
    pad: 1
    kernel_size: 3
    stride: 1
  }
}
layer {
  name: "res4.4.conv1/bn"
  type: "BatchNorm"
  bottom: "res4.4.conv1"
  top: "res4.4.conv1/bn"
  batch_norm_param {
    moving_average_fraction: 0.9
    eps: 0.0001
  }
}
layer {
  name: "res4.4.conv1/bn_scale"
  type: "Scale"
  bottom: "res4.4.conv1/bn"
  top: "res4.4.conv1/bn"
  scale_param {
    bias_term: true
  }
}
layer {
  name: "res4.4.conv1/relu"
  type: "ReLU"
  bottom: "res4.4.conv1/bn"
  top: "res4.4.conv1/bn"
}
layer {
  name: "res4.4.conv2"
  type: "Convolution"
  bottom: "res4.4.conv1/bn"
  top: "res4.4.conv2"
  convolution_param {
    num_output: 512
    bias_term: false
    pad: 1
    kernel_size: 3
    stride: 1
  }
}
layer {
  name: "res4.4.conv2/bn"
  type: "BatchNorm"
  bottom: "res4.4.conv2"
  top: "res4.4.conv2/bn"
  batch_norm_param {
    moving_average_fraction: 0.9
    eps: 0.0001
  }
}
layer {
  name: "res4.4.conv2/bn_scale"
  type: "Scale"
  bottom: "res4.4.conv2/bn"
  top: "res4.4.conv2/bn"
  scale_param {
    bias_term: true
  }
}
layer {
  name: "res4.4.skipConv"
  type: "Convolution"
  bottom: "res4.3.sum"
  top: "res4.4.skipConv"
  convolution_param {
    num_output: 512
    bias_term: false
    pad: 0
    kernel_size: 1
    stride: 1
  }
}
layer {
  name: "res4.4skipConv/bn"
  type: "BatchNorm"
  bottom: "res4.4.skipConv"
  top: "res4.4.skipConv/bn"
  batch_norm_param {
    moving_average_fraction: 0.9
    eps: 0.0001
  }
}
layer {
  name: "res4.4skipConv/bn_scale"
  type: "Scale"
  bottom: "res4.4.skipConv/bn"
  top: "res4.4.skipConv/bn"
  scale_param {
    bias_term: true
  }
}
layer {
  name: "res4.4.sum"
  type: "Eltwise"
  bottom: "res4.4.conv2/bn"
  bottom: "res4.4.skipConv/bn"
  top: "res4.4.sum"
  eltwise_param {
    operation: SUM
  }
}
layer {
  name: "res4.4.relu"
  type: "ReLU"
  bottom: "res4.4.sum"
  top: "res4.4.sum"
}
layer {
  name: "pool5"
  type: "Pooling"
  bottom: "res4.4.sum"
  top: "pool5"
  pooling_param {
    pool: AVE
    kernel_size: 7
    stride: 1
  }
}
layer {
  name: "fc"
  type: "InnerProduct"
  bottom: "pool5"
  top: "fc"
  inner_product_param {
    num_output: 1000
    bias_term: true
  }
}
layer {
  name: "accuracy/top-1"
  type: "Accuracy"
  bottom: "fc"
  bottom: "label"
  top: "accuracy/top-1"
  accuracy_param {
    top_k: 1
  }
}
layer {
  name: "accuracy/top-5"
  type: "Accuracy"
  bottom: "fc"
  bottom: "label"
  top: "accuracy/top-5"
  accuracy_param {
    top_k: 5
  }
}
I0309 16:03:19.005295  2833 layer_factory.hpp:77] Creating layer data
I0309 16:03:19.005331  2833 net.cpp:84] Creating Layer data
I0309 16:03:19.005340  2833 net.cpp:380] data -> data
I0309 16:03:19.005365  2833 net.cpp:380] data -> label
I0309 16:03:19.005388  2833 image_data_layer.cpp:38] Opening file /home/vip/dataset/imagenet/ILSVRC2012_val_256xN_list.txt
I0309 16:03:19.039394  2833 image_data_layer.cpp:63] A total of 50000 images.
I0309 16:03:19.056461  2833 image_data_layer.cpp:90] output data size: 100,3,224,224
I0309 16:03:19.177467  2833 net.cpp:122] Setting up data
I0309 16:03:19.177497  2833 net.cpp:129] Top shape: 100 3 224 224 (15052800)
I0309 16:03:19.177502  2833 net.cpp:129] Top shape: 100 (100)
I0309 16:03:19.177506  2833 net.cpp:137] Memory required for data: 60211600
I0309 16:03:19.177513  2833 layer_factory.hpp:77] Creating layer label_data_1_split
I0309 16:03:19.177542  2833 net.cpp:84] Creating Layer label_data_1_split
I0309 16:03:19.177548  2833 net.cpp:406] label_data_1_split <- label
I0309 16:03:19.177562  2833 net.cpp:380] label_data_1_split -> label_data_1_split_0
I0309 16:03:19.177588  2833 net.cpp:380] label_data_1_split -> label_data_1_split_1
I0309 16:03:19.177646  2833 net.cpp:122] Setting up label_data_1_split
I0309 16:03:19.177654  2833 net.cpp:129] Top shape: 100 (100)
I0309 16:03:19.177659  2833 net.cpp:129] Top shape: 100 (100)
I0309 16:03:19.177661  2833 net.cpp:137] Memory required for data: 60212400
I0309 16:03:19.177683  2833 layer_factory.hpp:77] Creating layer conv1
I0309 16:03:19.177697  2833 net.cpp:84] Creating Layer conv1
I0309 16:03:19.177702  2833 net.cpp:406] conv1 <- data
I0309 16:03:19.177707  2833 net.cpp:380] conv1 -> conv1
I0309 16:03:19.765316  2833 net.cpp:122] Setting up conv1
I0309 16:03:19.765362  2833 net.cpp:129] Top shape: 100 32 112 112 (40140800)
I0309 16:03:19.765367  2833 net.cpp:137] Memory required for data: 220775600
I0309 16:03:19.765388  2833 layer_factory.hpp:77] Creating layer conv1/bn
I0309 16:03:19.765415  2833 net.cpp:84] Creating Layer conv1/bn
I0309 16:03:19.765419  2833 net.cpp:406] conv1/bn <- conv1
I0309 16:03:19.765429  2833 net.cpp:380] conv1/bn -> conv1/bn
I0309 16:03:19.766607  2833 net.cpp:122] Setting up conv1/bn
I0309 16:03:19.766619  2833 net.cpp:129] Top shape: 100 32 112 112 (40140800)
I0309 16:03:19.766639  2833 net.cpp:137] Memory required for data: 381338800
I0309 16:03:19.766651  2833 layer_factory.hpp:77] Creating layer conv1/bn_scale
I0309 16:03:19.766664  2833 net.cpp:84] Creating Layer conv1/bn_scale
I0309 16:03:19.766666  2833 net.cpp:406] conv1/bn_scale <- conv1/bn
I0309 16:03:19.766690  2833 net.cpp:367] conv1/bn_scale -> conv1/bn (in-place)
I0309 16:03:19.766778  2833 layer_factory.hpp:77] Creating layer conv1/bn_scale
I0309 16:03:19.766919  2833 net.cpp:122] Setting up conv1/bn_scale
I0309 16:03:19.766928  2833 net.cpp:129] Top shape: 100 32 112 112 (40140800)
I0309 16:03:19.766932  2833 net.cpp:137] Memory required for data: 541902000
I0309 16:03:19.766940  2833 layer_factory.hpp:77] Creating layer conv1/relu
I0309 16:03:19.766948  2833 net.cpp:84] Creating Layer conv1/relu
I0309 16:03:19.766952  2833 net.cpp:406] conv1/relu <- conv1/bn
I0309 16:03:19.766957  2833 net.cpp:367] conv1/relu -> conv1/bn (in-place)
I0309 16:03:19.767467  2833 net.cpp:122] Setting up conv1/relu
I0309 16:03:19.767498  2833 net.cpp:129] Top shape: 100 32 112 112 (40140800)
I0309 16:03:19.767501  2833 net.cpp:137] Memory required for data: 702465200
I0309 16:03:19.767505  2833 layer_factory.hpp:77] Creating layer conv2
I0309 16:03:19.767518  2833 net.cpp:84] Creating Layer conv2
I0309 16:03:19.767520  2833 net.cpp:406] conv2 <- conv1/bn
I0309 16:03:19.767526  2833 net.cpp:380] conv2 -> conv2
I0309 16:03:19.770357  2833 net.cpp:122] Setting up conv2
I0309 16:03:19.770372  2833 net.cpp:129] Top shape: 100 64 56 56 (20070400)
I0309 16:03:19.770392  2833 net.cpp:137] Memory required for data: 782746800
I0309 16:03:19.770398  2833 layer_factory.hpp:77] Creating layer conv2/bn
I0309 16:03:19.770406  2833 net.cpp:84] Creating Layer conv2/bn
I0309 16:03:19.770411  2833 net.cpp:406] conv2/bn <- conv2
I0309 16:03:19.770418  2833 net.cpp:380] conv2/bn -> conv2/bn
I0309 16:03:19.771540  2833 net.cpp:122] Setting up conv2/bn
I0309 16:03:19.771553  2833 net.cpp:129] Top shape: 100 64 56 56 (20070400)
I0309 16:03:19.771574  2833 net.cpp:137] Memory required for data: 863028400
I0309 16:03:19.771584  2833 layer_factory.hpp:77] Creating layer conv2/bn_scale
I0309 16:03:19.771594  2833 net.cpp:84] Creating Layer conv2/bn_scale
I0309 16:03:19.771597  2833 net.cpp:406] conv2/bn_scale <- conv2/bn
I0309 16:03:19.771620  2833 net.cpp:367] conv2/bn_scale -> conv2/bn (in-place)
I0309 16:03:19.771682  2833 layer_factory.hpp:77] Creating layer conv2/bn_scale
I0309 16:03:19.771806  2833 net.cpp:122] Setting up conv2/bn_scale
I0309 16:03:19.771814  2833 net.cpp:129] Top shape: 100 64 56 56 (20070400)
I0309 16:03:19.771818  2833 net.cpp:137] Memory required for data: 943310000
I0309 16:03:19.771824  2833 layer_factory.hpp:77] Creating layer conv2/relu
I0309 16:03:19.771829  2833 net.cpp:84] Creating Layer conv2/relu
I0309 16:03:19.771834  2833 net.cpp:406] conv2/relu <- conv2/bn
I0309 16:03:19.771839  2833 net.cpp:367] conv2/relu -> conv2/bn (in-place)
I0309 16:03:19.772361  2833 net.cpp:122] Setting up conv2/relu
I0309 16:03:19.772370  2833 net.cpp:129] Top shape: 100 64 56 56 (20070400)
I0309 16:03:19.772390  2833 net.cpp:137] Memory required for data: 1023591600
I0309 16:03:19.772394  2833 layer_factory.hpp:77] Creating layer conv2/bn_conv2/relu_0_split
I0309 16:03:19.772433  2833 net.cpp:84] Creating Layer conv2/bn_conv2/relu_0_split
I0309 16:03:19.772437  2833 net.cpp:406] conv2/bn_conv2/relu_0_split <- conv2/bn
I0309 16:03:19.772444  2833 net.cpp:380] conv2/bn_conv2/relu_0_split -> conv2/bn_conv2/relu_0_split_0
I0309 16:03:19.772470  2833 net.cpp:380] conv2/bn_conv2/relu_0_split -> conv2/bn_conv2/relu_0_split_1
I0309 16:03:19.772536  2833 net.cpp:122] Setting up conv2/bn_conv2/relu_0_split
I0309 16:03:19.772545  2833 net.cpp:129] Top shape: 100 64 56 56 (20070400)
I0309 16:03:19.772549  2833 net.cpp:129] Top shape: 100 64 56 56 (20070400)
I0309 16:03:19.772553  2833 net.cpp:137] Memory required for data: 1184154800
I0309 16:03:19.772557  2833 layer_factory.hpp:77] Creating layer res2.1.conv1
I0309 16:03:19.772565  2833 net.cpp:84] Creating Layer res2.1.conv1
I0309 16:03:19.772568  2833 net.cpp:406] res2.1.conv1 <- conv2/bn_conv2/relu_0_split_0
I0309 16:03:19.772577  2833 net.cpp:380] res2.1.conv1 -> res2.1.conv1
I0309 16:03:19.774647  2833 net.cpp:122] Setting up res2.1.conv1
I0309 16:03:19.774663  2833 net.cpp:129] Top shape: 100 64 28 28 (5017600)
I0309 16:03:19.774668  2833 net.cpp:137] Memory required for data: 1204225200
I0309 16:03:19.774675  2833 layer_factory.hpp:77] Creating layer res2.1.conv1/bn
I0309 16:03:19.774685  2833 net.cpp:84] Creating Layer res2.1.conv1/bn
I0309 16:03:19.774690  2833 net.cpp:406] res2.1.conv1/bn <- res2.1.conv1
I0309 16:03:19.774696  2833 net.cpp:380] res2.1.conv1/bn -> res2.1.conv1/bn
I0309 16:03:19.774971  2833 net.cpp:122] Setting up res2.1.conv1/bn
I0309 16:03:19.774979  2833 net.cpp:129] Top shape: 100 64 28 28 (5017600)
I0309 16:03:19.774982  2833 net.cpp:137] Memory required for data: 1224295600
I0309 16:03:19.774991  2833 layer_factory.hpp:77] Creating layer res2.1.conv1/bn_scale
I0309 16:03:19.774999  2833 net.cpp:84] Creating Layer res2.1.conv1/bn_scale
I0309 16:03:19.775003  2833 net.cpp:406] res2.1.conv1/bn_scale <- res2.1.conv1/bn
I0309 16:03:19.775008  2833 net.cpp:367] res2.1.conv1/bn_scale -> res2.1.conv1/bn (in-place)
I0309 16:03:19.775054  2833 layer_factory.hpp:77] Creating layer res2.1.conv1/bn_scale
I0309 16:03:19.775187  2833 net.cpp:122] Setting up res2.1.conv1/bn_scale
I0309 16:03:19.775197  2833 net.cpp:129] Top shape: 100 64 28 28 (5017600)
I0309 16:03:19.775199  2833 net.cpp:137] Memory required for data: 1244366000
I0309 16:03:19.775210  2833 layer_factory.hpp:77] Creating layer res2.1.conv1/relu
I0309 16:03:19.775219  2833 net.cpp:84] Creating Layer res2.1.conv1/relu
I0309 16:03:19.775223  2833 net.cpp:406] res2.1.conv1/relu <- res2.1.conv1/bn
I0309 16:03:19.775228  2833 net.cpp:367] res2.1.conv1/relu -> res2.1.conv1/bn (in-place)
I0309 16:03:19.776065  2833 net.cpp:122] Setting up res2.1.conv1/relu
I0309 16:03:19.776079  2833 net.cpp:129] Top shape: 100 64 28 28 (5017600)
I0309 16:03:19.776099  2833 net.cpp:137] Memory required for data: 1264436400
I0309 16:03:19.776103  2833 layer_factory.hpp:77] Creating layer res2.1.conv2
I0309 16:03:19.776113  2833 net.cpp:84] Creating Layer res2.1.conv2
I0309 16:03:19.776118  2833 net.cpp:406] res2.1.conv2 <- res2.1.conv1/bn
I0309 16:03:19.776124  2833 net.cpp:380] res2.1.conv2 -> res2.1.conv2
I0309 16:03:19.778501  2833 net.cpp:122] Setting up res2.1.conv2
I0309 16:03:19.778532  2833 net.cpp:129] Top shape: 100 64 28 28 (5017600)
I0309 16:03:19.778554  2833 net.cpp:137] Memory required for data: 1284506800
I0309 16:03:19.778560  2833 layer_factory.hpp:77] Creating layer res2.1.conv2/bn
I0309 16:03:19.778573  2833 net.cpp:84] Creating Layer res2.1.conv2/bn
I0309 16:03:19.778578  2833 net.cpp:406] res2.1.conv2/bn <- res2.1.conv2
I0309 16:03:19.778585  2833 net.cpp:380] res2.1.conv2/bn -> res2.1.conv2/bn
I0309 16:03:19.778867  2833 net.cpp:122] Setting up res2.1.conv2/bn
I0309 16:03:19.778893  2833 net.cpp:129] Top shape: 100 64 28 28 (5017600)
I0309 16:03:19.778897  2833 net.cpp:137] Memory required for data: 1304577200
I0309 16:03:19.778905  2833 layer_factory.hpp:77] Creating layer res2.1.conv2/bn_scale
I0309 16:03:19.778926  2833 net.cpp:84] Creating Layer res2.1.conv2/bn_scale
I0309 16:03:19.778931  2833 net.cpp:406] res2.1.conv2/bn_scale <- res2.1.conv2/bn
I0309 16:03:19.778936  2833 net.cpp:367] res2.1.conv2/bn_scale -> res2.1.conv2/bn (in-place)
I0309 16:03:19.779019  2833 layer_factory.hpp:77] Creating layer res2.1.conv2/bn_scale
I0309 16:03:19.779156  2833 net.cpp:122] Setting up res2.1.conv2/bn_scale
I0309 16:03:19.779165  2833 net.cpp:129] Top shape: 100 64 28 28 (5017600)
I0309 16:03:19.779186  2833 net.cpp:137] Memory required for data: 1324647600
I0309 16:03:19.779193  2833 layer_factory.hpp:77] Creating layer res2.1.skipConv
I0309 16:03:19.779201  2833 net.cpp:84] Creating Layer res2.1.skipConv
I0309 16:03:19.779206  2833 net.cpp:406] res2.1.skipConv <- conv2/bn_conv2/relu_0_split_1
I0309 16:03:19.779213  2833 net.cpp:380] res2.1.skipConv -> res2.1.skipConv
I0309 16:03:19.781337  2833 net.cpp:122] Setting up res2.1.skipConv
I0309 16:03:19.781366  2833 net.cpp:129] Top shape: 100 64 28 28 (5017600)
I0309 16:03:19.781386  2833 net.cpp:137] Memory required for data: 1344718000
I0309 16:03:19.781392  2833 layer_factory.hpp:77] Creating layer res2.1skipConv/bn
I0309 16:03:19.781400  2833 net.cpp:84] Creating Layer res2.1skipConv/bn
I0309 16:03:19.781404  2833 net.cpp:406] res2.1skipConv/bn <- res2.1.skipConv
I0309 16:03:19.781412  2833 net.cpp:380] res2.1skipConv/bn -> res2.1.skipConv/bn
I0309 16:03:19.781682  2833 net.cpp:122] Setting up res2.1skipConv/bn
I0309 16:03:19.781692  2833 net.cpp:129] Top shape: 100 64 28 28 (5017600)
I0309 16:03:19.781695  2833 net.cpp:137] Memory required for data: 1364788400
I0309 16:03:19.781703  2833 layer_factory.hpp:77] Creating layer res2.1skipConv/bn_scale
I0309 16:03:19.781709  2833 net.cpp:84] Creating Layer res2.1skipConv/bn_scale
I0309 16:03:19.781714  2833 net.cpp:406] res2.1skipConv/bn_scale <- res2.1.skipConv/bn
I0309 16:03:19.781721  2833 net.cpp:367] res2.1skipConv/bn_scale -> res2.1.skipConv/bn (in-place)
I0309 16:03:19.781767  2833 layer_factory.hpp:77] Creating layer res2.1skipConv/bn_scale
I0309 16:03:19.781916  2833 net.cpp:122] Setting up res2.1skipConv/bn_scale
I0309 16:03:19.781944  2833 net.cpp:129] Top shape: 100 64 28 28 (5017600)
I0309 16:03:19.781947  2833 net.cpp:137] Memory required for data: 1384858800
I0309 16:03:19.781955  2833 layer_factory.hpp:77] Creating layer res2.1.sum
I0309 16:03:19.781962  2833 net.cpp:84] Creating Layer res2.1.sum
I0309 16:03:19.781967  2833 net.cpp:406] res2.1.sum <- res2.1.conv2/bn
I0309 16:03:19.781972  2833 net.cpp:406] res2.1.sum <- res2.1.skipConv/bn
I0309 16:03:19.781980  2833 net.cpp:380] res2.1.sum -> res2.1.sum
I0309 16:03:19.782016  2833 net.cpp:122] Setting up res2.1.sum
I0309 16:03:19.782027  2833 net.cpp:129] Top shape: 100 64 28 28 (5017600)
I0309 16:03:19.782030  2833 net.cpp:137] Memory required for data: 1404929200
I0309 16:03:19.782033  2833 layer_factory.hpp:77] Creating layer res2.1.relu
I0309 16:03:19.782039  2833 net.cpp:84] Creating Layer res2.1.relu
I0309 16:03:19.782044  2833 net.cpp:406] res2.1.relu <- res2.1.sum
I0309 16:03:19.782052  2833 net.cpp:367] res2.1.relu -> res2.1.sum (in-place)
I0309 16:03:19.782615  2833 net.cpp:122] Setting up res2.1.relu
I0309 16:03:19.782629  2833 net.cpp:129] Top shape: 100 64 28 28 (5017600)
I0309 16:03:19.782632  2833 net.cpp:137] Memory required for data: 1424999600
I0309 16:03:19.782636  2833 layer_factory.hpp:77] Creating layer res2.1.sum_res2.1.relu_0_split
I0309 16:03:19.782644  2833 net.cpp:84] Creating Layer res2.1.sum_res2.1.relu_0_split
I0309 16:03:19.782647  2833 net.cpp:406] res2.1.sum_res2.1.relu_0_split <- res2.1.sum
I0309 16:03:19.782670  2833 net.cpp:380] res2.1.sum_res2.1.relu_0_split -> res2.1.sum_res2.1.relu_0_split_0
I0309 16:03:19.782677  2833 net.cpp:380] res2.1.sum_res2.1.relu_0_split -> res2.1.sum_res2.1.relu_0_split_1
I0309 16:03:19.782725  2833 net.cpp:122] Setting up res2.1.sum_res2.1.relu_0_split
I0309 16:03:19.782735  2833 net.cpp:129] Top shape: 100 64 28 28 (5017600)
I0309 16:03:19.782740  2833 net.cpp:129] Top shape: 100 64 28 28 (5017600)
I0309 16:03:19.782755  2833 net.cpp:137] Memory required for data: 1465140400
I0309 16:03:19.782759  2833 layer_factory.hpp:77] Creating layer res2.2.conv1
I0309 16:03:19.782769  2833 net.cpp:84] Creating Layer res2.2.conv1
I0309 16:03:19.782773  2833 net.cpp:406] res2.2.conv1 <- res2.1.sum_res2.1.relu_0_split_0
I0309 16:03:19.782780  2833 net.cpp:380] res2.2.conv1 -> res2.2.conv1
I0309 16:03:19.784803  2833 net.cpp:122] Setting up res2.2.conv1
I0309 16:03:19.784818  2833 net.cpp:129] Top shape: 100 64 28 28 (5017600)
I0309 16:03:19.784823  2833 net.cpp:137] Memory required for data: 1485210800
I0309 16:03:19.784845  2833 layer_factory.hpp:77] Creating layer res2.2.conv1/bn
I0309 16:03:19.784855  2833 net.cpp:84] Creating Layer res2.2.conv1/bn
I0309 16:03:19.784859  2833 net.cpp:406] res2.2.conv1/bn <- res2.2.conv1
I0309 16:03:19.784884  2833 net.cpp:380] res2.2.conv1/bn -> res2.2.conv1/bn
I0309 16:03:19.785146  2833 net.cpp:122] Setting up res2.2.conv1/bn
I0309 16:03:19.785156  2833 net.cpp:129] Top shape: 100 64 28 28 (5017600)
I0309 16:03:19.785159  2833 net.cpp:137] Memory required for data: 1505281200
I0309 16:03:19.785174  2833 layer_factory.hpp:77] Creating layer res2.2.conv1/bn_scale
I0309 16:03:19.785182  2833 net.cpp:84] Creating Layer res2.2.conv1/bn_scale
I0309 16:03:19.785187  2833 net.cpp:406] res2.2.conv1/bn_scale <- res2.2.conv1/bn
I0309 16:03:19.785192  2833 net.cpp:367] res2.2.conv1/bn_scale -> res2.2.conv1/bn (in-place)
I0309 16:03:19.785243  2833 layer_factory.hpp:77] Creating layer res2.2.conv1/bn_scale
I0309 16:03:19.785380  2833 net.cpp:122] Setting up res2.2.conv1/bn_scale
I0309 16:03:19.785389  2833 net.cpp:129] Top shape: 100 64 28 28 (5017600)
I0309 16:03:19.785392  2833 net.cpp:137] Memory required for data: 1525351600
I0309 16:03:19.785400  2833 layer_factory.hpp:77] Creating layer res2.2.conv1/relu
I0309 16:03:19.785406  2833 net.cpp:84] Creating Layer res2.2.conv1/relu
I0309 16:03:19.785409  2833 net.cpp:406] res2.2.conv1/relu <- res2.2.conv1/bn
I0309 16:03:19.785415  2833 net.cpp:367] res2.2.conv1/relu -> res2.2.conv1/bn (in-place)
I0309 16:03:19.785929  2833 net.cpp:122] Setting up res2.2.conv1/relu
I0309 16:03:19.785941  2833 net.cpp:129] Top shape: 100 64 28 28 (5017600)
I0309 16:03:19.785944  2833 net.cpp:137] Memory required for data: 1545422000
I0309 16:03:19.785948  2833 layer_factory.hpp:77] Creating layer res2.2.conv2
I0309 16:03:19.785957  2833 net.cpp:84] Creating Layer res2.2.conv2
I0309 16:03:19.785979  2833 net.cpp:406] res2.2.conv2 <- res2.2.conv1/bn
I0309 16:03:19.785985  2833 net.cpp:380] res2.2.conv2 -> res2.2.conv2
I0309 16:03:19.788357  2833 net.cpp:122] Setting up res2.2.conv2
I0309 16:03:19.788374  2833 net.cpp:129] Top shape: 100 64 28 28 (5017600)
I0309 16:03:19.788378  2833 net.cpp:137] Memory required for data: 1565492400
I0309 16:03:19.788384  2833 layer_factory.hpp:77] Creating layer res2.2.conv2/bn
I0309 16:03:19.788409  2833 net.cpp:84] Creating Layer res2.2.conv2/bn
I0309 16:03:19.788415  2833 net.cpp:406] res2.2.conv2/bn <- res2.2.conv2
I0309 16:03:19.788420  2833 net.cpp:380] res2.2.conv2/bn -> res2.2.conv2/bn
I0309 16:03:19.788661  2833 net.cpp:122] Setting up res2.2.conv2/bn
I0309 16:03:19.788671  2833 net.cpp:129] Top shape: 100 64 28 28 (5017600)
I0309 16:03:19.788674  2833 net.cpp:137] Memory required for data: 1585562800
I0309 16:03:19.788682  2833 layer_factory.hpp:77] Creating layer res2.2.conv2/bn_scale
I0309 16:03:19.788688  2833 net.cpp:84] Creating Layer res2.2.conv2/bn_scale
I0309 16:03:19.788692  2833 net.cpp:406] res2.2.conv2/bn_scale <- res2.2.conv2/bn
I0309 16:03:19.788699  2833 net.cpp:367] res2.2.conv2/bn_scale -> res2.2.conv2/bn (in-place)
I0309 16:03:19.788760  2833 layer_factory.hpp:77] Creating layer res2.2.conv2/bn_scale
I0309 16:03:19.788902  2833 net.cpp:122] Setting up res2.2.conv2/bn_scale
I0309 16:03:19.788911  2833 net.cpp:129] Top shape: 100 64 28 28 (5017600)
I0309 16:03:19.788915  2833 net.cpp:137] Memory required for data: 1605633200
I0309 16:03:19.788921  2833 layer_factory.hpp:77] Creating layer res2.2.sum
I0309 16:03:19.788944  2833 net.cpp:84] Creating Layer res2.2.sum
I0309 16:03:19.788950  2833 net.cpp:406] res2.2.sum <- res2.2.conv2/bn
I0309 16:03:19.788956  2833 net.cpp:406] res2.2.sum <- res2.1.sum_res2.1.relu_0_split_1
I0309 16:03:19.788962  2833 net.cpp:380] res2.2.sum -> res2.2.sum
I0309 16:03:19.788993  2833 net.cpp:122] Setting up res2.2.sum
I0309 16:03:19.789001  2833 net.cpp:129] Top shape: 100 64 28 28 (5017600)
I0309 16:03:19.789006  2833 net.cpp:137] Memory required for data: 1625703600
I0309 16:03:19.789010  2833 layer_factory.hpp:77] Creating layer res2.2.relu
I0309 16:03:19.789019  2833 net.cpp:84] Creating Layer res2.2.relu
I0309 16:03:19.789023  2833 net.cpp:406] res2.2.relu <- res2.2.sum
I0309 16:03:19.789029  2833 net.cpp:367] res2.2.relu -> res2.2.sum (in-place)
I0309 16:03:19.789906  2833 net.cpp:122] Setting up res2.2.relu
I0309 16:03:19.789924  2833 net.cpp:129] Top shape: 100 64 28 28 (5017600)
I0309 16:03:19.789928  2833 net.cpp:137] Memory required for data: 1645774000
I0309 16:03:19.789933  2833 layer_factory.hpp:77] Creating layer res2.2.sum_res2.2.relu_0_split
I0309 16:03:19.789955  2833 net.cpp:84] Creating Layer res2.2.sum_res2.2.relu_0_split
I0309 16:03:19.789960  2833 net.cpp:406] res2.2.sum_res2.2.relu_0_split <- res2.2.sum
I0309 16:03:19.789968  2833 net.cpp:380] res2.2.sum_res2.2.relu_0_split -> res2.2.sum_res2.2.relu_0_split_0
I0309 16:03:19.789978  2833 net.cpp:380] res2.2.sum_res2.2.relu_0_split -> res2.2.sum_res2.2.relu_0_split_1
I0309 16:03:19.790026  2833 net.cpp:122] Setting up res2.2.sum_res2.2.relu_0_split
I0309 16:03:19.790036  2833 net.cpp:129] Top shape: 100 64 28 28 (5017600)
I0309 16:03:19.790041  2833 net.cpp:129] Top shape: 100 64 28 28 (5017600)
I0309 16:03:19.790046  2833 net.cpp:137] Memory required for data: 1685914800
I0309 16:03:19.790050  2833 layer_factory.hpp:77] Creating layer res2.3.conv1
I0309 16:03:19.790057  2833 net.cpp:84] Creating Layer res2.3.conv1
I0309 16:03:19.790061  2833 net.cpp:406] res2.3.conv1 <- res2.2.sum_res2.2.relu_0_split_0
I0309 16:03:19.790069  2833 net.cpp:380] res2.3.conv1 -> res2.3.conv1
I0309 16:03:19.792191  2833 net.cpp:122] Setting up res2.3.conv1
I0309 16:03:19.792208  2833 net.cpp:129] Top shape: 100 64 28 28 (5017600)
I0309 16:03:19.792212  2833 net.cpp:137] Memory required for data: 1705985200
I0309 16:03:19.792219  2833 layer_factory.hpp:77] Creating layer res2.3.conv1/bn
I0309 16:03:19.792227  2833 net.cpp:84] Creating Layer res2.3.conv1/bn
I0309 16:03:19.792232  2833 net.cpp:406] res2.3.conv1/bn <- res2.3.conv1
I0309 16:03:19.792239  2833 net.cpp:380] res2.3.conv1/bn -> res2.3.conv1/bn
I0309 16:03:19.792490  2833 net.cpp:122] Setting up res2.3.conv1/bn
I0309 16:03:19.792500  2833 net.cpp:129] Top shape: 100 64 28 28 (5017600)
I0309 16:03:19.792503  2833 net.cpp:137] Memory required for data: 1726055600
I0309 16:03:19.792511  2833 layer_factory.hpp:77] Creating layer res2.3.conv1/bn_scale
I0309 16:03:19.792520  2833 net.cpp:84] Creating Layer res2.3.conv1/bn_scale
I0309 16:03:19.792524  2833 net.cpp:406] res2.3.conv1/bn_scale <- res2.3.conv1/bn
I0309 16:03:19.792529  2833 net.cpp:367] res2.3.conv1/bn_scale -> res2.3.conv1/bn (in-place)
I0309 16:03:19.792582  2833 layer_factory.hpp:77] Creating layer res2.3.conv1/bn_scale
I0309 16:03:19.792722  2833 net.cpp:122] Setting up res2.3.conv1/bn_scale
I0309 16:03:19.792732  2833 net.cpp:129] Top shape: 100 64 28 28 (5017600)
I0309 16:03:19.792734  2833 net.cpp:137] Memory required for data: 1746126000
I0309 16:03:19.792742  2833 layer_factory.hpp:77] Creating layer res2.3.conv1/relu
I0309 16:03:19.792749  2833 net.cpp:84] Creating Layer res2.3.conv1/relu
I0309 16:03:19.792753  2833 net.cpp:406] res2.3.conv1/relu <- res2.3.conv1/bn
I0309 16:03:19.792759  2833 net.cpp:367] res2.3.conv1/relu -> res2.3.conv1/bn (in-place)
I0309 16:03:19.793251  2833 net.cpp:122] Setting up res2.3.conv1/relu
I0309 16:03:19.793264  2833 net.cpp:129] Top shape: 100 64 28 28 (5017600)
I0309 16:03:19.793267  2833 net.cpp:137] Memory required for data: 1766196400
I0309 16:03:19.793272  2833 layer_factory.hpp:77] Creating layer res2.3.conv2
I0309 16:03:19.793295  2833 net.cpp:84] Creating Layer res2.3.conv2
I0309 16:03:19.793303  2833 net.cpp:406] res2.3.conv2 <- res2.3.conv1/bn
I0309 16:03:19.793309  2833 net.cpp:380] res2.3.conv2 -> res2.3.conv2
I0309 16:03:19.795845  2833 net.cpp:122] Setting up res2.3.conv2
I0309 16:03:19.795862  2833 net.cpp:129] Top shape: 100 64 28 28 (5017600)
I0309 16:03:19.795867  2833 net.cpp:137] Memory required for data: 1786266800
I0309 16:03:19.795873  2833 layer_factory.hpp:77] Creating layer res2.3.conv2/bn
I0309 16:03:19.795882  2833 net.cpp:84] Creating Layer res2.3.conv2/bn
I0309 16:03:19.795887  2833 net.cpp:406] res2.3.conv2/bn <- res2.3.conv2
I0309 16:03:19.795894  2833 net.cpp:380] res2.3.conv2/bn -> res2.3.conv2/bn
I0309 16:03:19.796147  2833 net.cpp:122] Setting up res2.3.conv2/bn
I0309 16:03:19.796175  2833 net.cpp:129] Top shape: 100 64 28 28 (5017600)
I0309 16:03:19.796180  2833 net.cpp:137] Memory required for data: 1806337200
I0309 16:03:19.796188  2833 layer_factory.hpp:77] Creating layer res2.3.conv2/bn_scale
I0309 16:03:19.796195  2833 net.cpp:84] Creating Layer res2.3.conv2/bn_scale
I0309 16:03:19.796200  2833 net.cpp:406] res2.3.conv2/bn_scale <- res2.3.conv2/bn
I0309 16:03:19.796207  2833 net.cpp:367] res2.3.conv2/bn_scale -> res2.3.conv2/bn (in-place)
I0309 16:03:19.796257  2833 layer_factory.hpp:77] Creating layer res2.3.conv2/bn_scale
I0309 16:03:19.796401  2833 net.cpp:122] Setting up res2.3.conv2/bn_scale
I0309 16:03:19.796408  2833 net.cpp:129] Top shape: 100 64 28 28 (5017600)
I0309 16:03:19.796411  2833 net.cpp:137] Memory required for data: 1826407600
I0309 16:03:19.796419  2833 layer_factory.hpp:77] Creating layer res2.3.sum
I0309 16:03:19.796427  2833 net.cpp:84] Creating Layer res2.3.sum
I0309 16:03:19.796432  2833 net.cpp:406] res2.3.sum <- res2.3.conv2/bn
I0309 16:03:19.796437  2833 net.cpp:406] res2.3.sum <- res2.2.sum_res2.2.relu_0_split_1
I0309 16:03:19.796443  2833 net.cpp:380] res2.3.sum -> res2.3.sum
I0309 16:03:19.796473  2833 net.cpp:122] Setting up res2.3.sum
I0309 16:03:19.796483  2833 net.cpp:129] Top shape: 100 64 28 28 (5017600)
I0309 16:03:19.796486  2833 net.cpp:137] Memory required for data: 1846478000
I0309 16:03:19.796491  2833 layer_factory.hpp:77] Creating layer res2.3.relu
I0309 16:03:19.796497  2833 net.cpp:84] Creating Layer res2.3.relu
I0309 16:03:19.796501  2833 net.cpp:406] res2.3.relu <- res2.3.sum
I0309 16:03:19.796506  2833 net.cpp:367] res2.3.relu -> res2.3.sum (in-place)
I0309 16:03:19.797047  2833 net.cpp:122] Setting up res2.3.relu
I0309 16:03:19.797060  2833 net.cpp:129] Top shape: 100 64 28 28 (5017600)
I0309 16:03:19.797062  2833 net.cpp:137] Memory required for data: 1866548400
I0309 16:03:19.797066  2833 layer_factory.hpp:77] Creating layer res2.3.sum_res2.3.relu_0_split
I0309 16:03:19.797073  2833 net.cpp:84] Creating Layer res2.3.sum_res2.3.relu_0_split
I0309 16:03:19.797077  2833 net.cpp:406] res2.3.sum_res2.3.relu_0_split <- res2.3.sum
I0309 16:03:19.797085  2833 net.cpp:380] res2.3.sum_res2.3.relu_0_split -> res2.3.sum_res2.3.relu_0_split_0
I0309 16:03:19.797091  2833 net.cpp:380] res2.3.sum_res2.3.relu_0_split -> res2.3.sum_res2.3.relu_0_split_1
I0309 16:03:19.797145  2833 net.cpp:122] Setting up res2.3.sum_res2.3.relu_0_split
I0309 16:03:19.797153  2833 net.cpp:129] Top shape: 100 64 28 28 (5017600)
I0309 16:03:19.797158  2833 net.cpp:129] Top shape: 100 64 28 28 (5017600)
I0309 16:03:19.797161  2833 net.cpp:137] Memory required for data: 1906689200
I0309 16:03:19.797165  2833 layer_factory.hpp:77] Creating layer res3.1.conv1
I0309 16:03:19.797174  2833 net.cpp:84] Creating Layer res3.1.conv1
I0309 16:03:19.797178  2833 net.cpp:406] res3.1.conv1 <- res2.3.sum_res2.3.relu_0_split_0
I0309 16:03:19.797184  2833 net.cpp:380] res3.1.conv1 -> res3.1.conv1
I0309 16:03:19.800230  2833 net.cpp:122] Setting up res3.1.conv1
I0309 16:03:19.800246  2833 net.cpp:129] Top shape: 100 128 14 14 (2508800)
I0309 16:03:19.800251  2833 net.cpp:137] Memory required for data: 1916724400
I0309 16:03:19.800257  2833 layer_factory.hpp:77] Creating layer res3.1.conv1/bn
I0309 16:03:19.800297  2833 net.cpp:84] Creating Layer res3.1.conv1/bn
I0309 16:03:19.800304  2833 net.cpp:406] res3.1.conv1/bn <- res3.1.conv1
I0309 16:03:19.800313  2833 net.cpp:380] res3.1.conv1/bn -> res3.1.conv1/bn
I0309 16:03:19.800565  2833 net.cpp:122] Setting up res3.1.conv1/bn
I0309 16:03:19.800575  2833 net.cpp:129] Top shape: 100 128 14 14 (2508800)
I0309 16:03:19.800580  2833 net.cpp:137] Memory required for data: 1926759600
I0309 16:03:19.800587  2833 layer_factory.hpp:77] Creating layer res3.1.conv1/bn_scale
I0309 16:03:19.800595  2833 net.cpp:84] Creating Layer res3.1.conv1/bn_scale
I0309 16:03:19.800601  2833 net.cpp:406] res3.1.conv1/bn_scale <- res3.1.conv1/bn
I0309 16:03:19.800606  2833 net.cpp:367] res3.1.conv1/bn_scale -> res3.1.conv1/bn (in-place)
I0309 16:03:19.800652  2833 layer_factory.hpp:77] Creating layer res3.1.conv1/bn_scale
I0309 16:03:19.800774  2833 net.cpp:122] Setting up res3.1.conv1/bn_scale
I0309 16:03:19.800782  2833 net.cpp:129] Top shape: 100 128 14 14 (2508800)
I0309 16:03:19.800787  2833 net.cpp:137] Memory required for data: 1936794800
I0309 16:03:19.800793  2833 layer_factory.hpp:77] Creating layer res3.1.conv1/relu
I0309 16:03:19.800798  2833 net.cpp:84] Creating Layer res3.1.conv1/relu
I0309 16:03:19.800802  2833 net.cpp:406] res3.1.conv1/relu <- res3.1.conv1/bn
I0309 16:03:19.800810  2833 net.cpp:367] res3.1.conv1/relu -> res3.1.conv1/bn (in-place)
I0309 16:03:19.801370  2833 net.cpp:122] Setting up res3.1.conv1/relu
I0309 16:03:19.801393  2833 net.cpp:129] Top shape: 100 128 14 14 (2508800)
I0309 16:03:19.801398  2833 net.cpp:137] Memory required for data: 1946830000
I0309 16:03:19.801401  2833 layer_factory.hpp:77] Creating layer res3.1.conv2
I0309 16:03:19.801425  2833 net.cpp:84] Creating Layer res3.1.conv2
I0309 16:03:19.801430  2833 net.cpp:406] res3.1.conv2 <- res3.1.conv1/bn
I0309 16:03:19.801436  2833 net.cpp:380] res3.1.conv2 -> res3.1.conv2
I0309 16:03:19.803867  2833 net.cpp:122] Setting up res3.1.conv2
I0309 16:03:19.803882  2833 net.cpp:129] Top shape: 100 128 14 14 (2508800)
I0309 16:03:19.803903  2833 net.cpp:137] Memory required for data: 1956865200
I0309 16:03:19.803910  2833 layer_factory.hpp:77] Creating layer res3.1.conv2/bn
I0309 16:03:19.803918  2833 net.cpp:84] Creating Layer res3.1.conv2/bn
I0309 16:03:19.803922  2833 net.cpp:406] res3.1.conv2/bn <- res3.1.conv2
I0309 16:03:19.803928  2833 net.cpp:380] res3.1.conv2/bn -> res3.1.conv2/bn
I0309 16:03:19.804198  2833 net.cpp:122] Setting up res3.1.conv2/bn
I0309 16:03:19.804208  2833 net.cpp:129] Top shape: 100 128 14 14 (2508800)
I0309 16:03:19.804210  2833 net.cpp:137] Memory required for data: 1966900400
I0309 16:03:19.804219  2833 layer_factory.hpp:77] Creating layer res3.1.conv2/bn_scale
I0309 16:03:19.804225  2833 net.cpp:84] Creating Layer res3.1.conv2/bn_scale
I0309 16:03:19.804229  2833 net.cpp:406] res3.1.conv2/bn_scale <- res3.1.conv2/bn
I0309 16:03:19.804234  2833 net.cpp:367] res3.1.conv2/bn_scale -> res3.1.conv2/bn (in-place)
I0309 16:03:19.804280  2833 layer_factory.hpp:77] Creating layer res3.1.conv2/bn_scale
I0309 16:03:19.804402  2833 net.cpp:122] Setting up res3.1.conv2/bn_scale
I0309 16:03:19.804411  2833 net.cpp:129] Top shape: 100 128 14 14 (2508800)
I0309 16:03:19.804414  2833 net.cpp:137] Memory required for data: 1976935600
I0309 16:03:19.804431  2833 layer_factory.hpp:77] Creating layer res3.1.skipConv
I0309 16:03:19.804443  2833 net.cpp:84] Creating Layer res3.1.skipConv
I0309 16:03:19.804447  2833 net.cpp:406] res3.1.skipConv <- res2.3.sum_res2.3.relu_0_split_1
I0309 16:03:19.804453  2833 net.cpp:380] res3.1.skipConv -> res3.1.skipConv
I0309 16:03:19.806417  2833 net.cpp:122] Setting up res3.1.skipConv
I0309 16:03:19.806432  2833 net.cpp:129] Top shape: 100 128 14 14 (2508800)
I0309 16:03:19.806453  2833 net.cpp:137] Memory required for data: 1986970800
I0309 16:03:19.806458  2833 layer_factory.hpp:77] Creating layer res3.1skipConv/bn
I0309 16:03:19.806466  2833 net.cpp:84] Creating Layer res3.1skipConv/bn
I0309 16:03:19.806471  2833 net.cpp:406] res3.1skipConv/bn <- res3.1.skipConv
I0309 16:03:19.806504  2833 net.cpp:380] res3.1skipConv/bn -> res3.1.skipConv/bn
I0309 16:03:19.806752  2833 net.cpp:122] Setting up res3.1skipConv/bn
I0309 16:03:19.806761  2833 net.cpp:129] Top shape: 100 128 14 14 (2508800)
I0309 16:03:19.806766  2833 net.cpp:137] Memory required for data: 1997006000
I0309 16:03:19.806772  2833 layer_factory.hpp:77] Creating layer res3.1skipConv/bn_scale
I0309 16:03:19.806779  2833 net.cpp:84] Creating Layer res3.1skipConv/bn_scale
I0309 16:03:19.806783  2833 net.cpp:406] res3.1skipConv/bn_scale <- res3.1.skipConv/bn
I0309 16:03:19.806790  2833 net.cpp:367] res3.1skipConv/bn_scale -> res3.1.skipConv/bn (in-place)
I0309 16:03:19.806838  2833 layer_factory.hpp:77] Creating layer res3.1skipConv/bn_scale
I0309 16:03:19.806967  2833 net.cpp:122] Setting up res3.1skipConv/bn_scale
I0309 16:03:19.806974  2833 net.cpp:129] Top shape: 100 128 14 14 (2508800)
I0309 16:03:19.806978  2833 net.cpp:137] Memory required for data: 2007041200
I0309 16:03:19.806984  2833 layer_factory.hpp:77] Creating layer res3.1.sum
I0309 16:03:19.806990  2833 net.cpp:84] Creating Layer res3.1.sum
I0309 16:03:19.806994  2833 net.cpp:406] res3.1.sum <- res3.1.conv2/bn
I0309 16:03:19.806999  2833 net.cpp:406] res3.1.sum <- res3.1.skipConv/bn
I0309 16:03:19.807006  2833 net.cpp:380] res3.1.sum -> res3.1.sum
I0309 16:03:19.807032  2833 net.cpp:122] Setting up res3.1.sum
I0309 16:03:19.807042  2833 net.cpp:129] Top shape: 100 128 14 14 (2508800)
I0309 16:03:19.807046  2833 net.cpp:137] Memory required for data: 2017076400
I0309 16:03:19.807049  2833 layer_factory.hpp:77] Creating layer res3.1.relu
I0309 16:03:19.807055  2833 net.cpp:84] Creating Layer res3.1.relu
I0309 16:03:19.807058  2833 net.cpp:406] res3.1.relu <- res3.1.sum
I0309 16:03:19.807065  2833 net.cpp:367] res3.1.relu -> res3.1.sum (in-place)
I0309 16:03:19.807898  2833 net.cpp:122] Setting up res3.1.relu
I0309 16:03:19.807924  2833 net.cpp:129] Top shape: 100 128 14 14 (2508800)
I0309 16:03:19.807927  2833 net.cpp:137] Memory required for data: 2027111600
I0309 16:03:19.807932  2833 layer_factory.hpp:77] Creating layer res3.1.sum_res3.1.relu_0_split
I0309 16:03:19.807938  2833 net.cpp:84] Creating Layer res3.1.sum_res3.1.relu_0_split
I0309 16:03:19.807958  2833 net.cpp:406] res3.1.sum_res3.1.relu_0_split <- res3.1.sum
I0309 16:03:19.807965  2833 net.cpp:380] res3.1.sum_res3.1.relu_0_split -> res3.1.sum_res3.1.relu_0_split_0
I0309 16:03:19.807977  2833 net.cpp:380] res3.1.sum_res3.1.relu_0_split -> res3.1.sum_res3.1.relu_0_split_1
I0309 16:03:19.808044  2833 net.cpp:122] Setting up res3.1.sum_res3.1.relu_0_split
I0309 16:03:19.808059  2833 net.cpp:129] Top shape: 100 128 14 14 (2508800)
I0309 16:03:19.808063  2833 net.cpp:129] Top shape: 100 128 14 14 (2508800)
I0309 16:03:19.808068  2833 net.cpp:137] Memory required for data: 2047182000
I0309 16:03:19.808070  2833 layer_factory.hpp:77] Creating layer res3.2.conv1
I0309 16:03:19.808079  2833 net.cpp:84] Creating Layer res3.2.conv1
I0309 16:03:19.808082  2833 net.cpp:406] res3.2.conv1 <- res3.1.sum_res3.1.relu_0_split_0
I0309 16:03:19.808089  2833 net.cpp:380] res3.2.conv1 -> res3.2.conv1
I0309 16:03:19.810509  2833 net.cpp:122] Setting up res3.2.conv1
I0309 16:03:19.810524  2833 net.cpp:129] Top shape: 100 128 14 14 (2508800)
I0309 16:03:19.810545  2833 net.cpp:137] Memory required for data: 2057217200
I0309 16:03:19.810552  2833 layer_factory.hpp:77] Creating layer res3.2.conv1/bn
I0309 16:03:19.810560  2833 net.cpp:84] Creating Layer res3.2.conv1/bn
I0309 16:03:19.810564  2833 net.cpp:406] res3.2.conv1/bn <- res3.2.conv1
I0309 16:03:19.810570  2833 net.cpp:380] res3.2.conv1/bn -> res3.2.conv1/bn
I0309 16:03:19.810833  2833 net.cpp:122] Setting up res3.2.conv1/bn
I0309 16:03:19.810843  2833 net.cpp:129] Top shape: 100 128 14 14 (2508800)
I0309 16:03:19.810847  2833 net.cpp:137] Memory required for data: 2067252400
I0309 16:03:19.810854  2833 layer_factory.hpp:77] Creating layer res3.2.conv1/bn_scale
I0309 16:03:19.810861  2833 net.cpp:84] Creating Layer res3.2.conv1/bn_scale
I0309 16:03:19.810878  2833 net.cpp:406] res3.2.conv1/bn_scale <- res3.2.conv1/bn
I0309 16:03:19.810884  2833 net.cpp:367] res3.2.conv1/bn_scale -> res3.2.conv1/bn (in-place)
I0309 16:03:19.810933  2833 layer_factory.hpp:77] Creating layer res3.2.conv1/bn_scale
I0309 16:03:19.811061  2833 net.cpp:122] Setting up res3.2.conv1/bn_scale
I0309 16:03:19.811070  2833 net.cpp:129] Top shape: 100 128 14 14 (2508800)
I0309 16:03:19.811074  2833 net.cpp:137] Memory required for data: 2077287600
I0309 16:03:19.811079  2833 layer_factory.hpp:77] Creating layer res3.2.conv1/relu
I0309 16:03:19.811086  2833 net.cpp:84] Creating Layer res3.2.conv1/relu
I0309 16:03:19.811089  2833 net.cpp:406] res3.2.conv1/relu <- res3.2.conv1/bn
I0309 16:03:19.811096  2833 net.cpp:367] res3.2.conv1/relu -> res3.2.conv1/bn (in-place)
I0309 16:03:19.811602  2833 net.cpp:122] Setting up res3.2.conv1/relu
I0309 16:03:19.811614  2833 net.cpp:129] Top shape: 100 128 14 14 (2508800)
I0309 16:03:19.811635  2833 net.cpp:137] Memory required for data: 2087322800
I0309 16:03:19.811638  2833 layer_factory.hpp:77] Creating layer res3.2.conv2
I0309 16:03:19.811646  2833 net.cpp:84] Creating Layer res3.2.conv2
I0309 16:03:19.811651  2833 net.cpp:406] res3.2.conv2 <- res3.2.conv1/bn
I0309 16:03:19.811656  2833 net.cpp:380] res3.2.conv2 -> res3.2.conv2
I0309 16:03:19.814062  2833 net.cpp:122] Setting up res3.2.conv2
I0309 16:03:19.814077  2833 net.cpp:129] Top shape: 100 128 14 14 (2508800)
I0309 16:03:19.814085  2833 net.cpp:137] Memory required for data: 2097358000
I0309 16:03:19.814106  2833 layer_factory.hpp:77] Creating layer res3.2.conv2/bn
I0309 16:03:19.814116  2833 net.cpp:84] Creating Layer res3.2.conv2/bn
I0309 16:03:19.814119  2833 net.cpp:406] res3.2.conv2/bn <- res3.2.conv2
I0309 16:03:19.814141  2833 net.cpp:380] res3.2.conv2/bn -> res3.2.conv2/bn
I0309 16:03:19.814397  2833 net.cpp:122] Setting up res3.2.conv2/bn
I0309 16:03:19.814407  2833 net.cpp:129] Top shape: 100 128 14 14 (2508800)
I0309 16:03:19.814410  2833 net.cpp:137] Memory required for data: 2107393200
I0309 16:03:19.814419  2833 layer_factory.hpp:77] Creating layer res3.2.conv2/bn_scale
I0309 16:03:19.814425  2833 net.cpp:84] Creating Layer res3.2.conv2/bn_scale
I0309 16:03:19.814429  2833 net.cpp:406] res3.2.conv2/bn_scale <- res3.2.conv2/bn
I0309 16:03:19.814452  2833 net.cpp:367] res3.2.conv2/bn_scale -> res3.2.conv2/bn (in-place)
I0309 16:03:19.814502  2833 layer_factory.hpp:77] Creating layer res3.2.conv2/bn_scale
I0309 16:03:19.814630  2833 net.cpp:122] Setting up res3.2.conv2/bn_scale
I0309 16:03:19.814638  2833 net.cpp:129] Top shape: 100 128 14 14 (2508800)
I0309 16:03:19.814642  2833 net.cpp:137] Memory required for data: 2117428400
I0309 16:03:19.814649  2833 layer_factory.hpp:77] Creating layer res3.2.sum
I0309 16:03:19.814666  2833 net.cpp:84] Creating Layer res3.2.sum
I0309 16:03:19.814671  2833 net.cpp:406] res3.2.sum <- res3.2.conv2/bn
I0309 16:03:19.814677  2833 net.cpp:406] res3.2.sum <- res3.1.sum_res3.1.relu_0_split_1
I0309 16:03:19.814682  2833 net.cpp:380] res3.2.sum -> res3.2.sum
I0309 16:03:19.814709  2833 net.cpp:122] Setting up res3.2.sum
I0309 16:03:19.814718  2833 net.cpp:129] Top shape: 100 128 14 14 (2508800)
I0309 16:03:19.814720  2833 net.cpp:137] Memory required for data: 2127463600
I0309 16:03:19.814738  2833 layer_factory.hpp:77] Creating layer res3.2.relu
I0309 16:03:19.814743  2833 net.cpp:84] Creating Layer res3.2.relu
I0309 16:03:19.814748  2833 net.cpp:406] res3.2.relu <- res3.2.sum
I0309 16:03:19.814752  2833 net.cpp:367] res3.2.relu -> res3.2.sum (in-place)
I0309 16:03:19.815261  2833 net.cpp:122] Setting up res3.2.relu
I0309 16:03:19.815275  2833 net.cpp:129] Top shape: 100 128 14 14 (2508800)
I0309 16:03:19.815279  2833 net.cpp:137] Memory required for data: 2137498800
I0309 16:03:19.815295  2833 layer_factory.hpp:77] Creating layer res3.2.sum_res3.2.relu_0_split
I0309 16:03:19.815301  2833 net.cpp:84] Creating Layer res3.2.sum_res3.2.relu_0_split
I0309 16:03:19.815305  2833 net.cpp:406] res3.2.sum_res3.2.relu_0_split <- res3.2.sum
I0309 16:03:19.815336  2833 net.cpp:380] res3.2.sum_res3.2.relu_0_split -> res3.2.sum_res3.2.relu_0_split_0
I0309 16:03:19.815346  2833 net.cpp:380] res3.2.sum_res3.2.relu_0_split -> res3.2.sum_res3.2.relu_0_split_1
I0309 16:03:19.815397  2833 net.cpp:122] Setting up res3.2.sum_res3.2.relu_0_split
I0309 16:03:19.815404  2833 net.cpp:129] Top shape: 100 128 14 14 (2508800)
I0309 16:03:19.815408  2833 net.cpp:129] Top shape: 100 128 14 14 (2508800)
I0309 16:03:19.815412  2833 net.cpp:137] Memory required for data: 2157569200
I0309 16:03:19.815416  2833 layer_factory.hpp:77] Creating layer res3.3.conv1
I0309 16:03:19.815425  2833 net.cpp:84] Creating Layer res3.3.conv1
I0309 16:03:19.815429  2833 net.cpp:406] res3.3.conv1 <- res3.2.sum_res3.2.relu_0_split_0
I0309 16:03:19.815436  2833 net.cpp:380] res3.3.conv1 -> res3.3.conv1
I0309 16:03:19.818733  2833 net.cpp:122] Setting up res3.3.conv1
I0309 16:03:19.818748  2833 net.cpp:129] Top shape: 100 128 14 14 (2508800)
I0309 16:03:19.818753  2833 net.cpp:137] Memory required for data: 2167604400
I0309 16:03:19.818758  2833 layer_factory.hpp:77] Creating layer res3.3.conv1/bn
I0309 16:03:19.818779  2833 net.cpp:84] Creating Layer res3.3.conv1/bn
I0309 16:03:19.818783  2833 net.cpp:406] res3.3.conv1/bn <- res3.3.conv1
I0309 16:03:19.818789  2833 net.cpp:380] res3.3.conv1/bn -> res3.3.conv1/bn
I0309 16:03:19.819025  2833 net.cpp:122] Setting up res3.3.conv1/bn
I0309 16:03:19.819036  2833 net.cpp:129] Top shape: 100 128 14 14 (2508800)
I0309 16:03:19.819038  2833 net.cpp:137] Memory required for data: 2177639600
I0309 16:03:19.819046  2833 layer_factory.hpp:77] Creating layer res3.3.conv1/bn_scale
I0309 16:03:19.819051  2833 net.cpp:84] Creating Layer res3.3.conv1/bn_scale
I0309 16:03:19.819056  2833 net.cpp:406] res3.3.conv1/bn_scale <- res3.3.conv1/bn
I0309 16:03:19.819061  2833 net.cpp:367] res3.3.conv1/bn_scale -> res3.3.conv1/bn (in-place)
I0309 16:03:19.819105  2833 layer_factory.hpp:77] Creating layer res3.3.conv1/bn_scale
I0309 16:03:19.819226  2833 net.cpp:122] Setting up res3.3.conv1/bn_scale
I0309 16:03:19.819234  2833 net.cpp:129] Top shape: 100 128 14 14 (2508800)
I0309 16:03:19.819237  2833 net.cpp:137] Memory required for data: 2187674800
I0309 16:03:19.819243  2833 layer_factory.hpp:77] Creating layer res3.3.conv1/relu
I0309 16:03:19.819248  2833 net.cpp:84] Creating Layer res3.3.conv1/relu
I0309 16:03:19.819253  2833 net.cpp:406] res3.3.conv1/relu <- res3.3.conv1/bn
I0309 16:03:19.819260  2833 net.cpp:367] res3.3.conv1/relu -> res3.3.conv1/bn (in-place)
I0309 16:03:19.820123  2833 net.cpp:122] Setting up res3.3.conv1/relu
I0309 16:03:19.820137  2833 net.cpp:129] Top shape: 100 128 14 14 (2508800)
I0309 16:03:19.820153  2833 net.cpp:137] Memory required for data: 2197710000
I0309 16:03:19.820158  2833 layer_factory.hpp:77] Creating layer res3.3.conv2
I0309 16:03:19.820168  2833 net.cpp:84] Creating Layer res3.3.conv2
I0309 16:03:19.820188  2833 net.cpp:406] res3.3.conv2 <- res3.3.conv1/bn
I0309 16:03:19.820196  2833 net.cpp:380] res3.3.conv2 -> res3.3.conv2
I0309 16:03:19.823025  2833 net.cpp:122] Setting up res3.3.conv2
I0309 16:03:19.823040  2833 net.cpp:129] Top shape: 100 128 14 14 (2508800)
I0309 16:03:19.823060  2833 net.cpp:137] Memory required for data: 2207745200
I0309 16:03:19.823067  2833 layer_factory.hpp:77] Creating layer res3.3.conv2/bn
I0309 16:03:19.823073  2833 net.cpp:84] Creating Layer res3.3.conv2/bn
I0309 16:03:19.823077  2833 net.cpp:406] res3.3.conv2/bn <- res3.3.conv2
I0309 16:03:19.823084  2833 net.cpp:380] res3.3.conv2/bn -> res3.3.conv2/bn
I0309 16:03:19.823367  2833 net.cpp:122] Setting up res3.3.conv2/bn
I0309 16:03:19.823379  2833 net.cpp:129] Top shape: 100 128 14 14 (2508800)
I0309 16:03:19.823381  2833 net.cpp:137] Memory required for data: 2217780400
I0309 16:03:19.823390  2833 layer_factory.hpp:77] Creating layer res3.3.conv2/bn_scale
I0309 16:03:19.823396  2833 net.cpp:84] Creating Layer res3.3.conv2/bn_scale
I0309 16:03:19.823415  2833 net.cpp:406] res3.3.conv2/bn_scale <- res3.3.conv2/bn
I0309 16:03:19.823421  2833 net.cpp:367] res3.3.conv2/bn_scale -> res3.3.conv2/bn (in-place)
I0309 16:03:19.823500  2833 layer_factory.hpp:77] Creating layer res3.3.conv2/bn_scale
I0309 16:03:19.823629  2833 net.cpp:122] Setting up res3.3.conv2/bn_scale
I0309 16:03:19.823638  2833 net.cpp:129] Top shape: 100 128 14 14 (2508800)
I0309 16:03:19.823642  2833 net.cpp:137] Memory required for data: 2227815600
I0309 16:03:19.823647  2833 layer_factory.hpp:77] Creating layer res3.3.sum
I0309 16:03:19.823657  2833 net.cpp:84] Creating Layer res3.3.sum
I0309 16:03:19.823660  2833 net.cpp:406] res3.3.sum <- res3.3.conv2/bn
I0309 16:03:19.823665  2833 net.cpp:406] res3.3.sum <- res3.2.sum_res3.2.relu_0_split_1
I0309 16:03:19.823673  2833 net.cpp:380] res3.3.sum -> res3.3.sum
I0309 16:03:19.823699  2833 net.cpp:122] Setting up res3.3.sum
I0309 16:03:19.823707  2833 net.cpp:129] Top shape: 100 128 14 14 (2508800)
I0309 16:03:19.823711  2833 net.cpp:137] Memory required for data: 2237850800
I0309 16:03:19.823714  2833 layer_factory.hpp:77] Creating layer res3.3.relu
I0309 16:03:19.823722  2833 net.cpp:84] Creating Layer res3.3.relu
I0309 16:03:19.823726  2833 net.cpp:406] res3.3.relu <- res3.3.sum
I0309 16:03:19.823730  2833 net.cpp:367] res3.3.relu -> res3.3.sum (in-place)
I0309 16:03:19.824241  2833 net.cpp:122] Setting up res3.3.relu
I0309 16:03:19.824252  2833 net.cpp:129] Top shape: 100 128 14 14 (2508800)
I0309 16:03:19.824267  2833 net.cpp:137] Memory required for data: 2247886000
I0309 16:03:19.824271  2833 layer_factory.hpp:77] Creating layer res3.3.sum_res3.3.relu_0_split
I0309 16:03:19.824278  2833 net.cpp:84] Creating Layer res3.3.sum_res3.3.relu_0_split
I0309 16:03:19.824282  2833 net.cpp:406] res3.3.sum_res3.3.relu_0_split <- res3.3.sum
I0309 16:03:19.824306  2833 net.cpp:380] res3.3.sum_res3.3.relu_0_split -> res3.3.sum_res3.3.relu_0_split_0
I0309 16:03:19.824312  2833 net.cpp:380] res3.3.sum_res3.3.relu_0_split -> res3.3.sum_res3.3.relu_0_split_1
I0309 16:03:19.824376  2833 net.cpp:122] Setting up res3.3.sum_res3.3.relu_0_split
I0309 16:03:19.824388  2833 net.cpp:129] Top shape: 100 128 14 14 (2508800)
I0309 16:03:19.824391  2833 net.cpp:129] Top shape: 100 128 14 14 (2508800)
I0309 16:03:19.824395  2833 net.cpp:137] Memory required for data: 2267956400
I0309 16:03:19.824398  2833 layer_factory.hpp:77] Creating layer res4.1.conv1
I0309 16:03:19.824406  2833 net.cpp:84] Creating Layer res4.1.conv1
I0309 16:03:19.824410  2833 net.cpp:406] res4.1.conv1 <- res3.3.sum_res3.3.relu_0_split_0
I0309 16:03:19.824431  2833 net.cpp:380] res4.1.conv1 -> res4.1.conv1
I0309 16:03:19.827517  2833 net.cpp:122] Setting up res4.1.conv1
I0309 16:03:19.827533  2833 net.cpp:129] Top shape: 100 256 7 7 (1254400)
I0309 16:03:19.827553  2833 net.cpp:137] Memory required for data: 2272974000
I0309 16:03:19.827558  2833 layer_factory.hpp:77] Creating layer res4.1.conv1/bn
I0309 16:03:19.827565  2833 net.cpp:84] Creating Layer res4.1.conv1/bn
I0309 16:03:19.827569  2833 net.cpp:406] res4.1.conv1/bn <- res4.1.conv1
I0309 16:03:19.827575  2833 net.cpp:380] res4.1.conv1/bn -> res4.1.conv1/bn
I0309 16:03:19.827858  2833 net.cpp:122] Setting up res4.1.conv1/bn
I0309 16:03:19.827867  2833 net.cpp:129] Top shape: 100 256 7 7 (1254400)
I0309 16:03:19.827872  2833 net.cpp:137] Memory required for data: 2277991600
I0309 16:03:19.827878  2833 layer_factory.hpp:77] Creating layer res4.1.conv1/bn_scale
I0309 16:03:19.827885  2833 net.cpp:84] Creating Layer res4.1.conv1/bn_scale
I0309 16:03:19.827891  2833 net.cpp:406] res4.1.conv1/bn_scale <- res4.1.conv1/bn
I0309 16:03:19.827913  2833 net.cpp:367] res4.1.conv1/bn_scale -> res4.1.conv1/bn (in-place)
I0309 16:03:19.827981  2833 layer_factory.hpp:77] Creating layer res4.1.conv1/bn_scale
I0309 16:03:19.828114  2833 net.cpp:122] Setting up res4.1.conv1/bn_scale
I0309 16:03:19.828122  2833 net.cpp:129] Top shape: 100 256 7 7 (1254400)
I0309 16:03:19.828126  2833 net.cpp:137] Memory required for data: 2283009200
I0309 16:03:19.828132  2833 layer_factory.hpp:77] Creating layer res4.1.conv1/relu
I0309 16:03:19.828137  2833 net.cpp:84] Creating Layer res4.1.conv1/relu
I0309 16:03:19.828155  2833 net.cpp:406] res4.1.conv1/relu <- res4.1.conv1/bn
I0309 16:03:19.828161  2833 net.cpp:367] res4.1.conv1/relu -> res4.1.conv1/bn (in-place)
I0309 16:03:19.828661  2833 net.cpp:122] Setting up res4.1.conv1/relu
I0309 16:03:19.828672  2833 net.cpp:129] Top shape: 100 256 7 7 (1254400)
I0309 16:03:19.828687  2833 net.cpp:137] Memory required for data: 2288026800
I0309 16:03:19.828691  2833 layer_factory.hpp:77] Creating layer res4.1.conv2
I0309 16:03:19.828701  2833 net.cpp:84] Creating Layer res4.1.conv2
I0309 16:03:19.828703  2833 net.cpp:406] res4.1.conv2 <- res4.1.conv1/bn
I0309 16:03:19.828725  2833 net.cpp:380] res4.1.conv2 -> res4.1.conv2
I0309 16:03:19.832463  2833 net.cpp:122] Setting up res4.1.conv2
I0309 16:03:19.832497  2833 net.cpp:129] Top shape: 100 256 7 7 (1254400)
I0309 16:03:19.832501  2833 net.cpp:137] Memory required for data: 2293044400
I0309 16:03:19.832507  2833 layer_factory.hpp:77] Creating layer res4.1.conv2/bn
I0309 16:03:19.832515  2833 net.cpp:84] Creating Layer res4.1.conv2/bn
I0309 16:03:19.832520  2833 net.cpp:406] res4.1.conv2/bn <- res4.1.conv2
I0309 16:03:19.832526  2833 net.cpp:380] res4.1.conv2/bn -> res4.1.conv2/bn
I0309 16:03:19.832804  2833 net.cpp:122] Setting up res4.1.conv2/bn
I0309 16:03:19.832815  2833 net.cpp:129] Top shape: 100 256 7 7 (1254400)
I0309 16:03:19.832819  2833 net.cpp:137] Memory required for data: 2298062000
I0309 16:03:19.832826  2833 layer_factory.hpp:77] Creating layer res4.1.conv2/bn_scale
I0309 16:03:19.832834  2833 net.cpp:84] Creating Layer res4.1.conv2/bn_scale
I0309 16:03:19.832839  2833 net.cpp:406] res4.1.conv2/bn_scale <- res4.1.conv2/bn
I0309 16:03:19.832844  2833 net.cpp:367] res4.1.conv2/bn_scale -> res4.1.conv2/bn (in-place)
I0309 16:03:19.832892  2833 layer_factory.hpp:77] Creating layer res4.1.conv2/bn_scale
I0309 16:03:19.833030  2833 net.cpp:122] Setting up res4.1.conv2/bn_scale
I0309 16:03:19.833040  2833 net.cpp:129] Top shape: 100 256 7 7 (1254400)
I0309 16:03:19.833043  2833 net.cpp:137] Memory required for data: 2303079600
I0309 16:03:19.833050  2833 layer_factory.hpp:77] Creating layer res4.1.skipConv
I0309 16:03:19.833060  2833 net.cpp:84] Creating Layer res4.1.skipConv
I0309 16:03:19.833065  2833 net.cpp:406] res4.1.skipConv <- res3.3.sum_res3.3.relu_0_split_1
I0309 16:03:19.833070  2833 net.cpp:380] res4.1.skipConv -> res4.1.skipConv
I0309 16:03:19.835218  2833 net.cpp:122] Setting up res4.1.skipConv
I0309 16:03:19.835252  2833 net.cpp:129] Top shape: 100 256 7 7 (1254400)
I0309 16:03:19.835256  2833 net.cpp:137] Memory required for data: 2308097200
I0309 16:03:19.835263  2833 layer_factory.hpp:77] Creating layer res4.1skipConv/bn
I0309 16:03:19.835271  2833 net.cpp:84] Creating Layer res4.1skipConv/bn
I0309 16:03:19.835276  2833 net.cpp:406] res4.1skipConv/bn <- res4.1.skipConv
I0309 16:03:19.835285  2833 net.cpp:380] res4.1skipConv/bn -> res4.1.skipConv/bn
I0309 16:03:19.835566  2833 net.cpp:122] Setting up res4.1skipConv/bn
I0309 16:03:19.835592  2833 net.cpp:129] Top shape: 100 256 7 7 (1254400)
I0309 16:03:19.835606  2833 net.cpp:137] Memory required for data: 2313114800
I0309 16:03:19.835615  2833 layer_factory.hpp:77] Creating layer res4.1skipConv/bn_scale
I0309 16:03:19.835638  2833 net.cpp:84] Creating Layer res4.1skipConv/bn_scale
I0309 16:03:19.835644  2833 net.cpp:406] res4.1skipConv/bn_scale <- res4.1.skipConv/bn
I0309 16:03:19.835651  2833 net.cpp:367] res4.1skipConv/bn_scale -> res4.1.skipConv/bn (in-place)
I0309 16:03:19.835705  2833 layer_factory.hpp:77] Creating layer res4.1skipConv/bn_scale
I0309 16:03:19.835847  2833 net.cpp:122] Setting up res4.1skipConv/bn_scale
I0309 16:03:19.835857  2833 net.cpp:129] Top shape: 100 256 7 7 (1254400)
I0309 16:03:19.835861  2833 net.cpp:137] Memory required for data: 2318132400
I0309 16:03:19.835868  2833 layer_factory.hpp:77] Creating layer res4.1.sum
I0309 16:03:19.835877  2833 net.cpp:84] Creating Layer res4.1.sum
I0309 16:03:19.835883  2833 net.cpp:406] res4.1.sum <- res4.1.conv2/bn
I0309 16:03:19.835888  2833 net.cpp:406] res4.1.sum <- res4.1.skipConv/bn
I0309 16:03:19.835909  2833 net.cpp:380] res4.1.sum -> res4.1.sum
I0309 16:03:19.835947  2833 net.cpp:122] Setting up res4.1.sum
I0309 16:03:19.835955  2833 net.cpp:129] Top shape: 100 256 7 7 (1254400)
I0309 16:03:19.835959  2833 net.cpp:137] Memory required for data: 2323150000
I0309 16:03:19.835963  2833 layer_factory.hpp:77] Creating layer res4.1.relu
I0309 16:03:19.835969  2833 net.cpp:84] Creating Layer res4.1.relu
I0309 16:03:19.835973  2833 net.cpp:406] res4.1.relu <- res4.1.sum
I0309 16:03:19.835980  2833 net.cpp:367] res4.1.relu -> res4.1.sum (in-place)
I0309 16:03:19.836884  2833 net.cpp:122] Setting up res4.1.relu
I0309 16:03:19.836897  2833 net.cpp:129] Top shape: 100 256 7 7 (1254400)
I0309 16:03:19.836917  2833 net.cpp:137] Memory required for data: 2328167600
I0309 16:03:19.836921  2833 layer_factory.hpp:77] Creating layer res4.1.sum_res4.1.relu_0_split
I0309 16:03:19.836930  2833 net.cpp:84] Creating Layer res4.1.sum_res4.1.relu_0_split
I0309 16:03:19.836933  2833 net.cpp:406] res4.1.sum_res4.1.relu_0_split <- res4.1.sum
I0309 16:03:19.836939  2833 net.cpp:380] res4.1.sum_res4.1.relu_0_split -> res4.1.sum_res4.1.relu_0_split_0
I0309 16:03:19.836949  2833 net.cpp:380] res4.1.sum_res4.1.relu_0_split -> res4.1.sum_res4.1.relu_0_split_1
I0309 16:03:19.837040  2833 net.cpp:122] Setting up res4.1.sum_res4.1.relu_0_split
I0309 16:03:19.837049  2833 net.cpp:129] Top shape: 100 256 7 7 (1254400)
I0309 16:03:19.837054  2833 net.cpp:129] Top shape: 100 256 7 7 (1254400)
I0309 16:03:19.837057  2833 net.cpp:137] Memory required for data: 2338202800
I0309 16:03:19.837064  2833 layer_factory.hpp:77] Creating layer res4.2.conv1
I0309 16:03:19.837072  2833 net.cpp:84] Creating Layer res4.2.conv1
I0309 16:03:19.837076  2833 net.cpp:406] res4.2.conv1 <- res4.1.sum_res4.1.relu_0_split_0
I0309 16:03:19.837082  2833 net.cpp:380] res4.2.conv1 -> res4.2.conv1
I0309 16:03:19.841370  2833 net.cpp:122] Setting up res4.2.conv1
I0309 16:03:19.841392  2833 net.cpp:129] Top shape: 100 256 7 7 (1254400)
I0309 16:03:19.841415  2833 net.cpp:137] Memory required for data: 2343220400
I0309 16:03:19.841424  2833 layer_factory.hpp:77] Creating layer res4.2.conv1/bn
I0309 16:03:19.841434  2833 net.cpp:84] Creating Layer res4.2.conv1/bn
I0309 16:03:19.841440  2833 net.cpp:406] res4.2.conv1/bn <- res4.2.conv1
I0309 16:03:19.841449  2833 net.cpp:380] res4.2.conv1/bn -> res4.2.conv1/bn
I0309 16:03:19.841727  2833 net.cpp:122] Setting up res4.2.conv1/bn
I0309 16:03:19.841753  2833 net.cpp:129] Top shape: 100 256 7 7 (1254400)
I0309 16:03:19.841758  2833 net.cpp:137] Memory required for data: 2348238000
I0309 16:03:19.841784  2833 layer_factory.hpp:77] Creating layer res4.2.conv1/bn_scale
I0309 16:03:19.841792  2833 net.cpp:84] Creating Layer res4.2.conv1/bn_scale
I0309 16:03:19.841797  2833 net.cpp:406] res4.2.conv1/bn_scale <- res4.2.conv1/bn
I0309 16:03:19.841802  2833 net.cpp:367] res4.2.conv1/bn_scale -> res4.2.conv1/bn (in-place)
I0309 16:03:19.841854  2833 layer_factory.hpp:77] Creating layer res4.2.conv1/bn_scale
I0309 16:03:19.842018  2833 net.cpp:122] Setting up res4.2.conv1/bn_scale
I0309 16:03:19.842028  2833 net.cpp:129] Top shape: 100 256 7 7 (1254400)
I0309 16:03:19.842032  2833 net.cpp:137] Memory required for data: 2353255600
I0309 16:03:19.842038  2833 layer_factory.hpp:77] Creating layer res4.2.conv1/relu
I0309 16:03:19.842046  2833 net.cpp:84] Creating Layer res4.2.conv1/relu
I0309 16:03:19.842052  2833 net.cpp:406] res4.2.conv1/relu <- res4.2.conv1/bn
I0309 16:03:19.842057  2833 net.cpp:367] res4.2.conv1/relu -> res4.2.conv1/bn (in-place)
I0309 16:03:19.842584  2833 net.cpp:122] Setting up res4.2.conv1/relu
I0309 16:03:19.842597  2833 net.cpp:129] Top shape: 100 256 7 7 (1254400)
I0309 16:03:19.842600  2833 net.cpp:137] Memory required for data: 2358273200
I0309 16:03:19.842604  2833 layer_factory.hpp:77] Creating layer res4.2.conv2
I0309 16:03:19.842629  2833 net.cpp:84] Creating Layer res4.2.conv2
I0309 16:03:19.842634  2833 net.cpp:406] res4.2.conv2 <- res4.2.conv1/bn
I0309 16:03:19.842643  2833 net.cpp:380] res4.2.conv2 -> res4.2.conv2
I0309 16:03:19.846509  2833 net.cpp:122] Setting up res4.2.conv2
I0309 16:03:19.846526  2833 net.cpp:129] Top shape: 100 256 7 7 (1254400)
I0309 16:03:19.846532  2833 net.cpp:137] Memory required for data: 2363290800
I0309 16:03:19.846556  2833 layer_factory.hpp:77] Creating layer res4.2.conv2/bn
I0309 16:03:19.846563  2833 net.cpp:84] Creating Layer res4.2.conv2/bn
I0309 16:03:19.846570  2833 net.cpp:406] res4.2.conv2/bn <- res4.2.conv2
I0309 16:03:19.846577  2833 net.cpp:380] res4.2.conv2/bn -> res4.2.conv2/bn
I0309 16:03:19.846837  2833 net.cpp:122] Setting up res4.2.conv2/bn
I0309 16:03:19.846845  2833 net.cpp:129] Top shape: 100 256 7 7 (1254400)
I0309 16:03:19.846849  2833 net.cpp:137] Memory required for data: 2368308400
I0309 16:03:19.846856  2833 layer_factory.hpp:77] Creating layer res4.2.conv2/bn_scale
I0309 16:03:19.846865  2833 net.cpp:84] Creating Layer res4.2.conv2/bn_scale
I0309 16:03:19.846885  2833 net.cpp:406] res4.2.conv2/bn_scale <- res4.2.conv2/bn
I0309 16:03:19.846894  2833 net.cpp:367] res4.2.conv2/bn_scale -> res4.2.conv2/bn (in-place)
I0309 16:03:19.846959  2833 layer_factory.hpp:77] Creating layer res4.2.conv2/bn_scale
I0309 16:03:19.847095  2833 net.cpp:122] Setting up res4.2.conv2/bn_scale
I0309 16:03:19.847105  2833 net.cpp:129] Top shape: 100 256 7 7 (1254400)
I0309 16:03:19.847108  2833 net.cpp:137] Memory required for data: 2373326000
I0309 16:03:19.847115  2833 layer_factory.hpp:77] Creating layer res4.2.sum
I0309 16:03:19.847122  2833 net.cpp:84] Creating Layer res4.2.sum
I0309 16:03:19.847127  2833 net.cpp:406] res4.2.sum <- res4.2.conv2/bn
I0309 16:03:19.847131  2833 net.cpp:406] res4.2.sum <- res4.1.sum_res4.1.relu_0_split_1
I0309 16:03:19.847137  2833 net.cpp:380] res4.2.sum -> res4.2.sum
I0309 16:03:19.847170  2833 net.cpp:122] Setting up res4.2.sum
I0309 16:03:19.847178  2833 net.cpp:129] Top shape: 100 256 7 7 (1254400)
I0309 16:03:19.847182  2833 net.cpp:137] Memory required for data: 2378343600
I0309 16:03:19.847184  2833 layer_factory.hpp:77] Creating layer res4.2.relu
I0309 16:03:19.847190  2833 net.cpp:84] Creating Layer res4.2.relu
I0309 16:03:19.847196  2833 net.cpp:406] res4.2.relu <- res4.2.sum
I0309 16:03:19.847201  2833 net.cpp:367] res4.2.relu -> res4.2.sum (in-place)
I0309 16:03:19.847710  2833 net.cpp:122] Setting up res4.2.relu
I0309 16:03:19.847721  2833 net.cpp:129] Top shape: 100 256 7 7 (1254400)
I0309 16:03:19.847725  2833 net.cpp:137] Memory required for data: 2383361200
I0309 16:03:19.847728  2833 layer_factory.hpp:77] Creating layer res4.2.sum_res4.2.relu_0_split
I0309 16:03:19.847751  2833 net.cpp:84] Creating Layer res4.2.sum_res4.2.relu_0_split
I0309 16:03:19.847757  2833 net.cpp:406] res4.2.sum_res4.2.relu_0_split <- res4.2.sum
I0309 16:03:19.847764  2833 net.cpp:380] res4.2.sum_res4.2.relu_0_split -> res4.2.sum_res4.2.relu_0_split_0
I0309 16:03:19.847770  2833 net.cpp:380] res4.2.sum_res4.2.relu_0_split -> res4.2.sum_res4.2.relu_0_split_1
I0309 16:03:19.847822  2833 net.cpp:122] Setting up res4.2.sum_res4.2.relu_0_split
I0309 16:03:19.847831  2833 net.cpp:129] Top shape: 100 256 7 7 (1254400)
I0309 16:03:19.847834  2833 net.cpp:129] Top shape: 100 256 7 7 (1254400)
I0309 16:03:19.847837  2833 net.cpp:137] Memory required for data: 2393396400
I0309 16:03:19.847841  2833 layer_factory.hpp:77] Creating layer res4.3.conv1
I0309 16:03:19.847851  2833 net.cpp:84] Creating Layer res4.3.conv1
I0309 16:03:19.847856  2833 net.cpp:406] res4.3.conv1 <- res4.2.sum_res4.2.relu_0_split_0
I0309 16:03:19.847862  2833 net.cpp:380] res4.3.conv1 -> res4.3.conv1
I0309 16:03:19.851614  2833 net.cpp:122] Setting up res4.3.conv1
I0309 16:03:19.851632  2833 net.cpp:129] Top shape: 100 256 7 7 (1254400)
I0309 16:03:19.851655  2833 net.cpp:137] Memory required for data: 2398414000
I0309 16:03:19.851660  2833 layer_factory.hpp:77] Creating layer res4.3.conv1/bn
I0309 16:03:19.851667  2833 net.cpp:84] Creating Layer res4.3.conv1/bn
I0309 16:03:19.851673  2833 net.cpp:406] res4.3.conv1/bn <- res4.3.conv1
I0309 16:03:19.851697  2833 net.cpp:380] res4.3.conv1/bn -> res4.3.conv1/bn
I0309 16:03:19.851972  2833 net.cpp:122] Setting up res4.3.conv1/bn
I0309 16:03:19.851982  2833 net.cpp:129] Top shape: 100 256 7 7 (1254400)
I0309 16:03:19.851986  2833 net.cpp:137] Memory required for data: 2403431600
I0309 16:03:19.852058  2833 layer_factory.hpp:77] Creating layer res4.3.conv1/bn_scale
I0309 16:03:19.852083  2833 net.cpp:84] Creating Layer res4.3.conv1/bn_scale
I0309 16:03:19.852089  2833 net.cpp:406] res4.3.conv1/bn_scale <- res4.3.conv1/bn
I0309 16:03:19.852095  2833 net.cpp:367] res4.3.conv1/bn_scale -> res4.3.conv1/bn (in-place)
I0309 16:03:19.852147  2833 layer_factory.hpp:77] Creating layer res4.3.conv1/bn_scale
I0309 16:03:19.852278  2833 net.cpp:122] Setting up res4.3.conv1/bn_scale
I0309 16:03:19.852288  2833 net.cpp:129] Top shape: 100 256 7 7 (1254400)
I0309 16:03:19.852294  2833 net.cpp:137] Memory required for data: 2408449200
I0309 16:03:19.852300  2833 layer_factory.hpp:77] Creating layer res4.3.conv1/relu
I0309 16:03:19.852305  2833 net.cpp:84] Creating Layer res4.3.conv1/relu
I0309 16:03:19.852309  2833 net.cpp:406] res4.3.conv1/relu <- res4.3.conv1/bn
I0309 16:03:19.852315  2833 net.cpp:367] res4.3.conv1/relu -> res4.3.conv1/bn (in-place)
I0309 16:03:19.852819  2833 net.cpp:122] Setting up res4.3.conv1/relu
I0309 16:03:19.852833  2833 net.cpp:129] Top shape: 100 256 7 7 (1254400)
I0309 16:03:19.852838  2833 net.cpp:137] Memory required for data: 2413466800
I0309 16:03:19.852857  2833 layer_factory.hpp:77] Creating layer res4.3.conv2
I0309 16:03:19.852865  2833 net.cpp:84] Creating Layer res4.3.conv2
I0309 16:03:19.852870  2833 net.cpp:406] res4.3.conv2 <- res4.3.conv1/bn
I0309 16:03:19.852877  2833 net.cpp:380] res4.3.conv2 -> res4.3.conv2
I0309 16:03:19.856679  2833 net.cpp:122] Setting up res4.3.conv2
I0309 16:03:19.856695  2833 net.cpp:129] Top shape: 100 256 7 7 (1254400)
I0309 16:03:19.856711  2833 net.cpp:137] Memory required for data: 2418484400
I0309 16:03:19.856717  2833 layer_factory.hpp:77] Creating layer res4.3.conv2/bn
I0309 16:03:19.856724  2833 net.cpp:84] Creating Layer res4.3.conv2/bn
I0309 16:03:19.856729  2833 net.cpp:406] res4.3.conv2/bn <- res4.3.conv2
I0309 16:03:19.856763  2833 net.cpp:380] res4.3.conv2/bn -> res4.3.conv2/bn
I0309 16:03:19.857028  2833 net.cpp:122] Setting up res4.3.conv2/bn
I0309 16:03:19.857053  2833 net.cpp:129] Top shape: 100 256 7 7 (1254400)
I0309 16:03:19.857055  2833 net.cpp:137] Memory required for data: 2423502000
I0309 16:03:19.857080  2833 layer_factory.hpp:77] Creating layer res4.3.conv2/bn_scale
I0309 16:03:19.857086  2833 net.cpp:84] Creating Layer res4.3.conv2/bn_scale
I0309 16:03:19.857091  2833 net.cpp:406] res4.3.conv2/bn_scale <- res4.3.conv2/bn
I0309 16:03:19.857096  2833 net.cpp:367] res4.3.conv2/bn_scale -> res4.3.conv2/bn (in-place)
I0309 16:03:19.857146  2833 layer_factory.hpp:77] Creating layer res4.3.conv2/bn_scale
I0309 16:03:19.857285  2833 net.cpp:122] Setting up res4.3.conv2/bn_scale
I0309 16:03:19.857293  2833 net.cpp:129] Top shape: 100 256 7 7 (1254400)
I0309 16:03:19.857296  2833 net.cpp:137] Memory required for data: 2428519600
I0309 16:03:19.857303  2833 layer_factory.hpp:77] Creating layer res4.3.sum
I0309 16:03:19.857311  2833 net.cpp:84] Creating Layer res4.3.sum
I0309 16:03:19.857314  2833 net.cpp:406] res4.3.sum <- res4.3.conv2/bn
I0309 16:03:19.857319  2833 net.cpp:406] res4.3.sum <- res4.2.sum_res4.2.relu_0_split_1
I0309 16:03:19.857326  2833 net.cpp:380] res4.3.sum -> res4.3.sum
I0309 16:03:19.857354  2833 net.cpp:122] Setting up res4.3.sum
I0309 16:03:19.857363  2833 net.cpp:129] Top shape: 100 256 7 7 (1254400)
I0309 16:03:19.857367  2833 net.cpp:137] Memory required for data: 2433537200
I0309 16:03:19.857370  2833 layer_factory.hpp:77] Creating layer res4.3.relu
I0309 16:03:19.857378  2833 net.cpp:84] Creating Layer res4.3.relu
I0309 16:03:19.857383  2833 net.cpp:406] res4.3.relu <- res4.3.sum
I0309 16:03:19.857388  2833 net.cpp:367] res4.3.relu -> res4.3.sum (in-place)
I0309 16:03:19.858301  2833 net.cpp:122] Setting up res4.3.relu
I0309 16:03:19.858315  2833 net.cpp:129] Top shape: 100 256 7 7 (1254400)
I0309 16:03:19.858343  2833 net.cpp:137] Memory required for data: 2438554800
I0309 16:03:19.858347  2833 layer_factory.hpp:77] Creating layer res4.3.sum_res4.3.relu_0_split
I0309 16:03:19.858371  2833 net.cpp:84] Creating Layer res4.3.sum_res4.3.relu_0_split
I0309 16:03:19.858376  2833 net.cpp:406] res4.3.sum_res4.3.relu_0_split <- res4.3.sum
I0309 16:03:19.858383  2833 net.cpp:380] res4.3.sum_res4.3.relu_0_split -> res4.3.sum_res4.3.relu_0_split_0
I0309 16:03:19.858393  2833 net.cpp:380] res4.3.sum_res4.3.relu_0_split -> res4.3.sum_res4.3.relu_0_split_1
I0309 16:03:19.858450  2833 net.cpp:122] Setting up res4.3.sum_res4.3.relu_0_split
I0309 16:03:19.858459  2833 net.cpp:129] Top shape: 100 256 7 7 (1254400)
I0309 16:03:19.858464  2833 net.cpp:129] Top shape: 100 256 7 7 (1254400)
I0309 16:03:19.858467  2833 net.cpp:137] Memory required for data: 2448590000
I0309 16:03:19.858470  2833 layer_factory.hpp:77] Creating layer res4.4.conv1
I0309 16:03:19.858479  2833 net.cpp:84] Creating Layer res4.4.conv1
I0309 16:03:19.858485  2833 net.cpp:406] res4.4.conv1 <- res4.3.sum_res4.3.relu_0_split_0
I0309 16:03:19.858494  2833 net.cpp:380] res4.4.conv1 -> res4.4.conv1
I0309 16:03:19.865733  2833 net.cpp:122] Setting up res4.4.conv1
I0309 16:03:19.865749  2833 net.cpp:129] Top shape: 100 512 7 7 (2508800)
I0309 16:03:19.865767  2833 net.cpp:137] Memory required for data: 2458625200
I0309 16:03:19.865772  2833 layer_factory.hpp:77] Creating layer res4.4.conv1/bn
I0309 16:03:19.865782  2833 net.cpp:84] Creating Layer res4.4.conv1/bn
I0309 16:03:19.865785  2833 net.cpp:406] res4.4.conv1/bn <- res4.4.conv1
I0309 16:03:19.865806  2833 net.cpp:380] res4.4.conv1/bn -> res4.4.conv1/bn
I0309 16:03:19.866155  2833 net.cpp:122] Setting up res4.4.conv1/bn
I0309 16:03:19.866164  2833 net.cpp:129] Top shape: 100 512 7 7 (2508800)
I0309 16:03:19.866185  2833 net.cpp:137] Memory required for data: 2468660400
I0309 16:03:19.866209  2833 layer_factory.hpp:77] Creating layer res4.4.conv1/bn_scale
I0309 16:03:19.866216  2833 net.cpp:84] Creating Layer res4.4.conv1/bn_scale
I0309 16:03:19.866220  2833 net.cpp:406] res4.4.conv1/bn_scale <- res4.4.conv1/bn
I0309 16:03:19.866242  2833 net.cpp:367] res4.4.conv1/bn_scale -> res4.4.conv1/bn (in-place)
I0309 16:03:19.866293  2833 layer_factory.hpp:77] Creating layer res4.4.conv1/bn_scale
I0309 16:03:19.866436  2833 net.cpp:122] Setting up res4.4.conv1/bn_scale
I0309 16:03:19.866444  2833 net.cpp:129] Top shape: 100 512 7 7 (2508800)
I0309 16:03:19.866447  2833 net.cpp:137] Memory required for data: 2478695600
I0309 16:03:19.866454  2833 layer_factory.hpp:77] Creating layer res4.4.conv1/relu
I0309 16:03:19.866461  2833 net.cpp:84] Creating Layer res4.4.conv1/relu
I0309 16:03:19.866466  2833 net.cpp:406] res4.4.conv1/relu <- res4.4.conv1/bn
I0309 16:03:19.866470  2833 net.cpp:367] res4.4.conv1/relu -> res4.4.conv1/bn (in-place)
I0309 16:03:19.866984  2833 net.cpp:122] Setting up res4.4.conv1/relu
I0309 16:03:19.866994  2833 net.cpp:129] Top shape: 100 512 7 7 (2508800)
I0309 16:03:19.867015  2833 net.cpp:137] Memory required for data: 2488730800
I0309 16:03:19.867018  2833 layer_factory.hpp:77] Creating layer res4.4.conv2
I0309 16:03:19.867027  2833 net.cpp:84] Creating Layer res4.4.conv2
I0309 16:03:19.867031  2833 net.cpp:406] res4.4.conv2 <- res4.4.conv1/bn
I0309 16:03:19.867038  2833 net.cpp:380] res4.4.conv2 -> res4.4.conv2
I0309 16:03:19.873140  2833 net.cpp:122] Setting up res4.4.conv2
I0309 16:03:19.873175  2833 net.cpp:129] Top shape: 100 512 7 7 (2508800)
I0309 16:03:19.873179  2833 net.cpp:137] Memory required for data: 2498766000
I0309 16:03:19.873185  2833 layer_factory.hpp:77] Creating layer res4.4.conv2/bn
I0309 16:03:19.873194  2833 net.cpp:84] Creating Layer res4.4.conv2/bn
I0309 16:03:19.873214  2833 net.cpp:406] res4.4.conv2/bn <- res4.4.conv2
I0309 16:03:19.873221  2833 net.cpp:380] res4.4.conv2/bn -> res4.4.conv2/bn
I0309 16:03:19.873478  2833 net.cpp:122] Setting up res4.4.conv2/bn
I0309 16:03:19.873486  2833 net.cpp:129] Top shape: 100 512 7 7 (2508800)
I0309 16:03:19.873518  2833 net.cpp:137] Memory required for data: 2508801200
I0309 16:03:19.873526  2833 layer_factory.hpp:77] Creating layer res4.4.conv2/bn_scale
I0309 16:03:19.873548  2833 net.cpp:84] Creating Layer res4.4.conv2/bn_scale
I0309 16:03:19.873553  2833 net.cpp:406] res4.4.conv2/bn_scale <- res4.4.conv2/bn
I0309 16:03:19.873576  2833 net.cpp:367] res4.4.conv2/bn_scale -> res4.4.conv2/bn (in-place)
I0309 16:03:19.873630  2833 layer_factory.hpp:77] Creating layer res4.4.conv2/bn_scale
I0309 16:03:19.873773  2833 net.cpp:122] Setting up res4.4.conv2/bn_scale
I0309 16:03:19.873781  2833 net.cpp:129] Top shape: 100 512 7 7 (2508800)
I0309 16:03:19.873785  2833 net.cpp:137] Memory required for data: 2518836400
I0309 16:03:19.873791  2833 layer_factory.hpp:77] Creating layer res4.4.skipConv
I0309 16:03:19.873801  2833 net.cpp:84] Creating Layer res4.4.skipConv
I0309 16:03:19.873806  2833 net.cpp:406] res4.4.skipConv <- res4.3.sum_res4.3.relu_0_split_1
I0309 16:03:19.873813  2833 net.cpp:380] res4.4.skipConv -> res4.4.skipConv
I0309 16:03:19.876123  2833 net.cpp:122] Setting up res4.4.skipConv
I0309 16:03:19.876138  2833 net.cpp:129] Top shape: 100 512 7 7 (2508800)
I0309 16:03:19.876157  2833 net.cpp:137] Memory required for data: 2528871600
I0309 16:03:19.876163  2833 layer_factory.hpp:77] Creating layer res4.4skipConv/bn
I0309 16:03:19.876171  2833 net.cpp:84] Creating Layer res4.4skipConv/bn
I0309 16:03:19.876175  2833 net.cpp:406] res4.4skipConv/bn <- res4.4.skipConv
I0309 16:03:19.876181  2833 net.cpp:380] res4.4skipConv/bn -> res4.4.skipConv/bn
I0309 16:03:19.876451  2833 net.cpp:122] Setting up res4.4skipConv/bn
I0309 16:03:19.876459  2833 net.cpp:129] Top shape: 100 512 7 7 (2508800)
I0309 16:03:19.876462  2833 net.cpp:137] Memory required for data: 2538906800
I0309 16:03:19.876471  2833 layer_factory.hpp:77] Creating layer res4.4skipConv/bn_scale
I0309 16:03:19.876478  2833 net.cpp:84] Creating Layer res4.4skipConv/bn_scale
I0309 16:03:19.876482  2833 net.cpp:406] res4.4skipConv/bn_scale <- res4.4.skipConv/bn
I0309 16:03:19.876487  2833 net.cpp:367] res4.4skipConv/bn_scale -> res4.4.skipConv/bn (in-place)
I0309 16:03:19.876534  2833 layer_factory.hpp:77] Creating layer res4.4skipConv/bn_scale
I0309 16:03:19.876673  2833 net.cpp:122] Setting up res4.4skipConv/bn_scale
I0309 16:03:19.876682  2833 net.cpp:129] Top shape: 100 512 7 7 (2508800)
I0309 16:03:19.876684  2833 net.cpp:137] Memory required for data: 2548942000
I0309 16:03:19.876690  2833 layer_factory.hpp:77] Creating layer res4.4.sum
I0309 16:03:19.876701  2833 net.cpp:84] Creating Layer res4.4.sum
I0309 16:03:19.876708  2833 net.cpp:406] res4.4.sum <- res4.4.conv2/bn
I0309 16:03:19.876713  2833 net.cpp:406] res4.4.sum <- res4.4.skipConv/bn
I0309 16:03:19.876718  2833 net.cpp:380] res4.4.sum -> res4.4.sum
I0309 16:03:19.876749  2833 net.cpp:122] Setting up res4.4.sum
I0309 16:03:19.876755  2833 net.cpp:129] Top shape: 100 512 7 7 (2508800)
I0309 16:03:19.876760  2833 net.cpp:137] Memory required for data: 2558977200
I0309 16:03:19.876762  2833 layer_factory.hpp:77] Creating layer res4.4.relu
I0309 16:03:19.876768  2833 net.cpp:84] Creating Layer res4.4.relu
I0309 16:03:19.876771  2833 net.cpp:406] res4.4.relu <- res4.4.sum
I0309 16:03:19.876778  2833 net.cpp:367] res4.4.relu -> res4.4.sum (in-place)
I0309 16:03:19.877331  2833 net.cpp:122] Setting up res4.4.relu
I0309 16:03:19.877342  2833 net.cpp:129] Top shape: 100 512 7 7 (2508800)
I0309 16:03:19.877362  2833 net.cpp:137] Memory required for data: 2569012400
I0309 16:03:19.877365  2833 layer_factory.hpp:77] Creating layer pool5
I0309 16:03:19.877388  2833 net.cpp:84] Creating Layer pool5
I0309 16:03:19.877391  2833 net.cpp:406] pool5 <- res4.4.sum
I0309 16:03:19.877398  2833 net.cpp:380] pool5 -> pool5
I0309 16:03:19.878402  2833 net.cpp:122] Setting up pool5
I0309 16:03:19.878418  2833 net.cpp:129] Top shape: 100 512 1 1 (51200)
I0309 16:03:19.878434  2833 net.cpp:137] Memory required for data: 2569217200
I0309 16:03:19.878439  2833 layer_factory.hpp:77] Creating layer fc
I0309 16:03:19.878448  2833 net.cpp:84] Creating Layer fc
I0309 16:03:19.878480  2833 net.cpp:406] fc <- pool5
I0309 16:03:19.878489  2833 net.cpp:380] fc -> fc
I0309 16:03:19.880000  2833 net.cpp:122] Setting up fc
I0309 16:03:19.880015  2833 net.cpp:129] Top shape: 100 1000 (100000)
I0309 16:03:19.880036  2833 net.cpp:137] Memory required for data: 2569617200
I0309 16:03:19.880044  2833 layer_factory.hpp:77] Creating layer fc_fc_0_split
I0309 16:03:19.880053  2833 net.cpp:84] Creating Layer fc_fc_0_split
I0309 16:03:19.880056  2833 net.cpp:406] fc_fc_0_split <- fc
I0309 16:03:19.880079  2833 net.cpp:380] fc_fc_0_split -> fc_fc_0_split_0
I0309 16:03:19.880090  2833 net.cpp:380] fc_fc_0_split -> fc_fc_0_split_1
I0309 16:03:19.880177  2833 net.cpp:122] Setting up fc_fc_0_split
I0309 16:03:19.880184  2833 net.cpp:129] Top shape: 100 1000 (100000)
I0309 16:03:19.880188  2833 net.cpp:129] Top shape: 100 1000 (100000)
I0309 16:03:19.880192  2833 net.cpp:137] Memory required for data: 2570417200
I0309 16:03:19.880195  2833 layer_factory.hpp:77] Creating layer accuracy/top-1
I0309 16:03:19.880201  2833 net.cpp:84] Creating Layer accuracy/top-1
I0309 16:03:19.880204  2833 net.cpp:406] accuracy/top-1 <- fc_fc_0_split_0
I0309 16:03:19.880210  2833 net.cpp:406] accuracy/top-1 <- label_data_1_split_0
I0309 16:03:19.880216  2833 net.cpp:380] accuracy/top-1 -> accuracy/top-1
…
