…
I0308 15:13:25.958226 30521 net.cpp:294] The NetState phase (0) differed from the phase (1) specified by a rule in layer pred
I0308 15:13:25.958231 30521 net.cpp:294] The NetState phase (0) differed from the phase (1) specified by a rule in layer prob_d8
I0308 15:13:25.958236 30521 net.cpp:294] The NetState phase (0) differed from the phase (1) specified by a rule in layer pred_d8
I0308 15:13:25.958539 30521 net.cpp:51] Initializing net from parameters: 
state {
  phase: TRAIN
  level: 0
  stage: ""
}
layer {
  name: "input"
  type: "Input"
  top: "data"
  input_param {
    shape {
      dim: 1
      dim: 3
      dim: 1024
      dim: 2048
    }
  }
}
layer {
  name: "conv1"
  type: "Convolution"
  bottom: "data"
  top: "conv1"
  convolution_param {
    num_output: 32
    bias_term: true
    pad: 1
    kernel_size: 3
    stride: 2
  }
}
layer {
  name: "conv1/relu"
  type: "ReLU"
  bottom: "conv1"
  top: "conv1"
}
layer {
  name: "conv2"
  type: "Convolution"
  bottom: "conv1"
  top: "conv2"
  convolution_param {
    num_output: 64
    bias_term: true
    pad: 1
    kernel_size: 3
    stride: 2
  }
}
layer {
  name: "conv2/relu"
  type: "ReLU"
  bottom: "conv2"
  top: "conv2"
}
layer {
  name: "res2.1.conv1"
  type: "Convolution"
  bottom: "conv2"
  top: "res2.1.conv1"
  convolution_param {
    num_output: 64
    bias_term: true
    pad: 1
    kernel_size: 3
    stride: 2
  }
}
layer {
  name: "res2.1.conv1/relu"
  type: "ReLU"
  bottom: "res2.1.conv1"
  top: "res2.1.conv1"
}
layer {
  name: "res2.1.conv2"
  type: "Convolution"
  bottom: "res2.1.conv1"
  top: "res2.1.conv2"
  convolution_param {
    num_output: 64
    bias_term: true
    pad: 1
    kernel_size: 3
    stride: 1
  }
}
layer {
  name: "res2.1.skipConv"
  type: "Convolution"
  bottom: "conv2"
  top: "res2.1.skipConv"
  convolution_param {
    num_output: 64
    bias_term: true
    pad: 0
    kernel_size: 1
    stride: 2
  }
}
layer {
  name: "res2.1.sum"
  type: "Eltwise"
  bottom: "res2.1.conv2"
  bottom: "res2.1.skipConv"
  top: "res2.1.sum"
  eltwise_param {
    operation: SUM
  }
}
layer {
  name: "res2.1.relu"
  type: "ReLU"
  bottom: "res2.1.sum"
  top: "res2.1.sum"
}
layer {
  name: "res2.2.conv1"
  type: "Convolution"
  bottom: "res2.1.sum"
  top: "res2.2.conv1"
  convolution_param {
    num_output: 64
    bias_term: true
    pad: 1
    kernel_size: 3
    stride: 1
  }
}
layer {
  name: "res2.2.conv1/relu"
  type: "ReLU"
  bottom: "res2.2.conv1"
  top: "res2.2.conv1"
}
layer {
  name: "res2.2.conv2"
  type: "Convolution"
  bottom: "res2.2.conv1"
  top: "res2.2.conv2"
  convolution_param {
    num_output: 64
    bias_term: true
    pad: 1
    kernel_size: 3
    stride: 1
  }
}
layer {
  name: "res2.2.sum"
  type: "Eltwise"
  bottom: "res2.2.conv2"
  bottom: "res2.1.sum"
  top: "res2.2.sum"
  eltwise_param {
    operation: SUM
  }
}
layer {
  name: "res2.2.relu"
  type: "ReLU"
  bottom: "res2.2.sum"
  top: "res2.2.sum"
}
layer {
  name: "res2.3.conv1"
  type: "Convolution"
  bottom: "res2.2.sum"
  top: "res2.3.conv1"
  convolution_param {
    num_output: 64
    bias_term: true
    pad: 1
    kernel_size: 3
    stride: 1
  }
}
layer {
  name: "res2.3.conv1/relu"
  type: "ReLU"
  bottom: "res2.3.conv1"
  top: "res2.3.conv1"
}
layer {
  name: "res2.3.conv2"
  type: "Convolution"
  bottom: "res2.3.conv1"
  top: "res2.3.conv2"
  convolution_param {
    num_output: 64
    bias_term: true
    pad: 1
    kernel_size: 3
    stride: 1
  }
}
layer {
  name: "res2.3.sum"
  type: "Eltwise"
  bottom: "res2.3.conv2"
  bottom: "res2.2.sum"
  top: "res2.3.sum"
  eltwise_param {
    operation: SUM
  }
}
layer {
  name: "res2.3.relu"
  type: "ReLU"
  bottom: "res2.3.sum"
  top: "res2.3.sum"
}
layer {
  name: "res3.1.conv1"
  type: "Convolution"
  bottom: "res2.3.sum"
  top: "res3.1.conv1"
  convolution_param {
    num_output: 128
    bias_term: true
    pad: 1
    kernel_size: 3
    stride: 2
  }
}
layer {
  name: "res3.1.conv1/relu"
  type: "ReLU"
  bottom: "res3.1.conv1"
  top: "res3.1.conv1"
}
layer {
  name: "res3.1.conv2"
  type: "Convolution"
  bottom: "res3.1.conv1"
  top: "res3.1.conv2"
  convolution_param {
    num_output: 128
    bias_term: true
    pad: 1
    kernel_size: 3
    stride: 1
  }
}
layer {
  name: "res3.1.skipConv"
  type: "Convolution"
  bottom: "res2.3.sum"
  top: "res3.1.skipConv"
  convolution_param {
    num_output: 128
    bias_term: true
    pad: 0
    kernel_size: 1
    stride: 2
  }
}
layer {
  name: "res3.1.sum"
  type: "Eltwise"
  bottom: "res3.1.conv2"
  bottom: "res3.1.skipConv"
  top: "res3.1.sum"
  eltwise_param {
    operation: SUM
  }
}
layer {
  name: "res3.1.relu"
  type: "ReLU"
  bottom: "res3.1.sum"
  top: "res3.1.sum"
}
layer {
  name: "res3.2.conv1"
  type: "Convolution"
  bottom: "res3.1.sum"
  top: "res3.2.conv1"
  convolution_param {
    num_output: 128
    bias_term: true
    pad: 1
    kernel_size: 3
    stride: 1
  }
}
layer {
  name: "res3.2.conv1/relu"
  type: "ReLU"
  bottom: "res3.2.conv1"
  top: "res3.2.conv1"
}
layer {
  name: "res3.2.conv2"
  type: "Convolution"
  bottom: "res3.2.conv1"
  top: "res3.2.conv2"
  convolution_param {
    num_output: 128
    bias_term: true
    pad: 1
    kernel_size: 3
    stride: 1
  }
}
layer {
  name: "res3.2.sum"
  type: "Eltwise"
  bottom: "res3.2.conv2"
  bottom: "res3.1.sum"
  top: "res3.2.sum"
  eltwise_param {
    operation: SUM
  }
}
layer {
  name: "res3.2.relu"
  type: "ReLU"
  bottom: "res3.2.sum"
  top: "res3.2.sum"
}
layer {
  name: "res3.3.conv1"
  type: "Convolution"
  bottom: "res3.2.sum"
  top: "res3.3.conv1"
  convolution_param {
    num_output: 128
    bias_term: true
    pad: 1
    kernel_size: 3
    stride: 1
  }
}
layer {
  name: "res3.3.conv1/relu"
  type: "ReLU"
  bottom: "res3.3.conv1"
  top: "res3.3.conv1"
}
layer {
  name: "res3.3.conv2"
  type: "Convolution"
  bottom: "res3.3.conv1"
  top: "res3.3.conv2"
  convolution_param {
    num_output: 128
    bias_term: true
    pad: 1
    kernel_size: 3
    stride: 1
  }
}
layer {
  name: "res3.3.sum"
  type: "Eltwise"
  bottom: "res3.3.conv2"
  bottom: "res3.2.sum"
  top: "res3.3.sum"
  eltwise_param {
    operation: SUM
  }
}
layer {
  name: "res3.3.relu"
  type: "ReLU"
  bottom: "res3.3.sum"
  top: "res3.3.sum"
}
layer {
  name: "res4.1.conv1"
  type: "Convolution"
  bottom: "res3.3.sum"
  top: "res4.1.conv1"
  convolution_param {
    num_output: 256
    bias_term: true
    pad: 1
    kernel_size: 3
    stride: 2
  }
}
layer {
  name: "res4.1.conv1/relu"
  type: "ReLU"
  bottom: "res4.1.conv1"
  top: "res4.1.conv1"
}
layer {
  name: "res4.1.conv2"
  type: "Convolution"
  bottom: "res4.1.conv1"
  top: "res4.1.conv2"
  convolution_param {
    num_output: 256
    bias_term: true
    pad: 1
    kernel_size: 3
    stride: 1
  }
}
layer {
  name: "res4.1.skipConv"
  type: "Convolution"
  bottom: "res3.3.sum"
  top: "res4.1.skipConv"
  convolution_param {
    num_output: 256
    bias_term: true
    pad: 0
    kernel_size: 1
    stride: 2
  }
}
layer {
  name: "res4.1.sum"
  type: "Eltwise"
  bottom: "res4.1.conv2"
  bottom: "res4.1.skipConv"
  top: "res4.1.sum"
  eltwise_param {
    operation: SUM
  }
}
layer {
  name: "res4.1.relu"
  type: "ReLU"
  bottom: "res4.1.sum"
  top: "res4.1.sum"
}
layer {
  name: "res4.2.conv1"
  type: "Convolution"
  bottom: "res4.1.sum"
  top: "res4.2.conv1"
  convolution_param {
    num_output: 256
    bias_term: true
    pad: 1
    kernel_size: 3
    stride: 1
  }
}
layer {
  name: "res4.2.conv1/relu"
  type: "ReLU"
  bottom: "res4.2.conv1"
  top: "res4.2.conv1"
}
layer {
  name: "res4.2.conv2"
  type: "Convolution"
  bottom: "res4.2.conv1"
  top: "res4.2.conv2"
  convolution_param {
    num_output: 256
    bias_term: true
    pad: 1
    kernel_size: 3
    stride: 1
  }
}
layer {
  name: "res4.2.sum"
  type: "Eltwise"
  bottom: "res4.2.conv2"
  bottom: "res4.1.sum"
  top: "res4.2.sum"
  eltwise_param {
    operation: SUM
  }
}
layer {
  name: "res4.2.relu"
  type: "ReLU"
  bottom: "res4.2.sum"
  top: "res4.2.sum"
}
layer {
  name: "res4.3.conv1"
  type: "Convolution"
  bottom: "res4.2.sum"
  top: "res4.3.conv1"
  convolution_param {
    num_output: 256
    bias_term: true
    pad: 1
    kernel_size: 3
    stride: 1
  }
}
layer {
  name: "res4.3.conv1/relu"
  type: "ReLU"
  bottom: "res4.3.conv1"
  top: "res4.3.conv1"
}
layer {
  name: "res4.3.conv2"
  type: "Convolution"
  bottom: "res4.3.conv1"
  top: "res4.3.conv2"
  convolution_param {
    num_output: 256
    bias_term: true
    pad: 1
    kernel_size: 3
    stride: 1
  }
}
layer {
  name: "res4.3.sum"
  type: "Eltwise"
  bottom: "res4.3.conv2"
  bottom: "res4.2.sum"
  top: "res4.3.sum"
  eltwise_param {
    operation: SUM
  }
}
layer {
  name: "res4.3.relu"
  type: "ReLU"
  bottom: "res4.3.sum"
  top: "res4.3.sum"
}
layer {
  name: "res4.4.conv1"
  type: "Convolution"
  bottom: "res4.3.sum"
  top: "res4.4.conv1"
  convolution_param {
    num_output: 512
    bias_term: true
    pad: 1
    kernel_size: 3
    stride: 1
  }
}
layer {
  name: "res4.4.conv1/relu"
  type: "ReLU"
  bottom: "res4.4.conv1"
  top: "res4.4.conv1"
}
layer {
  name: "res4.4.conv2"
  type: "Convolution"
  bottom: "res4.4.conv1"
  top: "res4.4.conv2"
  convolution_param {
    num_output: 512
    bias_term: true
    pad: 1
    kernel_size: 3
    stride: 1
  }
}
layer {
  name: "res4.4.skipConv"
  type: "Convolution"
  bottom: "res4.3.sum"
  top: "res4.4.skipConv"
  convolution_param {
    num_output: 512
    bias_term: true
    pad: 0
    kernel_size: 1
    stride: 1
  }
}
layer {
  name: "res4.4.sum"
  type: "Eltwise"
  bottom: "res4.4.conv2"
  bottom: "res4.4.skipConv"
  top: "res4.4.sum"
  eltwise_param {
    operation: SUM
  }
}
layer {
  name: "res4.4.relu"
  type: "ReLU"
  bottom: "res4.4.sum"
  top: "res4.4.sum"
}
layer {
  name: "psp.pool1"
  type: "Pooling"
  bottom: "res4.4.sum"
  top: "psp.pool1"
  pooling_param {
    pool: AVE
    kernel_size: 32
    stride: 32
  }
}
layer {
  name: "psp.pool1.conv"
  type: "Convolution"
  bottom: "psp.pool1"
  top: "psp.pool1.conv"
  convolution_param {
    num_output: 128
    bias_term: true
    pad: 0
    kernel_size: 1
    stride: 1
  }
}
layer {
  name: "psp.pool1.conv/relu"
  type: "ReLU"
  bottom: "psp.pool1.conv"
  top: "psp.pool1.conv"
}
layer {
  name: "psp.pool1.interp"
  type: "Interp"
  bottom: "psp.pool1.conv"
  top: "psp.pool1.interp"
  include {
    phase: TRAIN
  }
  interp_param {
    height: 32
    width: 64
  }
}
layer {
  name: "psp.pool2"
  type: "Pooling"
  bottom: "res4.4.sum"
  top: "psp.pool2"
  pooling_param {
    pool: AVE
    kernel_size: 16
    stride: 16
  }
}
layer {
  name: "psp.pool2.conv"
  type: "Convolution"
  bottom: "psp.pool2"
  top: "psp.pool2.conv"
  convolution_param {
    num_output: 128
    bias_term: true
    pad: 0
    kernel_size: 1
    stride: 1
  }
}
layer {
  name: "psp.pool2.conv/relu"
  type: "ReLU"
  bottom: "psp.pool2.conv"
  top: "psp.pool2.conv"
}
layer {
  name: "psp.pool2.interp"
  type: "Interp"
  bottom: "psp.pool2.conv"
  top: "psp.pool2.interp"
  include {
    phase: TRAIN
  }
  interp_param {
    height: 32
    width: 64
  }
}
layer {
  name: "psp.pool3"
  type: "Pooling"
  bottom: "res4.4.sum"
  top: "psp.pool3"
  pooling_param {
    pool: AVE
    kernel_size: 8
    stride: 8
  }
}
layer {
  name: "psp.pool3.conv"
  type: "Convolution"
  bottom: "psp.pool3"
  top: "psp.pool3.conv"
  convolution_param {
    num_output: 128
    bias_term: true
    pad: 0
    kernel_size: 1
    stride: 1
  }
}
layer {
  name: "psp.pool3.conv/relu"
  type: "ReLU"
  bottom: "psp.pool3.conv"
  top: "psp.pool3.conv"
}
layer {
  name: "psp.pool3.interp"
  type: "Interp"
  bottom: "psp.pool3.conv"
  top: "psp.pool3.interp"
  include {
    phase: TRAIN
  }
  interp_param {
    height: 32
    width: 64
  }
}
layer {
  name: "psp.pool4"
  type: "Pooling"
  bottom: "res4.4.sum"
  top: "psp.pool4"
  pooling_param {
    pool: AVE
    kernel_size: 4
    stride: 4
  }
}
layer {
  name: "psp.pool4.conv"
  type: "Convolution"
  bottom: "psp.pool4"
  top: "psp.pool4.conv"
  convolution_param {
    num_output: 128
    bias_term: true
    pad: 0
    kernel_size: 1
    stride: 1
  }
}
layer {
  name: "psp.pool4.conv/relu"
  type: "ReLU"
  bottom: "psp.pool4.conv"
  top: "psp.pool4.conv"
}
layer {
  name: "psp.pool4.interp"
  type: "Interp"
  bottom: "psp.pool4.conv"
  top: "psp.pool4.interp"
  include {
    phase: TRAIN
  }
  interp_param {
    height: 32
    width: 64
  }
}
layer {
  name: "psp.concat"
  type: "Concat"
  bottom: "res4.4.sum"
  bottom: "psp.pool1.interp"
  bottom: "psp.pool2.interp"
  bottom: "psp.pool3.interp"
  bottom: "psp.pool4.interp"
  top: "psp.concat"
}
layer {
  name: "psp.concat.conv"
  type: "Convolution"
  bottom: "psp.concat"
  top: "psp.concat.conv"
  convolution_param {
    num_output: 512
    bias_term: true
    pad: 1
    kernel_size: 3
    stride: 1
  }
}
layer {
  name: "psp.concat.conv/relu"
  type: "ReLU"
  bottom: "psp.concat.conv"
  top: "psp.concat.conv"
}
layer {
  name: "Decoder_wc3"
  type: "Convolution"
  bottom: "res2.3.sum"
  top: "Decoder_wc3"
  convolution_param {
    num_output: 19
    bias_term: true
    pad: 0
    kernel_size: 1
    stride: 1
  }
}
layer {
  name: "Decoder_wc3/relu"
  type: "ReLU"
  bottom: "Decoder_wc3"
  top: "Decoder_wc3"
}
layer {
  name: "Decoder_wc4"
  type: "Convolution"
  bottom: "res3.3.sum"
  top: "Decoder_wc4"
  convolution_param {
    num_output: 32
    bias_term: true
    pad: 0
    kernel_size: 1
    stride: 1
  }
}
layer {
  name: "Decoder_wc4/relu"
  type: "ReLU"
  bottom: "Decoder_wc4"
  top: "Decoder_wc4"
}
layer {
  name: "Decoder_wc5"
  type: "Convolution"
  bottom: "psp.concat.conv"
  top: "Decoder_wc5"
  convolution_param {
    num_output: 128
    bias_term: true
    pad: 0
    kernel_size: 1
    stride: 1
  }
}
layer {
  name: "Decoder_wc5/relu"
  type: "ReLU"
  bottom: "Decoder_wc5"
  top: "Decoder_wc5"
}
layer {
  name: "Decoder4_4.proj"
  type: "Convolution"
  bottom: "Decoder_wc5"
  top: "Decoder4_4.proj"
  convolution_param {
    num_output: 32
    bias_term: true
    pad: 0
    kernel_size: 1
    stride: 1
  }
}
layer {
  name: "Decoder4_4.proj/relu"
  type: "ReLU"
  bottom: "Decoder4_4.proj"
  top: "Decoder4_4.proj"
}
layer {
  name: "Decoder4_4.proj/up2"
  type: "Deconvolution"
  bottom: "Decoder4_4.proj"
  top: "Decoder4_4.proj/up2"
  param {
    lr_mult: 0
    decay_mult: 0
  }
  convolution_param {
    num_output: 32
    bias_term: false
    pad: 1
    kernel_size: 4
    group: 32
    stride: 2
    weight_filler {
      type: "bilinear"
    }
  }
}
layer {
  name: "Decoder4_4.concat"
  type: "Concat"
  bottom: "Decoder_wc4"
  bottom: "Decoder4_4.proj/up2"
  top: "Decoder4_4.concat"
}
layer {
  name: "Decoder4_4.conv1"
  type: "Convolution"
  bottom: "Decoder4_4.concat"
  top: "Decoder4_4.conv1"
  convolution_param {
    num_output: 32
    bias_term: true
    pad: 1
    kernel_size: 3
    stride: 1
  }
}
layer {
  name: "Decoder4_4.conv1/relu"
  type: "ReLU"
  bottom: "Decoder4_4.conv1"
  top: "Decoder4_4.conv1"
}
layer {
  name: "Decoder3_3.proj"
  type: "Convolution"
  bottom: "Decoder4_4.conv1"
  top: "Decoder3_3.proj"
  convolution_param {
    num_output: 19
    bias_term: true
    pad: 0
    kernel_size: 1
    stride: 1
  }
}
layer {
  name: "Decoder3_3.proj/relu"
  type: "ReLU"
  bottom: "Decoder3_3.proj"
  top: "Decoder3_3.proj"
}
layer {
  name: "Decoder3_3.proj/up2"
  type: "Deconvolution"
  bottom: "Decoder3_3.proj"
  top: "Decoder3_3.proj/up2"
  param {
    lr_mult: 0
    decay_mult: 0
  }
  convolution_param {
    num_output: 19
    bias_term: false
    pad: 1
    kernel_size: 4
    group: 19
    stride: 2
    weight_filler {
      type: "bilinear"
    }
  }
}
layer {
  name: "Decoder3_3.concat"
  type: "Concat"
  bottom: "Decoder_wc3"
  bottom: "Decoder3_3.proj/up2"
  top: "Decoder3_3.concat"
}
layer {
  name: "Decoder3_3.conv1"
  type: "Convolution"
  bottom: "Decoder3_3.concat"
  top: "Decoder3_3.conv1"
  convolution_param {
    num_output: 19
    bias_term: true
    pad: 1
    kernel_size: 3
    stride: 1
  }
}
layer {
  name: "Decoder3_3.conv1/relu"
  type: "ReLU"
  bottom: "Decoder3_3.conv1"
  top: "Decoder3_3.conv1"
}
layer {
  name: "Decoder_score"
  type: "Convolution"
  bottom: "Decoder3_3.conv1"
  top: "Decoder_score"
  convolution_param {
    num_output: 19
    bias_term: true
    pad: 1
    kernel_size: 3
    stride: 1
  }
}
layer {
  name: "Decoder_score.up8"
  type: "Deconvolution"
  bottom: "Decoder_score"
  top: "Decoder_score.up8"
  param {
    lr_mult: 0
    decay_mult: 0
  }
  convolution_param {
    num_output: 19
    bias_term: false
    pad: 4
    kernel_size: 16
    group: 19
    stride: 8
    weight_filler {
      type: "bilinear"
    }
  }
}
I0308 15:13:25.959221 30521 layer_factory.hpp:77] Creating layer input
I0308 15:13:25.959249 30521 net.cpp:84] Creating Layer input
I0308 15:13:25.959256 30521 net.cpp:380] input -> data
I0308 15:13:25.972735 30521 net.cpp:122] Setting up input
I0308 15:13:25.972784 30521 net.cpp:129] Top shape: 1 3 1024 2048 (6291456)
I0308 15:13:25.972795 30521 net.cpp:137] Memory required for data: 25165824
I0308 15:13:25.972810 30521 layer_factory.hpp:77] Creating layer conv1
I0308 15:13:25.972836 30521 net.cpp:84] Creating Layer conv1
I0308 15:13:25.972849 30521 net.cpp:406] conv1 <- data
I0308 15:13:25.972875 30521 net.cpp:380] conv1 -> conv1
I0308 15:13:26.493206 30521 net.cpp:122] Setting up conv1
I0308 15:13:26.493237 30521 net.cpp:129] Top shape: 1 32 512 1024 (16777216)
I0308 15:13:26.493240 30521 net.cpp:137] Memory required for data: 92274688
I0308 15:13:26.493260 30521 layer_factory.hpp:77] Creating layer conv1/relu
I0308 15:13:26.493273 30521 net.cpp:84] Creating Layer conv1/relu
I0308 15:13:26.493278 30521 net.cpp:406] conv1/relu <- conv1
I0308 15:13:26.493284 30521 net.cpp:367] conv1/relu -> conv1 (in-place)
I0308 15:13:26.493902 30521 net.cpp:122] Setting up conv1/relu
I0308 15:13:26.493919 30521 net.cpp:129] Top shape: 1 32 512 1024 (16777216)
I0308 15:13:26.493923 30521 net.cpp:137] Memory required for data: 159383552
I0308 15:13:26.493927 30521 layer_factory.hpp:77] Creating layer conv2
I0308 15:13:26.493937 30521 net.cpp:84] Creating Layer conv2
I0308 15:13:26.493939 30521 net.cpp:406] conv2 <- conv1
I0308 15:13:26.493947 30521 net.cpp:380] conv2 -> conv2
I0308 15:13:26.496975 30521 net.cpp:122] Setting up conv2
I0308 15:13:26.496994 30521 net.cpp:129] Top shape: 1 64 256 512 (8388608)
I0308 15:13:26.496997 30521 net.cpp:137] Memory required for data: 192937984
I0308 15:13:26.497006 30521 layer_factory.hpp:77] Creating layer conv2/relu
I0308 15:13:26.497015 30521 net.cpp:84] Creating Layer conv2/relu
I0308 15:13:26.497020 30521 net.cpp:406] conv2/relu <- conv2
I0308 15:13:26.497025 30521 net.cpp:367] conv2/relu -> conv2 (in-place)
I0308 15:13:26.497481 30521 net.cpp:122] Setting up conv2/relu
I0308 15:13:26.497495 30521 net.cpp:129] Top shape: 1 64 256 512 (8388608)
I0308 15:13:26.497510 30521 net.cpp:137] Memory required for data: 226492416
I0308 15:13:26.497514 30521 layer_factory.hpp:77] Creating layer conv2_conv2/relu_0_split
I0308 15:13:26.497522 30521 net.cpp:84] Creating Layer conv2_conv2/relu_0_split
I0308 15:13:26.497525 30521 net.cpp:406] conv2_conv2/relu_0_split <- conv2
I0308 15:13:26.497532 30521 net.cpp:380] conv2_conv2/relu_0_split -> conv2_conv2/relu_0_split_0
I0308 15:13:26.497539 30521 net.cpp:380] conv2_conv2/relu_0_split -> conv2_conv2/relu_0_split_1
I0308 15:13:26.497601 30521 net.cpp:122] Setting up conv2_conv2/relu_0_split
I0308 15:13:26.497609 30521 net.cpp:129] Top shape: 1 64 256 512 (8388608)
I0308 15:13:26.497617 30521 net.cpp:129] Top shape: 1 64 256 512 (8388608)
I0308 15:13:26.497619 30521 net.cpp:137] Memory required for data: 293601280
I0308 15:13:26.497623 30521 layer_factory.hpp:77] Creating layer res2.1.conv1
I0308 15:13:26.497630 30521 net.cpp:84] Creating Layer res2.1.conv1
I0308 15:13:26.497634 30521 net.cpp:406] res2.1.conv1 <- conv2_conv2/relu_0_split_0
I0308 15:13:26.497645 30521 net.cpp:380] res2.1.conv1 -> res2.1.conv1
I0308 15:13:26.499747 30521 net.cpp:122] Setting up res2.1.conv1
I0308 15:13:26.499775 30521 net.cpp:129] Top shape: 1 64 128 256 (2097152)
I0308 15:13:26.499780 30521 net.cpp:137] Memory required for data: 301989888
I0308 15:13:26.499790 30521 layer_factory.hpp:77] Creating layer res2.1.conv1/relu
I0308 15:13:26.499797 30521 net.cpp:84] Creating Layer res2.1.conv1/relu
I0308 15:13:26.499801 30521 net.cpp:406] res2.1.conv1/relu <- res2.1.conv1
I0308 15:13:26.499809 30521 net.cpp:367] res2.1.conv1/relu -> res2.1.conv1 (in-place)
I0308 15:13:26.500419 30521 net.cpp:122] Setting up res2.1.conv1/relu
I0308 15:13:26.500447 30521 net.cpp:129] Top shape: 1 64 128 256 (2097152)
I0308 15:13:26.500450 30521 net.cpp:137] Memory required for data: 310378496
I0308 15:13:26.500454 30521 layer_factory.hpp:77] Creating layer res2.1.conv2
I0308 15:13:26.500465 30521 net.cpp:84] Creating Layer res2.1.conv2
I0308 15:13:26.500469 30521 net.cpp:406] res2.1.conv2 <- res2.1.conv1
I0308 15:13:26.500478 30521 net.cpp:380] res2.1.conv2 -> res2.1.conv2
I0308 15:13:26.502532 30521 net.cpp:122] Setting up res2.1.conv2
I0308 15:13:26.502548 30521 net.cpp:129] Top shape: 1 64 128 256 (2097152)
I0308 15:13:26.502552 30521 net.cpp:137] Memory required for data: 318767104
I0308 15:13:26.502559 30521 layer_factory.hpp:77] Creating layer res2.1.skipConv
I0308 15:13:26.502568 30521 net.cpp:84] Creating Layer res2.1.skipConv
I0308 15:13:26.502573 30521 net.cpp:406] res2.1.skipConv <- conv2_conv2/relu_0_split_1
I0308 15:13:26.502578 30521 net.cpp:380] res2.1.skipConv -> res2.1.skipConv
I0308 15:13:26.505110 30521 net.cpp:122] Setting up res2.1.skipConv
I0308 15:13:26.505127 30521 net.cpp:129] Top shape: 1 64 128 256 (2097152)
I0308 15:13:26.505131 30521 net.cpp:137] Memory required for data: 327155712
I0308 15:13:26.505142 30521 layer_factory.hpp:77] Creating layer res2.1.sum
I0308 15:13:26.505151 30521 net.cpp:84] Creating Layer res2.1.sum
I0308 15:13:26.505156 30521 net.cpp:406] res2.1.sum <- res2.1.conv2
I0308 15:13:26.505161 30521 net.cpp:406] res2.1.sum <- res2.1.skipConv
I0308 15:13:26.505164 30521 net.cpp:380] res2.1.sum -> res2.1.sum
I0308 15:13:26.505214 30521 net.cpp:122] Setting up res2.1.sum
I0308 15:13:26.505223 30521 net.cpp:129] Top shape: 1 64 128 256 (2097152)
I0308 15:13:26.505225 30521 net.cpp:137] Memory required for data: 335544320
I0308 15:13:26.505228 30521 layer_factory.hpp:77] Creating layer res2.1.relu
I0308 15:13:26.505234 30521 net.cpp:84] Creating Layer res2.1.relu
I0308 15:13:26.505237 30521 net.cpp:406] res2.1.relu <- res2.1.sum
I0308 15:13:26.505242 30521 net.cpp:367] res2.1.relu -> res2.1.sum (in-place)
I0308 15:13:26.505687 30521 net.cpp:122] Setting up res2.1.relu
I0308 15:13:26.505702 30521 net.cpp:129] Top shape: 1 64 128 256 (2097152)
I0308 15:13:26.505717 30521 net.cpp:137] Memory required for data: 343932928
I0308 15:13:26.505720 30521 layer_factory.hpp:77] Creating layer res2.1.sum_res2.1.relu_0_split
I0308 15:13:26.505725 30521 net.cpp:84] Creating Layer res2.1.sum_res2.1.relu_0_split
I0308 15:13:26.505730 30521 net.cpp:406] res2.1.sum_res2.1.relu_0_split <- res2.1.sum
I0308 15:13:26.505736 30521 net.cpp:380] res2.1.sum_res2.1.relu_0_split -> res2.1.sum_res2.1.relu_0_split_0
I0308 15:13:26.505743 30521 net.cpp:380] res2.1.sum_res2.1.relu_0_split -> res2.1.sum_res2.1.relu_0_split_1
I0308 15:13:26.505789 30521 net.cpp:122] Setting up res2.1.sum_res2.1.relu_0_split
I0308 15:13:26.505796 30521 net.cpp:129] Top shape: 1 64 128 256 (2097152)
I0308 15:13:26.505812 30521 net.cpp:129] Top shape: 1 64 128 256 (2097152)
I0308 15:13:26.505816 30521 net.cpp:137] Memory required for data: 360710144
I0308 15:13:26.505820 30521 layer_factory.hpp:77] Creating layer res2.2.conv1
I0308 15:13:26.505827 30521 net.cpp:84] Creating Layer res2.2.conv1
I0308 15:13:26.505831 30521 net.cpp:406] res2.2.conv1 <- res2.1.sum_res2.1.relu_0_split_0
I0308 15:13:26.505837 30521 net.cpp:380] res2.2.conv1 -> res2.2.conv1
I0308 15:13:26.507925 30521 net.cpp:122] Setting up res2.2.conv1
I0308 15:13:26.507941 30521 net.cpp:129] Top shape: 1 64 128 256 (2097152)
I0308 15:13:26.507946 30521 net.cpp:137] Memory required for data: 369098752
I0308 15:13:26.507954 30521 layer_factory.hpp:77] Creating layer res2.2.conv1/relu
I0308 15:13:26.507961 30521 net.cpp:84] Creating Layer res2.2.conv1/relu
I0308 15:13:26.507964 30521 net.cpp:406] res2.2.conv1/relu <- res2.2.conv1
I0308 15:13:26.507969 30521 net.cpp:367] res2.2.conv1/relu -> res2.2.conv1 (in-place)
I0308 15:13:26.508584 30521 net.cpp:122] Setting up res2.2.conv1/relu
I0308 15:13:26.508599 30521 net.cpp:129] Top shape: 1 64 128 256 (2097152)
I0308 15:13:26.508615 30521 net.cpp:137] Memory required for data: 377487360
I0308 15:13:26.508618 30521 layer_factory.hpp:77] Creating layer res2.2.conv2
I0308 15:13:26.508627 30521 net.cpp:84] Creating Layer res2.2.conv2
I0308 15:13:26.508632 30521 net.cpp:406] res2.2.conv2 <- res2.2.conv1
I0308 15:13:26.508639 30521 net.cpp:380] res2.2.conv2 -> res2.2.conv2
I0308 15:13:26.511180 30521 net.cpp:122] Setting up res2.2.conv2
I0308 15:13:26.511209 30521 net.cpp:129] Top shape: 1 64 128 256 (2097152)
I0308 15:13:26.511214 30521 net.cpp:137] Memory required for data: 385875968
I0308 15:13:26.511221 30521 layer_factory.hpp:77] Creating layer res2.2.sum
I0308 15:13:26.511230 30521 net.cpp:84] Creating Layer res2.2.sum
I0308 15:13:26.511235 30521 net.cpp:406] res2.2.sum <- res2.2.conv2
I0308 15:13:26.511240 30521 net.cpp:406] res2.2.sum <- res2.1.sum_res2.1.relu_0_split_1
I0308 15:13:26.511247 30521 net.cpp:380] res2.2.sum -> res2.2.sum
I0308 15:13:26.511286 30521 net.cpp:122] Setting up res2.2.sum
I0308 15:13:26.511293 30521 net.cpp:129] Top shape: 1 64 128 256 (2097152)
I0308 15:13:26.511296 30521 net.cpp:137] Memory required for data: 394264576
I0308 15:13:26.511299 30521 layer_factory.hpp:77] Creating layer res2.2.relu
I0308 15:13:26.511306 30521 net.cpp:84] Creating Layer res2.2.relu
I0308 15:13:26.511308 30521 net.cpp:406] res2.2.relu <- res2.2.sum
I0308 15:13:26.511313 30521 net.cpp:367] res2.2.relu -> res2.2.sum (in-place)
I0308 15:13:26.511931 30521 net.cpp:122] Setting up res2.2.relu
I0308 15:13:26.511958 30521 net.cpp:129] Top shape: 1 64 128 256 (2097152)
I0308 15:13:26.511962 30521 net.cpp:137] Memory required for data: 402653184
I0308 15:13:26.511966 30521 layer_factory.hpp:77] Creating layer res2.2.sum_res2.2.relu_0_split
I0308 15:13:26.511974 30521 net.cpp:84] Creating Layer res2.2.sum_res2.2.relu_0_split
I0308 15:13:26.511978 30521 net.cpp:406] res2.2.sum_res2.2.relu_0_split <- res2.2.sum
I0308 15:13:26.511983 30521 net.cpp:380] res2.2.sum_res2.2.relu_0_split -> res2.2.sum_res2.2.relu_0_split_0
I0308 15:13:26.511991 30521 net.cpp:380] res2.2.sum_res2.2.relu_0_split -> res2.2.sum_res2.2.relu_0_split_1
I0308 15:13:26.512040 30521 net.cpp:122] Setting up res2.2.sum_res2.2.relu_0_split
I0308 15:13:26.512048 30521 net.cpp:129] Top shape: 1 64 128 256 (2097152)
I0308 15:13:26.512051 30521 net.cpp:129] Top shape: 1 64 128 256 (2097152)
I0308 15:13:26.512054 30521 net.cpp:137] Memory required for data: 419430400
I0308 15:13:26.512058 30521 layer_factory.hpp:77] Creating layer res2.3.conv1
I0308 15:13:26.512065 30521 net.cpp:84] Creating Layer res2.3.conv1
I0308 15:13:26.512069 30521 net.cpp:406] res2.3.conv1 <- res2.2.sum_res2.2.relu_0_split_0
I0308 15:13:26.512075 30521 net.cpp:380] res2.3.conv1 -> res2.3.conv1
I0308 15:13:26.514129 30521 net.cpp:122] Setting up res2.3.conv1
I0308 15:13:26.514158 30521 net.cpp:129] Top shape: 1 64 128 256 (2097152)
I0308 15:13:26.514173 30521 net.cpp:137] Memory required for data: 427819008
I0308 15:13:26.514183 30521 layer_factory.hpp:77] Creating layer res2.3.conv1/relu
I0308 15:13:26.514189 30521 net.cpp:84] Creating Layer res2.3.conv1/relu
I0308 15:13:26.514192 30521 net.cpp:406] res2.3.conv1/relu <- res2.3.conv1
I0308 15:13:26.514197 30521 net.cpp:367] res2.3.conv1/relu -> res2.3.conv1 (in-place)
I0308 15:13:26.514645 30521 net.cpp:122] Setting up res2.3.conv1/relu
I0308 15:13:26.514658 30521 net.cpp:129] Top shape: 1 64 128 256 (2097152)
I0308 15:13:26.514673 30521 net.cpp:137] Memory required for data: 436207616
I0308 15:13:26.514678 30521 layer_factory.hpp:77] Creating layer res2.3.conv2
I0308 15:13:26.514688 30521 net.cpp:84] Creating Layer res2.3.conv2
I0308 15:13:26.514693 30521 net.cpp:406] res2.3.conv2 <- res2.3.conv1
I0308 15:13:26.514698 30521 net.cpp:380] res2.3.conv2 -> res2.3.conv2
I0308 15:13:26.516968 30521 net.cpp:122] Setting up res2.3.conv2
I0308 15:13:26.516995 30521 net.cpp:129] Top shape: 1 64 128 256 (2097152)
I0308 15:13:26.517000 30521 net.cpp:137] Memory required for data: 444596224
I0308 15:13:26.517012 30521 layer_factory.hpp:77] Creating layer res2.3.sum
I0308 15:13:26.517019 30521 net.cpp:84] Creating Layer res2.3.sum
I0308 15:13:26.517024 30521 net.cpp:406] res2.3.sum <- res2.3.conv2
I0308 15:13:26.517029 30521 net.cpp:406] res2.3.sum <- res2.2.sum_res2.2.relu_0_split_1
I0308 15:13:26.517033 30521 net.cpp:380] res2.3.sum -> res2.3.sum
I0308 15:13:26.517071 30521 net.cpp:122] Setting up res2.3.sum
I0308 15:13:26.517077 30521 net.cpp:129] Top shape: 1 64 128 256 (2097152)
I0308 15:13:26.517081 30521 net.cpp:137] Memory required for data: 452984832
I0308 15:13:26.517083 30521 layer_factory.hpp:77] Creating layer res2.3.relu
I0308 15:13:26.517091 30521 net.cpp:84] Creating Layer res2.3.relu
I0308 15:13:26.517094 30521 net.cpp:406] res2.3.relu <- res2.3.sum
I0308 15:13:26.517099 30521 net.cpp:367] res2.3.relu -> res2.3.sum (in-place)
I0308 15:13:26.517709 30521 net.cpp:122] Setting up res2.3.relu
I0308 15:13:26.517724 30521 net.cpp:129] Top shape: 1 64 128 256 (2097152)
I0308 15:13:26.517740 30521 net.cpp:137] Memory required for data: 461373440
I0308 15:13:26.517743 30521 layer_factory.hpp:77] Creating layer res2.3.sum_res2.3.relu_0_split
I0308 15:13:26.517750 30521 net.cpp:84] Creating Layer res2.3.sum_res2.3.relu_0_split
I0308 15:13:26.517753 30521 net.cpp:406] res2.3.sum_res2.3.relu_0_split <- res2.3.sum
I0308 15:13:26.517761 30521 net.cpp:380] res2.3.sum_res2.3.relu_0_split -> res2.3.sum_res2.3.relu_0_split_0
I0308 15:13:26.517768 30521 net.cpp:380] res2.3.sum_res2.3.relu_0_split -> res2.3.sum_res2.3.relu_0_split_1
I0308 15:13:26.517773 30521 net.cpp:380] res2.3.sum_res2.3.relu_0_split -> res2.3.sum_res2.3.relu_0_split_2
I0308 15:13:26.517837 30521 net.cpp:122] Setting up res2.3.sum_res2.3.relu_0_split
I0308 15:13:26.517843 30521 net.cpp:129] Top shape: 1 64 128 256 (2097152)
I0308 15:13:26.517846 30521 net.cpp:129] Top shape: 1 64 128 256 (2097152)
I0308 15:13:26.517850 30521 net.cpp:129] Top shape: 1 64 128 256 (2097152)
I0308 15:13:26.517853 30521 net.cpp:137] Memory required for data: 486539264
I0308 15:13:26.517858 30521 layer_factory.hpp:77] Creating layer res3.1.conv1
I0308 15:13:26.517864 30521 net.cpp:84] Creating Layer res3.1.conv1
I0308 15:13:26.517868 30521 net.cpp:406] res3.1.conv1 <- res2.3.sum_res2.3.relu_0_split_0
I0308 15:13:26.517874 30521 net.cpp:380] res3.1.conv1 -> res3.1.conv1
I0308 15:13:26.520453 30521 net.cpp:122] Setting up res3.1.conv1
I0308 15:13:26.520481 30521 net.cpp:129] Top shape: 1 128 64 128 (1048576)
I0308 15:13:26.520485 30521 net.cpp:137] Memory required for data: 490733568
I0308 15:13:26.520493 30521 layer_factory.hpp:77] Creating layer res3.1.conv1/relu
I0308 15:13:26.520500 30521 net.cpp:84] Creating Layer res3.1.conv1/relu
I0308 15:13:26.520504 30521 net.cpp:406] res3.1.conv1/relu <- res3.1.conv1
I0308 15:13:26.520511 30521 net.cpp:367] res3.1.conv1/relu -> res3.1.conv1 (in-place)
I0308 15:13:26.520995 30521 net.cpp:122] Setting up res3.1.conv1/relu
I0308 15:13:26.521031 30521 net.cpp:129] Top shape: 1 128 64 128 (1048576)
I0308 15:13:26.521035 30521 net.cpp:137] Memory required for data: 494927872
I0308 15:13:26.521039 30521 layer_factory.hpp:77] Creating layer res3.1.conv2
I0308 15:13:26.521049 30521 net.cpp:84] Creating Layer res3.1.conv2
I0308 15:13:26.521054 30521 net.cpp:406] res3.1.conv2 <- res3.1.conv1
I0308 15:13:26.521060 30521 net.cpp:380] res3.1.conv2 -> res3.1.conv2
I0308 15:13:26.523695 30521 net.cpp:122] Setting up res3.1.conv2
I0308 15:13:26.523725 30521 net.cpp:129] Top shape: 1 128 64 128 (1048576)
I0308 15:13:26.523728 30521 net.cpp:137] Memory required for data: 499122176
I0308 15:13:26.523736 30521 layer_factory.hpp:77] Creating layer res3.1.skipConv
I0308 15:13:26.523746 30521 net.cpp:84] Creating Layer res3.1.skipConv
I0308 15:13:26.523751 30521 net.cpp:406] res3.1.skipConv <- res2.3.sum_res2.3.relu_0_split_1
I0308 15:13:26.523757 30521 net.cpp:380] res3.1.skipConv -> res3.1.skipConv
I0308 15:13:26.525806 30521 net.cpp:122] Setting up res3.1.skipConv
I0308 15:13:26.525835 30521 net.cpp:129] Top shape: 1 128 64 128 (1048576)
I0308 15:13:26.525838 30521 net.cpp:137] Memory required for data: 503316480
I0308 15:13:26.525846 30521 layer_factory.hpp:77] Creating layer res3.1.sum
I0308 15:13:26.525853 30521 net.cpp:84] Creating Layer res3.1.sum
I0308 15:13:26.525857 30521 net.cpp:406] res3.1.sum <- res3.1.conv2
I0308 15:13:26.525864 30521 net.cpp:406] res3.1.sum <- res3.1.skipConv
I0308 15:13:26.525869 30521 net.cpp:380] res3.1.sum -> res3.1.sum
I0308 15:13:26.525905 30521 net.cpp:122] Setting up res3.1.sum
I0308 15:13:26.525913 30521 net.cpp:129] Top shape: 1 128 64 128 (1048576)
I0308 15:13:26.525915 30521 net.cpp:137] Memory required for data: 507510784
I0308 15:13:26.525918 30521 layer_factory.hpp:77] Creating layer res3.1.relu
I0308 15:13:26.525924 30521 net.cpp:84] Creating Layer res3.1.relu
I0308 15:13:26.525928 30521 net.cpp:406] res3.1.relu <- res3.1.sum
I0308 15:13:26.525933 30521 net.cpp:367] res3.1.relu -> res3.1.sum (in-place)
I0308 15:13:26.526548 30521 net.cpp:122] Setting up res3.1.relu
I0308 15:13:26.526576 30521 net.cpp:129] Top shape: 1 128 64 128 (1048576)
I0308 15:13:26.526579 30521 net.cpp:137] Memory required for data: 511705088
I0308 15:13:26.526583 30521 layer_factory.hpp:77] Creating layer res3.1.sum_res3.1.relu_0_split
I0308 15:13:26.526590 30521 net.cpp:84] Creating Layer res3.1.sum_res3.1.relu_0_split
I0308 15:13:26.526594 30521 net.cpp:406] res3.1.sum_res3.1.relu_0_split <- res3.1.sum
I0308 15:13:26.526600 30521 net.cpp:380] res3.1.sum_res3.1.relu_0_split -> res3.1.sum_res3.1.relu_0_split_0
I0308 15:13:26.526607 30521 net.cpp:380] res3.1.sum_res3.1.relu_0_split -> res3.1.sum_res3.1.relu_0_split_1
I0308 15:13:26.526659 30521 net.cpp:122] Setting up res3.1.sum_res3.1.relu_0_split
I0308 15:13:26.526666 30521 net.cpp:129] Top shape: 1 128 64 128 (1048576)
I0308 15:13:26.526670 30521 net.cpp:129] Top shape: 1 128 64 128 (1048576)
I0308 15:13:26.526674 30521 net.cpp:137] Memory required for data: 520093696
I0308 15:13:26.526676 30521 layer_factory.hpp:77] Creating layer res3.2.conv1
I0308 15:13:26.526688 30521 net.cpp:84] Creating Layer res3.2.conv1
I0308 15:13:26.526692 30521 net.cpp:406] res3.2.conv1 <- res3.1.sum_res3.1.relu_0_split_0
I0308 15:13:26.526700 30521 net.cpp:380] res3.2.conv1 -> res3.2.conv1
I0308 15:13:26.529408 30521 net.cpp:122] Setting up res3.2.conv1
I0308 15:13:26.529436 30521 net.cpp:129] Top shape: 1 128 64 128 (1048576)
I0308 15:13:26.529441 30521 net.cpp:137] Memory required for data: 524288000
I0308 15:13:26.529448 30521 layer_factory.hpp:77] Creating layer res3.2.conv1/relu
I0308 15:13:26.529455 30521 net.cpp:84] Creating Layer res3.2.conv1/relu
I0308 15:13:26.529460 30521 net.cpp:406] res3.2.conv1/relu <- res3.2.conv1
I0308 15:13:26.529466 30521 net.cpp:367] res3.2.conv1/relu -> res3.2.conv1 (in-place)
I0308 15:13:26.530081 30521 net.cpp:122] Setting up res3.2.conv1/relu
I0308 15:13:26.530107 30521 net.cpp:129] Top shape: 1 128 64 128 (1048576)
I0308 15:13:26.530112 30521 net.cpp:137] Memory required for data: 528482304
I0308 15:13:26.530128 30521 layer_factory.hpp:77] Creating layer res3.2.conv2
I0308 15:13:26.530138 30521 net.cpp:84] Creating Layer res3.2.conv2
I0308 15:13:26.530143 30521 net.cpp:406] res3.2.conv2 <- res3.2.conv1
I0308 15:13:26.530150 30521 net.cpp:380] res3.2.conv2 -> res3.2.conv2
I0308 15:13:26.532830 30521 net.cpp:122] Setting up res3.2.conv2
I0308 15:13:26.532858 30521 net.cpp:129] Top shape: 1 128 64 128 (1048576)
I0308 15:13:26.532863 30521 net.cpp:137] Memory required for data: 532676608
I0308 15:13:26.532872 30521 layer_factory.hpp:77] Creating layer res3.2.sum
I0308 15:13:26.532881 30521 net.cpp:84] Creating Layer res3.2.sum
I0308 15:13:26.532886 30521 net.cpp:406] res3.2.sum <- res3.2.conv2
I0308 15:13:26.532891 30521 net.cpp:406] res3.2.sum <- res3.1.sum_res3.1.relu_0_split_1
I0308 15:13:26.532897 30521 net.cpp:380] res3.2.sum -> res3.2.sum
I0308 15:13:26.532935 30521 net.cpp:122] Setting up res3.2.sum
I0308 15:13:26.532943 30521 net.cpp:129] Top shape: 1 128 64 128 (1048576)
I0308 15:13:26.532945 30521 net.cpp:137] Memory required for data: 536870912
I0308 15:13:26.532949 30521 layer_factory.hpp:77] Creating layer res3.2.relu
I0308 15:13:26.532955 30521 net.cpp:84] Creating Layer res3.2.relu
I0308 15:13:26.532959 30521 net.cpp:406] res3.2.relu <- res3.2.sum
I0308 15:13:26.532964 30521 net.cpp:367] res3.2.relu -> res3.2.sum (in-place)
I0308 15:13:26.533423 30521 net.cpp:122] Setting up res3.2.relu
I0308 15:13:26.533437 30521 net.cpp:129] Top shape: 1 128 64 128 (1048576)
I0308 15:13:26.533452 30521 net.cpp:137] Memory required for data: 541065216
I0308 15:13:26.533455 30521 layer_factory.hpp:77] Creating layer res3.2.sum_res3.2.relu_0_split
I0308 15:13:26.533463 30521 net.cpp:84] Creating Layer res3.2.sum_res3.2.relu_0_split
I0308 15:13:26.533465 30521 net.cpp:406] res3.2.sum_res3.2.relu_0_split <- res3.2.sum
I0308 15:13:26.533471 30521 net.cpp:380] res3.2.sum_res3.2.relu_0_split -> res3.2.sum_res3.2.relu_0_split_0
I0308 15:13:26.533478 30521 net.cpp:380] res3.2.sum_res3.2.relu_0_split -> res3.2.sum_res3.2.relu_0_split_1
I0308 15:13:26.533532 30521 net.cpp:122] Setting up res3.2.sum_res3.2.relu_0_split
I0308 15:13:26.533540 30521 net.cpp:129] Top shape: 1 128 64 128 (1048576)
I0308 15:13:26.533545 30521 net.cpp:129] Top shape: 1 128 64 128 (1048576)
I0308 15:13:26.533548 30521 net.cpp:137] Memory required for data: 549453824
I0308 15:13:26.533552 30521 layer_factory.hpp:77] Creating layer res3.3.conv1
I0308 15:13:26.533560 30521 net.cpp:84] Creating Layer res3.3.conv1
I0308 15:13:26.533563 30521 net.cpp:406] res3.3.conv1 <- res3.2.sum_res3.2.relu_0_split_0
I0308 15:13:26.533569 30521 net.cpp:380] res3.3.conv1 -> res3.3.conv1
I0308 15:13:26.536268 30521 net.cpp:122] Setting up res3.3.conv1
I0308 15:13:26.536298 30521 net.cpp:129] Top shape: 1 128 64 128 (1048576)
I0308 15:13:26.536303 30521 net.cpp:137] Memory required for data: 553648128
I0308 15:13:26.536310 30521 layer_factory.hpp:77] Creating layer res3.3.conv1/relu
I0308 15:13:26.536319 30521 net.cpp:84] Creating Layer res3.3.conv1/relu
I0308 15:13:26.536322 30521 net.cpp:406] res3.3.conv1/relu <- res3.3.conv1
I0308 15:13:26.536329 30521 net.cpp:367] res3.3.conv1/relu -> res3.3.conv1 (in-place)
I0308 15:13:26.536948 30521 net.cpp:122] Setting up res3.3.conv1/relu
I0308 15:13:26.536963 30521 net.cpp:129] Top shape: 1 128 64 128 (1048576)
I0308 15:13:26.536979 30521 net.cpp:137] Memory required for data: 557842432
I0308 15:13:26.536983 30521 layer_factory.hpp:77] Creating layer res3.3.conv2
I0308 15:13:26.536993 30521 net.cpp:84] Creating Layer res3.3.conv2
I0308 15:13:26.536998 30521 net.cpp:406] res3.3.conv2 <- res3.3.conv1
I0308 15:13:26.537004 30521 net.cpp:380] res3.3.conv2 -> res3.3.conv2
I0308 15:13:26.539758 30521 net.cpp:122] Setting up res3.3.conv2
I0308 15:13:26.539788 30521 net.cpp:129] Top shape: 1 128 64 128 (1048576)
I0308 15:13:26.539791 30521 net.cpp:137] Memory required for data: 562036736
I0308 15:13:26.539800 30521 layer_factory.hpp:77] Creating layer res3.3.sum
I0308 15:13:26.539808 30521 net.cpp:84] Creating Layer res3.3.sum
I0308 15:13:26.539822 30521 net.cpp:406] res3.3.sum <- res3.3.conv2
I0308 15:13:26.539829 30521 net.cpp:406] res3.3.sum <- res3.2.sum_res3.2.relu_0_split_1
I0308 15:13:26.539835 30521 net.cpp:380] res3.3.sum -> res3.3.sum
I0308 15:13:26.539875 30521 net.cpp:122] Setting up res3.3.sum
I0308 15:13:26.539881 30521 net.cpp:129] Top shape: 1 128 64 128 (1048576)
I0308 15:13:26.539885 30521 net.cpp:137] Memory required for data: 566231040
I0308 15:13:26.539888 30521 layer_factory.hpp:77] Creating layer res3.3.relu
I0308 15:13:26.539896 30521 net.cpp:84] Creating Layer res3.3.relu
I0308 15:13:26.539899 30521 net.cpp:406] res3.3.relu <- res3.3.sum
I0308 15:13:26.539904 30521 net.cpp:367] res3.3.relu -> res3.3.sum (in-place)
I0308 15:13:26.540362 30521 net.cpp:122] Setting up res3.3.relu
I0308 15:13:26.540375 30521 net.cpp:129] Top shape: 1 128 64 128 (1048576)
I0308 15:13:26.540391 30521 net.cpp:137] Memory required for data: 570425344
I0308 15:13:26.540395 30521 layer_factory.hpp:77] Creating layer res3.3.sum_res3.3.relu_0_split
I0308 15:13:26.540401 30521 net.cpp:84] Creating Layer res3.3.sum_res3.3.relu_0_split
I0308 15:13:26.540405 30521 net.cpp:406] res3.3.sum_res3.3.relu_0_split <- res3.3.sum
I0308 15:13:26.540411 30521 net.cpp:380] res3.3.sum_res3.3.relu_0_split -> res3.3.sum_res3.3.relu_0_split_0
I0308 15:13:26.540417 30521 net.cpp:380] res3.3.sum_res3.3.relu_0_split -> res3.3.sum_res3.3.relu_0_split_1
I0308 15:13:26.540423 30521 net.cpp:380] res3.3.sum_res3.3.relu_0_split -> res3.3.sum_res3.3.relu_0_split_2
I0308 15:13:26.540493 30521 net.cpp:122] Setting up res3.3.sum_res3.3.relu_0_split
I0308 15:13:26.540499 30521 net.cpp:129] Top shape: 1 128 64 128 (1048576)
I0308 15:13:26.540504 30521 net.cpp:129] Top shape: 1 128 64 128 (1048576)
I0308 15:13:26.540508 30521 net.cpp:129] Top shape: 1 128 64 128 (1048576)
I0308 15:13:26.540510 30521 net.cpp:137] Memory required for data: 583008256
I0308 15:13:26.540514 30521 layer_factory.hpp:77] Creating layer res4.1.conv1
I0308 15:13:26.540522 30521 net.cpp:84] Creating Layer res4.1.conv1
I0308 15:13:26.540526 30521 net.cpp:406] res4.1.conv1 <- res3.3.sum_res3.3.relu_0_split_0
I0308 15:13:26.540531 30521 net.cpp:380] res4.1.conv1 -> res4.1.conv1
I0308 15:13:26.543295 30521 net.cpp:122] Setting up res4.1.conv1
I0308 15:13:26.543325 30521 net.cpp:129] Top shape: 1 256 32 64 (524288)
I0308 15:13:26.543329 30521 net.cpp:137] Memory required for data: 585105408
I0308 15:13:26.543342 30521 layer_factory.hpp:77] Creating layer res4.1.conv1/relu
I0308 15:13:26.543361 30521 net.cpp:84] Creating Layer res4.1.conv1/relu
I0308 15:13:26.543365 30521 net.cpp:406] res4.1.conv1/relu <- res4.1.conv1
I0308 15:13:26.543372 30521 net.cpp:367] res4.1.conv1/relu -> res4.1.conv1 (in-place)
I0308 15:13:26.544004 30521 net.cpp:122] Setting up res4.1.conv1/relu
I0308 15:13:26.544020 30521 net.cpp:129] Top shape: 1 256 32 64 (524288)
I0308 15:13:26.544035 30521 net.cpp:137] Memory required for data: 587202560
I0308 15:13:26.544039 30521 layer_factory.hpp:77] Creating layer res4.1.conv2
I0308 15:13:26.544047 30521 net.cpp:84] Creating Layer res4.1.conv2
I0308 15:13:26.544051 30521 net.cpp:406] res4.1.conv2 <- res4.1.conv1
I0308 15:13:26.544059 30521 net.cpp:380] res4.1.conv2 -> res4.1.conv2
I0308 15:13:26.547319 30521 net.cpp:122] Setting up res4.1.conv2
I0308 15:13:26.547350 30521 net.cpp:129] Top shape: 1 256 32 64 (524288)
I0308 15:13:26.547355 30521 net.cpp:137] Memory required for data: 589299712
I0308 15:13:26.547363 30521 layer_factory.hpp:77] Creating layer res4.1.skipConv
I0308 15:13:26.547374 30521 net.cpp:84] Creating Layer res4.1.skipConv
I0308 15:13:26.547377 30521 net.cpp:406] res4.1.skipConv <- res3.3.sum_res3.3.relu_0_split_1
I0308 15:13:26.547396 30521 net.cpp:380] res4.1.skipConv -> res4.1.skipConv
I0308 15:13:26.549382 30521 net.cpp:122] Setting up res4.1.skipConv
I0308 15:13:26.549399 30521 net.cpp:129] Top shape: 1 256 32 64 (524288)
I0308 15:13:26.549414 30521 net.cpp:137] Memory required for data: 591396864
I0308 15:13:26.549422 30521 layer_factory.hpp:77] Creating layer res4.1.sum
I0308 15:13:26.549440 30521 net.cpp:84] Creating Layer res4.1.sum
I0308 15:13:26.549445 30521 net.cpp:406] res4.1.sum <- res4.1.conv2
I0308 15:13:26.549450 30521 net.cpp:406] res4.1.sum <- res4.1.skipConv
I0308 15:13:26.549455 30521 net.cpp:380] res4.1.sum -> res4.1.sum
I0308 15:13:26.549495 30521 net.cpp:122] Setting up res4.1.sum
I0308 15:13:26.549502 30521 net.cpp:129] Top shape: 1 256 32 64 (524288)
I0308 15:13:26.549505 30521 net.cpp:137] Memory required for data: 593494016
I0308 15:13:26.549509 30521 layer_factory.hpp:77] Creating layer res4.1.relu
I0308 15:13:26.549515 30521 net.cpp:84] Creating Layer res4.1.relu
I0308 15:13:26.549520 30521 net.cpp:406] res4.1.relu <- res4.1.sum
I0308 15:13:26.549523 30521 net.cpp:367] res4.1.relu -> res4.1.sum (in-place)
I0308 15:13:26.550156 30521 net.cpp:122] Setting up res4.1.relu
I0308 15:13:26.550173 30521 net.cpp:129] Top shape: 1 256 32 64 (524288)
I0308 15:13:26.550189 30521 net.cpp:137] Memory required for data: 595591168
I0308 15:13:26.550192 30521 layer_factory.hpp:77] Creating layer res4.1.sum_res4.1.relu_0_split
I0308 15:13:26.550199 30521 net.cpp:84] Creating Layer res4.1.sum_res4.1.relu_0_split
I0308 15:13:26.550202 30521 net.cpp:406] res4.1.sum_res4.1.relu_0_split <- res4.1.sum
I0308 15:13:26.550209 30521 net.cpp:380] res4.1.sum_res4.1.relu_0_split -> res4.1.sum_res4.1.relu_0_split_0
I0308 15:13:26.550215 30521 net.cpp:380] res4.1.sum_res4.1.relu_0_split -> res4.1.sum_res4.1.relu_0_split_1
I0308 15:13:26.550272 30521 net.cpp:122] Setting up res4.1.sum_res4.1.relu_0_split
I0308 15:13:26.550281 30521 net.cpp:129] Top shape: 1 256 32 64 (524288)
I0308 15:13:26.550284 30521 net.cpp:129] Top shape: 1 256 32 64 (524288)
I0308 15:13:26.550287 30521 net.cpp:137] Memory required for data: 599785472
I0308 15:13:26.550290 30521 layer_factory.hpp:77] Creating layer res4.2.conv1
I0308 15:13:26.550299 30521 net.cpp:84] Creating Layer res4.2.conv1
I0308 15:13:26.550303 30521 net.cpp:406] res4.2.conv1 <- res4.1.sum_res4.1.relu_0_split_0
I0308 15:13:26.550309 30521 net.cpp:380] res4.2.conv1 -> res4.2.conv1
I0308 15:13:26.553555 30521 net.cpp:122] Setting up res4.2.conv1
I0308 15:13:26.553583 30521 net.cpp:129] Top shape: 1 256 32 64 (524288)
I0308 15:13:26.553587 30521 net.cpp:137] Memory required for data: 601882624
I0308 15:13:26.553596 30521 layer_factory.hpp:77] Creating layer res4.2.conv1/relu
I0308 15:13:26.553601 30521 net.cpp:84] Creating Layer res4.2.conv1/relu
I0308 15:13:26.553606 30521 net.cpp:406] res4.2.conv1/relu <- res4.2.conv1
I0308 15:13:26.553613 30521 net.cpp:367] res4.2.conv1/relu -> res4.2.conv1 (in-place)
I0308 15:13:26.554085 30521 net.cpp:122] Setting up res4.2.conv1/relu
I0308 15:13:26.554098 30521 net.cpp:129] Top shape: 1 256 32 64 (524288)
I0308 15:13:26.554113 30521 net.cpp:137] Memory required for data: 603979776
I0308 15:13:26.554117 30521 layer_factory.hpp:77] Creating layer res4.2.conv2
I0308 15:13:26.554126 30521 net.cpp:84] Creating Layer res4.2.conv2
I0308 15:13:26.554131 30521 net.cpp:406] res4.2.conv2 <- res4.2.conv1
I0308 15:13:26.554137 30521 net.cpp:380] res4.2.conv2 -> res4.2.conv2
I0308 15:13:26.557432 30521 net.cpp:122] Setting up res4.2.conv2
I0308 15:13:26.557461 30521 net.cpp:129] Top shape: 1 256 32 64 (524288)
I0308 15:13:26.557464 30521 net.cpp:137] Memory required for data: 606076928
I0308 15:13:26.557473 30521 layer_factory.hpp:77] Creating layer res4.2.sum
I0308 15:13:26.557482 30521 net.cpp:84] Creating Layer res4.2.sum
I0308 15:13:26.557487 30521 net.cpp:406] res4.2.sum <- res4.2.conv2
I0308 15:13:26.557492 30521 net.cpp:406] res4.2.sum <- res4.1.sum_res4.1.relu_0_split_1
I0308 15:13:26.557498 30521 net.cpp:380] res4.2.sum -> res4.2.sum
I0308 15:13:26.557539 30521 net.cpp:122] Setting up res4.2.sum
I0308 15:13:26.557546 30521 net.cpp:129] Top shape: 1 256 32 64 (524288)
I0308 15:13:26.557549 30521 net.cpp:137] Memory required for data: 608174080
I0308 15:13:26.557552 30521 layer_factory.hpp:77] Creating layer res4.2.relu
I0308 15:13:26.557559 30521 net.cpp:84] Creating Layer res4.2.relu
I0308 15:13:26.557562 30521 net.cpp:406] res4.2.relu <- res4.2.sum
I0308 15:13:26.557579 30521 net.cpp:367] res4.2.relu -> res4.2.sum (in-place)
I0308 15:13:26.558217 30521 net.cpp:122] Setting up res4.2.relu
I0308 15:13:26.558243 30521 net.cpp:129] Top shape: 1 256 32 64 (524288)
I0308 15:13:26.558246 30521 net.cpp:137] Memory required for data: 610271232
I0308 15:13:26.558250 30521 layer_factory.hpp:77] Creating layer res4.2.sum_res4.2.relu_0_split
I0308 15:13:26.558256 30521 net.cpp:84] Creating Layer res4.2.sum_res4.2.relu_0_split
I0308 15:13:26.558260 30521 net.cpp:406] res4.2.sum_res4.2.relu_0_split <- res4.2.sum
I0308 15:13:26.558267 30521 net.cpp:380] res4.2.sum_res4.2.relu_0_split -> res4.2.sum_res4.2.relu_0_split_0
I0308 15:13:26.558274 30521 net.cpp:380] res4.2.sum_res4.2.relu_0_split -> res4.2.sum_res4.2.relu_0_split_1
I0308 15:13:26.558331 30521 net.cpp:122] Setting up res4.2.sum_res4.2.relu_0_split
I0308 15:13:26.558339 30521 net.cpp:129] Top shape: 1 256 32 64 (524288)
I0308 15:13:26.558343 30521 net.cpp:129] Top shape: 1 256 32 64 (524288)
I0308 15:13:26.558346 30521 net.cpp:137] Memory required for data: 614465536
I0308 15:13:26.558349 30521 layer_factory.hpp:77] Creating layer res4.3.conv1
I0308 15:13:26.558357 30521 net.cpp:84] Creating Layer res4.3.conv1
I0308 15:13:26.558360 30521 net.cpp:406] res4.3.conv1 <- res4.2.sum_res4.2.relu_0_split_0
I0308 15:13:26.558367 30521 net.cpp:380] res4.3.conv1 -> res4.3.conv1
I0308 15:13:26.561652 30521 net.cpp:122] Setting up res4.3.conv1
I0308 15:13:26.561682 30521 net.cpp:129] Top shape: 1 256 32 64 (524288)
I0308 15:13:26.561687 30521 net.cpp:137] Memory required for data: 616562688
I0308 15:13:26.561695 30521 layer_factory.hpp:77] Creating layer res4.3.conv1/relu
I0308 15:13:26.561703 30521 net.cpp:84] Creating Layer res4.3.conv1/relu
I0308 15:13:26.561707 30521 net.cpp:406] res4.3.conv1/relu <- res4.3.conv1
I0308 15:13:26.561713 30521 net.cpp:367] res4.3.conv1/relu -> res4.3.conv1 (in-place)
I0308 15:13:26.562186 30521 net.cpp:122] Setting up res4.3.conv1/relu
I0308 15:13:26.562211 30521 net.cpp:129] Top shape: 1 256 32 64 (524288)
I0308 15:13:26.562214 30521 net.cpp:137] Memory required for data: 618659840
I0308 15:13:26.562218 30521 layer_factory.hpp:77] Creating layer res4.3.conv2
I0308 15:13:26.562227 30521 net.cpp:84] Creating Layer res4.3.conv2
I0308 15:13:26.562232 30521 net.cpp:406] res4.3.conv2 <- res4.3.conv1
I0308 15:13:26.562238 30521 net.cpp:380] res4.3.conv2 -> res4.3.conv2
I0308 15:13:26.565616 30521 net.cpp:122] Setting up res4.3.conv2
I0308 15:13:26.565644 30521 net.cpp:129] Top shape: 1 256 32 64 (524288)
I0308 15:13:26.565649 30521 net.cpp:137] Memory required for data: 620756992
I0308 15:13:26.565656 30521 layer_factory.hpp:77] Creating layer res4.3.sum
I0308 15:13:26.565665 30521 net.cpp:84] Creating Layer res4.3.sum
I0308 15:13:26.565670 30521 net.cpp:406] res4.3.sum <- res4.3.conv2
I0308 15:13:26.565675 30521 net.cpp:406] res4.3.sum <- res4.2.sum_res4.2.relu_0_split_1
I0308 15:13:26.565680 30521 net.cpp:380] res4.3.sum -> res4.3.sum
I0308 15:13:26.565724 30521 net.cpp:122] Setting up res4.3.sum
I0308 15:13:26.565732 30521 net.cpp:129] Top shape: 1 256 32 64 (524288)
I0308 15:13:26.565734 30521 net.cpp:137] Memory required for data: 622854144
I0308 15:13:26.565738 30521 layer_factory.hpp:77] Creating layer res4.3.relu
I0308 15:13:26.565743 30521 net.cpp:84] Creating Layer res4.3.relu
I0308 15:13:26.565747 30521 net.cpp:406] res4.3.relu <- res4.3.sum
I0308 15:13:26.565752 30521 net.cpp:367] res4.3.relu -> res4.3.sum (in-place)
I0308 15:13:26.566382 30521 net.cpp:122] Setting up res4.3.relu
I0308 15:13:26.566397 30521 net.cpp:129] Top shape: 1 256 32 64 (524288)
I0308 15:13:26.566413 30521 net.cpp:137] Memory required for data: 624951296
I0308 15:13:26.566417 30521 layer_factory.hpp:77] Creating layer res4.3.sum_res4.3.relu_0_split
I0308 15:13:26.566424 30521 net.cpp:84] Creating Layer res4.3.sum_res4.3.relu_0_split
I0308 15:13:26.566428 30521 net.cpp:406] res4.3.sum_res4.3.relu_0_split <- res4.3.sum
I0308 15:13:26.566434 30521 net.cpp:380] res4.3.sum_res4.3.relu_0_split -> res4.3.sum_res4.3.relu_0_split_0
I0308 15:13:26.566452 30521 net.cpp:380] res4.3.sum_res4.3.relu_0_split -> res4.3.sum_res4.3.relu_0_split_1
I0308 15:13:26.566514 30521 net.cpp:122] Setting up res4.3.sum_res4.3.relu_0_split
I0308 15:13:26.566521 30521 net.cpp:129] Top shape: 1 256 32 64 (524288)
I0308 15:13:26.566525 30521 net.cpp:129] Top shape: 1 256 32 64 (524288)
I0308 15:13:26.566529 30521 net.cpp:137] Memory required for data: 629145600
I0308 15:13:26.566532 30521 layer_factory.hpp:77] Creating layer res4.4.conv1
I0308 15:13:26.566540 30521 net.cpp:84] Creating Layer res4.4.conv1
I0308 15:13:26.566545 30521 net.cpp:406] res4.4.conv1 <- res4.3.sum_res4.3.relu_0_split_0
I0308 15:13:26.566550 30521 net.cpp:380] res4.4.conv1 -> res4.4.conv1
I0308 15:13:26.570720 30521 net.cpp:122] Setting up res4.4.conv1
I0308 15:13:26.570739 30521 net.cpp:129] Top shape: 1 512 32 64 (1048576)
I0308 15:13:26.570744 30521 net.cpp:137] Memory required for data: 633339904
I0308 15:13:26.570750 30521 layer_factory.hpp:77] Creating layer res4.4.conv1/relu
I0308 15:13:26.570762 30521 net.cpp:84] Creating Layer res4.4.conv1/relu
I0308 15:13:26.570767 30521 net.cpp:406] res4.4.conv1/relu <- res4.4.conv1
I0308 15:13:26.570773 30521 net.cpp:367] res4.4.conv1/relu -> res4.4.conv1 (in-place)
I0308 15:13:26.571641 30521 net.cpp:122] Setting up res4.4.conv1/relu
I0308 15:13:26.571657 30521 net.cpp:129] Top shape: 1 512 32 64 (1048576)
I0308 15:13:26.571661 30521 net.cpp:137] Memory required for data: 637534208
I0308 15:13:26.571666 30521 layer_factory.hpp:77] Creating layer res4.4.conv2
I0308 15:13:26.571674 30521 net.cpp:84] Creating Layer res4.4.conv2
I0308 15:13:26.571678 30521 net.cpp:406] res4.4.conv2 <- res4.4.conv1
I0308 15:13:26.571686 30521 net.cpp:380] res4.4.conv2 -> res4.4.conv2
I0308 15:13:26.577497 30521 net.cpp:122] Setting up res4.4.conv2
I0308 15:13:26.577515 30521 net.cpp:129] Top shape: 1 512 32 64 (1048576)
I0308 15:13:26.577519 30521 net.cpp:137] Memory required for data: 641728512
I0308 15:13:26.577527 30521 layer_factory.hpp:77] Creating layer res4.4.skipConv
I0308 15:13:26.577535 30521 net.cpp:84] Creating Layer res4.4.skipConv
I0308 15:13:26.577540 30521 net.cpp:406] res4.4.skipConv <- res4.3.sum_res4.3.relu_0_split_1
I0308 15:13:26.577546 30521 net.cpp:380] res4.4.skipConv -> res4.4.skipConv
I0308 15:13:26.580129 30521 net.cpp:122] Setting up res4.4.skipConv
I0308 15:13:26.580147 30521 net.cpp:129] Top shape: 1 512 32 64 (1048576)
I0308 15:13:26.580150 30521 net.cpp:137] Memory required for data: 645922816
I0308 15:13:26.580157 30521 layer_factory.hpp:77] Creating layer res4.4.sum
I0308 15:13:26.580165 30521 net.cpp:84] Creating Layer res4.4.sum
I0308 15:13:26.580169 30521 net.cpp:406] res4.4.sum <- res4.4.conv2
I0308 15:13:26.580174 30521 net.cpp:406] res4.4.sum <- res4.4.skipConv
I0308 15:13:26.580179 30521 net.cpp:380] res4.4.sum -> res4.4.sum
I0308 15:13:26.580231 30521 net.cpp:122] Setting up res4.4.sum
I0308 15:13:26.580238 30521 net.cpp:129] Top shape: 1 512 32 64 (1048576)
I0308 15:13:26.580242 30521 net.cpp:137] Memory required for data: 650117120
I0308 15:13:26.580245 30521 layer_factory.hpp:77] Creating layer res4.4.relu
I0308 15:13:26.580250 30521 net.cpp:84] Creating Layer res4.4.relu
I0308 15:13:26.580255 30521 net.cpp:406] res4.4.relu <- res4.4.sum
I0308 15:13:26.580260 30521 net.cpp:367] res4.4.relu -> res4.4.sum (in-place)
I0308 15:13:26.580721 30521 net.cpp:122] Setting up res4.4.relu
I0308 15:13:26.580734 30521 net.cpp:129] Top shape: 1 512 32 64 (1048576)
I0308 15:13:26.580749 30521 net.cpp:137] Memory required for data: 654311424
I0308 15:13:26.580752 30521 layer_factory.hpp:77] Creating layer res4.4.sum_res4.4.relu_0_split
I0308 15:13:26.580759 30521 net.cpp:84] Creating Layer res4.4.sum_res4.4.relu_0_split
I0308 15:13:26.580762 30521 net.cpp:406] res4.4.sum_res4.4.relu_0_split <- res4.4.sum
I0308 15:13:26.580770 30521 net.cpp:380] res4.4.sum_res4.4.relu_0_split -> res4.4.sum_res4.4.relu_0_split_0
I0308 15:13:26.580776 30521 net.cpp:380] res4.4.sum_res4.4.relu_0_split -> res4.4.sum_res4.4.relu_0_split_1
I0308 15:13:26.580794 30521 net.cpp:380] res4.4.sum_res4.4.relu_0_split -> res4.4.sum_res4.4.relu_0_split_2
I0308 15:13:26.580802 30521 net.cpp:380] res4.4.sum_res4.4.relu_0_split -> res4.4.sum_res4.4.relu_0_split_3
I0308 15:13:26.580807 30521 net.cpp:380] res4.4.sum_res4.4.relu_0_split -> res4.4.sum_res4.4.relu_0_split_4
I0308 15:13:26.580911 30521 net.cpp:122] Setting up res4.4.sum_res4.4.relu_0_split
I0308 15:13:26.580920 30521 net.cpp:129] Top shape: 1 512 32 64 (1048576)
I0308 15:13:26.580924 30521 net.cpp:129] Top shape: 1 512 32 64 (1048576)
I0308 15:13:26.580929 30521 net.cpp:129] Top shape: 1 512 32 64 (1048576)
I0308 15:13:26.580932 30521 net.cpp:129] Top shape: 1 512 32 64 (1048576)
I0308 15:13:26.580936 30521 net.cpp:129] Top shape: 1 512 32 64 (1048576)
I0308 15:13:26.580940 30521 net.cpp:137] Memory required for data: 675282944
I0308 15:13:26.580942 30521 layer_factory.hpp:77] Creating layer psp.pool1
I0308 15:13:26.580950 30521 net.cpp:84] Creating Layer psp.pool1
I0308 15:13:26.580953 30521 net.cpp:406] psp.pool1 <- res4.4.sum_res4.4.relu_0_split_0
I0308 15:13:26.580960 30521 net.cpp:380] psp.pool1 -> psp.pool1
I0308 15:13:26.581650 30521 net.cpp:122] Setting up psp.pool1
I0308 15:13:26.581679 30521 net.cpp:129] Top shape: 1 512 1 2 (1024)
I0308 15:13:26.581683 30521 net.cpp:137] Memory required for data: 675287040
I0308 15:13:26.581687 30521 layer_factory.hpp:77] Creating layer psp.pool1.conv
I0308 15:13:26.581697 30521 net.cpp:84] Creating Layer psp.pool1.conv
I0308 15:13:26.581702 30521 net.cpp:406] psp.pool1.conv <- psp.pool1
I0308 15:13:26.581708 30521 net.cpp:380] psp.pool1.conv -> psp.pool1.conv
I0308 15:13:26.584249 30521 net.cpp:122] Setting up psp.pool1.conv
I0308 15:13:26.584278 30521 net.cpp:129] Top shape: 1 128 1 2 (256)
I0308 15:13:26.584282 30521 net.cpp:137] Memory required for data: 675288064
I0308 15:13:26.584290 30521 layer_factory.hpp:77] Creating layer psp.pool1.conv/relu
I0308 15:13:26.584298 30521 net.cpp:84] Creating Layer psp.pool1.conv/relu
I0308 15:13:26.584302 30521 net.cpp:406] psp.pool1.conv/relu <- psp.pool1.conv
I0308 15:13:26.584308 30521 net.cpp:367] psp.pool1.conv/relu -> psp.pool1.conv (in-place)
I0308 15:13:26.584797 30521 net.cpp:122] Setting up psp.pool1.conv/relu
I0308 15:13:26.584810 30521 net.cpp:129] Top shape: 1 128 1 2 (256)
I0308 15:13:26.584825 30521 net.cpp:137] Memory required for data: 675289088
I0308 15:13:26.584830 30521 layer_factory.hpp:77] Creating layer psp.pool1.interp
I0308 15:13:26.584839 30521 net.cpp:84] Creating Layer psp.pool1.interp
I0308 15:13:26.584843 30521 net.cpp:406] psp.pool1.interp <- psp.pool1.conv
I0308 15:13:26.584849 30521 net.cpp:380] psp.pool1.interp -> psp.pool1.interp
I0308 15:13:26.584897 30521 net.cpp:122] Setting up psp.pool1.interp
I0308 15:13:26.584904 30521 net.cpp:129] Top shape: 1 128 32 64 (262144)
I0308 15:13:26.584908 30521 net.cpp:137] Memory required for data: 676337664
I0308 15:13:26.584910 30521 layer_factory.hpp:77] Creating layer psp.pool2
I0308 15:13:26.584918 30521 net.cpp:84] Creating Layer psp.pool2
I0308 15:13:26.584921 30521 net.cpp:406] psp.pool2 <- res4.4.sum_res4.4.relu_0_split_1
I0308 15:13:26.584928 30521 net.cpp:380] psp.pool2 -> psp.pool2
I0308 15:13:26.585594 30521 net.cpp:122] Setting up psp.pool2
I0308 15:13:26.585621 30521 net.cpp:129] Top shape: 1 512 2 4 (4096)
I0308 15:13:26.585625 30521 net.cpp:137] Memory required for data: 676354048
I0308 15:13:26.585629 30521 layer_factory.hpp:77] Creating layer psp.pool2.conv
I0308 15:13:26.585638 30521 net.cpp:84] Creating Layer psp.pool2.conv
I0308 15:13:26.585644 30521 net.cpp:406] psp.pool2.conv <- psp.pool2
I0308 15:13:26.585650 30521 net.cpp:380] psp.pool2.conv -> psp.pool2.conv
I0308 15:13:26.587741 30521 net.cpp:122] Setting up psp.pool2.conv
I0308 15:13:26.587770 30521 net.cpp:129] Top shape: 1 128 2 4 (1024)
I0308 15:13:26.587774 30521 net.cpp:137] Memory required for data: 676358144
I0308 15:13:26.587781 30521 layer_factory.hpp:77] Creating layer psp.pool2.conv/relu
I0308 15:13:26.587790 30521 net.cpp:84] Creating Layer psp.pool2.conv/relu
I0308 15:13:26.587805 30521 net.cpp:406] psp.pool2.conv/relu <- psp.pool2.conv
I0308 15:13:26.587811 30521 net.cpp:367] psp.pool2.conv/relu -> psp.pool2.conv (in-place)
I0308 15:13:26.588451 30521 net.cpp:122] Setting up psp.pool2.conv/relu
I0308 15:13:26.588480 30521 net.cpp:129] Top shape: 1 128 2 4 (1024)
I0308 15:13:26.588485 30521 net.cpp:137] Memory required for data: 676362240
I0308 15:13:26.588488 30521 layer_factory.hpp:77] Creating layer psp.pool2.interp
I0308 15:13:26.588495 30521 net.cpp:84] Creating Layer psp.pool2.interp
I0308 15:13:26.588500 30521 net.cpp:406] psp.pool2.interp <- psp.pool2.conv
I0308 15:13:26.588505 30521 net.cpp:380] psp.pool2.interp -> psp.pool2.interp
I0308 15:13:26.588551 30521 net.cpp:122] Setting up psp.pool2.interp
I0308 15:13:26.588557 30521 net.cpp:129] Top shape: 1 128 32 64 (262144)
I0308 15:13:26.588560 30521 net.cpp:137] Memory required for data: 677410816
I0308 15:13:26.588563 30521 layer_factory.hpp:77] Creating layer psp.pool3
I0308 15:13:26.588570 30521 net.cpp:84] Creating Layer psp.pool3
I0308 15:13:26.588574 30521 net.cpp:406] psp.pool3 <- res4.4.sum_res4.4.relu_0_split_2
I0308 15:13:26.588580 30521 net.cpp:380] psp.pool3 -> psp.pool3
I0308 15:13:26.589071 30521 net.cpp:122] Setting up psp.pool3
I0308 15:13:26.589084 30521 net.cpp:129] Top shape: 1 512 4 8 (16384)
I0308 15:13:26.589099 30521 net.cpp:137] Memory required for data: 677476352
I0308 15:13:26.589103 30521 layer_factory.hpp:77] Creating layer psp.pool3.conv
I0308 15:13:26.589112 30521 net.cpp:84] Creating Layer psp.pool3.conv
I0308 15:13:26.589118 30521 net.cpp:406] psp.pool3.conv <- psp.pool3
I0308 15:13:26.589123 30521 net.cpp:380] psp.pool3.conv -> psp.pool3.conv
I0308 15:13:26.591234 30521 net.cpp:122] Setting up psp.pool3.conv
I0308 15:13:26.591264 30521 net.cpp:129] Top shape: 1 128 4 8 (4096)
I0308 15:13:26.591269 30521 net.cpp:137] Memory required for data: 677492736
I0308 15:13:26.591275 30521 layer_factory.hpp:77] Creating layer psp.pool3.conv/relu
I0308 15:13:26.591282 30521 net.cpp:84] Creating Layer psp.pool3.conv/relu
I0308 15:13:26.591287 30521 net.cpp:406] psp.pool3.conv/relu <- psp.pool3.conv
I0308 15:13:26.591295 30521 net.cpp:367] psp.pool3.conv/relu -> psp.pool3.conv (in-place)
I0308 15:13:26.591969 30521 net.cpp:122] Setting up psp.pool3.conv/relu
I0308 15:13:26.591984 30521 net.cpp:129] Top shape: 1 128 4 8 (4096)
I0308 15:13:26.592000 30521 net.cpp:137] Memory required for data: 677509120
I0308 15:13:26.592005 30521 layer_factory.hpp:77] Creating layer psp.pool3.interp
I0308 15:13:26.592011 30521 net.cpp:84] Creating Layer psp.pool3.interp
I0308 15:13:26.592015 30521 net.cpp:406] psp.pool3.interp <- psp.pool3.conv
I0308 15:13:26.592023 30521 net.cpp:380] psp.pool3.interp -> psp.pool3.interp
I0308 15:13:26.592069 30521 net.cpp:122] Setting up psp.pool3.interp
I0308 15:13:26.592077 30521 net.cpp:129] Top shape: 1 128 32 64 (262144)
I0308 15:13:26.592079 30521 net.cpp:137] Memory required for data: 678557696
I0308 15:13:26.592083 30521 layer_factory.hpp:77] Creating layer psp.pool4
I0308 15:13:26.592089 30521 net.cpp:84] Creating Layer psp.pool4
I0308 15:13:26.592093 30521 net.cpp:406] psp.pool4 <- res4.4.sum_res4.4.relu_0_split_3
I0308 15:13:26.592098 30521 net.cpp:380] psp.pool4 -> psp.pool4
I0308 15:13:26.592587 30521 net.cpp:122] Setting up psp.pool4
I0308 15:13:26.592602 30521 net.cpp:129] Top shape: 1 512 8 16 (65536)
I0308 15:13:26.592617 30521 net.cpp:137] Memory required for data: 678819840
I0308 15:13:26.592620 30521 layer_factory.hpp:77] Creating layer psp.pool4.conv
I0308 15:13:26.592630 30521 net.cpp:84] Creating Layer psp.pool4.conv
I0308 15:13:26.592635 30521 net.cpp:406] psp.pool4.conv <- psp.pool4
I0308 15:13:26.592640 30521 net.cpp:380] psp.pool4.conv -> psp.pool4.conv
I0308 15:13:26.594863 30521 net.cpp:122] Setting up psp.pool4.conv
I0308 15:13:26.594880 30521 net.cpp:129] Top shape: 1 128 8 16 (16384)
I0308 15:13:26.594895 30521 net.cpp:137] Memory required for data: 678885376
I0308 15:13:26.594903 30521 layer_factory.hpp:77] Creating layer psp.pool4.conv/relu
I0308 15:13:26.594920 30521 net.cpp:84] Creating Layer psp.pool4.conv/relu
I0308 15:13:26.594926 30521 net.cpp:406] psp.pool4.conv/relu <- psp.pool4.conv
I0308 15:13:26.594933 30521 net.cpp:367] psp.pool4.conv/relu -> psp.pool4.conv (in-place)
I0308 15:13:26.595614 30521 net.cpp:122] Setting up psp.pool4.conv/relu
I0308 15:13:26.595641 30521 net.cpp:129] Top shape: 1 128 8 16 (16384)
I0308 15:13:26.595645 30521 net.cpp:137] Memory required for data: 678950912
I0308 15:13:26.595649 30521 layer_factory.hpp:77] Creating layer psp.pool4.interp
I0308 15:13:26.595659 30521 net.cpp:84] Creating Layer psp.pool4.interp
I0308 15:13:26.595662 30521 net.cpp:406] psp.pool4.interp <- psp.pool4.conv
I0308 15:13:26.595670 30521 net.cpp:380] psp.pool4.interp -> psp.pool4.interp
I0308 15:13:26.595715 30521 net.cpp:122] Setting up psp.pool4.interp
I0308 15:13:26.595722 30521 net.cpp:129] Top shape: 1 128 32 64 (262144)
I0308 15:13:26.595726 30521 net.cpp:137] Memory required for data: 679999488
I0308 15:13:26.595729 30521 layer_factory.hpp:77] Creating layer psp.concat
I0308 15:13:26.595736 30521 net.cpp:84] Creating Layer psp.concat
I0308 15:13:26.595741 30521 net.cpp:406] psp.concat <- res4.4.sum_res4.4.relu_0_split_4
I0308 15:13:26.595746 30521 net.cpp:406] psp.concat <- psp.pool1.interp
I0308 15:13:26.595751 30521 net.cpp:406] psp.concat <- psp.pool2.interp
I0308 15:13:26.595753 30521 net.cpp:406] psp.concat <- psp.pool3.interp
I0308 15:13:26.595757 30521 net.cpp:406] psp.concat <- psp.pool4.interp
I0308 15:13:26.595762 30521 net.cpp:380] psp.concat -> psp.concat
I0308 15:13:26.595799 30521 net.cpp:122] Setting up psp.concat
I0308 15:13:26.595806 30521 net.cpp:129] Top shape: 1 1024 32 64 (2097152)
I0308 15:13:26.595809 30521 net.cpp:137] Memory required for data: 688388096
I0308 15:13:26.595813 30521 layer_factory.hpp:77] Creating layer psp.concat.conv
I0308 15:13:26.595820 30521 net.cpp:84] Creating Layer psp.concat.conv
I0308 15:13:26.595824 30521 net.cpp:406] psp.concat.conv <- psp.concat
I0308 15:13:26.595829 30521 net.cpp:380] psp.concat.conv -> psp.concat.conv
I0308 15:13:26.605494 30521 net.cpp:122] Setting up psp.concat.conv
I0308 15:13:26.605525 30521 net.cpp:129] Top shape: 1 512 32 64 (1048576)
I0308 15:13:26.605528 30521 net.cpp:137] Memory required for data: 692582400
I0308 15:13:26.605536 30521 layer_factory.hpp:77] Creating layer psp.concat.conv/relu
I0308 15:13:26.605543 30521 net.cpp:84] Creating Layer psp.concat.conv/relu
I0308 15:13:26.605548 30521 net.cpp:406] psp.concat.conv/relu <- psp.concat.conv
I0308 15:13:26.605556 30521 net.cpp:367] psp.concat.conv/relu -> psp.concat.conv (in-place)
I0308 15:13:26.606204 30521 net.cpp:122] Setting up psp.concat.conv/relu
I0308 15:13:26.606220 30521 net.cpp:129] Top shape: 1 512 32 64 (1048576)
I0308 15:13:26.606235 30521 net.cpp:137] Memory required for data: 696776704
I0308 15:13:26.606240 30521 layer_factory.hpp:77] Creating layer Decoder_wc3
I0308 15:13:26.606250 30521 net.cpp:84] Creating Layer Decoder_wc3
I0308 15:13:26.606254 30521 net.cpp:406] Decoder_wc3 <- res2.3.sum_res2.3.relu_0_split_2
I0308 15:13:26.606261 30521 net.cpp:380] Decoder_wc3 -> Decoder_wc3
I0308 15:13:26.608964 30521 net.cpp:122] Setting up Decoder_wc3
I0308 15:13:26.608992 30521 net.cpp:129] Top shape: 1 19 128 256 (622592)
I0308 15:13:26.608996 30521 net.cpp:137] Memory required for data: 699267072
I0308 15:13:26.609006 30521 layer_factory.hpp:77] Creating layer Decoder_wc3/relu
I0308 15:13:26.609014 30521 net.cpp:84] Creating Layer Decoder_wc3/relu
I0308 15:13:26.609017 30521 net.cpp:406] Decoder_wc3/relu <- Decoder_wc3
I0308 15:13:26.609022 30521 net.cpp:367] Decoder_wc3/relu -> Decoder_wc3 (in-place)
I0308 15:13:26.609511 30521 net.cpp:122] Setting up Decoder_wc3/relu
I0308 15:13:26.609524 30521 net.cpp:129] Top shape: 1 19 128 256 (622592)
I0308 15:13:26.609539 30521 net.cpp:137] Memory required for data: 701757440
I0308 15:13:26.609544 30521 layer_factory.hpp:77] Creating layer Decoder_wc4
I0308 15:13:26.609555 30521 net.cpp:84] Creating Layer Decoder_wc4
I0308 15:13:26.609560 30521 net.cpp:406] Decoder_wc4 <- res3.3.sum_res3.3.relu_0_split_2
I0308 15:13:26.609577 30521 net.cpp:380] Decoder_wc4 -> Decoder_wc4
I0308 15:13:26.611733 30521 net.cpp:122] Setting up Decoder_wc4
I0308 15:13:26.611762 30521 net.cpp:129] Top shape: 1 32 64 128 (262144)
I0308 15:13:26.611766 30521 net.cpp:137] Memory required for data: 702806016
I0308 15:13:26.611784 30521 layer_factory.hpp:77] Creating layer Decoder_wc4/relu
I0308 15:13:26.611791 30521 net.cpp:84] Creating Layer Decoder_wc4/relu
I0308 15:13:26.611796 30521 net.cpp:406] Decoder_wc4/relu <- Decoder_wc4
I0308 15:13:26.611802 30521 net.cpp:367] Decoder_wc4/relu -> Decoder_wc4 (in-place)
I0308 15:13:26.612571 30521 net.cpp:122] Setting up Decoder_wc4/relu
I0308 15:13:26.612601 30521 net.cpp:129] Top shape: 1 32 64 128 (262144)
I0308 15:13:26.612604 30521 net.cpp:137] Memory required for data: 703854592
I0308 15:13:26.612608 30521 layer_factory.hpp:77] Creating layer Decoder_wc5
I0308 15:13:26.612617 30521 net.cpp:84] Creating Layer Decoder_wc5
I0308 15:13:26.612622 30521 net.cpp:406] Decoder_wc5 <- psp.concat.conv
I0308 15:13:26.612628 30521 net.cpp:380] Decoder_wc5 -> Decoder_wc5
I0308 15:13:26.614799 30521 net.cpp:122] Setting up Decoder_wc5
I0308 15:13:26.614816 30521 net.cpp:129] Top shape: 1 128 32 64 (262144)
I0308 15:13:26.614832 30521 net.cpp:137] Memory required for data: 704903168
I0308 15:13:26.614840 30521 layer_factory.hpp:77] Creating layer Decoder_wc5/relu
I0308 15:13:26.614845 30521 net.cpp:84] Creating Layer Decoder_wc5/relu
I0308 15:13:26.614850 30521 net.cpp:406] Decoder_wc5/relu <- Decoder_wc5
I0308 15:13:26.614856 30521 net.cpp:367] Decoder_wc5/relu -> Decoder_wc5 (in-place)
I0308 15:13:26.615371 30521 net.cpp:122] Setting up Decoder_wc5/relu
I0308 15:13:26.615396 30521 net.cpp:129] Top shape: 1 128 32 64 (262144)
I0308 15:13:26.615401 30521 net.cpp:137] Memory required for data: 705951744
I0308 15:13:26.615404 30521 layer_factory.hpp:77] Creating layer Decoder4_4.proj
I0308 15:13:26.615413 30521 net.cpp:84] Creating Layer Decoder4_4.proj
I0308 15:13:26.615417 30521 net.cpp:406] Decoder4_4.proj <- Decoder_wc5
I0308 15:13:26.615423 30521 net.cpp:380] Decoder4_4.proj -> Decoder4_4.proj
I0308 15:13:26.617488 30521 net.cpp:122] Setting up Decoder4_4.proj
I0308 15:13:26.617516 30521 net.cpp:129] Top shape: 1 32 32 64 (65536)
I0308 15:13:26.617521 30521 net.cpp:137] Memory required for data: 706213888
I0308 15:13:26.617527 30521 layer_factory.hpp:77] Creating layer Decoder4_4.proj/relu
I0308 15:13:26.617537 30521 net.cpp:84] Creating Layer Decoder4_4.proj/relu
I0308 15:13:26.617540 30521 net.cpp:406] Decoder4_4.proj/relu <- Decoder4_4.proj
I0308 15:13:26.617547 30521 net.cpp:367] Decoder4_4.proj/relu -> Decoder4_4.proj (in-place)
I0308 15:13:26.618211 30521 net.cpp:122] Setting up Decoder4_4.proj/relu
I0308 15:13:26.618239 30521 net.cpp:129] Top shape: 1 32 32 64 (65536)
I0308 15:13:26.618243 30521 net.cpp:137] Memory required for data: 706476032
I0308 15:13:26.618247 30521 layer_factory.hpp:77] Creating layer Decoder4_4.proj/up2
I0308 15:13:26.618257 30521 net.cpp:84] Creating Layer Decoder4_4.proj/up2
I0308 15:13:26.618261 30521 net.cpp:406] Decoder4_4.proj/up2 <- Decoder4_4.proj
I0308 15:13:26.618269 30521 net.cpp:380] Decoder4_4.proj/up2 -> Decoder4_4.proj/up2
I0308 15:13:26.673864 30521 net.cpp:122] Setting up Decoder4_4.proj/up2
I0308 15:13:26.673897 30521 net.cpp:129] Top shape: 1 32 64 128 (262144)
I0308 15:13:26.673900 30521 net.cpp:137] Memory required for data: 707524608
I0308 15:13:26.673907 30521 layer_factory.hpp:77] Creating layer Decoder4_4.concat
I0308 15:13:26.673915 30521 net.cpp:84] Creating Layer Decoder4_4.concat
I0308 15:13:26.673920 30521 net.cpp:406] Decoder4_4.concat <- Decoder_wc4
I0308 15:13:26.673926 30521 net.cpp:406] Decoder4_4.concat <- Decoder4_4.proj/up2
I0308 15:13:26.673933 30521 net.cpp:380] Decoder4_4.concat -> Decoder4_4.concat
I0308 15:13:26.673986 30521 net.cpp:122] Setting up Decoder4_4.concat
I0308 15:13:26.673995 30521 net.cpp:129] Top shape: 1 64 64 128 (524288)
I0308 15:13:26.673997 30521 net.cpp:137] Memory required for data: 709621760
I0308 15:13:26.674013 30521 layer_factory.hpp:77] Creating layer Decoder4_4.conv1
I0308 15:13:26.674022 30521 net.cpp:84] Creating Layer Decoder4_4.conv1
I0308 15:13:26.674026 30521 net.cpp:406] Decoder4_4.conv1 <- Decoder4_4.concat
I0308 15:13:26.674033 30521 net.cpp:380] Decoder4_4.conv1 -> Decoder4_4.conv1
I0308 15:13:26.676254 30521 net.cpp:122] Setting up Decoder4_4.conv1
I0308 15:13:26.676271 30521 net.cpp:129] Top shape: 1 32 64 128 (262144)
I0308 15:13:26.676287 30521 net.cpp:137] Memory required for data: 710670336
I0308 15:13:26.676295 30521 layer_factory.hpp:77] Creating layer Decoder4_4.conv1/relu
I0308 15:13:26.676301 30521 net.cpp:84] Creating Layer Decoder4_4.conv1/relu
I0308 15:13:26.676306 30521 net.cpp:406] Decoder4_4.conv1/relu <- Decoder4_4.conv1
I0308 15:13:26.676313 30521 net.cpp:367] Decoder4_4.conv1/relu -> Decoder4_4.conv1 (in-place)
I0308 15:13:26.676985 30521 net.cpp:122] Setting up Decoder4_4.conv1/relu
I0308 15:13:26.677011 30521 net.cpp:129] Top shape: 1 32 64 128 (262144)
I0308 15:13:26.677016 30521 net.cpp:137] Memory required for data: 711718912
I0308 15:13:26.677019 30521 layer_factory.hpp:77] Creating layer Decoder3_3.proj
I0308 15:13:26.677028 30521 net.cpp:84] Creating Layer Decoder3_3.proj
I0308 15:13:26.677033 30521 net.cpp:406] Decoder3_3.proj <- Decoder4_4.conv1
I0308 15:13:26.677039 30521 net.cpp:380] Decoder3_3.proj -> Decoder3_3.proj
I0308 15:13:26.679253 30521 net.cpp:122] Setting up Decoder3_3.proj
I0308 15:13:26.679270 30521 net.cpp:129] Top shape: 1 19 64 128 (155648)
I0308 15:13:26.679275 30521 net.cpp:137] Memory required for data: 712341504
I0308 15:13:26.679281 30521 layer_factory.hpp:77] Creating layer Decoder3_3.proj/relu
I0308 15:13:26.679287 30521 net.cpp:84] Creating Layer Decoder3_3.proj/relu
I0308 15:13:26.679291 30521 net.cpp:406] Decoder3_3.proj/relu <- Decoder3_3.proj
I0308 15:13:26.679296 30521 net.cpp:367] Decoder3_3.proj/relu -> Decoder3_3.proj (in-place)
I0308 15:13:26.679795 30521 net.cpp:122] Setting up Decoder3_3.proj/relu
I0308 15:13:26.679807 30521 net.cpp:129] Top shape: 1 19 64 128 (155648)
I0308 15:13:26.679822 30521 net.cpp:137] Memory required for data: 712964096
I0308 15:13:26.679826 30521 layer_factory.hpp:77] Creating layer Decoder3_3.proj/up2
I0308 15:13:26.679836 30521 net.cpp:84] Creating Layer Decoder3_3.proj/up2
I0308 15:13:26.679841 30521 net.cpp:406] Decoder3_3.proj/up2 <- Decoder3_3.proj
I0308 15:13:26.679848 30521 net.cpp:380] Decoder3_3.proj/up2 -> Decoder3_3.proj/up2
I0308 15:13:26.713959 30521 net.cpp:122] Setting up Decoder3_3.proj/up2
I0308 15:13:26.713979 30521 net.cpp:129] Top shape: 1 19 128 256 (622592)
I0308 15:13:26.713984 30521 net.cpp:137] Memory required for data: 715454464
I0308 15:13:26.713989 30521 layer_factory.hpp:77] Creating layer Decoder3_3.concat
I0308 15:13:26.713995 30521 net.cpp:84] Creating Layer Decoder3_3.concat
I0308 15:13:26.713999 30521 net.cpp:406] Decoder3_3.concat <- Decoder_wc3
I0308 15:13:26.714005 30521 net.cpp:406] Decoder3_3.concat <- Decoder3_3.proj/up2
I0308 15:13:26.714010 30521 net.cpp:380] Decoder3_3.concat -> Decoder3_3.concat
I0308 15:13:26.714078 30521 net.cpp:122] Setting up Decoder3_3.concat
I0308 15:13:26.714087 30521 net.cpp:129] Top shape: 1 38 128 256 (1245184)
I0308 15:13:26.714090 30521 net.cpp:137] Memory required for data: 720435200
I0308 15:13:26.714093 30521 layer_factory.hpp:77] Creating layer Decoder3_3.conv1
I0308 15:13:26.714102 30521 net.cpp:84] Creating Layer Decoder3_3.conv1
I0308 15:13:26.714105 30521 net.cpp:406] Decoder3_3.conv1 <- Decoder3_3.concat
I0308 15:13:26.714112 30521 net.cpp:380] Decoder3_3.conv1 -> Decoder3_3.conv1
I0308 15:13:26.716442 30521 net.cpp:122] Setting up Decoder3_3.conv1
I0308 15:13:26.716459 30521 net.cpp:129] Top shape: 1 19 128 256 (622592)
I0308 15:13:26.716464 30521 net.cpp:137] Memory required for data: 722925568
I0308 15:13:26.716470 30521 layer_factory.hpp:77] Creating layer Decoder3_3.conv1/relu
I0308 15:13:26.716476 30521 net.cpp:84] Creating Layer Decoder3_3.conv1/relu
I0308 15:13:26.716480 30521 net.cpp:406] Decoder3_3.conv1/relu <- Decoder3_3.conv1
I0308 15:13:26.716496 30521 net.cpp:367] Decoder3_3.conv1/relu -> Decoder3_3.conv1 (in-place)
I0308 15:13:26.717207 30521 net.cpp:122] Setting up Decoder3_3.conv1/relu
I0308 15:13:26.717223 30521 net.cpp:129] Top shape: 1 19 128 256 (622592)
I0308 15:13:26.717227 30521 net.cpp:137] Memory required for data: 725415936
I0308 15:13:26.717231 30521 layer_factory.hpp:77] Creating layer Decoder_score
I0308 15:13:26.717241 30521 net.cpp:84] Creating Layer Decoder_score
I0308 15:13:26.717245 30521 net.cpp:406] Decoder_score <- Decoder3_3.conv1
I0308 15:13:26.717252 30521 net.cpp:380] Decoder_score -> Decoder_score
I0308 15:13:26.719777 30521 net.cpp:122] Setting up Decoder_score
I0308 15:13:26.719794 30521 net.cpp:129] Top shape: 1 19 128 256 (622592)
I0308 15:13:26.719799 30521 net.cpp:137] Memory required for data: 727906304
I0308 15:13:26.719805 30521 layer_factory.hpp:77] Creating layer Decoder_score.up8
I0308 15:13:26.719816 30521 net.cpp:84] Creating Layer Decoder_score.up8
I0308 15:13:26.719820 30521 net.cpp:406] Decoder_score.up8 <- Decoder_score
I0308 15:13:26.719827 30521 net.cpp:380] Decoder_score.up8 -> Decoder_score.up8
I0308 15:13:26.754935 30521 net.cpp:122] Setting up Decoder_score.up8
I0308 15:13:26.754952 30521 net.cpp:129] Top shape: 1 19 1024 2048 (39845888)
I0308 15:13:26.754956 30521 net.cpp:137] Memory required for data: 887289856
I0308 15:13:26.754962 30521 net.cpp:200] Decoder_score.up8 does not need backward computation.
I0308 15:13:26.754971 30521 net.cpp:200] Decoder_score does not need backward computation.
I0308 15:13:26.754974 30521 net.cpp:200] Decoder3_3.conv1/relu does not need backward computation.
I0308 15:13:26.754977 30521 net.cpp:200] Decoder3_3.conv1 does not need backward computation.
…
