…
I0308 09:29:52.045928 16878 caffe.cpp:270] GPU device name: GeForce GTX 1080 Ti
I0308 09:29:52.386343 16878 net.cpp:51] Initializing net from parameters: 
state {
  phase: TEST
  level: 0
  stage: ""
}
layer {
  name: "data"
  type: "ImageData"
  top: "data"
  top: "label"
  include {
    phase: TEST
  }
  transform_param {
    scale: 0.008
    mirror: false
    crop_size: 224
    mean_value: 104
    mean_value: 117
    mean_value: 123
  }
  image_data_param {
    source: "/home/vip/dataset/imagenet/ILSVRC2012_val_256xN_list.txt"
    batch_size: 100
    shuffle: false
  }
}
layer {
  name: "conv1"
  type: "Convolution"
  bottom: "data"
  top: "conv1"
  convolution_param {
    num_output: 32
    bias_term: true
    pad: 1
    kernel_size: 3
    stride: 2
  }
}
layer {
  name: "conv1/relu"
  type: "ReLU"
  bottom: "conv1"
  top: "conv1"
}
layer {
  name: "conv2"
  type: "Convolution"
  bottom: "conv1"
  top: "conv2"
  convolution_param {
    num_output: 64
    bias_term: true
    pad: 1
    kernel_size: 3
    stride: 2
  }
}
layer {
  name: "conv2/relu"
  type: "ReLU"
  bottom: "conv2"
  top: "conv2"
}
layer {
  name: "res2.1.conv1"
  type: "Convolution"
  bottom: "conv2"
  top: "res2.1.conv1"
  convolution_param {
    num_output: 64
    bias_term: true
    pad: 1
    kernel_size: 3
    stride: 2
  }
}
layer {
  name: "res2.1.conv1/relu"
  type: "ReLU"
  bottom: "res2.1.conv1"
  top: "res2.1.conv1"
}
layer {
  name: "res2.1.conv2"
  type: "Convolution"
  bottom: "res2.1.conv1"
  top: "res2.1.conv2"
  convolution_param {
    num_output: 64
    bias_term: true
    pad: 1
    kernel_size: 3
    stride: 1
  }
}
layer {
  name: "res2.1.skipConv"
  type: "Convolution"
  bottom: "conv2"
  top: "res2.1.skipConv"
  convolution_param {
    num_output: 64
    bias_term: true
    pad: 0
    kernel_size: 1
    stride: 2
  }
}
layer {
  name: "res2.1.sum"
  type: "Eltwise"
  bottom: "res2.1.conv2"
  bottom: "res2.1.skipConv"
  top: "res2.1.sum"
  eltwise_param {
    operation: SUM
  }
}
layer {
  name: "res2.1.relu"
  type: "ReLU"
  bottom: "res2.1.sum"
  top: "res2.1.sum"
}
layer {
  name: "res2.2.conv1"
  type: "Convolution"
  bottom: "res2.1.sum"
  top: "res2.2.conv1"
  convolution_param {
    num_output: 64
    bias_term: true
    pad: 1
    kernel_size: 3
    stride: 1
  }
}
layer {
  name: "res2.2.conv1/relu"
  type: "ReLU"
  bottom: "res2.2.conv1"
  top: "res2.2.conv1"
}
layer {
  name: "res2.2.conv2"
  type: "Convolution"
  bottom: "res2.2.conv1"
  top: "res2.2.conv2"
  convolution_param {
    num_output: 64
    bias_term: true
    pad: 1
    kernel_size: 3
    stride: 1
  }
}
layer {
  name: "res2.2.sum"
  type: "Eltwise"
  bottom: "res2.2.conv2"
  bottom: "res2.1.sum"
  top: "res2.2.sum"
  eltwise_param {
    operation: SUM
  }
}
layer {
  name: "res2.2.relu"
  type: "ReLU"
  bottom: "res2.2.sum"
  top: "res2.2.sum"
}
layer {
  name: "res2.3.conv1"
  type: "Convolution"
  bottom: "res2.2.sum"
  top: "res2.3.conv1"
  convolution_param {
    num_output: 128
    bias_term: true
    pad: 1
    kernel_size: 3
    stride: 1
  }
}
layer {
  name: "res2.3.conv1/relu"
  type: "ReLU"
  bottom: "res2.3.conv1"
  top: "res2.3.conv1"
}
layer {
  name: "res2.3.conv2"
  type: "Convolution"
  bottom: "res2.3.conv1"
  top: "res2.3.conv2"
  convolution_param {
    num_output: 128
    bias_term: true
    pad: 1
    kernel_size: 3
    stride: 1
  }
}
layer {
  name: "res2.3.skipConv"
  type: "Convolution"
  bottom: "res2.2.sum"
  top: "res2.3.skipConv"
  convolution_param {
    num_output: 128
    bias_term: true
    pad: 0
    kernel_size: 1
    stride: 1
  }
}
layer {
  name: "res2.3.sum"
  type: "Eltwise"
  bottom: "res2.3.conv2"
  bottom: "res2.3.skipConv"
  top: "res2.3.sum"
  eltwise_param {
    operation: SUM
  }
}
layer {
  name: "res2.3.relu"
  type: "ReLU"
  bottom: "res2.3.sum"
  top: "res2.3.sum"
}
layer {
  name: "res3.1.conv1"
  type: "Convolution"
  bottom: "res2.3.sum"
  top: "res3.1.conv1"
  convolution_param {
    num_output: 128
    bias_term: true
    pad: 0
    kernel_size: 1
    stride: 1
  }
}
layer {
  name: "res3.1.conv1/relu"
  type: "ReLU"
  bottom: "res3.1.conv1"
  top: "res3.1.conv1"
}
layer {
  name: "res3.1.conv2"
  type: "Convolution"
  bottom: "res3.1.conv1"
  top: "res3.1.conv2"
  convolution_param {
    num_output: 128
    bias_term: true
    pad: 1
    kernel_size: 3
    stride: 2
  }
}
layer {
  name: "res3.1.conv2/relu"
  type: "ReLU"
  bottom: "res3.1.conv2"
  top: "res3.1.conv2"
}
layer {
  name: "res3.1.conv3"
  type: "Convolution"
  bottom: "res3.1.conv2"
  top: "res3.1.conv3"
  convolution_param {
    num_output: 512
    bias_term: true
    pad: 0
    kernel_size: 1
    stride: 1
  }
}
layer {
  name: "res3.1.skipConv"
  type: "Convolution"
  bottom: "res2.3.sum"
  top: "res3.1.skipConv"
  convolution_param {
    num_output: 512
    bias_term: true
    pad: 0
    kernel_size: 1
    stride: 2
  }
}
layer {
  name: "res3.1.sum"
  type: "Eltwise"
  bottom: "res3.1.conv3"
  bottom: "res3.1.skipConv"
  top: "res3.1.sum"
  eltwise_param {
    operation: SUM
  }
}
layer {
  name: "res3.1.relu"
  type: "ReLU"
  bottom: "res3.1.sum"
  top: "res3.1.sum"
}
layer {
  name: "res3.2.conv1"
  type: "Convolution"
  bottom: "res3.1.sum"
  top: "res3.2.conv1"
  convolution_param {
    num_output: 128
    bias_term: true
    pad: 0
    kernel_size: 1
    stride: 1
  }
}
layer {
  name: "res3.2.conv1/relu"
  type: "ReLU"
  bottom: "res3.2.conv1"
  top: "res3.2.conv1"
}
layer {
  name: "res3.2.conv2"
  type: "Convolution"
  bottom: "res3.2.conv1"
  top: "res3.2.conv2"
  convolution_param {
    num_output: 128
    bias_term: true
    pad: 1
    kernel_size: 3
    stride: 1
  }
}
layer {
  name: "res3.2.conv2/relu"
  type: "ReLU"
  bottom: "res3.2.conv2"
  top: "res3.2.conv2"
}
layer {
  name: "res3.2.conv3"
  type: "Convolution"
  bottom: "res3.2.conv2"
  top: "res3.2.conv3"
  convolution_param {
    num_output: 512
    bias_term: true
    pad: 0
    kernel_size: 1
    stride: 1
  }
}
layer {
  name: "res3.2.sum"
  type: "Eltwise"
  bottom: "res3.2.conv3"
  bottom: "res3.1.sum"
  top: "res3.2.sum"
  eltwise_param {
    operation: SUM
  }
}
layer {
  name: "res3.2.relu"
  type: "ReLU"
  bottom: "res3.2.sum"
  top: "res3.2.sum"
}
layer {
  name: "res3.3.conv1"
  type: "Convolution"
  bottom: "res3.2.sum"
  top: "res3.3.conv1"
  convolution_param {
    num_output: 128
    bias_term: true
    pad: 0
    kernel_size: 1
    stride: 1
  }
}
layer {
  name: "res3.3.conv1/relu"
  type: "ReLU"
  bottom: "res3.3.conv1"
  top: "res3.3.conv1"
}
layer {
  name: "res3.3.conv2"
  type: "Convolution"
  bottom: "res3.3.conv1"
  top: "res3.3.conv2"
  convolution_param {
    num_output: 128
    bias_term: true
    pad: 1
    kernel_size: 3
    stride: 1
  }
}
layer {
  name: "res3.3.conv2/relu"
  type: "ReLU"
  bottom: "res3.3.conv2"
  top: "res3.3.conv2"
}
layer {
  name: "res3.3.conv3"
  type: "Convolution"
  bottom: "res3.3.conv2"
  top: "res3.3.conv3"
  convolution_param {
    num_output: 512
    bias_term: true
    pad: 0
    kernel_size: 1
    stride: 1
  }
}
layer {
  name: "res3.3.sum"
  type: "Eltwise"
  bottom: "res3.3.conv3"
  bottom: "res3.2.sum"
  top: "res3.3.sum"
  eltwise_param {
    operation: SUM
  }
}
layer {
  name: "res3.3.relu"
  type: "ReLU"
  bottom: "res3.3.sum"
  top: "res3.3.sum"
}
layer {
  name: "res3.4.conv1"
  type: "Convolution"
  bottom: "res3.3.sum"
  top: "res3.4.conv1"
  convolution_param {
    num_output: 128
    bias_term: true
    pad: 0
    kernel_size: 1
    stride: 1
  }
}
layer {
  name: "res3.4.conv1/relu"
  type: "ReLU"
  bottom: "res3.4.conv1"
  top: "res3.4.conv1"
}
layer {
  name: "res3.4.conv2"
  type: "Convolution"
  bottom: "res3.4.conv1"
  top: "res3.4.conv2"
  convolution_param {
    num_output: 128
    bias_term: true
    pad: 1
    kernel_size: 3
    stride: 1
  }
}
layer {
  name: "res3.4.conv2/relu"
  type: "ReLU"
  bottom: "res3.4.conv2"
  top: "res3.4.conv2"
}
layer {
  name: "res3.4.conv3"
  type: "Convolution"
  bottom: "res3.4.conv2"
  top: "res3.4.conv3"
  convolution_param {
    num_output: 512
    bias_term: true
    pad: 0
    kernel_size: 1
    stride: 1
  }
}
layer {
  name: "res3.4.sum"
  type: "Eltwise"
  bottom: "res3.4.conv3"
  bottom: "res3.3.sum"
  top: "res3.4.sum"
  eltwise_param {
    operation: SUM
  }
}
layer {
  name: "res3.4.relu"
  type: "ReLU"
  bottom: "res3.4.sum"
  top: "res3.4.sum"
}
layer {
  name: "res3.5.conv1"
  type: "Convolution"
  bottom: "res3.4.sum"
  top: "res3.5.conv1"
  convolution_param {
    num_output: 128
    bias_term: true
    pad: 0
    kernel_size: 1
    stride: 1
  }
}
layer {
  name: "res3.5.conv1/relu"
  type: "ReLU"
  bottom: "res3.5.conv1"
  top: "res3.5.conv1"
}
layer {
  name: "res3.5.conv2"
  type: "Convolution"
  bottom: "res3.5.conv1"
  top: "res3.5.conv2"
  convolution_param {
    num_output: 128
    bias_term: true
    pad: 1
    kernel_size: 3
    stride: 1
  }
}
layer {
  name: "res3.5.conv2/relu"
  type: "ReLU"
  bottom: "res3.5.conv2"
  top: "res3.5.conv2"
}
layer {
  name: "res3.5.conv3"
  type: "Convolution"
  bottom: "res3.5.conv2"
  top: "res3.5.conv3"
  convolution_param {
    num_output: 512
    bias_term: true
    pad: 0
    kernel_size: 1
    stride: 1
  }
}
layer {
  name: "res3.5.sum"
  type: "Eltwise"
  bottom: "res3.5.conv3"
  bottom: "res3.4.sum"
  top: "res3.5.sum"
  eltwise_param {
    operation: SUM
  }
}
layer {
  name: "res3.5.relu"
  type: "ReLU"
  bottom: "res3.5.sum"
  top: "res3.5.sum"
}
layer {
  name: "res3.6.conv1"
  type: "Convolution"
  bottom: "res3.5.sum"
  top: "res3.6.conv1"
  convolution_param {
    num_output: 128
    bias_term: true
    pad: 0
    kernel_size: 1
    stride: 1
  }
}
layer {
  name: "res3.6.conv1/relu"
  type: "ReLU"
  bottom: "res3.6.conv1"
  top: "res3.6.conv1"
}
layer {
  name: "res3.6.conv2"
  type: "Convolution"
  bottom: "res3.6.conv1"
  top: "res3.6.conv2"
  convolution_param {
    num_output: 128
    bias_term: true
    pad: 1
    kernel_size: 3
    stride: 1
  }
}
layer {
  name: "res3.6.conv2/relu"
  type: "ReLU"
  bottom: "res3.6.conv2"
  top: "res3.6.conv2"
}
layer {
  name: "res3.6.conv3"
  type: "Convolution"
  bottom: "res3.6.conv2"
  top: "res3.6.conv3"
  convolution_param {
    num_output: 512
    bias_term: true
    pad: 0
    kernel_size: 1
    stride: 1
  }
}
layer {
  name: "res3.6.sum"
  type: "Eltwise"
  bottom: "res3.6.conv3"
  bottom: "res3.5.sum"
  top: "res3.6.sum"
  eltwise_param {
    operation: SUM
  }
}
layer {
  name: "res3.6.relu"
  type: "ReLU"
  bottom: "res3.6.sum"
  top: "res3.6.sum"
}
layer {
  name: "res3.7.conv1"
  type: "Convolution"
  bottom: "res3.6.sum"
  top: "res3.7.conv1"
  convolution_param {
    num_output: 128
    bias_term: true
    pad: 0
    kernel_size: 1
    stride: 1
  }
}
layer {
  name: "res3.7.conv1/relu"
  type: "ReLU"
  bottom: "res3.7.conv1"
  top: "res3.7.conv1"
}
layer {
  name: "res3.7.conv2"
  type: "Convolution"
  bottom: "res3.7.conv1"
  top: "res3.7.conv2"
  convolution_param {
    num_output: 128
    bias_term: true
    pad: 1
    kernel_size: 3
    stride: 1
  }
}
layer {
  name: "res3.7.conv2/relu"
  type: "ReLU"
  bottom: "res3.7.conv2"
  top: "res3.7.conv2"
}
layer {
  name: "res3.7.conv3"
  type: "Convolution"
  bottom: "res3.7.conv2"
  top: "res3.7.conv3"
  convolution_param {
    num_output: 512
    bias_term: true
    pad: 0
    kernel_size: 1
    stride: 1
  }
}
layer {
  name: "res3.7.sum"
  type: "Eltwise"
  bottom: "res3.7.conv3"
  bottom: "res3.6.sum"
  top: "res3.7.sum"
  eltwise_param {
    operation: SUM
  }
}
layer {
  name: "res3.7.relu"
  type: "ReLU"
  bottom: "res3.7.sum"
  top: "res3.7.sum"
}
layer {
  name: "res3.8.conv1"
  type: "Convolution"
  bottom: "res3.7.sum"
  top: "res3.8.conv1"
  convolution_param {
    num_output: 128
    bias_term: true
    pad: 0
    kernel_size: 1
    stride: 1
  }
}
layer {
  name: "res3.8.conv1/relu"
  type: "ReLU"
  bottom: "res3.8.conv1"
  top: "res3.8.conv1"
}
layer {
  name: "res3.8.conv2"
  type: "Convolution"
  bottom: "res3.8.conv1"
  top: "res3.8.conv2"
  convolution_param {
    num_output: 128
    bias_term: true
    pad: 1
    kernel_size: 3
    stride: 1
  }
}
layer {
  name: "res3.8.conv2/relu"
  type: "ReLU"
  bottom: "res3.8.conv2"
  top: "res3.8.conv2"
}
layer {
  name: "res3.8.conv3"
  type: "Convolution"
  bottom: "res3.8.conv2"
  top: "res3.8.conv3"
  convolution_param {
    num_output: 512
    bias_term: true
    pad: 0
    kernel_size: 1
    stride: 1
  }
}
layer {
  name: "res3.8.sum"
  type: "Eltwise"
  bottom: "res3.8.conv3"
  bottom: "res3.7.sum"
  top: "res3.8.sum"
  eltwise_param {
    operation: SUM
  }
}
layer {
  name: "res3.8.relu"
  type: "ReLU"
  bottom: "res3.8.sum"
  top: "res3.8.sum"
}
layer {
  name: "res3.9.conv1"
  type: "Convolution"
  bottom: "res3.8.sum"
  top: "res3.9.conv1"
  convolution_param {
    num_output: 128
    bias_term: true
    pad: 0
    kernel_size: 1
    stride: 1
  }
}
layer {
  name: "res3.9.conv1/relu"
  type: "ReLU"
  bottom: "res3.9.conv1"
  top: "res3.9.conv1"
}
layer {
  name: "res3.9.conv2"
  type: "Convolution"
  bottom: "res3.9.conv1"
  top: "res3.9.conv2"
  convolution_param {
    num_output: 128
    bias_term: true
    pad: 1
    kernel_size: 3
    stride: 1
  }
}
layer {
  name: "res3.9.conv2/relu"
  type: "ReLU"
  bottom: "res3.9.conv2"
  top: "res3.9.conv2"
}
layer {
  name: "res3.9.conv3"
  type: "Convolution"
  bottom: "res3.9.conv2"
  top: "res3.9.conv3"
  convolution_param {
    num_output: 512
    bias_term: true
    pad: 0
    kernel_size: 1
    stride: 1
  }
}
layer {
  name: "res3.9.sum"
  type: "Eltwise"
  bottom: "res3.9.conv3"
  bottom: "res3.8.sum"
  top: "res3.9.sum"
  eltwise_param {
    operation: SUM
  }
}
layer {
  name: "res3.9.relu"
  type: "ReLU"
  bottom: "res3.9.sum"
  top: "res3.9.sum"
}
layer {
  name: "res3.10.conv1"
  type: "Convolution"
  bottom: "res3.9.sum"
  top: "res3.10.conv1"
  convolution_param {
    num_output: 128
    bias_term: true
    pad: 0
    kernel_size: 1
    stride: 1
  }
}
layer {
  name: "res3.10.conv1/relu"
  type: "ReLU"
  bottom: "res3.10.conv1"
  top: "res3.10.conv1"
}
layer {
  name: "res3.10.conv2"
  type: "Convolution"
  bottom: "res3.10.conv1"
  top: "res3.10.conv2"
  convolution_param {
    num_output: 128
    bias_term: true
    pad: 1
    kernel_size: 3
    stride: 1
  }
}
layer {
  name: "res3.10.conv2/relu"
  type: "ReLU"
  bottom: "res3.10.conv2"
  top: "res3.10.conv2"
}
layer {
  name: "res3.10.conv3"
  type: "Convolution"
  bottom: "res3.10.conv2"
  top: "res3.10.conv3"
  convolution_param {
    num_output: 512
    bias_term: true
    pad: 0
    kernel_size: 1
    stride: 1
  }
}
layer {
  name: "res3.10.sum"
  type: "Eltwise"
  bottom: "res3.10.conv3"
  bottom: "res3.9.sum"
  top: "res3.10.sum"
  eltwise_param {
    operation: SUM
  }
}
layer {
  name: "res3.10.relu"
  type: "ReLU"
  bottom: "res3.10.sum"
  top: "res3.10.sum"
}
layer {
  name: "res3.11.conv1"
  type: "Convolution"
  bottom: "res3.10.sum"
  top: "res3.11.conv1"
  convolution_param {
    num_output: 256
    bias_term: true
    pad: 0
    kernel_size: 1
    stride: 1
  }
}
layer {
  name: "res3.11.conv1/relu"
  type: "ReLU"
  bottom: "res3.11.conv1"
  top: "res3.11.conv1"
}
layer {
  name: "res3.11.conv2"
  type: "Convolution"
  bottom: "res3.11.conv1"
  top: "res3.11.conv2"
  convolution_param {
    num_output: 256
    bias_term: true
    pad: 1
    kernel_size: 3
    stride: 1
  }
}
layer {
  name: "res3.11.conv2/relu"
  type: "ReLU"
  bottom: "res3.11.conv2"
  top: "res3.11.conv2"
}
layer {
  name: "res3.11.conv3"
  type: "Convolution"
  bottom: "res3.11.conv2"
  top: "res3.11.conv3"
  convolution_param {
    num_output: 1024
    bias_term: true
    pad: 0
    kernel_size: 1
    stride: 1
  }
}
layer {
  name: "res3.11.skipConv"
  type: "Convolution"
  bottom: "res3.10.sum"
  top: "res3.11.skipConv"
  convolution_param {
    num_output: 1024
    bias_term: true
    pad: 0
    kernel_size: 1
    stride: 1
  }
}
layer {
  name: "res3.11.sum"
  type: "Eltwise"
  bottom: "res3.11.conv3"
  bottom: "res3.11.skipConv"
  top: "res3.11.sum"
  eltwise_param {
    operation: SUM
  }
}
layer {
  name: "res3.11.relu"
  type: "ReLU"
  bottom: "res3.11.sum"
  top: "res3.11.sum"
}
layer {
  name: "res4.1.conv1"
  type: "Convolution"
  bottom: "res3.11.sum"
  top: "res4.1.conv1"
  convolution_param {
    num_output: 256
    bias_term: true
    pad: 0
    kernel_size: 1
    stride: 1
  }
}
layer {
  name: "res4.1.conv1/relu"
  type: "ReLU"
  bottom: "res4.1.conv1"
  top: "res4.1.conv1"
}
layer {
  name: "res4.1.conv2"
  type: "Convolution"
  bottom: "res4.1.conv1"
  top: "res4.1.conv2"
  convolution_param {
    num_output: 256
    bias_term: true
    pad: 1
    kernel_size: 3
    stride: 2
  }
}
layer {
  name: "res4.1.conv2/relu"
  type: "ReLU"
  bottom: "res4.1.conv2"
  top: "res4.1.conv2"
}
layer {
  name: "res4.1.conv3"
  type: "Convolution"
  bottom: "res4.1.conv2"
  top: "res4.1.conv3"
  convolution_param {
    num_output: 1024
    bias_term: true
    pad: 0
    kernel_size: 1
    stride: 1
  }
}
layer {
  name: "res4.1.skipConv"
  type: "Convolution"
  bottom: "res3.11.sum"
  top: "res4.1.skipConv"
  convolution_param {
    num_output: 1024
    bias_term: true
    pad: 0
    kernel_size: 1
    stride: 2
  }
}
layer {
  name: "res4.1.sum"
  type: "Eltwise"
  bottom: "res4.1.conv3"
  bottom: "res4.1.skipConv"
  top: "res4.1.sum"
  eltwise_param {
    operation: SUM
  }
}
layer {
  name: "res4.1.relu"
  type: "ReLU"
  bottom: "res4.1.sum"
  top: "res4.1.sum"
}
layer {
  name: "res4.2.conv1"
  type: "Convolution"
  bottom: "res4.1.sum"
  top: "res4.2.conv1"
  convolution_param {
    num_output: 256
    bias_term: true
    pad: 0
    kernel_size: 1
    stride: 1
  }
}
layer {
  name: "res4.2.conv1/relu"
  type: "ReLU"
  bottom: "res4.2.conv1"
  top: "res4.2.conv1"
}
layer {
  name: "res4.2.conv2"
  type: "Convolution"
  bottom: "res4.2.conv1"
  top: "res4.2.conv2"
  convolution_param {
    num_output: 256
    bias_term: true
    pad: 1
    kernel_size: 3
    stride: 1
  }
}
layer {
  name: "res4.2.conv2/relu"
  type: "ReLU"
  bottom: "res4.2.conv2"
  top: "res4.2.conv2"
}
layer {
  name: "res4.2.conv3"
  type: "Convolution"
  bottom: "res4.2.conv2"
  top: "res4.2.conv3"
  convolution_param {
    num_output: 1024
    bias_term: true
    pad: 0
    kernel_size: 1
    stride: 1
  }
}
layer {
  name: "res4.2.sum"
  type: "Eltwise"
  bottom: "res4.2.conv3"
  bottom: "res4.1.sum"
  top: "res4.2.sum"
  eltwise_param {
    operation: SUM
  }
}
layer {
  name: "res4.2.relu"
  type: "ReLU"
  bottom: "res4.2.sum"
  top: "res4.2.sum"
}
layer {
  name: "res4.3.conv1"
  type: "Convolution"
  bottom: "res4.2.sum"
  top: "res4.3.conv1"
  convolution_param {
    num_output: 256
    bias_term: true
    pad: 0
    kernel_size: 1
    stride: 1
  }
}
layer {
  name: "res4.3.conv1/relu"
  type: "ReLU"
  bottom: "res4.3.conv1"
  top: "res4.3.conv1"
}
layer {
  name: "res4.3.conv2"
  type: "Convolution"
  bottom: "res4.3.conv1"
  top: "res4.3.conv2"
  convolution_param {
    num_output: 256
    bias_term: true
    pad: 1
    kernel_size: 3
    stride: 1
  }
}
layer {
  name: "res4.3.conv2/relu"
  type: "ReLU"
  bottom: "res4.3.conv2"
  top: "res4.3.conv2"
}
layer {
  name: "res4.3.conv3"
  type: "Convolution"
  bottom: "res4.3.conv2"
  top: "res4.3.conv3"
  convolution_param {
    num_output: 1024
    bias_term: true
    pad: 0
    kernel_size: 1
    stride: 1
  }
}
layer {
  name: "res4.3.sum"
  type: "Eltwise"
  bottom: "res4.3.conv3"
  bottom: "res4.2.sum"
  top: "res4.3.sum"
  eltwise_param {
    operation: SUM
  }
}
layer {
  name: "res4.3.relu"
  type: "ReLU"
  bottom: "res4.3.sum"
  top: "res4.3.sum"
}
layer {
  name: "res4.4.conv1"
  type: "Convolution"
  bottom: "res4.3.sum"
  top: "res4.4.conv1"
  convolution_param {
    num_output: 256
    bias_term: true
    pad: 0
    kernel_size: 1
    stride: 1
  }
}
layer {
  name: "res4.4.conv1/relu"
  type: "ReLU"
  bottom: "res4.4.conv1"
  top: "res4.4.conv1"
}
layer {
  name: "res4.4.conv2"
  type: "Convolution"
  bottom: "res4.4.conv1"
  top: "res4.4.conv2"
  convolution_param {
    num_output: 256
    bias_term: true
    pad: 1
    kernel_size: 3
    stride: 1
  }
}
layer {
  name: "res4.4.conv2/relu"
  type: "ReLU"
  bottom: "res4.4.conv2"
  top: "res4.4.conv2"
}
layer {
  name: "res4.4.conv3"
  type: "Convolution"
  bottom: "res4.4.conv2"
  top: "res4.4.conv3"
  convolution_param {
    num_output: 1024
    bias_term: true
    pad: 0
    kernel_size: 1
    stride: 1
  }
}
layer {
  name: "res4.4.sum"
  type: "Eltwise"
  bottom: "res4.4.conv3"
  bottom: "res4.3.sum"
  top: "res4.4.sum"
  eltwise_param {
    operation: SUM
  }
}
layer {
  name: "res4.4.relu"
  type: "ReLU"
  bottom: "res4.4.sum"
  top: "res4.4.sum"
}
layer {
  name: "res4.5.conv1"
  type: "Convolution"
  bottom: "res4.4.sum"
  top: "res4.5.conv1"
  convolution_param {
    num_output: 512
    bias_term: true
    pad: 0
    kernel_size: 1
    stride: 1
  }
}
layer {
  name: "res4.5.conv1/relu"
  type: "ReLU"
  bottom: "res4.5.conv1"
  top: "res4.5.conv1"
}
layer {
  name: "res4.5.conv2"
  type: "Convolution"
  bottom: "res4.5.conv1"
  top: "res4.5.conv2"
  convolution_param {
    num_output: 512
    bias_term: true
    pad: 1
    kernel_size: 3
    stride: 1
  }
}
layer {
  name: "res4.5.conv2/relu"
  type: "ReLU"
  bottom: "res4.5.conv2"
  top: "res4.5.conv2"
}
layer {
  name: "res4.5.conv3"
  type: "Convolution"
  bottom: "res4.5.conv2"
  top: "res4.5.conv3"
  convolution_param {
    num_output: 1024
    bias_term: true
    pad: 0
    kernel_size: 1
    stride: 1
  }
}
layer {
  name: "res4.5.skipConv"
  type: "Convolution"
  bottom: "res4.4.sum"
  top: "res4.5.skipConv"
  convolution_param {
    num_output: 1024
    bias_term: true
    pad: 0
    kernel_size: 1
    stride: 1
  }
}
layer {
  name: "res4.5.sum"
  type: "Eltwise"
  bottom: "res4.5.conv3"
  bottom: "res4.5.skipConv"
  top: "res4.5.sum"
  eltwise_param {
    operation: SUM
  }
}
layer {
  name: "res4.5.relu"
  type: "ReLU"
  bottom: "res4.5.sum"
  top: "res4.5.sum"
}
layer {
  name: "res4.6.conv1"
  type: "Convolution"
  bottom: "res4.5.sum"
  top: "res4.6.conv1"
  convolution_param {
    num_output: 512
    bias_term: true
    pad: 0
    kernel_size: 1
    stride: 1
  }
}
layer {
  name: "res4.6.conv1/relu"
  type: "ReLU"
  bottom: "res4.6.conv1"
  top: "res4.6.conv1"
}
layer {
  name: "res4.6.conv2"
  type: "Convolution"
  bottom: "res4.6.conv1"
  top: "res4.6.conv2"
  convolution_param {
    num_output: 512
    bias_term: true
    pad: 1
    kernel_size: 3
    stride: 1
  }
}
layer {
  name: "res4.6.conv2/relu"
  type: "ReLU"
  bottom: "res4.6.conv2"
  top: "res4.6.conv2"
}
layer {
  name: "res4.6.conv3"
  type: "Convolution"
  bottom: "res4.6.conv2"
  top: "res4.6.conv3"
  convolution_param {
    num_output: 1024
    bias_term: true
    pad: 0
    kernel_size: 1
    stride: 1
  }
}
layer {
  name: "res4.6.sum"
  type: "Eltwise"
  bottom: "res4.6.conv3"
  bottom: "res4.5.sum"
  top: "res4.6.sum"
  eltwise_param {
    operation: SUM
  }
}
layer {
  name: "res4.6.relu"
  type: "ReLU"
  bottom: "res4.6.sum"
  top: "res4.6.sum"
}
layer {
  name: "pool5"
  type: "Pooling"
  bottom: "res4.6.sum"
  top: "pool5"
  pooling_param {
    pool: AVE
    kernel_size: 7
    stride: 1
  }
}
layer {
  name: "fc"
  type: "InnerProduct"
  bottom: "pool5"
  top: "fc"
  inner_product_param {
    num_output: 1000
    bias_term: true
  }
}
layer {
  name: "accuracy/top-1"
  type: "Accuracy"
  bottom: "fc"
  bottom: "label"
  top: "accuracy/top-1"
  accuracy_param {
    top_k: 1
  }
}
layer {
  name: "accuracy/top-5"
  type: "Accuracy"
  bottom: "fc"
  bottom: "label"
  top: "accuracy/top-5"
  accuracy_param {
    top_k: 5
  }
}
I0308 09:29:52.387090 16878 layer_factory.hpp:77] Creating layer data
I0308 09:29:52.387127 16878 net.cpp:84] Creating Layer data
I0308 09:29:52.387136 16878 net.cpp:380] data -> data
I0308 09:29:52.387161 16878 net.cpp:380] data -> label
I0308 09:29:52.387183 16878 image_data_layer.cpp:38] Opening file /home/vip/dataset/imagenet/ILSVRC2012_val_256xN_list.txt
I0308 09:29:52.420892 16878 image_data_layer.cpp:63] A total of 50000 images.
I0308 09:29:52.438055 16878 image_data_layer.cpp:90] output data size: 100,3,224,224
I0308 09:29:52.561241 16878 net.cpp:122] Setting up data
I0308 09:29:52.561276 16878 net.cpp:129] Top shape: 100 3 224 224 (15052800)
I0308 09:29:52.561282 16878 net.cpp:129] Top shape: 100 (100)
I0308 09:29:52.561287 16878 net.cpp:137] Memory required for data: 60211600
I0308 09:29:52.561321 16878 layer_factory.hpp:77] Creating layer label_data_1_split
I0308 09:29:52.561338 16878 net.cpp:84] Creating Layer label_data_1_split
I0308 09:29:52.561345 16878 net.cpp:406] label_data_1_split <- label
I0308 09:29:52.561362 16878 net.cpp:380] label_data_1_split -> label_data_1_split_0
I0308 09:29:52.561377 16878 net.cpp:380] label_data_1_split -> label_data_1_split_1
I0308 09:29:52.561472 16878 net.cpp:122] Setting up label_data_1_split
I0308 09:29:52.561483 16878 net.cpp:129] Top shape: 100 (100)
I0308 09:29:52.561489 16878 net.cpp:129] Top shape: 100 (100)
I0308 09:29:52.561494 16878 net.cpp:137] Memory required for data: 60212400
I0308 09:29:52.561499 16878 layer_factory.hpp:77] Creating layer conv1
I0308 09:29:52.561517 16878 net.cpp:84] Creating Layer conv1
I0308 09:29:52.561523 16878 net.cpp:406] conv1 <- data
I0308 09:29:52.561532 16878 net.cpp:380] conv1 -> conv1
I0308 09:29:53.187103 16878 net.cpp:122] Setting up conv1
I0308 09:29:53.187142 16878 net.cpp:129] Top shape: 100 32 112 112 (40140800)
I0308 09:29:53.187147 16878 net.cpp:137] Memory required for data: 220775600
I0308 09:29:53.187170 16878 layer_factory.hpp:77] Creating layer conv1/relu
I0308 09:29:53.187197 16878 net.cpp:84] Creating Layer conv1/relu
I0308 09:29:53.187201 16878 net.cpp:406] conv1/relu <- conv1
I0308 09:29:53.187208 16878 net.cpp:367] conv1/relu -> conv1 (in-place)
I0308 09:29:53.187728 16878 net.cpp:122] Setting up conv1/relu
I0308 09:29:53.187739 16878 net.cpp:129] Top shape: 100 32 112 112 (40140800)
I0308 09:29:53.187757 16878 net.cpp:137] Memory required for data: 381338800
I0308 09:29:53.187760 16878 layer_factory.hpp:77] Creating layer conv2
I0308 09:29:53.187772 16878 net.cpp:84] Creating Layer conv2
I0308 09:29:53.187777 16878 net.cpp:406] conv2 <- conv1
I0308 09:29:53.187783 16878 net.cpp:380] conv2 -> conv2
I0308 09:29:53.191361 16878 net.cpp:122] Setting up conv2
I0308 09:29:53.191391 16878 net.cpp:129] Top shape: 100 64 56 56 (20070400)
I0308 09:29:53.191395 16878 net.cpp:137] Memory required for data: 461620400
I0308 09:29:53.191403 16878 layer_factory.hpp:77] Creating layer conv2/relu
I0308 09:29:53.191412 16878 net.cpp:84] Creating Layer conv2/relu
I0308 09:29:53.191416 16878 net.cpp:406] conv2/relu <- conv2
I0308 09:29:53.191421 16878 net.cpp:367] conv2/relu -> conv2 (in-place)
I0308 09:29:53.191972 16878 net.cpp:122] Setting up conv2/relu
I0308 09:29:53.191982 16878 net.cpp:129] Top shape: 100 64 56 56 (20070400)
I0308 09:29:53.192000 16878 net.cpp:137] Memory required for data: 541902000
I0308 09:29:53.192003 16878 layer_factory.hpp:77] Creating layer conv2_conv2/relu_0_split
I0308 09:29:53.192026 16878 net.cpp:84] Creating Layer conv2_conv2/relu_0_split
I0308 09:29:53.192030 16878 net.cpp:406] conv2_conv2/relu_0_split <- conv2
I0308 09:29:53.192035 16878 net.cpp:380] conv2_conv2/relu_0_split -> conv2_conv2/relu_0_split_0
I0308 09:29:53.192057 16878 net.cpp:380] conv2_conv2/relu_0_split -> conv2_conv2/relu_0_split_1
I0308 09:29:53.192137 16878 net.cpp:122] Setting up conv2_conv2/relu_0_split
I0308 09:29:53.192145 16878 net.cpp:129] Top shape: 100 64 56 56 (20070400)
I0308 09:29:53.192150 16878 net.cpp:129] Top shape: 100 64 56 56 (20070400)
I0308 09:29:53.192153 16878 net.cpp:137] Memory required for data: 702465200
I0308 09:29:53.192157 16878 layer_factory.hpp:77] Creating layer res2.1.conv1
I0308 09:29:53.192167 16878 net.cpp:84] Creating Layer res2.1.conv1
I0308 09:29:53.192176 16878 net.cpp:406] res2.1.conv1 <- conv2_conv2/relu_0_split_0
I0308 09:29:53.192185 16878 net.cpp:380] res2.1.conv1 -> res2.1.conv1
I0308 09:29:53.194152 16878 net.cpp:122] Setting up res2.1.conv1
I0308 09:29:53.194182 16878 net.cpp:129] Top shape: 100 64 28 28 (5017600)
I0308 09:29:53.194200 16878 net.cpp:137] Memory required for data: 722535600
I0308 09:29:53.194211 16878 layer_factory.hpp:77] Creating layer res2.1.conv1/relu
I0308 09:29:53.194218 16878 net.cpp:84] Creating Layer res2.1.conv1/relu
I0308 09:29:53.194222 16878 net.cpp:406] res2.1.conv1/relu <- res2.1.conv1
I0308 09:29:53.194228 16878 net.cpp:367] res2.1.conv1/relu -> res2.1.conv1 (in-place)
I0308 09:29:53.195132 16878 net.cpp:122] Setting up res2.1.conv1/relu
I0308 09:29:53.195159 16878 net.cpp:129] Top shape: 100 64 28 28 (5017600)
I0308 09:29:53.195164 16878 net.cpp:137] Memory required for data: 742606000
I0308 09:29:53.195168 16878 layer_factory.hpp:77] Creating layer res2.1.conv2
I0308 09:29:53.195178 16878 net.cpp:84] Creating Layer res2.1.conv2
I0308 09:29:53.195180 16878 net.cpp:406] res2.1.conv2 <- res2.1.conv1
I0308 09:29:53.195188 16878 net.cpp:380] res2.1.conv2 -> res2.1.conv2
I0308 09:29:53.197394 16878 net.cpp:122] Setting up res2.1.conv2
I0308 09:29:53.197423 16878 net.cpp:129] Top shape: 100 64 28 28 (5017600)
I0308 09:29:53.197427 16878 net.cpp:137] Memory required for data: 762676400
I0308 09:29:53.197434 16878 layer_factory.hpp:77] Creating layer res2.1.skipConv
I0308 09:29:53.197443 16878 net.cpp:84] Creating Layer res2.1.skipConv
I0308 09:29:53.197448 16878 net.cpp:406] res2.1.skipConv <- conv2_conv2/relu_0_split_1
I0308 09:29:53.197454 16878 net.cpp:380] res2.1.skipConv -> res2.1.skipConv
I0308 09:29:53.199723 16878 net.cpp:122] Setting up res2.1.skipConv
I0308 09:29:53.199739 16878 net.cpp:129] Top shape: 100 64 28 28 (5017600)
I0308 09:29:53.199743 16878 net.cpp:137] Memory required for data: 782746800
I0308 09:29:53.199754 16878 layer_factory.hpp:77] Creating layer res2.1.sum
I0308 09:29:53.199764 16878 net.cpp:84] Creating Layer res2.1.sum
I0308 09:29:53.199767 16878 net.cpp:406] res2.1.sum <- res2.1.conv2
I0308 09:29:53.199772 16878 net.cpp:406] res2.1.sum <- res2.1.skipConv
I0308 09:29:53.199777 16878 net.cpp:380] res2.1.sum -> res2.1.sum
I0308 09:29:53.199811 16878 net.cpp:122] Setting up res2.1.sum
I0308 09:29:53.199820 16878 net.cpp:129] Top shape: 100 64 28 28 (5017600)
I0308 09:29:53.199823 16878 net.cpp:137] Memory required for data: 802817200
I0308 09:29:53.199826 16878 layer_factory.hpp:77] Creating layer res2.1.relu
I0308 09:29:53.199832 16878 net.cpp:84] Creating Layer res2.1.relu
I0308 09:29:53.199836 16878 net.cpp:406] res2.1.relu <- res2.1.sum
I0308 09:29:53.199842 16878 net.cpp:367] res2.1.relu -> res2.1.sum (in-place)
I0308 09:29:53.200316 16878 net.cpp:122] Setting up res2.1.relu
I0308 09:29:53.200327 16878 net.cpp:129] Top shape: 100 64 28 28 (5017600)
I0308 09:29:53.200346 16878 net.cpp:137] Memory required for data: 822887600
I0308 09:29:53.200350 16878 layer_factory.hpp:77] Creating layer res2.1.sum_res2.1.relu_0_split
I0308 09:29:53.200356 16878 net.cpp:84] Creating Layer res2.1.sum_res2.1.relu_0_split
I0308 09:29:53.200361 16878 net.cpp:406] res2.1.sum_res2.1.relu_0_split <- res2.1.sum
I0308 09:29:53.200366 16878 net.cpp:380] res2.1.sum_res2.1.relu_0_split -> res2.1.sum_res2.1.relu_0_split_0
I0308 09:29:53.200372 16878 net.cpp:380] res2.1.sum_res2.1.relu_0_split -> res2.1.sum_res2.1.relu_0_split_1
I0308 09:29:53.200415 16878 net.cpp:122] Setting up res2.1.sum_res2.1.relu_0_split
I0308 09:29:53.200423 16878 net.cpp:129] Top shape: 100 64 28 28 (5017600)
I0308 09:29:53.200428 16878 net.cpp:129] Top shape: 100 64 28 28 (5017600)
I0308 09:29:53.200431 16878 net.cpp:137] Memory required for data: 863028400
I0308 09:29:53.200434 16878 layer_factory.hpp:77] Creating layer res2.2.conv1
I0308 09:29:53.200443 16878 net.cpp:84] Creating Layer res2.2.conv1
I0308 09:29:53.200446 16878 net.cpp:406] res2.2.conv1 <- res2.1.sum_res2.1.relu_0_split_0
I0308 09:29:53.200453 16878 net.cpp:380] res2.2.conv1 -> res2.2.conv1
I0308 09:29:53.202821 16878 net.cpp:122] Setting up res2.2.conv1
I0308 09:29:53.202852 16878 net.cpp:129] Top shape: 100 64 28 28 (5017600)
I0308 09:29:53.202854 16878 net.cpp:137] Memory required for data: 883098800
I0308 09:29:53.202862 16878 layer_factory.hpp:77] Creating layer res2.2.conv1/relu
I0308 09:29:53.202867 16878 net.cpp:84] Creating Layer res2.2.conv1/relu
I0308 09:29:53.202872 16878 net.cpp:406] res2.2.conv1/relu <- res2.2.conv1
I0308 09:29:53.202877 16878 net.cpp:367] res2.2.conv1/relu -> res2.2.conv1 (in-place)
I0308 09:29:53.203348 16878 net.cpp:122] Setting up res2.2.conv1/relu
I0308 09:29:53.203358 16878 net.cpp:129] Top shape: 100 64 28 28 (5017600)
I0308 09:29:53.203389 16878 net.cpp:137] Memory required for data: 903169200
I0308 09:29:53.203393 16878 layer_factory.hpp:77] Creating layer res2.2.conv2
I0308 09:29:53.203405 16878 net.cpp:84] Creating Layer res2.2.conv2
I0308 09:29:53.203409 16878 net.cpp:406] res2.2.conv2 <- res2.2.conv1
I0308 09:29:53.203416 16878 net.cpp:380] res2.2.conv2 -> res2.2.conv2
I0308 09:29:53.205649 16878 net.cpp:122] Setting up res2.2.conv2
I0308 09:29:53.205677 16878 net.cpp:129] Top shape: 100 64 28 28 (5017600)
I0308 09:29:53.205680 16878 net.cpp:137] Memory required for data: 923239600
I0308 09:29:53.205687 16878 layer_factory.hpp:77] Creating layer res2.2.sum
I0308 09:29:53.205695 16878 net.cpp:84] Creating Layer res2.2.sum
I0308 09:29:53.205698 16878 net.cpp:406] res2.2.sum <- res2.2.conv2
I0308 09:29:53.205703 16878 net.cpp:406] res2.2.sum <- res2.1.sum_res2.1.relu_0_split_1
I0308 09:29:53.205708 16878 net.cpp:380] res2.2.sum -> res2.2.sum
I0308 09:29:53.205791 16878 net.cpp:122] Setting up res2.2.sum
I0308 09:29:53.205801 16878 net.cpp:129] Top shape: 100 64 28 28 (5017600)
I0308 09:29:53.205803 16878 net.cpp:137] Memory required for data: 943310000
I0308 09:29:53.205807 16878 layer_factory.hpp:77] Creating layer res2.2.relu
I0308 09:29:53.205812 16878 net.cpp:84] Creating Layer res2.2.relu
I0308 09:29:53.205816 16878 net.cpp:406] res2.2.relu <- res2.2.sum
I0308 09:29:53.205821 16878 net.cpp:367] res2.2.relu -> res2.2.sum (in-place)
I0308 09:29:53.206681 16878 net.cpp:122] Setting up res2.2.relu
I0308 09:29:53.206708 16878 net.cpp:129] Top shape: 100 64 28 28 (5017600)
I0308 09:29:53.206712 16878 net.cpp:137] Memory required for data: 963380400
I0308 09:29:53.206715 16878 layer_factory.hpp:77] Creating layer res2.2.sum_res2.2.relu_0_split
I0308 09:29:53.206722 16878 net.cpp:84] Creating Layer res2.2.sum_res2.2.relu_0_split
I0308 09:29:53.206724 16878 net.cpp:406] res2.2.sum_res2.2.relu_0_split <- res2.2.sum
I0308 09:29:53.206732 16878 net.cpp:380] res2.2.sum_res2.2.relu_0_split -> res2.2.sum_res2.2.relu_0_split_0
I0308 09:29:53.206738 16878 net.cpp:380] res2.2.sum_res2.2.relu_0_split -> res2.2.sum_res2.2.relu_0_split_1
I0308 09:29:53.206813 16878 net.cpp:122] Setting up res2.2.sum_res2.2.relu_0_split
I0308 09:29:53.206821 16878 net.cpp:129] Top shape: 100 64 28 28 (5017600)
I0308 09:29:53.206825 16878 net.cpp:129] Top shape: 100 64 28 28 (5017600)
I0308 09:29:53.206828 16878 net.cpp:137] Memory required for data: 1003521200
I0308 09:29:53.206832 16878 layer_factory.hpp:77] Creating layer res2.3.conv1
I0308 09:29:53.206843 16878 net.cpp:84] Creating Layer res2.3.conv1
I0308 09:29:53.206863 16878 net.cpp:406] res2.3.conv1 <- res2.2.sum_res2.2.relu_0_split_0
I0308 09:29:53.206868 16878 net.cpp:380] res2.3.conv1 -> res2.3.conv1
I0308 09:29:53.209997 16878 net.cpp:122] Setting up res2.3.conv1
I0308 09:29:53.210028 16878 net.cpp:129] Top shape: 100 128 28 28 (10035200)
I0308 09:29:53.210033 16878 net.cpp:137] Memory required for data: 1043662000
I0308 09:29:53.210039 16878 layer_factory.hpp:77] Creating layer res2.3.conv1/relu
I0308 09:29:53.210047 16878 net.cpp:84] Creating Layer res2.3.conv1/relu
I0308 09:29:53.210050 16878 net.cpp:406] res2.3.conv1/relu <- res2.3.conv1
I0308 09:29:53.210057 16878 net.cpp:367] res2.3.conv1/relu -> res2.3.conv1 (in-place)
I0308 09:29:53.210600 16878 net.cpp:122] Setting up res2.3.conv1/relu
I0308 09:29:53.210611 16878 net.cpp:129] Top shape: 100 128 28 28 (10035200)
I0308 09:29:53.210629 16878 net.cpp:137] Memory required for data: 1083802800
I0308 09:29:53.210633 16878 layer_factory.hpp:77] Creating layer res2.3.conv2
I0308 09:29:53.210641 16878 net.cpp:84] Creating Layer res2.3.conv2
I0308 09:29:53.210647 16878 net.cpp:406] res2.3.conv2 <- res2.3.conv1
I0308 09:29:53.210652 16878 net.cpp:380] res2.3.conv2 -> res2.3.conv2
I0308 09:29:53.212994 16878 net.cpp:122] Setting up res2.3.conv2
I0308 09:29:53.213024 16878 net.cpp:129] Top shape: 100 128 28 28 (10035200)
I0308 09:29:53.213028 16878 net.cpp:137] Memory required for data: 1123943600
I0308 09:29:53.213039 16878 layer_factory.hpp:77] Creating layer res2.3.skipConv
I0308 09:29:53.213078 16878 net.cpp:84] Creating Layer res2.3.skipConv
I0308 09:29:53.213081 16878 net.cpp:406] res2.3.skipConv <- res2.2.sum_res2.2.relu_0_split_1
I0308 09:29:53.213090 16878 net.cpp:380] res2.3.skipConv -> res2.3.skipConv
I0308 09:29:53.215219 16878 net.cpp:122] Setting up res2.3.skipConv
I0308 09:29:53.215250 16878 net.cpp:129] Top shape: 100 128 28 28 (10035200)
I0308 09:29:53.215253 16878 net.cpp:137] Memory required for data: 1164084400
I0308 09:29:53.215260 16878 layer_factory.hpp:77] Creating layer res2.3.sum
I0308 09:29:53.215267 16878 net.cpp:84] Creating Layer res2.3.sum
I0308 09:29:53.215270 16878 net.cpp:406] res2.3.sum <- res2.3.conv2
I0308 09:29:53.215276 16878 net.cpp:406] res2.3.sum <- res2.3.skipConv
I0308 09:29:53.215296 16878 net.cpp:380] res2.3.sum -> res2.3.sum
I0308 09:29:53.215339 16878 net.cpp:122] Setting up res2.3.sum
I0308 09:29:53.215348 16878 net.cpp:129] Top shape: 100 128 28 28 (10035200)
I0308 09:29:53.215350 16878 net.cpp:137] Memory required for data: 1204225200
I0308 09:29:53.215354 16878 layer_factory.hpp:77] Creating layer res2.3.relu
I0308 09:29:53.215359 16878 net.cpp:84] Creating Layer res2.3.relu
I0308 09:29:53.215363 16878 net.cpp:406] res2.3.relu <- res2.3.sum
I0308 09:29:53.215368 16878 net.cpp:367] res2.3.relu -> res2.3.sum (in-place)
I0308 09:29:53.215907 16878 net.cpp:122] Setting up res2.3.relu
I0308 09:29:53.215920 16878 net.cpp:129] Top shape: 100 128 28 28 (10035200)
I0308 09:29:53.215940 16878 net.cpp:137] Memory required for data: 1244366000
I0308 09:29:53.215943 16878 layer_factory.hpp:77] Creating layer res2.3.sum_res2.3.relu_0_split
I0308 09:29:53.215950 16878 net.cpp:84] Creating Layer res2.3.sum_res2.3.relu_0_split
I0308 09:29:53.215953 16878 net.cpp:406] res2.3.sum_res2.3.relu_0_split <- res2.3.sum
I0308 09:29:53.215960 16878 net.cpp:380] res2.3.sum_res2.3.relu_0_split -> res2.3.sum_res2.3.relu_0_split_0
I0308 09:29:53.215967 16878 net.cpp:380] res2.3.sum_res2.3.relu_0_split -> res2.3.sum_res2.3.relu_0_split_1
I0308 09:29:53.216033 16878 net.cpp:122] Setting up res2.3.sum_res2.3.relu_0_split
I0308 09:29:53.216042 16878 net.cpp:129] Top shape: 100 128 28 28 (10035200)
I0308 09:29:53.216045 16878 net.cpp:129] Top shape: 100 128 28 28 (10035200)
I0308 09:29:53.216048 16878 net.cpp:137] Memory required for data: 1324647600
I0308 09:29:53.216053 16878 layer_factory.hpp:77] Creating layer res3.1.conv1
I0308 09:29:53.216059 16878 net.cpp:84] Creating Layer res3.1.conv1
I0308 09:29:53.216063 16878 net.cpp:406] res3.1.conv1 <- res2.3.sum_res2.3.relu_0_split_0
I0308 09:29:53.216070 16878 net.cpp:380] res3.1.conv1 -> res3.1.conv1
I0308 09:29:53.218222 16878 net.cpp:122] Setting up res3.1.conv1
I0308 09:29:53.218255 16878 net.cpp:129] Top shape: 100 128 28 28 (10035200)
I0308 09:29:53.218257 16878 net.cpp:137] Memory required for data: 1364788400
I0308 09:29:53.218263 16878 layer_factory.hpp:77] Creating layer res3.1.conv1/relu
I0308 09:29:53.218271 16878 net.cpp:84] Creating Layer res3.1.conv1/relu
I0308 09:29:53.218273 16878 net.cpp:406] res3.1.conv1/relu <- res3.1.conv1
I0308 09:29:53.218297 16878 net.cpp:367] res3.1.conv1/relu -> res3.1.conv1 (in-place)
I0308 09:29:53.218870 16878 net.cpp:122] Setting up res3.1.conv1/relu
I0308 09:29:53.218881 16878 net.cpp:129] Top shape: 100 128 28 28 (10035200)
I0308 09:29:53.218900 16878 net.cpp:137] Memory required for data: 1404929200
I0308 09:29:53.218904 16878 layer_factory.hpp:77] Creating layer res3.1.conv2
I0308 09:29:53.218914 16878 net.cpp:84] Creating Layer res3.1.conv2
I0308 09:29:53.218917 16878 net.cpp:406] res3.1.conv2 <- res3.1.conv1
I0308 09:29:53.218922 16878 net.cpp:380] res3.1.conv2 -> res3.1.conv2
I0308 09:29:53.221139 16878 net.cpp:122] Setting up res3.1.conv2
I0308 09:29:53.221170 16878 net.cpp:129] Top shape: 100 128 14 14 (2508800)
I0308 09:29:53.221175 16878 net.cpp:137] Memory required for data: 1414964400
I0308 09:29:53.221182 16878 layer_factory.hpp:77] Creating layer res3.1.conv2/relu
I0308 09:29:53.221189 16878 net.cpp:84] Creating Layer res3.1.conv2/relu
I0308 09:29:53.221225 16878 net.cpp:406] res3.1.conv2/relu <- res3.1.conv2
I0308 09:29:53.221233 16878 net.cpp:367] res3.1.conv2/relu -> res3.1.conv2 (in-place)
I0308 09:29:53.222254 16878 net.cpp:122] Setting up res3.1.conv2/relu
I0308 09:29:53.222282 16878 net.cpp:129] Top shape: 100 128 14 14 (2508800)
I0308 09:29:53.222286 16878 net.cpp:137] Memory required for data: 1424999600
I0308 09:29:53.222290 16878 layer_factory.hpp:77] Creating layer res3.1.conv3
I0308 09:29:53.222298 16878 net.cpp:84] Creating Layer res3.1.conv3
I0308 09:29:53.222302 16878 net.cpp:406] res3.1.conv3 <- res3.1.conv2
I0308 09:29:53.222307 16878 net.cpp:380] res3.1.conv3 -> res3.1.conv3
I0308 09:29:53.224238 16878 net.cpp:122] Setting up res3.1.conv3
I0308 09:29:53.224251 16878 net.cpp:129] Top shape: 100 512 14 14 (10035200)
I0308 09:29:53.224272 16878 net.cpp:137] Memory required for data: 1465140400
I0308 09:29:53.224277 16878 layer_factory.hpp:77] Creating layer res3.1.skipConv
I0308 09:29:53.224292 16878 net.cpp:84] Creating Layer res3.1.skipConv
I0308 09:29:53.224295 16878 net.cpp:406] res3.1.skipConv <- res2.3.sum_res2.3.relu_0_split_1
I0308 09:29:53.224316 16878 net.cpp:380] res3.1.skipConv -> res3.1.skipConv
I0308 09:29:53.226383 16878 net.cpp:122] Setting up res3.1.skipConv
I0308 09:29:53.226397 16878 net.cpp:129] Top shape: 100 512 14 14 (10035200)
I0308 09:29:53.226418 16878 net.cpp:137] Memory required for data: 1505281200
I0308 09:29:53.226423 16878 layer_factory.hpp:77] Creating layer res3.1.sum
I0308 09:29:53.226430 16878 net.cpp:84] Creating Layer res3.1.sum
I0308 09:29:53.226434 16878 net.cpp:406] res3.1.sum <- res3.1.conv3
I0308 09:29:53.226439 16878 net.cpp:406] res3.1.sum <- res3.1.skipConv
I0308 09:29:53.226459 16878 net.cpp:380] res3.1.sum -> res3.1.sum
I0308 09:29:53.226507 16878 net.cpp:122] Setting up res3.1.sum
I0308 09:29:53.226516 16878 net.cpp:129] Top shape: 100 512 14 14 (10035200)
I0308 09:29:53.226518 16878 net.cpp:137] Memory required for data: 1545422000
I0308 09:29:53.226521 16878 layer_factory.hpp:77] Creating layer res3.1.relu
I0308 09:29:53.226526 16878 net.cpp:84] Creating Layer res3.1.relu
I0308 09:29:53.226547 16878 net.cpp:406] res3.1.relu <- res3.1.sum
I0308 09:29:53.226553 16878 net.cpp:367] res3.1.relu -> res3.1.sum (in-place)
I0308 09:29:53.227058 16878 net.cpp:122] Setting up res3.1.relu
I0308 09:29:53.227067 16878 net.cpp:129] Top shape: 100 512 14 14 (10035200)
I0308 09:29:53.227087 16878 net.cpp:137] Memory required for data: 1585562800
I0308 09:29:53.227090 16878 layer_factory.hpp:77] Creating layer res3.1.sum_res3.1.relu_0_split
I0308 09:29:53.227095 16878 net.cpp:84] Creating Layer res3.1.sum_res3.1.relu_0_split
I0308 09:29:53.227098 16878 net.cpp:406] res3.1.sum_res3.1.relu_0_split <- res3.1.sum
I0308 09:29:53.227105 16878 net.cpp:380] res3.1.sum_res3.1.relu_0_split -> res3.1.sum_res3.1.relu_0_split_0
I0308 09:29:53.227128 16878 net.cpp:380] res3.1.sum_res3.1.relu_0_split -> res3.1.sum_res3.1.relu_0_split_1
I0308 09:29:53.227172 16878 net.cpp:122] Setting up res3.1.sum_res3.1.relu_0_split
I0308 09:29:53.227180 16878 net.cpp:129] Top shape: 100 512 14 14 (10035200)
I0308 09:29:53.227185 16878 net.cpp:129] Top shape: 100 512 14 14 (10035200)
I0308 09:29:53.227187 16878 net.cpp:137] Memory required for data: 1665844400
I0308 09:29:53.227190 16878 layer_factory.hpp:77] Creating layer res3.2.conv1
I0308 09:29:53.227214 16878 net.cpp:84] Creating Layer res3.2.conv1
I0308 09:29:53.227219 16878 net.cpp:406] res3.2.conv1 <- res3.1.sum_res3.1.relu_0_split_0
I0308 09:29:53.227226 16878 net.cpp:380] res3.2.conv1 -> res3.2.conv1
I0308 09:29:53.229153 16878 net.cpp:122] Setting up res3.2.conv1
I0308 09:29:53.229167 16878 net.cpp:129] Top shape: 100 128 14 14 (2508800)
I0308 09:29:53.229187 16878 net.cpp:137] Memory required for data: 1675879600
I0308 09:29:53.229193 16878 layer_factory.hpp:77] Creating layer res3.2.conv1/relu
I0308 09:29:53.229200 16878 net.cpp:84] Creating Layer res3.2.conv1/relu
I0308 09:29:53.229204 16878 net.cpp:406] res3.2.conv1/relu <- res3.2.conv1
I0308 09:29:53.229239 16878 net.cpp:367] res3.2.conv1/relu -> res3.2.conv1 (in-place)
I0308 09:29:53.229701 16878 net.cpp:122] Setting up res3.2.conv1/relu
I0308 09:29:53.229713 16878 net.cpp:129] Top shape: 100 128 14 14 (2508800)
I0308 09:29:53.229717 16878 net.cpp:137] Memory required for data: 1685914800
I0308 09:29:53.229722 16878 layer_factory.hpp:77] Creating layer res3.2.conv2
I0308 09:29:53.229748 16878 net.cpp:84] Creating Layer res3.2.conv2
I0308 09:29:53.229751 16878 net.cpp:406] res3.2.conv2 <- res3.2.conv1
I0308 09:29:53.229758 16878 net.cpp:380] res3.2.conv2 -> res3.2.conv2
I0308 09:29:53.232514 16878 net.cpp:122] Setting up res3.2.conv2
I0308 09:29:53.232544 16878 net.cpp:129] Top shape: 100 128 14 14 (2508800)
I0308 09:29:53.232547 16878 net.cpp:137] Memory required for data: 1695950000
I0308 09:29:53.232554 16878 layer_factory.hpp:77] Creating layer res3.2.conv2/relu
I0308 09:29:53.232560 16878 net.cpp:84] Creating Layer res3.2.conv2/relu
I0308 09:29:53.232563 16878 net.cpp:406] res3.2.conv2/relu <- res3.2.conv2
I0308 09:29:53.232570 16878 net.cpp:367] res3.2.conv2/relu -> res3.2.conv2 (in-place)
I0308 09:29:53.233355 16878 net.cpp:122] Setting up res3.2.conv2/relu
I0308 09:29:53.233368 16878 net.cpp:129] Top shape: 100 128 14 14 (2508800)
I0308 09:29:53.233386 16878 net.cpp:137] Memory required for data: 1705985200
I0308 09:29:53.233391 16878 layer_factory.hpp:77] Creating layer res3.2.conv3
I0308 09:29:53.233398 16878 net.cpp:84] Creating Layer res3.2.conv3
I0308 09:29:53.233418 16878 net.cpp:406] res3.2.conv3 <- res3.2.conv2
I0308 09:29:53.233425 16878 net.cpp:380] res3.2.conv3 -> res3.2.conv3
I0308 09:29:53.235391 16878 net.cpp:122] Setting up res3.2.conv3
I0308 09:29:53.235421 16878 net.cpp:129] Top shape: 100 512 14 14 (10035200)
I0308 09:29:53.235425 16878 net.cpp:137] Memory required for data: 1746126000
I0308 09:29:53.235437 16878 layer_factory.hpp:77] Creating layer res3.2.sum
I0308 09:29:53.235443 16878 net.cpp:84] Creating Layer res3.2.sum
I0308 09:29:53.235466 16878 net.cpp:406] res3.2.sum <- res3.2.conv3
I0308 09:29:53.235471 16878 net.cpp:406] res3.2.sum <- res3.1.sum_res3.1.relu_0_split_1
I0308 09:29:53.235476 16878 net.cpp:380] res3.2.sum -> res3.2.sum
I0308 09:29:53.235505 16878 net.cpp:122] Setting up res3.2.sum
I0308 09:29:53.235513 16878 net.cpp:129] Top shape: 100 512 14 14 (10035200)
I0308 09:29:53.235517 16878 net.cpp:137] Memory required for data: 1786266800
I0308 09:29:53.235520 16878 layer_factory.hpp:77] Creating layer res3.2.relu
I0308 09:29:53.235525 16878 net.cpp:84] Creating Layer res3.2.relu
I0308 09:29:53.235546 16878 net.cpp:406] res3.2.relu <- res3.2.sum
I0308 09:29:53.235553 16878 net.cpp:367] res3.2.relu -> res3.2.sum (in-place)
I0308 09:29:53.236073 16878 net.cpp:122] Setting up res3.2.relu
I0308 09:29:53.236081 16878 net.cpp:129] Top shape: 100 512 14 14 (10035200)
I0308 09:29:53.236099 16878 net.cpp:137] Memory required for data: 1826407600
I0308 09:29:53.236104 16878 layer_factory.hpp:77] Creating layer res3.2.sum_res3.2.relu_0_split
I0308 09:29:53.236109 16878 net.cpp:84] Creating Layer res3.2.sum_res3.2.relu_0_split
I0308 09:29:53.236111 16878 net.cpp:406] res3.2.sum_res3.2.relu_0_split <- res3.2.sum
I0308 09:29:53.236117 16878 net.cpp:380] res3.2.sum_res3.2.relu_0_split -> res3.2.sum_res3.2.relu_0_split_0
I0308 09:29:53.236140 16878 net.cpp:380] res3.2.sum_res3.2.relu_0_split -> res3.2.sum_res3.2.relu_0_split_1
I0308 09:29:53.236187 16878 net.cpp:122] Setting up res3.2.sum_res3.2.relu_0_split
I0308 09:29:53.236194 16878 net.cpp:129] Top shape: 100 512 14 14 (10035200)
I0308 09:29:53.236198 16878 net.cpp:129] Top shape: 100 512 14 14 (10035200)
I0308 09:29:53.236202 16878 net.cpp:137] Memory required for data: 1906689200
I0308 09:29:53.236204 16878 layer_factory.hpp:77] Creating layer res3.3.conv1
I0308 09:29:53.236229 16878 net.cpp:84] Creating Layer res3.3.conv1
I0308 09:29:53.236234 16878 net.cpp:406] res3.3.conv1 <- res3.2.sum_res3.2.relu_0_split_0
I0308 09:29:53.236240 16878 net.cpp:380] res3.3.conv1 -> res3.3.conv1
I0308 09:29:53.238272 16878 net.cpp:122] Setting up res3.3.conv1
I0308 09:29:53.238296 16878 net.cpp:129] Top shape: 100 128 14 14 (2508800)
I0308 09:29:53.238317 16878 net.cpp:137] Memory required for data: 1916724400
I0308 09:29:53.238323 16878 layer_factory.hpp:77] Creating layer res3.3.conv1/relu
I0308 09:29:53.238330 16878 net.cpp:84] Creating Layer res3.3.conv1/relu
I0308 09:29:53.238350 16878 net.cpp:406] res3.3.conv1/relu <- res3.3.conv1
I0308 09:29:53.238355 16878 net.cpp:367] res3.3.conv1/relu -> res3.3.conv1 (in-place)
I0308 09:29:53.238850 16878 net.cpp:122] Setting up res3.3.conv1/relu
I0308 09:29:53.238878 16878 net.cpp:129] Top shape: 100 128 14 14 (2508800)
I0308 09:29:53.238880 16878 net.cpp:137] Memory required for data: 1926759600
I0308 09:29:53.238883 16878 layer_factory.hpp:77] Creating layer res3.3.conv2
I0308 09:29:53.238891 16878 net.cpp:84] Creating Layer res3.3.conv2
I0308 09:29:53.238895 16878 net.cpp:406] res3.3.conv2 <- res3.3.conv1
I0308 09:29:53.238899 16878 net.cpp:380] res3.3.conv2 -> res3.3.conv2
I0308 09:29:53.242125 16878 net.cpp:122] Setting up res3.3.conv2
I0308 09:29:53.242143 16878 net.cpp:129] Top shape: 100 128 14 14 (2508800)
I0308 09:29:53.242147 16878 net.cpp:137] Memory required for data: 1936794800
I0308 09:29:53.242153 16878 layer_factory.hpp:77] Creating layer res3.3.conv2/relu
I0308 09:29:53.242177 16878 net.cpp:84] Creating Layer res3.3.conv2/relu
I0308 09:29:53.242182 16878 net.cpp:406] res3.3.conv2/relu <- res3.3.conv2
I0308 09:29:53.242187 16878 net.cpp:367] res3.3.conv2/relu -> res3.3.conv2 (in-place)
I0308 09:29:53.243001 16878 net.cpp:122] Setting up res3.3.conv2/relu
I0308 09:29:53.243032 16878 net.cpp:129] Top shape: 100 128 14 14 (2508800)
I0308 09:29:53.243036 16878 net.cpp:137] Memory required for data: 1946830000
I0308 09:29:53.243039 16878 layer_factory.hpp:77] Creating layer res3.3.conv3
I0308 09:29:53.243047 16878 net.cpp:84] Creating Layer res3.3.conv3
I0308 09:29:53.243052 16878 net.cpp:406] res3.3.conv3 <- res3.3.conv2
I0308 09:29:53.243073 16878 net.cpp:380] res3.3.conv3 -> res3.3.conv3
I0308 09:29:53.245949 16878 net.cpp:122] Setting up res3.3.conv3
I0308 09:29:53.245972 16878 net.cpp:129] Top shape: 100 512 14 14 (10035200)
I0308 09:29:53.245977 16878 net.cpp:137] Memory required for data: 1986970800
I0308 09:29:53.246001 16878 layer_factory.hpp:77] Creating layer res3.3.sum
I0308 09:29:53.246026 16878 net.cpp:84] Creating Layer res3.3.sum
I0308 09:29:53.246031 16878 net.cpp:406] res3.3.sum <- res3.3.conv3
I0308 09:29:53.246037 16878 net.cpp:406] res3.3.sum <- res3.2.sum_res3.2.relu_0_split_1
I0308 09:29:53.246044 16878 net.cpp:380] res3.3.sum -> res3.3.sum
I0308 09:29:53.246096 16878 net.cpp:122] Setting up res3.3.sum
I0308 09:29:53.246104 16878 net.cpp:129] Top shape: 100 512 14 14 (10035200)
I0308 09:29:53.246107 16878 net.cpp:137] Memory required for data: 2027111600
I0308 09:29:53.246111 16878 layer_factory.hpp:77] Creating layer res3.3.relu
I0308 09:29:53.246116 16878 net.cpp:84] Creating Layer res3.3.relu
I0308 09:29:53.246119 16878 net.cpp:406] res3.3.relu <- res3.3.sum
I0308 09:29:53.246124 16878 net.cpp:367] res3.3.relu -> res3.3.sum (in-place)
I0308 09:29:53.246656 16878 net.cpp:122] Setting up res3.3.relu
I0308 09:29:53.246667 16878 net.cpp:129] Top shape: 100 512 14 14 (10035200)
I0308 09:29:53.246687 16878 net.cpp:137] Memory required for data: 2067252400
I0308 09:29:53.246690 16878 layer_factory.hpp:77] Creating layer res3.3.sum_res3.3.relu_0_split
I0308 09:29:53.246698 16878 net.cpp:84] Creating Layer res3.3.sum_res3.3.relu_0_split
I0308 09:29:53.246701 16878 net.cpp:406] res3.3.sum_res3.3.relu_0_split <- res3.3.sum
I0308 09:29:53.246707 16878 net.cpp:380] res3.3.sum_res3.3.relu_0_split -> res3.3.sum_res3.3.relu_0_split_0
I0308 09:29:53.246733 16878 net.cpp:380] res3.3.sum_res3.3.relu_0_split -> res3.3.sum_res3.3.relu_0_split_1
I0308 09:29:53.246781 16878 net.cpp:122] Setting up res3.3.sum_res3.3.relu_0_split
I0308 09:29:53.246789 16878 net.cpp:129] Top shape: 100 512 14 14 (10035200)
I0308 09:29:53.246794 16878 net.cpp:129] Top shape: 100 512 14 14 (10035200)
I0308 09:29:53.246796 16878 net.cpp:137] Memory required for data: 2147534000
I0308 09:29:53.246814 16878 layer_factory.hpp:77] Creating layer res3.4.conv1
I0308 09:29:53.246820 16878 net.cpp:84] Creating Layer res3.4.conv1
I0308 09:29:53.246826 16878 net.cpp:406] res3.4.conv1 <- res3.3.sum_res3.3.relu_0_split_0
I0308 09:29:53.246832 16878 net.cpp:380] res3.4.conv1 -> res3.4.conv1
I0308 09:29:53.248965 16878 net.cpp:122] Setting up res3.4.conv1
I0308 09:29:53.248980 16878 net.cpp:129] Top shape: 100 128 14 14 (2508800)
I0308 09:29:53.248986 16878 net.cpp:137] Memory required for data: 2157569200
I0308 09:29:53.248991 16878 layer_factory.hpp:77] Creating layer res3.4.conv1/relu
I0308 09:29:53.248998 16878 net.cpp:84] Creating Layer res3.4.conv1/relu
I0308 09:29:53.249003 16878 net.cpp:406] res3.4.conv1/relu <- res3.4.conv1
I0308 09:29:53.249011 16878 net.cpp:367] res3.4.conv1/relu -> res3.4.conv1 (in-place)
I0308 09:29:53.249478 16878 net.cpp:122] Setting up res3.4.conv1/relu
I0308 09:29:53.249490 16878 net.cpp:129] Top shape: 100 128 14 14 (2508800)
I0308 09:29:53.249493 16878 net.cpp:137] Memory required for data: 2167604400
I0308 09:29:53.249496 16878 layer_factory.hpp:77] Creating layer res3.4.conv2
I0308 09:29:53.249505 16878 net.cpp:84] Creating Layer res3.4.conv2
I0308 09:29:53.249511 16878 net.cpp:406] res3.4.conv2 <- res3.4.conv1
I0308 09:29:53.249518 16878 net.cpp:380] res3.4.conv2 -> res3.4.conv2
I0308 09:29:53.252146 16878 net.cpp:122] Setting up res3.4.conv2
I0308 09:29:53.252161 16878 net.cpp:129] Top shape: 100 128 14 14 (2508800)
I0308 09:29:53.252182 16878 net.cpp:137] Memory required for data: 2177639600
I0308 09:29:53.252188 16878 layer_factory.hpp:77] Creating layer res3.4.conv2/relu
I0308 09:29:53.252195 16878 net.cpp:84] Creating Layer res3.4.conv2/relu
I0308 09:29:53.252199 16878 net.cpp:406] res3.4.conv2/relu <- res3.4.conv2
I0308 09:29:53.252207 16878 net.cpp:367] res3.4.conv2/relu -> res3.4.conv2 (in-place)
I0308 09:29:53.252775 16878 net.cpp:122] Setting up res3.4.conv2/relu
I0308 09:29:53.252787 16878 net.cpp:129] Top shape: 100 128 14 14 (2508800)
I0308 09:29:53.252805 16878 net.cpp:137] Memory required for data: 2187674800
I0308 09:29:53.252810 16878 layer_factory.hpp:77] Creating layer res3.4.conv3
I0308 09:29:53.252818 16878 net.cpp:84] Creating Layer res3.4.conv3
I0308 09:29:53.252822 16878 net.cpp:406] res3.4.conv3 <- res3.4.conv2
I0308 09:29:53.252840 16878 net.cpp:380] res3.4.conv3 -> res3.4.conv3
I0308 09:29:53.255180 16878 net.cpp:122] Setting up res3.4.conv3
I0308 09:29:53.255195 16878 net.cpp:129] Top shape: 100 512 14 14 (10035200)
I0308 09:29:53.255214 16878 net.cpp:137] Memory required for data: 2227815600
I0308 09:29:53.255236 16878 layer_factory.hpp:77] Creating layer res3.4.sum
I0308 09:29:53.255244 16878 net.cpp:84] Creating Layer res3.4.sum
I0308 09:29:53.255265 16878 net.cpp:406] res3.4.sum <- res3.4.conv3
I0308 09:29:53.255287 16878 net.cpp:406] res3.4.sum <- res3.3.sum_res3.3.relu_0_split_1
I0308 09:29:53.255296 16878 net.cpp:380] res3.4.sum -> res3.4.sum
I0308 09:29:53.255332 16878 net.cpp:122] Setting up res3.4.sum
I0308 09:29:53.255340 16878 net.cpp:129] Top shape: 100 512 14 14 (10035200)
I0308 09:29:53.255344 16878 net.cpp:137] Memory required for data: 2267956400
I0308 09:29:53.255347 16878 layer_factory.hpp:77] Creating layer res3.4.relu
I0308 09:29:53.255354 16878 net.cpp:84] Creating Layer res3.4.relu
I0308 09:29:53.255357 16878 net.cpp:406] res3.4.relu <- res3.4.sum
I0308 09:29:53.255362 16878 net.cpp:367] res3.4.relu -> res3.4.sum (in-place)
I0308 09:29:53.256278 16878 net.cpp:122] Setting up res3.4.relu
I0308 09:29:53.256292 16878 net.cpp:129] Top shape: 100 512 14 14 (10035200)
I0308 09:29:53.256312 16878 net.cpp:137] Memory required for data: 2308097200
I0308 09:29:53.256316 16878 layer_factory.hpp:77] Creating layer res3.4.sum_res3.4.relu_0_split
I0308 09:29:53.256323 16878 net.cpp:84] Creating Layer res3.4.sum_res3.4.relu_0_split
I0308 09:29:53.256327 16878 net.cpp:406] res3.4.sum_res3.4.relu_0_split <- res3.4.sum
I0308 09:29:53.256335 16878 net.cpp:380] res3.4.sum_res3.4.relu_0_split -> res3.4.sum_res3.4.relu_0_split_0
I0308 09:29:53.256374 16878 net.cpp:380] res3.4.sum_res3.4.relu_0_split -> res3.4.sum_res3.4.relu_0_split_1
I0308 09:29:53.256425 16878 net.cpp:122] Setting up res3.4.sum_res3.4.relu_0_split
I0308 09:29:53.256450 16878 net.cpp:129] Top shape: 100 512 14 14 (10035200)
I0308 09:29:53.256456 16878 net.cpp:129] Top shape: 100 512 14 14 (10035200)
I0308 09:29:53.256459 16878 net.cpp:137] Memory required for data: 2388378800
I0308 09:29:53.256462 16878 layer_factory.hpp:77] Creating layer res3.5.conv1
I0308 09:29:53.256471 16878 net.cpp:84] Creating Layer res3.5.conv1
I0308 09:29:53.256476 16878 net.cpp:406] res3.5.conv1 <- res3.4.sum_res3.4.relu_0_split_0
I0308 09:29:53.256482 16878 net.cpp:380] res3.5.conv1 -> res3.5.conv1
I0308 09:29:53.258847 16878 net.cpp:122] Setting up res3.5.conv1
I0308 09:29:53.258863 16878 net.cpp:129] Top shape: 100 128 14 14 (2508800)
I0308 09:29:53.258886 16878 net.cpp:137] Memory required for data: 2398414000
I0308 09:29:53.258893 16878 layer_factory.hpp:77] Creating layer res3.5.conv1/relu
I0308 09:29:53.258898 16878 net.cpp:84] Creating Layer res3.5.conv1/relu
I0308 09:29:53.258920 16878 net.cpp:406] res3.5.conv1/relu <- res3.5.conv1
I0308 09:29:53.258927 16878 net.cpp:367] res3.5.conv1/relu -> res3.5.conv1 (in-place)
I0308 09:29:53.259408 16878 net.cpp:122] Setting up res3.5.conv1/relu
I0308 09:29:53.259418 16878 net.cpp:129] Top shape: 100 128 14 14 (2508800)
I0308 09:29:53.259423 16878 net.cpp:137] Memory required for data: 2408449200
I0308 09:29:53.259425 16878 layer_factory.hpp:77] Creating layer res3.5.conv2
I0308 09:29:53.259449 16878 net.cpp:84] Creating Layer res3.5.conv2
I0308 09:29:53.259471 16878 net.cpp:406] res3.5.conv2 <- res3.5.conv1
I0308 09:29:53.259479 16878 net.cpp:380] res3.5.conv2 -> res3.5.conv2
I0308 09:29:53.261852 16878 net.cpp:122] Setting up res3.5.conv2
I0308 09:29:53.261889 16878 net.cpp:129] Top shape: 100 128 14 14 (2508800)
I0308 09:29:53.261910 16878 net.cpp:137] Memory required for data: 2418484400
I0308 09:29:53.261917 16878 layer_factory.hpp:77] Creating layer res3.5.conv2/relu
I0308 09:29:53.261942 16878 net.cpp:84] Creating Layer res3.5.conv2/relu
I0308 09:29:53.261946 16878 net.cpp:406] res3.5.conv2/relu <- res3.5.conv2
I0308 09:29:53.261953 16878 net.cpp:367] res3.5.conv2/relu -> res3.5.conv2 (in-place)
I0308 09:29:53.262480 16878 net.cpp:122] Setting up res3.5.conv2/relu
I0308 09:29:53.262490 16878 net.cpp:129] Top shape: 100 128 14 14 (2508800)
I0308 09:29:53.262511 16878 net.cpp:137] Memory required for data: 2428519600
I0308 09:29:53.262513 16878 layer_factory.hpp:77] Creating layer res3.5.conv3
I0308 09:29:53.262534 16878 net.cpp:84] Creating Layer res3.5.conv3
I0308 09:29:53.262557 16878 net.cpp:406] res3.5.conv3 <- res3.5.conv2
I0308 09:29:53.262562 16878 net.cpp:380] res3.5.conv3 -> res3.5.conv3
I0308 09:29:53.264612 16878 net.cpp:122] Setting up res3.5.conv3
I0308 09:29:53.264627 16878 net.cpp:129] Top shape: 100 512 14 14 (10035200)
I0308 09:29:53.264647 16878 net.cpp:137] Memory required for data: 2468660400
I0308 09:29:53.264654 16878 layer_factory.hpp:77] Creating layer res3.5.sum
I0308 09:29:53.264660 16878 net.cpp:84] Creating Layer res3.5.sum
I0308 09:29:53.264665 16878 net.cpp:406] res3.5.sum <- res3.5.conv3
I0308 09:29:53.264669 16878 net.cpp:406] res3.5.sum <- res3.4.sum_res3.4.relu_0_split_1
I0308 09:29:53.264694 16878 net.cpp:380] res3.5.sum -> res3.5.sum
I0308 09:29:53.264726 16878 net.cpp:122] Setting up res3.5.sum
I0308 09:29:53.264734 16878 net.cpp:129] Top shape: 100 512 14 14 (10035200)
I0308 09:29:53.264737 16878 net.cpp:137] Memory required for data: 2508801200
I0308 09:29:53.264740 16878 layer_factory.hpp:77] Creating layer res3.5.relu
I0308 09:29:53.264745 16878 net.cpp:84] Creating Layer res3.5.relu
I0308 09:29:53.264750 16878 net.cpp:406] res3.5.relu <- res3.5.sum
I0308 09:29:53.264755 16878 net.cpp:367] res3.5.relu -> res3.5.sum (in-place)
I0308 09:29:53.265588 16878 net.cpp:122] Setting up res3.5.relu
I0308 09:29:53.265601 16878 net.cpp:129] Top shape: 100 512 14 14 (10035200)
I0308 09:29:53.265633 16878 net.cpp:137] Memory required for data: 2548942000
I0308 09:29:53.265638 16878 layer_factory.hpp:77] Creating layer res3.5.sum_res3.5.relu_0_split
I0308 09:29:53.265661 16878 net.cpp:84] Creating Layer res3.5.sum_res3.5.relu_0_split
I0308 09:29:53.265664 16878 net.cpp:406] res3.5.sum_res3.5.relu_0_split <- res3.5.sum
I0308 09:29:53.265672 16878 net.cpp:380] res3.5.sum_res3.5.relu_0_split -> res3.5.sum_res3.5.relu_0_split_0
I0308 09:29:53.265679 16878 net.cpp:380] res3.5.sum_res3.5.relu_0_split -> res3.5.sum_res3.5.relu_0_split_1
I0308 09:29:53.265733 16878 net.cpp:122] Setting up res3.5.sum_res3.5.relu_0_split
I0308 09:29:53.265739 16878 net.cpp:129] Top shape: 100 512 14 14 (10035200)
I0308 09:29:53.265744 16878 net.cpp:129] Top shape: 100 512 14 14 (10035200)
I0308 09:29:53.265748 16878 net.cpp:137] Memory required for data: 2629223600
I0308 09:29:53.265750 16878 layer_factory.hpp:77] Creating layer res3.6.conv1
I0308 09:29:53.265759 16878 net.cpp:84] Creating Layer res3.6.conv1
I0308 09:29:53.265765 16878 net.cpp:406] res3.6.conv1 <- res3.5.sum_res3.5.relu_0_split_0
I0308 09:29:53.265770 16878 net.cpp:380] res3.6.conv1 -> res3.6.conv1
I0308 09:29:53.267907 16878 net.cpp:122] Setting up res3.6.conv1
I0308 09:29:53.267923 16878 net.cpp:129] Top shape: 100 128 14 14 (2508800)
I0308 09:29:53.267927 16878 net.cpp:137] Memory required for data: 2639258800
I0308 09:29:53.267933 16878 layer_factory.hpp:77] Creating layer res3.6.conv1/relu
I0308 09:29:53.267938 16878 net.cpp:84] Creating Layer res3.6.conv1/relu
I0308 09:29:53.267942 16878 net.cpp:406] res3.6.conv1/relu <- res3.6.conv1
I0308 09:29:53.267947 16878 net.cpp:367] res3.6.conv1/relu -> res3.6.conv1 (in-place)
I0308 09:29:53.268471 16878 net.cpp:122] Setting up res3.6.conv1/relu
I0308 09:29:53.268481 16878 net.cpp:129] Top shape: 100 128 14 14 (2508800)
I0308 09:29:53.268501 16878 net.cpp:137] Memory required for data: 2649294000
I0308 09:29:53.268504 16878 layer_factory.hpp:77] Creating layer res3.6.conv2
I0308 09:29:53.268510 16878 net.cpp:84] Creating Layer res3.6.conv2
I0308 09:29:53.268514 16878 net.cpp:406] res3.6.conv2 <- res3.6.conv1
I0308 09:29:53.268520 16878 net.cpp:380] res3.6.conv2 -> res3.6.conv2
I0308 09:29:53.272943 16878 net.cpp:122] Setting up res3.6.conv2
I0308 09:29:53.272958 16878 net.cpp:129] Top shape: 100 128 14 14 (2508800)
I0308 09:29:53.272977 16878 net.cpp:137] Memory required for data: 2659329200
I0308 09:29:53.272984 16878 layer_factory.hpp:77] Creating layer res3.6.conv2/relu
I0308 09:29:53.272990 16878 net.cpp:84] Creating Layer res3.6.conv2/relu
I0308 09:29:53.272994 16878 net.cpp:406] res3.6.conv2/relu <- res3.6.conv2
I0308 09:29:53.273000 16878 net.cpp:367] res3.6.conv2/relu -> res3.6.conv2 (in-place)
I0308 09:29:53.273517 16878 net.cpp:122] Setting up res3.6.conv2/relu
I0308 09:29:53.273530 16878 net.cpp:129] Top shape: 100 128 14 14 (2508800)
I0308 09:29:53.273550 16878 net.cpp:137] Memory required for data: 2669364400
I0308 09:29:53.273552 16878 layer_factory.hpp:77] Creating layer res3.6.conv3
I0308 09:29:53.273560 16878 net.cpp:84] Creating Layer res3.6.conv3
I0308 09:29:53.273563 16878 net.cpp:406] res3.6.conv3 <- res3.6.conv2
I0308 09:29:53.273568 16878 net.cpp:380] res3.6.conv3 -> res3.6.conv3
I0308 09:29:53.276320 16878 net.cpp:122] Setting up res3.6.conv3
I0308 09:29:53.276351 16878 net.cpp:129] Top shape: 100 512 14 14 (10035200)
I0308 09:29:53.276355 16878 net.cpp:137] Memory required for data: 2709505200
I0308 09:29:53.276361 16878 layer_factory.hpp:77] Creating layer res3.6.sum
I0308 09:29:53.276367 16878 net.cpp:84] Creating Layer res3.6.sum
I0308 09:29:53.276371 16878 net.cpp:406] res3.6.sum <- res3.6.conv3
I0308 09:29:53.276393 16878 net.cpp:406] res3.6.sum <- res3.5.sum_res3.5.relu_0_split_1
I0308 09:29:53.276402 16878 net.cpp:380] res3.6.sum -> res3.6.sum
I0308 09:29:53.276451 16878 net.cpp:122] Setting up res3.6.sum
I0308 09:29:53.276458 16878 net.cpp:129] Top shape: 100 512 14 14 (10035200)
I0308 09:29:53.276463 16878 net.cpp:137] Memory required for data: 2749646000
I0308 09:29:53.276465 16878 layer_factory.hpp:77] Creating layer res3.6.relu
I0308 09:29:53.276484 16878 net.cpp:84] Creating Layer res3.6.relu
I0308 09:29:53.276489 16878 net.cpp:406] res3.6.relu <- res3.6.sum
I0308 09:29:53.276494 16878 net.cpp:367] res3.6.relu -> res3.6.sum (in-place)
I0308 09:29:53.277362 16878 net.cpp:122] Setting up res3.6.relu
I0308 09:29:53.277375 16878 net.cpp:129] Top shape: 100 512 14 14 (10035200)
I0308 09:29:53.277395 16878 net.cpp:137] Memory required for data: 2789786800
I0308 09:29:53.277400 16878 layer_factory.hpp:77] Creating layer res3.6.sum_res3.6.relu_0_split
I0308 09:29:53.277406 16878 net.cpp:84] Creating Layer res3.6.sum_res3.6.relu_0_split
I0308 09:29:53.277410 16878 net.cpp:406] res3.6.sum_res3.6.relu_0_split <- res3.6.sum
I0308 09:29:53.277415 16878 net.cpp:380] res3.6.sum_res3.6.relu_0_split -> res3.6.sum_res3.6.relu_0_split_0
I0308 09:29:53.277441 16878 net.cpp:380] res3.6.sum_res3.6.relu_0_split -> res3.6.sum_res3.6.relu_0_split_1
I0308 09:29:53.277492 16878 net.cpp:122] Setting up res3.6.sum_res3.6.relu_0_split
I0308 09:29:53.277498 16878 net.cpp:129] Top shape: 100 512 14 14 (10035200)
I0308 09:29:53.277503 16878 net.cpp:129] Top shape: 100 512 14 14 (10035200)
I0308 09:29:53.277505 16878 net.cpp:137] Memory required for data: 2870068400
I0308 09:29:53.277508 16878 layer_factory.hpp:77] Creating layer res3.7.conv1
I0308 09:29:53.277518 16878 net.cpp:84] Creating Layer res3.7.conv1
I0308 09:29:53.277520 16878 net.cpp:406] res3.7.conv1 <- res3.6.sum_res3.6.relu_0_split_0
I0308 09:29:53.277528 16878 net.cpp:380] res3.7.conv1 -> res3.7.conv1
I0308 09:29:53.279655 16878 net.cpp:122] Setting up res3.7.conv1
I0308 09:29:53.279670 16878 net.cpp:129] Top shape: 100 128 14 14 (2508800)
I0308 09:29:53.279691 16878 net.cpp:137] Memory required for data: 2880103600
I0308 09:29:53.279698 16878 layer_factory.hpp:77] Creating layer res3.7.conv1/relu
I0308 09:29:53.279705 16878 net.cpp:84] Creating Layer res3.7.conv1/relu
I0308 09:29:53.279707 16878 net.cpp:406] res3.7.conv1/relu <- res3.7.conv1
I0308 09:29:53.279712 16878 net.cpp:367] res3.7.conv1/relu -> res3.7.conv1 (in-place)
I0308 09:29:53.280203 16878 net.cpp:122] Setting up res3.7.conv1/relu
I0308 09:29:53.280213 16878 net.cpp:129] Top shape: 100 128 14 14 (2508800)
I0308 09:29:53.280232 16878 net.cpp:137] Memory required for data: 2890138800
I0308 09:29:53.280236 16878 layer_factory.hpp:77] Creating layer res3.7.conv2
I0308 09:29:53.280243 16878 net.cpp:84] Creating Layer res3.7.conv2
I0308 09:29:53.280247 16878 net.cpp:406] res3.7.conv2 <- res3.7.conv1
I0308 09:29:53.280251 16878 net.cpp:380] res3.7.conv2 -> res3.7.conv2
I0308 09:29:53.282716 16878 net.cpp:122] Setting up res3.7.conv2
I0308 09:29:53.282749 16878 net.cpp:129] Top shape: 100 128 14 14 (2508800)
I0308 09:29:53.282752 16878 net.cpp:137] Memory required for data: 2900174000
I0308 09:29:53.282759 16878 layer_factory.hpp:77] Creating layer res3.7.conv2/relu
I0308 09:29:53.282765 16878 net.cpp:84] Creating Layer res3.7.conv2/relu
I0308 09:29:53.282769 16878 net.cpp:406] res3.7.conv2/relu <- res3.7.conv2
I0308 09:29:53.282790 16878 net.cpp:367] res3.7.conv2/relu -> res3.7.conv2 (in-place)
I0308 09:29:53.283351 16878 net.cpp:122] Setting up res3.7.conv2/relu
I0308 09:29:53.283361 16878 net.cpp:129] Top shape: 100 128 14 14 (2508800)
I0308 09:29:53.283380 16878 net.cpp:137] Memory required for data: 2910209200
I0308 09:29:53.283383 16878 layer_factory.hpp:77] Creating layer res3.7.conv3
I0308 09:29:53.283391 16878 net.cpp:84] Creating Layer res3.7.conv3
I0308 09:29:53.283396 16878 net.cpp:406] res3.7.conv3 <- res3.7.conv2
I0308 09:29:53.283401 16878 net.cpp:380] res3.7.conv3 -> res3.7.conv3
I0308 09:29:53.286753 16878 net.cpp:122] Setting up res3.7.conv3
I0308 09:29:53.286785 16878 net.cpp:129] Top shape: 100 512 14 14 (10035200)
I0308 09:29:53.286789 16878 net.cpp:137] Memory required for data: 2950350000
I0308 09:29:53.286795 16878 layer_factory.hpp:77] Creating layer res3.7.sum
I0308 09:29:53.286804 16878 net.cpp:84] Creating Layer res3.7.sum
I0308 09:29:53.286825 16878 net.cpp:406] res3.7.sum <- res3.7.conv3
I0308 09:29:53.286844 16878 net.cpp:406] res3.7.sum <- res3.6.sum_res3.6.relu_0_split_1
I0308 09:29:53.286854 16878 net.cpp:380] res3.7.sum -> res3.7.sum
I0308 09:29:53.286888 16878 net.cpp:122] Setting up res3.7.sum
I0308 09:29:53.286896 16878 net.cpp:129] Top shape: 100 512 14 14 (10035200)
I0308 09:29:53.286900 16878 net.cpp:137] Memory required for data: 2990490800
I0308 09:29:53.286903 16878 layer_factory.hpp:77] Creating layer res3.7.relu
I0308 09:29:53.286908 16878 net.cpp:84] Creating Layer res3.7.relu
I0308 09:29:53.286911 16878 net.cpp:406] res3.7.relu <- res3.7.sum
I0308 09:29:53.286917 16878 net.cpp:367] res3.7.relu -> res3.7.sum (in-place)
I0308 09:29:53.287400 16878 net.cpp:122] Setting up res3.7.relu
I0308 09:29:53.287410 16878 net.cpp:129] Top shape: 100 512 14 14 (10035200)
I0308 09:29:53.287430 16878 net.cpp:137] Memory required for data: 3030631600
I0308 09:29:53.287433 16878 layer_factory.hpp:77] Creating layer res3.7.sum_res3.7.relu_0_split
I0308 09:29:53.287439 16878 net.cpp:84] Creating Layer res3.7.sum_res3.7.relu_0_split
I0308 09:29:53.287442 16878 net.cpp:406] res3.7.sum_res3.7.relu_0_split <- res3.7.sum
I0308 09:29:53.287448 16878 net.cpp:380] res3.7.sum_res3.7.relu_0_split -> res3.7.sum_res3.7.relu_0_split_0
I0308 09:29:53.287472 16878 net.cpp:380] res3.7.sum_res3.7.relu_0_split -> res3.7.sum_res3.7.relu_0_split_1
I0308 09:29:53.287523 16878 net.cpp:122] Setting up res3.7.sum_res3.7.relu_0_split
I0308 09:29:53.287530 16878 net.cpp:129] Top shape: 100 512 14 14 (10035200)
I0308 09:29:53.287550 16878 net.cpp:129] Top shape: 100 512 14 14 (10035200)
I0308 09:29:53.287554 16878 net.cpp:137] Memory required for data: 3110913200
I0308 09:29:53.287559 16878 layer_factory.hpp:77] Creating layer res3.8.conv1
I0308 09:29:53.287567 16878 net.cpp:84] Creating Layer res3.8.conv1
I0308 09:29:53.287571 16878 net.cpp:406] res3.8.conv1 <- res3.7.sum_res3.7.relu_0_split_0
I0308 09:29:53.287576 16878 net.cpp:380] res3.8.conv1 -> res3.8.conv1
I0308 09:29:53.289748 16878 net.cpp:122] Setting up res3.8.conv1
I0308 09:29:53.289765 16878 net.cpp:129] Top shape: 100 128 14 14 (2508800)
I0308 09:29:53.289785 16878 net.cpp:137] Memory required for data: 3120948400
I0308 09:29:53.289801 16878 layer_factory.hpp:77] Creating layer res3.8.conv1/relu
I0308 09:29:53.289810 16878 net.cpp:84] Creating Layer res3.8.conv1/relu
I0308 09:29:53.289814 16878 net.cpp:406] res3.8.conv1/relu <- res3.8.conv1
I0308 09:29:53.289820 16878 net.cpp:367] res3.8.conv1/relu -> res3.8.conv1 (in-place)
I0308 09:29:53.290704 16878 net.cpp:122] Setting up res3.8.conv1/relu
I0308 09:29:53.290717 16878 net.cpp:129] Top shape: 100 128 14 14 (2508800)
I0308 09:29:53.290738 16878 net.cpp:137] Memory required for data: 3130983600
I0308 09:29:53.290741 16878 layer_factory.hpp:77] Creating layer res3.8.conv2
I0308 09:29:53.290750 16878 net.cpp:84] Creating Layer res3.8.conv2
I0308 09:29:53.290753 16878 net.cpp:406] res3.8.conv2 <- res3.8.conv1
I0308 09:29:53.290760 16878 net.cpp:380] res3.8.conv2 -> res3.8.conv2
I0308 09:29:53.293962 16878 net.cpp:122] Setting up res3.8.conv2
I0308 09:29:53.293995 16878 net.cpp:129] Top shape: 100 128 14 14 (2508800)
I0308 09:29:53.293999 16878 net.cpp:137] Memory required for data: 3141018800
I0308 09:29:53.294006 16878 layer_factory.hpp:77] Creating layer res3.8.conv2/relu
I0308 09:29:53.294013 16878 net.cpp:84] Creating Layer res3.8.conv2/relu
I0308 09:29:53.294018 16878 net.cpp:406] res3.8.conv2/relu <- res3.8.conv2
I0308 09:29:53.294039 16878 net.cpp:367] res3.8.conv2/relu -> res3.8.conv2 (in-place)
I0308 09:29:53.294605 16878 net.cpp:122] Setting up res3.8.conv2/relu
I0308 09:29:53.294616 16878 net.cpp:129] Top shape: 100 128 14 14 (2508800)
I0308 09:29:53.294636 16878 net.cpp:137] Memory required for data: 3151054000
I0308 09:29:53.294639 16878 layer_factory.hpp:77] Creating layer res3.8.conv3
I0308 09:29:53.294648 16878 net.cpp:84] Creating Layer res3.8.conv3
I0308 09:29:53.294651 16878 net.cpp:406] res3.8.conv3 <- res3.8.conv2
I0308 09:29:53.294657 16878 net.cpp:380] res3.8.conv3 -> res3.8.conv3
I0308 09:29:53.296813 16878 net.cpp:122] Setting up res3.8.conv3
I0308 09:29:53.296828 16878 net.cpp:129] Top shape: 100 512 14 14 (10035200)
I0308 09:29:53.296831 16878 net.cpp:137] Memory required for data: 3191194800
I0308 09:29:53.296836 16878 layer_factory.hpp:77] Creating layer res3.8.sum
I0308 09:29:53.296844 16878 net.cpp:84] Creating Layer res3.8.sum
I0308 09:29:53.296846 16878 net.cpp:406] res3.8.sum <- res3.8.conv3
I0308 09:29:53.296850 16878 net.cpp:406] res3.8.sum <- res3.7.sum_res3.7.relu_0_split_1
I0308 09:29:53.296856 16878 net.cpp:380] res3.8.sum -> res3.8.sum
I0308 09:29:53.296921 16878 net.cpp:122] Setting up res3.8.sum
I0308 09:29:53.296927 16878 net.cpp:129] Top shape: 100 512 14 14 (10035200)
I0308 09:29:53.296931 16878 net.cpp:137] Memory required for data: 3231335600
I0308 09:29:53.296933 16878 layer_factory.hpp:77] Creating layer res3.8.relu
I0308 09:29:53.296938 16878 net.cpp:84] Creating Layer res3.8.relu
I0308 09:29:53.296941 16878 net.cpp:406] res3.8.relu <- res3.8.sum
I0308 09:29:53.296947 16878 net.cpp:367] res3.8.relu -> res3.8.sum (in-place)
I0308 09:29:53.297438 16878 net.cpp:122] Setting up res3.8.relu
I0308 09:29:53.297449 16878 net.cpp:129] Top shape: 100 512 14 14 (10035200)
I0308 09:29:53.297451 16878 net.cpp:137] Memory required for data: 3271476400
I0308 09:29:53.297454 16878 layer_factory.hpp:77] Creating layer res3.8.sum_res3.8.relu_0_split
I0308 09:29:53.297461 16878 net.cpp:84] Creating Layer res3.8.sum_res3.8.relu_0_split
I0308 09:29:53.297464 16878 net.cpp:406] res3.8.sum_res3.8.relu_0_split <- res3.8.sum
I0308 09:29:53.297469 16878 net.cpp:380] res3.8.sum_res3.8.relu_0_split -> res3.8.sum_res3.8.relu_0_split_0
I0308 09:29:53.297477 16878 net.cpp:380] res3.8.sum_res3.8.relu_0_split -> res3.8.sum_res3.8.relu_0_split_1
I0308 09:29:53.297569 16878 net.cpp:122] Setting up res3.8.sum_res3.8.relu_0_split
I0308 09:29:53.297577 16878 net.cpp:129] Top shape: 100 512 14 14 (10035200)
I0308 09:29:53.297581 16878 net.cpp:129] Top shape: 100 512 14 14 (10035200)
I0308 09:29:53.297585 16878 net.cpp:137] Memory required for data: 3351758000
I0308 09:29:53.297587 16878 layer_factory.hpp:77] Creating layer res3.9.conv1
I0308 09:29:53.297595 16878 net.cpp:84] Creating Layer res3.9.conv1
I0308 09:29:53.297598 16878 net.cpp:406] res3.9.conv1 <- res3.8.sum_res3.8.relu_0_split_0
I0308 09:29:53.297605 16878 net.cpp:380] res3.9.conv1 -> res3.9.conv1
I0308 09:29:53.299643 16878 net.cpp:122] Setting up res3.9.conv1
I0308 09:29:53.299656 16878 net.cpp:129] Top shape: 100 128 14 14 (2508800)
I0308 09:29:53.299659 16878 net.cpp:137] Memory required for data: 3361793200
I0308 09:29:53.299665 16878 layer_factory.hpp:77] Creating layer res3.9.conv1/relu
I0308 09:29:53.299672 16878 net.cpp:84] Creating Layer res3.9.conv1/relu
I0308 09:29:53.299676 16878 net.cpp:406] res3.9.conv1/relu <- res3.9.conv1
I0308 09:29:53.299681 16878 net.cpp:367] res3.9.conv1/relu -> res3.9.conv1 (in-place)
I0308 09:29:53.300519 16878 net.cpp:122] Setting up res3.9.conv1/relu
I0308 09:29:53.300534 16878 net.cpp:129] Top shape: 100 128 14 14 (2508800)
I0308 09:29:53.300536 16878 net.cpp:137] Memory required for data: 3371828400
I0308 09:29:53.300540 16878 layer_factory.hpp:77] Creating layer res3.9.conv2
I0308 09:29:53.300546 16878 net.cpp:84] Creating Layer res3.9.conv2
I0308 09:29:53.300550 16878 net.cpp:406] res3.9.conv2 <- res3.9.conv1
I0308 09:29:53.300556 16878 net.cpp:380] res3.9.conv2 -> res3.9.conv2
I0308 09:29:53.303818 16878 net.cpp:122] Setting up res3.9.conv2
I0308 09:29:53.303850 16878 net.cpp:129] Top shape: 100 128 14 14 (2508800)
I0308 09:29:53.303853 16878 net.cpp:137] Memory required for data: 3381863600
I0308 09:29:53.303875 16878 layer_factory.hpp:77] Creating layer res3.9.conv2/relu
I0308 09:29:53.303881 16878 net.cpp:84] Creating Layer res3.9.conv2/relu
I0308 09:29:53.303900 16878 net.cpp:406] res3.9.conv2/relu <- res3.9.conv2
I0308 09:29:53.303905 16878 net.cpp:367] res3.9.conv2/relu -> res3.9.conv2 (in-place)
I0308 09:29:53.304440 16878 net.cpp:122] Setting up res3.9.conv2/relu
I0308 09:29:53.304451 16878 net.cpp:129] Top shape: 100 128 14 14 (2508800)
I0308 09:29:53.304464 16878 net.cpp:137] Memory required for data: 3391898800
I0308 09:29:53.304468 16878 layer_factory.hpp:77] Creating layer res3.9.conv3
I0308 09:29:53.304476 16878 net.cpp:84] Creating Layer res3.9.conv3
I0308 09:29:53.304479 16878 net.cpp:406] res3.9.conv3 <- res3.9.conv2
I0308 09:29:53.304484 16878 net.cpp:380] res3.9.conv3 -> res3.9.conv3
I0308 09:29:53.306567 16878 net.cpp:122] Setting up res3.9.conv3
I0308 09:29:53.306582 16878 net.cpp:129] Top shape: 100 512 14 14 (10035200)
I0308 09:29:53.306586 16878 net.cpp:137] Memory required for data: 3432039600
I0308 09:29:53.306591 16878 layer_factory.hpp:77] Creating layer res3.9.sum
I0308 09:29:53.306597 16878 net.cpp:84] Creating Layer res3.9.sum
I0308 09:29:53.306602 16878 net.cpp:406] res3.9.sum <- res3.9.conv3
I0308 09:29:53.306605 16878 net.cpp:406] res3.9.sum <- res3.8.sum_res3.8.relu_0_split_1
I0308 09:29:53.306609 16878 net.cpp:380] res3.9.sum -> res3.9.sum
I0308 09:29:53.306672 16878 net.cpp:122] Setting up res3.9.sum
I0308 09:29:53.306680 16878 net.cpp:129] Top shape: 100 512 14 14 (10035200)
I0308 09:29:53.306684 16878 net.cpp:137] Memory required for data: 3472180400
I0308 09:29:53.306686 16878 layer_factory.hpp:77] Creating layer res3.9.relu
I0308 09:29:53.306694 16878 net.cpp:84] Creating Layer res3.9.relu
I0308 09:29:53.306697 16878 net.cpp:406] res3.9.relu <- res3.9.sum
I0308 09:29:53.306701 16878 net.cpp:367] res3.9.relu -> res3.9.sum (in-place)
I0308 09:29:53.307168 16878 net.cpp:122] Setting up res3.9.relu
I0308 09:29:53.307178 16878 net.cpp:129] Top shape: 100 512 14 14 (10035200)
I0308 09:29:53.307198 16878 net.cpp:137] Memory required for data: 3512321200
I0308 09:29:53.307200 16878 layer_factory.hpp:77] Creating layer res3.9.sum_res3.9.relu_0_split
I0308 09:29:53.307206 16878 net.cpp:84] Creating Layer res3.9.sum_res3.9.relu_0_split
I0308 09:29:53.307210 16878 net.cpp:406] res3.9.sum_res3.9.relu_0_split <- res3.9.sum
I0308 09:29:53.307215 16878 net.cpp:380] res3.9.sum_res3.9.relu_0_split -> res3.9.sum_res3.9.relu_0_split_0
I0308 09:29:53.307237 16878 net.cpp:380] res3.9.sum_res3.9.relu_0_split -> res3.9.sum_res3.9.relu_0_split_1
I0308 09:29:53.307288 16878 net.cpp:122] Setting up res3.9.sum_res3.9.relu_0_split
I0308 09:29:53.307296 16878 net.cpp:129] Top shape: 100 512 14 14 (10035200)
I0308 09:29:53.307301 16878 net.cpp:129] Top shape: 100 512 14 14 (10035200)
I0308 09:29:53.307302 16878 net.cpp:137] Memory required for data: 3592602800
I0308 09:29:53.307305 16878 layer_factory.hpp:77] Creating layer res3.10.conv1
I0308 09:29:53.307330 16878 net.cpp:84] Creating Layer res3.10.conv1
I0308 09:29:53.307337 16878 net.cpp:406] res3.10.conv1 <- res3.9.sum_res3.9.relu_0_split_0
I0308 09:29:53.307343 16878 net.cpp:380] res3.10.conv1 -> res3.10.conv1
I0308 09:29:53.309505 16878 net.cpp:122] Setting up res3.10.conv1
I0308 09:29:53.309520 16878 net.cpp:129] Top shape: 100 128 14 14 (2508800)
I0308 09:29:53.309525 16878 net.cpp:137] Memory required for data: 3602638000
I0308 09:29:53.309548 16878 layer_factory.hpp:77] Creating layer res3.10.conv1/relu
I0308 09:29:53.309556 16878 net.cpp:84] Creating Layer res3.10.conv1/relu
I0308 09:29:53.309559 16878 net.cpp:406] res3.10.conv1/relu <- res3.10.conv1
I0308 09:29:53.309566 16878 net.cpp:367] res3.10.conv1/relu -> res3.10.conv1 (in-place)
I0308 09:29:53.310433 16878 net.cpp:122] Setting up res3.10.conv1/relu
I0308 09:29:53.310447 16878 net.cpp:129] Top shape: 100 128 14 14 (2508800)
I0308 09:29:53.310451 16878 net.cpp:137] Memory required for data: 3612673200
I0308 09:29:53.310454 16878 layer_factory.hpp:77] Creating layer res3.10.conv2
I0308 09:29:53.310479 16878 net.cpp:84] Creating Layer res3.10.conv2
I0308 09:29:53.310484 16878 net.cpp:406] res3.10.conv2 <- res3.10.conv1
I0308 09:29:53.310492 16878 net.cpp:380] res3.10.conv2 -> res3.10.conv2
I0308 09:29:53.312930 16878 net.cpp:122] Setting up res3.10.conv2
I0308 09:29:53.312944 16878 net.cpp:129] Top shape: 100 128 14 14 (2508800)
I0308 09:29:53.312950 16878 net.cpp:137] Memory required for data: 3622708400
I0308 09:29:53.312985 16878 layer_factory.hpp:77] Creating layer res3.10.conv2/relu
I0308 09:29:53.312995 16878 net.cpp:84] Creating Layer res3.10.conv2/relu
I0308 09:29:53.312999 16878 net.cpp:406] res3.10.conv2/relu <- res3.10.conv2
I0308 09:29:53.313005 16878 net.cpp:367] res3.10.conv2/relu -> res3.10.conv2 (in-place)
I0308 09:29:53.313541 16878 net.cpp:122] Setting up res3.10.conv2/relu
I0308 09:29:53.313552 16878 net.cpp:129] Top shape: 100 128 14 14 (2508800)
I0308 09:29:53.313571 16878 net.cpp:137] Memory required for data: 3632743600
I0308 09:29:53.313575 16878 layer_factory.hpp:77] Creating layer res3.10.conv3
I0308 09:29:53.313582 16878 net.cpp:84] Creating Layer res3.10.conv3
I0308 09:29:53.313586 16878 net.cpp:406] res3.10.conv3 <- res3.10.conv2
I0308 09:29:53.313591 16878 net.cpp:380] res3.10.conv3 -> res3.10.conv3
I0308 09:29:53.315665 16878 net.cpp:122] Setting up res3.10.conv3
I0308 09:29:53.315696 16878 net.cpp:129] Top shape: 100 512 14 14 (10035200)
I0308 09:29:53.315701 16878 net.cpp:137] Memory required for data: 3672884400
I0308 09:29:53.315707 16878 layer_factory.hpp:77] Creating layer res3.10.sum
I0308 09:29:53.315713 16878 net.cpp:84] Creating Layer res3.10.sum
I0308 09:29:53.315716 16878 net.cpp:406] res3.10.sum <- res3.10.conv3
I0308 09:29:53.315738 16878 net.cpp:406] res3.10.sum <- res3.9.sum_res3.9.relu_0_split_1
I0308 09:29:53.315744 16878 net.cpp:380] res3.10.sum -> res3.10.sum
I0308 09:29:53.315793 16878 net.cpp:122] Setting up res3.10.sum
I0308 09:29:53.315800 16878 net.cpp:129] Top shape: 100 512 14 14 (10035200)
I0308 09:29:53.315804 16878 net.cpp:137] Memory required for data: 3713025200
I0308 09:29:53.315807 16878 layer_factory.hpp:77] Creating layer res3.10.relu
I0308 09:29:53.315814 16878 net.cpp:84] Creating Layer res3.10.relu
I0308 09:29:53.315825 16878 net.cpp:406] res3.10.relu <- res3.10.sum
I0308 09:29:53.315830 16878 net.cpp:367] res3.10.relu -> res3.10.sum (in-place)
I0308 09:29:53.316315 16878 net.cpp:122] Setting up res3.10.relu
I0308 09:29:53.316326 16878 net.cpp:129] Top shape: 100 512 14 14 (10035200)
I0308 09:29:53.316345 16878 net.cpp:137] Memory required for data: 3753166000
I0308 09:29:53.316349 16878 layer_factory.hpp:77] Creating layer res3.10.sum_res3.10.relu_0_split
I0308 09:29:53.316354 16878 net.cpp:84] Creating Layer res3.10.sum_res3.10.relu_0_split
I0308 09:29:53.316357 16878 net.cpp:406] res3.10.sum_res3.10.relu_0_split <- res3.10.sum
I0308 09:29:53.316363 16878 net.cpp:380] res3.10.sum_res3.10.relu_0_split -> res3.10.sum_res3.10.relu_0_split_0
I0308 09:29:53.316387 16878 net.cpp:380] res3.10.sum_res3.10.relu_0_split -> res3.10.sum_res3.10.relu_0_split_1
I0308 09:29:53.316444 16878 net.cpp:122] Setting up res3.10.sum_res3.10.relu_0_split
I0308 09:29:53.316452 16878 net.cpp:129] Top shape: 100 512 14 14 (10035200)
I0308 09:29:53.316457 16878 net.cpp:129] Top shape: 100 512 14 14 (10035200)
I0308 09:29:53.316460 16878 net.cpp:137] Memory required for data: 3833447600
I0308 09:29:53.316463 16878 layer_factory.hpp:77] Creating layer res3.11.conv1
I0308 09:29:53.316470 16878 net.cpp:84] Creating Layer res3.11.conv1
I0308 09:29:53.316473 16878 net.cpp:406] res3.11.conv1 <- res3.10.sum_res3.10.relu_0_split_0
I0308 09:29:53.316480 16878 net.cpp:380] res3.11.conv1 -> res3.11.conv1
I0308 09:29:53.318645 16878 net.cpp:122] Setting up res3.11.conv1
I0308 09:29:53.318657 16878 net.cpp:129] Top shape: 100 256 14 14 (5017600)
I0308 09:29:53.318661 16878 net.cpp:137] Memory required for data: 3853518000
I0308 09:29:53.318667 16878 layer_factory.hpp:77] Creating layer res3.11.conv1/relu
I0308 09:29:53.318672 16878 net.cpp:84] Creating Layer res3.11.conv1/relu
I0308 09:29:53.318677 16878 net.cpp:406] res3.11.conv1/relu <- res3.11.conv1
I0308 09:29:53.318682 16878 net.cpp:367] res3.11.conv1/relu -> res3.11.conv1 (in-place)
I0308 09:29:53.319223 16878 net.cpp:122] Setting up res3.11.conv1/relu
I0308 09:29:53.319233 16878 net.cpp:129] Top shape: 100 256 14 14 (5017600)
I0308 09:29:53.319236 16878 net.cpp:137] Memory required for data: 3873588400
I0308 09:29:53.319239 16878 layer_factory.hpp:77] Creating layer res3.11.conv2
I0308 09:29:53.319258 16878 net.cpp:84] Creating Layer res3.11.conv2
I0308 09:29:53.319262 16878 net.cpp:406] res3.11.conv2 <- res3.11.conv1
I0308 09:29:53.319268 16878 net.cpp:380] res3.11.conv2 -> res3.11.conv2
I0308 09:29:53.322782 16878 net.cpp:122] Setting up res3.11.conv2
I0308 09:29:53.322795 16878 net.cpp:129] Top shape: 100 256 14 14 (5017600)
I0308 09:29:53.322798 16878 net.cpp:137] Memory required for data: 3893658800
I0308 09:29:53.322804 16878 layer_factory.hpp:77] Creating layer res3.11.conv2/relu
I0308 09:29:53.322811 16878 net.cpp:84] Creating Layer res3.11.conv2/relu
I0308 09:29:53.322815 16878 net.cpp:406] res3.11.conv2/relu <- res3.11.conv2
I0308 09:29:53.322819 16878 net.cpp:367] res3.11.conv2/relu -> res3.11.conv2 (in-place)
I0308 09:29:53.323691 16878 net.cpp:122] Setting up res3.11.conv2/relu
I0308 09:29:53.323721 16878 net.cpp:129] Top shape: 100 256 14 14 (5017600)
I0308 09:29:53.323725 16878 net.cpp:137] Memory required for data: 3913729200
I0308 09:29:53.323729 16878 layer_factory.hpp:77] Creating layer res3.11.conv3
I0308 09:29:53.323751 16878 net.cpp:84] Creating Layer res3.11.conv3
I0308 09:29:53.323771 16878 net.cpp:406] res3.11.conv3 <- res3.11.conv2
I0308 09:29:53.323779 16878 net.cpp:380] res3.11.conv3 -> res3.11.conv3
I0308 09:29:53.326876 16878 net.cpp:122] Setting up res3.11.conv3
I0308 09:29:53.326907 16878 net.cpp:129] Top shape: 100 1024 14 14 (20070400)
I0308 09:29:53.326927 16878 net.cpp:137] Memory required for data: 3994010800
I0308 09:29:53.326936 16878 layer_factory.hpp:77] Creating layer res3.11.skipConv
I0308 09:29:53.326944 16878 net.cpp:84] Creating Layer res3.11.skipConv
I0308 09:29:53.326949 16878 net.cpp:406] res3.11.skipConv <- res3.10.sum_res3.10.relu_0_split_1
I0308 09:29:53.326957 16878 net.cpp:380] res3.11.skipConv -> res3.11.skipConv
I0308 09:29:53.330703 16878 net.cpp:122] Setting up res3.11.skipConv
I0308 09:29:53.330716 16878 net.cpp:129] Top shape: 100 1024 14 14 (20070400)
I0308 09:29:53.330719 16878 net.cpp:137] Memory required for data: 4074292400
I0308 09:29:53.330725 16878 layer_factory.hpp:77] Creating layer res3.11.sum
I0308 09:29:53.330732 16878 net.cpp:84] Creating Layer res3.11.sum
I0308 09:29:53.330735 16878 net.cpp:406] res3.11.sum <- res3.11.conv3
I0308 09:29:53.330754 16878 net.cpp:406] res3.11.sum <- res3.11.skipConv
I0308 09:29:53.330762 16878 net.cpp:380] res3.11.sum -> res3.11.sum
I0308 09:29:53.330845 16878 net.cpp:122] Setting up res3.11.sum
I0308 09:29:53.330853 16878 net.cpp:129] Top shape: 100 1024 14 14 (20070400)
I0308 09:29:53.330857 16878 net.cpp:137] Memory required for data: 4154574000
I0308 09:29:53.330860 16878 layer_factory.hpp:77] Creating layer res3.11.relu
I0308 09:29:53.330865 16878 net.cpp:84] Creating Layer res3.11.relu
I0308 09:29:53.330885 16878 net.cpp:406] res3.11.relu <- res3.11.sum
I0308 09:29:53.330893 16878 net.cpp:367] res3.11.relu -> res3.11.sum (in-place)
I0308 09:29:53.331446 16878 net.cpp:122] Setting up res3.11.relu
I0308 09:29:53.331456 16878 net.cpp:129] Top shape: 100 1024 14 14 (20070400)
I0308 09:29:53.331475 16878 net.cpp:137] Memory required for data: 4234855600
I0308 09:29:53.331478 16878 layer_factory.hpp:77] Creating layer res3.11.sum_res3.11.relu_0_split
I0308 09:29:53.331483 16878 net.cpp:84] Creating Layer res3.11.sum_res3.11.relu_0_split
I0308 09:29:53.331487 16878 net.cpp:406] res3.11.sum_res3.11.relu_0_split <- res3.11.sum
I0308 09:29:53.331493 16878 net.cpp:380] res3.11.sum_res3.11.relu_0_split -> res3.11.sum_res3.11.relu_0_split_0
I0308 09:29:53.331516 16878 net.cpp:380] res3.11.sum_res3.11.relu_0_split -> res3.11.sum_res3.11.relu_0_split_1
I0308 09:29:53.331585 16878 net.cpp:122] Setting up res3.11.sum_res3.11.relu_0_split
I0308 09:29:53.331593 16878 net.cpp:129] Top shape: 100 1024 14 14 (20070400)
I0308 09:29:53.331598 16878 net.cpp:129] Top shape: 100 1024 14 14 (20070400)
I0308 09:29:53.331599 16878 net.cpp:137] Memory required for data: 4395418800
I0308 09:29:53.331602 16878 layer_factory.hpp:77] Creating layer res4.1.conv1
I0308 09:29:53.331626 16878 net.cpp:84] Creating Layer res4.1.conv1
I0308 09:29:53.331632 16878 net.cpp:406] res4.1.conv1 <- res3.11.sum_res3.11.relu_0_split_0
I0308 09:29:53.331637 16878 net.cpp:380] res4.1.conv1 -> res4.1.conv1
I0308 09:29:53.333989 16878 net.cpp:122] Setting up res4.1.conv1
I0308 09:29:53.334022 16878 net.cpp:129] Top shape: 100 256 14 14 (5017600)
I0308 09:29:53.334025 16878 net.cpp:137] Memory required for data: 4415489200
I0308 09:29:53.334031 16878 layer_factory.hpp:77] Creating layer res4.1.conv1/relu
I0308 09:29:53.334038 16878 net.cpp:84] Creating Layer res4.1.conv1/relu
I0308 09:29:53.334043 16878 net.cpp:406] res4.1.conv1/relu <- res4.1.conv1
I0308 09:29:53.334049 16878 net.cpp:367] res4.1.conv1/relu -> res4.1.conv1 (in-place)
I0308 09:29:53.334579 16878 net.cpp:122] Setting up res4.1.conv1/relu
I0308 09:29:53.334589 16878 net.cpp:129] Top shape: 100 256 14 14 (5017600)
I0308 09:29:53.334609 16878 net.cpp:137] Memory required for data: 4435559600
I0308 09:29:53.334614 16878 layer_factory.hpp:77] Creating layer res4.1.conv2
I0308 09:29:53.334621 16878 net.cpp:84] Creating Layer res4.1.conv2
I0308 09:29:53.334625 16878 net.cpp:406] res4.1.conv2 <- res4.1.conv1
I0308 09:29:53.334632 16878 net.cpp:380] res4.1.conv2 -> res4.1.conv2
I0308 09:29:53.337908 16878 net.cpp:122] Setting up res4.1.conv2
I0308 09:29:53.337937 16878 net.cpp:129] Top shape: 100 256 7 7 (1254400)
I0308 09:29:53.337941 16878 net.cpp:137] Memory required for data: 4440577200
I0308 09:29:53.337949 16878 layer_factory.hpp:77] Creating layer res4.1.conv2/relu
I0308 09:29:53.337956 16878 net.cpp:84] Creating Layer res4.1.conv2/relu
I0308 09:29:53.337960 16878 net.cpp:406] res4.1.conv2/relu <- res4.1.conv2
I0308 09:29:53.337965 16878 net.cpp:367] res4.1.conv2/relu -> res4.1.conv2 (in-place)
I0308 09:29:53.338868 16878 net.cpp:122] Setting up res4.1.conv2/relu
I0308 09:29:53.338881 16878 net.cpp:129] Top shape: 100 256 7 7 (1254400)
I0308 09:29:53.338901 16878 net.cpp:137] Memory required for data: 4445594800
I0308 09:29:53.338903 16878 layer_factory.hpp:77] Creating layer res4.1.conv3
I0308 09:29:53.338912 16878 net.cpp:84] Creating Layer res4.1.conv3
I0308 09:29:53.338915 16878 net.cpp:406] res4.1.conv3 <- res4.1.conv2
I0308 09:29:53.338937 16878 net.cpp:380] res4.1.conv3 -> res4.1.conv3
I0308 09:29:53.342352 16878 net.cpp:122] Setting up res4.1.conv3
I0308 09:29:53.342367 16878 net.cpp:129] Top shape: 100 1024 7 7 (5017600)
I0308 09:29:53.342370 16878 net.cpp:137] Memory required for data: 4465665200
I0308 09:29:53.342376 16878 layer_factory.hpp:77] Creating layer res4.1.skipConv
I0308 09:29:53.342386 16878 net.cpp:84] Creating Layer res4.1.skipConv
I0308 09:29:53.342389 16878 net.cpp:406] res4.1.skipConv <- res3.11.sum_res3.11.relu_0_split_1
I0308 09:29:53.342396 16878 net.cpp:380] res4.1.skipConv -> res4.1.skipConv
I0308 09:29:53.346333 16878 net.cpp:122] Setting up res4.1.skipConv
I0308 09:29:53.346348 16878 net.cpp:129] Top shape: 100 1024 7 7 (5017600)
I0308 09:29:53.346351 16878 net.cpp:137] Memory required for data: 4485735600
I0308 09:29:53.346356 16878 layer_factory.hpp:77] Creating layer res4.1.sum
I0308 09:29:53.346362 16878 net.cpp:84] Creating Layer res4.1.sum
I0308 09:29:53.346366 16878 net.cpp:406] res4.1.sum <- res4.1.conv3
I0308 09:29:53.346370 16878 net.cpp:406] res4.1.sum <- res4.1.skipConv
I0308 09:29:53.346376 16878 net.cpp:380] res4.1.sum -> res4.1.sum
I0308 09:29:53.346441 16878 net.cpp:122] Setting up res4.1.sum
I0308 09:29:53.346448 16878 net.cpp:129] Top shape: 100 1024 7 7 (5017600)
I0308 09:29:53.346451 16878 net.cpp:137] Memory required for data: 4505806000
I0308 09:29:53.346454 16878 layer_factory.hpp:77] Creating layer res4.1.relu
I0308 09:29:53.346460 16878 net.cpp:84] Creating Layer res4.1.relu
I0308 09:29:53.346464 16878 net.cpp:406] res4.1.relu <- res4.1.sum
I0308 09:29:53.346469 16878 net.cpp:367] res4.1.relu -> res4.1.sum (in-place)
I0308 09:29:53.346940 16878 net.cpp:122] Setting up res4.1.relu
I0308 09:29:53.346951 16878 net.cpp:129] Top shape: 100 1024 7 7 (5017600)
I0308 09:29:53.346969 16878 net.cpp:137] Memory required for data: 4525876400
I0308 09:29:53.346985 16878 layer_factory.hpp:77] Creating layer res4.1.sum_res4.1.relu_0_split
I0308 09:29:53.347007 16878 net.cpp:84] Creating Layer res4.1.sum_res4.1.relu_0_split
I0308 09:29:53.347012 16878 net.cpp:406] res4.1.sum_res4.1.relu_0_split <- res4.1.sum
I0308 09:29:53.347018 16878 net.cpp:380] res4.1.sum_res4.1.relu_0_split -> res4.1.sum_res4.1.relu_0_split_0
I0308 09:29:53.347025 16878 net.cpp:380] res4.1.sum_res4.1.relu_0_split -> res4.1.sum_res4.1.relu_0_split_1
I0308 09:29:53.347077 16878 net.cpp:122] Setting up res4.1.sum_res4.1.relu_0_split
I0308 09:29:53.347084 16878 net.cpp:129] Top shape: 100 1024 7 7 (5017600)
I0308 09:29:53.347088 16878 net.cpp:129] Top shape: 100 1024 7 7 (5017600)
I0308 09:29:53.347092 16878 net.cpp:137] Memory required for data: 4566017200
I0308 09:29:53.347095 16878 layer_factory.hpp:77] Creating layer res4.2.conv1
I0308 09:29:53.347105 16878 net.cpp:84] Creating Layer res4.2.conv1
I0308 09:29:53.347108 16878 net.cpp:406] res4.2.conv1 <- res4.1.sum_res4.1.relu_0_split_0
I0308 09:29:53.347115 16878 net.cpp:380] res4.2.conv1 -> res4.2.conv1
I0308 09:29:53.349313 16878 net.cpp:122] Setting up res4.2.conv1
I0308 09:29:53.349328 16878 net.cpp:129] Top shape: 100 256 7 7 (1254400)
I0308 09:29:53.349347 16878 net.cpp:137] Memory required for data: 4571034800
I0308 09:29:53.349354 16878 layer_factory.hpp:77] Creating layer res4.2.conv1/relu
I0308 09:29:53.349360 16878 net.cpp:84] Creating Layer res4.2.conv1/relu
I0308 09:29:53.349364 16878 net.cpp:406] res4.2.conv1/relu <- res4.2.conv1
I0308 09:29:53.349370 16878 net.cpp:367] res4.2.conv1/relu -> res4.2.conv1 (in-place)
I0308 09:29:53.349911 16878 net.cpp:122] Setting up res4.2.conv1/relu
I0308 09:29:53.349921 16878 net.cpp:129] Top shape: 100 256 7 7 (1254400)
I0308 09:29:53.349941 16878 net.cpp:137] Memory required for data: 4576052400
I0308 09:29:53.349944 16878 layer_factory.hpp:77] Creating layer res4.2.conv2
I0308 09:29:53.349987 16878 net.cpp:84] Creating Layer res4.2.conv2
I0308 09:29:53.349992 16878 net.cpp:406] res4.2.conv2 <- res4.2.conv1
I0308 09:29:53.349997 16878 net.cpp:380] res4.2.conv2 -> res4.2.conv2
I0308 09:29:53.353896 16878 net.cpp:122] Setting up res4.2.conv2
I0308 09:29:53.353911 16878 net.cpp:129] Top shape: 100 256 7 7 (1254400)
I0308 09:29:53.353931 16878 net.cpp:137] Memory required for data: 4581070000
I0308 09:29:53.353938 16878 layer_factory.hpp:77] Creating layer res4.2.conv2/relu
I0308 09:29:53.353945 16878 net.cpp:84] Creating Layer res4.2.conv2/relu
I0308 09:29:53.353950 16878 net.cpp:406] res4.2.conv2/relu <- res4.2.conv2
I0308 09:29:53.353955 16878 net.cpp:367] res4.2.conv2/relu -> res4.2.conv2 (in-place)
I0308 09:29:53.354858 16878 net.cpp:122] Setting up res4.2.conv2/relu
I0308 09:29:53.354871 16878 net.cpp:129] Top shape: 100 256 7 7 (1254400)
I0308 09:29:53.354892 16878 net.cpp:137] Memory required for data: 4586087600
I0308 09:29:53.354894 16878 layer_factory.hpp:77] Creating layer res4.2.conv3
I0308 09:29:53.354904 16878 net.cpp:84] Creating Layer res4.2.conv3
I0308 09:29:53.354908 16878 net.cpp:406] res4.2.conv3 <- res4.2.conv2
I0308 09:29:53.354931 16878 net.cpp:380] res4.2.conv3 -> res4.2.conv3
I0308 09:29:53.357980 16878 net.cpp:122] Setting up res4.2.conv3
I0308 09:29:53.358011 16878 net.cpp:129] Top shape: 100 1024 7 7 (5017600)
I0308 09:29:53.358014 16878 net.cpp:137] Memory required for data: 4606158000
I0308 09:29:53.358021 16878 layer_factory.hpp:77] Creating layer res4.2.sum
I0308 09:29:53.358028 16878 net.cpp:84] Creating Layer res4.2.sum
I0308 09:29:53.358032 16878 net.cpp:406] res4.2.sum <- res4.2.conv3
I0308 09:29:53.358052 16878 net.cpp:406] res4.2.sum <- res4.1.sum_res4.1.relu_0_split_1
I0308 09:29:53.358062 16878 net.cpp:380] res4.2.sum -> res4.2.sum
I0308 09:29:53.358098 16878 net.cpp:122] Setting up res4.2.sum
I0308 09:29:53.358105 16878 net.cpp:129] Top shape: 100 1024 7 7 (5017600)
I0308 09:29:53.358108 16878 net.cpp:137] Memory required for data: 4626228400
I0308 09:29:53.358112 16878 layer_factory.hpp:77] Creating layer res4.2.relu
I0308 09:29:53.358131 16878 net.cpp:84] Creating Layer res4.2.relu
I0308 09:29:53.358136 16878 net.cpp:406] res4.2.relu <- res4.2.sum
I0308 09:29:53.358141 16878 net.cpp:367] res4.2.relu -> res4.2.sum (in-place)
I0308 09:29:53.358639 16878 net.cpp:122] Setting up res4.2.relu
I0308 09:29:53.358649 16878 net.cpp:129] Top shape: 100 1024 7 7 (5017600)
I0308 09:29:53.358667 16878 net.cpp:137] Memory required for data: 4646298800
I0308 09:29:53.358670 16878 layer_factory.hpp:77] Creating layer res4.2.sum_res4.2.relu_0_split
I0308 09:29:53.358676 16878 net.cpp:84] Creating Layer res4.2.sum_res4.2.relu_0_split
I0308 09:29:53.358680 16878 net.cpp:406] res4.2.sum_res4.2.relu_0_split <- res4.2.sum
I0308 09:29:53.358685 16878 net.cpp:380] res4.2.sum_res4.2.relu_0_split -> res4.2.sum_res4.2.relu_0_split_0
I0308 09:29:53.358708 16878 net.cpp:380] res4.2.sum_res4.2.relu_0_split -> res4.2.sum_res4.2.relu_0_split_1
I0308 09:29:53.358764 16878 net.cpp:122] Setting up res4.2.sum_res4.2.relu_0_split
I0308 09:29:53.358772 16878 net.cpp:129] Top shape: 100 1024 7 7 (5017600)
I0308 09:29:53.358777 16878 net.cpp:129] Top shape: 100 1024 7 7 (5017600)
I0308 09:29:53.358778 16878 net.cpp:137] Memory required for data: 4686439600
I0308 09:29:53.358783 16878 layer_factory.hpp:77] Creating layer res4.3.conv1
I0308 09:29:53.358790 16878 net.cpp:84] Creating Layer res4.3.conv1
I0308 09:29:53.358794 16878 net.cpp:406] res4.3.conv1 <- res4.2.sum_res4.2.relu_0_split_0
I0308 09:29:53.358799 16878 net.cpp:380] res4.3.conv1 -> res4.3.conv1
I0308 09:29:53.361086 16878 net.cpp:122] Setting up res4.3.conv1
I0308 09:29:53.361100 16878 net.cpp:129] Top shape: 100 256 7 7 (1254400)
I0308 09:29:53.361119 16878 net.cpp:137] Memory required for data: 4691457200
I0308 09:29:53.361125 16878 layer_factory.hpp:77] Creating layer res4.3.conv1/relu
I0308 09:29:53.361131 16878 net.cpp:84] Creating Layer res4.3.conv1/relu
I0308 09:29:53.361135 16878 net.cpp:406] res4.3.conv1/relu <- res4.3.conv1
I0308 09:29:53.361156 16878 net.cpp:367] res4.3.conv1/relu -> res4.3.conv1 (in-place)
I0308 09:29:53.361632 16878 net.cpp:122] Setting up res4.3.conv1/relu
I0308 09:29:53.361644 16878 net.cpp:129] Top shape: 100 256 7 7 (1254400)
I0308 09:29:53.361662 16878 net.cpp:137] Memory required for data: 4696474800
I0308 09:29:53.361665 16878 layer_factory.hpp:77] Creating layer res4.3.conv2
I0308 09:29:53.361673 16878 net.cpp:84] Creating Layer res4.3.conv2
I0308 09:29:53.361677 16878 net.cpp:406] res4.3.conv2 <- res4.3.conv1
I0308 09:29:53.361697 16878 net.cpp:380] res4.3.conv2 -> res4.3.conv2
I0308 09:29:53.365782 16878 net.cpp:122] Setting up res4.3.conv2
I0308 09:29:53.365811 16878 net.cpp:129] Top shape: 100 256 7 7 (1254400)
I0308 09:29:53.365816 16878 net.cpp:137] Memory required for data: 4701492400
I0308 09:29:53.365823 16878 layer_factory.hpp:77] Creating layer res4.3.conv2/relu
I0308 09:29:53.365828 16878 net.cpp:84] Creating Layer res4.3.conv2/relu
I0308 09:29:53.365833 16878 net.cpp:406] res4.3.conv2/relu <- res4.3.conv2
I0308 09:29:53.365854 16878 net.cpp:367] res4.3.conv2/relu -> res4.3.conv2 (in-place)
I0308 09:29:53.366466 16878 net.cpp:122] Setting up res4.3.conv2/relu
I0308 09:29:53.366477 16878 net.cpp:129] Top shape: 100 256 7 7 (1254400)
I0308 09:29:53.366497 16878 net.cpp:137] Memory required for data: 4706510000
I0308 09:29:53.366500 16878 layer_factory.hpp:77] Creating layer res4.3.conv3
I0308 09:29:53.366508 16878 net.cpp:84] Creating Layer res4.3.conv3
I0308 09:29:53.366513 16878 net.cpp:406] res4.3.conv3 <- res4.3.conv2
I0308 09:29:53.366518 16878 net.cpp:380] res4.3.conv3 -> res4.3.conv3
I0308 09:29:53.369854 16878 net.cpp:122] Setting up res4.3.conv3
I0308 09:29:53.369911 16878 net.cpp:129] Top shape: 100 1024 7 7 (5017600)
I0308 09:29:53.369916 16878 net.cpp:137] Memory required for data: 4726580400
I0308 09:29:53.369922 16878 layer_factory.hpp:77] Creating layer res4.3.sum
I0308 09:29:53.369930 16878 net.cpp:84] Creating Layer res4.3.sum
I0308 09:29:53.369935 16878 net.cpp:406] res4.3.sum <- res4.3.conv3
I0308 09:29:53.369940 16878 net.cpp:406] res4.3.sum <- res4.2.sum_res4.2.relu_0_split_1
I0308 09:29:53.369984 16878 net.cpp:380] res4.3.sum -> res4.3.sum
I0308 09:29:53.370028 16878 net.cpp:122] Setting up res4.3.sum
I0308 09:29:53.370035 16878 net.cpp:129] Top shape: 100 1024 7 7 (5017600)
I0308 09:29:53.370039 16878 net.cpp:137] Memory required for data: 4746650800
I0308 09:29:53.370043 16878 layer_factory.hpp:77] Creating layer res4.3.relu
I0308 09:29:53.370049 16878 net.cpp:84] Creating Layer res4.3.relu
I0308 09:29:53.370054 16878 net.cpp:406] res4.3.relu <- res4.3.sum
I0308 09:29:53.370057 16878 net.cpp:367] res4.3.relu -> res4.3.sum (in-place)
I0308 09:29:53.370996 16878 net.cpp:122] Setting up res4.3.relu
I0308 09:29:53.371027 16878 net.cpp:129] Top shape: 100 1024 7 7 (5017600)
I0308 09:29:53.371031 16878 net.cpp:137] Memory required for data: 4766721200
I0308 09:29:53.371034 16878 layer_factory.hpp:77] Creating layer res4.3.sum_res4.3.relu_0_split
I0308 09:29:53.371040 16878 net.cpp:84] Creating Layer res4.3.sum_res4.3.relu_0_split
I0308 09:29:53.371044 16878 net.cpp:406] res4.3.sum_res4.3.relu_0_split <- res4.3.sum
I0308 09:29:53.371050 16878 net.cpp:380] res4.3.sum_res4.3.relu_0_split -> res4.3.sum_res4.3.relu_0_split_0
I0308 09:29:53.371074 16878 net.cpp:380] res4.3.sum_res4.3.relu_0_split -> res4.3.sum_res4.3.relu_0_split_1
I0308 09:29:53.371129 16878 net.cpp:122] Setting up res4.3.sum_res4.3.relu_0_split
I0308 09:29:53.371137 16878 net.cpp:129] Top shape: 100 1024 7 7 (5017600)
I0308 09:29:53.371140 16878 net.cpp:129] Top shape: 100 1024 7 7 (5017600)
I0308 09:29:53.371143 16878 net.cpp:137] Memory required for data: 4806862000
I0308 09:29:53.371146 16878 layer_factory.hpp:77] Creating layer res4.4.conv1
I0308 09:29:53.371156 16878 net.cpp:84] Creating Layer res4.4.conv1
I0308 09:29:53.371160 16878 net.cpp:406] res4.4.conv1 <- res4.3.sum_res4.3.relu_0_split_0
I0308 09:29:53.371166 16878 net.cpp:380] res4.4.conv1 -> res4.4.conv1
I0308 09:29:53.373385 16878 net.cpp:122] Setting up res4.4.conv1
I0308 09:29:53.373415 16878 net.cpp:129] Top shape: 100 256 7 7 (1254400)
I0308 09:29:53.373419 16878 net.cpp:137] Memory required for data: 4811879600
I0308 09:29:53.373425 16878 layer_factory.hpp:77] Creating layer res4.4.conv1/relu
I0308 09:29:53.373430 16878 net.cpp:84] Creating Layer res4.4.conv1/relu
I0308 09:29:53.373435 16878 net.cpp:406] res4.4.conv1/relu <- res4.4.conv1
I0308 09:29:53.373440 16878 net.cpp:367] res4.4.conv1/relu -> res4.4.conv1 (in-place)
I0308 09:29:53.373973 16878 net.cpp:122] Setting up res4.4.conv1/relu
I0308 09:29:53.373983 16878 net.cpp:129] Top shape: 100 256 7 7 (1254400)
I0308 09:29:53.374003 16878 net.cpp:137] Memory required for data: 4816897200
I0308 09:29:53.374007 16878 layer_factory.hpp:77] Creating layer res4.4.conv2
I0308 09:29:53.374016 16878 net.cpp:84] Creating Layer res4.4.conv2
I0308 09:29:53.374020 16878 net.cpp:406] res4.4.conv2 <- res4.4.conv1
I0308 09:29:53.374027 16878 net.cpp:380] res4.4.conv2 -> res4.4.conv2
I0308 09:29:53.377737 16878 net.cpp:122] Setting up res4.4.conv2
I0308 09:29:53.377749 16878 net.cpp:129] Top shape: 100 256 7 7 (1254400)
I0308 09:29:53.377753 16878 net.cpp:137] Memory required for data: 4821914800
I0308 09:29:53.377759 16878 layer_factory.hpp:77] Creating layer res4.4.conv2/relu
I0308 09:29:53.377780 16878 net.cpp:84] Creating Layer res4.4.conv2/relu
I0308 09:29:53.377784 16878 net.cpp:406] res4.4.conv2/relu <- res4.4.conv2
I0308 09:29:53.377789 16878 net.cpp:367] res4.4.conv2/relu -> res4.4.conv2 (in-place)
I0308 09:29:53.378409 16878 net.cpp:122] Setting up res4.4.conv2/relu
I0308 09:29:53.378420 16878 net.cpp:129] Top shape: 100 256 7 7 (1254400)
I0308 09:29:53.378423 16878 net.cpp:137] Memory required for data: 4826932400
I0308 09:29:53.378427 16878 layer_factory.hpp:77] Creating layer res4.4.conv3
I0308 09:29:53.378434 16878 net.cpp:84] Creating Layer res4.4.conv3
I0308 09:29:53.378438 16878 net.cpp:406] res4.4.conv3 <- res4.4.conv2
I0308 09:29:53.378444 16878 net.cpp:380] res4.4.conv3 -> res4.4.conv3
I0308 09:29:53.381512 16878 net.cpp:122] Setting up res4.4.conv3
I0308 09:29:53.381537 16878 net.cpp:129] Top shape: 100 1024 7 7 (5017600)
I0308 09:29:53.381541 16878 net.cpp:137] Memory required for data: 4847002800
I0308 09:29:53.381547 16878 layer_factory.hpp:77] Creating layer res4.4.sum
I0308 09:29:53.381553 16878 net.cpp:84] Creating Layer res4.4.sum
I0308 09:29:53.381557 16878 net.cpp:406] res4.4.sum <- res4.4.conv3
I0308 09:29:53.381561 16878 net.cpp:406] res4.4.sum <- res4.3.sum_res4.3.relu_0_split_1
I0308 09:29:53.381568 16878 net.cpp:380] res4.4.sum -> res4.4.sum
I0308 09:29:53.381633 16878 net.cpp:122] Setting up res4.4.sum
I0308 09:29:53.381644 16878 net.cpp:129] Top shape: 100 1024 7 7 (5017600)
I0308 09:29:53.381646 16878 net.cpp:137] Memory required for data: 4867073200
I0308 09:29:53.381649 16878 layer_factory.hpp:77] Creating layer res4.4.relu
I0308 09:29:53.381654 16878 net.cpp:84] Creating Layer res4.4.relu
I0308 09:29:53.381657 16878 net.cpp:406] res4.4.relu <- res4.4.sum
I0308 09:29:53.381678 16878 net.cpp:367] res4.4.relu -> res4.4.sum (in-place)
I0308 09:29:53.382604 16878 net.cpp:122] Setting up res4.4.relu
I0308 09:29:53.382619 16878 net.cpp:129] Top shape: 100 1024 7 7 (5017600)
I0308 09:29:53.382623 16878 net.cpp:137] Memory required for data: 4887143600
I0308 09:29:53.382627 16878 layer_factory.hpp:77] Creating layer res4.4.sum_res4.4.relu_0_split
I0308 09:29:53.382632 16878 net.cpp:84] Creating Layer res4.4.sum_res4.4.relu_0_split
I0308 09:29:53.382635 16878 net.cpp:406] res4.4.sum_res4.4.relu_0_split <- res4.4.sum
I0308 09:29:53.382642 16878 net.cpp:380] res4.4.sum_res4.4.relu_0_split -> res4.4.sum_res4.4.relu_0_split_0
I0308 09:29:53.382649 16878 net.cpp:380] res4.4.sum_res4.4.relu_0_split -> res4.4.sum_res4.4.relu_0_split_1
I0308 09:29:53.382735 16878 net.cpp:122] Setting up res4.4.sum_res4.4.relu_0_split
I0308 09:29:53.382743 16878 net.cpp:129] Top shape: 100 1024 7 7 (5017600)
I0308 09:29:53.382748 16878 net.cpp:129] Top shape: 100 1024 7 7 (5017600)
I0308 09:29:53.382751 16878 net.cpp:137] Memory required for data: 4927284400
I0308 09:29:53.382755 16878 layer_factory.hpp:77] Creating layer res4.5.conv1
I0308 09:29:53.382761 16878 net.cpp:84] Creating Layer res4.5.conv1
I0308 09:29:53.382766 16878 net.cpp:406] res4.5.conv1 <- res4.4.sum_res4.4.relu_0_split_0
I0308 09:29:53.382772 16878 net.cpp:380] res4.5.conv1 -> res4.5.conv1
I0308 09:29:53.386083 16878 net.cpp:122] Setting up res4.5.conv1
I0308 09:29:53.386097 16878 net.cpp:129] Top shape: 100 512 7 7 (2508800)
I0308 09:29:53.386118 16878 net.cpp:137] Memory required for data: 4937319600
I0308 09:29:53.386124 16878 layer_factory.hpp:77] Creating layer res4.5.conv1/relu
I0308 09:29:53.386132 16878 net.cpp:84] Creating Layer res4.5.conv1/relu
I0308 09:29:53.386135 16878 net.cpp:406] res4.5.conv1/relu <- res4.5.conv1
I0308 09:29:53.386157 16878 net.cpp:367] res4.5.conv1/relu -> res4.5.conv1 (in-place)
I0308 09:29:53.386669 16878 net.cpp:122] Setting up res4.5.conv1/relu
I0308 09:29:53.386680 16878 net.cpp:129] Top shape: 100 512 7 7 (2508800)
I0308 09:29:53.386683 16878 net.cpp:137] Memory required for data: 4947354800
I0308 09:29:53.386687 16878 layer_factory.hpp:77] Creating layer res4.5.conv2
I0308 09:29:53.386693 16878 net.cpp:84] Creating Layer res4.5.conv2
I0308 09:29:53.386695 16878 net.cpp:406] res4.5.conv2 <- res4.5.conv1
I0308 09:29:53.386701 16878 net.cpp:380] res4.5.conv2 -> res4.5.conv2
I0308 09:29:53.392640 16878 net.cpp:122] Setting up res4.5.conv2
I0308 09:29:53.392657 16878 net.cpp:129] Top shape: 100 512 7 7 (2508800)
I0308 09:29:53.392662 16878 net.cpp:137] Memory required for data: 4957390000
I0308 09:29:53.392668 16878 layer_factory.hpp:77] Creating layer res4.5.conv2/relu
I0308 09:29:53.392673 16878 net.cpp:84] Creating Layer res4.5.conv2/relu
I0308 09:29:53.392678 16878 net.cpp:406] res4.5.conv2/relu <- res4.5.conv2
I0308 09:29:53.392681 16878 net.cpp:367] res4.5.conv2/relu -> res4.5.conv2 (in-place)
I0308 09:29:53.393195 16878 net.cpp:122] Setting up res4.5.conv2/relu
I0308 09:29:53.393206 16878 net.cpp:129] Top shape: 100 512 7 7 (2508800)
I0308 09:29:53.393209 16878 net.cpp:137] Memory required for data: 4967425200
I0308 09:29:53.393224 16878 layer_factory.hpp:77] Creating layer res4.5.conv3
I0308 09:29:53.393231 16878 net.cpp:84] Creating Layer res4.5.conv3
I0308 09:29:53.393235 16878 net.cpp:406] res4.5.conv3 <- res4.5.conv2
I0308 09:29:53.393241 16878 net.cpp:380] res4.5.conv3 -> res4.5.conv3
I0308 09:29:53.396498 16878 net.cpp:122] Setting up res4.5.conv3
I0308 09:29:53.396528 16878 net.cpp:129] Top shape: 100 1024 7 7 (5017600)
I0308 09:29:53.396533 16878 net.cpp:137] Memory required for data: 4987495600
I0308 09:29:53.396538 16878 layer_factory.hpp:77] Creating layer res4.5.skipConv
I0308 09:29:53.396548 16878 net.cpp:84] Creating Layer res4.5.skipConv
I0308 09:29:53.396566 16878 net.cpp:406] res4.5.skipConv <- res4.4.sum_res4.4.relu_0_split_1
I0308 09:29:53.396575 16878 net.cpp:380] res4.5.skipConv -> res4.5.skipConv
I0308 09:29:53.400748 16878 net.cpp:122] Setting up res4.5.skipConv
I0308 09:29:53.400774 16878 net.cpp:129] Top shape: 100 1024 7 7 (5017600)
I0308 09:29:53.400794 16878 net.cpp:137] Memory required for data: 5007566000
I0308 09:29:53.400802 16878 layer_factory.hpp:77] Creating layer res4.5.sum
I0308 09:29:53.400810 16878 net.cpp:84] Creating Layer res4.5.sum
I0308 09:29:53.400815 16878 net.cpp:406] res4.5.sum <- res4.5.conv3
I0308 09:29:53.400820 16878 net.cpp:406] res4.5.sum <- res4.5.skipConv
I0308 09:29:53.400826 16878 net.cpp:380] res4.5.sum -> res4.5.sum
I0308 09:29:53.400864 16878 net.cpp:122] Setting up res4.5.sum
I0308 09:29:53.400873 16878 net.cpp:129] Top shape: 100 1024 7 7 (5017600)
I0308 09:29:53.400876 16878 net.cpp:137] Memory required for data: 5027636400
I0308 09:29:53.400880 16878 layer_factory.hpp:77] Creating layer res4.5.relu
I0308 09:29:53.400889 16878 net.cpp:84] Creating Layer res4.5.relu
I0308 09:29:53.400895 16878 net.cpp:406] res4.5.relu <- res4.5.sum
I0308 09:29:53.400899 16878 net.cpp:367] res4.5.relu -> res4.5.sum (in-place)
I0308 09:29:53.401895 16878 net.cpp:122] Setting up res4.5.relu
I0308 09:29:53.401926 16878 net.cpp:129] Top shape: 100 1024 7 7 (5017600)
I0308 09:29:53.401929 16878 net.cpp:137] Memory required for data: 5047706800
I0308 09:29:53.401932 16878 layer_factory.hpp:77] Creating layer res4.5.sum_res4.5.relu_0_split
I0308 09:29:53.401940 16878 net.cpp:84] Creating Layer res4.5.sum_res4.5.relu_0_split
I0308 09:29:53.401944 16878 net.cpp:406] res4.5.sum_res4.5.relu_0_split <- res4.5.sum
I0308 09:29:53.401952 16878 net.cpp:380] res4.5.sum_res4.5.relu_0_split -> res4.5.sum_res4.5.relu_0_split_0
I0308 09:29:53.401959 16878 net.cpp:380] res4.5.sum_res4.5.relu_0_split -> res4.5.sum_res4.5.relu_0_split_1
I0308 09:29:53.402035 16878 net.cpp:122] Setting up res4.5.sum_res4.5.relu_0_split
I0308 09:29:53.402043 16878 net.cpp:129] Top shape: 100 1024 7 7 (5017600)
I0308 09:29:53.402048 16878 net.cpp:129] Top shape: 100 1024 7 7 (5017600)
I0308 09:29:53.402051 16878 net.cpp:137] Memory required for data: 5087847600
I0308 09:29:53.402055 16878 layer_factory.hpp:77] Creating layer res4.6.conv1
I0308 09:29:53.402065 16878 net.cpp:84] Creating Layer res4.6.conv1
I0308 09:29:53.402070 16878 net.cpp:406] res4.6.conv1 <- res4.5.sum_res4.5.relu_0_split_0
I0308 09:29:53.402076 16878 net.cpp:380] res4.6.conv1 -> res4.6.conv1
I0308 09:29:53.405774 16878 net.cpp:122] Setting up res4.6.conv1
I0308 09:29:53.405791 16878 net.cpp:129] Top shape: 100 512 7 7 (2508800)
I0308 09:29:53.405810 16878 net.cpp:137] Memory required for data: 5097882800
I0308 09:29:53.405817 16878 layer_factory.hpp:77] Creating layer res4.6.conv1/relu
I0308 09:29:53.405825 16878 net.cpp:84] Creating Layer res4.6.conv1/relu
I0308 09:29:53.405829 16878 net.cpp:406] res4.6.conv1/relu <- res4.6.conv1
I0308 09:29:53.405834 16878 net.cpp:367] res4.6.conv1/relu -> res4.6.conv1 (in-place)
I0308 09:29:53.406446 16878 net.cpp:122] Setting up res4.6.conv1/relu
I0308 09:29:53.406477 16878 net.cpp:129] Top shape: 100 512 7 7 (2508800)
I0308 09:29:53.406481 16878 net.cpp:137] Memory required for data: 5107918000
I0308 09:29:53.406484 16878 layer_factory.hpp:77] Creating layer res4.6.conv2
I0308 09:29:53.406507 16878 net.cpp:84] Creating Layer res4.6.conv2
I0308 09:29:53.406512 16878 net.cpp:406] res4.6.conv2 <- res4.6.conv1
I0308 09:29:53.406520 16878 net.cpp:380] res4.6.conv2 -> res4.6.conv2
I0308 09:29:53.412899 16878 net.cpp:122] Setting up res4.6.conv2
I0308 09:29:53.412931 16878 net.cpp:129] Top shape: 100 512 7 7 (2508800)
I0308 09:29:53.412936 16878 net.cpp:137] Memory required for data: 5117953200
I0308 09:29:53.412942 16878 layer_factory.hpp:77] Creating layer res4.6.conv2/relu
I0308 09:29:53.412951 16878 net.cpp:84] Creating Layer res4.6.conv2/relu
I0308 09:29:53.412955 16878 net.cpp:406] res4.6.conv2/relu <- res4.6.conv2
I0308 09:29:53.412961 16878 net.cpp:367] res4.6.conv2/relu -> res4.6.conv2 (in-place)
I0308 09:29:53.413465 16878 net.cpp:122] Setting up res4.6.conv2/relu
I0308 09:29:53.413475 16878 net.cpp:129] Top shape: 100 512 7 7 (2508800)
I0308 09:29:53.413492 16878 net.cpp:137] Memory required for data: 5127988400
I0308 09:29:53.413496 16878 layer_factory.hpp:77] Creating layer res4.6.conv3
I0308 09:29:53.413506 16878 net.cpp:84] Creating Layer res4.6.conv3
I0308 09:29:53.413511 16878 net.cpp:406] res4.6.conv3 <- res4.6.conv2
I0308 09:29:53.413516 16878 net.cpp:380] res4.6.conv3 -> res4.6.conv3
I0308 09:29:53.417377 16878 net.cpp:122] Setting up res4.6.conv3
I0308 09:29:53.417407 16878 net.cpp:129] Top shape: 100 1024 7 7 (5017600)
I0308 09:29:53.417412 16878 net.cpp:137] Memory required for data: 5148058800
I0308 09:29:53.417449 16878 layer_factory.hpp:77] Creating layer res4.6.sum
I0308 09:29:53.417461 16878 net.cpp:84] Creating Layer res4.6.sum
I0308 09:29:53.417466 16878 net.cpp:406] res4.6.sum <- res4.6.conv3
I0308 09:29:53.417471 16878 net.cpp:406] res4.6.sum <- res4.5.sum_res4.5.relu_0_split_1
I0308 09:29:53.417476 16878 net.cpp:380] res4.6.sum -> res4.6.sum
I0308 09:29:53.417542 16878 net.cpp:122] Setting up res4.6.sum
I0308 09:29:53.417551 16878 net.cpp:129] Top shape: 100 1024 7 7 (5017600)
I0308 09:29:53.417553 16878 net.cpp:137] Memory required for data: 5168129200
I0308 09:29:53.417557 16878 layer_factory.hpp:77] Creating layer res4.6.relu
I0308 09:29:53.417562 16878 net.cpp:84] Creating Layer res4.6.relu
I0308 09:29:53.417565 16878 net.cpp:406] res4.6.relu <- res4.6.sum
I0308 09:29:53.417569 16878 net.cpp:367] res4.6.relu -> res4.6.sum (in-place)
I0308 09:29:53.418118 16878 net.cpp:122] Setting up res4.6.relu
I0308 09:29:53.418146 16878 net.cpp:129] Top shape: 100 1024 7 7 (5017600)
I0308 09:29:53.418149 16878 net.cpp:137] Memory required for data: 5188199600
I0308 09:29:53.418153 16878 layer_factory.hpp:77] Creating layer pool5
I0308 09:29:53.418174 16878 net.cpp:84] Creating Layer pool5
I0308 09:29:53.418179 16878 net.cpp:406] pool5 <- res4.6.sum
I0308 09:29:53.418200 16878 net.cpp:380] pool5 -> pool5
I0308 09:29:53.419152 16878 net.cpp:122] Setting up pool5
I0308 09:29:53.419164 16878 net.cpp:129] Top shape: 100 1024 1 1 (102400)
I0308 09:29:53.419167 16878 net.cpp:137] Memory required for data: 5188609200
I0308 09:29:53.419172 16878 layer_factory.hpp:77] Creating layer fc
I0308 09:29:53.419178 16878 net.cpp:84] Creating Layer fc
I0308 09:29:53.419180 16878 net.cpp:406] fc <- pool5
I0308 09:29:53.419188 16878 net.cpp:380] fc -> fc
I0308 09:29:53.421267 16878 net.cpp:122] Setting up fc
I0308 09:29:53.421280 16878 net.cpp:129] Top shape: 100 1000 (100000)
I0308 09:29:53.421284 16878 net.cpp:137] Memory required for data: 5189009200
I0308 09:29:53.421290 16878 layer_factory.hpp:77] Creating layer fc_fc_0_split
I0308 09:29:53.421311 16878 net.cpp:84] Creating Layer fc_fc_0_split
I0308 09:29:53.421315 16878 net.cpp:406] fc_fc_0_split <- fc
I0308 09:29:53.421321 16878 net.cpp:380] fc_fc_0_split -> fc_fc_0_split_0
I0308 09:29:53.421344 16878 net.cpp:380] fc_fc_0_split -> fc_fc_0_split_1
I0308 09:29:53.421416 16878 net.cpp:122] Setting up fc_fc_0_split
I0308 09:29:53.421423 16878 net.cpp:129] Top shape: 100 1000 (100000)
I0308 09:29:53.421427 16878 net.cpp:129] Top shape: 100 1000 (100000)
I0308 09:29:53.421432 16878 net.cpp:137] Memory required for data: 5189809200
I0308 09:29:53.421434 16878 layer_factory.hpp:77] Creating layer accuracy/top-1
I0308 09:29:53.421453 16878 net.cpp:84] Creating Layer accuracy/top-1
I0308 09:29:53.421460 16878 net.cpp:406] accuracy/top-1 <- fc_fc_0_split_0
I0308 09:29:53.421465 16878 net.cpp:406] accuracy/top-1 <- label_data_1_split_0
I0308 09:29:53.421473 16878 net.cpp:380] accuracy/top-1 -> accuracy/top-1
…
