…
I0308 09:28:30.582456 16846 caffe.cpp:270] GPU device name: GeForce GTX 1080 Ti
I0308 09:28:30.918998 16846 net.cpp:51] Initializing net from parameters: 
state {
  phase: TEST
  level: 0
  stage: ""
}
layer {
  name: "data"
  type: "ImageData"
  top: "data"
  top: "label"
  include {
    phase: TEST
  }
  transform_param {
    scale: 0.008
    mirror: false
    crop_size: 224
    mean_value: 104
    mean_value: 117
    mean_value: 123
  }
  image_data_param {
    source: "/home/vip/dataset/imagenet/ILSVRC2012_val_256xN_list.txt"
    batch_size: 100
    shuffle: false
  }
}
layer {
  name: "conv1"
  type: "Convolution"
  bottom: "data"
  top: "conv1"
  convolution_param {
    num_output: 32
    bias_term: true
    pad: 1
    kernel_size: 3
    stride: 2
  }
}
layer {
  name: "conv1/relu"
  type: "ReLU"
  bottom: "conv1"
  top: "conv1"
}
layer {
  name: "conv2"
  type: "Convolution"
  bottom: "conv1"
  top: "conv2"
  convolution_param {
    num_output: 64
    bias_term: true
    pad: 1
    kernel_size: 3
    stride: 2
  }
}
layer {
  name: "conv2/relu"
  type: "ReLU"
  bottom: "conv2"
  top: "conv2"
}
layer {
  name: "res2.1.conv1"
  type: "Convolution"
  bottom: "conv2"
  top: "res2.1.conv1"
  convolution_param {
    num_output: 64
    bias_term: true
    pad: 1
    kernel_size: 3
    stride: 2
  }
}
layer {
  name: "res2.1.conv1/relu"
  type: "ReLU"
  bottom: "res2.1.conv1"
  top: "res2.1.conv1"
}
layer {
  name: "res2.1.conv2"
  type: "Convolution"
  bottom: "res2.1.conv1"
  top: "res2.1.conv2"
  convolution_param {
    num_output: 64
    bias_term: true
    pad: 1
    kernel_size: 3
    stride: 1
  }
}
layer {
  name: "res2.1.skipConv"
  type: "Convolution"
  bottom: "conv2"
  top: "res2.1.skipConv"
  convolution_param {
    num_output: 64
    bias_term: true
    pad: 0
    kernel_size: 1
    stride: 2
  }
}
layer {
  name: "res2.1.sum"
  type: "Eltwise"
  bottom: "res2.1.conv2"
  bottom: "res2.1.skipConv"
  top: "res2.1.sum"
  eltwise_param {
    operation: SUM
  }
}
layer {
  name: "res2.1.relu"
  type: "ReLU"
  bottom: "res2.1.sum"
  top: "res2.1.sum"
}
layer {
  name: "res2.2.conv1"
  type: "Convolution"
  bottom: "res2.1.sum"
  top: "res2.2.conv1"
  convolution_param {
    num_output: 64
    bias_term: true
    pad: 1
    kernel_size: 3
    stride: 1
  }
}
layer {
  name: "res2.2.conv1/relu"
  type: "ReLU"
  bottom: "res2.2.conv1"
  top: "res2.2.conv1"
}
layer {
  name: "res2.2.conv2"
  type: "Convolution"
  bottom: "res2.2.conv1"
  top: "res2.2.conv2"
  convolution_param {
    num_output: 64
    bias_term: true
    pad: 1
    kernel_size: 3
    stride: 1
  }
}
layer {
  name: "res2.2.sum"
  type: "Eltwise"
  bottom: "res2.2.conv2"
  bottom: "res2.1.sum"
  top: "res2.2.sum"
  eltwise_param {
    operation: SUM
  }
}
layer {
  name: "res2.2.relu"
  type: "ReLU"
  bottom: "res2.2.sum"
  top: "res2.2.sum"
}
layer {
  name: "res2.3.conv1"
  type: "Convolution"
  bottom: "res2.2.sum"
  top: "res2.3.conv1"
  convolution_param {
    num_output: 128
    bias_term: true
    pad: 1
    kernel_size: 3
    stride: 1
  }
}
layer {
  name: "res2.3.conv1/relu"
  type: "ReLU"
  bottom: "res2.3.conv1"
  top: "res2.3.conv1"
}
layer {
  name: "res2.3.conv2"
  type: "Convolution"
  bottom: "res2.3.conv1"
  top: "res2.3.conv2"
  convolution_param {
    num_output: 128
    bias_term: true
    pad: 1
    kernel_size: 3
    stride: 1
  }
}
layer {
  name: "res2.3.skipConv"
  type: "Convolution"
  bottom: "res2.2.sum"
  top: "res2.3.skipConv"
  convolution_param {
    num_output: 128
    bias_term: true
    pad: 0
    kernel_size: 1
    stride: 1
  }
}
layer {
  name: "res2.3.sum"
  type: "Eltwise"
  bottom: "res2.3.conv2"
  bottom: "res2.3.skipConv"
  top: "res2.3.sum"
  eltwise_param {
    operation: SUM
  }
}
layer {
  name: "res2.3.relu"
  type: "ReLU"
  bottom: "res2.3.sum"
  top: "res2.3.sum"
}
layer {
  name: "res3.1.conv1"
  type: "Convolution"
  bottom: "res2.3.sum"
  top: "res3.1.conv1"
  convolution_param {
    num_output: 128
    bias_term: true
    pad: 1
    kernel_size: 3
    stride: 2
  }
}
layer {
  name: "res3.1.conv1/relu"
  type: "ReLU"
  bottom: "res3.1.conv1"
  top: "res3.1.conv1"
}
layer {
  name: "res3.1.conv2"
  type: "Convolution"
  bottom: "res3.1.conv1"
  top: "res3.1.conv2"
  convolution_param {
    num_output: 128
    bias_term: true
    pad: 1
    kernel_size: 3
    stride: 1
  }
}
layer {
  name: "res3.1.skipConv"
  type: "Convolution"
  bottom: "res2.3.sum"
  top: "res3.1.skipConv"
  convolution_param {
    num_output: 128
    bias_term: true
    pad: 0
    kernel_size: 1
    stride: 2
  }
}
layer {
  name: "res3.1.sum"
  type: "Eltwise"
  bottom: "res3.1.conv2"
  bottom: "res3.1.skipConv"
  top: "res3.1.sum"
  eltwise_param {
    operation: SUM
  }
}
layer {
  name: "res3.1.relu"
  type: "ReLU"
  bottom: "res3.1.sum"
  top: "res3.1.sum"
}
layer {
  name: "res3.2.conv1"
  type: "Convolution"
  bottom: "res3.1.sum"
  top: "res3.2.conv1"
  convolution_param {
    num_output: 128
    bias_term: true
    pad: 1
    kernel_size: 3
    stride: 1
  }
}
layer {
  name: "res3.2.conv1/relu"
  type: "ReLU"
  bottom: "res3.2.conv1"
  top: "res3.2.conv1"
}
layer {
  name: "res3.2.conv2"
  type: "Convolution"
  bottom: "res3.2.conv1"
  top: "res3.2.conv2"
  convolution_param {
    num_output: 128
    bias_term: true
    pad: 1
    kernel_size: 3
    stride: 1
  }
}
layer {
  name: "res3.2.sum"
  type: "Eltwise"
  bottom: "res3.2.conv2"
  bottom: "res3.1.sum"
  top: "res3.2.sum"
  eltwise_param {
    operation: SUM
  }
}
layer {
  name: "res3.2.relu"
  type: "ReLU"
  bottom: "res3.2.sum"
  top: "res3.2.sum"
}
layer {
  name: "res3.3.conv1"
  type: "Convolution"
  bottom: "res3.2.sum"
  top: "res3.3.conv1"
  convolution_param {
    num_output: 128
    bias_term: true
    pad: 1
    kernel_size: 3
    stride: 1
  }
}
layer {
  name: "res3.3.conv1/relu"
  type: "ReLU"
  bottom: "res3.3.conv1"
  top: "res3.3.conv1"
}
layer {
  name: "res3.3.conv2"
  type: "Convolution"
  bottom: "res3.3.conv1"
  top: "res3.3.conv2"
  convolution_param {
    num_output: 128
    bias_term: true
    pad: 1
    kernel_size: 3
    stride: 1
  }
}
layer {
  name: "res3.3.sum"
  type: "Eltwise"
  bottom: "res3.3.conv2"
  bottom: "res3.2.sum"
  top: "res3.3.sum"
  eltwise_param {
    operation: SUM
  }
}
layer {
  name: "res3.3.relu"
  type: "ReLU"
  bottom: "res3.3.sum"
  top: "res3.3.sum"
}
layer {
  name: "res3.4.conv1"
  type: "Convolution"
  bottom: "res3.3.sum"
  top: "res3.4.conv1"
  convolution_param {
    num_output: 128
    bias_term: true
    pad: 1
    kernel_size: 3
    stride: 1
  }
}
layer {
  name: "res3.4.conv1/relu"
  type: "ReLU"
  bottom: "res3.4.conv1"
  top: "res3.4.conv1"
}
layer {
  name: "res3.4.conv2"
  type: "Convolution"
  bottom: "res3.4.conv1"
  top: "res3.4.conv2"
  convolution_param {
    num_output: 128
    bias_term: true
    pad: 1
    kernel_size: 3
    stride: 1
  }
}
layer {
  name: "res3.4.sum"
  type: "Eltwise"
  bottom: "res3.4.conv2"
  bottom: "res3.3.sum"
  top: "res3.4.sum"
  eltwise_param {
    operation: SUM
  }
}
layer {
  name: "res3.4.relu"
  type: "ReLU"
  bottom: "res3.4.sum"
  top: "res3.4.sum"
}
layer {
  name: "res3.5.conv1"
  type: "Convolution"
  bottom: "res3.4.sum"
  top: "res3.5.conv1"
  convolution_param {
    num_output: 128
    bias_term: true
    pad: 1
    kernel_size: 3
    stride: 1
  }
}
layer {
  name: "res3.5.conv1/relu"
  type: "ReLU"
  bottom: "res3.5.conv1"
  top: "res3.5.conv1"
}
layer {
  name: "res3.5.conv2"
  type: "Convolution"
  bottom: "res3.5.conv1"
  top: "res3.5.conv2"
  convolution_param {
    num_output: 128
    bias_term: true
    pad: 1
    kernel_size: 3
    stride: 1
  }
}
layer {
  name: "res3.5.sum"
  type: "Eltwise"
  bottom: "res3.5.conv2"
  bottom: "res3.4.sum"
  top: "res3.5.sum"
  eltwise_param {
    operation: SUM
  }
}
layer {
  name: "res3.5.relu"
  type: "ReLU"
  bottom: "res3.5.sum"
  top: "res3.5.sum"
}
layer {
  name: "res3.6.conv1"
  type: "Convolution"
  bottom: "res3.5.sum"
  top: "res3.6.conv1"
  convolution_param {
    num_output: 128
    bias_term: true
    pad: 1
    kernel_size: 3
    stride: 1
  }
}
layer {
  name: "res3.6.conv1/relu"
  type: "ReLU"
  bottom: "res3.6.conv1"
  top: "res3.6.conv1"
}
layer {
  name: "res3.6.conv2"
  type: "Convolution"
  bottom: "res3.6.conv1"
  top: "res3.6.conv2"
  convolution_param {
    num_output: 128
    bias_term: true
    pad: 1
    kernel_size: 3
    stride: 1
  }
}
layer {
  name: "res3.6.sum"
  type: "Eltwise"
  bottom: "res3.6.conv2"
  bottom: "res3.5.sum"
  top: "res3.6.sum"
  eltwise_param {
    operation: SUM
  }
}
layer {
  name: "res3.6.relu"
  type: "ReLU"
  bottom: "res3.6.sum"
  top: "res3.6.sum"
}
layer {
  name: "res3.7.conv1"
  type: "Convolution"
  bottom: "res3.6.sum"
  top: "res3.7.conv1"
  convolution_param {
    num_output: 128
    bias_term: true
    pad: 1
    kernel_size: 3
    stride: 1
  }
}
layer {
  name: "res3.7.conv1/relu"
  type: "ReLU"
  bottom: "res3.7.conv1"
  top: "res3.7.conv1"
}
layer {
  name: "res3.7.conv2"
  type: "Convolution"
  bottom: "res3.7.conv1"
  top: "res3.7.conv2"
  convolution_param {
    num_output: 128
    bias_term: true
    pad: 1
    kernel_size: 3
    stride: 1
  }
}
layer {
  name: "res3.7.sum"
  type: "Eltwise"
  bottom: "res3.7.conv2"
  bottom: "res3.6.sum"
  top: "res3.7.sum"
  eltwise_param {
    operation: SUM
  }
}
layer {
  name: "res3.7.relu"
  type: "ReLU"
  bottom: "res3.7.sum"
  top: "res3.7.sum"
}
layer {
  name: "res3.8.conv1"
  type: "Convolution"
  bottom: "res3.7.sum"
  top: "res3.8.conv1"
  convolution_param {
    num_output: 128
    bias_term: true
    pad: 1
    kernel_size: 3
    stride: 1
  }
}
layer {
  name: "res3.8.conv1/relu"
  type: "ReLU"
  bottom: "res3.8.conv1"
  top: "res3.8.conv1"
}
layer {
  name: "res3.8.conv2"
  type: "Convolution"
  bottom: "res3.8.conv1"
  top: "res3.8.conv2"
  convolution_param {
    num_output: 128
    bias_term: true
    pad: 1
    kernel_size: 3
    stride: 1
  }
}
layer {
  name: "res3.8.sum"
  type: "Eltwise"
  bottom: "res3.8.conv2"
  bottom: "res3.7.sum"
  top: "res3.8.sum"
  eltwise_param {
    operation: SUM
  }
}
layer {
  name: "res3.8.relu"
  type: "ReLU"
  bottom: "res3.8.sum"
  top: "res3.8.sum"
}
layer {
  name: "res3.9.conv1"
  type: "Convolution"
  bottom: "res3.8.sum"
  top: "res3.9.conv1"
  convolution_param {
    num_output: 128
    bias_term: true
    pad: 1
    kernel_size: 3
    stride: 1
  }
}
layer {
  name: "res3.9.conv1/relu"
  type: "ReLU"
  bottom: "res3.9.conv1"
  top: "res3.9.conv1"
}
layer {
  name: "res3.9.conv2"
  type: "Convolution"
  bottom: "res3.9.conv1"
  top: "res3.9.conv2"
  convolution_param {
    num_output: 128
    bias_term: true
    pad: 1
    kernel_size: 3
    stride: 1
  }
}
layer {
  name: "res3.9.sum"
  type: "Eltwise"
  bottom: "res3.9.conv2"
  bottom: "res3.8.sum"
  top: "res3.9.sum"
  eltwise_param {
    operation: SUM
  }
}
layer {
  name: "res3.9.relu"
  type: "ReLU"
  bottom: "res3.9.sum"
  top: "res3.9.sum"
}
layer {
  name: "res3.10.conv1"
  type: "Convolution"
  bottom: "res3.9.sum"
  top: "res3.10.conv1"
  convolution_param {
    num_output: 128
    bias_term: true
    pad: 1
    kernel_size: 3
    stride: 1
  }
}
layer {
  name: "res3.10.conv1/relu"
  type: "ReLU"
  bottom: "res3.10.conv1"
  top: "res3.10.conv1"
}
layer {
  name: "res3.10.conv2"
  type: "Convolution"
  bottom: "res3.10.conv1"
  top: "res3.10.conv2"
  convolution_param {
    num_output: 128
    bias_term: true
    pad: 1
    kernel_size: 3
    stride: 1
  }
}
layer {
  name: "res3.10.sum"
  type: "Eltwise"
  bottom: "res3.10.conv2"
  bottom: "res3.9.sum"
  top: "res3.10.sum"
  eltwise_param {
    operation: SUM
  }
}
layer {
  name: "res3.10.relu"
  type: "ReLU"
  bottom: "res3.10.sum"
  top: "res3.10.sum"
}
layer {
  name: "res3.11.conv1"
  type: "Convolution"
  bottom: "res3.10.sum"
  top: "res3.11.conv1"
  convolution_param {
    num_output: 256
    bias_term: true
    pad: 1
    kernel_size: 3
    stride: 1
  }
}
layer {
  name: "res3.11.conv1/relu"
  type: "ReLU"
  bottom: "res3.11.conv1"
  top: "res3.11.conv1"
}
layer {
  name: "res3.11.conv2"
  type: "Convolution"
  bottom: "res3.11.conv1"
  top: "res3.11.conv2"
  convolution_param {
    num_output: 256
    bias_term: true
    pad: 1
    kernel_size: 3
    stride: 1
  }
}
layer {
  name: "res3.11.skipConv"
  type: "Convolution"
  bottom: "res3.10.sum"
  top: "res3.11.skipConv"
  convolution_param {
    num_output: 256
    bias_term: true
    pad: 0
    kernel_size: 1
    stride: 1
  }
}
layer {
  name: "res3.11.sum"
  type: "Eltwise"
  bottom: "res3.11.conv2"
  bottom: "res3.11.skipConv"
  top: "res3.11.sum"
  eltwise_param {
    operation: SUM
  }
}
layer {
  name: "res3.11.relu"
  type: "ReLU"
  bottom: "res3.11.sum"
  top: "res3.11.sum"
}
layer {
  name: "res4.1.conv1"
  type: "Convolution"
  bottom: "res3.11.sum"
  top: "res4.1.conv1"
  convolution_param {
    num_output: 256
    bias_term: true
    pad: 1
    kernel_size: 3
    stride: 2
  }
}
layer {
  name: "res4.1.conv1/relu"
  type: "ReLU"
  bottom: "res4.1.conv1"
  top: "res4.1.conv1"
}
layer {
  name: "res4.1.conv2"
  type: "Convolution"
  bottom: "res4.1.conv1"
  top: "res4.1.conv2"
  convolution_param {
    num_output: 256
    bias_term: true
    pad: 1
    kernel_size: 3
    stride: 1
  }
}
layer {
  name: "res4.1.skipConv"
  type: "Convolution"
  bottom: "res3.11.sum"
  top: "res4.1.skipConv"
  convolution_param {
    num_output: 256
    bias_term: true
    pad: 0
    kernel_size: 1
    stride: 2
  }
}
layer {
  name: "res4.1.sum"
  type: "Eltwise"
  bottom: "res4.1.conv2"
  bottom: "res4.1.skipConv"
  top: "res4.1.sum"
  eltwise_param {
    operation: SUM
  }
}
layer {
  name: "res4.1.relu"
  type: "ReLU"
  bottom: "res4.1.sum"
  top: "res4.1.sum"
}
layer {
  name: "res4.2.conv1"
  type: "Convolution"
  bottom: "res4.1.sum"
  top: "res4.2.conv1"
  convolution_param {
    num_output: 256
    bias_term: true
    pad: 1
    kernel_size: 3
    stride: 1
  }
}
layer {
  name: "res4.2.conv1/relu"
  type: "ReLU"
  bottom: "res4.2.conv1"
  top: "res4.2.conv1"
}
layer {
  name: "res4.2.conv2"
  type: "Convolution"
  bottom: "res4.2.conv1"
  top: "res4.2.conv2"
  convolution_param {
    num_output: 256
    bias_term: true
    pad: 1
    kernel_size: 3
    stride: 1
  }
}
layer {
  name: "res4.2.sum"
  type: "Eltwise"
  bottom: "res4.2.conv2"
  bottom: "res4.1.sum"
  top: "res4.2.sum"
  eltwise_param {
    operation: SUM
  }
}
layer {
  name: "res4.2.relu"
  type: "ReLU"
  bottom: "res4.2.sum"
  top: "res4.2.sum"
}
layer {
  name: "res4.3.conv1"
  type: "Convolution"
  bottom: "res4.2.sum"
  top: "res4.3.conv1"
  convolution_param {
    num_output: 256
    bias_term: true
    pad: 1
    kernel_size: 3
    stride: 1
  }
}
layer {
  name: "res4.3.conv1/relu"
  type: "ReLU"
  bottom: "res4.3.conv1"
  top: "res4.3.conv1"
}
layer {
  name: "res4.3.conv2"
  type: "Convolution"
  bottom: "res4.3.conv1"
  top: "res4.3.conv2"
  convolution_param {
    num_output: 256
    bias_term: true
    pad: 1
    kernel_size: 3
    stride: 1
  }
}
layer {
  name: "res4.3.sum"
  type: "Eltwise"
  bottom: "res4.3.conv2"
  bottom: "res4.2.sum"
  top: "res4.3.sum"
  eltwise_param {
    operation: SUM
  }
}
layer {
  name: "res4.3.relu"
  type: "ReLU"
  bottom: "res4.3.sum"
  top: "res4.3.sum"
}
layer {
  name: "res4.4.conv1"
  type: "Convolution"
  bottom: "res4.3.sum"
  top: "res4.4.conv1"
  convolution_param {
    num_output: 256
    bias_term: true
    pad: 1
    kernel_size: 3
    stride: 1
  }
}
layer {
  name: "res4.4.conv1/relu"
  type: "ReLU"
  bottom: "res4.4.conv1"
  top: "res4.4.conv1"
}
layer {
  name: "res4.4.conv2"
  type: "Convolution"
  bottom: "res4.4.conv1"
  top: "res4.4.conv2"
  convolution_param {
    num_output: 256
    bias_term: true
    pad: 1
    kernel_size: 3
    stride: 1
  }
}
layer {
  name: "res4.4.sum"
  type: "Eltwise"
  bottom: "res4.4.conv2"
  bottom: "res4.3.sum"
  top: "res4.4.sum"
  eltwise_param {
    operation: SUM
  }
}
layer {
  name: "res4.4.relu"
  type: "ReLU"
  bottom: "res4.4.sum"
  top: "res4.4.sum"
}
layer {
  name: "res4.5.conv1"
  type: "Convolution"
  bottom: "res4.4.sum"
  top: "res4.5.conv1"
  convolution_param {
    num_output: 512
    bias_term: true
    pad: 1
    kernel_size: 3
    stride: 1
  }
}
layer {
  name: "res4.5.conv1/relu"
  type: "ReLU"
  bottom: "res4.5.conv1"
  top: "res4.5.conv1"
}
layer {
  name: "res4.5.conv2"
  type: "Convolution"
  bottom: "res4.5.conv1"
  top: "res4.5.conv2"
  convolution_param {
    num_output: 512
    bias_term: true
    pad: 1
    kernel_size: 3
    stride: 1
  }
}
layer {
  name: "res4.5.skipConv"
  type: "Convolution"
  bottom: "res4.4.sum"
  top: "res4.5.skipConv"
  convolution_param {
    num_output: 512
    bias_term: true
    pad: 0
    kernel_size: 1
    stride: 1
  }
}
layer {
  name: "res4.5.sum"
  type: "Eltwise"
  bottom: "res4.5.conv2"
  bottom: "res4.5.skipConv"
  top: "res4.5.sum"
  eltwise_param {
    operation: SUM
  }
}
layer {
  name: "res4.5.relu"
  type: "ReLU"
  bottom: "res4.5.sum"
  top: "res4.5.sum"
}
layer {
  name: "res4.6.conv1"
  type: "Convolution"
  bottom: "res4.5.sum"
  top: "res4.6.conv1"
  convolution_param {
    num_output: 512
    bias_term: true
    pad: 1
    kernel_size: 3
    stride: 1
  }
}
layer {
  name: "res4.6.conv1/relu"
  type: "ReLU"
  bottom: "res4.6.conv1"
  top: "res4.6.conv1"
}
layer {
  name: "res4.6.conv2"
  type: "Convolution"
  bottom: "res4.6.conv1"
  top: "res4.6.conv2"
  convolution_param {
    num_output: 512
    bias_term: true
    pad: 1
    kernel_size: 3
    stride: 1
  }
}
layer {
  name: "res4.6.sum"
  type: "Eltwise"
  bottom: "res4.6.conv2"
  bottom: "res4.5.sum"
  top: "res4.6.sum"
  eltwise_param {
    operation: SUM
  }
}
layer {
  name: "res4.6.relu"
  type: "ReLU"
  bottom: "res4.6.sum"
  top: "res4.6.sum"
}
layer {
  name: "pool5"
  type: "Pooling"
  bottom: "res4.6.sum"
  top: "pool5"
  pooling_param {
    pool: AVE
    kernel_size: 7
    stride: 1
  }
}
layer {
  name: "fc"
  type: "InnerProduct"
  bottom: "pool5"
  top: "fc"
  inner_product_param {
    num_output: 1000
    bias_term: true
  }
}
layer {
  name: "accuracy/top-1"
  type: "Accuracy"
  bottom: "fc"
  bottom: "label"
  top: "accuracy/top-1"
  accuracy_param {
    top_k: 1
  }
}
layer {
  name: "accuracy/top-5"
  type: "Accuracy"
  bottom: "fc"
  bottom: "label"
  top: "accuracy/top-5"
  accuracy_param {
    top_k: 5
  }
}
I0308 09:28:30.919636 16846 layer_factory.hpp:77] Creating layer data
I0308 09:28:30.919672 16846 net.cpp:84] Creating Layer data
I0308 09:28:30.919682 16846 net.cpp:380] data -> data
I0308 09:28:30.919705 16846 net.cpp:380] data -> label
I0308 09:28:30.919726 16846 image_data_layer.cpp:38] Opening file /home/vip/dataset/imagenet/ILSVRC2012_val_256xN_list.txt
I0308 09:28:30.953420 16846 image_data_layer.cpp:63] A total of 50000 images.
I0308 09:28:30.970489 16846 image_data_layer.cpp:90] output data size: 100,3,224,224
I0308 09:28:31.091794 16846 net.cpp:122] Setting up data
I0308 09:28:31.091842 16846 net.cpp:129] Top shape: 100 3 224 224 (15052800)
I0308 09:28:31.091848 16846 net.cpp:129] Top shape: 100 (100)
I0308 09:28:31.091852 16846 net.cpp:137] Memory required for data: 60211600
I0308 09:28:31.091861 16846 layer_factory.hpp:77] Creating layer label_data_1_split
I0308 09:28:31.091876 16846 net.cpp:84] Creating Layer label_data_1_split
I0308 09:28:31.091881 16846 net.cpp:406] label_data_1_split <- label
I0308 09:28:31.091929 16846 net.cpp:380] label_data_1_split -> label_data_1_split_0
I0308 09:28:31.091943 16846 net.cpp:380] label_data_1_split -> label_data_1_split_1
I0308 09:28:31.092025 16846 net.cpp:122] Setting up label_data_1_split
I0308 09:28:31.092036 16846 net.cpp:129] Top shape: 100 (100)
I0308 09:28:31.092041 16846 net.cpp:129] Top shape: 100 (100)
I0308 09:28:31.092044 16846 net.cpp:137] Memory required for data: 60212400
I0308 09:28:31.092048 16846 layer_factory.hpp:77] Creating layer conv1
I0308 09:28:31.092064 16846 net.cpp:84] Creating Layer conv1
I0308 09:28:31.092070 16846 net.cpp:406] conv1 <- data
I0308 09:28:31.092077 16846 net.cpp:380] conv1 -> conv1
I0308 09:28:31.703416 16846 net.cpp:122] Setting up conv1
I0308 09:28:31.703444 16846 net.cpp:129] Top shape: 100 32 112 112 (40140800)
I0308 09:28:31.703449 16846 net.cpp:137] Memory required for data: 220775600
I0308 09:28:31.703470 16846 layer_factory.hpp:77] Creating layer conv1/relu
I0308 09:28:31.703481 16846 net.cpp:84] Creating Layer conv1/relu
I0308 09:28:31.703521 16846 net.cpp:406] conv1/relu <- conv1
I0308 09:28:31.703527 16846 net.cpp:367] conv1/relu -> conv1 (in-place)
I0308 09:28:31.703938 16846 net.cpp:122] Setting up conv1/relu
I0308 09:28:31.703948 16846 net.cpp:129] Top shape: 100 32 112 112 (40140800)
I0308 09:28:31.703951 16846 net.cpp:137] Memory required for data: 381338800
I0308 09:28:31.703955 16846 layer_factory.hpp:77] Creating layer conv2
I0308 09:28:31.703966 16846 net.cpp:84] Creating Layer conv2
I0308 09:28:31.703969 16846 net.cpp:406] conv2 <- conv1
I0308 09:28:31.703974 16846 net.cpp:380] conv2 -> conv2
I0308 09:28:31.707363 16846 net.cpp:122] Setting up conv2
I0308 09:28:31.707376 16846 net.cpp:129] Top shape: 100 64 56 56 (20070400)
I0308 09:28:31.707381 16846 net.cpp:137] Memory required for data: 461620400
I0308 09:28:31.707388 16846 layer_factory.hpp:77] Creating layer conv2/relu
I0308 09:28:31.707396 16846 net.cpp:84] Creating Layer conv2/relu
I0308 09:28:31.707397 16846 net.cpp:406] conv2/relu <- conv2
I0308 09:28:31.707403 16846 net.cpp:367] conv2/relu -> conv2 (in-place)
I0308 09:28:31.707901 16846 net.cpp:122] Setting up conv2/relu
I0308 09:28:31.707911 16846 net.cpp:129] Top shape: 100 64 56 56 (20070400)
I0308 09:28:31.707914 16846 net.cpp:137] Memory required for data: 541902000
I0308 09:28:31.707917 16846 layer_factory.hpp:77] Creating layer conv2_conv2/relu_0_split
I0308 09:28:31.707922 16846 net.cpp:84] Creating Layer conv2_conv2/relu_0_split
I0308 09:28:31.707926 16846 net.cpp:406] conv2_conv2/relu_0_split <- conv2
I0308 09:28:31.707931 16846 net.cpp:380] conv2_conv2/relu_0_split -> conv2_conv2/relu_0_split_0
I0308 09:28:31.707937 16846 net.cpp:380] conv2_conv2/relu_0_split -> conv2_conv2/relu_0_split_1
I0308 09:28:31.707991 16846 net.cpp:122] Setting up conv2_conv2/relu_0_split
I0308 09:28:31.708015 16846 net.cpp:129] Top shape: 100 64 56 56 (20070400)
I0308 09:28:31.708019 16846 net.cpp:129] Top shape: 100 64 56 56 (20070400)
I0308 09:28:31.708022 16846 net.cpp:137] Memory required for data: 702465200
I0308 09:28:31.708025 16846 layer_factory.hpp:77] Creating layer res2.1.conv1
I0308 09:28:31.708034 16846 net.cpp:84] Creating Layer res2.1.conv1
I0308 09:28:31.708036 16846 net.cpp:406] res2.1.conv1 <- conv2_conv2/relu_0_split_0
I0308 09:28:31.708043 16846 net.cpp:380] res2.1.conv1 -> res2.1.conv1
I0308 09:28:31.709894 16846 net.cpp:122] Setting up res2.1.conv1
I0308 09:28:31.709908 16846 net.cpp:129] Top shape: 100 64 28 28 (5017600)
I0308 09:28:31.709911 16846 net.cpp:137] Memory required for data: 722535600
I0308 09:28:31.709920 16846 layer_factory.hpp:77] Creating layer res2.1.conv1/relu
I0308 09:28:31.709929 16846 net.cpp:84] Creating Layer res2.1.conv1/relu
I0308 09:28:31.709949 16846 net.cpp:406] res2.1.conv1/relu <- res2.1.conv1
I0308 09:28:31.709969 16846 net.cpp:367] res2.1.conv1/relu -> res2.1.conv1 (in-place)
I0308 09:28:31.710829 16846 net.cpp:122] Setting up res2.1.conv1/relu
I0308 09:28:31.710844 16846 net.cpp:129] Top shape: 100 64 28 28 (5017600)
I0308 09:28:31.710846 16846 net.cpp:137] Memory required for data: 742606000
I0308 09:28:31.710850 16846 layer_factory.hpp:77] Creating layer res2.1.conv2
I0308 09:28:31.710857 16846 net.cpp:84] Creating Layer res2.1.conv2
I0308 09:28:31.710861 16846 net.cpp:406] res2.1.conv2 <- res2.1.conv1
I0308 09:28:31.710866 16846 net.cpp:380] res2.1.conv2 -> res2.1.conv2
I0308 09:28:31.713068 16846 net.cpp:122] Setting up res2.1.conv2
I0308 09:28:31.713083 16846 net.cpp:129] Top shape: 100 64 28 28 (5017600)
I0308 09:28:31.713085 16846 net.cpp:137] Memory required for data: 762676400
I0308 09:28:31.713091 16846 layer_factory.hpp:77] Creating layer res2.1.skipConv
I0308 09:28:31.713099 16846 net.cpp:84] Creating Layer res2.1.skipConv
I0308 09:28:31.713104 16846 net.cpp:406] res2.1.skipConv <- conv2_conv2/relu_0_split_1
I0308 09:28:31.713109 16846 net.cpp:380] res2.1.skipConv -> res2.1.skipConv
I0308 09:28:31.715031 16846 net.cpp:122] Setting up res2.1.skipConv
I0308 09:28:31.715044 16846 net.cpp:129] Top shape: 100 64 28 28 (5017600)
I0308 09:28:31.715064 16846 net.cpp:137] Memory required for data: 782746800
I0308 09:28:31.715087 16846 layer_factory.hpp:77] Creating layer res2.1.sum
I0308 09:28:31.715111 16846 net.cpp:84] Creating Layer res2.1.sum
I0308 09:28:31.715116 16846 net.cpp:406] res2.1.sum <- res2.1.conv2
I0308 09:28:31.715119 16846 net.cpp:406] res2.1.sum <- res2.1.skipConv
I0308 09:28:31.715126 16846 net.cpp:380] res2.1.sum -> res2.1.sum
I0308 09:28:31.715189 16846 net.cpp:122] Setting up res2.1.sum
I0308 09:28:31.715198 16846 net.cpp:129] Top shape: 100 64 28 28 (5017600)
I0308 09:28:31.715200 16846 net.cpp:137] Memory required for data: 802817200
I0308 09:28:31.715204 16846 layer_factory.hpp:77] Creating layer res2.1.relu
I0308 09:28:31.715211 16846 net.cpp:84] Creating Layer res2.1.relu
I0308 09:28:31.715215 16846 net.cpp:406] res2.1.relu <- res2.1.sum
I0308 09:28:31.715219 16846 net.cpp:367] res2.1.relu -> res2.1.sum (in-place)
I0308 09:28:31.715715 16846 net.cpp:122] Setting up res2.1.relu
I0308 09:28:31.715744 16846 net.cpp:129] Top shape: 100 64 28 28 (5017600)
I0308 09:28:31.715746 16846 net.cpp:137] Memory required for data: 822887600
I0308 09:28:31.715749 16846 layer_factory.hpp:77] Creating layer res2.1.sum_res2.1.relu_0_split
I0308 09:28:31.715754 16846 net.cpp:84] Creating Layer res2.1.sum_res2.1.relu_0_split
I0308 09:28:31.715759 16846 net.cpp:406] res2.1.sum_res2.1.relu_0_split <- res2.1.sum
I0308 09:28:31.715764 16846 net.cpp:380] res2.1.sum_res2.1.relu_0_split -> res2.1.sum_res2.1.relu_0_split_0
I0308 09:28:31.715771 16846 net.cpp:380] res2.1.sum_res2.1.relu_0_split -> res2.1.sum_res2.1.relu_0_split_1
I0308 09:28:31.715845 16846 net.cpp:122] Setting up res2.1.sum_res2.1.relu_0_split
I0308 09:28:31.715854 16846 net.cpp:129] Top shape: 100 64 28 28 (5017600)
I0308 09:28:31.715858 16846 net.cpp:129] Top shape: 100 64 28 28 (5017600)
I0308 09:28:31.715862 16846 net.cpp:137] Memory required for data: 863028400
I0308 09:28:31.715864 16846 layer_factory.hpp:77] Creating layer res2.2.conv1
I0308 09:28:31.715873 16846 net.cpp:84] Creating Layer res2.2.conv1
I0308 09:28:31.715876 16846 net.cpp:406] res2.2.conv1 <- res2.1.sum_res2.1.relu_0_split_0
I0308 09:28:31.715883 16846 net.cpp:380] res2.2.conv1 -> res2.2.conv1
I0308 09:28:31.718003 16846 net.cpp:122] Setting up res2.2.conv1
I0308 09:28:31.718019 16846 net.cpp:129] Top shape: 100 64 28 28 (5017600)
I0308 09:28:31.718024 16846 net.cpp:137] Memory required for data: 883098800
I0308 09:28:31.718030 16846 layer_factory.hpp:77] Creating layer res2.2.conv1/relu
I0308 09:28:31.718039 16846 net.cpp:84] Creating Layer res2.2.conv1/relu
I0308 09:28:31.718042 16846 net.cpp:406] res2.2.conv1/relu <- res2.2.conv1
I0308 09:28:31.718047 16846 net.cpp:367] res2.2.conv1/relu -> res2.2.conv1 (in-place)
I0308 09:28:31.718612 16846 net.cpp:122] Setting up res2.2.conv1/relu
I0308 09:28:31.718623 16846 net.cpp:129] Top shape: 100 64 28 28 (5017600)
I0308 09:28:31.718644 16846 net.cpp:137] Memory required for data: 903169200
I0308 09:28:31.718647 16846 layer_factory.hpp:77] Creating layer res2.2.conv2
I0308 09:28:31.718658 16846 net.cpp:84] Creating Layer res2.2.conv2
I0308 09:28:31.718662 16846 net.cpp:406] res2.2.conv2 <- res2.2.conv1
I0308 09:28:31.718668 16846 net.cpp:380] res2.2.conv2 -> res2.2.conv2
I0308 09:28:31.721153 16846 net.cpp:122] Setting up res2.2.conv2
I0308 09:28:31.721182 16846 net.cpp:129] Top shape: 100 64 28 28 (5017600)
I0308 09:28:31.721186 16846 net.cpp:137] Memory required for data: 923239600
I0308 09:28:31.721194 16846 layer_factory.hpp:77] Creating layer res2.2.sum
I0308 09:28:31.721216 16846 net.cpp:84] Creating Layer res2.2.sum
I0308 09:28:31.721220 16846 net.cpp:406] res2.2.sum <- res2.2.conv2
I0308 09:28:31.721225 16846 net.cpp:406] res2.2.sum <- res2.1.sum_res2.1.relu_0_split_1
I0308 09:28:31.721247 16846 net.cpp:380] res2.2.sum -> res2.2.sum
I0308 09:28:31.721300 16846 net.cpp:122] Setting up res2.2.sum
I0308 09:28:31.721309 16846 net.cpp:129] Top shape: 100 64 28 28 (5017600)
I0308 09:28:31.721312 16846 net.cpp:137] Memory required for data: 943310000
I0308 09:28:31.721316 16846 layer_factory.hpp:77] Creating layer res2.2.relu
I0308 09:28:31.721343 16846 net.cpp:84] Creating Layer res2.2.relu
I0308 09:28:31.721346 16846 net.cpp:406] res2.2.relu <- res2.2.sum
I0308 09:28:31.721354 16846 net.cpp:367] res2.2.relu -> res2.2.sum (in-place)
I0308 09:28:31.722290 16846 net.cpp:122] Setting up res2.2.relu
I0308 09:28:31.722321 16846 net.cpp:129] Top shape: 100 64 28 28 (5017600)
I0308 09:28:31.722324 16846 net.cpp:137] Memory required for data: 963380400
I0308 09:28:31.722327 16846 layer_factory.hpp:77] Creating layer res2.2.sum_res2.2.relu_0_split
I0308 09:28:31.722335 16846 net.cpp:84] Creating Layer res2.2.sum_res2.2.relu_0_split
I0308 09:28:31.722338 16846 net.cpp:406] res2.2.sum_res2.2.relu_0_split <- res2.2.sum
I0308 09:28:31.722343 16846 net.cpp:380] res2.2.sum_res2.2.relu_0_split -> res2.2.sum_res2.2.relu_0_split_0
I0308 09:28:31.722350 16846 net.cpp:380] res2.2.sum_res2.2.relu_0_split -> res2.2.sum_res2.2.relu_0_split_1
I0308 09:28:31.722457 16846 net.cpp:122] Setting up res2.2.sum_res2.2.relu_0_split
I0308 09:28:31.722465 16846 net.cpp:129] Top shape: 100 64 28 28 (5017600)
I0308 09:28:31.722470 16846 net.cpp:129] Top shape: 100 64 28 28 (5017600)
I0308 09:28:31.722472 16846 net.cpp:137] Memory required for data: 1003521200
I0308 09:28:31.722476 16846 layer_factory.hpp:77] Creating layer res2.3.conv1
I0308 09:28:31.722486 16846 net.cpp:84] Creating Layer res2.3.conv1
I0308 09:28:31.722489 16846 net.cpp:406] res2.3.conv1 <- res2.2.sum_res2.2.relu_0_split_0
I0308 09:28:31.722496 16846 net.cpp:380] res2.3.conv1 -> res2.3.conv1
I0308 09:28:31.725754 16846 net.cpp:122] Setting up res2.3.conv1
I0308 09:28:31.725785 16846 net.cpp:129] Top shape: 100 128 28 28 (10035200)
I0308 09:28:31.725788 16846 net.cpp:137] Memory required for data: 1043662000
I0308 09:28:31.725795 16846 layer_factory.hpp:77] Creating layer res2.3.conv1/relu
I0308 09:28:31.725802 16846 net.cpp:84] Creating Layer res2.3.conv1/relu
I0308 09:28:31.725806 16846 net.cpp:406] res2.3.conv1/relu <- res2.3.conv1
I0308 09:28:31.725813 16846 net.cpp:367] res2.3.conv1/relu -> res2.3.conv1 (in-place)
I0308 09:28:31.726438 16846 net.cpp:122] Setting up res2.3.conv1/relu
I0308 09:28:31.726449 16846 net.cpp:129] Top shape: 100 128 28 28 (10035200)
I0308 09:28:31.726469 16846 net.cpp:137] Memory required for data: 1083802800
I0308 09:28:31.726471 16846 layer_factory.hpp:77] Creating layer res2.3.conv2
I0308 09:28:31.726480 16846 net.cpp:84] Creating Layer res2.3.conv2
I0308 09:28:31.726485 16846 net.cpp:406] res2.3.conv2 <- res2.3.conv1
I0308 09:28:31.726491 16846 net.cpp:380] res2.3.conv2 -> res2.3.conv2
I0308 09:28:31.728813 16846 net.cpp:122] Setting up res2.3.conv2
I0308 09:28:31.728827 16846 net.cpp:129] Top shape: 100 128 28 28 (10035200)
I0308 09:28:31.728847 16846 net.cpp:137] Memory required for data: 1123943600
I0308 09:28:31.728857 16846 layer_factory.hpp:77] Creating layer res2.3.skipConv
I0308 09:28:31.728866 16846 net.cpp:84] Creating Layer res2.3.skipConv
I0308 09:28:31.728869 16846 net.cpp:406] res2.3.skipConv <- res2.2.sum_res2.2.relu_0_split_1
I0308 09:28:31.728893 16846 net.cpp:380] res2.3.skipConv -> res2.3.skipConv
I0308 09:28:31.731030 16846 net.cpp:122] Setting up res2.3.skipConv
I0308 09:28:31.731076 16846 net.cpp:129] Top shape: 100 128 28 28 (10035200)
I0308 09:28:31.731079 16846 net.cpp:137] Memory required for data: 1164084400
I0308 09:28:31.731086 16846 layer_factory.hpp:77] Creating layer res2.3.sum
I0308 09:28:31.731092 16846 net.cpp:84] Creating Layer res2.3.sum
I0308 09:28:31.731103 16846 net.cpp:406] res2.3.sum <- res2.3.conv2
I0308 09:28:31.731108 16846 net.cpp:406] res2.3.sum <- res2.3.skipConv
I0308 09:28:31.731114 16846 net.cpp:380] res2.3.sum -> res2.3.sum
I0308 09:28:31.731158 16846 net.cpp:122] Setting up res2.3.sum
I0308 09:28:31.731166 16846 net.cpp:129] Top shape: 100 128 28 28 (10035200)
I0308 09:28:31.731169 16846 net.cpp:137] Memory required for data: 1204225200
I0308 09:28:31.731173 16846 layer_factory.hpp:77] Creating layer res2.3.relu
I0308 09:28:31.731178 16846 net.cpp:84] Creating Layer res2.3.relu
I0308 09:28:31.731192 16846 net.cpp:406] res2.3.relu <- res2.3.sum
I0308 09:28:31.731197 16846 net.cpp:367] res2.3.relu -> res2.3.sum (in-place)
I0308 09:28:31.731699 16846 net.cpp:122] Setting up res2.3.relu
I0308 09:28:31.731709 16846 net.cpp:129] Top shape: 100 128 28 28 (10035200)
I0308 09:28:31.731729 16846 net.cpp:137] Memory required for data: 1244366000
I0308 09:28:31.731732 16846 layer_factory.hpp:77] Creating layer res2.3.sum_res2.3.relu_0_split
I0308 09:28:31.731739 16846 net.cpp:84] Creating Layer res2.3.sum_res2.3.relu_0_split
I0308 09:28:31.731741 16846 net.cpp:406] res2.3.sum_res2.3.relu_0_split <- res2.3.sum
I0308 09:28:31.731747 16846 net.cpp:380] res2.3.sum_res2.3.relu_0_split -> res2.3.sum_res2.3.relu_0_split_0
I0308 09:28:31.731755 16846 net.cpp:380] res2.3.sum_res2.3.relu_0_split -> res2.3.sum_res2.3.relu_0_split_1
I0308 09:28:31.731799 16846 net.cpp:122] Setting up res2.3.sum_res2.3.relu_0_split
I0308 09:28:31.731807 16846 net.cpp:129] Top shape: 100 128 28 28 (10035200)
I0308 09:28:31.731812 16846 net.cpp:129] Top shape: 100 128 28 28 (10035200)
I0308 09:28:31.731814 16846 net.cpp:137] Memory required for data: 1324647600
I0308 09:28:31.731818 16846 layer_factory.hpp:77] Creating layer res3.1.conv1
I0308 09:28:31.731829 16846 net.cpp:84] Creating Layer res3.1.conv1
I0308 09:28:31.731832 16846 net.cpp:406] res3.1.conv1 <- res2.3.sum_res2.3.relu_0_split_0
I0308 09:28:31.731837 16846 net.cpp:380] res3.1.conv1 -> res3.1.conv1
I0308 09:28:31.734102 16846 net.cpp:122] Setting up res3.1.conv1
I0308 09:28:31.734117 16846 net.cpp:129] Top shape: 100 128 14 14 (2508800)
I0308 09:28:31.734122 16846 net.cpp:137] Memory required for data: 1334682800
I0308 09:28:31.734128 16846 layer_factory.hpp:77] Creating layer res3.1.conv1/relu
I0308 09:28:31.734135 16846 net.cpp:84] Creating Layer res3.1.conv1/relu
I0308 09:28:31.734140 16846 net.cpp:406] res3.1.conv1/relu <- res3.1.conv1
I0308 09:28:31.734146 16846 net.cpp:367] res3.1.conv1/relu -> res3.1.conv1 (in-place)
I0308 09:28:31.734680 16846 net.cpp:122] Setting up res3.1.conv1/relu
I0308 09:28:31.734690 16846 net.cpp:129] Top shape: 100 128 14 14 (2508800)
I0308 09:28:31.734710 16846 net.cpp:137] Memory required for data: 1344718000
I0308 09:28:31.734714 16846 layer_factory.hpp:77] Creating layer res3.1.conv2
I0308 09:28:31.734721 16846 net.cpp:84] Creating Layer res3.1.conv2
I0308 09:28:31.734725 16846 net.cpp:406] res3.1.conv2 <- res3.1.conv1
I0308 09:28:31.734731 16846 net.cpp:380] res3.1.conv2 -> res3.1.conv2
I0308 09:28:31.737319 16846 net.cpp:122] Setting up res3.1.conv2
I0308 09:28:31.737349 16846 net.cpp:129] Top shape: 100 128 14 14 (2508800)
I0308 09:28:31.737351 16846 net.cpp:137] Memory required for data: 1354753200
I0308 09:28:31.737373 16846 layer_factory.hpp:77] Creating layer res3.1.skipConv
I0308 09:28:31.737382 16846 net.cpp:84] Creating Layer res3.1.skipConv
I0308 09:28:31.737386 16846 net.cpp:406] res3.1.skipConv <- res2.3.sum_res2.3.relu_0_split_1
I0308 09:28:31.737392 16846 net.cpp:380] res3.1.skipConv -> res3.1.skipConv
I0308 09:28:31.739632 16846 net.cpp:122] Setting up res3.1.skipConv
I0308 09:28:31.739646 16846 net.cpp:129] Top shape: 100 128 14 14 (2508800)
I0308 09:28:31.739666 16846 net.cpp:137] Memory required for data: 1364788400
I0308 09:28:31.739673 16846 layer_factory.hpp:77] Creating layer res3.1.sum
I0308 09:28:31.739681 16846 net.cpp:84] Creating Layer res3.1.sum
I0308 09:28:31.739684 16846 net.cpp:406] res3.1.sum <- res3.1.conv2
I0308 09:28:31.739688 16846 net.cpp:406] res3.1.sum <- res3.1.skipConv
I0308 09:28:31.739711 16846 net.cpp:380] res3.1.sum -> res3.1.sum
I0308 09:28:31.739742 16846 net.cpp:122] Setting up res3.1.sum
I0308 09:28:31.739764 16846 net.cpp:129] Top shape: 100 128 14 14 (2508800)
I0308 09:28:31.739768 16846 net.cpp:137] Memory required for data: 1374823600
I0308 09:28:31.739786 16846 layer_factory.hpp:77] Creating layer res3.1.relu
I0308 09:28:31.739811 16846 net.cpp:84] Creating Layer res3.1.relu
I0308 09:28:31.739816 16846 net.cpp:406] res3.1.relu <- res3.1.sum
I0308 09:28:31.739836 16846 net.cpp:367] res3.1.relu -> res3.1.sum (in-place)
I0308 09:28:31.740651 16846 net.cpp:122] Setting up res3.1.relu
I0308 09:28:31.740664 16846 net.cpp:129] Top shape: 100 128 14 14 (2508800)
I0308 09:28:31.740667 16846 net.cpp:137] Memory required for data: 1384858800
I0308 09:28:31.740670 16846 layer_factory.hpp:77] Creating layer res3.1.sum_res3.1.relu_0_split
I0308 09:28:31.740679 16846 net.cpp:84] Creating Layer res3.1.sum_res3.1.relu_0_split
I0308 09:28:31.740681 16846 net.cpp:406] res3.1.sum_res3.1.relu_0_split <- res3.1.sum
I0308 09:28:31.740686 16846 net.cpp:380] res3.1.sum_res3.1.relu_0_split -> res3.1.sum_res3.1.relu_0_split_0
I0308 09:28:31.740692 16846 net.cpp:380] res3.1.sum_res3.1.relu_0_split -> res3.1.sum_res3.1.relu_0_split_1
I0308 09:28:31.740770 16846 net.cpp:122] Setting up res3.1.sum_res3.1.relu_0_split
I0308 09:28:31.740778 16846 net.cpp:129] Top shape: 100 128 14 14 (2508800)
I0308 09:28:31.740799 16846 net.cpp:129] Top shape: 100 128 14 14 (2508800)
I0308 09:28:31.740803 16846 net.cpp:137] Memory required for data: 1404929200
I0308 09:28:31.740806 16846 layer_factory.hpp:77] Creating layer res3.2.conv1
I0308 09:28:31.740814 16846 net.cpp:84] Creating Layer res3.2.conv1
I0308 09:28:31.740818 16846 net.cpp:406] res3.2.conv1 <- res3.1.sum_res3.1.relu_0_split_0
I0308 09:28:31.740825 16846 net.cpp:380] res3.2.conv1 -> res3.2.conv1
I0308 09:28:31.744105 16846 net.cpp:122] Setting up res3.2.conv1
I0308 09:28:31.744118 16846 net.cpp:129] Top shape: 100 128 14 14 (2508800)
I0308 09:28:31.744122 16846 net.cpp:137] Memory required for data: 1414964400
I0308 09:28:31.744127 16846 layer_factory.hpp:77] Creating layer res3.2.conv1/relu
I0308 09:28:31.744135 16846 net.cpp:84] Creating Layer res3.2.conv1/relu
I0308 09:28:31.744138 16846 net.cpp:406] res3.2.conv1/relu <- res3.2.conv1
I0308 09:28:31.744143 16846 net.cpp:367] res3.2.conv1/relu -> res3.2.conv1 (in-place)
I0308 09:28:31.744657 16846 net.cpp:122] Setting up res3.2.conv1/relu
I0308 09:28:31.744666 16846 net.cpp:129] Top shape: 100 128 14 14 (2508800)
I0308 09:28:31.744686 16846 net.cpp:137] Memory required for data: 1424999600
I0308 09:28:31.744689 16846 layer_factory.hpp:77] Creating layer res3.2.conv2
I0308 09:28:31.744696 16846 net.cpp:84] Creating Layer res3.2.conv2
I0308 09:28:31.744702 16846 net.cpp:406] res3.2.conv2 <- res3.2.conv1
I0308 09:28:31.744709 16846 net.cpp:380] res3.2.conv2 -> res3.2.conv2
I0308 09:28:31.747258 16846 net.cpp:122] Setting up res3.2.conv2
I0308 09:28:31.747289 16846 net.cpp:129] Top shape: 100 128 14 14 (2508800)
I0308 09:28:31.747293 16846 net.cpp:137] Memory required for data: 1435034800
I0308 09:28:31.747300 16846 layer_factory.hpp:77] Creating layer res3.2.sum
I0308 09:28:31.747308 16846 net.cpp:84] Creating Layer res3.2.sum
I0308 09:28:31.747311 16846 net.cpp:406] res3.2.sum <- res3.2.conv2
I0308 09:28:31.747318 16846 net.cpp:406] res3.2.sum <- res3.1.sum_res3.1.relu_0_split_1
I0308 09:28:31.747323 16846 net.cpp:380] res3.2.sum -> res3.2.sum
I0308 09:28:31.747388 16846 net.cpp:122] Setting up res3.2.sum
I0308 09:28:31.747398 16846 net.cpp:129] Top shape: 100 128 14 14 (2508800)
I0308 09:28:31.747402 16846 net.cpp:137] Memory required for data: 1445070000
I0308 09:28:31.747406 16846 layer_factory.hpp:77] Creating layer res3.2.relu
I0308 09:28:31.747411 16846 net.cpp:84] Creating Layer res3.2.relu
I0308 09:28:31.747414 16846 net.cpp:406] res3.2.relu <- res3.2.sum
I0308 09:28:31.747419 16846 net.cpp:367] res3.2.relu -> res3.2.sum (in-place)
I0308 09:28:31.747932 16846 net.cpp:122] Setting up res3.2.relu
I0308 09:28:31.747941 16846 net.cpp:129] Top shape: 100 128 14 14 (2508800)
I0308 09:28:31.747961 16846 net.cpp:137] Memory required for data: 1455105200
I0308 09:28:31.747964 16846 layer_factory.hpp:77] Creating layer res3.2.sum_res3.2.relu_0_split
I0308 09:28:31.747969 16846 net.cpp:84] Creating Layer res3.2.sum_res3.2.relu_0_split
I0308 09:28:31.747973 16846 net.cpp:406] res3.2.sum_res3.2.relu_0_split <- res3.2.sum
I0308 09:28:31.747979 16846 net.cpp:380] res3.2.sum_res3.2.relu_0_split -> res3.2.sum_res3.2.relu_0_split_0
I0308 09:28:31.748013 16846 net.cpp:380] res3.2.sum_res3.2.relu_0_split -> res3.2.sum_res3.2.relu_0_split_1
I0308 09:28:31.748077 16846 net.cpp:122] Setting up res3.2.sum_res3.2.relu_0_split
I0308 09:28:31.748085 16846 net.cpp:129] Top shape: 100 128 14 14 (2508800)
I0308 09:28:31.748090 16846 net.cpp:129] Top shape: 100 128 14 14 (2508800)
I0308 09:28:31.748093 16846 net.cpp:137] Memory required for data: 1475175600
I0308 09:28:31.748096 16846 layer_factory.hpp:77] Creating layer res3.3.conv1
I0308 09:28:31.748106 16846 net.cpp:84] Creating Layer res3.3.conv1
I0308 09:28:31.748111 16846 net.cpp:406] res3.3.conv1 <- res3.2.sum_res3.2.relu_0_split_0
I0308 09:28:31.748116 16846 net.cpp:380] res3.3.conv1 -> res3.3.conv1
I0308 09:28:31.750819 16846 net.cpp:122] Setting up res3.3.conv1
I0308 09:28:31.750833 16846 net.cpp:129] Top shape: 100 128 14 14 (2508800)
I0308 09:28:31.750835 16846 net.cpp:137] Memory required for data: 1485210800
I0308 09:28:31.750843 16846 layer_factory.hpp:77] Creating layer res3.3.conv1/relu
I0308 09:28:31.750847 16846 net.cpp:84] Creating Layer res3.3.conv1/relu
I0308 09:28:31.750851 16846 net.cpp:406] res3.3.conv1/relu <- res3.3.conv1
I0308 09:28:31.750859 16846 net.cpp:367] res3.3.conv1/relu -> res3.3.conv1 (in-place)
I0308 09:28:31.751715 16846 net.cpp:122] Setting up res3.3.conv1/relu
I0308 09:28:31.751727 16846 net.cpp:129] Top shape: 100 128 14 14 (2508800)
I0308 09:28:31.751730 16846 net.cpp:137] Memory required for data: 1495246000
I0308 09:28:31.751734 16846 layer_factory.hpp:77] Creating layer res3.3.conv2
I0308 09:28:31.751742 16846 net.cpp:84] Creating Layer res3.3.conv2
I0308 09:28:31.751745 16846 net.cpp:406] res3.3.conv2 <- res3.3.conv1
I0308 09:28:31.751750 16846 net.cpp:380] res3.3.conv2 -> res3.3.conv2
I0308 09:28:31.754979 16846 net.cpp:122] Setting up res3.3.conv2
I0308 09:28:31.754993 16846 net.cpp:129] Top shape: 100 128 14 14 (2508800)
I0308 09:28:31.754997 16846 net.cpp:137] Memory required for data: 1505281200
I0308 09:28:31.755008 16846 layer_factory.hpp:77] Creating layer res3.3.sum
I0308 09:28:31.755015 16846 net.cpp:84] Creating Layer res3.3.sum
I0308 09:28:31.755019 16846 net.cpp:406] res3.3.sum <- res3.3.conv2
I0308 09:28:31.755024 16846 net.cpp:406] res3.3.sum <- res3.2.sum_res3.2.relu_0_split_1
I0308 09:28:31.755028 16846 net.cpp:380] res3.3.sum -> res3.3.sum
I0308 09:28:31.755095 16846 net.cpp:122] Setting up res3.3.sum
I0308 09:28:31.755103 16846 net.cpp:129] Top shape: 100 128 14 14 (2508800)
I0308 09:28:31.755106 16846 net.cpp:137] Memory required for data: 1515316400
I0308 09:28:31.755126 16846 layer_factory.hpp:77] Creating layer res3.3.relu
I0308 09:28:31.755131 16846 net.cpp:84] Creating Layer res3.3.relu
I0308 09:28:31.755136 16846 net.cpp:406] res3.3.relu <- res3.3.sum
I0308 09:28:31.755141 16846 net.cpp:367] res3.3.relu -> res3.3.sum (in-place)
I0308 09:28:31.755652 16846 net.cpp:122] Setting up res3.3.relu
I0308 09:28:31.755662 16846 net.cpp:129] Top shape: 100 128 14 14 (2508800)
I0308 09:28:31.755681 16846 net.cpp:137] Memory required for data: 1525351600
I0308 09:28:31.755684 16846 layer_factory.hpp:77] Creating layer res3.3.sum_res3.3.relu_0_split
I0308 09:28:31.755690 16846 net.cpp:84] Creating Layer res3.3.sum_res3.3.relu_0_split
I0308 09:28:31.755693 16846 net.cpp:406] res3.3.sum_res3.3.relu_0_split <- res3.3.sum
I0308 09:28:31.755700 16846 net.cpp:380] res3.3.sum_res3.3.relu_0_split -> res3.3.sum_res3.3.relu_0_split_0
I0308 09:28:31.755707 16846 net.cpp:380] res3.3.sum_res3.3.relu_0_split -> res3.3.sum_res3.3.relu_0_split_1
I0308 09:28:31.755785 16846 net.cpp:122] Setting up res3.3.sum_res3.3.relu_0_split
I0308 09:28:31.755792 16846 net.cpp:129] Top shape: 100 128 14 14 (2508800)
I0308 09:28:31.755797 16846 net.cpp:129] Top shape: 100 128 14 14 (2508800)
I0308 09:28:31.755800 16846 net.cpp:137] Memory required for data: 1545422000
I0308 09:28:31.755805 16846 layer_factory.hpp:77] Creating layer res3.4.conv1
I0308 09:28:31.755812 16846 net.cpp:84] Creating Layer res3.4.conv1
I0308 09:28:31.755816 16846 net.cpp:406] res3.4.conv1 <- res3.3.sum_res3.3.relu_0_split_0
I0308 09:28:31.755851 16846 net.cpp:380] res3.4.conv1 -> res3.4.conv1
I0308 09:28:31.758323 16846 net.cpp:122] Setting up res3.4.conv1
I0308 09:28:31.758354 16846 net.cpp:129] Top shape: 100 128 14 14 (2508800)
I0308 09:28:31.758358 16846 net.cpp:137] Memory required for data: 1555457200
I0308 09:28:31.758364 16846 layer_factory.hpp:77] Creating layer res3.4.conv1/relu
I0308 09:28:31.758371 16846 net.cpp:84] Creating Layer res3.4.conv1/relu
I0308 09:28:31.758375 16846 net.cpp:406] res3.4.conv1/relu <- res3.4.conv1
I0308 09:28:31.758380 16846 net.cpp:367] res3.4.conv1/relu -> res3.4.conv1 (in-place)
I0308 09:28:31.758915 16846 net.cpp:122] Setting up res3.4.conv1/relu
I0308 09:28:31.758925 16846 net.cpp:129] Top shape: 100 128 14 14 (2508800)
I0308 09:28:31.758944 16846 net.cpp:137] Memory required for data: 1565492400
I0308 09:28:31.758949 16846 layer_factory.hpp:77] Creating layer res3.4.conv2
I0308 09:28:31.758956 16846 net.cpp:84] Creating Layer res3.4.conv2
I0308 09:28:31.758960 16846 net.cpp:406] res3.4.conv2 <- res3.4.conv1
I0308 09:28:31.758965 16846 net.cpp:380] res3.4.conv2 -> res3.4.conv2
I0308 09:28:31.761319 16846 net.cpp:122] Setting up res3.4.conv2
I0308 09:28:31.761350 16846 net.cpp:129] Top shape: 100 128 14 14 (2508800)
I0308 09:28:31.761354 16846 net.cpp:137] Memory required for data: 1575527600
I0308 09:28:31.761360 16846 layer_factory.hpp:77] Creating layer res3.4.sum
I0308 09:28:31.761368 16846 net.cpp:84] Creating Layer res3.4.sum
I0308 09:28:31.761371 16846 net.cpp:406] res3.4.sum <- res3.4.conv2
I0308 09:28:31.761375 16846 net.cpp:406] res3.4.sum <- res3.3.sum_res3.3.relu_0_split_1
I0308 09:28:31.761380 16846 net.cpp:380] res3.4.sum -> res3.4.sum
I0308 09:28:31.761464 16846 net.cpp:122] Setting up res3.4.sum
I0308 09:28:31.761472 16846 net.cpp:129] Top shape: 100 128 14 14 (2508800)
I0308 09:28:31.761476 16846 net.cpp:137] Memory required for data: 1585562800
I0308 09:28:31.761479 16846 layer_factory.hpp:77] Creating layer res3.4.relu
I0308 09:28:31.761485 16846 net.cpp:84] Creating Layer res3.4.relu
I0308 09:28:31.761488 16846 net.cpp:406] res3.4.relu <- res3.4.sum
I0308 09:28:31.761494 16846 net.cpp:367] res3.4.relu -> res3.4.sum (in-place)
I0308 09:28:31.762440 16846 net.cpp:122] Setting up res3.4.relu
I0308 09:28:31.762454 16846 net.cpp:129] Top shape: 100 128 14 14 (2508800)
I0308 09:28:31.762473 16846 net.cpp:137] Memory required for data: 1595598000
I0308 09:28:31.762476 16846 layer_factory.hpp:77] Creating layer res3.4.sum_res3.4.relu_0_split
I0308 09:28:31.762485 16846 net.cpp:84] Creating Layer res3.4.sum_res3.4.relu_0_split
I0308 09:28:31.762488 16846 net.cpp:406] res3.4.sum_res3.4.relu_0_split <- res3.4.sum
I0308 09:28:31.762493 16846 net.cpp:380] res3.4.sum_res3.4.relu_0_split -> res3.4.sum_res3.4.relu_0_split_0
I0308 09:28:31.762501 16846 net.cpp:380] res3.4.sum_res3.4.relu_0_split -> res3.4.sum_res3.4.relu_0_split_1
I0308 09:28:31.762580 16846 net.cpp:122] Setting up res3.4.sum_res3.4.relu_0_split
I0308 09:28:31.762589 16846 net.cpp:129] Top shape: 100 128 14 14 (2508800)
I0308 09:28:31.762593 16846 net.cpp:129] Top shape: 100 128 14 14 (2508800)
I0308 09:28:31.762596 16846 net.cpp:137] Memory required for data: 1615668400
I0308 09:28:31.762599 16846 layer_factory.hpp:77] Creating layer res3.5.conv1
I0308 09:28:31.762609 16846 net.cpp:84] Creating Layer res3.5.conv1
I0308 09:28:31.762611 16846 net.cpp:406] res3.5.conv1 <- res3.4.sum_res3.4.relu_0_split_0
I0308 09:28:31.762619 16846 net.cpp:380] res3.5.conv1 -> res3.5.conv1
I0308 09:28:31.766095 16846 net.cpp:122] Setting up res3.5.conv1
I0308 09:28:31.766126 16846 net.cpp:129] Top shape: 100 128 14 14 (2508800)
I0308 09:28:31.766130 16846 net.cpp:137] Memory required for data: 1625703600
I0308 09:28:31.766137 16846 layer_factory.hpp:77] Creating layer res3.5.conv1/relu
I0308 09:28:31.766144 16846 net.cpp:84] Creating Layer res3.5.conv1/relu
I0308 09:28:31.766149 16846 net.cpp:406] res3.5.conv1/relu <- res3.5.conv1
I0308 09:28:31.766155 16846 net.cpp:367] res3.5.conv1/relu -> res3.5.conv1 (in-place)
I0308 09:28:31.766742 16846 net.cpp:122] Setting up res3.5.conv1/relu
I0308 09:28:31.766762 16846 net.cpp:129] Top shape: 100 128 14 14 (2508800)
I0308 09:28:31.766782 16846 net.cpp:137] Memory required for data: 1635738800
I0308 09:28:31.766785 16846 layer_factory.hpp:77] Creating layer res3.5.conv2
I0308 09:28:31.766794 16846 net.cpp:84] Creating Layer res3.5.conv2
I0308 09:28:31.766798 16846 net.cpp:406] res3.5.conv2 <- res3.5.conv1
I0308 09:28:31.766804 16846 net.cpp:380] res3.5.conv2 -> res3.5.conv2
I0308 09:28:31.769364 16846 net.cpp:122] Setting up res3.5.conv2
I0308 09:28:31.769378 16846 net.cpp:129] Top shape: 100 128 14 14 (2508800)
I0308 09:28:31.769397 16846 net.cpp:137] Memory required for data: 1645774000
I0308 09:28:31.769404 16846 layer_factory.hpp:77] Creating layer res3.5.sum
I0308 09:28:31.769412 16846 net.cpp:84] Creating Layer res3.5.sum
I0308 09:28:31.769414 16846 net.cpp:406] res3.5.sum <- res3.5.conv2
I0308 09:28:31.769419 16846 net.cpp:406] res3.5.sum <- res3.4.sum_res3.4.relu_0_split_1
I0308 09:28:31.769441 16846 net.cpp:380] res3.5.sum -> res3.5.sum
I0308 09:28:31.769477 16846 net.cpp:122] Setting up res3.5.sum
I0308 09:28:31.769485 16846 net.cpp:129] Top shape: 100 128 14 14 (2508800)
I0308 09:28:31.769488 16846 net.cpp:137] Memory required for data: 1655809200
I0308 09:28:31.769492 16846 layer_factory.hpp:77] Creating layer res3.5.relu
I0308 09:28:31.769497 16846 net.cpp:84] Creating Layer res3.5.relu
I0308 09:28:31.769500 16846 net.cpp:406] res3.5.relu <- res3.5.sum
I0308 09:28:31.769505 16846 net.cpp:367] res3.5.relu -> res3.5.sum (in-place)
I0308 09:28:31.770067 16846 net.cpp:122] Setting up res3.5.relu
I0308 09:28:31.770079 16846 net.cpp:129] Top shape: 100 128 14 14 (2508800)
I0308 09:28:31.770098 16846 net.cpp:137] Memory required for data: 1665844400
I0308 09:28:31.770102 16846 layer_factory.hpp:77] Creating layer res3.5.sum_res3.5.relu_0_split
I0308 09:28:31.770108 16846 net.cpp:84] Creating Layer res3.5.sum_res3.5.relu_0_split
I0308 09:28:31.770112 16846 net.cpp:406] res3.5.sum_res3.5.relu_0_split <- res3.5.sum
I0308 09:28:31.770119 16846 net.cpp:380] res3.5.sum_res3.5.relu_0_split -> res3.5.sum_res3.5.relu_0_split_0
I0308 09:28:31.770141 16846 net.cpp:380] res3.5.sum_res3.5.relu_0_split -> res3.5.sum_res3.5.relu_0_split_1
I0308 09:28:31.770244 16846 net.cpp:122] Setting up res3.5.sum_res3.5.relu_0_split
I0308 09:28:31.770251 16846 net.cpp:129] Top shape: 100 128 14 14 (2508800)
I0308 09:28:31.770256 16846 net.cpp:129] Top shape: 100 128 14 14 (2508800)
I0308 09:28:31.770259 16846 net.cpp:137] Memory required for data: 1685914800
I0308 09:28:31.770263 16846 layer_factory.hpp:77] Creating layer res3.6.conv1
I0308 09:28:31.770272 16846 net.cpp:84] Creating Layer res3.6.conv1
I0308 09:28:31.770275 16846 net.cpp:406] res3.6.conv1 <- res3.5.sum_res3.5.relu_0_split_0
I0308 09:28:31.770282 16846 net.cpp:380] res3.6.conv1 -> res3.6.conv1
I0308 09:28:31.772883 16846 net.cpp:122] Setting up res3.6.conv1
I0308 09:28:31.772913 16846 net.cpp:129] Top shape: 100 128 14 14 (2508800)
I0308 09:28:31.772917 16846 net.cpp:137] Memory required for data: 1695950000
I0308 09:28:31.772924 16846 layer_factory.hpp:77] Creating layer res3.6.conv1/relu
I0308 09:28:31.772933 16846 net.cpp:84] Creating Layer res3.6.conv1/relu
I0308 09:28:31.772938 16846 net.cpp:406] res3.6.conv1/relu <- res3.6.conv1
I0308 09:28:31.772959 16846 net.cpp:367] res3.6.conv1/relu -> res3.6.conv1 (in-place)
I0308 09:28:31.773524 16846 net.cpp:122] Setting up res3.6.conv1/relu
I0308 09:28:31.773535 16846 net.cpp:129] Top shape: 100 128 14 14 (2508800)
I0308 09:28:31.773553 16846 net.cpp:137] Memory required for data: 1705985200
I0308 09:28:31.773556 16846 layer_factory.hpp:77] Creating layer res3.6.conv2
I0308 09:28:31.773564 16846 net.cpp:84] Creating Layer res3.6.conv2
I0308 09:28:31.773569 16846 net.cpp:406] res3.6.conv2 <- res3.6.conv1
I0308 09:28:31.773574 16846 net.cpp:380] res3.6.conv2 -> res3.6.conv2
I0308 09:28:31.777006 16846 net.cpp:122] Setting up res3.6.conv2
I0308 09:28:31.777022 16846 net.cpp:129] Top shape: 100 128 14 14 (2508800)
I0308 09:28:31.777042 16846 net.cpp:137] Memory required for data: 1716020400
I0308 09:28:31.777076 16846 layer_factory.hpp:77] Creating layer res3.6.sum
I0308 09:28:31.777082 16846 net.cpp:84] Creating Layer res3.6.sum
I0308 09:28:31.777086 16846 net.cpp:406] res3.6.sum <- res3.6.conv2
I0308 09:28:31.777092 16846 net.cpp:406] res3.6.sum <- res3.5.sum_res3.5.relu_0_split_1
I0308 09:28:31.777098 16846 net.cpp:380] res3.6.sum -> res3.6.sum
I0308 09:28:31.777150 16846 net.cpp:122] Setting up res3.6.sum
I0308 09:28:31.777158 16846 net.cpp:129] Top shape: 100 128 14 14 (2508800)
I0308 09:28:31.777163 16846 net.cpp:137] Memory required for data: 1726055600
I0308 09:28:31.777165 16846 layer_factory.hpp:77] Creating layer res3.6.relu
I0308 09:28:31.777173 16846 net.cpp:84] Creating Layer res3.6.relu
I0308 09:28:31.777176 16846 net.cpp:406] res3.6.relu <- res3.6.sum
I0308 09:28:31.777181 16846 net.cpp:367] res3.6.relu -> res3.6.sum (in-place)
I0308 09:28:31.778177 16846 net.cpp:122] Setting up res3.6.relu
I0308 09:28:31.778208 16846 net.cpp:129] Top shape: 100 128 14 14 (2508800)
I0308 09:28:31.778228 16846 net.cpp:137] Memory required for data: 1736090800
I0308 09:28:31.778231 16846 layer_factory.hpp:77] Creating layer res3.6.sum_res3.6.relu_0_split
I0308 09:28:31.778237 16846 net.cpp:84] Creating Layer res3.6.sum_res3.6.relu_0_split
I0308 09:28:31.778242 16846 net.cpp:406] res3.6.sum_res3.6.relu_0_split <- res3.6.sum
I0308 09:28:31.778249 16846 net.cpp:380] res3.6.sum_res3.6.relu_0_split -> res3.6.sum_res3.6.relu_0_split_0
I0308 09:28:31.778273 16846 net.cpp:380] res3.6.sum_res3.6.relu_0_split -> res3.6.sum_res3.6.relu_0_split_1
I0308 09:28:31.778342 16846 net.cpp:122] Setting up res3.6.sum_res3.6.relu_0_split
I0308 09:28:31.778350 16846 net.cpp:129] Top shape: 100 128 14 14 (2508800)
I0308 09:28:31.778354 16846 net.cpp:129] Top shape: 100 128 14 14 (2508800)
I0308 09:28:31.778358 16846 net.cpp:137] Memory required for data: 1756161200
I0308 09:28:31.778362 16846 layer_factory.hpp:77] Creating layer res3.7.conv1
I0308 09:28:31.778379 16846 net.cpp:84] Creating Layer res3.7.conv1
I0308 09:28:31.778385 16846 net.cpp:406] res3.7.conv1 <- res3.6.sum_res3.6.relu_0_split_0
I0308 09:28:31.778393 16846 net.cpp:380] res3.7.conv1 -> res3.7.conv1
I0308 09:28:31.780776 16846 net.cpp:122] Setting up res3.7.conv1
I0308 09:28:31.780788 16846 net.cpp:129] Top shape: 100 128 14 14 (2508800)
I0308 09:28:31.780808 16846 net.cpp:137] Memory required for data: 1766196400
I0308 09:28:31.780815 16846 layer_factory.hpp:77] Creating layer res3.7.conv1/relu
I0308 09:28:31.780822 16846 net.cpp:84] Creating Layer res3.7.conv1/relu
I0308 09:28:31.780824 16846 net.cpp:406] res3.7.conv1/relu <- res3.7.conv1
I0308 09:28:31.780830 16846 net.cpp:367] res3.7.conv1/relu -> res3.7.conv1 (in-place)
I0308 09:28:31.781455 16846 net.cpp:122] Setting up res3.7.conv1/relu
I0308 09:28:31.781464 16846 net.cpp:129] Top shape: 100 128 14 14 (2508800)
I0308 09:28:31.781483 16846 net.cpp:137] Memory required for data: 1776231600
I0308 09:28:31.781486 16846 layer_factory.hpp:77] Creating layer res3.7.conv2
I0308 09:28:31.781496 16846 net.cpp:84] Creating Layer res3.7.conv2
I0308 09:28:31.781499 16846 net.cpp:406] res3.7.conv2 <- res3.7.conv1
I0308 09:28:31.781505 16846 net.cpp:380] res3.7.conv2 -> res3.7.conv2
I0308 09:28:31.784741 16846 net.cpp:122] Setting up res3.7.conv2
I0308 09:28:31.784756 16846 net.cpp:129] Top shape: 100 128 14 14 (2508800)
I0308 09:28:31.784776 16846 net.cpp:137] Memory required for data: 1786266800
I0308 09:28:31.784782 16846 layer_factory.hpp:77] Creating layer res3.7.sum
I0308 09:28:31.784790 16846 net.cpp:84] Creating Layer res3.7.sum
I0308 09:28:31.784793 16846 net.cpp:406] res3.7.sum <- res3.7.conv2
I0308 09:28:31.784798 16846 net.cpp:406] res3.7.sum <- res3.6.sum_res3.6.relu_0_split_1
I0308 09:28:31.784819 16846 net.cpp:380] res3.7.sum -> res3.7.sum
I0308 09:28:31.784870 16846 net.cpp:122] Setting up res3.7.sum
I0308 09:28:31.784880 16846 net.cpp:129] Top shape: 100 128 14 14 (2508800)
I0308 09:28:31.784883 16846 net.cpp:137] Memory required for data: 1796302000
I0308 09:28:31.784898 16846 layer_factory.hpp:77] Creating layer res3.7.relu
I0308 09:28:31.784904 16846 net.cpp:84] Creating Layer res3.7.relu
I0308 09:28:31.784909 16846 net.cpp:406] res3.7.relu <- res3.7.sum
I0308 09:28:31.784912 16846 net.cpp:367] res3.7.relu -> res3.7.sum (in-place)
I0308 09:28:31.785413 16846 net.cpp:122] Setting up res3.7.relu
I0308 09:28:31.785424 16846 net.cpp:129] Top shape: 100 128 14 14 (2508800)
I0308 09:28:31.785444 16846 net.cpp:137] Memory required for data: 1806337200
I0308 09:28:31.785447 16846 layer_factory.hpp:77] Creating layer res3.7.sum_res3.7.relu_0_split
I0308 09:28:31.785452 16846 net.cpp:84] Creating Layer res3.7.sum_res3.7.relu_0_split
I0308 09:28:31.785457 16846 net.cpp:406] res3.7.sum_res3.7.relu_0_split <- res3.7.sum
I0308 09:28:31.785464 16846 net.cpp:380] res3.7.sum_res3.7.relu_0_split -> res3.7.sum_res3.7.relu_0_split_0
I0308 09:28:31.785485 16846 net.cpp:380] res3.7.sum_res3.7.relu_0_split -> res3.7.sum_res3.7.relu_0_split_1
I0308 09:28:31.785549 16846 net.cpp:122] Setting up res3.7.sum_res3.7.relu_0_split
I0308 09:28:31.785557 16846 net.cpp:129] Top shape: 100 128 14 14 (2508800)
I0308 09:28:31.785562 16846 net.cpp:129] Top shape: 100 128 14 14 (2508800)
I0308 09:28:31.785564 16846 net.cpp:137] Memory required for data: 1826407600
I0308 09:28:31.785567 16846 layer_factory.hpp:77] Creating layer res3.8.conv1
I0308 09:28:31.785576 16846 net.cpp:84] Creating Layer res3.8.conv1
I0308 09:28:31.785599 16846 net.cpp:406] res3.8.conv1 <- res3.7.sum_res3.7.relu_0_split_0
I0308 09:28:31.785604 16846 net.cpp:380] res3.8.conv1 -> res3.8.conv1
I0308 09:28:31.788914 16846 net.cpp:122] Setting up res3.8.conv1
I0308 09:28:31.788945 16846 net.cpp:129] Top shape: 100 128 14 14 (2508800)
I0308 09:28:31.788949 16846 net.cpp:137] Memory required for data: 1836442800
I0308 09:28:31.788956 16846 layer_factory.hpp:77] Creating layer res3.8.conv1/relu
I0308 09:28:31.788964 16846 net.cpp:84] Creating Layer res3.8.conv1/relu
I0308 09:28:31.788967 16846 net.cpp:406] res3.8.conv1/relu <- res3.8.conv1
I0308 09:28:31.788972 16846 net.cpp:367] res3.8.conv1/relu -> res3.8.conv1 (in-place)
I0308 09:28:31.789841 16846 net.cpp:122] Setting up res3.8.conv1/relu
I0308 09:28:31.789877 16846 net.cpp:129] Top shape: 100 128 14 14 (2508800)
I0308 09:28:31.789901 16846 net.cpp:137] Memory required for data: 1846478000
I0308 09:28:31.789904 16846 layer_factory.hpp:77] Creating layer res3.8.conv2
I0308 09:28:31.789929 16846 net.cpp:84] Creating Layer res3.8.conv2
I0308 09:28:31.789934 16846 net.cpp:406] res3.8.conv2 <- res3.8.conv1
I0308 09:28:31.789940 16846 net.cpp:380] res3.8.conv2 -> res3.8.conv2
I0308 09:28:31.792326 16846 net.cpp:122] Setting up res3.8.conv2
I0308 09:28:31.792340 16846 net.cpp:129] Top shape: 100 128 14 14 (2508800)
I0308 09:28:31.792359 16846 net.cpp:137] Memory required for data: 1856513200
I0308 09:28:31.792366 16846 layer_factory.hpp:77] Creating layer res3.8.sum
I0308 09:28:31.792373 16846 net.cpp:84] Creating Layer res3.8.sum
I0308 09:28:31.792377 16846 net.cpp:406] res3.8.sum <- res3.8.conv2
I0308 09:28:31.792382 16846 net.cpp:406] res3.8.sum <- res3.7.sum_res3.7.relu_0_split_1
I0308 09:28:31.792387 16846 net.cpp:380] res3.8.sum -> res3.8.sum
I0308 09:28:31.792454 16846 net.cpp:122] Setting up res3.8.sum
I0308 09:28:31.792464 16846 net.cpp:129] Top shape: 100 128 14 14 (2508800)
I0308 09:28:31.792466 16846 net.cpp:137] Memory required for data: 1866548400
I0308 09:28:31.792469 16846 layer_factory.hpp:77] Creating layer res3.8.relu
I0308 09:28:31.792476 16846 net.cpp:84] Creating Layer res3.8.relu
I0308 09:28:31.792479 16846 net.cpp:406] res3.8.relu <- res3.8.sum
I0308 09:28:31.792486 16846 net.cpp:367] res3.8.relu -> res3.8.sum (in-place)
I0308 09:28:31.793030 16846 net.cpp:122] Setting up res3.8.relu
I0308 09:28:31.793040 16846 net.cpp:129] Top shape: 100 128 14 14 (2508800)
I0308 09:28:31.793058 16846 net.cpp:137] Memory required for data: 1876583600
I0308 09:28:31.793061 16846 layer_factory.hpp:77] Creating layer res3.8.sum_res3.8.relu_0_split
I0308 09:28:31.793066 16846 net.cpp:84] Creating Layer res3.8.sum_res3.8.relu_0_split
I0308 09:28:31.793094 16846 net.cpp:406] res3.8.sum_res3.8.relu_0_split <- res3.8.sum
I0308 09:28:31.793102 16846 net.cpp:380] res3.8.sum_res3.8.relu_0_split -> res3.8.sum_res3.8.relu_0_split_0
I0308 09:28:31.793134 16846 net.cpp:380] res3.8.sum_res3.8.relu_0_split -> res3.8.sum_res3.8.relu_0_split_1
I0308 09:28:31.793217 16846 net.cpp:122] Setting up res3.8.sum_res3.8.relu_0_split
I0308 09:28:31.793226 16846 net.cpp:129] Top shape: 100 128 14 14 (2508800)
I0308 09:28:31.793231 16846 net.cpp:129] Top shape: 100 128 14 14 (2508800)
I0308 09:28:31.793233 16846 net.cpp:137] Memory required for data: 1896654000
I0308 09:28:31.793237 16846 layer_factory.hpp:77] Creating layer res3.9.conv1
I0308 09:28:31.793246 16846 net.cpp:84] Creating Layer res3.9.conv1
I0308 09:28:31.793251 16846 net.cpp:406] res3.9.conv1 <- res3.8.sum_res3.8.relu_0_split_0
I0308 09:28:31.793272 16846 net.cpp:380] res3.9.conv1 -> res3.9.conv1
I0308 09:28:31.795745 16846 net.cpp:122] Setting up res3.9.conv1
I0308 09:28:31.795775 16846 net.cpp:129] Top shape: 100 128 14 14 (2508800)
I0308 09:28:31.795779 16846 net.cpp:137] Memory required for data: 1906689200
I0308 09:28:31.795785 16846 layer_factory.hpp:77] Creating layer res3.9.conv1/relu
I0308 09:28:31.795792 16846 net.cpp:84] Creating Layer res3.9.conv1/relu
I0308 09:28:31.795796 16846 net.cpp:406] res3.9.conv1/relu <- res3.9.conv1
I0308 09:28:31.795801 16846 net.cpp:367] res3.9.conv1/relu -> res3.9.conv1 (in-place)
I0308 09:28:31.796386 16846 net.cpp:122] Setting up res3.9.conv1/relu
I0308 09:28:31.796412 16846 net.cpp:129] Top shape: 100 128 14 14 (2508800)
I0308 09:28:31.796416 16846 net.cpp:137] Memory required for data: 1916724400
I0308 09:28:31.796419 16846 layer_factory.hpp:77] Creating layer res3.9.conv2
I0308 09:28:31.796427 16846 net.cpp:84] Creating Layer res3.9.conv2
I0308 09:28:31.796432 16846 net.cpp:406] res3.9.conv2 <- res3.9.conv1
I0308 09:28:31.796437 16846 net.cpp:380] res3.9.conv2 -> res3.9.conv2
I0308 09:28:31.799757 16846 net.cpp:122] Setting up res3.9.conv2
I0308 09:28:31.799772 16846 net.cpp:129] Top shape: 100 128 14 14 (2508800)
I0308 09:28:31.799774 16846 net.cpp:137] Memory required for data: 1926759600
I0308 09:28:31.799780 16846 layer_factory.hpp:77] Creating layer res3.9.sum
I0308 09:28:31.799787 16846 net.cpp:84] Creating Layer res3.9.sum
I0308 09:28:31.799790 16846 net.cpp:406] res3.9.sum <- res3.9.conv2
I0308 09:28:31.799794 16846 net.cpp:406] res3.9.sum <- res3.8.sum_res3.8.relu_0_split_1
I0308 09:28:31.799801 16846 net.cpp:380] res3.9.sum -> res3.9.sum
I0308 09:28:31.799852 16846 net.cpp:122] Setting up res3.9.sum
I0308 09:28:31.799885 16846 net.cpp:129] Top shape: 100 128 14 14 (2508800)
I0308 09:28:31.799890 16846 net.cpp:137] Memory required for data: 1936794800
I0308 09:28:31.799892 16846 layer_factory.hpp:77] Creating layer res3.9.relu
I0308 09:28:31.799897 16846 net.cpp:84] Creating Layer res3.9.relu
I0308 09:28:31.799901 16846 net.cpp:406] res3.9.relu <- res3.9.sum
I0308 09:28:31.799906 16846 net.cpp:367] res3.9.relu -> res3.9.sum (in-place)
I0308 09:28:31.800719 16846 net.cpp:122] Setting up res3.9.relu
I0308 09:28:31.800730 16846 net.cpp:129] Top shape: 100 128 14 14 (2508800)
I0308 09:28:31.800734 16846 net.cpp:137] Memory required for data: 1946830000
I0308 09:28:31.800736 16846 layer_factory.hpp:77] Creating layer res3.9.sum_res3.9.relu_0_split
I0308 09:28:31.800745 16846 net.cpp:84] Creating Layer res3.9.sum_res3.9.relu_0_split
I0308 09:28:31.800747 16846 net.cpp:406] res3.9.sum_res3.9.relu_0_split <- res3.9.sum
I0308 09:28:31.800751 16846 net.cpp:380] res3.9.sum_res3.9.relu_0_split -> res3.9.sum_res3.9.relu_0_split_0
I0308 09:28:31.800760 16846 net.cpp:380] res3.9.sum_res3.9.relu_0_split -> res3.9.sum_res3.9.relu_0_split_1
I0308 09:28:31.800839 16846 net.cpp:122] Setting up res3.9.sum_res3.9.relu_0_split
I0308 09:28:31.800848 16846 net.cpp:129] Top shape: 100 128 14 14 (2508800)
I0308 09:28:31.800851 16846 net.cpp:129] Top shape: 100 128 14 14 (2508800)
I0308 09:28:31.800854 16846 net.cpp:137] Memory required for data: 1966900400
I0308 09:28:31.800869 16846 layer_factory.hpp:77] Creating layer res3.10.conv1
I0308 09:28:31.800876 16846 net.cpp:84] Creating Layer res3.10.conv1
I0308 09:28:31.800879 16846 net.cpp:406] res3.10.conv1 <- res3.9.sum_res3.9.relu_0_split_0
I0308 09:28:31.800887 16846 net.cpp:380] res3.10.conv1 -> res3.10.conv1
I0308 09:28:31.803434 16846 net.cpp:122] Setting up res3.10.conv1
I0308 09:28:31.803448 16846 net.cpp:129] Top shape: 100 128 14 14 (2508800)
I0308 09:28:31.803467 16846 net.cpp:137] Memory required for data: 1976935600
I0308 09:28:31.803473 16846 layer_factory.hpp:77] Creating layer res3.10.conv1/relu
I0308 09:28:31.803480 16846 net.cpp:84] Creating Layer res3.10.conv1/relu
I0308 09:28:31.803484 16846 net.cpp:406] res3.10.conv1/relu <- res3.10.conv1
I0308 09:28:31.803490 16846 net.cpp:367] res3.10.conv1/relu -> res3.10.conv1 (in-place)
I0308 09:28:31.804072 16846 net.cpp:122] Setting up res3.10.conv1/relu
I0308 09:28:31.804083 16846 net.cpp:129] Top shape: 100 128 14 14 (2508800)
I0308 09:28:31.804101 16846 net.cpp:137] Memory required for data: 1986970800
I0308 09:28:31.804105 16846 layer_factory.hpp:77] Creating layer res3.10.conv2
I0308 09:28:31.804112 16846 net.cpp:84] Creating Layer res3.10.conv2
I0308 09:28:31.804118 16846 net.cpp:406] res3.10.conv2 <- res3.10.conv1
I0308 09:28:31.804124 16846 net.cpp:380] res3.10.conv2 -> res3.10.conv2
I0308 09:28:31.806638 16846 net.cpp:122] Setting up res3.10.conv2
I0308 09:28:31.806653 16846 net.cpp:129] Top shape: 100 128 14 14 (2508800)
I0308 09:28:31.806671 16846 net.cpp:137] Memory required for data: 1997006000
I0308 09:28:31.806679 16846 layer_factory.hpp:77] Creating layer res3.10.sum
I0308 09:28:31.806684 16846 net.cpp:84] Creating Layer res3.10.sum
I0308 09:28:31.806689 16846 net.cpp:406] res3.10.sum <- res3.10.conv2
I0308 09:28:31.806694 16846 net.cpp:406] res3.10.sum <- res3.9.sum_res3.9.relu_0_split_1
I0308 09:28:31.806717 16846 net.cpp:380] res3.10.sum -> res3.10.sum
I0308 09:28:31.806754 16846 net.cpp:122] Setting up res3.10.sum
I0308 09:28:31.806762 16846 net.cpp:129] Top shape: 100 128 14 14 (2508800)
I0308 09:28:31.806766 16846 net.cpp:137] Memory required for data: 2007041200
I0308 09:28:31.806769 16846 layer_factory.hpp:77] Creating layer res3.10.relu
I0308 09:28:31.806776 16846 net.cpp:84] Creating Layer res3.10.relu
I0308 09:28:31.806779 16846 net.cpp:406] res3.10.relu <- res3.10.sum
I0308 09:28:31.806784 16846 net.cpp:367] res3.10.relu -> res3.10.sum (in-place)
I0308 09:28:31.807297 16846 net.cpp:122] Setting up res3.10.relu
I0308 09:28:31.807323 16846 net.cpp:129] Top shape: 100 128 14 14 (2508800)
I0308 09:28:31.807327 16846 net.cpp:137] Memory required for data: 2017076400
I0308 09:28:31.807330 16846 layer_factory.hpp:77] Creating layer res3.10.sum_res3.10.relu_0_split
I0308 09:28:31.807337 16846 net.cpp:84] Creating Layer res3.10.sum_res3.10.relu_0_split
I0308 09:28:31.807339 16846 net.cpp:406] res3.10.sum_res3.10.relu_0_split <- res3.10.sum
I0308 09:28:31.807345 16846 net.cpp:380] res3.10.sum_res3.10.relu_0_split -> res3.10.sum_res3.10.relu_0_split_0
I0308 09:28:31.807353 16846 net.cpp:380] res3.10.sum_res3.10.relu_0_split -> res3.10.sum_res3.10.relu_0_split_1
I0308 09:28:31.807417 16846 net.cpp:122] Setting up res3.10.sum_res3.10.relu_0_split
I0308 09:28:31.807425 16846 net.cpp:129] Top shape: 100 128 14 14 (2508800)
I0308 09:28:31.807428 16846 net.cpp:129] Top shape: 100 128 14 14 (2508800)
I0308 09:28:31.807432 16846 net.cpp:137] Memory required for data: 2037146800
I0308 09:28:31.807435 16846 layer_factory.hpp:77] Creating layer res3.11.conv1
I0308 09:28:31.807443 16846 net.cpp:84] Creating Layer res3.11.conv1
I0308 09:28:31.807446 16846 net.cpp:406] res3.11.conv1 <- res3.10.sum_res3.10.relu_0_split_0
I0308 09:28:31.807452 16846 net.cpp:380] res3.11.conv1 -> res3.11.conv1
I0308 09:28:31.811573 16846 net.cpp:122] Setting up res3.11.conv1
I0308 09:28:31.811604 16846 net.cpp:129] Top shape: 100 256 14 14 (5017600)
I0308 09:28:31.811609 16846 net.cpp:137] Memory required for data: 2057217200
I0308 09:28:31.811616 16846 layer_factory.hpp:77] Creating layer res3.11.conv1/relu
I0308 09:28:31.811635 16846 net.cpp:84] Creating Layer res3.11.conv1/relu
I0308 09:28:31.811640 16846 net.cpp:406] res3.11.conv1/relu <- res3.11.conv1
I0308 09:28:31.811645 16846 net.cpp:367] res3.11.conv1/relu -> res3.11.conv1 (in-place)
I0308 09:28:31.812160 16846 net.cpp:122] Setting up res3.11.conv1/relu
I0308 09:28:31.812188 16846 net.cpp:129] Top shape: 100 256 14 14 (5017600)
I0308 09:28:31.812191 16846 net.cpp:137] Memory required for data: 2077287600
I0308 09:28:31.812196 16846 layer_factory.hpp:77] Creating layer res3.11.conv2
I0308 09:28:31.812202 16846 net.cpp:84] Creating Layer res3.11.conv2
I0308 09:28:31.812206 16846 net.cpp:406] res3.11.conv2 <- res3.11.conv1
I0308 09:28:31.812212 16846 net.cpp:380] res3.11.conv2 -> res3.11.conv2
I0308 09:28:31.816231 16846 net.cpp:122] Setting up res3.11.conv2
I0308 09:28:31.816246 16846 net.cpp:129] Top shape: 100 256 14 14 (5017600)
I0308 09:28:31.816248 16846 net.cpp:137] Memory required for data: 2097358000
I0308 09:28:31.816264 16846 layer_factory.hpp:77] Creating layer res3.11.skipConv
I0308 09:28:31.816272 16846 net.cpp:84] Creating Layer res3.11.skipConv
I0308 09:28:31.816277 16846 net.cpp:406] res3.11.skipConv <- res3.10.sum_res3.10.relu_0_split_1
I0308 09:28:31.816282 16846 net.cpp:380] res3.11.skipConv -> res3.11.skipConv
I0308 09:28:31.818403 16846 net.cpp:122] Setting up res3.11.skipConv
I0308 09:28:31.818416 16846 net.cpp:129] Top shape: 100 256 14 14 (5017600)
I0308 09:28:31.818420 16846 net.cpp:137] Memory required for data: 2117428400
I0308 09:28:31.818425 16846 layer_factory.hpp:77] Creating layer res3.11.sum
I0308 09:28:31.818434 16846 net.cpp:84] Creating Layer res3.11.sum
I0308 09:28:31.818436 16846 net.cpp:406] res3.11.sum <- res3.11.conv2
I0308 09:28:31.818441 16846 net.cpp:406] res3.11.sum <- res3.11.skipConv
I0308 09:28:31.818445 16846 net.cpp:380] res3.11.sum -> res3.11.sum
I0308 09:28:31.818493 16846 net.cpp:122] Setting up res3.11.sum
I0308 09:28:31.818516 16846 net.cpp:129] Top shape: 100 256 14 14 (5017600)
I0308 09:28:31.818521 16846 net.cpp:137] Memory required for data: 2137498800
I0308 09:28:31.818523 16846 layer_factory.hpp:77] Creating layer res3.11.relu
I0308 09:28:31.818544 16846 net.cpp:84] Creating Layer res3.11.relu
I0308 09:28:31.818548 16846 net.cpp:406] res3.11.relu <- res3.11.sum
I0308 09:28:31.818570 16846 net.cpp:367] res3.11.relu -> res3.11.sum (in-place)
I0308 09:28:31.819622 16846 net.cpp:122] Setting up res3.11.relu
I0308 09:28:31.819635 16846 net.cpp:129] Top shape: 100 256 14 14 (5017600)
I0308 09:28:31.819655 16846 net.cpp:137] Memory required for data: 2157569200
I0308 09:28:31.819659 16846 layer_factory.hpp:77] Creating layer res3.11.sum_res3.11.relu_0_split
I0308 09:28:31.819665 16846 net.cpp:84] Creating Layer res3.11.sum_res3.11.relu_0_split
I0308 09:28:31.819669 16846 net.cpp:406] res3.11.sum_res3.11.relu_0_split <- res3.11.sum
I0308 09:28:31.819675 16846 net.cpp:380] res3.11.sum_res3.11.relu_0_split -> res3.11.sum_res3.11.relu_0_split_0
I0308 09:28:31.819684 16846 net.cpp:380] res3.11.sum_res3.11.relu_0_split -> res3.11.sum_res3.11.relu_0_split_1
I0308 09:28:31.819754 16846 net.cpp:122] Setting up res3.11.sum_res3.11.relu_0_split
I0308 09:28:31.819762 16846 net.cpp:129] Top shape: 100 256 14 14 (5017600)
I0308 09:28:31.819766 16846 net.cpp:129] Top shape: 100 256 14 14 (5017600)
I0308 09:28:31.819770 16846 net.cpp:137] Memory required for data: 2197710000
I0308 09:28:31.819773 16846 layer_factory.hpp:77] Creating layer res4.1.conv1
I0308 09:28:31.819783 16846 net.cpp:84] Creating Layer res4.1.conv1
I0308 09:28:31.819787 16846 net.cpp:406] res4.1.conv1 <- res3.11.sum_res3.11.relu_0_split_0
I0308 09:28:31.819793 16846 net.cpp:380] res4.1.conv1 -> res4.1.conv1
I0308 09:28:31.823390 16846 net.cpp:122] Setting up res4.1.conv1
I0308 09:28:31.823420 16846 net.cpp:129] Top shape: 100 256 7 7 (1254400)
I0308 09:28:31.823423 16846 net.cpp:137] Memory required for data: 2202727600
I0308 09:28:31.823431 16846 layer_factory.hpp:77] Creating layer res4.1.conv1/relu
I0308 09:28:31.823448 16846 net.cpp:84] Creating Layer res4.1.conv1/relu
I0308 09:28:31.823452 16846 net.cpp:406] res4.1.conv1/relu <- res4.1.conv1
I0308 09:28:31.823474 16846 net.cpp:367] res4.1.conv1/relu -> res4.1.conv1 (in-place)
I0308 09:28:31.824033 16846 net.cpp:122] Setting up res4.1.conv1/relu
I0308 09:28:31.824043 16846 net.cpp:129] Top shape: 100 256 7 7 (1254400)
I0308 09:28:31.824062 16846 net.cpp:137] Memory required for data: 2207745200
I0308 09:28:31.824066 16846 layer_factory.hpp:77] Creating layer res4.1.conv2
I0308 09:28:31.824075 16846 net.cpp:84] Creating Layer res4.1.conv2
I0308 09:28:31.824079 16846 net.cpp:406] res4.1.conv2 <- res4.1.conv1
I0308 09:28:31.824085 16846 net.cpp:380] res4.1.conv2 -> res4.1.conv2
I0308 09:28:31.828060 16846 net.cpp:122] Setting up res4.1.conv2
I0308 09:28:31.828092 16846 net.cpp:129] Top shape: 100 256 7 7 (1254400)
I0308 09:28:31.828096 16846 net.cpp:137] Memory required for data: 2212762800
I0308 09:28:31.828102 16846 layer_factory.hpp:77] Creating layer res4.1.skipConv
I0308 09:28:31.828111 16846 net.cpp:84] Creating Layer res4.1.skipConv
I0308 09:28:31.828117 16846 net.cpp:406] res4.1.skipConv <- res3.11.sum_res3.11.relu_0_split_1
I0308 09:28:31.828125 16846 net.cpp:380] res4.1.skipConv -> res4.1.skipConv
I0308 09:28:31.830344 16846 net.cpp:122] Setting up res4.1.skipConv
I0308 09:28:31.830359 16846 net.cpp:129] Top shape: 100 256 7 7 (1254400)
I0308 09:28:31.830363 16846 net.cpp:137] Memory required for data: 2217780400
I0308 09:28:31.830368 16846 layer_factory.hpp:77] Creating layer res4.1.sum
I0308 09:28:31.830374 16846 net.cpp:84] Creating Layer res4.1.sum
I0308 09:28:31.830377 16846 net.cpp:406] res4.1.sum <- res4.1.conv2
I0308 09:28:31.830382 16846 net.cpp:406] res4.1.sum <- res4.1.skipConv
I0308 09:28:31.830386 16846 net.cpp:380] res4.1.sum -> res4.1.sum
I0308 09:28:31.830435 16846 net.cpp:122] Setting up res4.1.sum
I0308 09:28:31.830440 16846 net.cpp:129] Top shape: 100 256 7 7 (1254400)
I0308 09:28:31.830443 16846 net.cpp:137] Memory required for data: 2222798000
I0308 09:28:31.830446 16846 layer_factory.hpp:77] Creating layer res4.1.relu
I0308 09:28:31.830468 16846 net.cpp:84] Creating Layer res4.1.relu
I0308 09:28:31.830487 16846 net.cpp:406] res4.1.relu <- res4.1.sum
I0308 09:28:31.830492 16846 net.cpp:367] res4.1.relu -> res4.1.sum (in-place)
I0308 09:28:31.830977 16846 net.cpp:122] Setting up res4.1.relu
I0308 09:28:31.830988 16846 net.cpp:129] Top shape: 100 256 7 7 (1254400)
I0308 09:28:31.831007 16846 net.cpp:137] Memory required for data: 2227815600
I0308 09:28:31.831012 16846 layer_factory.hpp:77] Creating layer res4.1.sum_res4.1.relu_0_split
I0308 09:28:31.831017 16846 net.cpp:84] Creating Layer res4.1.sum_res4.1.relu_0_split
I0308 09:28:31.831019 16846 net.cpp:406] res4.1.sum_res4.1.relu_0_split <- res4.1.sum
I0308 09:28:31.831025 16846 net.cpp:380] res4.1.sum_res4.1.relu_0_split -> res4.1.sum_res4.1.relu_0_split_0
I0308 09:28:31.831033 16846 net.cpp:380] res4.1.sum_res4.1.relu_0_split -> res4.1.sum_res4.1.relu_0_split_1
I0308 09:28:31.831115 16846 net.cpp:122] Setting up res4.1.sum_res4.1.relu_0_split
I0308 09:28:31.831122 16846 net.cpp:129] Top shape: 100 256 7 7 (1254400)
I0308 09:28:31.831126 16846 net.cpp:129] Top shape: 100 256 7 7 (1254400)
I0308 09:28:31.831130 16846 net.cpp:137] Memory required for data: 2237850800
I0308 09:28:31.831132 16846 layer_factory.hpp:77] Creating layer res4.2.conv1
I0308 09:28:31.831140 16846 net.cpp:84] Creating Layer res4.2.conv1
I0308 09:28:31.831145 16846 net.cpp:406] res4.2.conv1 <- res4.1.sum_res4.1.relu_0_split_0
I0308 09:28:31.831151 16846 net.cpp:380] res4.2.conv1 -> res4.2.conv1
I0308 09:28:31.834826 16846 net.cpp:122] Setting up res4.2.conv1
I0308 09:28:31.834841 16846 net.cpp:129] Top shape: 100 256 7 7 (1254400)
I0308 09:28:31.834861 16846 net.cpp:137] Memory required for data: 2242868400
I0308 09:28:31.834867 16846 layer_factory.hpp:77] Creating layer res4.2.conv1/relu
I0308 09:28:31.834875 16846 net.cpp:84] Creating Layer res4.2.conv1/relu
I0308 09:28:31.834879 16846 net.cpp:406] res4.2.conv1/relu <- res4.2.conv1
I0308 09:28:31.834911 16846 net.cpp:367] res4.2.conv1/relu -> res4.2.conv1 (in-place)
I0308 09:28:31.835799 16846 net.cpp:122] Setting up res4.2.conv1/relu
I0308 09:28:31.835813 16846 net.cpp:129] Top shape: 100 256 7 7 (1254400)
I0308 09:28:31.835831 16846 net.cpp:137] Memory required for data: 2247886000
I0308 09:28:31.835835 16846 layer_factory.hpp:77] Creating layer res4.2.conv2
I0308 09:28:31.835844 16846 net.cpp:84] Creating Layer res4.2.conv2
I0308 09:28:31.835849 16846 net.cpp:406] res4.2.conv2 <- res4.2.conv1
I0308 09:28:31.835855 16846 net.cpp:380] res4.2.conv2 -> res4.2.conv2
I0308 09:28:31.839617 16846 net.cpp:122] Setting up res4.2.conv2
I0308 09:28:31.839632 16846 net.cpp:129] Top shape: 100 256 7 7 (1254400)
I0308 09:28:31.839651 16846 net.cpp:137] Memory required for data: 2252903600
I0308 09:28:31.839658 16846 layer_factory.hpp:77] Creating layer res4.2.sum
I0308 09:28:31.839663 16846 net.cpp:84] Creating Layer res4.2.sum
I0308 09:28:31.839668 16846 net.cpp:406] res4.2.sum <- res4.2.conv2
I0308 09:28:31.839673 16846 net.cpp:406] res4.2.sum <- res4.1.sum_res4.1.relu_0_split_1
I0308 09:28:31.839694 16846 net.cpp:380] res4.2.sum -> res4.2.sum
I0308 09:28:31.839767 16846 net.cpp:122] Setting up res4.2.sum
I0308 09:28:31.839776 16846 net.cpp:129] Top shape: 100 256 7 7 (1254400)
I0308 09:28:31.839779 16846 net.cpp:137] Memory required for data: 2257921200
I0308 09:28:31.839782 16846 layer_factory.hpp:77] Creating layer res4.2.relu
I0308 09:28:31.839788 16846 net.cpp:84] Creating Layer res4.2.relu
I0308 09:28:31.839792 16846 net.cpp:406] res4.2.relu <- res4.2.sum
I0308 09:28:31.839797 16846 net.cpp:367] res4.2.relu -> res4.2.sum (in-place)
I0308 09:28:31.840317 16846 net.cpp:122] Setting up res4.2.relu
I0308 09:28:31.840327 16846 net.cpp:129] Top shape: 100 256 7 7 (1254400)
I0308 09:28:31.840345 16846 net.cpp:137] Memory required for data: 2262938800
I0308 09:28:31.840348 16846 layer_factory.hpp:77] Creating layer res4.2.sum_res4.2.relu_0_split
I0308 09:28:31.840353 16846 net.cpp:84] Creating Layer res4.2.sum_res4.2.relu_0_split
I0308 09:28:31.840358 16846 net.cpp:406] res4.2.sum_res4.2.relu_0_split <- res4.2.sum
I0308 09:28:31.840364 16846 net.cpp:380] res4.2.sum_res4.2.relu_0_split -> res4.2.sum_res4.2.relu_0_split_0
I0308 09:28:31.840370 16846 net.cpp:380] res4.2.sum_res4.2.relu_0_split -> res4.2.sum_res4.2.relu_0_split_1
I0308 09:28:31.840456 16846 net.cpp:122] Setting up res4.2.sum_res4.2.relu_0_split
I0308 09:28:31.840462 16846 net.cpp:129] Top shape: 100 256 7 7 (1254400)
I0308 09:28:31.840467 16846 net.cpp:129] Top shape: 100 256 7 7 (1254400)
I0308 09:28:31.840471 16846 net.cpp:137] Memory required for data: 2272974000
I0308 09:28:31.840474 16846 layer_factory.hpp:77] Creating layer res4.3.conv1
I0308 09:28:31.840482 16846 net.cpp:84] Creating Layer res4.3.conv1
I0308 09:28:31.840487 16846 net.cpp:406] res4.3.conv1 <- res4.2.sum_res4.2.relu_0_split_0
I0308 09:28:31.840492 16846 net.cpp:380] res4.3.conv1 -> res4.3.conv1
I0308 09:28:31.844409 16846 net.cpp:122] Setting up res4.3.conv1
I0308 09:28:31.844424 16846 net.cpp:129] Top shape: 100 256 7 7 (1254400)
I0308 09:28:31.844444 16846 net.cpp:137] Memory required for data: 2277991600
I0308 09:28:31.844451 16846 layer_factory.hpp:77] Creating layer res4.3.conv1/relu
I0308 09:28:31.844461 16846 net.cpp:84] Creating Layer res4.3.conv1/relu
I0308 09:28:31.844465 16846 net.cpp:406] res4.3.conv1/relu <- res4.3.conv1
I0308 09:28:31.844471 16846 net.cpp:367] res4.3.conv1/relu -> res4.3.conv1 (in-place)
I0308 09:28:31.845011 16846 net.cpp:122] Setting up res4.3.conv1/relu
I0308 09:28:31.845024 16846 net.cpp:129] Top shape: 100 256 7 7 (1254400)
I0308 09:28:31.845043 16846 net.cpp:137] Memory required for data: 2283009200
I0308 09:28:31.845048 16846 layer_factory.hpp:77] Creating layer res4.3.conv2
I0308 09:28:31.845057 16846 net.cpp:84] Creating Layer res4.3.conv2
I0308 09:28:31.845062 16846 net.cpp:406] res4.3.conv2 <- res4.3.conv1
I0308 09:28:31.845067 16846 net.cpp:380] res4.3.conv2 -> res4.3.conv2
I0308 09:28:31.849311 16846 net.cpp:122] Setting up res4.3.conv2
I0308 09:28:31.849335 16846 net.cpp:129] Top shape: 100 256 7 7 (1254400)
I0308 09:28:31.849354 16846 net.cpp:137] Memory required for data: 2288026800
I0308 09:28:31.849361 16846 layer_factory.hpp:77] Creating layer res4.3.sum
I0308 09:28:31.849370 16846 net.cpp:84] Creating Layer res4.3.sum
I0308 09:28:31.849373 16846 net.cpp:406] res4.3.sum <- res4.3.conv2
I0308 09:28:31.849378 16846 net.cpp:406] res4.3.sum <- res4.2.sum_res4.2.relu_0_split_1
I0308 09:28:31.849382 16846 net.cpp:380] res4.3.sum -> res4.3.sum
I0308 09:28:31.849454 16846 net.cpp:122] Setting up res4.3.sum
I0308 09:28:31.849463 16846 net.cpp:129] Top shape: 100 256 7 7 (1254400)
I0308 09:28:31.849467 16846 net.cpp:137] Memory required for data: 2293044400
I0308 09:28:31.849469 16846 layer_factory.hpp:77] Creating layer res4.3.relu
I0308 09:28:31.849475 16846 net.cpp:84] Creating Layer res4.3.relu
I0308 09:28:31.849478 16846 net.cpp:406] res4.3.relu <- res4.3.sum
I0308 09:28:31.849484 16846 net.cpp:367] res4.3.relu -> res4.3.sum (in-place)
I0308 09:28:31.850513 16846 net.cpp:122] Setting up res4.3.relu
I0308 09:28:31.850543 16846 net.cpp:129] Top shape: 100 256 7 7 (1254400)
I0308 09:28:31.850562 16846 net.cpp:137] Memory required for data: 2298062000
I0308 09:28:31.850565 16846 layer_factory.hpp:77] Creating layer res4.3.sum_res4.3.relu_0_split
I0308 09:28:31.850571 16846 net.cpp:84] Creating Layer res4.3.sum_res4.3.relu_0_split
I0308 09:28:31.850576 16846 net.cpp:406] res4.3.sum_res4.3.relu_0_split <- res4.3.sum
I0308 09:28:31.850584 16846 net.cpp:380] res4.3.sum_res4.3.relu_0_split -> res4.3.sum_res4.3.relu_0_split_0
I0308 09:28:31.850606 16846 net.cpp:380] res4.3.sum_res4.3.relu_0_split -> res4.3.sum_res4.3.relu_0_split_1
I0308 09:28:31.850700 16846 net.cpp:122] Setting up res4.3.sum_res4.3.relu_0_split
I0308 09:28:31.850709 16846 net.cpp:129] Top shape: 100 256 7 7 (1254400)
I0308 09:28:31.850714 16846 net.cpp:129] Top shape: 100 256 7 7 (1254400)
I0308 09:28:31.850718 16846 net.cpp:137] Memory required for data: 2308097200
I0308 09:28:31.850720 16846 layer_factory.hpp:77] Creating layer res4.4.conv1
I0308 09:28:31.850731 16846 net.cpp:84] Creating Layer res4.4.conv1
I0308 09:28:31.850735 16846 net.cpp:406] res4.4.conv1 <- res4.3.sum_res4.3.relu_0_split_0
I0308 09:28:31.850740 16846 net.cpp:380] res4.4.conv1 -> res4.4.conv1
I0308 09:28:31.854501 16846 net.cpp:122] Setting up res4.4.conv1
I0308 09:28:31.854516 16846 net.cpp:129] Top shape: 100 256 7 7 (1254400)
I0308 09:28:31.854519 16846 net.cpp:137] Memory required for data: 2313114800
I0308 09:28:31.854526 16846 layer_factory.hpp:77] Creating layer res4.4.conv1/relu
I0308 09:28:31.854532 16846 net.cpp:84] Creating Layer res4.4.conv1/relu
I0308 09:28:31.854535 16846 net.cpp:406] res4.4.conv1/relu <- res4.4.conv1
I0308 09:28:31.854539 16846 net.cpp:367] res4.4.conv1/relu -> res4.4.conv1 (in-place)
I0308 09:28:31.855137 16846 net.cpp:122] Setting up res4.4.conv1/relu
I0308 09:28:31.855147 16846 net.cpp:129] Top shape: 100 256 7 7 (1254400)
I0308 09:28:31.855151 16846 net.cpp:137] Memory required for data: 2318132400
I0308 09:28:31.855154 16846 layer_factory.hpp:77] Creating layer res4.4.conv2
I0308 09:28:31.855161 16846 net.cpp:84] Creating Layer res4.4.conv2
I0308 09:28:31.855165 16846 net.cpp:406] res4.4.conv2 <- res4.4.conv1
I0308 09:28:31.855170 16846 net.cpp:380] res4.4.conv2 -> res4.4.conv2
I0308 09:28:31.858882 16846 net.cpp:122] Setting up res4.4.conv2
I0308 09:28:31.858896 16846 net.cpp:129] Top shape: 100 256 7 7 (1254400)
I0308 09:28:31.858898 16846 net.cpp:137] Memory required for data: 2323150000
I0308 09:28:31.858906 16846 layer_factory.hpp:77] Creating layer res4.4.sum
I0308 09:28:31.858912 16846 net.cpp:84] Creating Layer res4.4.sum
I0308 09:28:31.858916 16846 net.cpp:406] res4.4.sum <- res4.4.conv2
I0308 09:28:31.858919 16846 net.cpp:406] res4.4.sum <- res4.3.sum_res4.3.relu_0_split_1
I0308 09:28:31.858924 16846 net.cpp:380] res4.4.sum -> res4.4.sum
I0308 09:28:31.858976 16846 net.cpp:122] Setting up res4.4.sum
I0308 09:28:31.859001 16846 net.cpp:129] Top shape: 100 256 7 7 (1254400)
I0308 09:28:31.859017 16846 net.cpp:137] Memory required for data: 2328167600
I0308 09:28:31.859022 16846 layer_factory.hpp:77] Creating layer res4.4.relu
I0308 09:28:31.859027 16846 net.cpp:84] Creating Layer res4.4.relu
I0308 09:28:31.859031 16846 net.cpp:406] res4.4.relu <- res4.4.sum
I0308 09:28:31.859037 16846 net.cpp:367] res4.4.relu -> res4.4.sum (in-place)
I0308 09:28:31.859565 16846 net.cpp:122] Setting up res4.4.relu
I0308 09:28:31.859573 16846 net.cpp:129] Top shape: 100 256 7 7 (1254400)
I0308 09:28:31.859576 16846 net.cpp:137] Memory required for data: 2333185200
I0308 09:28:31.859580 16846 layer_factory.hpp:77] Creating layer res4.4.sum_res4.4.relu_0_split
I0308 09:28:31.859586 16846 net.cpp:84] Creating Layer res4.4.sum_res4.4.relu_0_split
I0308 09:28:31.859589 16846 net.cpp:406] res4.4.sum_res4.4.relu_0_split <- res4.4.sum
I0308 09:28:31.859594 16846 net.cpp:380] res4.4.sum_res4.4.relu_0_split -> res4.4.sum_res4.4.relu_0_split_0
I0308 09:28:31.859601 16846 net.cpp:380] res4.4.sum_res4.4.relu_0_split -> res4.4.sum_res4.4.relu_0_split_1
I0308 09:28:31.859683 16846 net.cpp:122] Setting up res4.4.sum_res4.4.relu_0_split
I0308 09:28:31.859690 16846 net.cpp:129] Top shape: 100 256 7 7 (1254400)
I0308 09:28:31.859694 16846 net.cpp:129] Top shape: 100 256 7 7 (1254400)
I0308 09:28:31.859697 16846 net.cpp:137] Memory required for data: 2343220400
I0308 09:28:31.859701 16846 layer_factory.hpp:77] Creating layer res4.5.conv1
I0308 09:28:31.859709 16846 net.cpp:84] Creating Layer res4.5.conv1
I0308 09:28:31.859728 16846 net.cpp:406] res4.5.conv1 <- res4.4.sum_res4.4.relu_0_split_0
I0308 09:28:31.859751 16846 net.cpp:380] res4.5.conv1 -> res4.5.conv1
I0308 09:28:31.864038 16846 net.cpp:122] Setting up res4.5.conv1
I0308 09:28:31.864053 16846 net.cpp:129] Top shape: 100 512 7 7 (2508800)
I0308 09:28:31.864073 16846 net.cpp:137] Memory required for data: 2353255600
I0308 09:28:31.864078 16846 layer_factory.hpp:77] Creating layer res4.5.conv1/relu
I0308 09:28:31.864087 16846 net.cpp:84] Creating Layer res4.5.conv1/relu
I0308 09:28:31.864091 16846 net.cpp:406] res4.5.conv1/relu <- res4.5.conv1
I0308 09:28:31.864096 16846 net.cpp:367] res4.5.conv1/relu -> res4.5.conv1 (in-place)
I0308 09:28:31.864640 16846 net.cpp:122] Setting up res4.5.conv1/relu
I0308 09:28:31.864652 16846 net.cpp:129] Top shape: 100 512 7 7 (2508800)
I0308 09:28:31.864671 16846 net.cpp:137] Memory required for data: 2363290800
I0308 09:28:31.864675 16846 layer_factory.hpp:77] Creating layer res4.5.conv2
I0308 09:28:31.864681 16846 net.cpp:84] Creating Layer res4.5.conv2
I0308 09:28:31.864687 16846 net.cpp:406] res4.5.conv2 <- res4.5.conv1
I0308 09:28:31.864693 16846 net.cpp:380] res4.5.conv2 -> res4.5.conv2
I0308 09:28:31.870822 16846 net.cpp:122] Setting up res4.5.conv2
I0308 09:28:31.870838 16846 net.cpp:129] Top shape: 100 512 7 7 (2508800)
I0308 09:28:31.870858 16846 net.cpp:137] Memory required for data: 2373326000
I0308 09:28:31.870865 16846 layer_factory.hpp:77] Creating layer res4.5.skipConv
I0308 09:28:31.870875 16846 net.cpp:84] Creating Layer res4.5.skipConv
I0308 09:28:31.870880 16846 net.cpp:406] res4.5.skipConv <- res4.4.sum_res4.4.relu_0_split_1
I0308 09:28:31.870904 16846 net.cpp:380] res4.5.skipConv -> res4.5.skipConv
I0308 09:28:31.873101 16846 net.cpp:122] Setting up res4.5.skipConv
I0308 09:28:31.873114 16846 net.cpp:129] Top shape: 100 512 7 7 (2508800)
I0308 09:28:31.873134 16846 net.cpp:137] Memory required for data: 2383361200
I0308 09:28:31.873140 16846 layer_factory.hpp:77] Creating layer res4.5.sum
I0308 09:28:31.873147 16846 net.cpp:84] Creating Layer res4.5.sum
I0308 09:28:31.873150 16846 net.cpp:406] res4.5.sum <- res4.5.conv2
I0308 09:28:31.873155 16846 net.cpp:406] res4.5.sum <- res4.5.skipConv
I0308 09:28:31.873178 16846 net.cpp:380] res4.5.sum -> res4.5.sum
I0308 09:28:31.873230 16846 net.cpp:122] Setting up res4.5.sum
I0308 09:28:31.873239 16846 net.cpp:129] Top shape: 100 512 7 7 (2508800)
I0308 09:28:31.873241 16846 net.cpp:137] Memory required for data: 2393396400
I0308 09:28:31.873245 16846 layer_factory.hpp:77] Creating layer res4.5.relu
I0308 09:28:31.873265 16846 net.cpp:84] Creating Layer res4.5.relu
I0308 09:28:31.873268 16846 net.cpp:406] res4.5.relu <- res4.5.sum
I0308 09:28:31.873273 16846 net.cpp:367] res4.5.relu -> res4.5.sum (in-place)
I0308 09:28:31.874234 16846 net.cpp:122] Setting up res4.5.relu
I0308 09:28:31.874264 16846 net.cpp:129] Top shape: 100 512 7 7 (2508800)
I0308 09:28:31.874267 16846 net.cpp:137] Memory required for data: 2403431600
I0308 09:28:31.874270 16846 layer_factory.hpp:77] Creating layer res4.5.sum_res4.5.relu_0_split
I0308 09:28:31.874276 16846 net.cpp:84] Creating Layer res4.5.sum_res4.5.relu_0_split
I0308 09:28:31.874280 16846 net.cpp:406] res4.5.sum_res4.5.relu_0_split <- res4.5.sum
I0308 09:28:31.874287 16846 net.cpp:380] res4.5.sum_res4.5.relu_0_split -> res4.5.sum_res4.5.relu_0_split_0
I0308 09:28:31.874310 16846 net.cpp:380] res4.5.sum_res4.5.relu_0_split -> res4.5.sum_res4.5.relu_0_split_1
I0308 09:28:31.874402 16846 net.cpp:122] Setting up res4.5.sum_res4.5.relu_0_split
I0308 09:28:31.874409 16846 net.cpp:129] Top shape: 100 512 7 7 (2508800)
I0308 09:28:31.874413 16846 net.cpp:129] Top shape: 100 512 7 7 (2508800)
I0308 09:28:31.874416 16846 net.cpp:137] Memory required for data: 2423502000
I0308 09:28:31.874420 16846 layer_factory.hpp:77] Creating layer res4.6.conv1
I0308 09:28:31.874429 16846 net.cpp:84] Creating Layer res4.6.conv1
I0308 09:28:31.874433 16846 net.cpp:406] res4.6.conv1 <- res4.5.sum_res4.5.relu_0_split_0
I0308 09:28:31.874439 16846 net.cpp:380] res4.6.conv1 -> res4.6.conv1
I0308 09:28:31.880995 16846 net.cpp:122] Setting up res4.6.conv1
I0308 09:28:31.881016 16846 net.cpp:129] Top shape: 100 512 7 7 (2508800)
I0308 09:28:31.881019 16846 net.cpp:137] Memory required for data: 2433537200
I0308 09:28:31.881027 16846 layer_factory.hpp:77] Creating layer res4.6.conv1/relu
I0308 09:28:31.881057 16846 net.cpp:84] Creating Layer res4.6.conv1/relu
I0308 09:28:31.881063 16846 net.cpp:406] res4.6.conv1/relu <- res4.6.conv1
I0308 09:28:31.881070 16846 net.cpp:367] res4.6.conv1/relu -> res4.6.conv1 (in-place)
I0308 09:28:31.881651 16846 net.cpp:122] Setting up res4.6.conv1/relu
I0308 09:28:31.881662 16846 net.cpp:129] Top shape: 100 512 7 7 (2508800)
I0308 09:28:31.881681 16846 net.cpp:137] Memory required for data: 2443572400
I0308 09:28:31.881685 16846 layer_factory.hpp:77] Creating layer res4.6.conv2
I0308 09:28:31.881695 16846 net.cpp:84] Creating Layer res4.6.conv2
I0308 09:28:31.881698 16846 net.cpp:406] res4.6.conv2 <- res4.6.conv1
I0308 09:28:31.881703 16846 net.cpp:380] res4.6.conv2 -> res4.6.conv2
I0308 09:28:31.888141 16846 net.cpp:122] Setting up res4.6.conv2
I0308 09:28:31.888176 16846 net.cpp:129] Top shape: 100 512 7 7 (2508800)
I0308 09:28:31.888180 16846 net.cpp:137] Memory required for data: 2453607600
I0308 09:28:31.888187 16846 layer_factory.hpp:77] Creating layer res4.6.sum
I0308 09:28:31.888195 16846 net.cpp:84] Creating Layer res4.6.sum
I0308 09:28:31.888200 16846 net.cpp:406] res4.6.sum <- res4.6.conv2
I0308 09:28:31.888206 16846 net.cpp:406] res4.6.sum <- res4.5.sum_res4.5.relu_0_split_1
I0308 09:28:31.888227 16846 net.cpp:380] res4.6.sum -> res4.6.sum
I0308 09:28:31.888296 16846 net.cpp:122] Setting up res4.6.sum
I0308 09:28:31.888311 16846 net.cpp:129] Top shape: 100 512 7 7 (2508800)
I0308 09:28:31.888315 16846 net.cpp:137] Memory required for data: 2463642800
I0308 09:28:31.888319 16846 layer_factory.hpp:77] Creating layer res4.6.relu
I0308 09:28:31.888325 16846 net.cpp:84] Creating Layer res4.6.relu
I0308 09:28:31.888329 16846 net.cpp:406] res4.6.relu <- res4.6.sum
I0308 09:28:31.888334 16846 net.cpp:367] res4.6.relu -> res4.6.sum (in-place)
I0308 09:28:31.888849 16846 net.cpp:122] Setting up res4.6.relu
I0308 09:28:31.888860 16846 net.cpp:129] Top shape: 100 512 7 7 (2508800)
I0308 09:28:31.888880 16846 net.cpp:137] Memory required for data: 2473678000
I0308 09:28:31.888883 16846 layer_factory.hpp:77] Creating layer pool5
I0308 09:28:31.888890 16846 net.cpp:84] Creating Layer pool5
I0308 09:28:31.888893 16846 net.cpp:406] pool5 <- res4.6.sum
I0308 09:28:31.888928 16846 net.cpp:380] pool5 -> pool5
I0308 09:28:31.889930 16846 net.cpp:122] Setting up pool5
I0308 09:28:31.889961 16846 net.cpp:129] Top shape: 100 512 1 1 (51200)
I0308 09:28:31.889964 16846 net.cpp:137] Memory required for data: 2473882800
I0308 09:28:31.889967 16846 layer_factory.hpp:77] Creating layer fc
I0308 09:28:31.889974 16846 net.cpp:84] Creating Layer fc
I0308 09:28:31.889978 16846 net.cpp:406] fc <- pool5
I0308 09:28:31.889986 16846 net.cpp:380] fc -> fc
I0308 09:28:31.891541 16846 net.cpp:122] Setting up fc
I0308 09:28:31.891554 16846 net.cpp:129] Top shape: 100 1000 (100000)
I0308 09:28:31.891557 16846 net.cpp:137] Memory required for data: 2474282800
I0308 09:28:31.891563 16846 layer_factory.hpp:77] Creating layer fc_fc_0_split
I0308 09:28:31.891571 16846 net.cpp:84] Creating Layer fc_fc_0_split
I0308 09:28:31.891573 16846 net.cpp:406] fc_fc_0_split <- fc
I0308 09:28:31.891578 16846 net.cpp:380] fc_fc_0_split -> fc_fc_0_split_0
I0308 09:28:31.891584 16846 net.cpp:380] fc_fc_0_split -> fc_fc_0_split_1
I0308 09:28:31.891667 16846 net.cpp:122] Setting up fc_fc_0_split
I0308 09:28:31.891675 16846 net.cpp:129] Top shape: 100 1000 (100000)
I0308 09:28:31.891680 16846 net.cpp:129] Top shape: 100 1000 (100000)
I0308 09:28:31.891682 16846 net.cpp:137] Memory required for data: 2475082800
I0308 09:28:31.891685 16846 layer_factory.hpp:77] Creating layer accuracy/top-1
I0308 09:28:31.891692 16846 net.cpp:84] Creating Layer accuracy/top-1
I0308 09:28:31.891695 16846 net.cpp:406] accuracy/top-1 <- fc_fc_0_split_0
I0308 09:28:31.891700 16846 net.cpp:406] accuracy/top-1 <- label_data_1_split_0
I0308 09:28:31.891705 16846 net.cpp:380] accuracy/top-1 -> accuracy/top-1
…
