…
I0308 15:33:04.189383 31542 net.cpp:294] The NetState phase (0) differed from the phase (1) specified by a rule in layer psp.pool4.interp
I0308 15:33:04.189395 31542 net.cpp:294] The NetState phase (0) differed from the phase (1) specified by a rule in layer prob_d8
I0308 15:33:04.189404 31542 net.cpp:294] The NetState phase (0) differed from the phase (1) specified by a rule in layer pred_d8
I0308 15:33:04.189662 31542 net.cpp:51] Initializing net from parameters: 
state {
  phase: TRAIN
  level: 0
  stage: ""
}
layer {
  name: "input"
  type: "Input"
  top: "data"
  input_param {
    shape {
      dim: 1
      dim: 3
      dim: 1024
      dim: 2048
    }
  }
}
layer {
  name: "conv1"
  type: "Convolution"
  bottom: "data"
  top: "conv1"
  convolution_param {
    num_output: 32
    bias_term: true
    pad: 1
    kernel_size: 3
    stride: 2
  }
}
layer {
  name: "conv1/relu"
  type: "ReLU"
  bottom: "conv1"
  top: "conv1"
}
layer {
  name: "conv2"
  type: "Convolution"
  bottom: "conv1"
  top: "conv2"
  convolution_param {
    num_output: 64
    bias_term: true
    pad: 1
    kernel_size: 3
    stride: 2
  }
}
layer {
  name: "conv2/relu"
  type: "ReLU"
  bottom: "conv2"
  top: "conv2"
}
layer {
  name: "res2.1.conv1"
  type: "Convolution"
  bottom: "conv2"
  top: "res2.1.conv1"
  convolution_param {
    num_output: 64
    bias_term: true
    pad: 1
    kernel_size: 3
    stride: 2
  }
}
layer {
  name: "res2.1.conv1/relu"
  type: "ReLU"
  bottom: "res2.1.conv1"
  top: "res2.1.conv1"
}
layer {
  name: "res2.1.conv2"
  type: "Convolution"
  bottom: "res2.1.conv1"
  top: "res2.1.conv2"
  convolution_param {
    num_output: 64
    bias_term: true
    pad: 1
    kernel_size: 3
    stride: 1
  }
}
layer {
  name: "res2.1.skipConv"
  type: "Convolution"
  bottom: "conv2"
  top: "res2.1.skipConv"
  convolution_param {
    num_output: 64
    bias_term: true
    pad: 0
    kernel_size: 1
    stride: 2
  }
}
layer {
  name: "res2.1.sum"
  type: "Eltwise"
  bottom: "res2.1.conv2"
  bottom: "res2.1.skipConv"
  top: "res2.1.sum"
  eltwise_param {
    operation: SUM
  }
}
layer {
  name: "res2.1.relu"
  type: "ReLU"
  bottom: "res2.1.sum"
  top: "res2.1.sum"
}
layer {
  name: "res2.2.conv1"
  type: "Convolution"
  bottom: "res2.1.sum"
  top: "res2.2.conv1"
  convolution_param {
    num_output: 64
    bias_term: true
    pad: 1
    kernel_size: 3
    stride: 1
  }
}
layer {
  name: "res2.2.conv1/relu"
  type: "ReLU"
  bottom: "res2.2.conv1"
  top: "res2.2.conv1"
}
layer {
  name: "res2.2.conv2"
  type: "Convolution"
  bottom: "res2.2.conv1"
  top: "res2.2.conv2"
  convolution_param {
    num_output: 64
    bias_term: true
    pad: 1
    kernel_size: 3
    stride: 1
  }
}
layer {
  name: "res2.2.sum"
  type: "Eltwise"
  bottom: "res2.2.conv2"
  bottom: "res2.1.sum"
  top: "res2.2.sum"
  eltwise_param {
    operation: SUM
  }
}
layer {
  name: "res2.2.relu"
  type: "ReLU"
  bottom: "res2.2.sum"
  top: "res2.2.sum"
}
layer {
  name: "res3.1.conv1"
  type: "Convolution"
  bottom: "res2.2.sum"
  top: "res3.1.conv1"
  convolution_param {
    num_output: 128
    bias_term: true
    pad: 1
    kernel_size: 3
    stride: 2
  }
}
layer {
  name: "res3.1.conv1/relu"
  type: "ReLU"
  bottom: "res3.1.conv1"
  top: "res3.1.conv1"
}
layer {
  name: "res3.1.conv2"
  type: "Convolution"
  bottom: "res3.1.conv1"
  top: "res3.1.conv2"
  convolution_param {
    num_output: 128
    bias_term: true
    pad: 1
    kernel_size: 3
    stride: 1
  }
}
layer {
  name: "res3.1.skipConv"
  type: "Convolution"
  bottom: "res2.2.sum"
  top: "res3.1.skipConv"
  convolution_param {
    num_output: 128
    bias_term: true
    pad: 0
    kernel_size: 1
    stride: 2
  }
}
layer {
  name: "res3.1.sum"
  type: "Eltwise"
  bottom: "res3.1.conv2"
  bottom: "res3.1.skipConv"
  top: "res3.1.sum"
  eltwise_param {
    operation: SUM
  }
}
layer {
  name: "res3.1.relu"
  type: "ReLU"
  bottom: "res3.1.sum"
  top: "res3.1.sum"
}
layer {
  name: "res3.2.conv1"
  type: "Convolution"
  bottom: "res3.1.sum"
  top: "res3.2.conv1"
  convolution_param {
    num_output: 128
    bias_term: true
    pad: 1
    kernel_size: 3
    stride: 1
  }
}
layer {
  name: "res3.2.conv1/relu"
  type: "ReLU"
  bottom: "res3.2.conv1"
  top: "res3.2.conv1"
}
layer {
  name: "res3.2.conv2"
  type: "Convolution"
  bottom: "res3.2.conv1"
  top: "res3.2.conv2"
  convolution_param {
    num_output: 128
    bias_term: true
    pad: 1
    kernel_size: 3
    stride: 1
  }
}
layer {
  name: "res3.2.sum"
  type: "Eltwise"
  bottom: "res3.2.conv2"
  bottom: "res3.1.sum"
  top: "res3.2.sum"
  eltwise_param {
    operation: SUM
  }
}
layer {
  name: "res3.2.relu"
  type: "ReLU"
  bottom: "res3.2.sum"
  top: "res3.2.sum"
}
layer {
  name: "res4.1.conv1"
  type: "Convolution"
  bottom: "res3.2.sum"
  top: "res4.1.conv1"
  convolution_param {
    num_output: 256
    bias_term: true
    pad: 1
    kernel_size: 3
    stride: 2
  }
}
layer {
  name: "res4.1.conv1/relu"
  type: "ReLU"
  bottom: "res4.1.conv1"
  top: "res4.1.conv1"
}
layer {
  name: "res4.1.conv2"
  type: "Convolution"
  bottom: "res4.1.conv1"
  top: "res4.1.conv2"
  convolution_param {
    num_output: 256
    bias_term: true
    pad: 1
    kernel_size: 3
    stride: 1
  }
}
layer {
  name: "res4.1.skipConv"
  type: "Convolution"
  bottom: "res3.2.sum"
  top: "res4.1.skipConv"
  convolution_param {
    num_output: 256
    bias_term: true
    pad: 0
    kernel_size: 1
    stride: 2
  }
}
layer {
  name: "res4.1.sum"
  type: "Eltwise"
  bottom: "res4.1.conv2"
  bottom: "res4.1.skipConv"
  top: "res4.1.sum"
  eltwise_param {
    operation: SUM
  }
}
layer {
  name: "res4.1.relu"
  type: "ReLU"
  bottom: "res4.1.sum"
  top: "res4.1.sum"
}
layer {
  name: "res4.2.conv1"
  type: "Convolution"
  bottom: "res4.1.sum"
  top: "res4.2.conv1"
  convolution_param {
    num_output: 512
    bias_term: true
    pad: 1
    kernel_size: 3
    stride: 1
  }
}
layer {
  name: "res4.2.conv1/relu"
  type: "ReLU"
  bottom: "res4.2.conv1"
  top: "res4.2.conv1"
}
layer {
  name: "res4.2.conv2"
  type: "Convolution"
  bottom: "res4.2.conv1"
  top: "res4.2.conv2"
  convolution_param {
    num_output: 512
    bias_term: true
    pad: 1
    kernel_size: 3
    stride: 1
  }
}
layer {
  name: "res4.2.skipConv"
  type: "Convolution"
  bottom: "res4.1.sum"
  top: "res4.2.skipConv"
  convolution_param {
    num_output: 512
    bias_term: true
    pad: 0
    kernel_size: 1
    stride: 1
  }
}
layer {
  name: "res4.2.sum"
  type: "Eltwise"
  bottom: "res4.2.conv2"
  bottom: "res4.2.skipConv"
  top: "res4.2.sum"
  eltwise_param {
    operation: SUM
  }
}
layer {
  name: "res4.2.relu"
  type: "ReLU"
  bottom: "res4.2.sum"
  top: "res4.2.sum"
}
layer {
  name: "psp.pool1"
  type: "Pooling"
  bottom: "res4.2.sum"
  top: "psp.pool1"
  pooling_param {
    pool: AVE
    kernel_size: 32
    stride: 32
  }
}
layer {
  name: "psp.pool1.conv"
  type: "Convolution"
  bottom: "psp.pool1"
  top: "psp.pool1.conv"
  convolution_param {
    num_output: 128
    bias_term: true
    pad: 0
    kernel_size: 1
    stride: 1
  }
}
layer {
  name: "psp.pool1.conv/relu"
  type: "ReLU"
  bottom: "psp.pool1.conv"
  top: "psp.pool1.conv"
}
layer {
  name: "psp.pool1.interp"
  type: "Interp"
  bottom: "psp.pool1.conv"
  top: "psp.pool1.interp"
  include {
    phase: TRAIN
  }
  interp_param {
    height: 32
    width: 64
  }
}
layer {
  name: "psp.pool2"
  type: "Pooling"
  bottom: "res4.2.sum"
  top: "psp.pool2"
  pooling_param {
    pool: AVE
    kernel_size: 16
    stride: 16
  }
}
layer {
  name: "psp.pool2.conv"
  type: "Convolution"
  bottom: "psp.pool2"
  top: "psp.pool2.conv"
  convolution_param {
    num_output: 128
    bias_term: true
    pad: 0
    kernel_size: 1
    stride: 1
  }
}
layer {
  name: "psp.pool2.conv/relu"
  type: "ReLU"
  bottom: "psp.pool2.conv"
  top: "psp.pool2.conv"
}
layer {
  name: "psp.pool2.interp"
  type: "Interp"
  bottom: "psp.pool2.conv"
  top: "psp.pool2.interp"
  include {
    phase: TRAIN
  }
  interp_param {
    height: 32
    width: 64
  }
}
layer {
  name: "psp.pool3"
  type: "Pooling"
  bottom: "res4.2.sum"
  top: "psp.pool3"
  pooling_param {
    pool: AVE
    kernel_size: 8
    stride: 8
  }
}
layer {
  name: "psp.pool3.conv"
  type: "Convolution"
  bottom: "psp.pool3"
  top: "psp.pool3.conv"
  convolution_param {
    num_output: 128
    bias_term: true
    pad: 0
    kernel_size: 1
    stride: 1
  }
}
layer {
  name: "psp.pool3.conv/relu"
  type: "ReLU"
  bottom: "psp.pool3.conv"
  top: "psp.pool3.conv"
}
layer {
  name: "psp.pool3.interp"
  type: "Interp"
  bottom: "psp.pool3.conv"
  top: "psp.pool3.interp"
  include {
    phase: TRAIN
  }
  interp_param {
    height: 32
    width: 64
  }
}
layer {
  name: "psp.pool4"
  type: "Pooling"
  bottom: "res4.2.sum"
  top: "psp.pool4"
  pooling_param {
    pool: AVE
    kernel_size: 4
    stride: 4
  }
}
layer {
  name: "psp.pool4.conv"
  type: "Convolution"
  bottom: "psp.pool4"
  top: "psp.pool4.conv"
  convolution_param {
    num_output: 128
    bias_term: true
    pad: 0
    kernel_size: 1
    stride: 1
  }
}
layer {
  name: "psp.pool4.conv/relu"
  type: "ReLU"
  bottom: "psp.pool4.conv"
  top: "psp.pool4.conv"
}
layer {
  name: "psp.pool4.interp"
  type: "Interp"
  bottom: "psp.pool4.conv"
  top: "psp.pool4.interp"
  include {
    phase: TRAIN
  }
  interp_param {
    height: 32
    width: 64
  }
}
layer {
  name: "psp.concat"
  type: "Concat"
  bottom: "res4.2.sum"
  bottom: "psp.pool1.interp"
  bottom: "psp.pool2.interp"
  bottom: "psp.pool3.interp"
  bottom: "psp.pool4.interp"
  top: "psp.concat"
}
layer {
  name: "psp.concat.conv"
  type: "Convolution"
  bottom: "psp.concat"
  top: "psp.concat.conv"
  convolution_param {
    num_output: 512
    bias_term: true
    pad: 1
    kernel_size: 3
    stride: 1
  }
}
layer {
  name: "psp.concat.conv/relu"
  type: "ReLU"
  bottom: "psp.concat.conv"
  top: "psp.concat.conv"
}
layer {
  name: "Decoder_wc3"
  type: "Convolution"
  bottom: "res2.2.sum"
  top: "Decoder_wc3"
  convolution_param {
    num_output: 32
    bias_term: true
    pad: 0
    kernel_size: 1
    stride: 1
  }
}
layer {
  name: "Decoder_wc3/relu"
  type: "ReLU"
  bottom: "Decoder_wc3"
  top: "Decoder_wc3"
}
layer {
  name: "Decoder_wc4"
  type: "Convolution"
  bottom: "res3.2.sum"
  top: "Decoder_wc4"
  convolution_param {
    num_output: 32
    bias_term: true
    pad: 0
    kernel_size: 1
    stride: 1
  }
}
layer {
  name: "Decoder_wc4/relu"
  type: "ReLU"
  bottom: "Decoder_wc4"
  top: "Decoder_wc4"
}
layer {
  name: "Decoder_wc5"
  type: "Convolution"
  bottom: "psp.concat.conv"
  top: "Decoder_wc5"
  convolution_param {
    num_output: 512
    bias_term: true
    pad: 0
    kernel_size: 1
    stride: 1
  }
}
layer {
  name: "Decoder_wc5/relu"
  type: "ReLU"
  bottom: "Decoder_wc5"
  top: "Decoder_wc5"
}
layer {
  name: "Decoder4_4.proj"
  type: "Convolution"
  bottom: "Decoder_wc5"
  top: "Decoder4_4.proj"
  convolution_param {
    num_output: 32
    bias_term: true
    pad: 0
    kernel_size: 1
    stride: 1
  }
}
layer {
  name: "Decoder4_4.proj/relu"
  type: "ReLU"
  bottom: "Decoder4_4.proj"
  top: "Decoder4_4.proj"
}
layer {
  name: "Decoder4_4.proj/up2"
  type: "Deconvolution"
  bottom: "Decoder4_4.proj"
  top: "Decoder4_4.proj/up2"
  param {
    lr_mult: 0
    decay_mult: 0
  }
  convolution_param {
    num_output: 32
    bias_term: false
    pad: 1
    kernel_size: 4
    group: 32
    stride: 2
    weight_filler {
      type: "bilinear"
    }
  }
}
layer {
  name: "Decoder4_4.concat"
  type: "Concat"
  bottom: "Decoder_wc4"
  bottom: "Decoder4_4.proj/up2"
  top: "Decoder4_4.concat"
}
layer {
  name: "Decoder4_4.conv1"
  type: "Convolution"
  bottom: "Decoder4_4.concat"
  top: "Decoder4_4.conv1"
  convolution_param {
    num_output: 32
    bias_term: true
    pad: 1
    kernel_size: 3
    stride: 1
  }
}
layer {
  name: "Decoder4_4.conv1/relu"
  type: "ReLU"
  bottom: "Decoder4_4.conv1"
  top: "Decoder4_4.conv1"
}
layer {
  name: "Decoder3_3.proj"
  type: "Convolution"
  bottom: "Decoder4_4.conv1"
  top: "Decoder3_3.proj"
  convolution_param {
    num_output: 32
    bias_term: true
    pad: 0
    kernel_size: 1
    stride: 1
  }
}
layer {
  name: "Decoder3_3.proj/relu"
  type: "ReLU"
  bottom: "Decoder3_3.proj"
  top: "Decoder3_3.proj"
}
layer {
  name: "Decoder3_3.proj/up2"
  type: "Deconvolution"
  bottom: "Decoder3_3.proj"
  top: "Decoder3_3.proj/up2"
  param {
    lr_mult: 0
    decay_mult: 0
  }
  convolution_param {
    num_output: 32
    bias_term: false
    pad: 1
    kernel_size: 4
    group: 32
    stride: 2
    weight_filler {
      type: "bilinear"
    }
  }
}
layer {
  name: "Decoder3_3.concat"
  type: "Concat"
  bottom: "Decoder_wc3"
  bottom: "Decoder3_3.proj/up2"
  top: "Decoder3_3.concat"
}
layer {
  name: "Decoder3_3.conv1"
  type: "Convolution"
  bottom: "Decoder3_3.concat"
  top: "Decoder3_3.conv1"
  convolution_param {
    num_output: 32
    bias_term: true
    pad: 1
    kernel_size: 3
    stride: 1
  }
}
layer {
  name: "Decoder3_3.conv1/relu"
  type: "ReLU"
  bottom: "Decoder3_3.conv1"
  top: "Decoder3_3.conv1"
}
layer {
  name: "Decoder_score"
  type: "Convolution"
  bottom: "Decoder3_3.conv1"
  top: "Decoder_score"
  convolution_param {
    num_output: 19
    bias_term: true
    pad: 1
    kernel_size: 3
    stride: 1
  }
}
I0308 15:33:04.190001 31542 layer_factory.hpp:77] Creating layer input
I0308 15:33:04.190016 31542 net.cpp:84] Creating Layer input
I0308 15:33:04.190021 31542 net.cpp:380] input -> data
I0308 15:33:04.197712 31542 net.cpp:122] Setting up input
I0308 15:33:04.197742 31542 net.cpp:129] Top shape: 1 3 1024 2048 (6291456)
I0308 15:33:04.197746 31542 net.cpp:137] Memory required for data: 25165824
I0308 15:33:04.197754 31542 layer_factory.hpp:77] Creating layer conv1
I0308 15:33:04.197767 31542 net.cpp:84] Creating Layer conv1
I0308 15:33:04.197773 31542 net.cpp:406] conv1 <- data
I0308 15:33:04.197782 31542 net.cpp:380] conv1 -> conv1
I0308 15:33:04.656723 31542 net.cpp:122] Setting up conv1
I0308 15:33:04.656754 31542 net.cpp:129] Top shape: 1 32 512 1024 (16777216)
I0308 15:33:04.656759 31542 net.cpp:137] Memory required for data: 92274688
I0308 15:33:04.656780 31542 layer_factory.hpp:77] Creating layer conv1/relu
I0308 15:33:04.656791 31542 net.cpp:84] Creating Layer conv1/relu
I0308 15:33:04.656795 31542 net.cpp:406] conv1/relu <- conv1
I0308 15:33:04.656812 31542 net.cpp:367] conv1/relu -> conv1 (in-place)
I0308 15:33:04.657349 31542 net.cpp:122] Setting up conv1/relu
I0308 15:33:04.657377 31542 net.cpp:129] Top shape: 1 32 512 1024 (16777216)
I0308 15:33:04.657380 31542 net.cpp:137] Memory required for data: 159383552
I0308 15:33:04.657397 31542 layer_factory.hpp:77] Creating layer conv2
I0308 15:33:04.657407 31542 net.cpp:84] Creating Layer conv2
I0308 15:33:04.657423 31542 net.cpp:406] conv2 <- conv1
I0308 15:33:04.657428 31542 net.cpp:380] conv2 -> conv2
I0308 15:33:04.660151 31542 net.cpp:122] Setting up conv2
I0308 15:33:04.660169 31542 net.cpp:129] Top shape: 1 64 256 512 (8388608)
I0308 15:33:04.660173 31542 net.cpp:137] Memory required for data: 192937984
I0308 15:33:04.660182 31542 layer_factory.hpp:77] Creating layer conv2/relu
I0308 15:33:04.660189 31542 net.cpp:84] Creating Layer conv2/relu
I0308 15:33:04.660193 31542 net.cpp:406] conv2/relu <- conv2
I0308 15:33:04.660198 31542 net.cpp:367] conv2/relu -> conv2 (in-place)
I0308 15:33:04.660591 31542 net.cpp:122] Setting up conv2/relu
I0308 15:33:04.660615 31542 net.cpp:129] Top shape: 1 64 256 512 (8388608)
I0308 15:33:04.660619 31542 net.cpp:137] Memory required for data: 226492416
I0308 15:33:04.660651 31542 layer_factory.hpp:77] Creating layer conv2_conv2/relu_0_split
I0308 15:33:04.660660 31542 net.cpp:84] Creating Layer conv2_conv2/relu_0_split
I0308 15:33:04.660663 31542 net.cpp:406] conv2_conv2/relu_0_split <- conv2
I0308 15:33:04.660668 31542 net.cpp:380] conv2_conv2/relu_0_split -> conv2_conv2/relu_0_split_0
I0308 15:33:04.660676 31542 net.cpp:380] conv2_conv2/relu_0_split -> conv2_conv2/relu_0_split_1
I0308 15:33:04.660722 31542 net.cpp:122] Setting up conv2_conv2/relu_0_split
I0308 15:33:04.660732 31542 net.cpp:129] Top shape: 1 64 256 512 (8388608)
I0308 15:33:04.660737 31542 net.cpp:129] Top shape: 1 64 256 512 (8388608)
I0308 15:33:04.660740 31542 net.cpp:137] Memory required for data: 293601280
I0308 15:33:04.660743 31542 layer_factory.hpp:77] Creating layer res2.1.conv1
I0308 15:33:04.660751 31542 net.cpp:84] Creating Layer res2.1.conv1
I0308 15:33:04.660754 31542 net.cpp:406] res2.1.conv1 <- conv2_conv2/relu_0_split_0
I0308 15:33:04.660764 31542 net.cpp:380] res2.1.conv1 -> res2.1.conv1
I0308 15:33:04.662552 31542 net.cpp:122] Setting up res2.1.conv1
I0308 15:33:04.662569 31542 net.cpp:129] Top shape: 1 64 128 256 (2097152)
I0308 15:33:04.662583 31542 net.cpp:137] Memory required for data: 301989888
I0308 15:33:04.662593 31542 layer_factory.hpp:77] Creating layer res2.1.conv1/relu
I0308 15:33:04.662600 31542 net.cpp:84] Creating Layer res2.1.conv1/relu
I0308 15:33:04.662603 31542 net.cpp:406] res2.1.conv1/relu <- res2.1.conv1
I0308 15:33:04.662609 31542 net.cpp:367] res2.1.conv1/relu -> res2.1.conv1 (in-place)
I0308 15:33:04.663200 31542 net.cpp:122] Setting up res2.1.conv1/relu
I0308 15:33:04.663228 31542 net.cpp:129] Top shape: 1 64 128 256 (2097152)
I0308 15:33:04.663233 31542 net.cpp:137] Memory required for data: 310378496
I0308 15:33:04.663238 31542 layer_factory.hpp:77] Creating layer res2.1.conv2
I0308 15:33:04.663247 31542 net.cpp:84] Creating Layer res2.1.conv2
I0308 15:33:04.663251 31542 net.cpp:406] res2.1.conv2 <- res2.1.conv1
I0308 15:33:04.663257 31542 net.cpp:380] res2.1.conv2 -> res2.1.conv2
I0308 15:33:04.665117 31542 net.cpp:122] Setting up res2.1.conv2
I0308 15:33:04.665133 31542 net.cpp:129] Top shape: 1 64 128 256 (2097152)
I0308 15:33:04.665138 31542 net.cpp:137] Memory required for data: 318767104
I0308 15:33:04.665144 31542 layer_factory.hpp:77] Creating layer res2.1.skipConv
I0308 15:33:04.665153 31542 net.cpp:84] Creating Layer res2.1.skipConv
I0308 15:33:04.665156 31542 net.cpp:406] res2.1.skipConv <- conv2_conv2/relu_0_split_1
I0308 15:33:04.665163 31542 net.cpp:380] res2.1.skipConv -> res2.1.skipConv
I0308 15:33:04.667419 31542 net.cpp:122] Setting up res2.1.skipConv
I0308 15:33:04.667435 31542 net.cpp:129] Top shape: 1 64 128 256 (2097152)
I0308 15:33:04.667439 31542 net.cpp:137] Memory required for data: 327155712
I0308 15:33:04.667449 31542 layer_factory.hpp:77] Creating layer res2.1.sum
I0308 15:33:04.667457 31542 net.cpp:84] Creating Layer res2.1.sum
I0308 15:33:04.667461 31542 net.cpp:406] res2.1.sum <- res2.1.conv2
I0308 15:33:04.667465 31542 net.cpp:406] res2.1.sum <- res2.1.skipConv
I0308 15:33:04.667481 31542 net.cpp:380] res2.1.sum -> res2.1.sum
I0308 15:33:04.667518 31542 net.cpp:122] Setting up res2.1.sum
I0308 15:33:04.667528 31542 net.cpp:129] Top shape: 1 64 128 256 (2097152)
I0308 15:33:04.667531 31542 net.cpp:137] Memory required for data: 335544320
I0308 15:33:04.667534 31542 layer_factory.hpp:77] Creating layer res2.1.relu
I0308 15:33:04.667541 31542 net.cpp:84] Creating Layer res2.1.relu
I0308 15:33:04.667543 31542 net.cpp:406] res2.1.relu <- res2.1.sum
I0308 15:33:04.667548 31542 net.cpp:367] res2.1.relu -> res2.1.sum (in-place)
I0308 15:33:04.667925 31542 net.cpp:122] Setting up res2.1.relu
I0308 15:33:04.667937 31542 net.cpp:129] Top shape: 1 64 128 256 (2097152)
I0308 15:33:04.667953 31542 net.cpp:137] Memory required for data: 343932928
I0308 15:33:04.667956 31542 layer_factory.hpp:77] Creating layer res2.1.sum_res2.1.relu_0_split
I0308 15:33:04.667963 31542 net.cpp:84] Creating Layer res2.1.sum_res2.1.relu_0_split
I0308 15:33:04.667978 31542 net.cpp:406] res2.1.sum_res2.1.relu_0_split <- res2.1.sum
I0308 15:33:04.667984 31542 net.cpp:380] res2.1.sum_res2.1.relu_0_split -> res2.1.sum_res2.1.relu_0_split_0
I0308 15:33:04.667990 31542 net.cpp:380] res2.1.sum_res2.1.relu_0_split -> res2.1.sum_res2.1.relu_0_split_1
I0308 15:33:04.668033 31542 net.cpp:122] Setting up res2.1.sum_res2.1.relu_0_split
I0308 15:33:04.668040 31542 net.cpp:129] Top shape: 1 64 128 256 (2097152)
I0308 15:33:04.668045 31542 net.cpp:129] Top shape: 1 64 128 256 (2097152)
I0308 15:33:04.668047 31542 net.cpp:137] Memory required for data: 360710144
I0308 15:33:04.668051 31542 layer_factory.hpp:77] Creating layer res2.2.conv1
I0308 15:33:04.668058 31542 net.cpp:84] Creating Layer res2.2.conv1
I0308 15:33:04.668062 31542 net.cpp:406] res2.2.conv1 <- res2.1.sum_res2.1.relu_0_split_0
I0308 15:33:04.668067 31542 net.cpp:380] res2.2.conv1 -> res2.2.conv1
I0308 15:33:04.669847 31542 net.cpp:122] Setting up res2.2.conv1
I0308 15:33:04.669864 31542 net.cpp:129] Top shape: 1 64 128 256 (2097152)
I0308 15:33:04.669868 31542 net.cpp:137] Memory required for data: 369098752
I0308 15:33:04.669875 31542 layer_factory.hpp:77] Creating layer res2.2.conv1/relu
I0308 15:33:04.669881 31542 net.cpp:84] Creating Layer res2.2.conv1/relu
I0308 15:33:04.669885 31542 net.cpp:406] res2.2.conv1/relu <- res2.2.conv1
I0308 15:33:04.669890 31542 net.cpp:367] res2.2.conv1/relu -> res2.2.conv1 (in-place)
I0308 15:33:04.670423 31542 net.cpp:122] Setting up res2.2.conv1/relu
I0308 15:33:04.670439 31542 net.cpp:129] Top shape: 1 64 128 256 (2097152)
I0308 15:33:04.670442 31542 net.cpp:137] Memory required for data: 377487360
I0308 15:33:04.670446 31542 layer_factory.hpp:77] Creating layer res2.2.conv2
I0308 15:33:04.670454 31542 net.cpp:84] Creating Layer res2.2.conv2
I0308 15:33:04.670457 31542 net.cpp:406] res2.2.conv2 <- res2.2.conv1
I0308 15:33:04.670464 31542 net.cpp:380] res2.2.conv2 -> res2.2.conv2
I0308 15:33:04.672803 31542 net.cpp:122] Setting up res2.2.conv2
I0308 15:33:04.672821 31542 net.cpp:129] Top shape: 1 64 128 256 (2097152)
I0308 15:33:04.672823 31542 net.cpp:137] Memory required for data: 385875968
I0308 15:33:04.672832 31542 layer_factory.hpp:77] Creating layer res2.2.sum
I0308 15:33:04.672839 31542 net.cpp:84] Creating Layer res2.2.sum
I0308 15:33:04.672843 31542 net.cpp:406] res2.2.sum <- res2.2.conv2
I0308 15:33:04.672848 31542 net.cpp:406] res2.2.sum <- res2.1.sum_res2.1.relu_0_split_1
I0308 15:33:04.672852 31542 net.cpp:380] res2.2.sum -> res2.2.sum
I0308 15:33:04.672899 31542 net.cpp:122] Setting up res2.2.sum
I0308 15:33:04.672907 31542 net.cpp:129] Top shape: 1 64 128 256 (2097152)
I0308 15:33:04.672910 31542 net.cpp:137] Memory required for data: 394264576
I0308 15:33:04.672914 31542 layer_factory.hpp:77] Creating layer res2.2.relu
I0308 15:33:04.672919 31542 net.cpp:84] Creating Layer res2.2.relu
I0308 15:33:04.672922 31542 net.cpp:406] res2.2.relu <- res2.2.sum
I0308 15:33:04.672927 31542 net.cpp:367] res2.2.relu -> res2.2.sum (in-place)
I0308 15:33:04.673454 31542 net.cpp:122] Setting up res2.2.relu
I0308 15:33:04.673470 31542 net.cpp:129] Top shape: 1 64 128 256 (2097152)
I0308 15:33:04.673472 31542 net.cpp:137] Memory required for data: 402653184
I0308 15:33:04.673476 31542 layer_factory.hpp:77] Creating layer res2.2.sum_res2.2.relu_0_split
I0308 15:33:04.673482 31542 net.cpp:84] Creating Layer res2.2.sum_res2.2.relu_0_split
I0308 15:33:04.673485 31542 net.cpp:406] res2.2.sum_res2.2.relu_0_split <- res2.2.sum
I0308 15:33:04.673491 31542 net.cpp:380] res2.2.sum_res2.2.relu_0_split -> res2.2.sum_res2.2.relu_0_split_0
I0308 15:33:04.673497 31542 net.cpp:380] res2.2.sum_res2.2.relu_0_split -> res2.2.sum_res2.2.relu_0_split_1
I0308 15:33:04.673502 31542 net.cpp:380] res2.2.sum_res2.2.relu_0_split -> res2.2.sum_res2.2.relu_0_split_2
I0308 15:33:04.673570 31542 net.cpp:122] Setting up res2.2.sum_res2.2.relu_0_split
I0308 15:33:04.673578 31542 net.cpp:129] Top shape: 1 64 128 256 (2097152)
I0308 15:33:04.673581 31542 net.cpp:129] Top shape: 1 64 128 256 (2097152)
I0308 15:33:04.673599 31542 net.cpp:129] Top shape: 1 64 128 256 (2097152)
I0308 15:33:04.673601 31542 net.cpp:137] Memory required for data: 427819008
I0308 15:33:04.673604 31542 layer_factory.hpp:77] Creating layer res3.1.conv1
I0308 15:33:04.673612 31542 net.cpp:84] Creating Layer res3.1.conv1
I0308 15:33:04.673616 31542 net.cpp:406] res3.1.conv1 <- res2.2.sum_res2.2.relu_0_split_0
I0308 15:33:04.673621 31542 net.cpp:380] res3.1.conv1 -> res3.1.conv1
I0308 15:33:04.676012 31542 net.cpp:122] Setting up res3.1.conv1
I0308 15:33:04.676028 31542 net.cpp:129] Top shape: 1 128 64 128 (1048576)
I0308 15:33:04.676033 31542 net.cpp:137] Memory required for data: 432013312
I0308 15:33:04.676039 31542 layer_factory.hpp:77] Creating layer res3.1.conv1/relu
I0308 15:33:04.676048 31542 net.cpp:84] Creating Layer res3.1.conv1/relu
I0308 15:33:04.676051 31542 net.cpp:406] res3.1.conv1/relu <- res3.1.conv1
I0308 15:33:04.676056 31542 net.cpp:367] res3.1.conv1/relu -> res3.1.conv1 (in-place)
I0308 15:33:04.676512 31542 net.cpp:122] Setting up res3.1.conv1/relu
I0308 15:33:04.676523 31542 net.cpp:129] Top shape: 1 128 64 128 (1048576)
I0308 15:33:04.676527 31542 net.cpp:137] Memory required for data: 436207616
I0308 15:33:04.676530 31542 layer_factory.hpp:77] Creating layer res3.1.conv2
I0308 15:33:04.676539 31542 net.cpp:84] Creating Layer res3.1.conv2
I0308 15:33:04.676542 31542 net.cpp:406] res3.1.conv2 <- res3.1.conv1
I0308 15:33:04.676548 31542 net.cpp:380] res3.1.conv2 -> res3.1.conv2
I0308 15:33:04.679302 31542 net.cpp:122] Setting up res3.1.conv2
I0308 15:33:04.679332 31542 net.cpp:129] Top shape: 1 128 64 128 (1048576)
I0308 15:33:04.679337 31542 net.cpp:137] Memory required for data: 440401920
I0308 15:33:04.679348 31542 layer_factory.hpp:77] Creating layer res3.1.skipConv
I0308 15:33:04.679371 31542 net.cpp:84] Creating Layer res3.1.skipConv
I0308 15:33:04.679375 31542 net.cpp:406] res3.1.skipConv <- res2.2.sum_res2.2.relu_0_split_1
I0308 15:33:04.679383 31542 net.cpp:380] res3.1.skipConv -> res3.1.skipConv
I0308 15:33:04.681283 31542 net.cpp:122] Setting up res3.1.skipConv
I0308 15:33:04.681299 31542 net.cpp:129] Top shape: 1 128 64 128 (1048576)
I0308 15:33:04.681303 31542 net.cpp:137] Memory required for data: 444596224
I0308 15:33:04.681310 31542 layer_factory.hpp:77] Creating layer res3.1.sum
I0308 15:33:04.681316 31542 net.cpp:84] Creating Layer res3.1.sum
I0308 15:33:04.681320 31542 net.cpp:406] res3.1.sum <- res3.1.conv2
I0308 15:33:04.681325 31542 net.cpp:406] res3.1.sum <- res3.1.skipConv
I0308 15:33:04.681331 31542 net.cpp:380] res3.1.sum -> res3.1.sum
I0308 15:33:04.681376 31542 net.cpp:122] Setting up res3.1.sum
I0308 15:33:04.681385 31542 net.cpp:129] Top shape: 1 128 64 128 (1048576)
I0308 15:33:04.681387 31542 net.cpp:137] Memory required for data: 448790528
I0308 15:33:04.681391 31542 layer_factory.hpp:77] Creating layer res3.1.relu
I0308 15:33:04.681398 31542 net.cpp:84] Creating Layer res3.1.relu
I0308 15:33:04.681402 31542 net.cpp:406] res3.1.relu <- res3.1.sum
I0308 15:33:04.681406 31542 net.cpp:367] res3.1.relu -> res3.1.sum (in-place)
I0308 15:33:04.682003 31542 net.cpp:122] Setting up res3.1.relu
I0308 15:33:04.682018 31542 net.cpp:129] Top shape: 1 128 64 128 (1048576)
I0308 15:33:04.682021 31542 net.cpp:137] Memory required for data: 452984832
I0308 15:33:04.682025 31542 layer_factory.hpp:77] Creating layer res3.1.sum_res3.1.relu_0_split
I0308 15:33:04.682032 31542 net.cpp:84] Creating Layer res3.1.sum_res3.1.relu_0_split
I0308 15:33:04.682035 31542 net.cpp:406] res3.1.sum_res3.1.relu_0_split <- res3.1.sum
I0308 15:33:04.682041 31542 net.cpp:380] res3.1.sum_res3.1.relu_0_split -> res3.1.sum_res3.1.relu_0_split_0
I0308 15:33:04.682047 31542 net.cpp:380] res3.1.sum_res3.1.relu_0_split -> res3.1.sum_res3.1.relu_0_split_1
I0308 15:33:04.682108 31542 net.cpp:122] Setting up res3.1.sum_res3.1.relu_0_split
I0308 15:33:04.682116 31542 net.cpp:129] Top shape: 1 128 64 128 (1048576)
I0308 15:33:04.682121 31542 net.cpp:129] Top shape: 1 128 64 128 (1048576)
I0308 15:33:04.682124 31542 net.cpp:137] Memory required for data: 461373440
I0308 15:33:04.682138 31542 layer_factory.hpp:77] Creating layer res3.2.conv1
I0308 15:33:04.682147 31542 net.cpp:84] Creating Layer res3.2.conv1
I0308 15:33:04.682152 31542 net.cpp:406] res3.2.conv1 <- res3.1.sum_res3.1.relu_0_split_0
I0308 15:33:04.682157 31542 net.cpp:380] res3.2.conv1 -> res3.2.conv1
I0308 15:33:04.684751 31542 net.cpp:122] Setting up res3.2.conv1
I0308 15:33:04.684767 31542 net.cpp:129] Top shape: 1 128 64 128 (1048576)
I0308 15:33:04.684772 31542 net.cpp:137] Memory required for data: 465567744
I0308 15:33:04.684778 31542 layer_factory.hpp:77] Creating layer res3.2.conv1/relu
I0308 15:33:04.684784 31542 net.cpp:84] Creating Layer res3.2.conv1/relu
I0308 15:33:04.684788 31542 net.cpp:406] res3.2.conv1/relu <- res3.2.conv1
I0308 15:33:04.684793 31542 net.cpp:367] res3.2.conv1/relu -> res3.2.conv1 (in-place)
I0308 15:33:04.685276 31542 net.cpp:122] Setting up res3.2.conv1/relu
I0308 15:33:04.685289 31542 net.cpp:129] Top shape: 1 128 64 128 (1048576)
I0308 15:33:04.685304 31542 net.cpp:137] Memory required for data: 469762048
I0308 15:33:04.685308 31542 layer_factory.hpp:77] Creating layer res3.2.conv2
I0308 15:33:04.685317 31542 net.cpp:84] Creating Layer res3.2.conv2
I0308 15:33:04.685320 31542 net.cpp:406] res3.2.conv2 <- res3.2.conv1
I0308 15:33:04.685328 31542 net.cpp:380] res3.2.conv2 -> res3.2.conv2
I0308 15:33:04.688027 31542 net.cpp:122] Setting up res3.2.conv2
I0308 15:33:04.688043 31542 net.cpp:129] Top shape: 1 128 64 128 (1048576)
I0308 15:33:04.688047 31542 net.cpp:137] Memory required for data: 473956352
I0308 15:33:04.688055 31542 layer_factory.hpp:77] Creating layer res3.2.sum
I0308 15:33:04.688061 31542 net.cpp:84] Creating Layer res3.2.sum
I0308 15:33:04.688066 31542 net.cpp:406] res3.2.sum <- res3.2.conv2
I0308 15:33:04.688071 31542 net.cpp:406] res3.2.sum <- res3.1.sum_res3.1.relu_0_split_1
I0308 15:33:04.688076 31542 net.cpp:380] res3.2.sum -> res3.2.sum
I0308 15:33:04.688124 31542 net.cpp:122] Setting up res3.2.sum
I0308 15:33:04.688135 31542 net.cpp:129] Top shape: 1 128 64 128 (1048576)
I0308 15:33:04.688138 31542 net.cpp:137] Memory required for data: 478150656
I0308 15:33:04.688141 31542 layer_factory.hpp:77] Creating layer res3.2.relu
I0308 15:33:04.688146 31542 net.cpp:84] Creating Layer res3.2.relu
I0308 15:33:04.688150 31542 net.cpp:406] res3.2.relu <- res3.2.sum
I0308 15:33:04.688154 31542 net.cpp:367] res3.2.relu -> res3.2.sum (in-place)
I0308 15:33:04.688761 31542 net.cpp:122] Setting up res3.2.relu
I0308 15:33:04.688776 31542 net.cpp:129] Top shape: 1 128 64 128 (1048576)
I0308 15:33:04.688779 31542 net.cpp:137] Memory required for data: 482344960
I0308 15:33:04.688783 31542 layer_factory.hpp:77] Creating layer res3.2.sum_res3.2.relu_0_split
I0308 15:33:04.688789 31542 net.cpp:84] Creating Layer res3.2.sum_res3.2.relu_0_split
I0308 15:33:04.688792 31542 net.cpp:406] res3.2.sum_res3.2.relu_0_split <- res3.2.sum
I0308 15:33:04.688799 31542 net.cpp:380] res3.2.sum_res3.2.relu_0_split -> res3.2.sum_res3.2.relu_0_split_0
I0308 15:33:04.688807 31542 net.cpp:380] res3.2.sum_res3.2.relu_0_split -> res3.2.sum_res3.2.relu_0_split_1
I0308 15:33:04.688813 31542 net.cpp:380] res3.2.sum_res3.2.relu_0_split -> res3.2.sum_res3.2.relu_0_split_2
I0308 15:33:04.688889 31542 net.cpp:122] Setting up res3.2.sum_res3.2.relu_0_split
I0308 15:33:04.688906 31542 net.cpp:129] Top shape: 1 128 64 128 (1048576)
I0308 15:33:04.688910 31542 net.cpp:129] Top shape: 1 128 64 128 (1048576)
I0308 15:33:04.688915 31542 net.cpp:129] Top shape: 1 128 64 128 (1048576)
I0308 15:33:04.688916 31542 net.cpp:137] Memory required for data: 494927872
I0308 15:33:04.688920 31542 layer_factory.hpp:77] Creating layer res4.1.conv1
I0308 15:33:04.688930 31542 net.cpp:84] Creating Layer res4.1.conv1
I0308 15:33:04.688935 31542 net.cpp:406] res4.1.conv1 <- res3.2.sum_res3.2.relu_0_split_0
I0308 15:33:04.688941 31542 net.cpp:380] res4.1.conv1 -> res4.1.conv1
I0308 15:33:04.691454 31542 net.cpp:122] Setting up res4.1.conv1
I0308 15:33:04.691471 31542 net.cpp:129] Top shape: 1 256 32 64 (524288)
I0308 15:33:04.691485 31542 net.cpp:137] Memory required for data: 497025024
I0308 15:33:04.691493 31542 layer_factory.hpp:77] Creating layer res4.1.conv1/relu
I0308 15:33:04.691501 31542 net.cpp:84] Creating Layer res4.1.conv1/relu
I0308 15:33:04.691505 31542 net.cpp:406] res4.1.conv1/relu <- res4.1.conv1
I0308 15:33:04.691521 31542 net.cpp:367] res4.1.conv1/relu -> res4.1.conv1 (in-place)
I0308 15:33:04.692138 31542 net.cpp:122] Setting up res4.1.conv1/relu
I0308 15:33:04.692153 31542 net.cpp:129] Top shape: 1 256 32 64 (524288)
I0308 15:33:04.692157 31542 net.cpp:137] Memory required for data: 499122176
I0308 15:33:04.692160 31542 layer_factory.hpp:77] Creating layer res4.1.conv2
I0308 15:33:04.692169 31542 net.cpp:84] Creating Layer res4.1.conv2
I0308 15:33:04.692173 31542 net.cpp:406] res4.1.conv2 <- res4.1.conv1
I0308 15:33:04.692180 31542 net.cpp:380] res4.1.conv2 -> res4.1.conv2
I0308 15:33:04.695405 31542 net.cpp:122] Setting up res4.1.conv2
I0308 15:33:04.695435 31542 net.cpp:129] Top shape: 1 256 32 64 (524288)
I0308 15:33:04.695438 31542 net.cpp:137] Memory required for data: 501219328
I0308 15:33:04.695446 31542 layer_factory.hpp:77] Creating layer res4.1.skipConv
I0308 15:33:04.695456 31542 net.cpp:84] Creating Layer res4.1.skipConv
I0308 15:33:04.695459 31542 net.cpp:406] res4.1.skipConv <- res3.2.sum_res3.2.relu_0_split_1
I0308 15:33:04.695466 31542 net.cpp:380] res4.1.skipConv -> res4.1.skipConv
I0308 15:33:04.697428 31542 net.cpp:122] Setting up res4.1.skipConv
I0308 15:33:04.697444 31542 net.cpp:129] Top shape: 1 256 32 64 (524288)
I0308 15:33:04.697448 31542 net.cpp:137] Memory required for data: 503316480
I0308 15:33:04.697455 31542 layer_factory.hpp:77] Creating layer res4.1.sum
I0308 15:33:04.697463 31542 net.cpp:84] Creating Layer res4.1.sum
I0308 15:33:04.697468 31542 net.cpp:406] res4.1.sum <- res4.1.conv2
I0308 15:33:04.697471 31542 net.cpp:406] res4.1.sum <- res4.1.skipConv
I0308 15:33:04.697476 31542 net.cpp:380] res4.1.sum -> res4.1.sum
I0308 15:33:04.697525 31542 net.cpp:122] Setting up res4.1.sum
I0308 15:33:04.697535 31542 net.cpp:129] Top shape: 1 256 32 64 (524288)
I0308 15:33:04.697537 31542 net.cpp:137] Memory required for data: 505413632
I0308 15:33:04.697541 31542 layer_factory.hpp:77] Creating layer res4.1.relu
I0308 15:33:04.697548 31542 net.cpp:84] Creating Layer res4.1.relu
I0308 15:33:04.697552 31542 net.cpp:406] res4.1.relu <- res4.1.sum
I0308 15:33:04.697556 31542 net.cpp:367] res4.1.relu -> res4.1.sum (in-place)
I0308 15:33:04.698001 31542 net.cpp:122] Setting up res4.1.relu
I0308 15:33:04.698014 31542 net.cpp:129] Top shape: 1 256 32 64 (524288)
I0308 15:33:04.698016 31542 net.cpp:137] Memory required for data: 507510784
I0308 15:33:04.698020 31542 layer_factory.hpp:77] Creating layer res4.1.sum_res4.1.relu_0_split
I0308 15:33:04.698026 31542 net.cpp:84] Creating Layer res4.1.sum_res4.1.relu_0_split
I0308 15:33:04.698030 31542 net.cpp:406] res4.1.sum_res4.1.relu_0_split <- res4.1.sum
I0308 15:33:04.698035 31542 net.cpp:380] res4.1.sum_res4.1.relu_0_split -> res4.1.sum_res4.1.relu_0_split_0
I0308 15:33:04.698042 31542 net.cpp:380] res4.1.sum_res4.1.relu_0_split -> res4.1.sum_res4.1.relu_0_split_1
I0308 15:33:04.698104 31542 net.cpp:122] Setting up res4.1.sum_res4.1.relu_0_split
I0308 15:33:04.698112 31542 net.cpp:129] Top shape: 1 256 32 64 (524288)
I0308 15:33:04.698115 31542 net.cpp:129] Top shape: 1 256 32 64 (524288)
I0308 15:33:04.698118 31542 net.cpp:137] Memory required for data: 511705088
I0308 15:33:04.698122 31542 layer_factory.hpp:77] Creating layer res4.2.conv1
I0308 15:33:04.698130 31542 net.cpp:84] Creating Layer res4.2.conv1
I0308 15:33:04.698134 31542 net.cpp:406] res4.2.conv1 <- res4.1.sum_res4.1.relu_0_split_0
I0308 15:33:04.698141 31542 net.cpp:380] res4.2.conv1 -> res4.2.conv1
I0308 15:33:04.702237 31542 net.cpp:122] Setting up res4.2.conv1
I0308 15:33:04.702255 31542 net.cpp:129] Top shape: 1 512 32 64 (1048576)
I0308 15:33:04.702258 31542 net.cpp:137] Memory required for data: 515899392
I0308 15:33:04.702265 31542 layer_factory.hpp:77] Creating layer res4.2.conv1/relu
I0308 15:33:04.702282 31542 net.cpp:84] Creating Layer res4.2.conv1/relu
I0308 15:33:04.702287 31542 net.cpp:406] res4.2.conv1/relu <- res4.2.conv1
I0308 15:33:04.702304 31542 net.cpp:367] res4.2.conv1/relu -> res4.2.conv1 (in-place)
I0308 15:33:04.703115 31542 net.cpp:122] Setting up res4.2.conv1/relu
I0308 15:33:04.703141 31542 net.cpp:129] Top shape: 1 512 32 64 (1048576)
I0308 15:33:04.703146 31542 net.cpp:137] Memory required for data: 520093696
I0308 15:33:04.703161 31542 layer_factory.hpp:77] Creating layer res4.2.conv2
I0308 15:33:04.703171 31542 net.cpp:84] Creating Layer res4.2.conv2
I0308 15:33:04.703176 31542 net.cpp:406] res4.2.conv2 <- res4.2.conv1
I0308 15:33:04.703183 31542 net.cpp:380] res4.2.conv2 -> res4.2.conv2
I0308 15:33:04.708982 31542 net.cpp:122] Setting up res4.2.conv2
I0308 15:33:04.709012 31542 net.cpp:129] Top shape: 1 512 32 64 (1048576)
I0308 15:33:04.709015 31542 net.cpp:137] Memory required for data: 524288000
I0308 15:33:04.709030 31542 layer_factory.hpp:77] Creating layer res4.2.skipConv
I0308 15:33:04.709040 31542 net.cpp:84] Creating Layer res4.2.skipConv
I0308 15:33:04.709045 31542 net.cpp:406] res4.2.skipConv <- res4.1.sum_res4.1.relu_0_split_1
I0308 15:33:04.709053 31542 net.cpp:380] res4.2.skipConv -> res4.2.skipConv
I0308 15:33:04.711612 31542 net.cpp:122] Setting up res4.2.skipConv
I0308 15:33:04.711640 31542 net.cpp:129] Top shape: 1 512 32 64 (1048576)
I0308 15:33:04.711644 31542 net.cpp:137] Memory required for data: 528482304
I0308 15:33:04.711652 31542 layer_factory.hpp:77] Creating layer res4.2.sum
I0308 15:33:04.711660 31542 net.cpp:84] Creating Layer res4.2.sum
I0308 15:33:04.711664 31542 net.cpp:406] res4.2.sum <- res4.2.conv2
I0308 15:33:04.711669 31542 net.cpp:406] res4.2.sum <- res4.2.skipConv
I0308 15:33:04.711676 31542 net.cpp:380] res4.2.sum -> res4.2.sum
I0308 15:33:04.711711 31542 net.cpp:122] Setting up res4.2.sum
I0308 15:33:04.711720 31542 net.cpp:129] Top shape: 1 512 32 64 (1048576)
I0308 15:33:04.711724 31542 net.cpp:137] Memory required for data: 532676608
I0308 15:33:04.711726 31542 layer_factory.hpp:77] Creating layer res4.2.relu
I0308 15:33:04.711732 31542 net.cpp:84] Creating Layer res4.2.relu
I0308 15:33:04.711735 31542 net.cpp:406] res4.2.relu <- res4.2.sum
I0308 15:33:04.711741 31542 net.cpp:367] res4.2.relu -> res4.2.sum (in-place)
I0308 15:33:04.712194 31542 net.cpp:122] Setting up res4.2.relu
I0308 15:33:04.712206 31542 net.cpp:129] Top shape: 1 512 32 64 (1048576)
I0308 15:33:04.712221 31542 net.cpp:137] Memory required for data: 536870912
I0308 15:33:04.712225 31542 layer_factory.hpp:77] Creating layer res4.2.sum_res4.2.relu_0_split
I0308 15:33:04.712232 31542 net.cpp:84] Creating Layer res4.2.sum_res4.2.relu_0_split
I0308 15:33:04.712236 31542 net.cpp:406] res4.2.sum_res4.2.relu_0_split <- res4.2.sum
I0308 15:33:04.712242 31542 net.cpp:380] res4.2.sum_res4.2.relu_0_split -> res4.2.sum_res4.2.relu_0_split_0
I0308 15:33:04.712249 31542 net.cpp:380] res4.2.sum_res4.2.relu_0_split -> res4.2.sum_res4.2.relu_0_split_1
I0308 15:33:04.712255 31542 net.cpp:380] res4.2.sum_res4.2.relu_0_split -> res4.2.sum_res4.2.relu_0_split_2
I0308 15:33:04.712260 31542 net.cpp:380] res4.2.sum_res4.2.relu_0_split -> res4.2.sum_res4.2.relu_0_split_3
I0308 15:33:04.712265 31542 net.cpp:380] res4.2.sum_res4.2.relu_0_split -> res4.2.sum_res4.2.relu_0_split_4
I0308 15:33:04.712360 31542 net.cpp:122] Setting up res4.2.sum_res4.2.relu_0_split
I0308 15:33:04.712369 31542 net.cpp:129] Top shape: 1 512 32 64 (1048576)
I0308 15:33:04.712373 31542 net.cpp:129] Top shape: 1 512 32 64 (1048576)
I0308 15:33:04.712378 31542 net.cpp:129] Top shape: 1 512 32 64 (1048576)
I0308 15:33:04.712381 31542 net.cpp:129] Top shape: 1 512 32 64 (1048576)
I0308 15:33:04.712384 31542 net.cpp:129] Top shape: 1 512 32 64 (1048576)
I0308 15:33:04.712388 31542 net.cpp:137] Memory required for data: 557842432
I0308 15:33:04.712390 31542 layer_factory.hpp:77] Creating layer psp.pool1
I0308 15:33:04.712399 31542 net.cpp:84] Creating Layer psp.pool1
I0308 15:33:04.712402 31542 net.cpp:406] psp.pool1 <- res4.2.sum_res4.2.relu_0_split_0
I0308 15:33:04.712419 31542 net.cpp:380] psp.pool1 -> psp.pool1
I0308 15:33:04.713081 31542 net.cpp:122] Setting up psp.pool1
I0308 15:33:04.713096 31542 net.cpp:129] Top shape: 1 512 1 2 (1024)
I0308 15:33:04.713112 31542 net.cpp:137] Memory required for data: 557846528
I0308 15:33:04.713116 31542 layer_factory.hpp:77] Creating layer psp.pool1.conv
I0308 15:33:04.713125 31542 net.cpp:84] Creating Layer psp.pool1.conv
I0308 15:33:04.713129 31542 net.cpp:406] psp.pool1.conv <- psp.pool1
I0308 15:33:04.713136 31542 net.cpp:380] psp.pool1.conv -> psp.pool1.conv
I0308 15:33:04.715143 31542 net.cpp:122] Setting up psp.pool1.conv
I0308 15:33:04.715173 31542 net.cpp:129] Top shape: 1 128 1 2 (256)
I0308 15:33:04.715176 31542 net.cpp:137] Memory required for data: 557847552
I0308 15:33:04.715183 31542 layer_factory.hpp:77] Creating layer psp.pool1.conv/relu
I0308 15:33:04.715193 31542 net.cpp:84] Creating Layer psp.pool1.conv/relu
I0308 15:33:04.715196 31542 net.cpp:406] psp.pool1.conv/relu <- psp.pool1.conv
I0308 15:33:04.715204 31542 net.cpp:367] psp.pool1.conv/relu -> psp.pool1.conv (in-place)
I0308 15:33:04.715834 31542 net.cpp:122] Setting up psp.pool1.conv/relu
I0308 15:33:04.715850 31542 net.cpp:129] Top shape: 1 128 1 2 (256)
I0308 15:33:04.715854 31542 net.cpp:137] Memory required for data: 557848576
I0308 15:33:04.715857 31542 layer_factory.hpp:77] Creating layer psp.pool1.interp
I0308 15:33:04.715865 31542 net.cpp:84] Creating Layer psp.pool1.interp
I0308 15:33:04.715869 31542 net.cpp:406] psp.pool1.interp <- psp.pool1.conv
I0308 15:33:04.715874 31542 net.cpp:380] psp.pool1.interp -> psp.pool1.interp
I0308 15:33:04.715930 31542 net.cpp:122] Setting up psp.pool1.interp
I0308 15:33:04.715940 31542 net.cpp:129] Top shape: 1 128 32 64 (262144)
I0308 15:33:04.715943 31542 net.cpp:137] Memory required for data: 558897152
I0308 15:33:04.715947 31542 layer_factory.hpp:77] Creating layer psp.pool2
I0308 15:33:04.715955 31542 net.cpp:84] Creating Layer psp.pool2
I0308 15:33:04.715960 31542 net.cpp:406] psp.pool2 <- res4.2.sum_res4.2.relu_0_split_1
I0308 15:33:04.715965 31542 net.cpp:380] psp.pool2 -> psp.pool2
I0308 15:33:04.716457 31542 net.cpp:122] Setting up psp.pool2
I0308 15:33:04.716470 31542 net.cpp:129] Top shape: 1 512 2 4 (4096)
I0308 15:33:04.716473 31542 net.cpp:137] Memory required for data: 558913536
I0308 15:33:04.716478 31542 layer_factory.hpp:77] Creating layer psp.pool2.conv
I0308 15:33:04.716500 31542 net.cpp:84] Creating Layer psp.pool2.conv
I0308 15:33:04.716503 31542 net.cpp:406] psp.pool2.conv <- psp.pool2
I0308 15:33:04.716511 31542 net.cpp:380] psp.pool2.conv -> psp.pool2.conv
I0308 15:33:04.718510 31542 net.cpp:122] Setting up psp.pool2.conv
I0308 15:33:04.718525 31542 net.cpp:129] Top shape: 1 128 2 4 (1024)
I0308 15:33:04.718529 31542 net.cpp:137] Memory required for data: 558917632
I0308 15:33:04.718535 31542 layer_factory.hpp:77] Creating layer psp.pool2.conv/relu
I0308 15:33:04.718542 31542 net.cpp:84] Creating Layer psp.pool2.conv/relu
I0308 15:33:04.718546 31542 net.cpp:406] psp.pool2.conv/relu <- psp.pool2.conv
I0308 15:33:04.718554 31542 net.cpp:367] psp.pool2.conv/relu -> psp.pool2.conv (in-place)
I0308 15:33:04.719255 31542 net.cpp:122] Setting up psp.pool2.conv/relu
I0308 15:33:04.719282 31542 net.cpp:129] Top shape: 1 128 2 4 (1024)
I0308 15:33:04.719286 31542 net.cpp:137] Memory required for data: 558921728
I0308 15:33:04.719290 31542 layer_factory.hpp:77] Creating layer psp.pool2.interp
I0308 15:33:04.719297 31542 net.cpp:84] Creating Layer psp.pool2.interp
I0308 15:33:04.719302 31542 net.cpp:406] psp.pool2.interp <- psp.pool2.conv
I0308 15:33:04.719310 31542 net.cpp:380] psp.pool2.interp -> psp.pool2.interp
I0308 15:33:04.719363 31542 net.cpp:122] Setting up psp.pool2.interp
I0308 15:33:04.719373 31542 net.cpp:129] Top shape: 1 128 32 64 (262144)
I0308 15:33:04.719377 31542 net.cpp:137] Memory required for data: 559970304
I0308 15:33:04.719380 31542 layer_factory.hpp:77] Creating layer psp.pool3
I0308 15:33:04.719386 31542 net.cpp:84] Creating Layer psp.pool3
I0308 15:33:04.719424 31542 net.cpp:406] psp.pool3 <- res4.2.sum_res4.2.relu_0_split_2
I0308 15:33:04.719432 31542 net.cpp:380] psp.pool3 -> psp.pool3
I0308 15:33:04.719920 31542 net.cpp:122] Setting up psp.pool3
I0308 15:33:04.719933 31542 net.cpp:129] Top shape: 1 512 4 8 (16384)
I0308 15:33:04.719949 31542 net.cpp:137] Memory required for data: 560035840
I0308 15:33:04.719952 31542 layer_factory.hpp:77] Creating layer psp.pool3.conv
I0308 15:33:04.719964 31542 net.cpp:84] Creating Layer psp.pool3.conv
I0308 15:33:04.719967 31542 net.cpp:406] psp.pool3.conv <- psp.pool3
I0308 15:33:04.719974 31542 net.cpp:380] psp.pool3.conv -> psp.pool3.conv
I0308 15:33:04.722442 31542 net.cpp:122] Setting up psp.pool3.conv
I0308 15:33:04.722458 31542 net.cpp:129] Top shape: 1 128 4 8 (4096)
I0308 15:33:04.722474 31542 net.cpp:137] Memory required for data: 560052224
I0308 15:33:04.722481 31542 layer_factory.hpp:77] Creating layer psp.pool3.conv/relu
I0308 15:33:04.722489 31542 net.cpp:84] Creating Layer psp.pool3.conv/relu
I0308 15:33:04.722494 31542 net.cpp:406] psp.pool3.conv/relu <- psp.pool3.conv
I0308 15:33:04.722501 31542 net.cpp:367] psp.pool3.conv/relu -> psp.pool3.conv (in-place)
I0308 15:33:04.723131 31542 net.cpp:122] Setting up psp.pool3.conv/relu
I0308 15:33:04.723158 31542 net.cpp:129] Top shape: 1 128 4 8 (4096)
I0308 15:33:04.723162 31542 net.cpp:137] Memory required for data: 560068608
I0308 15:33:04.723165 31542 layer_factory.hpp:77] Creating layer psp.pool3.interp
I0308 15:33:04.723175 31542 net.cpp:84] Creating Layer psp.pool3.interp
I0308 15:33:04.723178 31542 net.cpp:406] psp.pool3.interp <- psp.pool3.conv
I0308 15:33:04.723184 31542 net.cpp:380] psp.pool3.interp -> psp.pool3.interp
I0308 15:33:04.723237 31542 net.cpp:122] Setting up psp.pool3.interp
I0308 15:33:04.723245 31542 net.cpp:129] Top shape: 1 128 32 64 (262144)
I0308 15:33:04.723248 31542 net.cpp:137] Memory required for data: 561117184
I0308 15:33:04.723251 31542 layer_factory.hpp:77] Creating layer psp.pool4
I0308 15:33:04.723258 31542 net.cpp:84] Creating Layer psp.pool4
I0308 15:33:04.723263 31542 net.cpp:406] psp.pool4 <- res4.2.sum_res4.2.relu_0_split_3
I0308 15:33:04.723268 31542 net.cpp:380] psp.pool4 -> psp.pool4
I0308 15:33:04.723937 31542 net.cpp:122] Setting up psp.pool4
I0308 15:33:04.723953 31542 net.cpp:129] Top shape: 1 512 8 16 (65536)
I0308 15:33:04.723956 31542 net.cpp:137] Memory required for data: 561379328
I0308 15:33:04.723959 31542 layer_factory.hpp:77] Creating layer psp.pool4.conv
I0308 15:33:04.723969 31542 net.cpp:84] Creating Layer psp.pool4.conv
I0308 15:33:04.723975 31542 net.cpp:406] psp.pool4.conv <- psp.pool4
I0308 15:33:04.723980 31542 net.cpp:380] psp.pool4.conv -> psp.pool4.conv
I0308 15:33:04.726130 31542 net.cpp:122] Setting up psp.pool4.conv
I0308 15:33:04.726146 31542 net.cpp:129] Top shape: 1 128 8 16 (16384)
I0308 15:33:04.726150 31542 net.cpp:137] Memory required for data: 561444864
I0308 15:33:04.726156 31542 layer_factory.hpp:77] Creating layer psp.pool4.conv/relu
I0308 15:33:04.726164 31542 net.cpp:84] Creating Layer psp.pool4.conv/relu
I0308 15:33:04.726169 31542 net.cpp:406] psp.pool4.conv/relu <- psp.pool4.conv
I0308 15:33:04.726174 31542 net.cpp:367] psp.pool4.conv/relu -> psp.pool4.conv (in-place)
I0308 15:33:04.726687 31542 net.cpp:122] Setting up psp.pool4.conv/relu
I0308 15:33:04.726701 31542 net.cpp:129] Top shape: 1 128 8 16 (16384)
I0308 15:33:04.726716 31542 net.cpp:137] Memory required for data: 561510400
I0308 15:33:04.726719 31542 layer_factory.hpp:77] Creating layer psp.pool4.interp
I0308 15:33:04.726727 31542 net.cpp:84] Creating Layer psp.pool4.interp
I0308 15:33:04.726732 31542 net.cpp:406] psp.pool4.interp <- psp.pool4.conv
I0308 15:33:04.726737 31542 net.cpp:380] psp.pool4.interp -> psp.pool4.interp
I0308 15:33:04.726779 31542 net.cpp:122] Setting up psp.pool4.interp
I0308 15:33:04.726788 31542 net.cpp:129] Top shape: 1 128 32 64 (262144)
I0308 15:33:04.726791 31542 net.cpp:137] Memory required for data: 562558976
I0308 15:33:04.726794 31542 layer_factory.hpp:77] Creating layer psp.concat
I0308 15:33:04.726812 31542 net.cpp:84] Creating Layer psp.concat
I0308 15:33:04.726817 31542 net.cpp:406] psp.concat <- res4.2.sum_res4.2.relu_0_split_4
I0308 15:33:04.726822 31542 net.cpp:406] psp.concat <- psp.pool1.interp
I0308 15:33:04.726826 31542 net.cpp:406] psp.concat <- psp.pool2.interp
I0308 15:33:04.726830 31542 net.cpp:406] psp.concat <- psp.pool3.interp
I0308 15:33:04.726833 31542 net.cpp:406] psp.concat <- psp.pool4.interp
I0308 15:33:04.726840 31542 net.cpp:380] psp.concat -> psp.concat
I0308 15:33:04.726876 31542 net.cpp:122] Setting up psp.concat
I0308 15:33:04.726883 31542 net.cpp:129] Top shape: 1 1024 32 64 (2097152)
I0308 15:33:04.726886 31542 net.cpp:137] Memory required for data: 570947584
I0308 15:33:04.726889 31542 layer_factory.hpp:77] Creating layer psp.concat.conv
I0308 15:33:04.726898 31542 net.cpp:84] Creating Layer psp.concat.conv
I0308 15:33:04.726902 31542 net.cpp:406] psp.concat.conv <- psp.concat
I0308 15:33:04.726908 31542 net.cpp:380] psp.concat.conv -> psp.concat.conv
I0308 15:33:04.736526 31542 net.cpp:122] Setting up psp.concat.conv
I0308 15:33:04.736557 31542 net.cpp:129] Top shape: 1 512 32 64 (1048576)
I0308 15:33:04.736560 31542 net.cpp:137] Memory required for data: 575141888
I0308 15:33:04.736569 31542 layer_factory.hpp:77] Creating layer psp.concat.conv/relu
I0308 15:33:04.736583 31542 net.cpp:84] Creating Layer psp.concat.conv/relu
I0308 15:33:04.736588 31542 net.cpp:406] psp.concat.conv/relu <- psp.concat.conv
I0308 15:33:04.736593 31542 net.cpp:367] psp.concat.conv/relu -> psp.concat.conv (in-place)
I0308 15:33:04.737222 31542 net.cpp:122] Setting up psp.concat.conv/relu
I0308 15:33:04.737249 31542 net.cpp:129] Top shape: 1 512 32 64 (1048576)
I0308 15:33:04.737253 31542 net.cpp:137] Memory required for data: 579336192
I0308 15:33:04.737257 31542 layer_factory.hpp:77] Creating layer Decoder_wc3
I0308 15:33:04.737267 31542 net.cpp:84] Creating Layer Decoder_wc3
I0308 15:33:04.737272 31542 net.cpp:406] Decoder_wc3 <- res2.2.sum_res2.2.relu_0_split_2
I0308 15:33:04.737278 31542 net.cpp:380] Decoder_wc3 -> Decoder_wc3
I0308 15:33:04.739506 31542 net.cpp:122] Setting up Decoder_wc3
I0308 15:33:04.739522 31542 net.cpp:129] Top shape: 1 32 128 256 (1048576)
I0308 15:33:04.739537 31542 net.cpp:137] Memory required for data: 583530496
I0308 15:33:04.739557 31542 layer_factory.hpp:77] Creating layer Decoder_wc3/relu
I0308 15:33:04.739565 31542 net.cpp:84] Creating Layer Decoder_wc3/relu
I0308 15:33:04.739569 31542 net.cpp:406] Decoder_wc3/relu <- Decoder_wc3
I0308 15:33:04.739586 31542 net.cpp:367] Decoder_wc3/relu -> Decoder_wc3 (in-place)
I0308 15:33:04.740052 31542 net.cpp:122] Setting up Decoder_wc3/relu
I0308 15:33:04.740065 31542 net.cpp:129] Top shape: 1 32 128 256 (1048576)
I0308 15:33:04.740080 31542 net.cpp:137] Memory required for data: 587724800
I0308 15:33:04.740084 31542 layer_factory.hpp:77] Creating layer Decoder_wc4
I0308 15:33:04.740092 31542 net.cpp:84] Creating Layer Decoder_wc4
I0308 15:33:04.740097 31542 net.cpp:406] Decoder_wc4 <- res3.2.sum_res3.2.relu_0_split_2
I0308 15:33:04.740104 31542 net.cpp:380] Decoder_wc4 -> Decoder_wc4
I0308 15:33:04.742092 31542 net.cpp:122] Setting up Decoder_wc4
I0308 15:33:04.742108 31542 net.cpp:129] Top shape: 1 32 64 128 (262144)
I0308 15:33:04.742112 31542 net.cpp:137] Memory required for data: 588773376
I0308 15:33:04.742120 31542 layer_factory.hpp:77] Creating layer Decoder_wc4/relu
I0308 15:33:04.742125 31542 net.cpp:84] Creating Layer Decoder_wc4/relu
I0308 15:33:04.742130 31542 net.cpp:406] Decoder_wc4/relu <- Decoder_wc4
I0308 15:33:04.742136 31542 net.cpp:367] Decoder_wc4/relu -> Decoder_wc4 (in-place)
I0308 15:33:04.742771 31542 net.cpp:122] Setting up Decoder_wc4/relu
I0308 15:33:04.742786 31542 net.cpp:129] Top shape: 1 32 64 128 (262144)
I0308 15:33:04.742789 31542 net.cpp:137] Memory required for data: 589821952
I0308 15:33:04.742792 31542 layer_factory.hpp:77] Creating layer Decoder_wc5
I0308 15:33:04.742801 31542 net.cpp:84] Creating Layer Decoder_wc5
I0308 15:33:04.742806 31542 net.cpp:406] Decoder_wc5 <- psp.concat.conv
I0308 15:33:04.742833 31542 net.cpp:380] Decoder_wc5 -> Decoder_wc5
I0308 15:33:04.745442 31542 net.cpp:122] Setting up Decoder_wc5
I0308 15:33:04.745460 31542 net.cpp:129] Top shape: 1 512 32 64 (1048576)
I0308 15:33:04.745465 31542 net.cpp:137] Memory required for data: 594016256
I0308 15:33:04.745471 31542 layer_factory.hpp:77] Creating layer Decoder_wc5/relu
I0308 15:33:04.745477 31542 net.cpp:84] Creating Layer Decoder_wc5/relu
I0308 15:33:04.745481 31542 net.cpp:406] Decoder_wc5/relu <- Decoder_wc5
I0308 15:33:04.745487 31542 net.cpp:367] Decoder_wc5/relu -> Decoder_wc5 (in-place)
I0308 15:33:04.746125 31542 net.cpp:122] Setting up Decoder_wc5/relu
I0308 15:33:04.746140 31542 net.cpp:129] Top shape: 1 512 32 64 (1048576)
I0308 15:33:04.746143 31542 net.cpp:137] Memory required for data: 598210560
I0308 15:33:04.746147 31542 layer_factory.hpp:77] Creating layer Decoder4_4.proj
I0308 15:33:04.746156 31542 net.cpp:84] Creating Layer Decoder4_4.proj
I0308 15:33:04.746160 31542 net.cpp:406] Decoder4_4.proj <- Decoder_wc5
I0308 15:33:04.746166 31542 net.cpp:380] Decoder4_4.proj -> Decoder4_4.proj
I0308 15:33:04.748212 31542 net.cpp:122] Setting up Decoder4_4.proj
I0308 15:33:04.748229 31542 net.cpp:129] Top shape: 1 32 32 64 (65536)
I0308 15:33:04.748232 31542 net.cpp:137] Memory required for data: 598472704
I0308 15:33:04.748239 31542 layer_factory.hpp:77] Creating layer Decoder4_4.proj/relu
I0308 15:33:04.748246 31542 net.cpp:84] Creating Layer Decoder4_4.proj/relu
I0308 15:33:04.748251 31542 net.cpp:406] Decoder4_4.proj/relu <- Decoder4_4.proj
I0308 15:33:04.748256 31542 net.cpp:367] Decoder4_4.proj/relu -> Decoder4_4.proj (in-place)
I0308 15:33:04.748723 31542 net.cpp:122] Setting up Decoder4_4.proj/relu
I0308 15:33:04.748735 31542 net.cpp:129] Top shape: 1 32 32 64 (65536)
I0308 15:33:04.748739 31542 net.cpp:137] Memory required for data: 598734848
I0308 15:33:04.748741 31542 layer_factory.hpp:77] Creating layer Decoder4_4.proj/up2
I0308 15:33:04.748752 31542 net.cpp:84] Creating Layer Decoder4_4.proj/up2
I0308 15:33:04.748757 31542 net.cpp:406] Decoder4_4.proj/up2 <- Decoder4_4.proj
I0308 15:33:04.748764 31542 net.cpp:380] Decoder4_4.proj/up2 -> Decoder4_4.proj/up2
I0308 15:33:04.802218 31542 net.cpp:122] Setting up Decoder4_4.proj/up2
I0308 15:33:04.802238 31542 net.cpp:129] Top shape: 1 32 64 128 (262144)
I0308 15:33:04.802242 31542 net.cpp:137] Memory required for data: 599783424
I0308 15:33:04.802250 31542 layer_factory.hpp:77] Creating layer Decoder4_4.concat
I0308 15:33:04.802258 31542 net.cpp:84] Creating Layer Decoder4_4.concat
I0308 15:33:04.802263 31542 net.cpp:406] Decoder4_4.concat <- Decoder_wc4
I0308 15:33:04.802268 31542 net.cpp:406] Decoder4_4.concat <- Decoder4_4.proj/up2
I0308 15:33:04.802273 31542 net.cpp:380] Decoder4_4.concat -> Decoder4_4.concat
I0308 15:33:04.802332 31542 net.cpp:122] Setting up Decoder4_4.concat
I0308 15:33:04.802341 31542 net.cpp:129] Top shape: 1 64 64 128 (524288)
I0308 15:33:04.802345 31542 net.cpp:137] Memory required for data: 601880576
I0308 15:33:04.802348 31542 layer_factory.hpp:77] Creating layer Decoder4_4.conv1
I0308 15:33:04.802357 31542 net.cpp:84] Creating Layer Decoder4_4.conv1
I0308 15:33:04.802361 31542 net.cpp:406] Decoder4_4.conv1 <- Decoder4_4.concat
I0308 15:33:04.802367 31542 net.cpp:380] Decoder4_4.conv1 -> Decoder4_4.conv1
I0308 15:33:04.804566 31542 net.cpp:122] Setting up Decoder4_4.conv1
I0308 15:33:04.804584 31542 net.cpp:129] Top shape: 1 32 64 128 (262144)
I0308 15:33:04.804587 31542 net.cpp:137] Memory required for data: 602929152
I0308 15:33:04.804594 31542 layer_factory.hpp:77] Creating layer Decoder4_4.conv1/relu
I0308 15:33:04.804601 31542 net.cpp:84] Creating Layer Decoder4_4.conv1/relu
I0308 15:33:04.804605 31542 net.cpp:406] Decoder4_4.conv1/relu <- Decoder4_4.conv1
I0308 15:33:04.804610 31542 net.cpp:367] Decoder4_4.conv1/relu -> Decoder4_4.conv1 (in-place)
I0308 15:33:04.805280 31542 net.cpp:122] Setting up Decoder4_4.conv1/relu
I0308 15:33:04.805295 31542 net.cpp:129] Top shape: 1 32 64 128 (262144)
I0308 15:33:04.805310 31542 net.cpp:137] Memory required for data: 603977728
I0308 15:33:04.805313 31542 layer_factory.hpp:77] Creating layer Decoder3_3.proj
I0308 15:33:04.805322 31542 net.cpp:84] Creating Layer Decoder3_3.proj
I0308 15:33:04.805327 31542 net.cpp:406] Decoder3_3.proj <- Decoder4_4.conv1
I0308 15:33:04.805333 31542 net.cpp:380] Decoder3_3.proj -> Decoder3_3.proj
I0308 15:33:04.807502 31542 net.cpp:122] Setting up Decoder3_3.proj
I0308 15:33:04.807518 31542 net.cpp:129] Top shape: 1 32 64 128 (262144)
I0308 15:33:04.807521 31542 net.cpp:137] Memory required for data: 605026304
I0308 15:33:04.807528 31542 layer_factory.hpp:77] Creating layer Decoder3_3.proj/relu
I0308 15:33:04.807536 31542 net.cpp:84] Creating Layer Decoder3_3.proj/relu
I0308 15:33:04.807540 31542 net.cpp:406] Decoder3_3.proj/relu <- Decoder3_3.proj
I0308 15:33:04.807545 31542 net.cpp:367] Decoder3_3.proj/relu -> Decoder3_3.proj (in-place)
I0308 15:33:04.808032 31542 net.cpp:122] Setting up Decoder3_3.proj/relu
I0308 15:33:04.808044 31542 net.cpp:129] Top shape: 1 32 64 128 (262144)
I0308 15:33:04.808048 31542 net.cpp:137] Memory required for data: 606074880
I0308 15:33:04.808051 31542 layer_factory.hpp:77] Creating layer Decoder3_3.proj/up2
I0308 15:33:04.808060 31542 net.cpp:84] Creating Layer Decoder3_3.proj/up2
I0308 15:33:04.808064 31542 net.cpp:406] Decoder3_3.proj/up2 <- Decoder3_3.proj
I0308 15:33:04.808071 31542 net.cpp:380] Decoder3_3.proj/up2 -> Decoder3_3.proj/up2
I0308 15:33:04.863929 31542 net.cpp:122] Setting up Decoder3_3.proj/up2
I0308 15:33:04.863950 31542 net.cpp:129] Top shape: 1 32 128 256 (1048576)
I0308 15:33:04.863955 31542 net.cpp:137] Memory required for data: 610269184
I0308 15:33:04.863960 31542 layer_factory.hpp:77] Creating layer Decoder3_3.concat
I0308 15:33:04.863967 31542 net.cpp:84] Creating Layer Decoder3_3.concat
I0308 15:33:04.863971 31542 net.cpp:406] Decoder3_3.concat <- Decoder_wc3
I0308 15:33:04.863976 31542 net.cpp:406] Decoder3_3.concat <- Decoder3_3.proj/up2
I0308 15:33:04.863983 31542 net.cpp:380] Decoder3_3.concat -> Decoder3_3.concat
I0308 15:33:04.864048 31542 net.cpp:122] Setting up Decoder3_3.concat
I0308 15:33:04.864056 31542 net.cpp:129] Top shape: 1 64 128 256 (2097152)
I0308 15:33:04.864060 31542 net.cpp:137] Memory required for data: 618657792
I0308 15:33:04.864063 31542 layer_factory.hpp:77] Creating layer Decoder3_3.conv1
I0308 15:33:04.864073 31542 net.cpp:84] Creating Layer Decoder3_3.conv1
I0308 15:33:04.864076 31542 net.cpp:406] Decoder3_3.conv1 <- Decoder3_3.concat
I0308 15:33:04.864082 31542 net.cpp:380] Decoder3_3.conv1 -> Decoder3_3.conv1
I0308 15:33:04.866545 31542 net.cpp:122] Setting up Decoder3_3.conv1
I0308 15:33:04.866561 31542 net.cpp:129] Top shape: 1 32 128 256 (1048576)
I0308 15:33:04.866565 31542 net.cpp:137] Memory required for data: 622852096
I0308 15:33:04.866572 31542 layer_factory.hpp:77] Creating layer Decoder3_3.conv1/relu
I0308 15:33:04.866578 31542 net.cpp:84] Creating Layer Decoder3_3.conv1/relu
I0308 15:33:04.866582 31542 net.cpp:406] Decoder3_3.conv1/relu <- Decoder3_3.conv1
I0308 15:33:04.866588 31542 net.cpp:367] Decoder3_3.conv1/relu -> Decoder3_3.conv1 (in-place)
I0308 15:33:04.867302 31542 net.cpp:122] Setting up Decoder3_3.conv1/relu
I0308 15:33:04.867318 31542 net.cpp:129] Top shape: 1 32 128 256 (1048576)
I0308 15:33:04.867321 31542 net.cpp:137] Memory required for data: 627046400
I0308 15:33:04.867326 31542 layer_factory.hpp:77] Creating layer Decoder_score
I0308 15:33:04.867336 31542 net.cpp:84] Creating Layer Decoder_score
I0308 15:33:04.867339 31542 net.cpp:406] Decoder_score <- Decoder3_3.conv1
I0308 15:33:04.867346 31542 net.cpp:380] Decoder_score -> Decoder_score
I0308 15:33:04.870144 31542 net.cpp:122] Setting up Decoder_score
I0308 15:33:04.870160 31542 net.cpp:129] Top shape: 1 19 128 256 (622592)
I0308 15:33:04.870164 31542 net.cpp:137] Memory required for data: 629536768
I0308 15:33:04.870172 31542 net.cpp:200] Decoder_score does not need backward computation.
I0308 15:33:04.870178 31542 net.cpp:200] Decoder3_3.conv1/relu does not need backward computation.
I0308 15:33:04.870201 31542 net.cpp:200] Decoder3_3.conv1 does not need backward computation.
I0308 15:33:04.870205 31542 net.cpp:200] Decoder3_3.concat does not need backward computation.
…
